learning_to_comparenodes/learning/policy_wpms.pkl (torch, 12350 bytes, 22 tensors)

cons_embedding.0.weight f4 [4]
00000000: 85f5 533f cb69 663f 0d9c 7a3f 8a1d 6a3f
0.8279651 0.9000518 0.97894365 0.91451323

cons_embedding.0.bias f4 [4]
00000000: 71a8 3e3e 4f47 8cbd 6963 4ebb e4d0 823d
0.18618943 -0.068495385 -0.0031492359 0.06387499

cons_embedding.1.weight f4 [32, 4]
00000000: 94bf 813e 5033 1fbe 7a25 8ebe cccb 3f3e
00000010: be33 603c a670 afbe f693 e23e 7ccb e8be
00000020: fca1 093f dbd9 78be cdf5 823c 3287 0cbe
00000030: 4198 cabd 6801 c1be afda eebe 3585 babe
00000040: 925a 63be 03a5 28be e382 0e3e 928e 9d3d
00000050: 34f1 dbbe 32b6 dbbe 8546 323d f159 e9bd
00000060: 0070 33be caaf 973e 804c ef3c acef 733e
00000070: f57a 5c3d 27c0 c03e 3356 f63e fe25 babe
00000080: d784 9d3e faeb 04be 5a93 5bbe dac0 44be
00000090: 75c2 e23d ca38 13bf 98ed 853d bfa2 ea3d
000000a0: a803 c9be 20de b4be 4627 b6be 5eb9 bd3e
000000b0: 9497 283e 608e c9bc a05f 81be 9847 edbd
000000c0: cc46 4b3e e0a6 80be 16a1 b23e 4c97 f93e
000000d0: f145 1bbe 46bf 323e 94ce 4cbd d601 893e
000000e0: a838 1f3c 2c24 8e3d 4097 8bbe 5786 28be
000000f0: 6337 5abe 8235 28bb b0d0 51be 0511 17bc
00000100: 0835 e03d 2e8a fd3e 10c5 4b3e 24c8 b33e
00000110: cd7c 3d3e 761a c7be e13a babe b9dc 50be
00000120: 4842 01be 7ec2 c7be 80b4 ed3e 1851 973e
00000130: 2f0d 52be 4d97 cfbe 3652 943e 28f0 d63d
00000140: c860 2cbe 18cc 0c3e d7eb 173e 2f66 c83e
00000150: dada b83e 2ebd d1be 1049 23be 500f b93d
00000160: f5e0 5a3e f8fe 333e c2d2 e5be ea4b 903d
00000170: 55bb 7c3e c5d1 dbbe 04ef 16bf 3186 47bd
00000180: 9aba 273e 9476 3cbe 334d d23d e4e4 3cbd
00000190: b425 883e 6099 0a3d eca2 053e f462 5b3e
000001a0: 3824 83bd b28d 773e d386 033f fb1a 8ebe
000001b0: 80af 3e3c 809a 81be 2c62 dbbe 386e d7bd
000001c0: ee6d bf3e 1050 f43d 7ce4 e1be 4422 c23e
000001d0: 5059 1abe 06f6 dabe e0a3 ffbc d069 46bd
000001e0: 6f03 06bf 776b d6be 6bd4 bbbd ba26 c8bd
000001f0: fe22 ce3e a687 9f3e 6462 13be 2ac5 d83e
0.25341475 -0.15546918 -0.27762967 0.18730086 0.013684211 -0.3426563 0.4425351 -0.45467746
0.53762794 -0.24301855 0.015986348 -0.13723448 -0.098923214 -0.37696385 -0.46651217 -0.36429754
-0.22202519 -0.16469197 0.13917117 0.07693209 -0.4295746 -0.42912441 0.043524284 -0.11394108
-0.17523193 0.29626304 0.029211283 0.23821896 0.0538282 0.376466 0.4811264 -0.3635711
0.3076541 -0.12980643 -0.21442929 -0.19214192 0.11072246 -0.5750853 0.06539458 0.114568226
-0.39260602 -0.35325718 -0.35576838 0.37055486 0.16464072 -0.024604023 -0.2526827 -0.11585921
0.19851226 -0.25127316 0.34888524 0.48748243 -0.151634 0.17455778 -0.050001696 0.26759213
0.009718098 0.06940493 -0.27263832 -0.16457497 -0.21310191 -0.0025666659 -0.20489764 -0.009220366
0.10947615 0.49519485 0.19899392 0.35113633 0.18504639 -0.38887376 -0.36373046 -0.20396699
-0.1262294 -0.39015573 0.46426773 0.29554057 -0.20512842 -0.4054512 0.28968972 0.10495025
-0.16833794 0.1374973 0.1483606 0.3914046 0.3610447 -0.40964645 -0.1594584 0.09036124
0.21374877 0.17577732 -0.44887358 0.070457295 0.24680836 -0.4293348 -0.5895846 -0.04871196
0.16379777 -0.18404609 0.10268631 -0.046116725 0.26591265 0.033837676 0.13050431 0.21424466
-0.064033926 0.24175146 0.513776 -0.2775496 0.011638522 -0.25313187 -0.42848337 -0.105190694
0.37388557 0.11929333 -0.44119632 0.37916768 -0.15073133 -0.42765826 -0.031206071 -0.048440754
-0.5234899 -0.41878864 -0.09171375 -0.097730115 0.40261072 0.3115818 -0.14393002 0.42337924

cons_embedding.1.bias f4 [32]
00000000: 34d4 7dbe 10e7 333e 0e8a 8b3d 7c61 bb3e
00000010: d277 f23d f871 98be b6f0 afbe e567 fe3d
00000020: c7c4 053e 4ba2 0e3e 58df 96bd e87a 4cbe
00000030: aadb 9ebe 8387 1ebe df41 1dbe e778 12be
00000040: f605 f1be 85f7 b7bd b8cf ebbe 11b2 2ebd
00000050: 438a a3bd d000 dbbe 0af3 863d 55b5 383e
00000060: 9e82 f2be 78ab bcbd 0b68 5f3e c0d2 18be
00000070: eeaa a63e 5427 2e3e e75c 933e f847 a53d
-0.2478798 0.17568612 0.06813441 0.36597812 0.1183926 -0.2977445 -0.34363335 0.1242216
0.13063346 0.13929097 -0.07366818 -0.1996876 -0.31026965 -0.15481381 -0.15357159 -0.14303933
-0.4707486 -0.089827575 -0.46056914 -0.042650286 -0.07985356 -0.42774057 0.06589325 0.18037923
-0.47365278 -0.092123926 0.21817033 -0.14924145 0.32552284 0.1700719 0.28781816 0.080703676

var_embedding.0.weight f4 [6]
00000000: bdd1 b63f f1ac 9b3f 0941 813f 069b 843f
00000010: 7c90 5e3f 4ec5 823f
1.4282757 1.2162153 1.0097972 1.0359809 0.86939216 1.0216463

var_embedding.0.bias f4 [6]
00000000: e522 5d3e 7900 83be f1a6 983d db8f 373d
00000010: 38f5 103d 0fb6 6e3d
0.21595342 -0.25586298 0.074537165 0.044814926 0.03539011 0.058279093

var_embedding.1.weight f4 [32, 6]
00000000: 4dc9 c4bd e906 e1be 7f46 7dbe 53ef a83e
00000010: 1946 9d3e 5ef6 463e 9345 8bbe ceb9 013e
00000020: f648 833e 3712 bfbd 4199 f83e 24dd d43e
00000030: 3521 2f3f f76d 23be 6a3c 34bd 0262 eb3e
00000040: d8cd 59be 52d2 4e3e 253b 1c3d 8b6d 973a
00000050: 123e b03e d3e4 d6be 1ede d6bd 8a36 8fbc
00000060: 6023 fbbd 5828 463e 38cf 8ebe a9b9 8abe
00000070: a823 fa3d 108f c23e 4ddd 363e c5cc d4bd
00000080: 0e9d 123e 125f a2be 6221 c63e 32a6 3fbe
00000090: 223a bfbe 7f28 073f 0119 8fbd 42e1 87be
000000a0: 4504 31be 20cc 9abe 7f97 d43d 6c8f f9bb
000000b0: a3bf 0fbe 24b6 8bbe 0286 6ebd 67b3 343e
000000c0: bb0e 3dbe c7c6 df3e 62c8 d9be e363 0a3e
000000d0: 799f 433e b5cf 843e 4bc1 0bbd bd35 f7be
000000e0: 95b6 7e3e da9c 023e 9058 8bbd 256e 333e
000000f0: a70f 0d3f e968 1abf 0a0b a4be 2a50 193f
00000100: adee 87be f396 0abf 4f01 9cbe 1c9e d6be
00000110: 56d0 b93e 386c 493e b5ce 6a3e 79d7 bfbd
00000120: ecd8 7d3e 0c73 81be 883b dcbd 0098 43b9
00000130: 6074 7bbd c22c c23e 6251 aebe cc37 36bf
00000140: 5184 283c 66eb 643e 9632 7bbe b8b8 25be
00000150: 9577 b03d bea5 93be 60d7 a2be 6126 8ebe
00000160: 6e4f 6bbe e0ef 0e3e 185d c5bd 3d08 d0be
00000170: d8d2 84be 3949 54be 000b 80be 9c9e 493e
00000180: 8acd 10bf f07f 183f 883c 883c 27b5 f53d
00000190: 6323 433e 2e98 7fbe 2d22 a73d 038c 1c3e
000001a0: 80fe c23d 58b2 34be 9250 35be a726 c83e
000001b0: 78dc 8b3e 7053 d0bd e059 bcbd f6e9 78be
000001c0: a802 d03d a067 6d3e 43ce bdbe 5676 6fbe
000001d0: 1027 abbc e0b4 afbe 70ec 8e3d 903c ecbc
000001e0: 08c4 f83e b9c2 a2be 6a9f 9fbe 4ea5 963e
000001f0: 4491 323e 2b66 99be 2ab2 29be b9da febe
00000200: 5c8b 9b3e 3caa 193e a891 92be 11e8 8d3d
00000210: d8b6 d03d 0718 42be d0d5 b43e 045b a1be
00000220: b2b2 33be ba2f 853e 30d7 863d b4ad a43d
00000230: d8ca a03e 6732 64bd 6d89 9e3e c4c5 b63e
00000240: e13b 983d f38b 733c ed59 b53e c897 0bbf
00000250: 6ec1 3a3e 75b6 ee3d 93b6 85be 90b2 b83e
00000260: 1842 df3c b342 413c ceb4 723e 4402 a6be
00000270: 0035 e23d 1fab 18be 4939 1f3e 163d b23e
00000280: d208 13be aac5 f53e ee75 963e 5a9b 143c
00000290: 6971 f43e 41c2 e0be af16 56be 044d db3e
000002a0: 0cfe 7a3e dabc 133e 3da7 133e 855f a1bd
000002b0: e6d4 9c3e 799f dd3e 3d9e 4abe 8f5d f53e
000002c0: edbd 7a3e dff9 0a3e 72f9 43be 6db2 503d
000002d0: e411 6d3e 1e31 c3be 2bd9 90be 0373 d2bd
000002e0: a2e3 9e3e 00ab 483e 311d bdbe 3eab 24bf
000002f0: b121 483e 2b81 de3d f1a0 c9be 750f 5f3e
-0.096087076 -0.43950585 -0.24733923 0.3299509 0.30717543 0.19429919 -0.27201518 0.12668535
0.25641602 -0.09329646 0.48554423 0.41574967 0.68410045 -0.15959917 -0.044002928 0.45973212
-0.2126993 0.20197418 0.038142342 0.0011553032 0.34422356 -0.41971454 -0.10491584 -0.017482061
-0.122626066 0.19351327 -0.2789247 -0.27094772 0.12213832 0.37999773 0.17857857 -0.10390619
0.14317724 -0.31713158 0.38697344 -0.18715742 -0.3734904 0.5279617 -0.06987191 -0.26539046
-0.17286785 -0.3023386 0.10380458 -0.007615974 -0.14037947 -0.272874 -0.05823327 0.17646562
-0.1846265 0.43706343 -0.42535692 0.13514666 0.19103803 0.25939718 -0.034119885 -0.48283187
0.24874337 0.12755147 -0.06804001 0.17522486 0.5510201 -0.6031633 -0.32039672 0.59887946
-0.26549283 -0.5413658 -0.30469748 -0.41917503 0.3629176 0.19670188 0.22930415 -0.0936727
0.2478978 -0.25283086 -0.10753542 -0.00018653274 -0.06139028 0.37924773 -0.34046465 -0.7117889
0.010285453 0.22355422 -0.24531016 -0.16183746 0.086165585 -0.2883739 -0.31804943 -0.27763656
-0.22979519 0.13958693 -0.09636897 -0.40631285 -0.2594211 -0.20731057 -0.25008392 0.19689411
-0.5656363 0.5957022 0.016630426 0.11997443 0.19056468 -0.24960396 0.081608154 0.15287785
0.09521198 -0.17646158 -0.17706516 0.3909199 0.27316642 -0.101721644 -0.0919683 -0.24307999
0.10156757 0.23184061 -0.37071428 -0.23384985 -0.02089265 -0.34317684 0.069786906 -0.028837472
0.4858706 -0.31789187 -0.3117631 0.29422992 0.17438227 -0.2996076 -0.1657187 -0.49776247
0.3037976 0.15006346 -0.28626752 0.06929029 0.10191125 -0.18954478 0.35319376 -0.31514752
-0.17548636 0.26012975 0.065840125 0.08040944 0.31404757 -0.05571213 0.30964223 0.35697758
0.07433296 0.014864909 0.3542017 -0.54528475 0.1823785 0.11655895 -0.26115856 0.36073732
0.027253196 0.0117956875 0.23701784 -0.32423604 0.11045265 -0.14909028 0.15549196 0.3481223
-0.14358833 0.48002368 0.29386848 0.009070242 0.47742775 -0.43898204 -0.2090709 0.42832196
0.24510974 0.1442751 0.14419265 -0.07879547 0.3063118 0.4328573 -0.19786926 0.47922942
0.24486513 0.13571881 -0.19138125 0.05095141 0.23151356 -0.3812341 -0.28290686 -0.10275843
0.31033045 0.19596481 -0.36936334 -0.64323795 0.19544102 0.108644806 -0.393806 0.2178324

var_embedding.1.bias f4 [32]
00000000: f168 123e f241 d2bc c1d2 c63e 9683 17be
00000010: d85e bfbe b9c0 28be a327 cd3e a67a 4e3d
00000020: 41ee 333d 3e1e 693d 350a de3e d8c2 ab3e
00000030: 527c 89be 6654 0a3e fb54 56be 0e2a cbbe
00000040: cd5d afbd 9dc4 f53d 58a9 39bd 726e b1be
00000050: 8627 393f 086d c53e 46da 36be 0014 0b3b
00000060: 2ea9 dd3b 93ea 26be b845 91be 9517 b2be
00000070: d13e 3b3e fd15 b8be 6fb4 813d 28d1 fb3e
0.14297844 -0.02566621 0.38832667 -0.1479629 -0.37377048 -0.16479768 0.40069303 0.050409935
0.04392839 0.056913607 0.43367162 0.3354709 -0.2685266 0.13508758 -0.20930855 -0.39680523
-0.08562813 0.12000392 -0.045327514 -0.34654576 0.7232593 0.38559747 -0.17856702 0.0021221638
0.0067645526 -0.1630042 -0.28373504 -0.34783617 0.18285681 -0.35954276 0.06333243 0.4918301

bounds_embedding.0.weight f4 [2]
00000000: 1458 c23f 86ce b93f
1.5183129 1.4516151

bounds_embedding.0.bias f4 [2]
00000000: 5e6f c83e f69d a2bd
0.39147466 -0.07940285

bounds_embedding.1.weight f4 [2, 2]
00000000: 8e28 80be af27 a3be 9c1d 923f 8229 d8be
-0.2503094 -0.31866214 1.1415286 -0.42219168

bounds_embedding.1.bias f4 [2]
00000000: 173d ca3d 9f72 ad3d
0.09874933 0.08469128

conv1.lin_rel.weight f4 [8, 32]
00000000: 4464 bc3d 001e 4ebe 08f1 1dbe 6112 d8ba
00000010: 5b88 10be 7ad3 cd3d 04ec a93d 0247 a4be
00000020: e6da bcbd 019b 93be 59f6 283f cc0e 763e
00000030: 185d dd3c 5f38 633e 4a45 4dbe 130f f2bd
00000040: 8b59 abbd 6a14 e03c aece cdbd 0b45 90bd
00000050: c32d 023e 0c7b 8c3e 7d56 fdbd 6c48 adba
00000060: 4fea 133e 39cc 72be 55bb 2cbd 621c 46bd
00000070: b5f2 a1bd 2fde 2fbe 5ae0 00be 6622 863e
00000080: d3f0 0a3e cca1 00bd fc1d 37bd 184d 6bbe
00000090: b2fd 823d 66c0 193e 9446 103d 5432 4bbe
000000a0: 0765 0f3d 4a8b a53d 6d17 863e bf1d 8e3e
000000b0: 0095 5eba 91ce 0d3e c341 1cbd 59eb 8a3d
000000c0: e08e 9a3e 7104 9bbd 92b4 33be 8652 1e3d
000000d0: 397c 85be 6126 143e 98d2 fe3d a9d5 17be
000000e0: e7cb 00be 3678 f93d d0cb 39be 8b7c 3c3e
000000f0: a8ff 403d e217 583e 17bf 1fbe baad 1c3e
00000100: 6bc9 eebe 3a58 b63d 663b 13be bfd0 333c
00000110: a2f0 b93d 922e 363d 2bbb 033d 1976 ee3d
00000120: fdf6 8c3c 4d78 683c ae78 35bf 42da debe
00000130: dede f7bd 0f70 9ebe c200 b4bd 2d61 c53c
00000140: 7b9d e23d a891 91bd fdf0 94bd d84e ed3c
00000150: 9104 eebe 3729 b0be 7145 4f3d 2202 d93d
00000160: 7340 083e ff04 033e 1891 4d3e 2781 ab3d
00000170: d597 aabd 156c cbbd ccd8 6dbd f006 97be
00000180: 84cb fdbe d83a 7bbe e056 adbe d6e9 69be
00000190: 2571 e3bd d6f3 f53d f56e a43d 6ba5 69be
000001a0: f55c 4abe 2c1e 783d 035d 41bf 7f8e a8be
000001b0: d426 123d f18b 0abe 5743 4bbc 0647 123e
000001c0: 25c8 19bd 48e3 343d 0cc0 4a3d 4518 c5bd
000001d0: 9d7d f7be ce08 4fbe 9bbe b33d 7d8a 8dbd
000001e0: bf48 a03d 3d07 133e 27d2 71be d003 173d
000001f0: 0029 613e de28 ba3d 7f3b e9bd f4b8 a9be
00000200: b07a ef3e 5b66 e3bb 8537 953e f6ee 00be
00000210: e6b1 413e 6e7a 3e3e e9c8 20be 4e8d db3d
00000220: c768 d4bd 8dec 5abd b1ba 243f 8416 ce3e
00000230: f575 17be 5ca2 233e 5712 e9bd acf0 a33d
00000240: e378 7fbe e71b 22bd e167 01be 24bd e13d
00000250: 866b 803f 97da b03e 664e e73d 9161 acbc
00000260: 7ed5 6c3d 8f99 6fbe f152 753e b6f9 2a3e
00000270: f873 9c3d f97d c0bd 1217 0e3e b0df 8b3e
00000280: e185 6a3c 31cd 103e e3dc fc3c 0295 2e3e
00000290: 9e3e ee3b 7553 a03d 4f4b e1bd ed72 143d
000002a0: f73a d93d 6019 743c d184 2e3e 0f8a a23e
000002b0: 502c 803c 340f ab3e f34a da3d ddee 123b
000002c0: 6952 d23d 174a 0cbe c0ed 43bc 1d94 8c3c
000002d0: 7434 a73e c759 873e 1381 48bd 98d5 4a3e
000002e0: e715 6ebc c62d 913d 6d74 803d 823e 1c3d
000002f0: 57c7 2ebe 1413 5abe 9c9f 7b3e 090d a43e
00000300: ce5e 293d b6ce 493d 2a4d 493e 885d 4abe
00000310: 2276 84bc d481 b63d e5cc 793d ae8d 6b3e
00000320: 0f07 b03e f3a2 683e 14d3 b13d 7ab4 763e
00000330: 9709 2b3e 8b4c 33bd 9f75 9bbd 3f0c 3c3c
00000340: 2542 9d3e 6e85 a1bd f24f c2bd d2d7 81bd
00000350: c3a1 313e 0000 933e 4029 57bd 23ae 04be
00000360: 3d09 313d 4e7b 5a3d ef14 4e3e 1749 353d
00000370: 3af9 b43d df12 b73e 62e3 513c e6d0 a93d
00000380: 9e67 23bd a0fc 843e f315 6cbe f837 dfbd
00000390: 948c 353e 05d1 14bd 9fa0 433d ce1d 563d
000003a0: 46a5 553e 7133 94be 4b07 15bf c6a1 82bd
000003b0: b41f 0ebe 5643 4cbe 68b3 013e 1732 053e
000003c0: 2558 823e d860 88bd 3ac9 f13d 25d1 bbbd
000003d0: b32e b2be f37d 85be b10d 323e 1e1d c73c
000003e0: fb32 323d 0cdb 2a3d e2a2 cdbd 71db 863f
000003f0: d40c f53d dbf5 9dbd c9a9 893e 0fd4 8bbe
0.09198812 -0.20128632 -0.15423977 -0.001648497 -0.14114515 0.100501016 0.082969695 -0.32085425
-0.09221439 -0.28829196 0.66000897 0.24029082 0.02702193 0.22189473 -0.20045963 -0.118192814
-0.08366688 0.027353484 -0.10049187 -0.07044419 0.12712769 0.27437627 -0.12370012 -0.0013220436
0.1444485 -0.23710717 -0.04217084 -0.04836691 -0.07907621 -0.171746 -0.12585583 0.2619812
0.1356843 -0.0314043 -0.04470633 -0.22978628 0.06396045 0.150148 0.03522356 -0.19843417
0.035008457 0.08083208 0.26189747 0.2775707 -0.00084908307 0.1384833 -0.038148653 0.0678317
0.3018713 -0.075692065 -0.17549351 0.03865292 -0.26071337 0.14467765 0.12442511 -0.14827599
-0.12577783 0.121811315 -0.18144155 0.18406884 0.047118813 0.2110286 -0.15600239 0.15300646
-0.46638045 0.08903547 -0.14378127 0.010975062 0.090791 0.044478007 0.03216092 0.11643619
0.017207617 0.014188838 -0.7088727 -0.43525892 -0.121030554 -0.3094487 -0.08789207 0.024094189
0.11065193 -0.0710786 -0.07272527 0.02896826 -0.4648786 -0.34406444 0.050603334 0.1059611
0.13305835 0.12794875 0.2007488 0.08374243 -0.08329741 -0.099327244 -0.05806808 -0.2949748
-0.49569333 -0.24534166 -0.33855343 -0.22843108 -0.11105565 0.12009399 0.08028976 -0.22817008
-0.19762023 0.06057565 -0.7553255 -0.32921216 0.03568156 -0.13529946 -0.012406192 0.14284906
-0.03754439 0.044162065 0.049499556 -0.0962377 -0.48338023 -0.20218202 0.087765895 -0.0691118
0.07826375 0.1435823 -0.23615323 0.03686887 0.21988297 0.09089826 -0.11388301 -0.3314892
0.4677329 -0.006939692 0.2914392 -0.12591156 0.18915519 0.1860139 -0.15701641 0.10720311
-0.10371547 -0.05344825 0.6434737 0.40251553 -0.14791091 0.15979904 -0.11380451 0.08004889
-0.24948458 -0.03957739 -0.12637283 0.11022404 1.0032814 0.3454177 0.1129425 -0.021042617
0.05782079 -0.23398422 0.23957421 0.1669682 0.07639307 -0.093990274 0.13875988 0.27319098
0.014314146 0.14140774 0.030867046 0.1704903 0.007270648 0.07828418 -0.11000692 0.036242414
0.1060695 0.014898628 0.17042853 0.31745955 0.01564613 0.33410037 0.10658827 0.0022420206
0.10269625 -0.13700138 -0.0119585395 0.01716047 0.32657206 0.26435682 -0.04895122 0.19808042
-0.014531589 0.07088809 0.062722065 0.03814555 -0.1706823 -0.2129634 0.24572605 0.32041195
0.04135018 0.0492694 0.19658342 -0.19762242 -0.016169611 0.089114815 0.06098642 0.23003265
0.34380385 0.2271841 0.08682838 0.24092284 0.16702877 -0.04377417 -0.07590794 0.011477529
0.30714527 -0.07886778 -0.094879046 -0.063399926 0.17346863 0.28710938 -0.052529573 -0.12957053
0.0432217 0.05334025 0.20125173 0.044259157 0.08836599 0.35756585 0.01281056 0.08291797
-0.03989374 0.25973988 -0.23055248 -0.10899347 0.17729408 -0.03633215 0.047760602 0.052274518
0.20863828 -0.28945497 -0.58214253 -0.06378512 -0.13879281 -0.19947562 0.12666094 0.13007389
0.25457874 -0.066590965 0.11805959 -0.091707505 -0.34801254 -0.26072654 0.17388035 0.024305876
0.04350565 0.041712806 -0.10040833 1.0535718 0.119653374 -0.07712909 0.26887348 -0.27310225

conv1.lin_rel.bias f4 [8]
00000000: f523 df3d 52fc 533e 792a 503e 0e20 7b3e
00000010: ac58 7cbe 04a1 323d 150e efbd 0d4d e63c
0.1089553 0.20701721 0.20328702 0.24523947 -0.246432 0.043610588 -0.11672608 0.028112913

conv1.lin_root.weight f4 [8, 32]
00000000: fe48 e8be 1117 dabd 42fa e6be 2f93 44be
00000010: ada4 14be 26b2 0dbd 7a92 143f 9f87 a1bc
00000020: b683 423e 31ca 60be a32e 64bf e29a bdbe
00000030: eb73 2dbe 7bfb 04bf 7346 463d d010 a53d
00000040: 6680 3e3f b9fc 313e 6c15 a4bd dc31 d03d
00000050: 0df0 27bf e5a0 06bf 8f99 b03d bee1 2cbe
00000060: 7aa2 273d 9f80 093f 3bca b9bc 7324 bfbd
00000070: a7ec 6cbd ca76 c73e 13fa 22be e113 0bbf
00000080: 6eed 04bf bb97 1fbe 5798 d9be a61e 833c
00000090: 4d0f a1be e0ec d63c a36a 0a3f cbd1 10bd
000000a0: 3471 8b3e 849b 26be b210 49bf 0c3d 21be
000000b0: 7483 5bbd 0d93 bdbe 8f1c 25be 40ff cc3c
000000c0: f0f3 1f3f 28a6 29bc cee3 efbd 1c6e 1cbe
000000d0: 78f9 54bf d468 51be 439e d4bd 45a8 293e
000000e0: e17d ed3c d9cd 123f 4937 85bd da06 df3d
000000f0: 3848 54bc b1f7 e63e fb35 813e e70b c1be
00000100: d514 953e 54be b83d a3dd ae3e 1b37 763d
00000110: 8471 7b3d 4d65 413d 8aee b6be d97c 3f3d
00000120: efa5 aebd 39a3 b83d 64c5 453f bd26 793e
00000130: b05b 773d 1a71 b63e 12f7 453e 0f81 f13d
00000140: 2d95 21bf f3fe 45be 1803 253d b8d8 383e
00000150: 1f6c 303e ad34 843e 928b b13d 0aa7 6d3e
00000160: afb6 d1bb c0a3 19bf bffc 9f3e db29 bdbd
00000170: 3f57 82bd 40f6 a3be 6bf1 f93d ee35 f13e
00000180: d1a7 1e3e 135a 3b3e 1d39 493e 89dc 26bd
00000190: ebd8 903d 1958 9fbc e5e3 74be 2cb3 013e
000001a0: 82fc 783c cd32 5e3d d625 dd3e 2c64 c2bd
000001b0: fc44 c6bd e3d2 143e 1456 9c3d c1b8 203c
000001c0: eb55 b6be 03e5 d9bd 0f4f 0dbe c66c 6bbd
000001d0: 698a 653e 7498 0c3d a6ab 12bd a565 623d
000001e0: 7dce 1ebe 4040 f4bd 5a66 4c3e 9c3e 01bf
000001f0: c16a d13d bd48 66be f7c6 e2bb 8737 fe3d
00000200: 8499 d93d b329 1b3c cdf1 27be 3507 b63d
00000210: 9b1b 563d 65e6 02bd b3b4 2e3d 56de 9dbd
00000220: a594 62bd e997 1dbe 0805 f43d f324 d93d
00000230: ed4e 343e 8bcc 593d 3d94 1f3d 5ea2 b6bd
00000240: f7c4 8dba 4756 02be 8947 043e 2a21 6d3c
00000250: 6771 873d 52dd f2bd f032 51bd 8d8a 003e
00000260: 3ccc c03d d9d3 23be 7967 a2bd 91c0 febd
00000270: 0220 a73d 76dc 0abe fed7 2bbd 5b0b 363d
00000280: e10f 453e 1d15 d43c 7a40 7ebe 5048 12be
00000290: 8ed3 113b 20e9 e0bd a146 f3bd e9aa ccbd
000002a0: 7d5b 853c ebf1 14be ce66 acbc 7fdf 74bc
000002b0: 3570 253e f45d e93c 0da1 953d 7451 e33d
000002c0: 48f5 b63d 3909 0f3e c9e3 013e 67d6 8a3c
000002d0: c424 fbbd fc08 0f3e 7a45 1e3e d43a 923c
000002e0: 8ddc 2d3c c2bc ffbd 4f4b e53d 01e6 ba3d
000002f0: 9812 fcbd c601 e4bd 48e3 bbbd d32a 03be
00000300: fd85 853f 1b86 b9be 6f7d a2be 9147 7d3d
00000310: a478 71bd 187d 813d e00c 48be 9d18 b0be
00000320: 5179 1bbe 9181 b53f 6ee3 ef3d e20e a33e
00000330: b064 e3bc ed92 1a3f 9305 1dbe 7ea4 4ebc
00000340: 983e 81be 0520 19be f6ab d03d a2fe 37be
00000350: 745c b03e fe50 833e eb6f 2cbe cfc0 dc3c
00000360: 5391 2abf df4a c6be 96d1 0a3f f59d b4be
00000370: cbbb 16be 955a c1be 0ddd 02be 8e0e c13e
00000380: 8a7b c0bd 3347 0d3e c687 803c ebce 243e
00000390: 4515 e33d d4df 583d b754 31be 1833 0d3e
000003a0: 8702 403b 1a17 0b3e 663c 25be a65e 16be
000003b0: 5a52 ab3d e297 a73c cb30 25bc ebc1 073e
000003c0: 1090 17be 5978 0fb9 d602 b93d a503 013e
000003d0: 2ca9 1e3e 1983 04be 800d 92ba 12d1 e5bc
000003e0: fab6 5dbe f4d4 d5bd 806e 3c3e 3893 433d
000003f0: 1036 7bbc f509 d9bc 6822 0c3e 9ca0 7a3d
-0.4536819 -0.10648931 -0.45112807 -0.19196771 -0.14515944 -0.034593724 0.58036005 -0.01971799
0.18995556 -0.2195213 -0.8913366 -0.3703223 -0.1693875 -0.5194623 0.04840703 0.08059847
0.7441467 0.17381562 -0.080118984 0.1016576 -0.65600663 -0.52589256 0.08623039 -0.16882989
0.040926434 0.53711885 -0.022679439 -0.09333124 -0.057842877 0.38957816 -0.15915708 -0.5432721
-0.5192479 -0.15585224 -0.4249904 0.016005825 -0.31456986 0.026235998 0.54068965 -0.035356324
0.27234805 -0.16270262 -0.785411 -0.15745944 -0.05359216 -0.37026253 -0.16124175 0.025024056
0.62481594 -0.010354556 -0.11713372 -0.15276378 -0.8319316 -0.20450145 -0.103817485 0.16568096
0.028990688 0.5734535 -0.065046854 0.10889979 -0.012956671 0.4511085 0.25236496 -0.37704393
0.29117456 0.09020677 0.3415347 0.060111146 0.061387554 0.04721575 -0.35728866 0.046749923
-0.08527743 0.09015507 0.7725432 0.24331184 0.060390174 0.35633165 0.19332531 0.11792194
-0.6311825 -0.19335537 0.040286154 0.18051422 0.17228745 0.25821438 0.08669199 0.23208252
-0.0063999514 -0.6001549 0.31247517 -0.09236499 -0.06364297 -0.3202381 0.1220425 0.47111458
0.15493704 0.1829608 0.19650693 -0.040737662 0.07072624 -0.019451188 -0.2391506 0.12666005
0.015196921 0.054247666 0.4319293 -0.094917625 -0.096811265 0.14533572 0.076336056 0.009809674
-0.35612425 -0.10639384 -0.1379969 -0.05747678 0.2241608 0.034325078 -0.035808228 0.055272717
-0.15508457 -0.11926317 0.19960919 -0.5048616 0.1022544 -0.22488685 -0.006920691 0.12412935
0.10624984 0.009470391 -0.16400833 0.088880934 0.05227242 -0.031958003 0.042652797 -0.07708423
-0.05531754 -0.1538998 0.11915022 0.10602751 0.17608233 0.053173583 0.03895973 -0.08917688
-0.0010816146 -0.12728225 0.12917913 0.014473239 0.06613427 -0.1185862 -0.05107397 0.12552853
0.094139546 -0.15998782 -0.07929892 -0.12439073 0.08160402 -0.13560662 -0.041954033 0.044444423
0.19244339 0.025888974 -0.24829283 -0.14285398 0.002225134 -0.10981965 -0.11878706 -0.09993536
0.016278977 -0.1454541 -0.021045115 -0.014945864 0.16156085 0.028487183 0.073061086 0.1109952
0.089335024 0.13968362 0.1268455 0.016947938 -0.12262872 0.13968271 0.1545619 0.017850317
0.010611665 -0.124871746 0.111960046 0.09125901 -0.12308234 -0.11133151 -0.0917421 -0.12809305
1.0431515 -0.36235127 -0.31736323 0.06183583 -0.058952942 0.06322688 -0.19536161 -0.34393778
-0.15182997 1.4180166 0.11713301 0.31847292 -0.027757972 0.6038044 -0.15334158 -0.01261246
-0.25243068 -0.1495362 0.10189049 -0.17968228 0.34445536 0.2564773 -0.16839568 0.026947407
-0.66628 -0.38728997 0.5422605 -0.35276762 -0.14720075 -0.3776442 -0.12779637 0.37706417
-0.09398563 0.13796692 0.015689742 0.16094558 0.11088041 0.052947834 -0.17317472 0.13789022
0.0029298381 0.13583031 -0.16136321 -0.14684543 0.08365317 0.020458166 -0.010082434 0.13257568
-0.14801049 -0.00013682376 0.09033744 0.12599047 0.15494221 -0.12940635 -0.0011142939 -0.028053794
-0.21651831 -0.10441008 0.18401527 0.04774782 -0.015332714 -0.026494006 0.13685 0.061188325

conv2.lin_rel.weight f4 [4, 8]
00000000: 54c1 0abf 785a 0ebf cd14 af3e 7c4b b4bd
00000010: 6226 bd3e 240b 583d fb59 9f3f 3061 81bd
00000020: 7f65 1ebf c028 4ebe 7461 7abc 06c2 80be
00000030: 2138 023f 03a3 073d 5ec4 0fbe 6532 c43d
00000040: 51fe 583d 4e90 123d ee8d eabe 8389 27bf
00000050: dae2 433e e34b c6bd df57 febe 4cad 02bd
00000060: 3229 7bbe b374 a73e a1c1 d9bc 5e33 863e
00000070: 33d6 8c3e bd6b 2bbe 7070 c5bc 902f 423d
-0.54201245 -0.55606794 0.34195557 -0.0880346 0.36943346 0.052745 1.2449335 -0.06317365
-0.6187362 -0.20132732 -0.015282024 -0.25148028 0.50866896 0.033114444 -0.14039752 0.095799245
0.05297691 0.03578215 -0.4581141 -0.654442 0.19129506 -0.09682443 -0.49676415 -0.03190355
-0.24527434 0.32706222 -0.026581587 0.26211065 0.2750717 -0.16740318 -0.024101466 0.04740864

conv2.lin_rel.bias f4 [4]
00000000: ff9e 963d 2441 38be ed09 113d f6b5 aebe
0.07354545 -0.17993599 0.035409857 -0.341232

conv2.lin_root.weight f4 [4, 8]
00000000: f9d3 aa3d c31c 1ebf 8926 a5be f951 7b3d
00000010: e9db ec3d 7c2f 8e3e 64e4 433e 1e2a 17bf
00000020: 4b2c 5a3d 26cf 6b3d dad9 bcbe 21c3 a6be
00000030: 495d d23e d94f 16bd 1c52 c63e e211 05bf
00000040: d476 5fbe 1599 88be 0232 b23e 782d 1b3f
00000050: c5f7 05bf fe8d 68be 1ad9 443f 32a5 e63e
00000060: 1806 a1be 7407 443b bd91 86bd 8b52 7a3b
00000070: 62b1 603e 32e4 70be 92f7 553e 80e9 d9bb
0.08341212 -0.61762637 -0.32255962 0.061357472 0.11565382 0.27770603 0.19130093 -0.5904864
0.053264897 0.0575706 -0.36884958 -0.32570747 0.41086796 -0.036697242 0.3873452 -0.5198041
-0.21822673 -0.26679292 0.34803778 0.60616255 -0.5233119 -0.22710416 0.7689377 0.4504791
-0.31449962 0.002991167 -0.06570766 0.0038196172 0.21942666 -0.2352455 0.20895222 -0.00665015

conv3.lin_rel.weight f4 [4, 4]
00000000: 3737 56bf 3e4b e1be b97b 753e 06fb 403e
00000010: e861 5cbf 6e2e 47bf 23f4 a13e dff2 0c3e
00000020: 76dc d33d 338e 8a3e f128 bb3e 8119 d8bd
00000030: f2d2 00bf b288 13be 3bf7 393e 18f0 07be
-0.83678 -0.44002718 0.23972978 0.18845758 -0.86086893 -0.7780522 0.31631574 0.13764523
0.10344784 0.27061614 0.36554673 -0.105517395 -0.50321877 -0.14407614 0.18160717 -0.13275182

conv3.lin_rel.bias f4 [4]
00000000: c6ab 463e cc9c 583f aa5a b33e 6015 aebe
0.19401464 0.84614253 0.3503011 -0.34000683

conv3.lin_root.weight f4 [4, 4]
00000000: 3a32 e4be 7dd5 e8be 5336 dbbe 158a cebe
00000010: d071 be3e f1d2 623d 8391 58bf 4098 633d
00000020: e2fa 033c bde4 9dbd c3b1 dcbe e0fe ab3c
00000030: 3173 ac3d b10d e13e e840 19be 7fa9 e03e
-0.4456957 -0.4547538 -0.42814884 -0.40339723 0.37196207 0.05537695 -0.84597033 0.05556512
0.008055421 -0.07709644 -0.4310437 0.020995557 0.084204085 0.43955758 -0.14966166 0.43879315

final_mlp.0.weight f4 [1, 10]
00000000: 00ce 7fbd 67c1 8b3e 0a28 453e 120c 3f3e
00000010: c351 02be 24fc 81be c17f 8d3e 8aa3 683e
00000020: a08f fb3d 2313 37be
-0.062452316 0.27295992 0.19253555 0.18656948 -0.12726502 -0.2538768 0.2763653 0.22718635
0.12283254 -0.17878394
