learning_to_comparenodes/learning/policy_gisp.pkl (torch, 12350 bytes, 22 tensors)

cons_embedding.0.weight f4 [4]
0.9623345 0.90495735 1.100219 0.8931336
00000000: 8e5b 763f 49ab 673f fad3 8c3f 67a4 643f

cons_embedding.0.bias f4 [4]
-0.038038615 -0.09493273 0.10072855 0.10650836
00000000: 61ce 1bbd 176c c2bd c54a ce3d 0e21 da3d

cons_embedding.1.weight f4 [32, 4]
-0.33992112 -0.21107066 -0.4091817 0.37888324 0.37179205 -0.026807146 -0.01961731 -0.385851
-0.07792329 -0.26282185 0.20897493 -0.2741514 0.33033642 0.40359285 0.50840056 0.07373576
-0.24161445 0.24375014 0.36552846 -0.12146495 0.28630942 -0.39025205 -0.10892779 0.13717198
0.16919361 -0.09403063 -0.077778354 0.20567484 -0.2143125 -0.059042037 0.19925731 0.0746305
0.28676653 -0.05103177 0.47142315 0.46252847 -0.50049603 -0.32955334 0.38496408 0.041043926
0.21467406 0.13059318 0.34512842 0.33245748 -0.4149667 0.17258519 0.46933138 0.44012785
0.28313163 0.06621457 -0.34530926 -0.33478767 0.055157673 -0.0042220126 -0.476311 -0.17648524
-0.18987101 0.07338542 0.11158347 0.19068593 -0.1282289 0.002482295 0.2374453 0.22221553
-0.04591942 0.19488877 -0.4242382 -0.09612632 0.15992299 0.3776818 -0.2616051 -0.27390078
0.42282125 0.20711502 0.3453365 -0.2192072 0.38147402 0.3216836 -0.37376446 -0.1395905
-0.22302411 0.40527165 0.13616638 0.09003901 -0.056212544 0.31283605 -0.10034478 0.49835044
-0.33716172 -0.16154343 -0.09783298 0.43476307 -0.14781824 -0.272609 -0.4038394 -0.43417463
0.3834008 0.17326987 -0.23906577 0.30470133 -0.16834146 0.427669 -0.14860499 0.2579658
-0.38633162 0.10035956 -0.15346724 0.19602442 -0.18502206 0.026365876 0.4410258 0.2117657
0.4109369 0.16827087 0.023878567 -0.49074495 0.09462914 -0.014597061 0.30781588 -0.13534811
-0.20148861 -0.31198478 -0.19199724 -0.33265555 0.44000006 0.43784732 -0.3786831 0.41547817
00000000: 240a aebe e822 58be 4480 d1be fcfc c13e
00000010: 875b be3e a99a dbbc 7bb4 a0bc 438e c5be
00000020: 3f96 9fbd 9690 86be 86fd 553e 935d 8cbe
00000030: db21 a93e b9a3 ce3e 8a26 023f c602 973d
00000040: c769 77be a399 793e 8c26 bb3e 9ec2 f8bd
00000050: 2697 923e 1ecf c7be 8815 dfbd d076 0c3e
00000060: 1741 2d3e 2293 c0bd 424a 9fbd 6d9c 523e
00000070: bc74 5bbe 10d6 71bd 1c0a 4c3e e0d7 983d
00000080: 10d3 923e b006 51bd 605e f13e 88d0 ec3e
00000090: 8220 00bf 37bb a8be 031a c53e ad1d 283d
000000a0: 84d3 5b3e 38ba 053e acb4 b03e de37 aa3e
000000b0: 8476 d4be 2cba 303e 344c f03e 7058 e13e
000000c0: a1f6 903e 819b 873d 60cc b0be 4a69 abbe
000000d0: 03ed 613d cf58 8abb 09df f3be 8cb8 34be
000000e0: 8c6d 42be 184b 963d e085 e43d 2c43 433e
000000f0: 704e 03be 00ae 223b dc24 733e 788c 633e
00000100: 0016 3cbd ec90 473e c035 d9be e0dd c4bd
00000110: dac2 233e 825f c13e 1bf1 85be b93c 8cbe
00000120: 077c d83e f615 543e f2cf b03e da77 60be
00000130: 9050 c33e b6b3 a43e 0e5e bfbe d0f0 0ebe
00000140: 6f60 64be c47f cf3e 336f 0b3e 5f66 b83d
00000150: 203f 66bd 0c2c a03e 9081 cdbd ca27 ff3e
00000160: 76a0 acbe a46b 25be a85c c8bd 4499 de3e
00000170: aa5d 17be 6893 8bbe 0ac4 cebe 234c debe
00000180: 1c4d c43e a86d 313e a8cd 74be d001 9c3e
00000190: b461 2cbe 6ef7 da3e e82b 18be 1814 843e
000001a0: 42cd c5be 5089 cd3d 8426 1dbe a0ba 483e
000001b0: 6c76 3dbe 40fd d73c 22ce e13e 1cd9 583e
000001c0: 5266 d23e 334f 2c3e fc9c c33c ec42 fbbe
000001d0: eccc c13d 8328 6fbc 0b9a 9d3e b298 0abe
000001e0: 0853 4ebe 78bc 9fbe ed9a 44be d451 aabe
000001f0: b047 e13e 862d e03e c0e2 c1be 8eb9 d43e

cons_embedding.1.bias f4 [32]
-0.36037284 -0.4220596 0.31974566 0.15359694 -0.04582082 -0.4334839 0.27651453 -0.47024822
-0.17111892 0.1618153 -0.385471 -0.12744707 0.3209577 -0.05890207 -0.011020601 0.10488427
-0.08313072 -0.56724226 0.5166475 -0.4541332 0.2964076 0.438897 -0.0637365 0.14351502
-0.31001896 -0.24792814 0.18354738 -0.43771005 0.5165104 0.2073406 0.2914601 0.034863412
00000000: ca82 b8be 3218 d8be b4b5 a33e 8448 1d3e
00000010: 9dae 3bbd 9af1 ddbe 5093 8d3e 60c4 f0be
00000020: cc39 2fbe e9b2 253e 745c c5be 7c81 02be
00000030: 9154 a43e 4c43 71bd c08f 34bc 90cd d63d
00000040: 7040 aabd ca36 11bf 0343 043f 2684 e8be
00000050: bdc2 973e 1cb7 e03e 4888 82bd 9af5 123e
00000060: ceba 9ebe e0e0 7dbe d8f3 3b3e 881b e0be
00000070: 073a 043f 1851 543e 423a 953e f0cc 0e3d

var_embedding.0.weight f4 [6]
1.5095007 0.9057073 1.0807209 1.0195177 0.90643156 0.793014
00000000: 5237 c13f 6fdc 673f 1055 8a3f 8e7f 823f
00000010: e60b 683f f702 4b3f

var_embedding.0.bias f4 [6]
-0.14515592 0.102085024 0.11751443 0.073749594 0.24406216 -0.10147207
00000000: c1a3 14be f411 d13d 68ab f03d 070a 973d
00000010: 6eeb 793e 97d0 cfbd

var_embedding.1.weight f4 [32, 6]
0.14999062 0.28831586 -0.13171414 -0.38014382 -0.060447864 0.16308738 0.14319816 -0.26098663
-0.059679143 -0.3234245 -0.022025263 -0.0013498658 -0.3047953 0.0940639 -0.31634694 -0.15631863
0.33518127 0.18442877 -0.6208402 0.30359852 0.50142205 0.40677682 0.32729304 -0.015487001
-0.010585467 0.18610224 -0.08406011 -0.36674246 0.16145962 0.05180285 -0.747831 -0.072758555
-0.16205384 0.385603 -0.20975874 0.11628591 0.19116816 -0.31005478 -0.20411798 -0.028965453
-0.115072615 -0.60044855 -0.87326497 0.36813536 0.20287402 0.23401955 0.3308317 -0.14528458
0.21715152 0.1745001 -0.37009513 -0.19166149 -0.13477468 0.4302772 -0.80403364 0.106135376
0.43133178 0.3532212 -0.25118017 0.39406723 -0.9086004 -0.092583165 -0.00043041282 0.26731938
0.06806397 -0.11126868 -0.19086014 -0.3477591 -0.20189297 -0.24367689 -0.0055733984 0.2665072
-0.07648283 -0.3473323 -0.10794689 0.16646627 0.4828713 -0.09848612 0.3727581 -0.30763394
-0.3061391 -0.33448943 0.21560502 0.0341582 -0.675271 0.3256175 0.40491933 0.08303351
0.38075763 -0.11619255 -0.7595629 0.16279973 0.37142837 0.39914727 0.4779371 -0.092388324
0.69477427 0.047294308 0.20744544 0.098205075 -0.018976249 -0.33701155 0.30951148 0.035049062
-0.31272683 0.24873793 0.23802048 0.051508535 0.110207126 -0.11974012 0.0022753554 -0.21058583
0.26819035 0.16496432 -0.06635062 -0.04444372 -0.36902213 0.021640697 0.020129552 0.25437889
0.5280951 -0.14448164 0.26985314 -0.18507275 -0.3671483 -0.3839419 0.07971868 -0.2774775
-0.29533762 -0.17379698 0.3125192 -0.14486682 -0.517464 0.23267157 0.46075666 0.53358346
-0.2582469 -0.25360054 -0.70075977 0.4336514 0.53627306 -0.18832992 0.14324969 -0.17963827
-0.74635804 -0.008615753 -0.15380228 0.34310037 0.21234417 -0.07497996 -0.3222588 0.25666904
0.40913013 -0.07943103 0.41369694 -0.053735822 -0.044426717 -0.053742748 -0.24436574 -0.21489356
0.39827862 0.006575698 0.08335061 0.19059502 0.3690412 0.31769612 -0.1546979 -0.023517393
0.028803004 -0.09850861 -0.18948756 0.4029707 0.24533221 0.25295135 0.0021597191 -0.2910053
-0.1792257 -0.0054616025 0.3126154 -0.29081482 0.6832085 -0.093838476 0.11333284 0.30996105
-0.56589556 0.079467535 -0.081615284 -0.09548095 0.044763274 0.09551874 -0.2855638 -0.47674263
00000000: 2497 193e 239e 933e 12e0 06be 36a2 c2be
00000010: 2e98 77bd 6100 273e 8aa2 123e 0aa0 85be
00000020: 1e72 74bd e597 a5be 536e b4bc fbed b0ba
00000030: 210e 9cbe 93a4 c03d 3af8 a1be fe11 20be
00000040: e19c ab3e e5da 3c3e 62ef 1ebf 4471 9b3e
00000050: 325d 003f 0d45 d03e f492 a73e 31bd 7dbc
00000060: ab6e 2dbc 9691 3e3e b527 acbd abc5 bbbe
00000070: ac55 253e 3a2f 543d da71 3fbf 7002 95bd
00000080: 71f1 25be c26d c53e ffca 56be 4f27 ee3d
00000090: 96c1 433e 80bf 9ebe 4e04 51be f548 edbc
000000a0: 31ab ebbd ffb6 19bf 4b8e 5fbf 3d7c bc3e
000000b0: 35be 4f3e d2a2 6f3e c662 a93e 7bc5 14be
000000c0: f85c 5e3e 27b0 323e 1c7d bdbe e942 44be
000000d0: 6002 0abe 4b4d dc3e 26d5 4dbf 815d d93d
000000e0: 85d7 dc3e 69d9 b43e b09a 80be 2ec3 c93e
000000f0: 099a 68bf 3e9c bdbd 08a9 e1b9 16de 883e
00000100: 1f65 8b3d d5e0 e3bd d770 43be 7b0d b2be
00000110: 08bd 4ebe 6f86 79be 0ea1 b6bb a273 883e
00000120: 08a3 9cbd 8ad5 b1be 4213 ddbd 2276 2a3e
00000130: e83a f73e 17b3 c9bd 26da be3e 3282 9dbe
00000140: 44be 9cbe 3342 abbe 90c7 5c3e 78e9 0b3d
00000150: 8fde 2cbf 56b7 a63e 9651 cf3e 790d aa3d
00000160: aaf2 c23e 5cf6 edbd b772 42bf f9b4 263e
00000170: dc2b be3e 085d cc3e 2cb4 f43e 1736 bdbd
00000180: badc 313f adb7 413d 946c 543e be1f c93d
00000190: 1474 9bbc c78c acbe 4a78 9e3e 9b8f 0f3d
000001a0: bb1d a0be 28b5 7e3e a4bb 733e 9dfa 523d
000001b0: 46b4 e13d 4f3a f5bd 211e 153b d0a3 57be
000001c0: 3f50 893e 68ec 283e d5e2 87bd 9e0a 36bd
000001d0: 78f0 bcbe d547 b13c bbe6 a43c f33d 823e
000001e0: 3e31 073f fff2 13be 312a 8a3e b683 3dbe
000001f0: ddfa bbbe 0894 c4be 8c43 a33d 8811 8ebe
00000200: 7e36 97be d6f7 31be 8402 a03e f857 14be
00000210: 8578 04bf 7541 6e3e 4ce8 eb3e ed98 083f
00000220: f038 84be eed7 81be fe64 33bf 8e07 de3e
00000230: 3149 093f 8fd9 40be 0cb0 123e 18f3 37be
00000240: 5211 3fbf 1629 0dbc 587e 1dbe daaa af3e
00000250: c070 593e 188f 99bd 1bff a4be 206a 833e
00000260: 8179 d13e bcac a2bd 16d0 d33e 181a 5cbd
00000270: caf8 35bd 5b21 5cbd 033b 7abe 0f0d 5cbe
00000280: 2deb cb3e f478 d73b bab3 aa3d 572b 433e
00000290: f8f2 bc3e 11a9 a23e 2069 1ebe 8ca7 c0bc
000002a0: 47f4 eb3c e2be c9bd 0709 42be 2d52 ce3e
000002b0: 5e38 7b3e d782 813e 138a 0d3b a6fe 94be
000002c0: f186 37be 3ef7 b2bb 200f a03e aee5 94be
000002d0: c1e6 2e3f 632e c0bd 0c1b e83d 37b3 9e3e
000002e0: 88de 10bf e0bf a23d ea25 a7bd 848b c3bd
000002f0: b259 373d 549f c33d 6b35 92be 9c17 f4be

var_embedding.1.bias f4 [32]
-0.06512161 0.024840692 -0.40546277 -0.0821123 0.3339155 0.1848373 0.34849408 0.21275103
0.22793055 0.3769274 0.4814291 -0.393479 -0.26153058 -0.3771606 0.02522807 0.34698948
0.021988407 0.043151684 0.21279953 0.3493007 -0.28339294 -0.075494826 0.022466928 -0.021319728
0.4808541 0.29243842 -0.28082195 0.06904965 -0.16742836 -0.08963061 0.18946782 0.13531293
00000000: 7b5e 85bd b57e cb3c d198 cfbe 7e2a a8bd
00000010: f9f6 aa3e fd45 3d3e d16d b23e 68db 593e
00000020: a066 693e a1fc c03e e07d f63e 1476 c9be
00000030: 56e7 85be 321b c1be 19ab ce3c 9ba8 b13e
00000040: 0821 b43c d2bf 303d 1fe8 593e 8bd7 b23e
00000050: e118 91be 089d 9abd 900c b83c b6a6 aebc
00000060: 8232 f63e 7dba 953e e5c7 8fbe e769 8d3d
00000070: 5772 2bbe 4190 b7bd da03 423e 798f 0a3e

bounds_embedding.0.weight f4 [2]
1.0 1.0
00000000: 0000 803f 0000 803f

bounds_embedding.0.bias f4 [2]
0.0 0.0
00000000: 0000 0000 0000 0000

bounds_embedding.1.weight f4 [2, 2]
0.66761595 0.1342448 0.31546277 -0.36215556
00000000: e1e8 2a3f 7877 093e 5684 a13e 746c b9be

bounds_embedding.1.bias f4 [2]
-0.24936748 -0.571357
00000000: 305a 7fbe 7444 12bf

conv1.lin_rel.weight f4 [8, 32]
-0.045850817 -0.120875895 -0.17718317 -0.0910375 0.10954096 0.096301466 0.007261058 0.10782045
0.16396876 0.033083998 0.04192264 -0.08308263 -0.19341703 -0.19343886 0.051126443 0.030284217
0.10685374 0.0054806285 0.1009126 0.0038506852 -0.033904407 0.036712453 -0.08474897 0.010313408
-0.0031017212 -0.104742326 0.16551049 0.05630763 0.06553306 0.043568455 -0.04947928 -0.03834594
-0.19874366 0.024541736 0.18392414 -0.07670456 0.03759598 -0.13320602 -0.13579686 0.19363324
-0.056633905 -0.12996304 0.08474326 0.035384685 0.017147236 -0.08371319 -0.036493234 0.1913707
-0.25570494 0.02623063 0.19415468 -0.060185343 -0.11940849 -0.048176065 -0.19624245 -0.039829805
0.045681477 0.1370156 0.1124247 -0.22502732 0.19491561 0.1705715 0.081374384 -0.042294867
-0.20563267 -0.0073536253 0.18670666 -0.09106715 0.23637955 -0.08819219 -0.024229152 -0.067835
-0.054051828 -0.3001211 -0.06397017 0.08000616 0.16498528 0.07781729 -0.12564625 -0.23132789
0.11134525 0.18518992 0.16901615 -0.12587908 0.27055168 0.13983525 -0.18780482 -0.28907675
-0.2919086 -0.23030823 -0.10983911 0.0388317 0.044661578 -0.014075203 0.18508579 0.020312965
0.021817492 0.36608636 0.19393107 0.49589425 0.16185261 0.42374727 -0.0494129 0.27157572
-0.013952853 0.19384752 0.3114784 0.14328942 -0.054467745 0.09937465 0.22909088 0.4723429
-0.52000606 0.1835324 0.2275388 0.049091287 -0.35092384 0.083782956 0.3595969 0.35339046
0.47570708 0.13796636 -0.06481433 -0.02312866 0.10717518 0.31448808 -0.12607281 -0.03901237
-0.12121244 -0.079003505 -0.06288782 -0.035031166 -0.20153186 0.13793512 -0.030323094 -0.020445451
-0.061733395 0.08221952 -0.13757557 -0.11546242 -0.105577864 -0.08517708 -0.12780476 -0.15834126
-0.13958144 -0.13618767 -0.09609003 0.11737941 -0.0956747 0.1416987 -0.0124052465 0.0016141699
0.12580262 -0.07858866 -0.16490683 -0.010447025 0.11869392 0.042271737 0.038849846 -0.16662194
-0.08699259 0.10287939 -0.12784894 -0.035173994 -0.09126699 -0.20729841 0.16485797 -0.23898943
-0.09182852 0.10678813 -0.01190549 -0.13284664 0.0875242 -0.038615443 -0.13048765 -0.13934286
-0.07772284 0.013473841 -0.18056713 0.054368857 0.11951075 -0.010712236 -0.20355406 0.055893004
0.0002059551 -0.2052883 -0.03528964 0.10486168 -0.18042192 0.12200383 -0.17920022 0.19676273
-0.21195076 0.14398287 -0.06906776 -0.2661878 -0.009134662 -0.029487206 0.15378411 -0.31971377
-0.12588936 -0.29680243 -0.18616618 0.08504912 0.038479917 0.07896026 -0.15170318 -0.11630309
0.29197836 0.06239945 -0.046649914 -0.18551861 0.14879262 0.07666977 -0.08549199 -0.20650831
-0.34814182 -0.18773983 -0.07146471 0.10781097 0.020708289 -0.021186477 -0.0072121057 0.19250815
0.046245947 0.25430748 0.14252318 0.2313956 -0.084715135 -0.13403793 0.15258539 -0.1485303
0.0008494556 -0.1101069 0.1254146 0.12535863 0.0011540795 -0.024585333 0.12409523 -0.18935762
0.11040805 0.024746757 -0.044513434 -0.10490523 -0.094182365 -0.14203699 -0.024557702 -0.02262234
0.08673786 -0.009280803 0.14518537 -0.060742147 0.020496171 0.2169959 0.007603343 -0.048528012
00000000: 11ce 3bbd c88d f7bd 816f 35be de71 babd
00000010: 0357 e03d b439 c53d 2bee ed3b f8d0 dc3d
00000020: 6de7 273e 1683 073d 13b7 2b3d 3a27 aabd
00000030: 1d0f 46be d614 46be f669 513d 9b16 f83c
00000040: 22d6 da3d d896 b33b 44ab ce3d c75b 7c3b
00000050: 59df 0abd cc5f 163d de90 adbd 92f9 283c
00000060: 3f46 4bbb 2583 d6bd 957b 293e d4a2 663d
00000070: 3236 863d d674 323d c9aa 4abd a210 1dbd
00000080: 7583 4bbe c00b c93c 9c56 3c3e 4817 9dbd
00000090: 3efe 193d 2967 08be 550e 0bbe cb47 463e
000000a0: f4f8 67bd 0815 05be e08d ad3d 88ef 103d
000000b0: 5c78 8c3c d271 abbd ee79 15bd aef6 433e
000000c0: c2eb 82be 9ee1 d63c 7cd0 463e e884 76bd
000000d0: 708c f4bd 4454 45bd c8f3 48be 9424 23bd
000000e0: 801c 3b3d d14d 0c3e ec3e e63d 906d 66be
000000f0: f597 473e 4caa 2e3e 9da7 a63d 623d 2dbd
00000100: 5f91 52be aef6 f0bb 0830 3f3e 6a81 babd
00000110: 7b0d 723e 1b9e b4bd 377c c6bc 14ed 8abd
00000120: 7365 5dbd 79a9 99be cb02 83bd 45da a33d
00000130: e7f1 283e ac5e 9f3d 69a9 00be 38e1 6cbe
00000140: fa08 e43d 6da2 3d3e 9212 2d3e 72e6 00be
00000150: c085 8a3e f930 0f3e e84f 40be de01 94be
00000160: 0b75 95be ecd5 6bbe 54f3 e0bd fd0d 1f3d
00000170: 0fef 363d ae9b 66bc 2187 3d3e 6067 a63c
00000180: 99ba b23c ac6f bb3e de95 463e dae5 fd3e
00000190: b1bc 253e 67f5 d83e 2e65 4abd f90b 8b3e
000001a0: 829a 64bc f77f 463e 197a 9f3e 76ba 123e
000001b0: 9219 5fbd f084 cb3d cd96 6a3e eed6 f13e
000001c0: 1e1f 05bf ebef 3b3e eeff 683e f213 493d
000001d0: 4aac b3be 6696 ab3d 161d b83e 98ef b43e
000001e0: e18f f33e 0e47 0d3e 60bd 84bd 5178 bdbc
000001f0: a97e db3d 9504 a13e 3b19 01be 6fcb 1fbd
00000200: 3a3e f8bd 97cc a1bd 54cb 80bd d77c 0fbd
00000210: 5e5e 4ebe dd3e 0d3e 2368 f8bc 387d a7bc
00000220: 28dc 7cbd b562 a83d 9ce0 0cbe 9077 ecbd
00000230: 3539 d8bd 5271 aebd 40df 02be 3624 22be
00000240: 70ee 0ebe c874 0bbe daca c4bd 9e64 f03d
00000250: 19f1 c3bd 7719 113e 603f 4bbc 8e92 d33a
00000260: 67d2 003e 17f3 a0bd 56dd 28be 002a 2bbc
00000270: cc15 f33d 2125 2d3d 0421 1f3d f19e 2abe
00000280: 2c29 b2bd 6eb2 d23d d5ea 02be 9b12 10bd
00000290: 30ea babd 0946 54be 87d0 283e a5b9 74be
000002a0: 9710 bcbd bcb3 da3d 3f0f 43bc f308 08be
000002b0: e33f b33d 3a2b 1ebd 8e9e 05be e5af 0ebe
000002c0: 272d 9fbd 63c1 5c3c 97e6 38be e1b1 5e3d
000002d0: 0dc2 f43d 6082 2fbc 7a70 50be 10f0 643d
000002e0: a7f5 5739 1937 52be df8b 10bd b8c1 d63d
000002f0: 86c0 38be 25dd f93d 4380 37be 2b7c 493e
00000300: 9f09 59be 3f70 133e 6673 8dbd c449 88be
00000310: 8da9 15bc 278f f1bc 9579 1d3e 86b1 a3be
00000320: 24e9 00be 7df6 97be 59a2 3ebe 3c2e ae3d
00000330: 1e9d 1d3d ebb5 a13d 1458 1bbe 5030 eebd
00000340: 307e 953e 9196 7f3d fb13 3fbd 97f8 3dbe
00000350: 185d 183e 0a05 9d3d 6d16 afbd ea76 53be
00000360: a53f b2be df3e 40be 175c 92bd ffcb dc3d
00000370: 6ea4 a93c 438f adbc 8753 ecbb db20 453e
00000380: 646c 3d3d 9734 823e 99f1 113e f8f2 6c3e
00000390: 217f adbd 3d41 09be 583f 1c3e 5418 18be
000003a0: 00ae 5e3a ba7f e1bd af6c 003e 035e 003e
000003b0: 7b44 973a 2e67 c9bc a425 fe3d f7e6 41be
000003c0: 9e1d e23d b6b9 ca3c b853 36bd 8ed8 d6bd
000003d0: afe2 c0bd 2572 11be 3c2d c9bc 7c52 b9bc
000003e0: 9fa3 b13d 820e 18bc 79ab 143e c2cc 78bd
000003f0: 96e7 a73c 2c34 5e3e 7725 f93b 4fc5 46bd

conv1.lin_rel.bias f4 [8]
-0.0005163332 0.04633208 0.10374537 0.17314695 -0.1597618 -0.0068599056 0.0770345 -0.009160824
00000000: 895a 07ba b5c6 3d3d 7478 d43d 6f4d 313e
00000010: 9998 23be 0fc9 e0bb 44c4 9d3d 4817 16bc

conv1.lin_root.weight f4 [8, 32]
-0.1426863 0.06144228 -0.19630897 0.06903722 0.095064655 -0.03855409 0.051004373 -0.08983229
0.089929536 -0.1749529 -0.11623009 -0.1419686 -0.1571957 -0.15068376 0.12359917 -0.15005828
-0.17558272 -0.06264169 -0.14932388 0.01177159 -0.13277642 0.046016753 -0.16960694 -0.11285714
-0.08670195 0.10145115 -0.05880056 0.014322391 -0.07147949 0.10957757 0.057345193 -0.13924442
-0.0550098 0.012704476 0.030222267 -0.22933823 0.016154004 -0.13573739 -0.22752964 -0.15892962
0.16601114 -0.25621274 -0.019770397 -0.13733989 -0.02119542 0.036820516 -0.16364329 -0.06807484
0.18636364 0.016499138 -0.04960786 -0.0031720567 -0.23090914 -0.15261014 0.13761437 -0.07104831
-0.09277915 0.12298327 -0.024545131 -0.008241958 -0.17864563 -0.041388627 0.019692205 -0.12143919
0.010614945 0.043522704 -0.08127012 0.021926511 -0.053070035 -0.18287604 0.04442349 -0.25416866
-0.21983552 -0.117420636 -0.2570107 -0.011112524 -0.007517348 -0.20332766 -0.22088246 -0.25958276
0.15991746 -0.1796557 0.10743038 0.03939013 0.15350392 0.0042160302 0.2783951 -0.36298952
-0.06371003 0.25662568 0.039497413 0.178872 0.029696943 -0.17546462 0.1678781 0.05278909
0.010168151 0.15165769 0.45168576 0.29945192 0.27307773 0.329311 -0.116991036 0.45492288
0.16480386 0.41320854 0.4495313 0.06758063 0.1815125 0.041696515 0.27557307 0.32364908
-0.2857015 0.008565467 0.32094884 -0.108959675 -0.23467082 0.13277338 0.24901393 0.40508768
0.402943 0.09528692 0.1981593 0.09611067 0.28770524 0.18968433 -0.23207417 0.12259663
0.067242116 0.11535655 0.066783994 -0.18480906 0.1715432 0.028825972 -0.037661526 -0.13882382
-0.15209249 0.09216584 -0.012052778 -0.029827595 0.046372205 -0.17524906 -0.1613371 -0.001386589
-0.092120916 -0.0774567 -0.14879644 -0.12500516 -0.09548718 0.015806884 -0.10846079 -0.13394873
0.062370785 0.09197544 0.04746586 0.04932097 0.04043998 0.020941593 -0.1448819 -0.13641912
-0.058646113 -0.112828255 -0.12878461 -0.4177212 -0.14112441 -0.41410738 0.17358737 -0.24138345
-0.08348865 -0.25385422 -0.21946324 0.021834433 -0.031437818 -0.014502733 -0.50695634 -0.27138716
0.24853142 0.07436209 -0.006733562 -0.03348058 0.25256586 0.051043138 -0.016549177 -0.16248764
-0.39043206 -0.16176328 -0.10256722 -0.19012205 -0.04246505 -0.026315782 0.12347378 0.03404825
0.04664482 -0.10124631 -0.116528265 -0.2607803 0.007477489 -0.3410227 0.0570377 -0.29700652
0.13653184 -0.2115613 -0.46882835 -0.19613214 0.10002171 -0.058443785 -0.45012078 -0.20788404
0.45800352 -0.0966192 -0.051027015 -0.15756573 0.21664843 0.036818326 -0.015269931 -0.3518067
-0.438597 -0.17650199 -0.121045455 0.024469798 0.13333188 -0.16573597 0.37555528 -0.0009765421
0.22860412 -0.018251535 0.10106747 -0.1345986 0.22784078 0.008676583 0.021793062 -0.06351444
0.2129602 -0.0035340083 0.093769945 0.24649845 -0.10459919 0.14904346 0.008003278 0.015202124
-0.099328555 -0.060936082 0.12220711 0.34026608 -0.093856305 0.16478337 0.042547148 0.15997846
0.004065697 -0.09073825 -0.039673045 0.01700702 -0.03540708 -0.22004226 -0.018611671 -0.032474477
00000000: 5c1c 12be e6aa 7b3d 3805 49be 6363 8d3d
00000010: 42b1 c23d e5ea 1dbd f6e9 503d fef9 b7bd
00000020: fa2c b83d da26 33be 0b0a eebd 3760 11be
00000030: e9f7 20be d84c 1abe 9021 fd3d e1a8 19be
00000040: f5cb 33be 494a 80bd 5ce8 18be a1dd 403c
00000050: 8bf6 07be 107c 3c3d 71ad 2dbe a521 e7bd
00000060: cb90 b1bd 9fc5 cf3d dbd8 70bd 76a8 6a3c
00000070: d763 92bd 346a e03d cbe2 6a3d 1796 0ebe
00000080: f551 61bd 6f26 503c b094 f73c a4d7 6abe
00000090: 6755 843c befe 0abe 88fd 68be 72be 22be
000000a0: d3fe 293e 512e 83be 87f5 a1bc d4a2 0cbe
000000b0: 04a2 adbc 1cd1 163d 1b92 27be d26a 8bbd
000000c0: 1cd6 3e3e 3329 873c 9d31 4bbd 48e2 4fbb
000000d0: 7273 6cbe d545 1cbe c8ea 0c3e c781 91bd
000000e0: ff02 bebd a7de fb3d df12 c9bc 4709 07bc
000000f0: e1ee 36be 1f87 29bd 8c51 a13c 1cb5 f8bd
00000100: 4eea 2d3c dd44 323d f370 a6bd 3a9f b33c
00000110: f75f 59bd db43 3bbe 68f5 353d 6522 82be
00000120: 901c 61be 3b7a f0bd e896 83be 4e11 36bc
00000130: 1654 f6bb 2035 50be 032f 62be 08e8 84be
00000140: 67c1 233e aaf7 37be 7604 dc3d 8c57 213d
00000150: 2230 1d3e a026 8a3b cd89 8e3e c3d9 b9be
00000160: 677a 82bd 7164 833e 0ac8 213d 392a 373e
00000170: 0147 f33c ffac 33be 3de8 2b3e 5f39 583d
00000180: 5198 263c 274c 1b3e 5b43 e73e c351 993e
00000190: d8d0 8b3e 749b a83e ff98 efbd a7eb e83e
000001a0: 58c2 283e 1290 d33e f728 e63e b767 8a3d
000001b0: 6ade 393e f7c9 2a3d ea17 8d3e 55b5 a53e
000001c0: 7847 92be 2c56 0c3c 6853 a43e 4026 dfbd
000001d0: 8c4d 70be bff5 073e 82fd 7e3e a767 cf3e
000001e0: 8b4e ce3e ca25 c33d 46ea 4a3e acd5 c43d
000001f0: 1a4e 933e 9c3c 423e daa4 6dbe f113 fb3d
00000200: 3cb6 893d 0e40 ec3d 0cc6 883d 963e 3dbe
00000210: 05a9 2f3e 7224 ec3c f942 1abd d527 0ebe
00000220: 22be 1bbe 72c1 bc3d 0479 45bc 0059 f4bc
00000230: c8f0 3d3d 7d74 33be 8e35 25be 35be b5ba
00000240: e4a9 bcbd 9ea1 9ebd 185e 18be 5a01 00be
00000250: c88e c3bd 707d 813c b120 debd db29 09be
00000260: 8278 7f3d 9f5d bc3d 906b 423d c904 4a3d
00000270: 64a4 253d b48d ab3c ec5b 14be 74b1 0bbe
00000280: e836 70bd 8012 e7bd 1de0 03be 8edf d5be
00000290: eb82 10be e205 d4be e3c0 313e 392d 77be
000002a0: 19fc aabd 2ef9 81be f9ba 60be 20de b23c
000002b0: f1c4 00bd df9c 6dbc e4c7 01bf 42f3 8abe
000002c0: 057f 7e3e 274b 983d 36a5 dcbb ef22 09bd
000002d0: 5050 813e 9c12 513d 2492 87bc 2963 26be
000002e0: b6e6 c7be 46a5 25be c30e d2bd 5baf 42be
000002f0: d5ef 2dbd 3294 d7bc d2df fc3d 2e76 0b3d
00000300: a40e 3f3d 3a5a cfbd 5fa6 eebd ff84 85be
00000310: b905 f53b 879a aebe 5da0 693d 3d11 98be
00000320: 01cf 0b3e 87a3 58be 450a f0be ddd6 48be
00000330: 2fd8 cc3d c062 6fbd 3b76 e6be 8edf 54be
00000340: 707f ea3e 4ae0 c5bd b401 51bd e958 21be
00000350: 16d9 5d3e d0ce 163d bc2e 7abc 0220 b4be
00000360: c98f e0be f0bc 34be aee6 f7bd e374 c83c
00000370: 2788 083e b1b6 29be c848 c03e a2fe 7fba
00000380: 3317 6a3e 3e84 95bc 76fc ce3d 37d4 09be
00000390: 184f 693e 3a28 0e3c 5d87 b23c dc13 82bd
000003a0: 3d12 5a3e d29a 67bb 750a c03d 176a 7c3e
000003b0: 1a38 d6bd d99e 183e 2e20 033c 5412 793c
000003c0: c56c cbbd 1d98 79bd b947 fa3d 5b37 ae3e
000003d0: bc37 c0bd f9bc 283e eb45 2e3d 65d1 233e
000003e0: 8a39 853b fad4 b9bd 3480 22bd 4e52 8b3c
000003f0: 0407 11bd c252 61be 8177 98bc f503 05bd

conv2.lin_rel.weight f4 [4, 8]
0.2671043 -0.23460816 0.15026101 0.57524174 0.2513911 -0.4589983 -0.49296257 0.2886303
-0.07314032 0.2411746 0.38045985 0.29444945 0.21552274 -0.23451576 -0.12844534 -0.43640494
-0.31528383 0.15693806 -0.097542584 -0.13298503 0.29734513 -0.14459448 0.218605 0.22635457
0.094116546 -0.38699627 -0.22025977 0.3681484 -0.18599217 -0.25860006 -0.2748509 -0.27015582
00000000: e5c1 883e 1f3d 70be 06de 193e 0b43 133f
00000010: 56b6 803e d301 ebbe 9765 fcbe 5ac7 933e
00000020: 98ca 95bd 79f6 763e a2cb c23e 14c2 963e
00000030: feb1 5c3e e624 70be 2d87 03be 7870 dfbe
00000040: e26c a1be 5fb4 203e 68c4 c7bd 3a2d 08be
00000050: 9f3d 983e 9310 14be fdd9 5f3e 7ec9 673e
00000060: 2dc0 c03d 6024 c6be c78b 61be f27d bc3e
00000070: bb74 3ebe 3a67 84be 42b9 8cbe dd51 8abe

conv2.lin_rel.bias f4 [4]
0.4433604 0.10066373 -0.3475722 0.36897606
00000000: 2200 e33e c928 ce3d fcf4 b1be 6eea bc3e

conv2.lin_root.weight f4 [4, 8]
0.009083839 0.07786321 -0.5838573 0.42471856 0.3056575 -0.3629855 -0.2734688 0.19659153
0.06866676 -0.11643687 -0.17893317 0.18186755 -0.34693098 0.037213378 -0.6289267 0.07360572
0.29283205 -0.039298087 0.037973534 0.23681535 0.20738539 0.28711548 -0.23389506 -0.13593763
0.02470946 -0.09098447 -0.103616595 0.5642045 0.23694234 -0.34037617 -0.4447388 -0.25378248
00000000: 62d4 143c bf76 9f3d ac77 15bf b674 d93e
00000010: 247f 9c3e 3cd9 b9be 1a04 8cbe 4a4f 493e
00000020: 29a1 8c3d 7476 eebd 423a 37be 7d3b 3a3e
00000030: f0a0 b1be 0e6d 183d 5701 21bf 99be 963d
00000040: 15ee 953e 08f7 20bd 238a 1b3d b97f 723e
00000050: d65c 543e cd00 933e 3082 6fbe 3c33 0bbe
00000060: 7e6b ca3c 1156 babd f034 d4bd b56f 103f
00000070: 03a1 723e c945 aebe ceb4 e3be c7ef 81be

conv3.lin_rel.weight f4 [4, 4]
0.6789024 0.061859384 -0.21836847 0.5955127 -0.4126791 0.22479041 -0.08032435 0.34509245
0.08218482 -0.21456349 -0.17796797 -0.051619172 0.7768345 0.76782215 -0.04574079 0.06037265
00000000: 8ccc 2d3f 4460 7d3d fc9b 5fbe 8573 183f
00000010: ad4a d3be 752f 663e 1881 a4bd f5af b03e
00000020: 8450 a83d 88b6 5bbe 3c3d 36be a06e 53bd
00000030: a0de 463f fe8f 443f b25a 3bbd 5049 773d

conv3.lin_rel.bias f4 [4]
0.021412505 -0.44618064 -0.18709084 0.2849744
00000000: 4769 af3c ca71 e4be be94 3fbe 2ae8 913e

conv3.lin_root.weight f4 [4, 4]
0.6778128 0.27221408 0.52061754 0.700543 -0.34076524 0.4331036 0.07757056 -0.4480008
0.034172054 0.21674813 -0.25494975 -0.48398498 0.6315229 -0.017447963 -0.086416505 0.32194626
00000000: 2485 2d3f a55f 8b3e 3147 053f c956 333f
00000010: c878 aebe c1bf dd3e 50dd 9e3d 5c60 e5be
00000020: fff7 0b3d 39f3 5d3e c688 82be e1cc f7be
00000030: 7cab 213f 08ef 8ebc 23fb b0bd 24d6 a43e

final_mlp.0.weight f4 [1, 10]
0.080770165 -0.29035574 -0.10453609 -0.039026618 0.064165056 0.29057637 0.09905505 -0.27106923
-0.16982779 0.16391414
00000000: d46a a53d 82a9 94be 0417 d6bd 60da 1fbd
00000010: f868 833d 6dc6 943e 60dd ca3d 96c9 8abe
00000020: 56e7 2dbe 1cd9 273e
