GNN_method/ResultsGCNN/actor_67.pt (torch, 83520 bytes, 43 tensors)

row_embedding.0.weight f4 [7]
0	0x3f808cc8	1.0042963
1	0x3f803aa1	1.0017892
2	0x3f7fd857	0.99939483
3	0x3f80346c	1.0015998
4	0x3f7fa4bd	0.99860746
5	0x3f8076be	1.0036237
6	0x3f8005f9	1.0001823

row_embedding.0.bias f4 [7]
0	0xbb332293	-0.002733384
1	0xba8d6e95	-0.0010790402
2	0xba6a83a3	-0.0008946007
3	0xbaf8ac24	-0.00189722
4	0x3ac24287	0.0014820852
5	0xbb499d31	-0.003076386
6	0x3a38af75	0.0007045188

row_embedding.1.weight f4 [32, 7]
0	0x3d5258a5	0.05135407
1	0x3d492acd	0.049113084
2	0x3e0cfa6a	0.137674
3	0xbeb66979	-0.35627344
4	0xbe3a7179	-0.18207349
5	0x3e778889	0.24173178
6	0xbdac9f17	-0.084287815
7	0xbe8a1710	-0.2697072
8	0xbd858c5b	-0.06520911
9	0xbd25facb	-0.040522378
10	0xbddac54e	-0.10682164
11	0x3e472b72	0.19450167
12	0x3a94cd64	0.0011352715
13	0xbdab89fb	-0.08375927
14	0xbe00ee0b	-0.12590806
15	0xbe95c07d	-0.2924842
16	0xbe90cc72	-0.2828098
17	0x3e85c3d1	0.2612596
18	0x3ea249fa	0.31697065
19	0x3ca15ddf	0.019698082
20	0xbe4ec305	-0.20191582
21	0xbe55adfb	-0.2086715
22	0x3e097642	0.13424018
23	0x3ea2b9d2	0.31782395
24	0xbeb6ce2d	-0.35704175
25	0x3cdef31a	0.02721553
26	0x3bb253bb	0.0054421104
27	0x3e45cbf3	0.19316082
28	0xbe0e93e4	-0.13923603
29	0xbd06d881	-0.032921318
30	0xbe9d31b9	-0.30701998
31	0x3e55fb5b	0.20896666
32	0xbe4f69a4	-0.20255142
33	0xbe4e6556	-0.20155844
34	0xbe48513a	-0.19562235
35	0xbddb427c	-0.1070604
36	0x3d64ed5c	0.055890426
37	0xbc280065	-0.010254
38	0xbeb6b7fc	-0.35687244
39	0x3dc33db2	0.09533252
40	0xbe534820	-0.20632982
41	0x3ea070f3	0.31336173
42	0xbe89ded1	-0.26927808
43	0xbeabb54b	-0.33536753
44	0x3e8bbe05	0.2729341
45	0xbe66c627	-0.22536527
46	0xbea0a8f0	-0.3137889
47	0xbd6c18f3	-0.05764098
48	0x3c8c4c00	0.017126083
49	0xbe79228e	-0.24329588
50	0x3e8933d1	0.26797345
51	0x3e6a28dd	0.2286715
52	0x3e85eee2	0.26158816
53	0x3e59f529	0.21284927
54	0x3d072339	0.032992575
55	0x3d10d611	0.0353604
56	0xbe0c56f9	-0.13705052
57	0xbd9632fa	-0.07333942
58	0x3cda95f5	0.026682833
59	0x3c3327d3	0.010934788
60	0xbe0f9f30	-0.14025569
61	0xbe56d1fc	-0.2097854
62	0x3e8bb69c	0.27287757
63	0x3d49f1df	0.049302932
64	0xbeaf4fb4	-0.34240496
65	0xbe48124b	-0.19538228
66	0x3eba02e7	0.3633034
67	0xbe41eddc	-0.18938392
68	0x3e838c20	0.25692844
69	0xbeb2ce7f	-0.3492317
70	0xbe8a68d4	-0.27033103
71	0x3eacbde6	0.3373863
72	0xbdc3903c	-0.09548995
73	0xbbba5b79	-0.005687174
74	0xbd1f743e	-0.038929217
75	0xbe8072dc	-0.2508763
76	0x3e81b11b	0.25330433
77	0xbe3a1016	-0.18170199
78	0x3c4b1f3d	0.0123975845
79	0xbeb68806	-0.35650653
80	0xbd9a4e1f	-0.07534432
81	0xbc7e0711	-0.015504614
82	0x3e842c65	0.2581512
83	0x3e0b6be4	0.13615376
84	0x3e93f80a	0.28900176
85	0xbd934bf9	-0.07192225
86	0xbe9e30e8	-0.30896688
87	0xbdd9cdbe	-0.10634945
88	0xbd8dd74e	-0.06925832
89	0x3ea288af	0.31744906
90	0xbe695a7d	-0.22788425
91	0x3e80c216	0.25148076
92	0x3e5bdb74	0.21470433
93	0xbe5ef234	-0.2177208
94	0xbe7d3f13	-0.24731092
95	0xbe1f95a6	-0.1558443
96	0xbe195a82	-0.14975932
97	0xbe8b1592	-0.27164894
98	0xbebaad1a	-0.3646019
99	0x3db3d928	0.08781654
100	0x3dccc26f	0.09998023
101	0xbe8f1b43	-0.27950487
102	0x3e8c2071	0.273685
103	0xbe12352c	-0.14278096
104	0xbdedf615	-0.11619202
105	0x3d8ca41e	0.0686724
106	0x3e94c416	0.29055852
107	0xbea54556	-0.32279462
108	0xbd9d7b01	-0.07689477
109	0x3de7457a	0.112925485
110	0xbea1154f	-0.3146157
111	0x3e979732	0.2960754
112	0x3e1424e5	0.14467199
113	0x3ea6960f	0.3253636
114	0xbcf37ea2	-0.02972347
115	0x3e343e27	0.17601834
116	0xbe80c403	-0.25149545
117	0x3eb4ccc8	0.35312486
118	0x3dc1d93d	0.09465263
119	0x3e498a37	0.19681631
120	0xbe5cf5d2	-0.21578148
121	0xbe874ada	-0.26424295
122	0xbea53acb	-0.32271418
123	0xbeb06d1d	-0.34458247
124	0x3b8f6199	0.004375648
125	0xbcc39b06	-0.023877632
126	0xbeb39da1	-0.350812
127	0x3eb099e2	0.34492403
128	0xbe2fd580	-0.17171288
129	0xbe9b858f	-0.30375335
130	0xbe292f19	-0.16521873
131	0x3ea10047	0.31445524
132	0x3dabca05	0.083881415
133	0xbe4b0eb5	-0.19829829
134	0xbe2d41a8	-0.16919577
135	0xbe79cf1c	-0.24395412
136	0x3dfa748d	0.122292615
137	0x3e7d01ff	0.24707793
138	0xbe47f9fb	-0.19528954
139	0x3eb96025	0.36206165
140	0x3ea77d82	0.32712942
141	0x3e00626b	0.12537543
142	0xbc26158e	-0.010136975
143	0x3e8d58ae	0.2760672
144	0x3dd85f3c	0.105650395
145	0xbeaa5f6c	-0.33275926
146	0xbe82e8cc	-0.25568235
147	0x3e48fb7d	0.19627185
148	0x3cf08fbf	0.029365418
149	0x3eb46f16	0.35241002
150	0xbe8a10a7	-0.2696583
151	0xbe91775c	-0.28411376
152	0xbdd6a5b0	-0.10480821
153	0xbe696d92	-0.22795704
154	0x3e92c634	0.28666842
155	0x3d07e171	0.033173982
156	0xbe062a24	-0.13102013
157	0xbd54c4ab	-0.05194537
158	0x3cfd6424	0.03093154
159	0xbe8dea0d	-0.2771763
160	0x3d24f96a	0.040276922
161	0xbe7c2cbb	-0.24626438
162	0x3d7153e6	0.058917902
163	0x3e0adb96	0.13560328
164	0xbe6c500a	-0.23077407
165	0xbe54a1a4	-0.20764786
166	0xbc2643ca	-0.010147998
167	0x3e98f545	0.29874626
168	0x3e4011c3	0.18756776
169	0xbdb8820b	-0.09009179
170	0x3ea92462	0.3303557
171	0x3dc86c35	0.09786264
172	0x3ebb2cbc	0.36557567
173	0x3e887b4f	0.26656577
174	0xbe85c7b3	-0.2612892
175	0x3cbc8248	0.023011342
176	0x3e6cefc6	0.23138341
177	0x3d9d2a28	0.07674056
178	0x3df4216b	0.119204365
179	0x3e9f9eb7	0.31175777
180	0xbe8e8647	-0.2783682
181	0x3e000075	0.12500174
182	0xbdf630ed	-0.120210506
183	0xbe204b94	-0.15653831
184	0x3eadb52b	0.33927283
185	0x3e8a4396	0.2700469
186	0x3e7d1b23	0.24717383
187	0x3d160c53	0.036632847
188	0xbe965523	-0.2936183
189	0x3eae48a7	0.34039804
190	0x3dd2f5ab	0.10300764
191	0xbd1f1669	-0.03883973
192	0xbe937ab6	-0.2880456
193	0xbddc1918	-0.10746974
194	0xbea83e8f	-0.32860228
195	0x3e97e94a	0.29670173
196	0x3ea52ceb	0.32260832
197	0x3d946824	0.07246426
198	0x3ea20e38	0.31651473
199	0xbe75bbe9	-0.23997463
200	0xbe5a5cc6	-0.21324453
201	0x3e384466	0.17994842
202	0x3ebe4730	0.37163687
203	0xbe744274	-0.23853475
204	0xbe9d2d51	-0.30698636
205	0x3e03b393	0.12861471
206	0x3debf23a	0.115208104
207	0x3e882b79	0.26595667
208	0x3d680bb8	0.0566518
209	0xbec1b4e9	-0.37833336
210	0x3e1a3995	0.15061028
211	0xbe3ba6ca	-0.18325344
212	0x3e47f3ef	0.19526647
213	0xbe8f86eb	-0.28032622
214	0xbe95cf0f	-0.29259536
215	0x3d0a0ade	0.03370177
216	0xbd80dec3	-0.062924884
217	0xbeb35aa6	-0.35030097
218	0xbe3ef384	-0.18647581
219	0xbe9ebde5	-0.31004253
220	0x3ddaee07	0.10689931
221	0x3dcdb59e	0.10044406
222	0xbdf35042	-0.11880542
223	0xbea1beda	-0.3159092

row_embedding.1.bias f4 [32]
0	0xbd5299cd	-0.051416207
1	0x3e836183	0.25660333
2	0x3de196fe	0.110151276
3	0xbebcc5d7	-0.3686969
4	0x3da56766	0.08076362
5	0xbdf3d370	-0.11905563
6	0x3c9c9972	0.019116137
7	0xbddb4412	-0.10706343
8	0x3e1d0b45	0.1533633
9	0xbe56a56b	-0.2096154
10	0xbeb32b95	-0.34994188
11	0xbcd2f7fb	-0.025753012
12	0x3ea29d7d	0.3176078
13	0x3e1b06e7	0.15139352
14	0x3eb16085	0.3464395
15	0x3dd65546	0.10465483
16	0xbe24496f	-0.16043638
17	0x3c818bf0	0.015813798
18	0xbdf4c630	-0.11951864
19	0x3e9f07d3	0.31060657
20	0x3e8f8c1c	0.28036582
21	0xbce1bf32	-0.02755699
22	0x3e5ab114	0.21356612
23	0xbdce1bef	-0.10063922
24	0x3ea4a0cd	0.3215393
25	0x3e545112	0.20734051
26	0xbe174311	-0.14771678
27	0x3e0067e0	0.12539625
28	0xbe971c50	-0.29513788
29	0xbe487ce9	-0.195789
30	0x3cb21b26	0.021741461
31	0xbe5d4a55	-0.21610387

row_embedding.3.weight f4 [32, 32]
0	0xbdfcf9d2	-0.12352337
1	0xbd23ba1c	-0.03997241
2	0x3d91ee4c	0.0712553
3	0x3c414414	0.011796016
4	0x3dcf023d	0.10107849
5	0x3b862760	0.0040940493
6	0x3e2794df	0.16365384
7	0x3e1538f7	0.14572512
8	0x3dd03867	0.10167008
9	0xbe15aaad	-0.14615889
10	0x3d12cc24	0.035839215
11	0x3cfe6610	0.031054527
12	0x3dcd945c	0.10038063
13	0xba2d7d36	-0.0006618084
14	0x3e0cda49	0.13755144
15	0x3e1fd1c0	0.15607357
16	0x3e1d4708	0.15359128
17	0x3d1a7499	0.037708852
18	0xbdf49bea	-0.11943801
19	0x3dd8f39d	0.105933405
20	0x3d1e1fbb	0.03860448
21	0x3d5cb00c	0.05387883
22	0x3d36429a	0.04449711
23	0x3deac4db	0.114633285
24	0xbe26debc	-0.16295904
25	0x3dda3abf	0.10655736
26	0x3e02dc66	0.12779388
27	0x3e1a4d0b	0.15068452
28	0x3c926a23	0.017872876
29	0xbe1d387e	-0.15353581
30	0x3e16ac76	0.14714226
31	0xbcec823b	-0.028870692
32	0x3d0c3855	0.03423341
33	0x3ce8a3ed	0.028398478
34	0xbe365c31	-0.17808606
35	0x3c00695c	0.00783762
36	0xbc8f4683	-0.017489677
37	0xbd4b6408	-0.049655944
38	0x3d9f7f45	0.077879466
39	0x3d30c714	0.043158606
40	0xbdc0014b	-0.093752466
41	0xbd212c02	-0.03934861
42	0xbdd6b789	-0.10484225
43	0xbe24902f	-0.16070627
44	0x3db1339b	0.08652421
45	0x3dcce810	0.100052
46	0x3e20a800	0.15689087
47	0xbe299829	-0.1656195
48	0xbd4266ba	-0.04746125
49	0x3e05d162	0.13068154
50	0x3d9a0deb	0.07522186
51	0xbe0abd2f	-0.1354873
52	0x3e01c0e3	0.12671237
53	0x3dfa0f95	0.12210003
54	0x3e05886d	0.13040324
55	0x3df9b083	0.1219187
56	0x3e0f404a	0.13989368
57	0xbd917f5e	-0.071043715
58	0x3e0eeda8	0.13957846
59	0x3de0ec84	0.10982612
60	0xbe093e6f	-0.13402723
61	0x3d6d13e8	0.057880312
62	0xbe0c0b1b	-0.13676111
63	0xbdbe7a6d	-0.093006946
64	0x3c6bfc25	0.014403378
65	0x3e25fcfb	0.16209786
66	0xbdd90e9c	-0.1059849
67	0xbe176965	-0.14786299
68	0x3e2e0b90	0.16996598
69	0xbdad1a7c	-0.08452317
70	0xbe280ae9	-0.16410412
71	0xbd91691d	-0.07100127
72	0x3df2a60a	0.11848076
73	0x3d02dff0	0.031951845
74	0x3e246115	0.16052659
75	0x3dd335b5	0.10312978
76	0x3c2abd0a	0.010421047
77	0x3e261903	0.16220479
78	0xbda5e680	-0.08100605
79	0x3daf23e6	0.08551769
80	0xbd175f23	-0.036955964
81	0xbc9ce54b	-0.019152304
82	0x3d31c445	0.043400068
83	0x3e005fdf	0.12536572
84	0x3e1b5dc2	0.15172485
85	0x3d4d22e7	0.050082114
86	0xbd64238f	-0.055697974
87	0x3e2e23c1	0.17005827
88	0x3d04bf89	0.032409225
89	0x3d684a29	0.05671135
90	0x3d62867c	0.055304036
91	0xbe292f63	-0.16521983
92	0x3e2964c7	0.1654235
93	0x3e27fb34	0.1640442
94	0x3e03cb1e	0.12870452
95	0x3e1de181	0.15418054
96	0xbda42134	-0.080141455
97	0xbd1c7e8c	-0.038206622
98	0xbe1df781	-0.15426446
99	0x3d673b14	0.056452826
100	0x3d41eae3	0.047343146
101	0x3d72418f	0.059144553
102	0x3e2d7c4e	0.1694195
103	0xbcc18739	-0.02362405
104	0x3db47806	0.08811955
105	0x3dedd50e	0.116129026
106	0xbdde4563	-0.10853078
107	0xbd0229f9	-0.03177831
108	0x3e028b39	0.12748422
109	0xbdd3411d	-0.10315154
110	0x3d7ab5a3	0.06120838
111	0x3db50eea	0.08840735
112	0xbc9b9a95	-0.018994609
113	0x3e2cbf99	0.16869964
114	0xbd8d68e0	-0.06904769
115	0x3d930436	0.071785375
116	0xbd22e4bb	-0.039768916
117	0xbe22a360	-0.15882635
118	0x3d94fa6a	0.07274325
119	0xbd8aab0a	-0.06770904
120	0xbb3fa59c	-0.0029242998
121	0x3e1d736d	0.15376063
122	0xbda24f24	-0.07925251
123	0xbd86edc5	-0.0658832
124	0xbe33b9b9	-0.17551316
125	0xbe01ce1d	-0.12676282
126	0xbdefc20e	-0.11706935
127	0x3d37c156	0.044862114
128	0x3db77f43	0.0895982
129	0xbcecc7bd	-0.028903836
130	0xbdea43a6	-0.11438684
131	0x3c0f02a3	0.008728656
132	0x3dac53b8	0.084144056
133	0xbd85c836	-0.06532328
134	0xbde469c3	-0.11152985
135	0x3dbe5d72	0.09295167
136	0xbe30197d	-0.17197223
137	0x3d94f98a	0.07274158
138	0x3e0d6c6a	0.13810888
139	0xbe316059	-0.1732191
140	0xbd49bd9f	-0.049253102
141	0xbd2fe8b8	-0.042946547
142	0x3c29409f	0.010330348
143	0xbe3ae49b	-0.18251269
144	0xbde260fa	-0.11053653
145	0xbdd2cc69	-0.102928944
146	0x3d8adc32	0.0678028
147	0x3d7e5db5	0.062101085
148	0xbe0e6e2c	-0.13909215
149	0x3d367cf0	0.044552743
150	0x3b4b39a2	0.0031009694
151	0x3d827a7a	0.06371017
152	0xbd8b0d35	-0.067896284
153	0x3df06a51	0.11739028
154	0xbda6f51a	-0.08152218
155	0xbe0c9ec0	-0.13732433
156	0x3dd46ef9	0.10372729
157	0xbe324789	-0.17410101
158	0x3df1d697	0.11808508
159	0xbd4d4c54	-0.05012162
160	0xbdb2b80a	-0.08726509
161	0xbe234067	-0.15942536
162	0xbd07c690	-0.03314835
163	0x3d7ada7d	0.061243523
164	0xbd666213	-0.056245875
165	0x3e27185d	0.16317888
166	0x3dbdcf9b	0.09268113
167	0x3d780f50	0.06056148
168	0xbe28bb38	-0.16477668
169	0x3b7bed71	0.0038441087
170	0xbe01be7d	-0.12670322
171	0x3d3d2509	0.046177898
172	0xbd211fba	-0.039336897
173	0x3de01a12	0.109424725
174	0xbb21fc47	-0.002471702
175	0xbe278ad5	-0.16361554
176	0xbdc6bdb1	-0.097041495
177	0xbe33d467	-0.17561494
178	0xbd370fa8	-0.044692665
179	0x3dae2a9b	0.0850422
180	0xbe13f315	-0.14448197
181	0x3df0aa6f	0.11751258
182	0xbe328c8b	-0.17436425
183	0xbc584566	-0.01320014
184	0x3a1bef01	0.0005948395
185	0xbdb54fbd	-0.088530995
186	0xbe1c7012	-0.15277126
187	0xbdc63b49	-0.096792765
188	0xbe1317ba	-0.1436452
189	0xbca437f9	-0.020046221
190	0x3cdbe4dc	0.026842527
191	0xbe27d085	-0.16388138
192	0x3da81c8f	0.08208572
193	0x3e038aa1	0.12845851
194	0x3df96340	0.121771336
195	0xbd2fa5e9	-0.042882834
196	0x3e0fcfaf	0.14044069
197	0x3d740c3b	0.059581976
198	0xbe011eba	-0.12609378
199	0xbdab8924	-0.08375767
200	0xbe1c1381	-0.15241815
201	0x3da65b8b	0.08122929
202	0x3e04f3af	0.12983583
203	0x3d8c63bf	0.068549626
204	0xbcf92d04	-0.030416973
205	0xbe14b349	-0.14521517
206	0xbe2c9c69	-0.1685654
207	0x3cb31b08	0.021863475
208	0xbccfe6a0	-0.025378525
209	0x3e0ca3aa	0.13734308
210	0xbd97b6cb	-0.07407912
211	0x3e0e3f7f	0.1389141
212	0x3dbb3913	0.091417454
213	0x3dde3a81	0.108510025
214	0x3d2562d6	0.04037746
215	0x3e0a8000	0.1352539
216	0xbdbd5536	-0.09244768
217	0xbd419d0b	-0.04726891
218	0xbdb5df01	-0.08880425
219	0x3c6167d6	0.013757667
220	0x3e29590d	0.16537876
221	0xbd456453	-0.04819138
222	0xbd1ceebb	-0.03831361
223	0x3ddb0455	0.10694186
224	0xbd6dfcfc	-0.058102593
225	0xbd2e1b67	-0.0425066
226	0xbdf10270	-0.11768043
227	0xbe032f3c	-0.12810987
228	0x3d165f42	0.03671194
229	0x3e0ded9e	0.13860175
230	0x3e0f1c78	0.13975704
231	0xbdccb3d9	-0.09995241
232	0x3db5a116	0.08868615
233	0xbddaea29	-0.10689194
234	0xbe31d6fe	-0.1736717
235	0xbb031dd9	-0.0020006804
236	0x3e1c6969	0.15274586
237	0xbc9d47b1	-0.019199224
238	0xbe15fd9c	-0.14647526
239	0xbd72c2ca	-0.059267797
240	0x3d8c6b40	0.06856394
241	0x3e097713	0.1342433
242	0xbe32daec	-0.17466325
243	0x3d3827da	0.04495988
244	0x3d7c1944	0.061547533
245	0x3d237ccc	0.039913937
246	0xbe30d3cf	-0.17268299
247	0xbd7bf120	-0.06150925
248	0xbcd7f3a0	-0.026361287
249	0xbdc6a0d9	-0.09698648
250	0xbe013e14	-0.12621337
251	0x3d049e06	0.032377265
252	0xbc8354f2	-0.016031716
253	0xbb974878	-0.0046167932
254	0xbdfcabc3	-0.123374484
255	0x3e116a38	0.14200675

row_embedding.3.bias f4 [32]
0	0x3dde4d09	0.10854537
1	0xbd578397	-0.05261573
2	0xbd7850e9	-0.060624037
3	0xbd2e3380	-0.042529583
4	0x3c60fbff	0.013731956
5	0xbe04ea03	-0.12979893
6	0x3dd902d7	0.10596245
7	0x3e11c228	0.14234221
8	0xbd824b6c	-0.06362042
9	0x3dd1f28c	0.1025134
10	0x3e08035e	0.13282534
11	0x3dca1140	0.098665714
12	0xbc9f7198	-0.019463345
13	0x3d32ab8e	0.04362064
14	0x3dd64a67	0.1046341
15	0x3dd860f8	0.1056537
16	0x3dc58510	0.0964452
17	0xbd96c9f0	-0.07362735
18	0x3d486b66	0.048930548
19	0x3dc0f5b1	0.09421862
20	0xbc0c6fe2	-0.008571597
21	0x3d0840fb	0.033265095
22	0x3d5f23bb	0.054477435
23	0x3d85a2ee	0.06525217
24	0x3dd7ca55	0.10536639
25	0x3d2aa6ff	0.041663166
26	0x3e28a49d	0.16469045
27	0xbd6337f4	-0.055473283
28	0x3bc1d95c	0.005915804
29	0xbc05ea14	-0.008173484
30	0xbe18689d	-0.14883657
31	0x3df60fad	0.12014709

col_embedding.0.weight f4 [7]
0	0x3f7fa7a2	0.9986516
1	0x3f80056f	1.0001658
2	0x3f7ff3a0	0.9998112
3	0x3f800887	1.0002602
4	0x3f7f9bdf	0.99847215
5	0x3f7fcb22	0.9991933
6	0x3f800dfe	1.000427

col_embedding.0.bias f4 [7]
0	0xbad31248	-0.0016103471
1	0xb91e54fc	-0.00015099713
2	0xb92a1c5a	-0.00016223025
3	0xb9ab533c	-0.00032677676
4	0x3a6dba31	0.0009068577
5	0x3a6cb4f2	0.00090296485
6	0x3a35c6f1	0.00069342466

col_embedding.1.weight f4 [32, 7]
0	0x3eb49733	0.35271606
1	0x3bb208d7	0.0054331827
2	0x372565c0	9.858457e-06
3	0xbe3271ed	-0.17426272
4	0x3e8d0b39	0.27547625
5	0xbeba3c88	-0.36374307
6	0xbdce4f81	-0.10073758
7	0xbdee0b36	-0.11623232
8	0xbe84749e	-0.25870222
9	0xbe28104c	-0.16412467
10	0x3e3e3aff	0.18577193
11	0xbe5a8833	-0.21341018
12	0x3ba7aa06	0.005116704
13	0xbe71f89f	-0.23629998
14	0xbe4a1386	-0.1973401
15	0x3c537ef2	0.012908684
16	0x3e8abf0d	0.27098885
17	0xbe3550a1	-0.17706539
18	0x3cfd8a39	0.030949699
19	0x3db84a8d	0.089985944
20	0x3e575aef	0.21030782
21	0x3e9184ac	0.28421533
22	0x3e906bd0	0.28207254
23	0xbdd48dd5	-0.10378615
24	0x3d763797	0.06011161
25	0xbe9e1b76	-0.30880326
26	0xbc960d7b	-0.018316975
27	0x3e34f45f	0.17671345
28	0x3e17310f	0.14764808
29	0x3ea48b47	0.3213751
30	0x3e972542	0.29520613
31	0xbe36fcc2	-0.17869857
32	0xbd879227	-0.06619673
33	0xbe808d2a	-0.251077
34	0xbebab586	-0.36466616
35	0xbec108cb	-0.3770202
36	0x3d1a4634	0.037664607
37	0xbd9212e2	-0.07132508
38	0x3e7771df	0.24164532
39	0xbe6a1951	-0.2286122
40	0x3e2c985b	0.16854994
41	0xbdf77c29	-0.120842285
42	0xbd09c586	-0.03363564
43	0x3eb9e0a6	0.36304206
44	0x3ebf12f6	0.37319154
45	0x3e513148	0.20428956
46	0x3e6bddaa	0.23033777
47	0x3d14504d	0.036209393
48	0x3e30128a	0.17194572
49	0x3d9eca2f	0.07753407
50	0xbdfcb615	-0.12339417
51	0x3e3da90e	0.1852152
52	0xbeb5dcf6	-0.35520142
53	0x3d903509	0.07041366
54	0x3d9444a8	0.07239658
55	0x3e05b47b	0.13057129
56	0xbde0de03	-0.109798454
57	0xbe38a114	-0.18030196
58	0xbdbef789	-0.09324557
59	0xbc56c1c2	-0.013107719
60	0xbe6504d7	-0.22365128
61	0xbe1dea3c	-0.15421385
62	0x3e365dcb	0.17809217
63	0x3d9b6568	0.07587701
64	0xbea6bd03	-0.3256608
65	0xbd5e0cba	-0.054211356
66	0xbccda8c1	-0.025104882
67	0x3e270039	0.16308679
68	0x3e9a044d	0.30081406
69	0xbec17b26	-0.37789267
70	0x3eba94c5	0.36441627
71	0x3c962081	0.018326046
72	0x3eb99595	0.36246935
73	0xbe0336ac	-0.12813824
74	0xbe92263f	-0.28544804
75	0xbe73c4f8	-0.23805606
76	0xbe6feb6c	-0.2342965
77	0x3eb74b01	0.3579941
78	0x3e07acb6	0.13249478
79	0xbe88f458	-0.2674892
80	0xbd860057	-0.065430336
81	0xbe31ccf5	-0.17363341
82	0xbe6cdaf4	-0.23130399
83	0x3e6263b5	0.22108348
84	0x3e961519	0.2931297
85	0xbe992fb6	-0.29919213
86	0x3cc6936f	0.024240224
87	0x3e7d622c	0.24744481
88	0x3e25ed63	0.16203837
89	0xbd95b849	-0.0731054
90	0xbe69accd	-0.22819825
91	0xbea61931	-0.32441095
92	0xbe559be5	-0.2086025
93	0x3c6690be	0.014072595
94	0xbd0affb4	-0.033935264
95	0x3e4c1233	0.19928817
96	0x3e2a4894	0.16629249
97	0xbc14b71e	-0.009076862
98	0xbc781645	-0.015142028
99	0x3e3f76a0	0.18697596
100	0xbe3ebf3e	-0.1862764
101	0x3e5d46c5	0.21609028
102	0x3ea2f840	0.31830025
103	0x3e63b5d0	0.22237325
104	0x3daed796	0.085372135
105	0x3d3df808	0.04637912
106	0xbcdd93f9	-0.027048098
107	0x3e4a88d9	0.19778766
108	0x3e8438f0	0.2582469
109	0xbcd86b8b	-0.026418468
110	0x3e02b103	0.12762837
111	0xbe911032	-0.2833267
112	0x3e41701a	0.1889042
113	0x3e8c24f2	0.27371937
114	0xba4e5b14	-0.0007871848
115	0xbe1d5fc6	-0.15368566
116	0xbdbf2390	-0.09332955
117	0xbdfb54de	-0.122720465
118	0xbeaf3438	-0.34219527
119	0x3ea77181	0.32703784
120	0xbc465b44	-0.01210672
121	0xbea38d41	-0.31943706
122	0x3e83ead7	0.25765106
123	0x3ea2fafb	0.31832108
124	0x3e9feb05	0.31233993
125	0xbe6b7f26	-0.22997722
126	0xbe8397fe	-0.25701898
127	0x3d9e1291	0.07718385
128	0x3d8f8800	0.07008362
129	0xbe623cbb	-0.2209348
130	0x3d88f74c	0.06687793
131	0x3e8171fa	0.2528227
132	0xbe8dc5b0	-0.27689886
133	0x3ebe29ea	0.37141353
134	0xbeb2d874	-0.34930766
135	0xbdad3596	-0.08457486
136	0xbd64f714	-0.055899695
137	0x3db28c3e	0.08718155
138	0xbc40774e	-0.011747194
139	0x3e80ede3	0.25181493
140	0x3d8bcc41	0.06826068
141	0xbe24375a	-0.1603674
142	0xbebe7666	-0.37199706
143	0xbe957908	-0.29193902
144	0x3e52dea7	0.20592748
145	0x3e21864e	0.1577389
146	0x3e500971	0.20316102
147	0xbd30086b	-0.042976778
148	0x3dddd039	0.10830731
149	0xbea48146	-0.32129878
150	0x3c320572	0.010865556
151	0xbe1fcc25	-0.15605219
152	0xbe81813e	-0.25293916
153	0xbdb861b1	-0.09003008
154	0x3e6710cc	0.22565001
155	0x3e6c50c5	0.23077686
156	0x3d69bb5d	0.05706345
157	0xbd8289b9	-0.06373925
158	0xbe31e4b9	-0.17372407
159	0xbc7361f9	-0.0148549015
160	0xbd3cf86c	-0.04613535
161	0x3e672362	0.22572091
162	0x3dea550d	0.114420034
163	0xbe92ddbd	-0.28684798
164	0xbea4336b	-0.3207048
165	0x3dff51be	0.12466763
166	0x3ce4b89d	0.027920062
167	0x3e0c5387	0.13703738
168	0xbe2c622d	-0.16834326
169	0x3e25024a	0.16114154
170	0xbe9ce4d5	-0.30643335
171	0x3db063e3	0.08612802
172	0xbe835923	-0.25653943
173	0xbe9894e1	-0.29801086
174	0xbda1b9a3	-0.078967355
175	0x3e8b81b7	0.27247402
176	0xbe84d21f	-0.2594156
177	0xbe88de3e	-0.26732057
178	0x3e3e61d6	0.18592009
179	0xbeb4bacf	-0.35298774
180	0xbc0fcba7	-0.008776582
181	0xbe877b15	-0.26461092
182	0x3e89cae1	0.26912597
183	0xbd67c9a8	-0.0565888
184	0xbdcac7d2	-0.09901394
185	0xbe6a2300	-0.22864914
186	0x3cc685f9	0.024233805
187	0x3e134512	0.14381817
188	0x3dc97ede	0.09838651
189	0x3e495497	0.19661175
190	0x3ebe276c	0.37139452
191	0x3e3cf74e	0.18453714
192	0x3ea03ff1	0.31298783
193	0x3d9d8374	0.07691088
194	0xbe6df939	-0.23239602
195	0xbe96fe2c	-0.29490793
196	0x3eb79148	0.35853028
197	0xbe0c2a2e	-0.13687965
198	0x3ea748f4	0.32672846
199	0x3d549639	0.051901076
200	0xbe06535f	-0.13117741
201	0xbe64367f	-0.22286414
202	0xbeb25a53	-0.34834537
203	0x3c8edfa5	0.017440626
204	0x3dcd784a	0.10032709
205	0xbbb78bee	-0.0056013977
206	0xbe9bd61a	-0.30436784
207	0x3e903068	0.2816193
208	0x3e877b4b	0.26461253
209	0x3eb70d59	0.3575237
210	0x3eb2d0a5	0.34924808
211	0xbdd40b6e	-0.103537425
212	0xbe44cc6e	-0.19218609
213	0x3e35e585	0.17763336
214	0x3c253e98	0.010085724
215	0x3e107bb7	0.14109693
216	0xbd5edff0	-0.054412782
217	0x3e3314eb	0.17488448
218	0xbebb3e82	-0.36571127
219	0x3eb0973f	0.34490392
220	0x3e22ac0f	0.15885948
221	0x3eb9a06f	0.36255214
222	0x3baefbdc	0.0053400826
223	0x3e74b7fb	0.23898308

col_embedding.1.bias f4 [32]
0	0xbe87eb7c	-0.26546848
1	0xbe308887	-0.17239581
2	0xbd9eecbe	-0.07759999
3	0xbe92c466	-0.28665465
4	0xbe9a2254	-0.30104315
5	0x3e8b11d4	0.2716204
6	0xbe489f29	-0.19591965
7	0xbe248421	-0.16066028
8	0xbd245c45	-0.040127058
9	0xbd13e923	-0.03611101
10	0x3dc60cb5	0.096703924
11	0x3e8a963b	0.27067742
12	0x3d6d5749	0.05794457
13	0xbe2e3da5	-0.17015703
14	0x3e00014e	0.12500498
15	0xbec0e9da	-0.37678415
16	0x3eb53bee	0.35397285
17	0x3bb11ff6	0.0054054214
18	0xbe53b7c1	-0.20675565
19	0xbd2597a7	-0.04042783
20	0xbcd13068	-0.025535777
21	0xbea934a7	-0.33047983
22	0x3e8e68cc	0.2781433
23	0x3d9dbf87	0.077025466
24	0xbeb50725	-0.35357013
25	0x3e9c4473	0.30520973
26	0xbe8f314d	-0.279673
27	0xbda7deea	-0.08196814
28	0x3de86771	0.11347855
29	0x3eb57b3b	0.3544558
30	0xbd5091e6	-0.05092039
31	0x3eabb4f9	0.3353651

col_embedding.3.weight f4 [32, 32]
0	0x3e0b6474	0.13612539
1	0x3e02decf	0.12780307
2	0xbbe3e1e4	-0.0069544185
3	0xbe1007bb	-0.14065449
4	0x3d9dccfb	0.077051125
5	0xbd026090	-0.03183037
6	0xbe2b416f	-0.1672418
7	0x3e0bba36	0.13645253
8	0x3e0d0816	0.13772616
9	0x3e18ff7f	0.14941214
10	0x3dc1bfa0	0.09460378
11	0x3de1b910	0.11021626
12	0xbe14e841	-0.14541723
13	0xbbd6fa81	-0.006560624
14	0x3d6e63f2	0.058200784
15	0x3d94ceb0	0.07265985
16	0xbd62a73b	-0.055335265
17	0xbd16b546	-0.03679397
18	0xbe068cb1	-0.13139607
19	0xbe214daf	-0.1575229
20	0x3beede94	0.007289717
21	0x3e30718e	0.17230818
22	0xbdf485bb	-0.119395696
23	0x3e284f0e	0.16436407
24	0xbe230fdb	-0.15924017
25	0xbdf69084	-0.12039283
26	0xbe0f833d	-0.14014907
27	0xbe019513	-0.12654524
28	0x3e14f3ab	0.14546077
29	0x3b33874a	0.002739387
30	0xbd444782	-0.047919758
31	0x3e2ed380	0.17072868
32	0x3db25b9c	0.08708879
33	0xbe0ced8f	-0.13762496
34	0x3e1ad3c3	0.15119843
35	0xbdb59043	-0.08865406
36	0x3dc1eaa1	0.0946858
37	0x3d4c4888	0.04987386
38	0x3d6971b3	0.056993198
39	0xbd48d5e2	-0.0490321
40	0x3e264fb4	0.16241342
41	0xbb92924d	-0.004473007
42	0x3dd7f3d8	0.105445564
43	0x3df5d827	0.120041184
44	0xbe1d901f	-0.15387009
45	0xbcf8480f	-0.030307798
46	0xbdcf9e8b	-0.101376615
47	0xbc9a337b	-0.018823376
48	0xbe18c829	-0.14920105
49	0xbc920ae0	-0.017827451
50	0xbdebe954	-0.11519113
51	0xbd8b1c4d	-0.06792507
52	0x3dc58c0d	0.09645853
53	0xbc70d734	-0.014699746
54	0x3e279110	0.1636393
55	0x3d74dffa	0.059783913
56	0x3d6aa83c	0.057289347
57	0x3d3b954d	0.04579668
58	0xbe34aab6	-0.17643246
59	0x3e2dd9e7	0.16977654
60	0xbbe6b268	-0.0070403107
61	0xbe2fd277	-0.1717013
62	0xbbce6b5e	-0.0062994203
63	0xbdb57ffb	-0.08862301
64	0xbd73f806	-0.059562705
65	0xbd37dd3a	-0.044888712
66	0xbcbd113e	-0.02307951
67	0xbdd88b51	-0.105734475
68	0xbdd324a5	-0.10309724
69	0x3d7eaa1f	0.06217396
70	0x3e2041f0	0.15650153
71	0x3e337f55	0.17529042
72	0xbda4f6ac	-0.080548614
73	0xbe222aef	-0.1583669
74	0xbd0fef8e	-0.035140567
75	0xbc6894dd	-0.014195648
76	0xbe1f182c	-0.15536565
77	0xbe06e339	-0.13172616
78	0xbc3917ef	-0.01129721
79	0x3d8fd4d4	0.070230156
80	0x3a7be48e	0.00096089474
81	0xbd57b274	-0.05266042
82	0xbcc62782	-0.02418876
83	0x3e25c135	0.16186984
84	0x3d9938a9	0.0748151
85	0xbdcb7483	-0.09934332
86	0x3dd6dd5e	0.10491441
87	0x3df4cf84	0.11953643
88	0xbdc64bfe	-0.09682463
89	0xbd0c28f1	-0.034218732
90	0x3de08992	0.109637395
91	0x3b944b79	0.0045255986
92	0x3ce6d513	0.028177774
93	0xbd216d0c	-0.039410636
94	0xbd2b6b94	-0.04185064
95	0x3dac0992	0.08400263
96	0x3dda1c93	0.10649981
97	0xbd35a25e	-0.0443443
98	0xbcb14433	-0.021638965
99	0x3cd63d29	0.02615221
100	0x3da17c84	0.078850776
101	0xbe2f68f4	-0.1712988
102	0xbd907bf4	-0.07054892
103	0x3dd733fc	0.10507962
104	0x3e1f023f	0.155282
105	0xbe2d955c	-0.16951507
106	0x3d283947	0.04107025
107	0xbd407b7f	-0.046992775
108	0x3d844939	0.064592786
109	0xbc16a39b	-0.00919428
110	0xbd9a7ca8	-0.075433075
111	0xbe14dbd3	-0.14536981
112	0xbd4f41c5	-0.050599832
113	0x3d1566c1	0.036474947
114	0xbd4cf6b3	-0.05003996
115	0x3bf7a231	0.0075571765
116	0x3d7a6c42	0.0611384
117	0x3debd68e	0.115155324
118	0x3df699e1	0.12041069
119	0x3d81fa76	0.063466
120	0x3de77c3e	0.11302994
121	0xbe1bc103	-0.15210347
122	0x3df47c2f	0.11937749
123	0xbcc2c152	-0.023773823
124	0x3df696d9	0.12040491
125	0x3e0bc6b5	0.1365002
126	0x3e100c92	0.14067295
127	0x3d87e3de	0.06635259
128	0x3dd8fb0c	0.105947584
129	0x3d76bc75	0.06023832
130	0x3d00cf6c	0.031447813
131	0xbdb654d6	-0.089029
132	0x3c142ba4	0.009043608
133	0x3e10adf4	0.14128858
134	0xbd14ca86	-0.036325954
135	0xbcec4105	-0.028839597
136	0x3e092c41	0.13395788
137	0x3dcaded4	0.09905782
138	0xbda84061	-0.08215404
139	0xbe245102	-0.16046527
140	0x3c957a13	0.018246686
141	0xbe099814	-0.1343692
142	0xbe0686a1	-0.13137294
143	0x3e12aeb4	0.14324456
144	0x3dd20a9d	0.102559306
145	0xbe288b2f	-0.16459344
146	0xbdbbe57a	-0.091746286
147	0x3dc70014	0.09716812
148	0xbe05d732	-0.13070372
149	0x3d9648af	0.07338082
150	0x3cfa66cf	0.030566601
151	0xbdfa63a9	-0.1222604
152	0x3bd789d7	0.006577711
153	0x3d718bb1	0.05897111
154	0x3e2de773	0.16982822
155	0x3dd77188	0.10519701
156	0x3cce8a15	0.025212327
157	0xbd8e2cb2	-0.06942119
158	0xbe23da1c	-0.16001171
159	0x3cba4f2b	0.022742828
160	0x3cd81cc9	0.026380913
161	0x3d8d32d3	0.068944596
162	0xbd67f465	-0.056629557
163	0xbe07d461	-0.1326461
164	0x3de54a3c	0.111958
165	0x3dbbd7eb	0.091720425
166	0xbd5f839e	-0.05456888
167	0x3e079f9a	0.13244477
168	0x3e1c7fe1	0.15283157
169	0x3dd5ef14	0.10445991
170	0xbdbab1e9	-0.09115965
171	0xbdedd120	-0.11612153
172	0xbdccfe4a	-0.10009439
173	0x3e13405d	0.14380021
174	0xbdec435a	-0.11536284
175	0x3d4cdac0	0.050013304
176	0xbd3e6b77	-0.046489205
177	0xbdd09cba	-0.10186143
178	0x3e0d7f89	0.13818182
179	0x3d352507	0.044224765
180	0xbd9a84f2	-0.075448886
181	0xbd42c6df	-0.04755294
182	0x3e00405a	0.12524548
183	0xbc9783ae	-0.018495407
184	0x3d4af744	0.049552217
185	0xbe0d4acb	-0.13798063
186	0xbd8ac6e1	-0.067762144
187	0xbd4338aa	-0.04766146
188	0x3e15d1c5	0.14630802
189	0xbe21e079	-0.15808286
190	0x3db35789	0.087569304
191	0x3c33d261	0.010975451
192	0x3d3e769e	0.04649984
193	0xbd7b5d0f	-0.061368044
194	0x3defd51b	0.117105685
195	0xba38557e	-0.00070317823
196	0xbde6804b	-0.11254939
197	0xbc80ed77	-0.015738232
198	0x3da2b025	0.07943753
199	0x3df8b562	0.12143971
200	0x3e317667	0.17330323
201	0x3e24fbae	0.16111633
202	0xbcea71ac	-0.028618656
203	0xbdc2421a	-0.09485264
204	0x3ca96403	0.020677572
205	0xbe230d2f	-0.15922998
206	0x3e018f23	0.12652259
207	0x3bb3cf14	0.005487332
208	0x3e307f6d	0.17236109
209	0xbd94e421	-0.07270075
210	0x3dccb064	0.09994581
211	0x3e2018b3	0.15634422
212	0xbce4a538	-0.027910814
213	0x3dcf9bd6	0.10137145
214	0xbdec1c97	-0.115288906
215	0x3e225bff	0.15855406
216	0x3d2e5692	0.04256303
217	0x3e10f1c0	0.1415472
218	0x3cb65b43	0.022260314
219	0xbc6804dd	-0.014161316
220	0x3d456670	0.048193395
221	0x3df87da1	0.12133337
222	0x3dec6f45	0.115446605
223	0xbdf7e588	-0.121043265
224	0xbdf80458	-0.121102035
225	0x3daf039f	0.085456125
226	0x3e2b7772	0.16744784
227	0x3e15f5dc	0.14644569
228	0xbdd0ca91	-0.101948865
229	0x3cc79b07	0.024365915
230	0xbc782765	-0.015146111
231	0xbe1a4194	-0.15064079
232	0x3e112985	0.14175995
233	0x3e270a42	0.16312507
234	0x3d3cb8df	0.046074744
235	0xbde4d75f	-0.11173891
236	0xbc8f6e2d	-0.01750859
237	0x3dfacfd3	0.122466706
238	0xbdcade9b	-0.0990574
239	0xbd3c6008	-0.04599002
240	0xbdb0cb84	-0.086325675
241	0x3c0bf054	0.008541185
242	0xbd9c6dc8	-0.076381266
243	0xbcf5a857	-0.029987497
244	0xbd4d1a91	-0.050074164
245	0x3dd8a8b7	0.10579055
246	0xbdafb4a7	-0.085793786
247	0x3d42ec86	0.047588848
248	0x3e0f1029	0.13971008
249	0x3e127607	0.14302836
250	0xbe1cda40	-0.15317631
251	0xbd5c846b	-0.05383722
252	0xbdbee53f	-0.09321069
253	0xbe0ca304	-0.1373406
254	0x3d65bbdc	0.05608736
255	0x3df9475b	0.12171813

col_embedding.3.bias f4 [32]
0	0xbd3cb33a	-0.04606936
1	0x3e1a52b6	0.15070614
2	0xbdc7b4af	-0.097512595
3	0x3df5a090	0.119935155
4	0xbcc3dc5b	-0.023908785
5	0x3e1ca2fa	0.15296546
6	0x3dd6c0c6	0.10485987
7	0x3d005253	0.03132851
8	0x3e126868	0.1429764
9	0x3e119d97	0.14220272
10	0x3e075157	0.13214622
11	0x3e079acd	0.13242646
12	0xbdaa32ec	-0.08310494
13	0x3e215ad1	0.157573
14	0x3d8a75b7	0.067607336
15	0xbca5898f	-0.020207195
16	0xbdc07a14	-0.093982846
17	0xbdac33ce	-0.084083185
18	0x3decd939	0.115648694
19	0x3e12aadb	0.14322989
20	0x3dbaca9b	0.09120675
21	0x3dca1f58	0.098692596
22	0xbdfc7764	-0.123274595
23	0x3e1afe24	0.1513601
24	0x3e0e073b	0.13869946
25	0xbd863328	-0.06552726
26	0x3e0afb50	0.1357243
27	0x3dbf4bf9	0.093406625
28	0x3dbc803b	0.092041455
29	0x3cf46d7f	0.029837368
30	0xbdb8114e	-0.089876756
31	0x3d9ae022	0.07562281

conv_col_to_row.feature_module_left.0.weight f4 [32, 32]
0	0x3cc65319	0.024209546
1	0xbe1e78ce	-0.15475771
2	0xbb62f172	-0.0034628776
3	0x3d2b51ea	0.041826166
4	0xbd058904	-0.03260137
5	0xbdef7908	-0.11693007
6	0x3c87aa07	0.016560568
7	0xbd61ea63	-0.05515517
8	0x3e21c33c	0.15797132
9	0x3c17da93	0.009268421
10	0xbc9f4027	-0.01943977
11	0x3e04a086	0.1295186
12	0xbaa5d179	-0.0012650929
13	0xbd50dfe6	-0.050994776
14	0xbc980bae	-0.018560257
15	0xbc3a96bd	-0.011388478
16	0xbc366652	-0.0111327935
17	0xbe0f2350	-0.13978314
18	0x3e043c54	0.12913638
19	0x3cfbf40a	0.030756015
20	0xbdbd737a	-0.09250541
21	0xbdda196b	-0.10649379
22	0x3da4f9ba	0.08055444
23	0x3d9c7769	0.07639963
24	0x3dc1b16d	0.094576694
25	0xbdd9ad3a	-0.106287435
26	0xbe25e3bb	-0.16200154
27	0xbe077487	-0.13228045
28	0x3e00028d	0.12500973
29	0xbd445bf0	-0.04793924
30	0xbd631058	-0.05543551
31	0xbdd0655e	-0.10175584
32	0x3e054b2c	0.13016957
33	0x3d92b683	0.071637176
34	0x3dd32a63	0.10310819
35	0xbdcdd166	-0.10049705
36	0xbd0457e7	-0.032310393
37	0x3e23c9d1	0.15994956
38	0xbcc7cbd0	-0.024389178
39	0xbe32bde2	-0.17455247
40	0xbdb88305	-0.09009365
41	0x3b8f5471	0.00437408
42	0x3deec086	0.11657815
43	0x3cfbfc4e	0.030759957
44	0x3d1f01f1	0.03882021
45	0xbdffcec8	-0.12490612
46	0x3cfd28b2	0.030903194
47	0x3c76245a	0.015023315
48	0x3e01894e	0.12650034
49	0xbe07a4e7	-0.13246499
50	0x3cd81eff	0.026381968
51	0xbdd88d6c	-0.10573849
52	0xbd1da2f3	-0.03848548
53	0x3db00102	0.08593942
54	0xbe355ed3	-0.17711954
55	0x3ddcb764	0.107771665
56	0xbe27f698	-0.16402662
57	0x3d1a8cba	0.037731864
58	0x3da3146b	0.07962879
59	0x3dd30118	0.10302943
60	0xbdc4c407	-0.09607702
61	0xbdde0e4b	-0.1084257
62	0x3db8de28	0.09026748
63	0xbc84bdcb	-0.016203782
64	0x3de925ca	0.11384161
65	0xbddd1ef0	-0.107969165
66	0x3cdcf9ca	0.026974577
67	0x3d8a8970	0.067644954
68	0x3cba98c1	0.022777917
69	0x3e0310d7	0.12799393
70	0xbe04fec6	-0.12987813
71	0x3e2b0a37	0.16703115
72	0xbded6b59	-0.115927406
73	0xbdda7a07	-0.10667806
74	0x3e0416b4	0.12899286
75	0x3cae8c50	0.02130714
76	0xbe2c6a51	-0.16837431
77	0xbe2a5ddb	-0.16637366
78	0xbda6b526	-0.0814002
79	0x3e2a130e	0.16608831
80	0x3d266849	0.040626798
81	0xbe06438e	-0.13111708
82	0x3e2ebec0	0.17064953
83	0x3d8d472a	0.06898339
84	0xbd9d1b8a	-0.07671268
85	0xbce59025	-0.028022835
86	0xbd4a13f6	-0.049335442
87	0x3e33db1d	0.17564054
88	0x3bb797a2	0.005602793
89	0x3d5710b6	0.05250617
90	0xbe0fcbd2	-0.14042595
91	0x3cb8fe3e	0.02258217
92	0xbd8b995e	-0.06816362
93	0x3d8c0f05	0.06838802
94	0x3cd10f02	0.025519852
95	0xbc31a2a1	-0.010841996
96	0xbd4f13ac	-0.05055587
97	0xbd7bc3e9	-0.06146613
98	0x3c4ca133	0.012489605
99	0x3c098d2f	0.008395477
100	0xbc69d876	-0.0142728
101	0x3d51a94b	0.05118684
102	0xbc903e9a	-0.017607976
103	0xbd8f5f14	-0.070005566
104	0x3e0fd02a	0.14044252
105	0xbdc30ec9	-0.095243044
106	0xbdfe009a	-0.124024585
107	0x3e1ae950	0.15128064
108	0x3cdf7a43	0.027279979
109	0xbd079049	-0.033096585
110	0xbdc46ffa	-0.0959167
111	0xbd083adb	-0.033259254
112	0xbe088fdc	-0.13336128
113	0x3d20850d	0.039189387
114	0x3c9f2137	0.019425018
115	0x3d99f685	0.07517723
116	0xbd11e9d1	-0.035623375
117	0xbe2bedea	-0.16789976
118	0x3e0ac7a0	0.13552713
119	0xbe25c88f	-0.16189788
120	0xbdeaacd6	-0.11458747
121	0xbbbe49b3	-0.0058071255
122	0xbdd010d7	-0.10159462
123	0xbdc082d5	-0.09399954
124	0x3dfa58ae	0.122239456
125	0xbe2e5a3d	-0.1702661
126	0xbcb94f2c	-0.02262076
127	0x3db7e23f	0.089787
128	0xbe19b295	-0.1500953
129	0x3da06d0b	0.07833298
130	0x3e24e79a	0.16103974
131	0x3afbe8ca	0.0019219157
132	0x3dbefc90	0.09325516
133	0xbde537a4	-0.11192253
134	0x3e07731c	0.13227504
135	0xbe21682b	-0.15762393
136	0x3d8195a5	0.063273706
137	0x3dd03e87	0.10168176
138	0xbdab9d5c	-0.08379623
139	0xbdd11ca1	-0.10210539
140	0x3d287be7	0.041133787
141	0x3e27120f	0.16315483
142	0xbda1edce	-0.07906686
143	0x3e055833	0.13021927
144	0xbda60911	-0.08107198
145	0xbbe8452e	-0.007088325
146	0x3e077964	0.132299
147	0xbe1507b3	-0.14553718
148	0xbe372ec8	-0.1788894
149	0xbd00db02	-0.031458862
150	0x3d06a041	0.032867674
151	0x3cb9ffe1	0.02270502
152	0xbe3416c9	-0.17586817
153	0xbda4ca6a	-0.0804642
154	0x3d2923db	0.04129396
155	0xbce2367d	-0.027613873
156	0xbe1ee3dd	-0.1551661
157	0x3d668418	0.05627832
158	0x3d3a4056	0.04547151
159	0xbdc5e8d4	-0.09663549
160	0x3be0f8fc	0.0068656188
161	0xbe0c31f4	-0.1369093
162	0x3e230405	0.15919502
163	0x3da2f578	0.07956976
164	0x3c6d1f9d	0.014472869
165	0x3da79877	0.08183377
166	0x3d59c8f3	0.053170156
167	0x3deca2f7	0.115545206
168	0xbe129518	-0.14314687
169	0xbd095dfc	-0.033536896
170	0x3d89bd2d	0.067255355
171	0xbe171271	-0.14753129
172	0xbd0da7d3	-0.034583878
173	0xbd7fc190	-0.062440455
174	0x3ca83e65	0.020537565
175	0xbe00dcb6	-0.12584195
176	0x3e2ac125	0.16675241
177	0xbe02e404	-0.12782294
178	0xbd83566b	-0.06412967
179	0xbdd20570	-0.10254943
180	0x3df2cff4	0.1185607
181	0x3df6e370	0.12055099
182	0x3d5b2ac3	0.053507578
183	0x3df9a711	0.121900685
184	0x3e27f500	0.16402054
185	0xbc058201	-0.008148671
186	0xbdc9cee9	-0.09853918
187	0x3e111863	0.14169459
188	0x3d86657c	0.06562325
189	0xbe0cad6a	-0.13738027
190	0x3be89bfc	0.007098673
191	0x3e31b35e	0.1735358
192	0xbd4ea078	-0.050446004
193	0xbe1f3f26	-0.15551433
194	0x3e2740d0	0.16333318
195	0x3cded840	0.027202725
196	0x3d92ff60	0.07177615
197	0xbe276c7a	-0.16349974
198	0x3e175737	0.14779364
199	0xbde7bbb0	-0.113150954
200	0x3ce11552	0.027475987
201	0x3dab457d	0.08362863
202	0x3c672c6a	0.01410971
203	0xbe3210a6	-0.17389163
204	0x3cd367ff	0.025806425
205	0xbda1088f	-0.078629605
206	0x3d3aa662	0.04556883
207	0x3d9dcf66	0.07705574
208	0x3cbd5bee	0.023115125
209	0xbcce7986	-0.025204431
210	0xbd604e9c	-0.054762468
211	0x3df8885b	0.12135383
212	0xbd9b69ef	-0.075885646
213	0x3d6bb278	0.057543248
214	0xbdd10c6b	-0.10207447
215	0xbd9159cd	-0.07097206
216	0x3cdbdef8	0.026839718
217	0xbe0d73c7	-0.13813697
218	0x3d469c7d	0.048489083
219	0xbd4df38f	-0.050281104
220	0x3e2c2496	0.16810831
221	0x3ba6bdc8	0.0050885417
222	0xbe15d72f	-0.14632867
223	0x3dff0eb7	0.124539785
224	0xbe00c4bc	-0.12575048
225	0x3c169f74	0.00919329
226	0xbc116e00	-0.008876324
227	0xbdfd4135	-0.12365953
228	0x3e130e14	0.14360839
229	0xbdce5a75	-0.10075847
230	0x3cd8b3ab	0.02645286
231	0x3e14f8a6	0.14547977
232	0x3e0a08b2	0.1347988
233	0xbe1ff139	-0.15619363
234	0x3e15a2a3	0.14612822
235	0xbd9caf11	-0.07650579
236	0xbb92b475	-0.0044770786
237	0xbdc75b7c	-0.09734246
238	0x3c82a471	0.015947552
239	0x3dcc0aba	0.099629834
240	0xbe06282b	-0.1310126
241	0xbb3811ec	-0.0028086854
242	0x3e2f9844	0.17147928
243	0x3de7d499	0.11319847
244	0xbd260375	-0.04053064
245	0xbe17bb52	-0.14817551
246	0x3b197328	0.0023414586
247	0xbd855530	-0.06510389
248	0x3db77a38	0.08958858
249	0x3df04d5c	0.11733505
250	0xbdedee77	-0.11617749
251	0xbaca2c4a	-0.0015424576
252	0x3dfe3bff	0.12413787
253	0x3da5d291	0.08096803
254	0xbe17f6fb	-0.1484031
255	0xbe17d63e	-0.1482782

conv_col_to_row.feature_module_left.0.bias f4 [32]
0	0x3dda8f78	0.10671896
1	0x3e03b06b	0.12860267
2	0xbddf5759	-0.10905332
3	0x3d877bb5	0.06615392
4	0xbca2aacd	-0.019856835
5	0x3de6ca4b	0.11269053
6	0xbdb2c186	-0.08728318
7	0x3e323d21	0.17406131
8	0xbd7459d5	-0.059655983
9	0xbe14de4f	-0.14537929
10	0xbddc4cea	-0.10756858
11	0xbe1b41d4	-0.1516183
12	0x3d182239	0.037142012
13	0x3d8ff3d1	0.07028926
14	0xbe27ebec	-0.16398591
15	0xbe1b5bd0	-0.15171742
16	0x3db38141	0.087648876
17	0x3e0556cb	0.1302139
18	0x3cd25caa	0.025678951
19	0x3d18d018	0.03730783
20	0x3d3d30e6	0.04618921
21	0x3db0941b	0.08621999
22	0x3e25de02	0.1619797
23	0xbdb40699	-0.08790321
24	0x3db9e48d	0.09076796
25	0xbd58469d	-0.052801717
26	0x3e0022db	0.12513296
27	0xbe2eae32	-0.17058638
28	0xbdd0cbfa	-0.101951554
29	0xbd8bc715	-0.06825081
30	0xbd69881e	-0.057014577
31	0xbe2bd826	-0.16781673

conv_col_to_row.feature_module_edge.0.weight f4 [32, 1]
0	0x3f0b5040	0.54419327
1	0x3f1c164c	0.6097152
2	0x3dc0a3ca	0.0940624
3	0x3eab0cb5	0.33408132
4	0x3daed709	0.085371085
5	0x3ee8c978	0.45466208
6	0xbf3b23d8	-0.7310157
7	0xbea8e163	-0.32984456
8	0xbf025a63	-0.5091917
9	0x3e54b2fe	0.20771405
10	0xbf6914a1	-0.910471
11	0xbf56c84d	-0.83899385
12	0xbf53b5aa	-0.8269907
13	0x3e07e4ea	0.13270918
14	0xbf084c7f	-0.53241724
15	0x3db523c7	0.088447146
16	0xbd804e4c	-0.06264934
17	0xbe14f5b4	-0.14546853
18	0x3f317c25	0.69330055
19	0x3f27e698	0.65586233
20	0xbf3ad9b8	-0.7298846
21	0x3c1a2e35	0.009410431
22	0xbf50ed24	-0.8161185
23	0xbf3007a8	-0.6876168
24	0x3f2f0922	0.6837331
25	0x3ed111d3	0.4083391
26	0xbf29a3d7	-0.66265625
27	0x3f26f356	0.6521505
28	0xbe1dfa01	-0.154274
29	0x3e1611ad	0.1465518
30	0xbe8790f5	-0.2647778
31	0x3f6bdd37	0.9213442

conv_col_to_row.feature_module_right.0.weight f4 [32, 32]
0	0xbd7eedea	-0.06223861
1	0x3da1e221	0.07904459
2	0xbdcec18e	-0.100955114
3	0x3df2a5c9	0.11848027
4	0xbdb07cff	-0.08617591
5	0xbdf19298	-0.11795539
6	0xbc602dc3	-0.013682785
7	0x3cf60159	0.03002994
8	0x3bce2b61	0.0062917923
9	0xbdd553ea	-0.10416396
10	0xbdbfb471	-0.09360588
11	0x3d767d38	0.06017801
12	0xbdd063f1	-0.10175312
13	0x3b8df55d	0.004332228
14	0x3d9b9611	0.07596982
15	0x3c8d5d0c	0.017256282
16	0x3e35eadf	0.17765377
17	0x3e26b2bb	0.16279118
18	0x3caed20a	0.021340389
19	0x3e09f9e2	0.13474229
20	0xbe2ae14a	-0.16687503
21	0x3d1808e2	0.037117846
22	0x3e31837c	0.17335314
23	0xbd76bd73	-0.060239267
24	0x3d8bb5d1	0.06821788
25	0x3d21fb0a	0.03954605
26	0x3e0cd889	0.13754477
27	0xbdcad14f	-0.09903204
28	0xbdeed913	-0.11662497
29	0x3bc346b4	0.005959356
30	0xbde76f2b	-0.113005005
31	0x3e179760	0.14803839
32	0x3e1fac0d	0.15592976
33	0x3dbcf6eb	0.09226783
34	0xbc94600b	-0.018112203
35	0x3e34790d	0.17624302
36	0xbe1ece56	-0.15508398
37	0x3e33719e	0.1752381
38	0xbd9f7c34	-0.07787362
39	0x3e16e155	0.14734395
40	0xbddebba5	-0.10875634
41	0xbdc382f4	-0.09546462
42	0xbdda902b	-0.10672029
43	0x3db76728	0.08955222
44	0x3d0cae75	0.034346063
45	0x3dcffcff	0.10155677
46	0x3bb83118	0.005621087
47	0xbd6ff0d2	-0.058579274
48	0x3e0c81a3	0.13721327
49	0xbe1016b9	-0.14071168
50	0x3d9a9dd0	0.075496316
51	0xbe1a2605	-0.15053566
52	0x3e28c73e	0.16482255
53	0x3c4238d9	0.011854374
54	0xbd73fe29	-0.059568558
55	0x3e0ac0e5	0.13550146
56	0xbe18f0c7	-0.149356
57	0xbdc9b2f5	-0.098485865
58	0xbe11b23c	-0.14228147
59	0xbd6be23d	-0.057588805
60	0xbd9aeb79	-0.07564444
61	0x3dc9071c	0.09815809
62	0xbe18ca84	-0.14921004
63	0x3b8ef6f8	0.004362937
64	0x3e0de36e	0.13856289
65	0xbd1cbcbd	-0.038265932
66	0xbd763077	-0.060104813
67	0xbda24ece	-0.07925187
68	0x3db71f3e	0.08941506
69	0x3de824c2	0.11335136
70	0xbe07a849	-0.1324779
71	0xbcc09608	-0.02350904
72	0xbe19d193	-0.15021352
73	0xbd57d131	-0.052689735
74	0x3ca7368d	0.020411754
75	0x3cc67c66	0.02422924
76	0x3e02e417	0.12782322
77	0x3df5f98b	0.12010487
78	0x3d53bba1	0.05169261
79	0xbe24c7b6	-0.16091809
80	0xbd3c9215	-0.046037752
81	0x3e33e8e7	0.17569314
82	0xbd66beaf	-0.056334194
83	0x3d324f80	0.04353285
84	0x3cdfcbea	0.027318913
85	0x3dc81b4a	0.0977083
86	0xbdb8a1d7	-0.090152435
87	0xbdca0e7b	-0.09866043
88	0xbd396a5b	-0.045267444
89	0x3dee2204	0.11627582
90	0xbe2553bc	-0.16145223
91	0xbcd2c797	-0.025729937
92	0x3dd3f69d	0.10349772
93	0x3e0f65c6	0.14003667
94	0x3d14a831	0.036293212
95	0xbdb253c8	-0.08707386
96	0x3d247d8f	0.040158805
97	0xbe083f7f	-0.13305472
98	0xbe303385	-0.17207153
99	0x3e0990f7	0.13434206
100	0xbe33a2e7	-0.17542611
101	0xbe066ba5	-0.13127
102	0x3e284923	0.1643415
103	0x3d81e0ed	0.06341729
104	0xbddb00b4	-0.106934935
105	0xbe021dc0	-0.12706661
106	0xbe1a53d6	-0.15071043
107	0xbd059053	-0.03260834
108	0xbddac60d	-0.106823064
109	0x3da829e4	0.08211115
110	0xbdf8b84b	-0.12144526
111	0xbd8bf370	-0.068335414
112	0xbd58b299	-0.0529047
113	0x3d601661	0.054708842
114	0xbc99b425	-0.018762657
115	0xbcfb704d	-0.030693198
116	0xbda2ec88	-0.07955271
117	0xbe2dbe46	-0.16967115
118	0x3e2dc8a5	0.16971071
119	0x3e13e6d7	0.14443527
120	0x3d7afd5c	0.06127678
121	0xbc42b203	-0.011883262
122	0x3e025207	0.12726603
123	0xbd3f1779	-0.046653245
124	0x3bb7280f	0.005589492
125	0x3de5410c	0.11194047
126	0xbdded460	-0.10880351
127	0x3de8e993	0.11372676
128	0xbdaec0bc	-0.08532855
129	0xbe094e85	-0.13408859
130	0x3e30267f	0.17202185
131	0xbd93f22b	-0.07223924
132	0xbd96ad2f	-0.07357251
133	0xbd6f6f46	-0.058455728
134	0x3cfe187e	0.031017538
135	0xbc723ddf	-0.014785259
136	0xbe187907	-0.14889918
137	0xbe25e3d7	-0.16200195
138	0x3dd6dec9	0.10491712
139	0x3d9731f1	0.073825724
140	0x3e0a4e59	0.1350645
141	0xbe2747df	-0.1633601
142	0x3c9a535c	0.018838577
143	0x3e114204	0.14185339
144	0xbda4359a	-0.08018036
145	0x3bf942e0	0.007606849
146	0x3af0f978	0.0018384894
147	0x3e1fff1d	0.15624662
148	0xbe0d4958	-0.1379751
149	0xbd0c5d08	-0.03426841
150	0x3d83837c	0.06421563
151	0x3bb27683	0.0054462566
152	0x3d1acf14	0.03779514
153	0xbddf8f55	-0.1091601
154	0xbe17cd9a	-0.14824525
155	0x3e210d3a	0.15727702
156	0x3c522180	0.01282537
157	0xbd8fb008	-0.07015997
158	0xbb740229	-0.0037232733
159	0x3d4ba35d	0.049716342
160	0x3da40444	0.08008626
161	0x3e1d7a83	0.15378766
162	0xbe2af1dd	-0.16693826
163	0xbe0fe8d9	-0.14053668
164	0x3d7cff85	0.06176712
165	0xbdbdb611	-0.09263242
166	0x3d598cde	0.053112857
167	0x3e3107b5	0.17288096
168	0xbd91a182	-0.07110883
169	0x3e1d1e59	0.15343608
170	0x3d88e8f9	0.06685061
171	0x3dcf07ec	0.10108933
172	0x3e284e62	0.1643615
173	0x3e309e27	0.1724783
174	0x3de2a327	0.11066275
175	0x3db9dfe3	0.09075906
176	0x3d7e9379	0.06215236
177	0x3e13342b	0.14375369
178	0x3e2ced22	0.16887334
179	0xbe169c99	-0.14708175
180	0x3e01433b	0.12623303
181	0x3de0a669	0.1096924
182	0x3dbb9b57	0.09160488
183	0x3daf4e82	0.08559896
184	0xbdb5aa3c	-0.0887036
185	0x3db9f711	0.09080327
186	0x3de4657f	0.11152171
187	0x3d35a965	0.044351
188	0x3d1b4594	0.03790815
189	0xbdf8a480	-0.12140751
190	0xbe21aa23	-0.15787558
191	0xbd700155	-0.05859502
192	0x3e1d88e4	0.15384251
193	0x3bef0bb5	0.0072950968
194	0x3d6a42a7	0.05719247
195	0x3d7e620d	0.062105227
196	0xbaf1591d	-0.0018413399
197	0xbb008fe7	-0.0019617022
198	0xbc7a61fe	-0.015282152
199	0xbdea00b3	-0.114259146
200	0x3da8dd86	0.08245377
201	0xbdc9b9d0	-0.09849894
202	0x3d571143	0.052506696
203	0xbd9c776e	-0.07639967
204	0xbd5aadce	-0.05338841
205	0xbb03ce83	-0.0020112104
206	0xbda383ec	-0.079841465
207	0xbdf015c5	-0.11722902
208	0xbe0bfa5a	-0.1366972
209	0x3d7124a9	0.058872852
210	0xbdffdcf9	-0.12493319
211	0xbe2ec3b7	-0.17066847
212	0xbdd78ddd	-0.10525105
213	0x3c017d75	0.007903446
214	0x3c0ac24b	0.008469175
215	0x3bed0bc1	0.007234067
216	0x3d4d3581	0.050099853
217	0xbdaad55c	-0.08341476
218	0x3dc96214	0.0983316
219	0x3beae604	0.0071685333
220	0x3e0c9689	0.137293
221	0x3ce3b73c	0.027797334
222	0x3d74eea7	0.05979791
223	0xbdffbb0a	-0.12486847
224	0x3e0c57d1	0.13705374
225	0xbcaa129b	-0.020760825
226	0xbd9864b4	-0.074410826
227	0x3e16940d	0.14704914
228	0xbd5e9a6e	-0.054346494
229	0x3de0f6d2	0.10984577
230	0x3c14dc09	0.009085664
231	0x3b2c940f	0.0026333367
232	0x3e19178e	0.14950392
233	0xbdca5868	-0.098801434
234	0x3cdcfb82	0.026975397
235	0xbda243fb	-0.079231225
236	0x3de058a8	0.1095441
237	0x3d0ac306	0.033877395
238	0x3dc25337	0.09488528
239	0x3ddad725	0.10685567
240	0xbd65699f	-0.05600893
241	0xbdd174a0	-0.102273226
242	0xbd3c9db7	-0.046048846
243	0x3ca77765	0.020442674
244	0xbdcc781f	-0.09983849
245	0x3dd90f61	0.105986364
246	0xbdc23921	-0.09483553
247	0x3daa9372	0.08328904
248	0xbe19a264	-0.15003353
249	0xbdb553bd	-0.088538624
250	0x3cd61bf3	0.026136374
251	0xbe3365ea	-0.17519346
252	0x3e16d3f9	0.14729299
253	0x3e1b1a58	0.15146768
254	0x3da11dcb	0.07867011
255	0xbcdaf263	-0.026726907

conv_col_to_row.feature_module_final.0.weight f4 [32]
0	0x3f7f9106	0.99830663
1	0x3f7fe8ae	0.99964416
2	0x3f800000	1.0
3	0x3f7fe74e	0.9996232
4	0x3f800000	1.0
5	0x3f800030	1.0000057
6	0x3f809f2b	1.0048574
7	0x3f7fd362	0.9993192
8	0x3f7fc0af	0.99903387
9	0x3f8045e0	1.0021324
10	0x3f80004a	1.0000088
11	0x3f7ff7cb	0.9998748
12	0x3f80159b	1.0006593
13	0x3f7ff81c	0.9998796
14	0x3f8000b3	1.0000213
15	0x3f7f8cfb	0.99824494
16	0x3f8047ff	1.0021971
17	0x3f7ffef5	0.9999841
18	0x3f801163	1.0005306
19	0x3f800caa	1.0003865
20	0x3f804b4c	1.0022979
21	0x3f8013da	1.0006058
22	0x3f7fdf5e	0.99950206
23	0x3f7ffe32	0.99997246
24	0x3f8068af	1.0031947
25	0x3f800f99	1.000476
26	0x3f805ac7	1.0027703
27	0x3f800000	1.0
28	0x3f800000	1.0
29	0x3f7fa385	0.99858886
30	0x3f800000	1.0
31	0x3f800000	1.0

conv_col_to_row.feature_module_final.0.bias f4 [32]
0	0xba85541c	-0.0010172161
1	0xba132477	-0.00056130387
2	0x00000000	0.0
3	0xb9cf4075	-0.0003953014
4	0x00000000	0.0
5	0xb54f7cc0	-7.7295044e-07
6	0x3a6aa01b	0.0008950249
7	0xba075f35	-0.0005164028
8	0xba1ee02b	-0.00060606253
9	0x3ae16caa	0.0017198522
10	0x39c859e8	0.00038213958
11	0xb8d58402	-0.0001018122
12	0x3a5d4a47	0.0008441549
13	0xba6df460	-0.0009077247
14	0x3a8a4390	0.00105487
15	0xba60a64b	-0.00085697015
16	0x398f0019	0.00027275158
17	0xb88170be	-6.172199e-05
18	0x394cd318	0.00019533595
19	0x3ab9acc4	0.0014165868
20	0x3ad1967a	0.001599028
21	0x384a0376	4.8163776e-05
22	0x39844ad6	0.0002523276
23	0xb9c6d0a6	-0.00037920958
24	0x3b3cb075	0.00287917
25	0x3936b962	0.00017425933
26	0x3aec564d	0.0018031091
27	0x00000000	0.0
28	0x00000000	0.0
29	0xbae1622f	-0.0017195399
30	0x00000000	0.0
31	0x00000000	0.0
