GNN_method/ResultsGCNN/actor_51.pt (torch, 83520 bytes, 43 tensors)

row_embedding.0.weight f4 [7]
0	0x3f806d46	1.0033348
1	0x3f8028c8	1.0012445
2	0x3f7fdd4d	0.99947053
3	0x3f802316	1.0010707
4	0x3f7fcbe3	0.9992048
5	0x3f8049f4	1.0022569
6	0x3f800384	1.0001073

row_embedding.0.bias f4 [7]
0	0xbb13f9bb	-0.002257927
1	0xba950fc9	-0.0011372502
2	0xba3021ef	-0.00067189237
3	0xbab3a0b1	-0.0013704506
4	0x3a63b185	0.0008685815
5	0xbb088abf	-0.0020834652
6	0x3a03a441	0.0005021729

row_embedding.1.weight f4 [32, 7]
0	0x3d56bcce	0.052426152
1	0x3d53e316	0.051730238
2	0x3e0cfcad	0.13768263
3	0xbeb6b1a1	-0.35682395
4	0xbe3b01c4	-0.18262392
5	0x3e76f811	0.24118067
6	0xbdadc019	-0.08483905
7	0xbe8a5d43	-0.27024278
8	0xbd82cf54	-0.06387201
9	0xbd23c2eb	-0.03998081
10	0xbddb5396	-0.10709302
11	0x3e46ded7	0.19420944
12	0x3a632cc6	0.00086660346
13	0xbdae16ea	-0.08500464
14	0xbe00e1be	-0.12586114
15	0xbe95c126	-0.29248923
16	0xbe90e13d	-0.28296843
17	0x3e85b9ef	0.2611842
18	0x3ea24b6d	0.3169817
19	0x3ca1c3c0	0.019746661
20	0xbe4eb632	-0.2018669
21	0xbe5666ec	-0.20937699
22	0x3e070c51	0.13188292
23	0x3ea29766	0.31756133
24	0xbeb674ef	-0.35636088
25	0x3ce4865d	0.0278961
26	0x3bc8aa49	0.006123815
27	0x3e474799	0.19460906
28	0xbe0ea2be	-0.13929269
29	0xbd069d44	-0.032864824
30	0xbe9d3923	-0.30707654
31	0x3e560a2a	0.20902315
32	0xbe4f7882	-0.20260814
33	0xbe4e7428	-0.20161498
34	0xbe48600a	-0.19567886
35	0xbddaa544	-0.10676053
36	0x3d5f3636	0.05449506
37	0xbc3ca4eb	-0.011513929
38	0xbeb5ce99	-0.35509184
39	0x3dc6e425	0.09711484
40	0xbe51745d	-0.20454545
41	0x3ea0c022	0.31396586
42	0xbe89d85f	-0.2692289
43	0xbeac100d	-0.33605996
44	0x3e8b9740	0.27263832
45	0xbe66731a	-0.22504845
46	0xbea07ffe	-0.3134765
47	0xbd6acc0b	-0.057323497
48	0x3c94aa44	0.018147595
49	0xbe78f435	-0.24311908
50	0x3e89c64a	0.26909095
51	0x3e699f78	0.22814739
52	0x3e860c6f	0.2618136
53	0x3e5a3004	0.21307379
54	0x3d08124f	0.033220585
55	0x3d11c33a	0.035586573
56	0xbe0cab44	-0.13737208
57	0xbd993557	-0.07480877
58	0x3cd2626c	0.025681697
59	0x3c474429	0.012162247
60	0xbe0e643b	-0.13905422
61	0xbe558f77	-0.20855509
62	0x3e8ce26e	0.27516502
63	0x3d485477	0.048908677
64	0xbeaf2f73	-0.34215888
65	0xbe4a9923	-0.1978498
66	0x3eba3961	0.36371902
67	0xbe41d375	-0.1892832
68	0x3e836542	0.2566319
69	0xbeb2f7d3	-0.349547
70	0xbe89d046	-0.26916713
71	0x3eaccdb5	0.33750692
72	0xbdc3453a	-0.09534688
73	0xbbc22700	-0.0059250593
74	0xbd206e34	-0.039167598
75	0xbe809223	-0.25111493
76	0x3e816a32	0.25276333
77	0xbe3a59e3	-0.18198352
78	0x3c48de8f	0.012260093
79	0xbeb69995	-0.3566405
80	0xbd9a9471	-0.07547844
81	0xbc802d17	-0.0156465
82	0x3e841aca	0.25801688
83	0x3e0b9343	0.13630395
84	0x3e93e1a0	0.28883076
85	0xbd93983b	-0.0720677
86	0xbe9e472c	-0.30913675
87	0xbdd990f5	-0.106233515
88	0xbd8d80fc	-0.069093674
89	0x3ea2722f	0.3172774
90	0xbe6986c4	-0.22805315
91	0x3e804cbb	0.2505854
92	0x3e5b74aa	0.21431223
93	0xbe5f7094	-0.21820289
94	0xbe7ca568	-0.24672472
95	0xbe1efe98	-0.15526807
96	0xbe18c2b8	-0.1491803
97	0xbe8ac9ee	-0.27107185
98	0xbeba29d2	-0.3636003
99	0x3db555f4	0.08854285
100	0x3dcc59a1	0.09978033
101	0xbe8f3d8d	-0.27976647
102	0x3e8bfd99	0.27341917
103	0xbe1279c9	-0.1430427
104	0xbded26ac	-0.11579642
105	0x3d8c3550	0.06846106
106	0x3e93d705	0.28874984
107	0xbea63663	-0.3246337
108	0xbd985c0c	-0.074394315
109	0x3dec5e34	0.11541405
110	0xbe9fcc82	-0.31210715
111	0x3e978189	0.29591015
112	0x3e1643c5	0.1467429
113	0x3ea709a9	0.32624558
114	0xbcec5d77	-0.028853161
115	0x3e333ead	0.17504378
116	0xbe814072	-0.2524448
117	0x3eb44f73	0.35216865
118	0x3dbfe650	0.093701005
119	0x3e49524e	0.19660303
120	0xbe5dd3c5	-0.21662815
121	0xbe87b9ad	-0.26508847
122	0xbea5a9c8	-0.32356095
123	0xbeb0db97	-0.34542534
124	0x3b6712d1	0.0035259018
125	0xbcbd465e	-0.023104843
126	0xbeb40e0d	-0.3516697
127	0x3eafd2aa	0.3434041
128	0xbe313ca1	-0.17308284
129	0xbe9af7c6	-0.3026716
130	0xbe281482	-0.16414073
131	0x3ea18e69	0.31553963
132	0x3db03ce6	0.086053655
133	0xbe4a1419	-0.19734229
134	0xbe2c88bc	-0.16849035
135	0xbe7825a5	-0.2423311
136	0x3dfda330	0.12384641
137	0x3e7d8c02	0.2476044
138	0xbe4663ba	-0.1937398
139	0x3eb89cdc	0.36057174
140	0x3ea7db85	0.32784668
141	0x3e014ede	0.12627742
142	0xbc1e653d	-0.009667692
143	0x3e8cf61d	0.2753152
144	0x3dd6d142	0.104891315
145	0xbeaac1ce	-0.33350986
146	0xbe834acd	-0.25643006
147	0x3e4a30f5	0.19745238
148	0x3cfef9fb	0.03112506
149	0x3eb4abf2	0.35287434
150	0xbe8a91e9	-0.27064446
151	0xbe91f85c	-0.28509796
152	0xbdd8abb1	-0.105796225
153	0xbe6a7002	-0.2289429
154	0x3e91b467	0.2845795
155	0x3d05e031	0.03268451
156	0xbe0783a0	-0.13233805
157	0xbd4f5849	-0.050621305
158	0x3d042351	0.032260243
159	0xbe8d3caa	-0.27585346
160	0x3d28bf10	0.041197836
161	0xbe7bb364	-0.24580151
162	0x3d72b73c	0.059256777
163	0x3e0b536c	0.13606042
164	0xbe6d2a33	-0.23160629
165	0xbe557b4c	-0.20847815
166	0xbc33ed93	-0.010981935
167	0x3e98b7b7	0.29827663
168	0x3e412008	0.18859875
169	0xbdb5f4b0	-0.08884561
170	0x3ea91176	0.33021134
171	0x3dc7f1b3	0.09762897
172	0x3ebb1064	0.36535943
173	0x3e885cb5	0.2663323
174	0xbe85e673	-0.2615238
175	0x3cba4a87	0.022740616
176	0x3e6c46c9	0.23073877
177	0x3d9cbeb3	0.076535605
178	0x3df4c2aa	0.11951192
179	0x3e9fc5e7	0.31205675
180	0xbe8e5dfd	-0.27806082
181	0x3e011155	0.12604268
182	0xbdf3992f	-0.11894452
183	0xbe203bed	-0.1564786
184	0x3ead98e0	0.33905697
185	0x3e8a4744	0.27007496
186	0x3e7d2149	0.24719729
187	0x3d162a81	0.03666163
188	0xbe96518f	-0.293591
189	0x3eaec385	0.34133545
190	0x3dd6d61e	0.10490058
191	0xbd1fcb3c	-0.03901218
192	0xbe93a261	-0.28834823
193	0xbddcb7ea	-0.10777266
194	0xbea86641	-0.32890514
195	0x3e97b497	0.29629967
196	0x3ea49a44	0.32148945
197	0x3d95b513	0.07309928
198	0x3ea2594c	0.31708753
199	0xbe75cf08	-0.24004757
200	0xbe5a6fbd	-0.21331687
201	0x3e38311e	0.17987487
202	0x3ebdb73c	0.3705386
203	0xbe732177	-0.23743235
204	0xbe9d0d99	-0.30674437
205	0x3e036291	0.12830569
206	0x3dec4846	0.115372226
207	0x3e8840de	0.2661199
208	0x3d68b8a8	0.056816727
209	0xbec19f84	-0.37817013
210	0x3e1a9250	0.15094876
211	0xbe3b4573	-0.18288212
212	0x3e47da36	0.19516835
213	0xbe8f8036	-0.28027505
214	0xbe95c86e	-0.29254478
215	0x3d0a40c8	0.033753186
216	0xbd818612	-0.063244
217	0xbeb37bfd	-0.35055533
218	0xbe3edb4d	-0.18638344
219	0xbe9ee026	-0.31030387
220	0x3ddbcce2	0.10732438
221	0x3dcd8bff	0.10036468
222	0xbdf3d649	-0.11906106
223	0xbea1e21e	-0.31617826

row_embedding.1.bias f4 [32]
0	0xbd51eb3a	-0.05124972
1	0x3e8374d6	0.25675076
2	0x3de191a4	0.11014107
3	0xbebced2f	-0.36899707
4	0x3da5850a	0.08082016
5	0xbdf76a3d	-0.1208081
6	0x3c9b2df1	0.018942805
7	0xbddc0d28	-0.10744697
8	0x3e1c29e7	0.1525036
9	0xbe56d878	-0.20981014
10	0xbeb325d5	-0.349898
11	0xbcd1c1f6	-0.025605183
12	0x3ea2b50b	0.3177875
13	0x3e1a8771	0.1509073
14	0x3eb1624c	0.34645307
15	0x3dd10fff	0.10208129
16	0xbe235cc0	-0.1595335
17	0x3c87e846	0.016590249
18	0xbdf6742d	-0.120338775
19	0x3e9e5978	0.30927634
20	0x3e8fd4c9	0.2809203
21	0xbcdc9023	-0.026924198
22	0x3e595faf	0.21227907
23	0xbdccdb55	-0.10002772
24	0x3ea49a24	0.3214885
25	0x3e5433c3	0.2072287
26	0xbe177aec	-0.14792985
27	0x3e005ef0	0.12536216
28	0xbe970556	-0.29496258
29	0xbe48cb2e	-0.19608757
30	0x3cb110c8	0.021614447
31	0xbe5d5a17	-0.21616398

row_embedding.3.weight f4 [32, 32]
0	0xbdfc84cc	-0.123300165
1	0xbd2565a7	-0.040380146
2	0x3d9202f7	0.07129472
3	0x3c4005a2	0.011720093
4	0x3dcec02b	0.10095247
5	0x3b619866	0.0034423112
6	0x3e273b74	0.16331273
7	0x3e151a30	0.14560771
8	0x3dcf0c2a	0.10109742
9	0xbe15a99a	-0.14615479
10	0x3d1086fa	0.035284974
11	0x3cf829bc	0.030293338
12	0x3dcda91f	0.10042023
13	0x39dd5af4	0.0004222017
14	0x3e0cde2d	0.13756628
15	0x3e1f1744	0.15536219
16	0x3e1e0621	0.15432025
17	0x3d17284f	0.036903676
18	0xbdf484ee	-0.11939417
19	0x3dd77dd4	0.10522047
20	0x3d20e6cc	0.039282605
21	0x3d5d63e0	0.054050326
22	0x3d37ba14	0.044855192
23	0x3dea1590	0.11429894
24	0xbe27106f	-0.16314863
25	0x3dda941e	0.10672782
26	0x3e025473	0.12727527
27	0x3e1a730a	0.15082946
28	0x3c911f6b	0.017715177
29	0xbe1dbf34	-0.1540497
30	0x3e16a855	0.14712651
31	0xbcec525e	-0.02884787
32	0x3d0d24ea	0.034459032
33	0x3ce5a233	0.028031444
34	0xbe36573b	-0.17806713
35	0x3bffb528	0.007803578
36	0xbc8f4683	-0.017489677
37	0xbd438089	-0.047730003
38	0x3d9ef1f2	0.07760991
39	0x3d30769a	0.043081857
40	0xbdc09451	-0.09403289
41	0xbd217e30	-0.039426982
42	0xbdd3c3e5	-0.10340098
43	0xbe246139	-0.16052713
44	0x3db1403b	0.08654829
45	0x3dd02df9	0.101650186
46	0x3e20b0bd	0.1569242
47	0xbe2a5c01	-0.16636659
48	0xbd44adc9	-0.048017297
49	0x3e05d162	0.13068154
50	0x3d9d988b	0.07695111
51	0xbe0ab92b	-0.13547198
52	0x3e02c38d	0.12769909
53	0x3dfa59d1	0.12224162
54	0x3e06efef	0.13177465
55	0x3df98ed1	0.12185443
56	0x3e0f0708	0.13967526
57	0xbd90388b	-0.07042035
58	0x3e0e6f64	0.1390968
59	0x3de47504	0.111551315
60	0xbe09284f	-0.13394283
61	0x3d6a5006	0.057205223
62	0xbe0c1924	-0.13681465
63	0xbdbe6b31	-0.09297789
64	0x3c718d9a	0.014743233
65	0x3e25c2c5	0.1618758
66	0xbdd8e05a	-0.10589667
67	0xbe175f67	-0.14782487
68	0x3e2e54ee	0.17024586
69	0xbdabfe11	-0.08398069
70	0xbe27e65c	-0.16396469
71	0xbd924bd3	-0.071433686
72	0x3df3355d	0.118754126
73	0x3d03a36f	0.032138284
74	0x3e23fa6f	0.16013502
75	0x3dd46c8f	0.103722684
76	0x3c2c175a	0.010503614
77	0x3e26ef92	0.16302326
78	0xbda5c57a	-0.08094306
79	0x3db08a66	0.086201474
80	0xbd16a1dd	-0.03677546
81	0xbc975ded	-0.018477404
82	0x3d301ec2	0.042998083
83	0x3e0101f6	0.12598404
84	0x3e1c35d1	0.15254904
85	0x3d4e8e14	0.050428465
86	0xbd5bffd1	-0.053710762
87	0x3e2e3fb5	0.1701649
88	0x3d05998c	0.032617137
89	0x3d69546f	0.056965288
90	0x3d62942a	0.05531708
91	0xbe279ddb	-0.16368811
92	0x3e2a3406	0.16621408
93	0x3e27e6e1	0.16396667
94	0x3e042ad1	0.12906958
95	0x3e1e01fc	0.15430444
96	0xbda42134	-0.080141455
97	0xbd1b1d9c	-0.037870035
98	0xbe1de0c1	-0.15417768
99	0x3d68564a	0.056722917
100	0x3d42545d	0.047443736
101	0x3d7465a6	0.059667252
102	0x3e2dfbd6	0.16990599
103	0xbcc0c691	-0.023532184
104	0x3db58571	0.088633426
105	0x3dee099e	0.11622928
106	0xbddd5a02	-0.10808183
107	0xbd002b2b	-0.03129117
108	0x3e02a04f	0.12756465
109	0xbdd315e6	-0.10306911
110	0x3d7bd3a6	0.06148114
111	0x3db62c22	0.088951364
112	0xbc9ac6ff	-0.018893717
113	0x3e2d63e8	0.16932642
114	0xbd8cd150	-0.06875861
115	0x3d9414d1	0.07230533
116	0xbd2282b2	-0.039675422
117	0xbe22a360	-0.15882635
118	0x3d963f14	0.0733625
119	0xbd89a673	-0.06721201
120	0xbb3ae5ad	-0.0028518245
121	0x3e1df773	0.15426426
122	0xbda21fb9	-0.07916207
123	0xbd85c0ae	-0.06530891
124	0xbe331e10	-0.17491937
125	0xbe01bb09	-0.12669004
126	0xbded7af3	-0.11595716
127	0x3d381e3d	0.044950712
128	0x3db9a4f1	0.09064663
129	0xbce97791	-0.028499397
130	0xbdea43a6	-0.11438684
131	0x3c1c8296	0.0095526185
132	0x3dac53b8	0.084144056
133	0xbd83f363	-0.06442907
134	0xbde2f2c8	-0.11081463
135	0x3dbf916f	0.09353911
136	0xbe2f5ce7	-0.17125283
137	0x3d94f98a	0.07274158
138	0x3e0d844e	0.13820001
139	0xbe316059	-0.1732191
140	0xbd49bd9f	-0.049253102
141	0xbd2a6a4e	-0.041605286
142	0x3c37b39d	0.011212257
143	0xbe386ce2	-0.18010285
144	0xbde1ca87	-0.11024957
145	0xbdd2cc69	-0.102928944
146	0x3d8c3422	0.06845881
147	0x3d7e5db5	0.062101085
148	0xbe0d2775	-0.13784583
149	0x3d3acf0f	0.045607623
150	0x3b9aa216	0.004719029
151	0x3d840be1	0.06447578
152	0xbd894c71	-0.06704033
153	0x3df2839f	0.11841511
154	0xbda6e6ee	-0.08149515
155	0xbe0b412e	-0.13599083
156	0x3dd6eb94	0.10494152
157	0xbe324da3	-0.17412429
158	0x3df3fe46	0.11913733
159	0xbd4d4c54	-0.05012162
160	0xbdb2b80a	-0.08726509
161	0xbe234067	-0.15942536
162	0xbd07c690	-0.03314835
163	0x3d7ada7d	0.061243523
164	0xbd666213	-0.056245875
165	0x3e27185d	0.16317888
166	0x3dbdcf9b	0.09268113
167	0x3d780f50	0.06056148
168	0xbe28bb38	-0.16477668
169	0x3b7bed71	0.0038441087
170	0xbe01be7d	-0.12670322
171	0x3d3d2509	0.046177898
172	0xbd211fba	-0.039336897
173	0x3de01a12	0.109424725
174	0xbb21fc47	-0.002471702
175	0xbe278ad5	-0.16361554
176	0xbdc6bdb1	-0.097041495
177	0xbe33d467	-0.17561494
178	0xbd370fa8	-0.044692665
179	0x3dae2a9b	0.0850422
180	0xbe13f315	-0.14448197
181	0x3df0aa6f	0.11751258
182	0xbe328c8b	-0.17436425
183	0xbc584566	-0.01320014
184	0x3a1bef01	0.0005948395
185	0xbdb54fbd	-0.088530995
186	0xbe1c7012	-0.15277126
187	0xbdc63b49	-0.096792765
188	0xbe1317ba	-0.1436452
189	0xbca437f9	-0.020046221
190	0x3cdbe4dc	0.026842527
191	0xbe27d085	-0.16388138
192	0x3dac8698	0.08424109
193	0x3e03de17	0.1287769
194	0x3df9323a	0.12167783
195	0xbd280cb7	-0.04102775
196	0x3e0fb696	0.14034495
197	0x3d6f69a6	0.058450364
198	0xbe0007d9	-0.12502994
199	0xbda7c1e3	-0.08191278
200	0xbe1ced6a	-0.15324941
201	0x3da62c3d	0.081139065
202	0x3e040130	0.12891078
203	0x3d89cd1f	0.06728577
204	0xbcf9f28e	-0.030511167
205	0xbe127388	-0.14301884
206	0xbe2aadd4	-0.16667873
207	0x3ca8dc01	0.020612719
208	0xbcc72641	-0.024310233
209	0x3e0b2705	0.13589104
210	0xbd966424	-0.07343319
211	0x3e0ceb1c	0.13761562
212	0x3dbfa82a	0.093582466
213	0x3de2b0ed	0.11068902
214	0x3d27183d	0.0407946
215	0x3e0a6896	0.13516459
216	0xbdb954e1	-0.090493925
217	0xbd3ca1bb	-0.046052676
218	0xbdb3dde9	-0.087825604
219	0x3c6575ed	0.0140051665
220	0x3e29b84d	0.16574211
221	0xbd45c69a	-0.048285104
222	0xbd1472f4	-0.03624244
223	0x3ddad353	0.10684838
224	0xbd77eb7c	-0.06052731
225	0xbd2cf8b2	-0.04222936
226	0xbdf21c4f	-0.11821806
227	0xbe02d438	-0.12776268
228	0x3d176d00	0.036969185
229	0x3e0e5278	0.13898647
230	0x3e0f600d	0.14001484
231	0xbdcc2d24	-0.099695474
232	0x3db660fe	0.089052185
233	0xbddb437f	-0.10706233
234	0xbe3172ce	-0.17328951
235	0xbad3e186	-0.0016165234
236	0x3e1cade2	0.15300706
237	0xbc9b2c44	-0.018942006
238	0xbe15bc57	-0.14622627
239	0xbd712df4	-0.058881715
240	0x3d8cf14e	0.06881963
241	0x3e09dabf	0.13462351
242	0xbe327eb7	-0.1743115
243	0x3d39b77d	0.045341004
244	0x3d7ca37a	0.06167934
245	0x3d1a079f	0.037604924
246	0xbe306f28	-0.17229903
247	0xbd7a62f8	-0.06112954
248	0xbcea9d5a	-0.028639484
249	0xbdc5da11	-0.096607335
250	0xbe038dcf	-0.12847064
251	0x3d0632cd	0.03276329
252	0xbc804821	-0.015659394
253	0xbbe1f640	-0.0068958104
254	0xbdfcf065	-0.12350539
255	0x3e11ae3c	0.14226621

row_embedding.3.bias f4 [32]
0	0x3dde204e	0.108460054
1	0xbd575405	-0.05257036
2	0xbd7721b9	-0.060334895
3	0xbd2c09c3	-0.042001497
4	0x3c712b7d	0.014719841
5	0xbe04ea03	-0.12979893
6	0x3ddaeeb6	0.10690062
7	0x3e121ab3	0.14267997
8	0xbd83e070	-0.064392924
9	0x3dd21fc8	0.10259968
10	0x3e0830bc	0.1329984
11	0x3dca43bd	0.09876201
12	0xbc9e8376	-0.019349795
13	0x3d31f1f4	0.043443635
14	0x3dd6475b	0.10462829
15	0x3dd88cae	0.105737075
16	0x3dc568cd	0.0963913
17	0xbd96e17e	-0.07367228
18	0x3d494e1c	0.049146757
19	0x3dbe9183	0.09305098
20	0xbc16919a	-0.009189988
21	0x3d06e27f	0.032930847
22	0x3d5ef718	0.054434866
23	0x3d85868b	0.06519803
24	0x3dd57e44	0.10424474
25	0x3d2a9918	0.041649908
26	0x3e28b74d	0.16476174
27	0xbd628778	-0.055304974
28	0x3ba88e8c	0.005143946
29	0xbc05f267	-0.008175469
30	0xbe1898ab	-0.14901988
31	0x3df62693	0.12019076

col_embedding.0.weight f4 [7]
0	0x3f7fa41f	0.99859804
1	0x3f8005fb	1.0001825
2	0x3f7ffc79	0.9999462
3	0x3f800802	1.0002444
4	0x3f7fb21d	0.99881154
5	0x3f7fd0ac	0.99927783
6	0x3f800d97	1.0004147

col_embedding.0.bias f4 [7]
0	0xba9087f2	-0.0011026843
1	0xb9139f70	-0.00014078408
2	0xb8991403	-7.299336e-05
3	0xb98db402	-0.00027027732
4	0x3a48581e	0.0007642525
5	0x3a4afd2d	0.00077434146
6	0x3a14e5d7	0.0005680001

col_embedding.1.weight f4 [32, 7]
0	0x3eb4cb6f	0.35311458
1	0x3ba355d3	0.0049845963
2	0xb9e61d8e	-0.00043891039
3	0xbe32e789	-0.17471136
4	0x3e8cfcdc	0.27536666
5	0xbeba774d	-0.36419144
6	0xbdcf4057	-0.10119694
7	0xbdee0b36	-0.11623232
8	0xbe84749e	-0.25870222
9	0xbe28104c	-0.16412467
10	0x3e3e3aff	0.18577193
11	0xbe5a8833	-0.21341018
12	0x3ba7aa06	0.005116704
13	0xbe71f89f	-0.23629998
14	0xbe4a010d	-0.19726963
15	0x3c54a388	0.012978442
16	0x3e8ab21c	0.27089012
17	0xbe353e34	-0.1769951
18	0x3d000d07	0.031262424
19	0x3db86f48	0.090056
20	0x3e574865	0.2102371
21	0x3e91a03e	0.28442568
22	0x3e9052af	0.28188083
23	0xbdd4f253	-0.10397782
24	0x3d756ea6	0.059919976
25	0xbe9e448e	-0.30911678
26	0xbc979e5f	-0.018508134
27	0x3e34c20d	0.1765215
28	0x3e17123b	0.14753048
29	0x3ea47041	0.32116893
30	0x3e973dec	0.2953943
31	0xbe3732d0	-0.17890477
32	0xbd87db58	-0.066336334
33	0xbe80a826	-0.25128287
34	0xbebace76	-0.36485642
35	0xbec1049b	-0.37698826
36	0x3d1a66b6	0.03769561
37	0xbd92350f	-0.071390264
38	0x3e777a34	0.2416771
39	0xbe69d1e1	-0.22833969
40	0x3e2ca08c	0.16858119
41	0xbdf79f28	-0.120909035
42	0xbd08d051	-0.03340179
43	0x3eb9ff43	0.36327562
44	0x3ebef002	0.37292486
45	0x3e516e7d	0.20452304
46	0x3e6c15e7	0.2305523
47	0x3d1544ba	0.036442496
48	0x3e304106	0.17212304
49	0x3d9eee23	0.07760265
50	0xbdfcac62	-0.12337567
51	0x3e3d9cea	0.18516889
52	0xbeb5da78	-0.3551824
53	0x3d909f93	0.07061686
54	0x3d944e78	0.07241529
55	0x3e059266	0.13044128
56	0xbde092f6	-0.109655306
57	0xbe387b98	-0.18015897
58	0xbdbee4a6	-0.09320955
59	0xbc5469db	-0.012964691
60	0xbe64e6ca	-0.22353664
61	0xbe1dc4b8	-0.15407073
62	0x3e35d770	0.17757964
63	0x3d9ba4d4	0.07599798
64	0xbea6cf7b	-0.3258017
65	0xbd5ea060	-0.054352164
66	0xbcced062	-0.025245849
67	0x3e2700b3	0.1630886
68	0x3e99f1db	0.30067334
69	0xbec18eee	-0.3780436
70	0x3eba920f	0.3643956
71	0x3c955e8b	0.018233558
72	0x3eb9a3be	0.36257738
73	0xbe034ef3	-0.12823085
74	0xbe924cd5	-0.28574243
75	0xbe73dd3d	-0.23814864
76	0xbe6fdb6e	-0.2342355
77	0x3eb76221	0.35817054
78	0x3e07bedb	0.132564
79	0xbe8919ff	-0.26777646
80	0xbd85dc48	-0.06536156
81	0xbe31aefa	-0.17351905
82	0xbe6cc8d7	-0.2312349
83	0x3e621080	0.22076607
84	0x3e9616ab	0.2931417
85	0xbe99154a	-0.29899055
86	0x3cc52cb0	0.02406916
87	0x3e7d9707	0.24764644
88	0x3e2614b3	0.16218834
89	0xbd954eb3	-0.07290401
90	0xbe6980b5	-0.22803004
91	0xbea66db3	-0.3250557
92	0xbe54f301	-0.20795824
93	0x3c5c0247	0.013428277
94	0xbd0da367	-0.03457966
95	0x3e4cbb0c	0.19993228
96	0x3e2af17a	0.16693678
97	0xbc0a2818	-0.008432411
98	0xbc81deb4	-0.015853263
99	0x3e4030e6	0.18768653
100	0xbe3f798b	-0.18698709
101	0x3e5c8c6e	0.21537945
102	0x3ea35563	0.31901082
103	0x3e64701d	0.22308393
104	0x3db04c5c	0.086083144
105	0x3d3cc7dd	0.046089042
106	0xbcdff33a	-0.02733766
107	0x3e4ae275	0.19812949
108	0x3e8412fa	0.25795728
109	0xbcdcdffa	-0.02696227
110	0x3e026503	0.12733845
111	0xbe913af4	-0.2836529
112	0x3e414698	0.18874586
113	0x3e8c24e2	0.2737189
114	0xba40046d	-0.0007324878
115	0xbe1d604d	-0.15368767
116	0xbdbeeb71	-0.09322251
117	0xbdfb5525	-0.122720994
118	0xbeaf4168	-0.34229589
119	0x3ea7631c	0.32692802
120	0xbc446052	-0.011985855
121	0xbea37f68	-0.3193314
122	0x3e83f8b4	0.25775683
123	0x3ea305ab	0.31840262
124	0x3e9ffadb	0.31246075
125	0xbe6b5ecd	-0.22985382
126	0xbe83909e	-0.25696272
127	0x3d9e2fe9	0.07723982
128	0x3d8f92bd	0.0701041
129	0xbe622df2	-0.22087839
130	0x3d88735b	0.06662627
131	0x3e817948	0.25287843
132	0xbe8dd0be	-0.2769832
133	0x3ebe0550	0.37113428
134	0xbeb2e806	-0.34942645
135	0xbdacdbd3	-0.08440366
136	0xbd6573ad	-0.05601852
137	0x3db24e38	0.08706325
138	0xbc4268cf	-0.011865809
139	0x3e81038d	0.25198022
140	0x3d8c86a7	0.068616204
141	0xbe249b23	-0.16074805
142	0xbebeaabf	-0.37239644
143	0xbe95ad66	-0.29233855
144	0x3e52b26a	0.20575872
145	0x3e2122b8	0.157359
146	0x3e4fa0c9	0.20276178
147	0xbd30086b	-0.042976778
148	0x3dddd039	0.10830731
149	0xbea48146	-0.32129878
150	0x3c320572	0.010865556
151	0xbe1fcc25	-0.15605219
152	0xbe81813e	-0.25293916
153	0xbdb861b1	-0.09003008
154	0x3e66f332	0.22553709
155	0x3e6c1623	0.2305532
156	0x3d6a7297	0.057238188
157	0xbd82ff27	-0.06396323
158	0xbe324131	-0.17407681
159	0xbc770d02	-0.015078785
160	0xbd3bb370	-0.04582542
161	0x3e6760bd	0.22595496
162	0x3de9ca04	0.114154845
163	0xbe92ffbf	-0.28710744
164	0xbea45572	-0.3209644
165	0x3dff29e2	0.124591604
166	0x3ce28d9a	0.027655412
167	0x3e0c0bbf	0.13676356
168	0xbe2c622d	-0.16834326
169	0x3e25024a	0.16114154
170	0xbe9ce4d5	-0.30643335
171	0x3db063e3	0.08612802
172	0xbe835923	-0.25653943
173	0xbe9894e1	-0.29801086
174	0xbda1b9a3	-0.078967355
175	0x3e8b9e10	0.2726903
176	0xbe84f03e	-0.2596454
177	0xbe88fc59	-0.26755026
178	0x3e3e2597	0.18569027
179	0xbeb4ce0a	-0.35313445
180	0xbc138d2f	-0.009005829
181	0xbe8799d4	-0.2648455
182	0x3e89ef32	0.26940304
183	0xbd68faa9	-0.056879673
184	0xbdcb6046	-0.09930472
185	0xbe6a6f43	-0.22894005
186	0x3cc4e4b0	0.024034828
187	0x3e12f8ec	0.14352769
188	0x3dc8e308	0.09808928
189	0x3e493244	0.19648081
190	0x3ebe2851	0.37140134
191	0x3e3d0a3a	0.18460932
192	0x3ea040d5	0.31299463
193	0x3d9d0907	0.076677375
194	0xbe6df787	-0.23238955
195	0xbe9706db	-0.29497418
196	0x3eb7985b	0.35858425
197	0xbe0c392e	-0.13693687
198	0x3ea74b3b	0.32674584
199	0x3d545a3a	0.05184386
200	0xbe06382e	-0.13107368
201	0xbe644568	-0.22292101
202	0xbeb267a0	-0.34844685
203	0x3c903642	0.017603997
204	0x3dcd9d0f	0.10039722
205	0xbbbb8455	-0.0057225623
206	0xbe9bcce0	-0.30429745
207	0x3e9059f9	0.28193644
208	0x3e87848b	0.2646831
209	0x3eb707af	0.3574805
210	0x3eb2d6a3	0.3492938
211	0xbdd41ee5	-0.10357455
212	0xbe44d629	-0.1922232
213	0x3e35dbc8	0.17759621
214	0x3c23bcc4	0.009993736
215	0x3e1071ff	0.14105986
216	0xbd5f0481	-0.054447655
217	0x3e32cdde	0.17461345
218	0xbebb4e7b	-0.36583313
219	0x3eb0afd3	0.34509143
220	0x3e228c1c	0.1587376
221	0x3eb99818	0.3624885
222	0x3baaffdb	0.0052184886
223	0x3e744d95	0.2385772

col_embedding.1.bias f4 [32]
0	0xbe87b6e2	-0.26506716
1	0xbe308887	-0.17239581
2	0xbd9f24dd	-0.07770703
3	0xbe92a90c	-0.28644598
4	0xbe9a0839	-0.30084398
5	0x3e8b07d7	0.2715442
6	0xbe48e15f	-0.19617222
7	0xbe249050	-0.16070676
8	0xbd247677	-0.04015204
9	0xbd136936	-0.03598901
10	0x3dc64fae	0.096831664
11	0x3e8a90c3	0.2706357
12	0x3d6c91fc	0.05775641
13	0xbe2d94bf	-0.16951273
14	0x3e00bb9b	0.12571566
15	0xbec0bce6	-0.37644118
16	0x3eb539c1	0.35395625
17	0x3badad0d	0.0053001703
18	0xbe53b251	-0.20673491
19	0xbd252ddb	-0.040326934
20	0xbcce373e	-0.025172826
21	0xbea934a7	-0.33047983
22	0x3e8e82ef	0.2783427
23	0x3d9e3a24	0.07725933
24	0xbeb50725	-0.35357013
25	0x3e9c60d7	0.30542633
26	0xbe8f0cf4	-0.2793957
27	0xbda7c642	-0.081921116
28	0x3de87781	0.113509186
29	0x3eb56ca7	0.35434458
30	0xbd506278	-0.050875157
31	0x3eabc741	0.33550456

col_embedding.3.weight f4 [32, 32]
0	0x3e0c4d68	0.13701403
1	0x3e02decf	0.12780307
2	0xbbe4675f	-0.0069703306
3	0xbe0f37a9	-0.13986076
4	0x3d9e090d	0.0771657
5	0xbd0262fd	-0.031832684
6	0xbe2b378e	-0.16720411
7	0x3e0bb815	0.1364444
8	0x3e0cb89b	0.13742296
9	0x3e19f3e4	0.15034443
10	0x3dc1d0e2	0.09463669
11	0x3de2a18b	0.11065968
12	0xbe1490f0	-0.14508414
13	0xbbdf9c3a	-0.0068240436
14	0x3d6d4ed9	0.057936523
15	0x3d946c20	0.07247186
16	0xbd622719	-0.055213068
17	0xbd130161	-0.035889987
18	0xbe066e71	-0.13128068
19	0xbe210c74	-0.15727407
20	0x3c054884	0.008134965
21	0x3e30718e	0.17230818
22	0xbdf47d84	-0.11938003
23	0x3e293336	0.16523442
24	0xbe230fdb	-0.15924017
25	0xbdf4c78b	-0.11952122
26	0xbe0e9e30	-0.13927531
27	0xbe018e07	-0.12651835
28	0x3e150355	0.14552052
29	0x3b2b57aa	0.002614478
30	0xbd40b648	-0.047048837
31	0x3e2ed759	0.17074336
32	0x3db29dbc	0.08721492
33	0xbe0ced8f	-0.13762496
34	0x3e1b093f	0.15140246
35	0xbdb55260	-0.088536024
36	0x3dc23882	0.09483434
37	0x3d4d6f16	0.050154768
38	0x3d6a2481	0.05716372
39	0xbd48116d	-0.048844744
40	0x3e26a0c8	0.1627227
41	0xbb8e3274	-0.0043395106
42	0x3dd86753	0.105665825
43	0x3df6151c	0.12015745
44	0xbe1d6da9	-0.15373863
45	0xbcf8480f	-0.030307798
46	0xbdcf9e8b	-0.101376615
47	0xbc954d82	-0.018225435
48	0xbe1894a2	-0.14900449
49	0xbc90fc88	-0.017698541
50	0xbdeba55f	-0.115061514
51	0xbd8ae281	-0.067814834
52	0x3dc5cd75	0.096583284
53	0xbc70d734	-0.014699746
54	0x3e27d6fb	0.16390602
55	0x3d756376	0.059909306
56	0x3d6aa83c	0.057289347
57	0x3d3c17b5	0.045921046
58	0xbe348a29	-0.17630829
59	0x3e2e2b59	0.17008723
60	0xbbe00afc	-0.006837247
61	0xbe2fab4a	-0.17155185
62	0xbbca5902	-0.0061751613
63	0xbdb51e71	-0.08843697
64	0xbd73f806	-0.059562705
65	0xbd37dd3a	-0.044888712
66	0xbcbc5344	-0.022988923
67	0xbdd88b51	-0.105734475
68	0xbdd2deb9	-0.10296387
69	0x3d7ede82	0.06222392
70	0x3e206274	0.15662557
71	0x3e3399eb	0.17539184
72	0xbda57d9d	-0.080805995
73	0xbe222aef	-0.1583669
74	0xbd0f8830	-0.035041988
75	0xbc69179c	-0.01422682
76	0xbe1f4453	-0.15553407
77	0xbe06e339	-0.13172616
78	0xbc3917ef	-0.01129721
79	0x3d8ef872	0.06980981
80	0x3a8c4abd	0.0010703426
81	0xbd57b274	-0.05266042
82	0xbcc72bb1	-0.024312826
83	0x3e25b374	0.16181737
84	0x3d9938a9	0.0748151
85	0xbdcb7483	-0.09934332
86	0x3dd70211	0.10498441
87	0x3df4cf84	0.11953643
88	0xbdc64bfe	-0.09682463
89	0xbd0c28f1	-0.034218732
90	0x3de08992	0.109637395
91	0x3b8e38de	0.004340275
92	0x3ce7be62	0.028289024
93	0xbd215e20	-0.039396405
94	0xbd2b6b94	-0.04185064
95	0x3dac3f78	0.08410543
96	0x3dda31cd	0.1065403
97	0xbd35a25e	-0.0443443
98	0xbcb150c2	-0.021644954
99	0x3cd66ba3	0.026174372
100	0x3da14eef	0.078763835
101	0xbe2f907c	-0.1714496
102	0xbd908aa1	-0.07057691
103	0x3dd73cfb	0.10509678
104	0x3e1f41a6	0.15552387
105	0xbe2d8926	-0.16946849
106	0x3d27fa37	0.041010108
107	0xbd404a2a	-0.04694573
108	0x3d846dbe	0.06466244
109	0xbc1e2ccf	-0.009654238
110	0xbd9b6e6a	-0.07589419
111	0xbe153c00	-0.1457367
112	0xbd4f95f2	-0.05068011
113	0x3d159099	0.036514852
114	0xbd4d2f97	-0.050094213
115	0x3bf9b50b	0.007620459
116	0x3d7a95e0	0.06117809
117	0x3debd68e	0.115155324
118	0x3df671ff	0.12033462
119	0x3d820d36	0.06350176
120	0x3de77c3e	0.11302994
121	0xbe1bb865	-0.1520706
122	0x3df48f4f	0.119413964
123	0xbcc3fe35	-0.023924926
124	0x3df676bd	0.12034366
125	0x3e0c2342	0.13685325
126	0x3e10158b	0.14070718
127	0x3d87e4e8	0.06635457
128	0x3dd8fb0c	0.105947584
129	0x3d76bc75	0.06023832
130	0x3d02070f	0.031745013
131	0xbdb654d6	-0.089029
132	0x3c17ec4c	0.009272646
133	0x3e10f4db	0.14155905
134	0xbd13b28c	-0.036058947
135	0xbce9d555	-0.028544107
136	0x3e0980ed	0.13428088
137	0x3dcaded4	0.09905782
138	0xbda7b4d9	-0.08188791
139	0xbe23eb4b	-0.16007726
140	0x3c953c5f	0.018217264
141	0xbe099814	-0.1343692
142	0xbe0686a1	-0.13137294
143	0x3e12bce5	0.1432987
144	0x3dd280aa	0.10278447
145	0xbe288b2f	-0.16459344
146	0xbdbbbfcd	-0.091674425
147	0x3dc7583b	0.097336255
148	0xbe05d732	-0.13070372
149	0x3d9648af	0.07338082
150	0x3cfca9d6	0.030842703
151	0xbdfa63a9	-0.1222604
152	0x3bd789d7	0.006577711
153	0x3d718bb1	0.05897111
154	0x3e2de773	0.16982822
155	0x3dd7afbb	0.10531565
156	0x3cd09b8f	0.025464801
157	0xbd8d4137	-0.06897204
158	0xbe23da1c	-0.16001171
159	0x3cbc9457	0.023019953
160	0x3cd81cc9	0.026380913
161	0x3d8d32d3	0.068944596
162	0xbd679583	-0.05653907
163	0xbe07d461	-0.1326461
164	0x3de5912e	0.112093315
165	0x3dbc50d8	0.09195107
166	0xbd5f28fc	-0.054482445
167	0x3e07affd	0.13250728
168	0x3e1c5a56	0.15268835
169	0x3dd5ef14	0.10445991
170	0xbdba6905	-0.09102062
171	0xbdedaf21	-0.11605669
172	0xbdcd3940	-0.10020685
173	0x3e13405d	0.14380021
174	0xbdec435a	-0.11536284
175	0x3d4e5132	0.050370403
176	0xbd3dc854	-0.046333626
177	0xbdd09cba	-0.10186143
178	0x3e0d8228	0.13819182
179	0x3d35623c	0.044283137
180	0xbd9a84f2	-0.075448886
181	0xbd42c6df	-0.04755294
182	0x3e007228	0.12543547
183	0xbc9783ae	-0.018495407
184	0x3d4af744	0.049552217
185	0xbe0d4acb	-0.13798063
186	0xbd8ac6e1	-0.067762144
187	0xbd42888e	-0.04749351
188	0x3e15f3c7	0.14643775
189	0xbe224355	-0.15845998
190	0x3db35789	0.087569304
191	0x3c34fe75	0.011046995
192	0x3d3f7027	0.046737816
193	0xbd7b5d0f	-0.061368044
194	0x3def856f	0.11695372
195	0xba183185	-0.0005805719
196	0xbde6b519	-0.112650104
197	0xbc82c09a	-0.01596098
198	0x3da27007	0.07931524
199	0x3df87130	0.12130964
200	0x3e312b28	0.17301619
201	0x3e254429	0.16139282
202	0xbceb812a	-0.028748114
203	0xbdc1dcad	-0.09465919
204	0x3cab07d2	0.020877752
205	0xbe235cd2	-0.15953377
206	0x3e013f3f	0.12621783
207	0x3ba575d8	0.0050494485
208	0x3e306e9c	0.17229694
209	0xbd94673f	-0.07246255
210	0x3dcc90b5	0.09988538
211	0x3e204e15	0.15654786
212	0xbce26f3f	-0.027640937
213	0x3dcf9bd6	0.10137145
214	0xbdec6188	-0.1154204
215	0x3e229595	0.15877374
216	0x3d2e5692	0.04256303
217	0x3e1123df	0.1417384
218	0x3cb81202	0.022469524
219	0xbc6a8bbf	-0.014315545
220	0x3d44f45b	0.048084598
221	0x3df861f3	0.12128057
222	0x3decd941	0.115648754
223	0xbdf820c1	-0.12115622
224	0xbdf80458	-0.121102035
225	0x3daf039f	0.085456125
226	0x3e2a8f3c	0.16656202
227	0x3e15f5dc	0.14644569
228	0xbdd1fc74	-0.1025323
229	0x3cc11f25	0.023574421
230	0xbc82fafc	-0.01598882
231	0xbe1b2aa7	-0.1515299
232	0x3e106cf3	0.14104061
233	0x3e270a42	0.16312507
234	0x3d395f7c	0.045257077
235	0xbde4fcb5	-0.111810125
236	0xbc9076cd	-0.017634774
237	0x3dfacfd3	0.122466706
238	0xbdcade9b	-0.0990574
239	0xbd3e5b74	-0.046473935
240	0xbdb1f35b	-0.086889945
241	0x3c0bf054	0.008541185
242	0xbd9d4c83	-0.07680609
243	0xbcf67c06	-0.030088436
244	0xbd4d1a91	-0.050074164
245	0x3dd8a8b7	0.10579055
246	0xbdb160bb	-0.08661028
247	0x3d42ec86	0.047588848
248	0x3e0f1029	0.13971008
249	0x3e127607	0.14302836
250	0xbe1cda40	-0.15317631
251	0xbd5e6f22	-0.054305203
252	0xbdc07a17	-0.09398287
253	0xbe0d7872	-0.13815477
254	0x3d65bbdc	0.05608736
255	0x3df78126	0.1208518

col_embedding.3.bias f4 [32]
0	0xbd3ca856	-0.046058975
1	0x3e1a8bbb	0.15092365
2	0xbdc78801	-0.097427376
3	0x3df592e6	0.11990909
4	0xbcc198b5	-0.023632387
5	0x3e1cc055	0.15307744
6	0x3dd67f35	0.104734816
7	0x3cf9a391	0.030473502
8	0x3e1267f3	0.14297466
9	0x3e118735	0.14211734
10	0x3e074ed6	0.13213667
11	0x3e07bcef	0.13255666
12	0xbda8e712	-0.08247198
13	0x3e21ca57	0.15799843
14	0x3d8a75b7	0.067607336
15	0xbca7bed1	-0.02047673
16	0xbdc0720b	-0.09396752
17	0xbdac0a55	-0.08400408
18	0x3decc5cf	0.115611665
19	0x3e12e652	0.14345673
20	0x3dbb20d0	0.09137118
21	0x3dc9e590	0.09858239
22	0xbdfcb949	-0.12340028
23	0x3e1b26ed	0.15151568
24	0x3e0e1fb9	0.13879289
25	0xbd863328	-0.06552726
26	0x3e0aff2c	0.13573903
27	0x3dbe58a1	0.09294248
28	0x3dbcd578	0.092204034
29	0x3cf51108	0.029915348
30	0xbdb7b323	-0.089697145
31	0x3d9acd5d	0.07558701

conv_col_to_row.feature_module_left.0.weight f4 [32, 32]
0	0x3cc8229f	0.024430571
1	0xbe1d1b6e	-0.15342495
2	0xbb631e82	-0.0034655635
3	0x3d26053e	0.040532343
4	0xbd05f6ef	-0.032706197
5	0xbdef7908	-0.11693007
6	0x3c7e64f7	0.015527002
7	0xbd67d9cf	-0.056604203
8	0x3e2059b6	0.15659222
9	0x3c13e101	0.009025813
10	0xbcaaa639	-0.020831214
11	0x3e05ca8a	0.13065544
12	0xb7cee206	-2.4662364e-05
13	0xbd537f0f	-0.051634844
14	0xbc9b2937	-0.018940551
15	0xbc2a5417	-0.010396025
16	0xbc309b6e	-0.010779245
17	0xbe0f2714	-0.13979751
18	0x3e056399	0.13026275
19	0x3cef6572	0.029223178
20	0xbdbb4053	-0.09143128
21	0xbdda6320	-0.10663438
22	0x3da20fbd	0.07913158
23	0x3d9ec3cf	0.07752191
24	0x3dc43da9	0.09582073
25	0xbdd8cfa5	-0.1058648
26	0xbe255495	-0.16145547
27	0xbe07790f	-0.13229774
28	0x3e0124f6	0.12611756
29	0xbd42c75b	-0.0475534
30	0xbd5efa20	-0.054437757
31	0xbdce4c6e	-0.100731716
32	0x3e05b5eb	0.13057677
33	0x3d92e01f	0.07171654
34	0x3dd53c05	0.104118384
35	0xbdcb4af6	-0.09926407
36	0xbd01c1ed	-0.031679083
37	0x3e23c9d1	0.15994956
38	0xbcbafda5	-0.022826025
39	0xbe31537b	-0.17317002
40	0xbdb5cd43	-0.08877041
41	0x3b982c5f	0.0046439613
42	0x3df09c31	0.11748541
43	0x3cfc3d43	0.03079093
44	0x3d1fbd7c	0.038999066
45	0xbdfc9b40	-0.12334299
46	0x3cf9549a	0.030435849
47	0x3c74351b	0.014905239
48	0x3e0170d0	0.12640691
49	0xbe074930	-0.13211513
50	0x3ce3bff4	0.027801491
51	0xbdd585cf	-0.104259126
52	0xbd22e628	-0.039770275
53	0x3db530ae	0.088471755
54	0xbe340731	-0.17580868
55	0x3ddd37be	0.108016476
56	0xbe25c726	-0.1618925
57	0x3d17b440	0.037037134
58	0x3da36a1e	0.079792246
59	0x3dd3a044	0.103333026
60	0xbdc23cfb	-0.09484287
61	0xbde10ec3	-0.10989144
62	0x3dbd9cb4	0.092584044
63	0xbc80d940	-0.015728593
64	0x3de8d148	0.11368042
65	0xbdde0f21	-0.10842729
66	0x3cdca0cd	0.026932145
67	0x3d8c64c2	0.068551555
68	0x3cbcdbdc	0.023054056
69	0x3e0310d7	0.12799393
70	0xbe03fc9e	-0.12889335
71	0x3e2c2950	0.16812634
72	0xbdeb6a2d	-0.11494861
73	0xbdda3815	-0.10655228
74	0x3e045c70	0.12925887
75	0x3caaee22	0.020865504
76	0xbe2d1688	-0.16903126
77	0xbe29f6e5	-0.16598089
78	0xbda5f547	-0.081034236
79	0x3e29be8a	0.16576591
80	0x3d252cca	0.040325917
81	0xbe063e27	-0.13109647
82	0x3e2da0bf	0.16955851
83	0x3d8fa7ce	0.07014428
84	0xbd9677b9	-0.07347054
85	0xbce28074	-0.027649142
86	0xbd452545	-0.048131246
87	0x3e338336	0.17530522
88	0x3ba4815c	0.0050203037
89	0x3d565eed	0.052336622
90	0xbe103a21	-0.14084674
91	0x3cb8fecd	0.022582436
92	0xbd8a5917	-0.06755274
93	0x3d8e043e	0.06934403
94	0x3ccdabbc	0.025106303
95	0xbc38274e	-0.01123984
96	0xbd4dd74a	-0.050254144
97	0xbd7b5808	-0.06136325
98	0x3c514276	0.012772193
99	0x3c197b5b	0.009367789
100	0xbc642c06	-0.013926512
101	0x3d51a94b	0.05118684
102	0xbc878bb5	-0.01654611
103	0xbd8cfda6	-0.06884317
104	0x3e10e34f	0.14149211
105	0xbdc2cc26	-0.095115945
106	0xbdfce3f0	-0.12348163
107	0x3e1af778	0.15133464
108	0x3cde9189	0.027169006
109	0xbd04a355	-0.032382328
110	0xbdc34b54	-0.09535852
111	0xbd0794be	-0.033100836
112	0xbe08707a	-0.13324156
113	0x3d20b946	0.03923919
114	0x3c9e3e62	0.019316856
115	0x3d9c7e93	0.076413296
116	0xbd049e51	-0.032377545
117	0xbe2b2199	-0.16712035
118	0x3e0c0fae	0.13677856
119	0xbe258bec	-0.16166657
120	0xbdea084b	-0.11427363
121	0xbbb5caf4	-0.0055478755
122	0xbdcff691	-0.10154451
123	0xbdc073c2	-0.09397079
124	0x3dfbcfca	0.12295492
125	0xbe2d3463	-0.16914515
126	0xbcb6c932	-0.022312734
127	0x3db852cb	0.090001665
128	0xbe19cf93	-0.1502059
129	0x3d9f6f74	0.0778493
130	0x3e24f33b	0.1610841
131	0x3b37d532	0.0028050658
132	0x3dbf96c4	0.09354928
133	0xbde537a4	-0.11192253
134	0x3e087309	0.13325132
135	0xbe204f27	-0.15655194
136	0x3d83891c	0.06422636
137	0x3dd08233	0.101810835
138	0xbdaae73f	-0.08344888
139	0xbdd20a2c	-0.102558464
140	0x3d25a23a	0.040437914
141	0x3e278d76	0.16362557
142	0xbda1196d	-0.07866178
143	0x3e050217	0.12989078
144	0xbda69e32	-0.08135642
145	0xbbe6ece8	-0.0070472844
146	0x3e065672	0.13118914
147	0xbe13de72	-0.14440325
148	0xbe33ab83	-0.17545895
149	0xbcfe0c94	-0.031011857
150	0x3d0b8f76	0.034072362
151	0x3cb73e17	0.022368474
152	0xbe3496f6	-0.17635712
153	0xbda5227c	-0.08063218
154	0x3d27780c	0.04088597
155	0xbce20bd4	-0.02759353
156	0xbe1e4038	-0.15454185
157	0x3d6a730a	0.057238616
158	0x3d39161f	0.045187112
159	0xbdc6b597	-0.09702604
160	0x3be47c7c	0.0069728475
161	0xbe0c6911	-0.13711955
162	0x3e231bb0	0.1592853
163	0x3da5b125	0.08090428
164	0x3c682c86	0.014170771
165	0x3da79877	0.08183377
166	0x3d5ee2aa	0.054415382
167	0x3defcf21	0.117094286
168	0xbe11213c	-0.14172834
169	0xbd0888e1	-0.033333663
170	0x3d8b2d28	0.06795722
171	0xbe172a60	-0.14762259
172	0xbd0f1e99	-0.03494129
173	0xbd7d5f3b	-0.061858397
174	0x3caeb9f0	0.021328896
175	0xbe00ce62	-0.12578729
176	0x3e2aebf3	0.1669157
177	0xbe02bb5a	-0.12766781
178	0xbd860df8	-0.06545633
179	0xbdceb2ff	-0.100927345
180	0x3df8b5a6	0.12144022
181	0x3df668a8	0.1203168
182	0x3d62280a	0.055213965
183	0x3df9507d	0.12173555
184	0x3e2605fb	0.16213219
185	0xbbfce388	-0.0077175535
186	0xbdc9ee9d	-0.09859965
187	0x3e113d05	0.14183433
188	0x3d8483d8	0.0647046
189	0xbe09e7e3	-0.13467364
190	0x3bb475c8	0.0055072047
191	0x3e315ab5	0.17319758
192	0xbd50ea39	-0.051004622
193	0xbe1f0c7a	-0.15532103
194	0x3e26b5b5	0.16280253
195	0x3cd491ce	0.025948431
196	0x3d916b45	0.07100538
197	0xbe276c7a	-0.16349974
198	0x3e15eeb3	0.14641838
199	0xbdeac89e	-0.11464046
200	0x3cd62d59	0.02614467
201	0x3dab131a	0.08353253
202	0x3c56f8b5	0.01312082
203	0xbe31be64	-0.17357785
204	0x3cd9ab56	0.026570957
205	0xbda31799	-0.07963485
206	0x3d35df22	0.04440225
207	0x3d9db6cb	0.077008806
208	0x3cbc8db5	0.02301679
209	0xbcce092b	-0.025150856
210	0xbd5edf5e	-0.05441224
211	0x3df55db7	0.11980765
212	0xbd94f85f	-0.072739355
213	0x3d681ff5	0.0566711
214	0xbdd4a5d0	-0.10383189
215	0xbd91d4ad	-0.07120643
216	0x3cda7b86	0.026670229
217	0xbe0e1d58	-0.13878381
218	0x3d46d2ec	0.048540995
219	0xbd4dea69	-0.05027238
220	0x3e2b44f3	0.16725521
221	0x3bcea4fd	0.006306289
222	0xbe162c9f	-0.14665459
223	0x3dfe8d3d	0.12429283
224	0xbe009ae4	-0.12559086
225	0x3c1b98bd	0.009496865
226	0xbc0b68e8	-0.008508898
227	0xbdfe93c1	-0.124305256
228	0x3e131147	0.1436206
229	0xbdce5a75	-0.10075847
230	0x3cd67df3	0.026183104
231	0x3e142842	0.14468482
232	0x3e0950f7	0.13409792
233	0xbe2012a6	-0.15632114
234	0x3e155582	0.145834
235	0xbd9c3606	-0.07627492
236	0xbb848dbc	-0.0040452164
237	0xbdc727a2	-0.09724356
238	0x3c7a062e	0.015260262
239	0x3dcc2946	0.0996881
240	0xbe062d30	-0.13103175
241	0xbb3f1ae3	-0.0029160313
242	0x3e30de93	0.17272405
243	0x3de61351	0.11234153
244	0xbd300e51	-0.042982403
245	0xbe16d1cf	-0.14728473
246	0x3abd6c7e	0.0014451889
247	0xbd84b4cc	-0.06479797
248	0x3dbac358	0.0911929
249	0x3def52cf	0.11685716
250	0xbded7fae	-0.115966186
251	0xbad580a8	-0.0016288953
252	0x3dff7d28	0.124750435
253	0x3da1734b	0.078833185
254	0xbe16691e	-0.14688537
255	0xbe176035	-0.14782794

conv_col_to_row.feature_module_left.0.bias f4 [32]
0	0x3ddbddaa	0.107356384
1	0x3e03f90e	0.12887976
2	0xbddfe778	-0.10932821
3	0x3d87ebd5	0.06636778
4	0xbca4ad97	-0.020102305
5	0x3de6c58a	0.11268146
6	0xbdb368c0	-0.08760214
7	0x3e3275cd	0.1742775
8	0xbd72e002	-0.05929566
9	0xbe14c4f1	-0.14528252
10	0xbddd4ba1	-0.10805441
11	0xbe1b9b1e	-0.15195891
12	0x3d17585a	0.036949493
13	0x3d8f9f7f	0.07012843
14	0xbe282831	-0.16421582
15	0xbe1b7f33	-0.15185241
16	0x3db38669	0.08765871
17	0x3e054761	0.1301551
18	0x3cd121d7	0.025528831
19	0x3d193e6a	0.03741304
20	0x3d3a36fd	0.045462597
21	0x3db09272	0.08621682
22	0x3e25b10d	0.16180821
23	0xbdb3f53d	-0.0878701
24	0x3db92b67	0.090414815
25	0xbd56d123	-0.052445542
26	0x3dffaa12	0.1248361
27	0xbe2ee8ac	-0.17080945
28	0xbdd15352	-0.1022097
29	0xbd8bca1c	-0.06825659
30	0xbd6aa625	-0.057287354
31	0xbe2c1984	-0.16806608

conv_col_to_row.feature_module_edge.0.weight f4 [32, 1]
0	0x3f0b9b28	0.54533625
1	0x3f1c26f9	0.6099697
2	0x3dc00b48	0.09377152
3	0x3eab383f	0.3344135
4	0x3dae59f0	0.08513248
5	0x3ee8d5b1	0.45475534
6	0xbf3b50e8	-0.7317033
7	0xbea8c624	-0.3296367
8	0xbf022992	-0.5084468
9	0x3e54d8f1	0.20785882
10	0xbf696638	-0.911716
11	0xbf56f4ab	-0.83967084
12	0xbf53bf99	-0.8271423
13	0x3e07b977	0.13254343
14	0xbf085b64	-0.5326445
15	0x3db4eddf	0.08834433
16	0xbd80ab1d	-0.06282637
17	0xbe14f889	-0.14547934
18	0x3f316b70	0.6930456
19	0x3f27ec8a	0.65595305
20	0xbf3b3502	-0.7312776
21	0x3c18e782	0.0093325395
22	0xbf50f806	-0.81628454
23	0xbf3009bb	-0.6876485
24	0x3f2eeabe	0.6832694
25	0x3ed14807	0.40875265
26	0xbf29bb6d	-0.66301614
27	0x3f26e59d	0.6519411
28	0xbe1e3835	-0.15451129
29	0x3e160344	0.14649683
30	0xbe87b1a8	-0.26502728
31	0x3f6bccb4	0.9210923

conv_col_to_row.feature_module_right.0.weight f4 [32, 32]
0	0xbd7b5441	-0.061359648
1	0x3da35c34	0.07976571
2	0xbdccf1da	-0.10007067
3	0x3df3bac3	0.11900856
4	0xbdae9856	-0.085251495
5	0xbdefa816	-0.11701982
6	0xbc60fb77	-0.013731829
7	0x3cf7b532	0.030237768
8	0x3bbdc102	0.0057908306
9	0xbdd6c5d4	-0.104869515
10	0xbdbde200	-0.09271622
11	0x3d7a2076	0.061066113
12	0xbdd17cf3	-0.1022891
13	0x3b63a0e1	0.0034733342
14	0x3d9b9611	0.07596982
15	0x3c8863bf	0.016649125
16	0x3e350a6d	0.17679758
17	0x3e278a1a	0.16361275
18	0x3cb4dbc2	0.022077445
19	0x3e09b9c5	0.13449772
20	0xbe2a7359	-0.16645564
21	0x3d1ba8bb	0.03800271
22	0x3e319c77	0.17344843
23	0xbd72f3f8	-0.059314698
24	0x3d8d4f07	0.06899839
25	0x3d21fb0a	0.03954605
26	0x3e0d6127	0.13806592
27	0xbdcbc387	-0.09949403
28	0xbded8587	-0.11597734
29	0x3bd2dce1	0.006435022
30	0xbde80a24	-0.11330059
31	0x3e186256	0.14881262
32	0x3e1fe74b	0.15615575
33	0x3dbd9393	0.09256663
34	0xbc9270a7	-0.017875982
35	0x3e34c17f	0.17651938
36	0xbe1e401f	-0.15454148
37	0x3e33b18e	0.175482
38	0xbd9eacf1	-0.0774783
39	0x3e17687c	0.14785951
40	0xbdddffe1	-0.10839821
41	0xbdc3161e	-0.09525703
42	0xbdda22ba	-0.10651155
43	0x3db7d2f3	0.08975782
44	0x3d0d363b	0.034475546
45	0x3dd0980d	0.101852514
46	0x3bb83118	0.005621087
47	0xbd6ea6b5	-0.058264453
48	0x3e0ccea5	0.13750704
49	0xbe0fd6e4	-0.14046818
50	0x3d9b0eed	0.07571206
51	0xbe1a0416	-0.15040621
52	0x3e291a27	0.16513883
53	0x3c45ba36	0.012068322
54	0xbd733ddc	-0.059385166
55	0x3e0bcc0f	0.13652061
56	0xbe18aae5	-0.14908941
57	0xbdc9b2f5	-0.098485865
58	0xbe116905	-0.14200218
59	0xbd6a1648	-0.057150155
60	0xbd9a5653	-0.07535996
61	0x3dc88fff	0.0979309
62	0xbe18625a	-0.14881268
63	0x3b973796	0.0046147807
64	0x3e0d93e4	0.13825947
65	0xbd1df7b6	-0.038566314
66	0xbd77a394	-0.060458735
67	0xbda2d740	-0.07951212
68	0x3db64f5a	0.08901854
69	0x3de78bf2	0.11305989
70	0xbe07d5a8	-0.13265097
71	0xbcc4bb1a	-0.024014998
72	0xbe19ce68	-0.15020144
73	0xbd574014	-0.052551344
74	0x3ca518e3	0.020153468
75	0x3cc48fb9	0.023994314
76	0x3e02f2b5	0.12787898
77	0x3df68378	0.120367944
78	0x3d53bba1	0.05169261
79	0xbe24bc74	-0.16087514
80	0xbd3b6762	-0.04575289
81	0x3e33a853	0.1754468
82	0xbd680c7b	-0.056652527
83	0x3d32e9c5	0.04367997
84	0x3cdda598	0.0270565
85	0x3dc77f7b	0.09741112
86	0xbdb900ed	-0.0903338
87	0xbdcb8c37	-0.09938853
88	0xbd3a8f02	-0.04554654
89	0x3dee2204	0.11627582
90	0xbe25937a	-0.16169539
91	0xbcd33731	-0.025783153
92	0x3dd3590a	0.10319717
93	0x3e0edeec	0.13952225
94	0x3d1467ec	0.03623192
95	0xbdb2f28f	-0.08737671
96	0x3d251e47	0.040312078
97	0xbe082029	-0.13293518
98	0xbe30073b	-0.17190258
99	0x3e09d19b	0.13458864
100	0xbe341025	-0.17584284
101	0xbe066507	-0.13124476
102	0x3e28b21b	0.16474192
103	0x3d829fdb	0.06378146
104	0xbdda3179	-0.106539674
105	0xbe01a773	-0.12661533
106	0xbe1a8b7c	-0.15092272
107	0xbd0559fb	-0.032556515
108	0xbdda3023	-0.106537126
109	0x3da94554	0.082651764
110	0xbdf8b84b	-0.12144526
111	0xbd8b4640	-0.068005085
112	0xbd566040	-0.052337885
113	0x3d5f6587	0.054540183
114	0xbc974c40	-0.018468976
115	0xbcfb3ac9	-0.03066768
116	0xbda24ac4	-0.07924417
117	0xbe2d9612	-0.16951779
118	0x3e2e21b2	0.17005041
119	0x3e1324d2	0.14369515
120	0x3d7b8b5a	0.061412193
121	0xbc42b203	-0.011883262
122	0x3e027ff1	0.12744118
123	0xbd3e0943	-0.04639555
124	0x3bc0dc43	0.0058856322
125	0x3de47b04	0.11156276
126	0xbdde68ff	-0.1085987
127	0x3de9558f	0.11393272
128	0xbdaf66a6	-0.085645005
129	0xbe099777	-0.13436686
130	0x3e2fc462	0.17164758
131	0xbd946552	-0.07245888
132	0xbd977842	-0.07395984
133	0xbd70a6b8	-0.058752745
134	0x3cfd841f	0.03094679
135	0xbc7b9d46	-0.015357321
136	0xbe18507a	-0.1487445
137	0xbe259c59	-0.16172923
138	0x3dd65bdd	0.1046674
139	0x3d96ba33	0.073597334
140	0x3e0a79c3	0.13523011
141	0xbe26e05f	-0.16296528
142	0x3c9a535c	0.018838577
143	0x3e11725f	0.14203785
144	0xbda3597b	-0.079760514
145	0x3bf1e909	0.0073825163
146	0x3ac41b6e	0.0014961788
147	0x3e2025c9	0.15639414
148	0xbe0d8228	-0.13819182
149	0xbd0da1a3	-0.034577977
150	0x3d834c32	0.064110175
151	0x3b9a5c2d	0.0047106952
152	0x3d19bb75	0.03753229
153	0xbddf8f55	-0.1091601
154	0xbe17ffdc	-0.14843696
155	0x3e2129ac	0.15738553
156	0x3c4d3991	0.012525932
157	0xbd909766	-0.07060127
158	0xbb6ea5b0	-0.0036414675
159	0x3d4a6aca	0.04941825
160	0x3da3dec7	0.08001476
161	0x3e1d6e44	0.15374094
162	0xbe2b0fb9	-0.16705216
163	0xbe0fe3e0	-0.14051771
164	0x3d7c04c4	0.061527982
165	0xbdbdd5f9	-0.09269328
166	0x3d5a233f	0.05325627
167	0x3e307c07	0.17234813
168	0xbd90abfd	-0.07064054
169	0x3e1dd484	0.154131
170	0x3d88e80c	0.066848844
171	0x3dcf0b69	0.10109598
172	0x3e28d3d2	0.16487053
173	0x3e3180e5	0.17334326
174	0x3de2a327	0.11066275
175	0x3dbaeef8	0.09127611
176	0x3d8124de	0.0630586
177	0x3e1336cd	0.14376374
178	0x3e2cd33f	0.16877459
179	0xbe16722b	-0.14691989
180	0x3e01459e	0.12624213
181	0x3de0871f	0.10963272
182	0x3dbbf83c	0.09178206
183	0x3dadf736	0.08494417
184	0xbdb5b87e	-0.0887308
185	0x3db9f711	0.09080327
186	0x3de47dbb	0.11156794
187	0x3d3767fb	0.044776898
188	0x3d1af7e5	0.037834067
189	0xbdf9a710	-0.12190068
190	0xbe215084	-0.1575337
191	0xbd703c15	-0.05865105
192	0x3e1d1bec	0.15342683
193	0x3be67712	0.0070332373
194	0x3d68ba0c	0.056818053
195	0x3d7d1bec	0.061794207
196	0xbb032e41	-0.0020016583
197	0xbb19d8a1	-0.0023475068
198	0xbc7a510e	-0.015278114
199	0xbde9fa9d	-0.11424754
200	0x3daad52a	0.08341439
201	0xbdc6b0a3	-0.097016595
202	0x3d55806e	0.052124433
203	0xbd9d6137	-0.07684558
204	0xbd55b6ae	-0.05217617
205	0xba15cbc3	-0.0005714262
206	0xbda383ec	-0.079841465
207	0xbdecbcfb	-0.11559483
208	0xbe0a7ed4	-0.13524944
209	0x3d6fdbfe	0.05855941
210	0xbe007e21	-0.12548114
211	0xbe2ea9b4	-0.17056924
212	0xbdd81298	-0.105504215
213	0x3bf44624	0.0074546505
214	0x3c08a89b	0.00834098
215	0x3bf4286d	0.007451108
216	0x3d4bcace	0.049753956
217	0xbdaad55c	-0.08341476
218	0x3dc8de6b	0.09808048
219	0x3c0c76d1	0.00857325
220	0x3e0c219f	0.136847
221	0x3cec2939	0.02882825
222	0x3d779f4e	0.06045466
223	0xbe003e39	-0.12523736
224	0x3e0c9749	0.13729586
225	0xbca7f59c	-0.020502858
226	0xbd97d784	-0.07414153
227	0x3e16c686	0.14724168
228	0xbd5cb0a5	-0.0538794
229	0x3de17ef1	0.1101054
230	0x3c167356	0.009182772
231	0x3b42865e	0.002968214
232	0x3e190283	0.14942364
233	0xbdcaea93	-0.09908023
234	0x3cdedc0e	0.02720454
235	0xbda1d7b0	-0.07902467
236	0x3ddff482	0.10935308
237	0x3d095452	0.03352768
238	0x3dc25337	0.09488528
239	0x3dda9e7c	0.1067476
240	0xbd66f41a	-0.056385137
241	0xbdd0f84a	-0.102036074
242	0xbd3bc935	-0.045846183
243	0x3ca6ecab	0.020376524
244	0xbdcc12ce	-0.09964524
245	0x3dd987f1	0.10621632
246	0xbdc2177a	-0.09477134
247	0x3dac4aab	0.08412679
248	0xbe1963fa	-0.14979544
249	0xbdb553bd	-0.088538624
250	0x3cd7b552	0.026331577
251	0xbe335dab	-0.175162
252	0x3e170d6e	0.14751217
253	0x3e1b512f	0.15167688
254	0x3da131aa	0.07870801
255	0xbcd90702	-0.0264926

conv_col_to_row.feature_module_final.0.weight f4 [32]
0	0x3f7faf01	0.9987641
1	0x3f7ff47b	0.9998242
2	0x3f800000	1.0
3	0x3f800069	1.0000125
4	0x3f800000	1.0
5	0x3f800240	1.0000687
6	0x3f806535	1.0030886
7	0x3f7fdd88	0.99947405
8	0x3f7fd2a2	0.99930775
9	0x3f804965	1.0022398
10	0x3f7fea5f	0.99966997
11	0x3f7fe42e	0.9995755
12	0x3f801746	1.0007102
13	0x3f7fdd7e	0.99947345
14	0x3f7ff613	0.99984854
15	0x3f7f9f2b	0.99852246
16	0x3f802850	1.0012302
17	0x3f7ffa42	0.9999124
18	0x3f8007fe	1.0002439
19	0x3f801ec5	1.000939
20	0x3f80316a	1.001508
21	0x3f800ae8	1.0003328
22	0x3f7fe41e	0.99957454
23	0x3f7ff684	0.9998553
24	0x3f8051b2	1.0024931
25	0x3f8017bd	1.0007244
26	0x3f804799	1.002185
27	0x3f800000	1.0
28	0x3f800000	1.0
29	0x3f7faa8b	0.998696
30	0x3f800000	1.0
31	0x3f800000	1.0

conv_col_to_row.feature_module_final.0.bias f4 [32]
0	0xba2d99f1	-0.00066223653
1	0xb98a2a95	-0.00026353137
2	0x00000000	0.0
3	0x37d865af	2.5796557e-05
4	0x00000000	0.0
5	0x38aa7478	8.127926e-05
6	0x3a1fe111	0.0006098906
7	0xb9bf3f2d	-0.00036477429
8	0xb9b4967d	-0.00034444398
9	0x3aee613a	0.0018186935
10	0xb8a543dc	-7.880453e-05
11	0xb9d63dd2	-0.0004086332
12	0x3a37c469	0.00070101634
13	0xba888242	-0.0010414796
14	0x3a6001e9	0.00085452065
15	0xba20fa61	-0.0006140825
16	0x393a0e0e	0.00017743578
17	0xb8b8fd8b	-8.82103e-05
18	0x38c8c79c	9.573923e-05
19	0x3ad22b4f	0.0016034635
20	0x3a8b301f	0.00106192
21	0x3874b06b	5.8338435e-05
22	0x39319764	0.00016936433
23	0xb9b37f22	-0.00034236262
24	0x3b27b231	0.0025588388
25	0x3a07d8f0	0.00051821675
26	0x3ad0c568	0.0015927972
27	0x00000000	0.0
28	0x00000000	0.0
29	0xbacc3210	-0.0015578885
30	0x00000000	0.0
31	0x00000000	0.0
