GNN_method/ResultsGCNN/actor_12.pt (torch, 83520 bytes, 43 tensors)

row_embedding.0.weight f4 [7]
0	0x3f8017bb	1.0007242
1	0x3f80101b	1.0004915
2	0x3f7fe814	0.999635
3	0x3f801766	1.0007141
4	0x3f7ff709	0.9998632
5	0x3f80043c	1.0001292
6	0x3f7ff75c	0.99986815

row_embedding.0.bias f4 [7]
0	0xba6d105c	-0.000904327
1	0xb9fe5175	-0.00048507345
2	0xb9b17a85	-0.00033851355
3	0xba168fad	-0.0005743455
4	0x3947ac81	0.00019042382
5	0xb9649776	-0.00021800198
6	0x3989e363	0.00026300093

row_embedding.1.weight f4 [32, 7]
0	0x3d5ee784	0.05442001
1	0x3d632cf3	0.05546279
2	0x3e0d0e9b	0.13775103
3	0xbeb72d1b	-0.357766
4	0xbe3bf86d	-0.18356486
5	0x3e760118	0.24023855
6	0xbdafae33	-0.08578148
7	0xbe8b6a68	-0.2722962
8	0xbd81c0a0	-0.063355684
9	0xbd211602	-0.03932763
10	0xbdda92e0	-0.106725454
11	0x3e473538	0.19453895
12	0x3aa09f64	0.0012254533
13	0xbdb13fd6	-0.08654754
14	0xbe0196b9	-0.12655152
15	0xbe962529	-0.29325226
16	0xbe9190fb	-0.28430924
17	0x3e862c02	0.2620545
18	0x3ea2b380	0.31777573
19	0x3c9c2858	0.019062206
20	0xbe4f68fe	-0.20254895
21	0xbe584ef1	-0.21123864
22	0x3e03aa69	0.12857975
23	0x3ea29ea6	0.31761664
24	0xbeb62684	-0.3557626
25	0x3ce96d28	0.028494433
26	0x3bdc455e	0.0067221364
27	0x3e4973a8	0.19673026
28	0xbe0f1d7d	-0.13976093
29	0xbd04b2c2	-0.03239704
30	0xbe9d7678	-0.30754447
31	0x3e5684d2	0.20949104
32	0xbe4ff314	-0.2030757
33	0xbe4eeeec	-0.20208329
34	0xbe48daa0	-0.19614649
35	0xbddabf4e	-0.1068102
36	0x3d588271	0.052858774
37	0xbc50e50b	-0.012749921
38	0xbeb4af8d	-0.35290185
39	0x3dcb726b	0.09933933
40	0xbe4f3611	-0.20235468
41	0x3ea0f437	0.3143632
42	0xbe892dd3	-0.26792774
43	0xbeac0a18	-0.3360145
44	0x3e8af5c5	0.27140632
45	0xbe657726	-0.22408733
46	0xbea021b7	-0.31275722
47	0xbd66dc0a	-0.05636219
48	0x3ca49c00	0.020093918
49	0xbe796767	-0.24355851
50	0x3e8b23ad	0.27175656
51	0x3e6a8c37	0.2290505
52	0x3e852876	0.26007432
53	0x3e586e92	0.21135929
54	0x3d012608	0.03153041
55	0x3d0ad8a4	0.03389801
56	0xbe0c7909	-0.13718046
57	0xbd9d8c6b	-0.07692798
58	0x3cc033d9	0.023462223
59	0x3c6b0ab3	0.014345813
60	0xbe0c7677	-0.13717066
61	0xbe534ed9	-0.20635547
62	0x3e8ed48e	0.2789654
63	0x3d44fb0b	0.048090976
64	0xbeaf5174	-0.3424183
65	0xbe4e23dc	-0.20130867
66	0x3eba7d4e	0.36423725
67	0xbe4113f9	-0.18855275
68	0x3e8309bd	0.25593367
69	0xbeb353ea	-0.3502496
70	0xbe88772b	-0.26653418
71	0x3eacb751	0.3373361
72	0xbdc38426	-0.0954669
73	0xbbc5f141	-0.0060407226
74	0xbd20f325	-0.03929438
75	0xbe80a2c1	-0.2512417
76	0x3e81192f	0.25214526
77	0xbe3a0b35	-0.18168338
78	0x3c50cde5	0.012744402
79	0xbeb658de	-0.35614675
80	0xbd999135	-0.07498399
81	0xbc78b3fb	-0.015179629
82	0x3e845bad	0.25851193
83	0x3e0b173f	0.13583086
84	0x3e93c442	0.2886067
85	0xbd967cad	-0.07347999
86	0xbe9e6396	-0.30935353
87	0xbddb03aa	-0.10694058
88	0xbd8ad6d4	-0.067792565
89	0x3ea2555e	0.31705755
90	0xbe69be80	-0.22826576
91	0x3e7f18b8	0.24911773
92	0x3e5a361e	0.21309707
93	0xbe6093ec	-0.21931428
94	0xbe7b37bf	-0.24532984
95	0xbe1d8554	-0.15382892
96	0xbe17446f	-0.14772199
97	0xbe8a0b1b	-0.26961598
98	0xbeb8d7e9	-0.36102226
99	0x3db78623	0.089611314
100	0x3dcb1af9	0.09917254
101	0xbe8f641c	-0.28006065
102	0x3e8bd3a1	0.27309898
103	0xbe12c6b8	-0.14333618
104	0xbdeb92e2	-0.11502625
105	0x3d87ca08	0.06630331
106	0x3e9157cd	0.283873
107	0xbea8c24a	-0.3296073
108	0xbd8d8018	-0.069091976
109	0x3df6f982	0.120593086
110	0xbe9d1f7b	-0.3068808
111	0x3e97c2bb	0.29640755
112	0x3e17d211	0.14826228
113	0x3ea7fc1b	0.3280953
114	0xbcdd362a	-0.027003367
115	0x3e315bbc	0.1732015
116	0xbe823458	-0.2543056
117	0x3eb35af4	0.3503033
118	0x3dbc15a7	0.09183817
119	0x3e493cae	0.19652054
120	0xbe5ee7ba	-0.21768084
121	0xbe884382	-0.26614004
122	0xbea633e3	-0.3246146
123	0xbeb16543	-0.3464757
124	0x3b2202c9	0.0024720898
125	0xbcb59699	-0.022166537
126	0xbeb49c9f	-0.35275742
127	0x3eae9a8f	0.34102294
128	0xbe337bfb	-0.17527764
129	0xbe9a199a	-0.30097657
130	0xbe26594b	-0.16245
131	0x3ea26c89	0.3172343
132	0x3db82b4b	0.089926325
133	0xbe486e6a	-0.1957337
134	0xbe2a714c	-0.16644782
135	0xbe752966	-0.23941574
136	0x3e01a630	0.12661052
137	0x3e7d75dc	0.24751991
138	0xbe4382c9	-0.1909286
139	0x3eb74bb1	0.35799935
140	0x3ea8a166	0.32935637
141	0x3e036ad0	0.12833714
142	0xbc17b08c	-0.009258401
143	0x3e8c7049	0.27429417
144	0x3dd43dfa	0.103633836
145	0xbeab4813	-0.33453426
146	0xbe83d0fb	-0.25745377
147	0x3e4c42cc	0.19947356
148	0x3d0c662c	0.034277126
149	0x3eb5265f	0.35380837
150	0xbe8b7b7c	-0.2724265
151	0xbe92e182	-0.28687674
152	0xbddc520e	-0.10757838
153	0xbe6c42b9	-0.23072328
154	0x3e8f78ab	0.2802175
155	0x3d028020	0.03186047
156	0xbe0aa248	-0.13538468
157	0xbd43a219	-0.04776201
158	0x3d0f3724	0.034964696
159	0xbe8bc549	-0.27298954
160	0x3d32c180	0.043641567
161	0xbe7a6959	-0.2445425
162	0x3d71b48f	0.059010085
163	0x3e0c4be8	0.13700831
164	0xbe6e4f99	-0.23272552
165	0xbe56a016	-0.20959505
166	0xbc46468c	-0.012101781
167	0x3e983e20	0.29734898
168	0x3e429e27	0.19005643
169	0xbdb502b1	-0.08838404
170	0x3ea91eb2	0.3303123
171	0x3dc6d1c1	0.09707976
172	0x3ebaea64	0.3650695
173	0x3e8814cb	0.26578364
174	0xbe862e6a	-0.26207286
175	0x3cbdc712	0.023166213
176	0x3e6cecc5	0.23137195
177	0x3d9b5a0a	0.07585533
178	0x3df5d82a	0.12004121
179	0x3e9fbf34	0.31200564
180	0xbe8e17ae	-0.2775244
181	0x3e0274e9	0.1273991
182	0xbdecfc51	-0.11571563
183	0xbe20e34b	-0.15711705
184	0x3ead402f	0.3383803
185	0x3e8a7c43	0.2704793
186	0x3e7d3baa	0.24729791
187	0x3d17e172	0.037080236
188	0xbe961afa	-0.29317456
189	0x3eaf9149	0.3429053
190	0x3ddd01e7	0.107913785
191	0xbd1f2dee	-0.03886216
192	0xbe9419b8	-0.28925872
193	0xbdde9466	-0.108681485
194	0xbea8dd87	-0.32981512
195	0x3e96f511	0.29483846
196	0x3ea36d08	0.31919122
197	0x3d98488f	0.074357145
198	0x3ea2b3b4	0.31777728
199	0xbe758d79	-0.23979749
200	0xbe5a2e5f	-0.21306752
201	0x3e387281	0.1801243
202	0x3ebce856	0.36896008
203	0xbe7097d5	-0.2349542
204	0xbe9ceaef	-0.3064799
205	0x3e02bdf4	0.12767774
206	0x3decea2c	0.11568102
207	0x3e8874e1	0.26651672
208	0x3d69fd31	0.057126228
209	0xbec1773c	-0.3778628
210	0x3e1c89af	0.15286897
211	0xbe38eaaa	-0.18058267
212	0x3e47423f	0.19458865
213	0xbe8f82dd	-0.28029528
214	0xbe95cb35	-0.29256597
215	0x3d0a2b97	0.033732977
216	0xbd8472d6	-0.06467216
217	0xbeb3c79e	-0.35113233
218	0xbe3f9d7b	-0.18712418
219	0xbe9f2aee	-0.3108744
220	0x3dd9c54a	0.10633333
221	0x3dcf11ee	0.10110842
222	0xbdf50406	-0.11963658
223	0xbea22c0d	-0.31674233

row_embedding.1.bias f4 [32]
0	0xbd50b25f	-0.050951358
1	0x3e83698e	0.2566647
2	0x3de31d00	0.11089516
3	0xbebce9cd	-0.36897126
4	0x3da67a51	0.08128799
5	0xbdfb9d52	-0.12285866
6	0x3c92f677	0.01793979
7	0xbdd985b7	-0.10621207
8	0x3e1a335b	0.15058653
9	0xbe5683a9	-0.20948662
10	0xbeb349ca	-0.35017234
11	0xbcd5ade9	-0.026083903
12	0x3ea34dbd	0.31895247
13	0x3e194356	0.14967093
14	0x3eb14253	0.34620914
15	0x3dc86fb7	0.09786933
16	0xbe217529	-0.1576735
17	0x3c8fa47f	0.017534493
18	0xbdf90910	-0.12159932
19	0x3e9ced4f	0.30649802
20	0x3e901a5d	0.28145114
21	0xbcd2d28e	-0.025735166
22	0x3e5674d1	0.20943
23	0xbdcb0bfe	-0.09914397
24	0x3ea4b906	0.32172412
25	0x3e53916e	0.20660946
26	0xbe1848dc	-0.14871544
27	0x3e00af1d	0.125668
28	0xbe970270	-0.29494047
29	0xbe496490	-0.19667268
30	0x3cacabb7	0.021077974
31	0xbe5c9b88	-0.21543705

row_embedding.3.weight f4 [32, 32]
0	0xbdfb2385	-0.12262634
1	0xbd29f913	-0.0414973
2	0x3d8f1717	0.06986826
3	0x3c3f964b	0.0116935475
4	0x3dcd4b1e	0.10024093
5	0x3b116255	0.0022183855
6	0x3e26aef6	0.1627768
7	0x3e14e2ad	0.14539595
8	0x3dccdb7a	0.10002799
9	0xbe16e580	-0.14735985
10	0x3d0c3e39	0.034239028
11	0x3cec528b	0.028847953
12	0x3dcabcbb	0.09899279
13	0x3b2fd117	0.0026827508
14	0x3e0cf20c	0.13764209
15	0x3e1d9b9d	0.15391393
16	0x3e1f9a63	0.15586238
17	0x3d10a42f	0.035312828
18	0xbdf46216	-0.11932771
19	0x3dd3da82	0.103444114
20	0x3d274446	0.040836595
21	0x3d5fbdc1	0.054624323
22	0x3d3a9fbf	0.045562502
23	0x3de900d4	0.11377111
24	0xbe277866	-0.16354522
25	0x3ddb5087	0.10708719
26	0x3e011862	0.12606958
27	0x3e1b0f3d	0.15142532
28	0x3c90f6e8	0.01769586
29	0xbe1f961d	-0.15584607
30	0x3e16e416	0.14735445
31	0xbcf7ebf8	-0.030263886
32	0x3d0f0e83	0.03492595
33	0x3ce588e4	0.028019376
34	0xbe351ee1	-0.1768756
35	0x3c018be9	0.007906892
36	0xbc8f4683	-0.017489677
37	0xbd38c091	-0.04510552
38	0x3d9ecf2f	0.07754361
39	0x3d300d23	0.04298128
40	0xbdc0cd14	-0.094141155
41	0xbd1d1edf	-0.03835952
42	0xbdcdac8e	-0.10042678
43	0xbe247cf2	-0.16063288
44	0x3db3b0d2	0.0877396
45	0x3dd30f30	0.10305631
46	0x3e20f8fd	0.15719981
47	0xbe2d0b3a	-0.16898814
48	0xbd47ea52	-0.04880745
49	0x3e05d162	0.13068154
50	0x3da33257	0.07968586
51	0xbe0980da	-0.13428059
52	0x3e044f9d	0.12920995
53	0x3dfb2216	0.12262361
54	0x3e082f32	0.13299254
55	0x3df9b258	0.121922195
56	0x3e0f26e9	0.13979687
57	0xbd8e4883	-0.06947424
58	0x3e0e34ce	0.13887331
59	0x3de94fe8	0.11392194
60	0xbe08c3ad	-0.13355894
61	0x3d68f488	0.05687383
62	0xbe0be4f1	-0.13661553
63	0xbdbbf3a8	-0.09177333
64	0x3c771806	0.015081411
65	0x3e256e1e	0.16155288
66	0xbdda62ce	-0.10663377
67	0xbe17746b	-0.14790504
68	0x3e2e3580	0.17012596
69	0xbdaa180c	-0.08305368
70	0xbe277dfc	-0.16356653
71	0xbd948860	-0.07252574
72	0x3df49b7c	0.11943719
73	0x3d022a22	0.031778462
74	0x3e235256	0.15949377
75	0x3dd6d831	0.10490454
76	0x3c207968	0.0097945705
77	0x3e26cca1	0.16288997
78	0xbda5f8cc	-0.08104095
79	0x3db32825	0.08747891
80	0xbd159fcb	-0.036529344
81	0xbc8baf21	-0.017051281
82	0x3d2a81c6	0.041627668
83	0x3e023999	0.12717284
84	0x3e1d085e	0.15335223
85	0x3d504d5f	0.050855037
86	0xbd534f05	-0.05158903
87	0x3e2e60b7	0.17029081
88	0x3d079046	0.033096574
89	0x3d68c5ce	0.056829266
90	0x3d63f7d2	0.05565626
91	0xbe25a965	-0.161779
92	0x3e2b9eba	0.16759768
93	0x3e280dd0	0.16411519
94	0x3e04d66b	0.12972419
95	0x3e1d5d7e	0.15367696
96	0xbda42134	-0.080141455
97	0xbd181fc9	-0.037139688
98	0xbe1dae05	-0.15398414
99	0x3d6b0e64	0.05738677
100	0x3d42bdf5	0.04754444
101	0x3d78f4f2	0.060780473
102	0x3e2f0f56	0.17095694
103	0xbcbf74b2	-0.023371074
104	0x3db7c704	0.08973506
105	0x3dee3f48	0.11633164
106	0xbddb5f11	-0.10711492
107	0xbcf7c4eb	-0.030245265
108	0x3e02e2a9	0.12781776
109	0xbdd2a379	-0.10285086
110	0x3d7e70b1	0.06211919
111	0x3db887e1	0.09010292
112	0xbc99f33c	-0.018792741
113	0x3e2ebfa7	0.17065297
114	0xbd8b6487	-0.068062834
115	0x3d965799	0.07340927
116	0xbd21e176	-0.039521657
117	0xbe22a360	-0.15882635
118	0x3d98ea9a	0.07466622
119	0xbd87776d	-0.066145755
120	0xbb288b0f	-0.002571765
121	0x3e1f12ae	0.1553447
122	0xbda1bf57	-0.07897823
123	0xbd8343df	-0.0640943
124	0xbe31d65a	-0.17366925
125	0xbe017184	-0.12640959
126	0xbde8c2dd	-0.11365292
127	0x3d38dac9	0.045130525
128	0x3dbe3c41	0.09288836
129	0xbce5e250	-0.028062016
130	0xbdea43a6	-0.11438684
131	0x3c341fab	0.010993878
132	0x3dac53b8	0.084144056
133	0xbd820728	-0.06349021
134	0xbde01d0d	-0.10943041
135	0x3dc115ce	0.09427987
136	0xbe2e32e9	-0.17011608
137	0x3d94f98a	0.07274158
138	0x3e0d2639	0.13784112
139	0xbe316059	-0.1732191
140	0xbd49bd9f	-0.049253102
141	0xbd1d07b5	-0.038337428
142	0x3c524b74	0.012835372
143	0xbe32190b	-0.17392366
144	0xbddb332f	-0.10703122
145	0xbdd2cc69	-0.102928944
146	0x3d8d9570	0.069132686
147	0x3d7e5db5	0.062101085
148	0xbe0a19b5	-0.13486369
149	0x3d442081	0.04788256
150	0x3c1a43e0	0.009415597
151	0x3d86bfed	0.06579576
152	0xbd8588c3	-0.06520226
153	0x3df69a3e	0.12041138
154	0xbda62f16	-0.0811445
155	0xbe07ca65	-0.13260801
156	0x3ddd3431	0.1080097
157	0xbe3252cd	-0.17414398
158	0x3df8dd87	0.12151628
159	0xbd4d4c54	-0.05012162
160	0xbdb2b80a	-0.08726509
161	0xbe234067	-0.15942536
162	0xbd07c690	-0.03314835
163	0x3d7ada7d	0.061243523
164	0xbd666213	-0.056245875
165	0x3e27185d	0.16317888
166	0x3dbdcf9b	0.09268113
167	0x3d780f50	0.06056148
168	0xbe28bb38	-0.16477668
169	0x3b7bed71	0.0038441087
170	0xbe01be7d	-0.12670322
171	0x3d3d2509	0.046177898
172	0xbd211fba	-0.039336897
173	0x3de01a12	0.109424725
174	0xbb21fc47	-0.002471702
175	0xbe278ad5	-0.16361554
176	0xbdc6bdb1	-0.097041495
177	0xbe33d467	-0.17561494
178	0xbd370fa8	-0.044692665
179	0x3dae2a9b	0.0850422
180	0xbe13f315	-0.14448197
181	0x3df0aa6f	0.11751258
182	0xbe328c8b	-0.17436425
183	0xbc584566	-0.01320014
184	0x3a1bef01	0.0005948395
185	0xbdb54fbd	-0.088530995
186	0xbe1c7012	-0.15277126
187	0xbdc63b49	-0.096792765
188	0xbe1317ba	-0.1436452
189	0xbca437f9	-0.020046221
190	0x3cdbe4dc	0.026842527
191	0xbe27d085	-0.16388138
192	0x3db32744	0.08747724
193	0x3e04c757	0.12966667
194	0x3dfad40c	0.12247476
195	0xbd1d9cfc	-0.03847979
196	0x3e1052b0	0.14094043
197	0x3d679002	0.05653382
198	0xbdfd679f	-0.1237328
199	0xbda2cd93	-0.079493664
200	0xbe1e7c2b	-0.15477054
201	0x3da79b4c	0.081839174
202	0x3e025eb3	0.12731437
203	0x3d85adc0	0.06527281
204	0xbcf370fc	-0.029716961
205	0xbe0f0ade	-0.13968989
206	0xbe27ca31	-0.16385724
207	0x3c9790e1	0.0185017
208	0xbcb42deb	-0.021994552
209	0x3e08a8ad	0.13345595
210	0xbd958ab7	-0.073018484
211	0x3e0af206	0.13568887
212	0x3dc69449	0.09696252
213	0x3de96486	0.113961264
214	0x3d288d03	0.041150104
215	0x3e0a00d3	0.13476877
216	0xbdb270c8	-0.087129176
217	0xbd35b338	-0.04436037
218	0xbdaf2bbb	-0.08553263
219	0x3c674436	0.014115384
220	0x3e2a0676	0.16604027
221	0xbd427c0b	-0.047481578
222	0xbd07b3cf	-0.033130463
223	0x3ddc70f6	0.10763733
224	0xbd839952	-0.06425728
225	0xbd2f2f0e	-0.042769484
226	0xbdf82eda	-0.12118311
227	0xbe0336f8	-0.12813938
228	0x3d103eb2	0.03521604
229	0x3e0db8be	0.13840005
230	0x3e0ea8ed	0.13931628
231	0xbdcfc3e4	-0.10144785
232	0x3db52622	0.08845164
233	0xbde03757	-0.10948055
234	0xbe31fcf8	-0.17381656
235	0xbb0e62fb	-0.0021726477
236	0x3e1ae6cf	0.15127109
237	0xbca97e6f	-0.020690171
238	0xbe163ca2	-0.14671567
239	0xbd73a932	-0.05948753
240	0x3d895c0d	0.067070104
241	0x3e092a5e	0.13395068
242	0xbe32e558	-0.174703
243	0x3d374a42	0.044748552
244	0x3d7497e6	0.059715174
245	0x3d0b57ca	0.03401927
246	0xbe311e6e	-0.17296764
247	0xbd7cb7eb	-0.061698835
248	0xbd03d324	-0.03218378
249	0xbdc70e0c	-0.09719476
250	0xbe075c7f	-0.13218878
251	0x3d039ed6	0.0321339
252	0xbc85b58b	-0.016321918
253	0xbc2b2031	-0.010444687
254	0xbe000fc9	-0.12506022
255	0x3e0fe201	0.14051057

row_embedding.3.bias f4 [32]
0	0x3dddf32f	0.10837399
1	0xbd55ec81	-0.0522275
2	0xbd75858f	-0.059941825
3	0xbd276f6c	-0.040877745
4	0x3c89099f	0.01672822
5	0xbe04ea03	-0.12979893
6	0x3ddd812a	0.10815652
7	0x3e116f7d	0.14202686
8	0xbd86b3c7	-0.065772586
9	0x3dd05d0f	0.101739995
10	0x3e08cb49	0.13358797
11	0x3dc9a2ab	0.098454796
12	0xbca0282d	-0.019550407
13	0x3d306216	0.043062292
14	0x3dd65ef4	0.104673296
15	0x3dd89c49	0.10576684
16	0x3dc3c117	0.09558313
17	0xbd98e6ea	-0.07465918
18	0x3d4beec7	0.049788263
19	0x3dbb3b72	0.09142198
20	0xbc4a20f4	-0.012336958
21	0x3d07d0db	0.033158164
22	0x3d630a59	0.05542979
23	0x3d85a851	0.065262444
24	0x3dd462a1	0.103703745
25	0x3d293c91	0.041317526
26	0x3e285ceb	0.16441695
27	0xbd5e2c4e	-0.05424147
28	0x3b504275	0.0031777893
29	0xbc04ea1c	-0.008112457
30	0xbe18b09d	-0.14911123
31	0x3df69cd4	0.12041631

col_embedding.0.weight f4 [7]
0	0x3f7fd909	0.99940544
1	0x3f800563	1.0001644
2	0x3f8007fc	1.0002437
3	0x3f8008a0	1.0002632
4	0x3f7fda2b	0.9994227
5	0x3f7fdeb4	0.99949193
6	0x3f8002e7	1.0000886

col_embedding.0.bias f4 [7]
0	0x379518e1	1.777377e-05
1	0xb9113cd5	-0.0001385094
2	0x39419de3	0.00018464732
3	0xb98f9f56	-0.000273938
4	0x39fd5004	0.00048315537
5	0x3a0957bd	0.0005239209
6	0x39d2b622	0.0004019002

col_embedding.1.weight f4 [32, 7]
0	0x3eb56786	0.35430545
1	0x3b72f2e1	0.0037071037
2	0xbae11593	-0.0017172567
3	0xbe343682	-0.17598918
4	0x3e8ca413	0.2746893
5	0xbebb1ece	-0.3654694
6	0xbdd1eb6f	-0.102499835
7	0xbdee0b36	-0.11623232
8	0xbe84749e	-0.25870222
9	0xbe28104c	-0.16412467
10	0x3e3e3aff	0.18577193
11	0xbe5a8833	-0.21341018
12	0x3ba7aa06	0.005116704
13	0xbe71f89f	-0.23629998
14	0xbe49ee60	-0.19719839
15	0x3c55c7bb	0.013048108
16	0x3e8aa9b3	0.27082595
17	0xbe352b98	-0.17692411
18	0x3d01e548	0.0317128
19	0x3db89423	0.0901263
20	0x3e56bb35	0.20969851
21	0x3e91abba	0.2845133
22	0x3e905398	0.28188777
23	0xbdd4eecc	-0.103971094
24	0x3d7575c7	0.059926774
25	0xbe9e96ca	-0.30974418
26	0xbc979021	-0.018501343
27	0x3e34c1a0	0.17651987
28	0x3e16f0e5	0.14740331
29	0x3ea40eb6	0.32042474
30	0x3e979868	0.29608464
31	0xbe37f5f3	-0.17964916
32	0xbd88dac0	-0.06682348
33	0xbe8109a4	-0.25202668
34	0xbebb5a2d	-0.36592236
35	0xbec0eda9	-0.3768132
36	0x3d1b1d56	0.037869774
37	0xbd92dd46	-0.07171111
38	0x3e77a80e	0.24185202
39	0xbe69312f	-0.22772668
40	0x3e2cce5a	0.16875592
41	0xbdf693b2	-0.120398894
42	0xbd08c082	-0.033386715
43	0x3eba0146	0.36329097
44	0x3ebecfd7	0.37267944
45	0x3e517278	0.20453823
46	0x3e6c0d63	0.23051982
47	0x3d155428	0.03645721
48	0x3e31362c	0.17305821
49	0x3d9ef3e9	0.07761366
50	0xbdfc70ec	-0.12326226
51	0x3e3d923e	0.18512818
52	0xbeb5cb7b	-0.35506806
53	0x3d916a10	0.07100308
54	0x3d948a47	0.07252937
55	0x3e04d43f	0.1297159
56	0xbddf8a12	-0.10915007
57	0xbe37f725	-0.17965372
58	0xbdbf0a2c	-0.09328112
59	0xbc4c2282	-0.012459399
60	0xbe6476f8	-0.22311008
61	0xbe1d4027	-0.15356503
62	0x3e3489e1	0.17630722
63	0x3d9b0a96	0.075703785
64	0xbea6afbd	-0.32555953
65	0xbd5da287	-0.054110076
66	0xbcccd446	-0.025003564
67	0x3e2798ab	0.16366832
68	0x3e9a1183	0.30091485
69	0xbec16de6	-0.37779158
70	0x3ebabbfc	0.36471546
71	0x3c9155c5	0.017741093
72	0x3eb9cc26	0.36288565
73	0xbe03d00e	-0.12872335
74	0xbe92a8eb	-0.286445
75	0xbe745e78	-0.23864162
76	0xbe6f7004	-0.23382574
77	0x3eb73ee8	0.3579018
78	0x3e080692	0.13283756
79	0xbe893cd4	-0.2680422
80	0xbd854bfc	-0.065086335
81	0xbe314fb8	-0.17315567
82	0xbe6c8148	-0.23096192
83	0x3e61c8be	0.22049233
84	0x3e964af6	0.29354066
85	0xbe98dc49	-0.29855564
86	0x3cc18e8d	0.023627544
87	0x3e7e090d	0.2480814
88	0x3e263920	0.16232729
89	0xbd946abd	-0.07246921
90	0xbe693935	-0.22775729
91	0xbea6f405	-0.32608047
92	0xbe53e660	-0.2069335
93	0x3c4b375d	0.012403336
94	0xbd11d604	-0.03560449
95	0x3e4dc7a9	0.20095696
96	0x3e2bfe18	0.16796148
97	0xbbf2bba6	-0.0074076233
98	0xbc8d0cec	-0.017218076
99	0x3e4196a5	0.18905123
100	0xbe40df51	-0.18835188
101	0x3e5b26a9	0.21401466
102	0x3ea40842	0.3203755
103	0x3e65d5dc	0.22444862
104	0x3db317ed	0.08744798
105	0x3d3b5516	0.04573544
106	0xbce2d7d3	-0.027690804
107	0x3e4b5bb9	0.19859208
108	0x3e83e4b0	0.25760412
109	0xbce4547b	-0.027872315
110	0x3e020855	0.12698491
111	0xbe916fb9	-0.2840555
112	0x3e407897	0.18796001
113	0x3e8c5ba8	0.27413678
114	0xba3c4d21	-0.0007183124
115	0xbe1cf326	-0.15327129
116	0xbdbdda33	-0.09270134
117	0xbdfa79a6	-0.12230234
118	0xbeaf15d9	-0.34196356
119	0x3ea73b74	0.32662547
120	0xbc3ec18c	-0.011642825
121	0xbea35535	-0.31900945
122	0x3e8422dd	0.2580785
123	0x3ea31757	0.31853744
124	0x3ea027e6	0.3128044
125	0xbe6b02e2	-0.22950318
126	0xbe836b4a	-0.25667793
127	0x3d9ec4d6	0.07752387
128	0x3d8f38d2	0.069932595
129	0xbe61e342	-0.22059348
130	0x3d87fe59	0.0664031
131	0x3e819e74	0.25316203
132	0xbe8dbf8f	-0.2768521
133	0x3ebd5f53	0.3698679
134	0xbeb3215c	-0.3498639
135	0xbdab84f3	-0.083749674
136	0xbd673eaa	-0.056456245
137	0x3db155ed	0.08658967
138	0xbc4992cf	-0.012303068
139	0x3e815c9f	0.25265977
140	0x3d8e758c	0.06956014
141	0xbe2594ac	-0.16169995
142	0xbebf2b23	-0.37337598
143	0xbe962dd4	-0.2933184
144	0x3e51de49	0.20494951
145	0x3e202999	0.15640868
146	0x3e4e9c60	0.2017684
147	0xbd30086b	-0.042976778
148	0x3dddd039	0.10830731
149	0xbea48146	-0.32129878
150	0x3c320572	0.010865556
151	0xbe1fcc25	-0.15605219
152	0xbe81813e	-0.25293916
153	0xbdb861b1	-0.09003008
154	0x3e67f9ab	0.22653835
155	0x3e6be9cc	0.23038405
156	0x3d6a0e23	0.057142388
157	0xbd83581b	-0.06413289
158	0xbe32be3a	-0.17455378
159	0xbc79d418	-0.015248321
160	0xbd3a1b7f	-0.04543638
161	0x3e67b509	0.22627653
162	0x3de9046b	0.11377796
163	0xbe932f14	-0.28746855
164	0xbea484c9	-0.32132557
165	0x3dff0c37	0.12453502
166	0x3cdf7829	0.027278977
167	0x3e0ba530	0.13637233
168	0xbe2c622d	-0.16834326
169	0x3e25024a	0.16114154
170	0xbe9ce4d5	-0.30643335
171	0x3db063e3	0.08612802
172	0xbe835923	-0.25653943
173	0xbe9894e1	-0.29801086
174	0xbda1b9a3	-0.078967355
175	0x3e8bb068	0.27283025
176	0xbe850678	-0.25981498
177	0xbe891291	-0.26771978
178	0x3e3df925	0.18552072
179	0xbeb4cd3a	-0.35312825
180	0xbc165375	-0.009175171
181	0xbe87b0d8	-0.2650211
182	0x3e8a3155	0.26990762
183	0xbd6b376b	-0.057425898
184	0xbdcc7ead	-0.09985099
185	0xbe6afe7f	-0.22948645
186	0x3cc2a49b	0.02376013
187	0x3e1269d8	0.14298189
188	0x3dc7ba37	0.097523145
189	0x3e495f94	0.19665366
190	0x3ebe3de9	0.3715661
191	0x3e3cf2cb	0.18451993
192	0x3ea0566d	0.31315938
193	0x3d9c82c2	0.076421276
194	0xbe6dcc81	-0.23222543
195	0xbe96f85a	-0.29486352
196	0x3eb7a70a	0.35869628
197	0xbe0c4cc3	-0.13701157
198	0x3ea75d80	0.32688522
199	0x3d540bca	0.051769055
200	0xbe060e11	-0.13091303
201	0xbe6458d3	-0.22299509
202	0xbeb2cd5c	-0.34922302
203	0x3c9126fe	0.017718788
204	0x3dcde19f	0.100527994
205	0xbbbef4ea	-0.005827536
206	0xbe9bbba7	-0.30416605
207	0x3e909d0a	0.2824481
208	0x3e8795c3	0.26481447
209	0x3eb6b3b0	0.35683966
210	0x3eb34d23	0.35019788
211	0xbdd5edec	-0.104457706
212	0xbe45bdc3	-0.1931067
213	0x3e34f435	0.17671283
214	0x3c138429	0.009003677
215	0x3e0f8a8e	0.14017698
216	0xbd62ba10	-0.055353224
217	0x3e328ab1	0.17435719
218	0xbebb43db	-0.36575207
219	0x3eb0bea9	0.34520462
220	0x3e22a156	0.15881857
221	0x3eb9b4c9	0.3627074
222	0x3badad7b	0.0053002215
223	0x3e7342f8	0.23756015

col_embedding.1.bias f4 [32]
0	0xbe871a20	-0.2638712
1	0xbe308887	-0.17239581
2	0xbd9f52c5	-0.07779459
3	0xbe929e2e	-0.28636307
4	0xbe99a557	-0.30008957
5	0x3e8adf9e	0.2712373
6	0xbe490a62	-0.19632867
7	0xbe24a9b6	-0.16080365
8	0xbd2574a8	-0.040394455
9	0xbd149bc9	-0.03628138
10	0x3dc74e6b	0.09731754
11	0x3e8a6ab8	0.27034545
12	0x3d6b17a9	0.05739561
13	0xbe2c8815	-0.16848786
14	0x3e022160	0.12708044
15	0xbec07ffa	-0.37597638
16	0x3eb4ff3c	0.35350978
17	0x3ba3f42a	0.005003472
18	0xbe53df17	-0.20690571
19	0xbd23b134	-0.039963916
20	0xbcc666e4	-0.024218984
21	0xbea934a7	-0.33047983
22	0x3e8e9976	0.27851456
23	0x3d9ee159	0.077578254
24	0xbeb50725	-0.35357013
25	0x3e9c7340	0.3055668
26	0xbe8ecaae	-0.27889007
27	0xbda7f0c6	-0.08200221
28	0x3de8b6a0	0.11362958
29	0x3eb55ac1	0.35420802
30	0xbd4caee6	-0.049971484
31	0x3eabc638	0.33549666

col_embedding.3.weight f4 [32, 32]
0	0x3e0e4bfc	0.13896173
1	0x3e02decf	0.12780307
2	0xbbe81ee9	-0.007083763
3	0xbe0d624f	-0.13807033
4	0x3d9ebe46	0.077511355
5	0xbd022eb1	-0.03178281
6	0xbe2b2495	-0.16713174
7	0x3e0b9c74	0.13633901
8	0x3e0be993	0.1366332
9	0x3e1c085f	0.15237568
10	0x3dc201cb	0.09472998
11	0x3de3eec6	0.11129527
12	0xbe136752	-0.14394882
13	0xbc001511	-0.007817523
14	0x3d693ac0	0.056940794
15	0x3d9473c3	0.07248642
16	0xbd608eeb	-0.054823797
17	0xbd0ae5bb	-0.033910494
18	0xbe05fa16	-0.13083681
19	0xbe20e425	-0.1571203
20	0x3c237f93	0.0099791465
21	0x3e30718e	0.17230818
22	0xbdf45884	-0.119309455
23	0x3e2b26c1	0.16714002
24	0xbe230fdb	-0.15924017
25	0xbdf0d780	-0.11759853
26	0xbe0ca632	-0.13735273
27	0xbe0145b3	-0.12624244
28	0x3e153472	0.14570788
29	0x3b0b896c	0.0021291627
30	0xbd38dc08	-0.045131713
31	0x3e2ed105	0.17071922
32	0x3db4105d	0.087921835
33	0xbe0ced8f	-0.13762496
34	0x3e1b89fd	0.15189357
35	0xbdb3d985	-0.08781723
36	0x3dc295c1	0.095012195
37	0x3d4f25ba	0.05057309
38	0x3d6b86b2	0.057501502
39	0xbd460fc0	-0.048354864
40	0x3e27908e	0.16363737
41	0xbb6cccc1	-0.0036132785
42	0x3dd9702e	0.106171
43	0x3df78d4c	0.12087497
44	0xbe1cc28e	-0.15308592
45	0xbcf8480f	-0.030307798
46	0xbdcf9e8b	-0.101376615
47	0xbc90dfc3	-0.017684823
48	0xbe18115f	-0.14850377
49	0xbc8b14e9	-0.016977744
50	0xbdeb9f21	-0.11504961
51	0xbd89697f	-0.06709575
52	0x3dc7347f	0.0972681
53	0xbc70d734	-0.014699746
54	0x3e288b6f	0.1645944
55	0x3d784e06	0.060621284
56	0x3d6aa83c	0.057289347
57	0x3d3f0acb	0.046641152
58	0xbe33cf7f	-0.17559622
59	0x3e2eb610	0.17061639
60	0xbbd13acf	-0.0063851844
61	0xbe2eec01	-0.17082216
62	0xbbb30228	-0.0054629035
63	0xbdb4219c	-0.08795473
64	0xbd73f806	-0.059562705
65	0xbd37dd3a	-0.044888712
66	0xbcbed0ea	-0.023292977
67	0xbdd88b51	-0.105734475
68	0xbdd2d9be	-0.10295437
69	0x3d7e7510	0.06212336
70	0x3e2034bf	0.15645121
71	0x3e33474c	0.17507666
72	0xbda77f79	-0.0817861
73	0xbe222aef	-0.1583669
74	0xbd101e70	-0.035185277
75	0xbc712af9	-0.014719718
76	0xbe1fa5d9	-0.1559061
77	0xbe06e339	-0.13172616
78	0xbc3917ef	-0.01129721
79	0x3d8e6df6	0.06954567
80	0x3a8d98d7	0.0010802996
81	0xbd57b274	-0.05266042
82	0xbcc97a8c	-0.024594568
83	0x3e2519d1	0.1612313
84	0x3d9938a9	0.0748151
85	0xbdcb7483	-0.09934332
86	0x3dd6b71d	0.10484145
87	0x3df4cf84	0.11953643
88	0xbdc64bfe	-0.09682463
89	0xbd0c28f1	-0.034218732
90	0x3de08992	0.109637395
91	0x3b86ca1e	0.0041134497
92	0x3ce6fe47	0.02819742
93	0xbd247701	-0.040152553
94	0xbd2b6b94	-0.04185064
95	0x3dabb421	0.08383966
96	0x3ddb3c05	0.10704807
97	0xbd35a25e	-0.0443443
98	0xbcb2a190	-0.021805555
99	0x3cd9d1b4	0.026589252
100	0x3da15eb5	0.07879392
101	0xbe2fab95	-0.17155297
102	0xbd90b59e	-0.07065891
103	0x3dd6f184	0.10495284
104	0x3e1ed0ed	0.15509386
105	0xbe2cfa72	-0.16892412
106	0x3d2806a6	0.041021965
107	0xbd3e72c3	-0.046496164
108	0x3d859209	0.065219946
109	0xbc2bbcde	-0.010482041
110	0xbd9d2279	-0.07672591
111	0xbe153202	-0.14569858
112	0xbd4ec17a	-0.050477482
113	0x3d17a601	0.037023548
114	0xbd4c94e2	-0.049946673
115	0x3c03d789	0.008046993
116	0x3d7cb95d	0.061700214
117	0x3debd68e	0.115155324
118	0x3df6a6a3	0.12043502
119	0x3d830ded	0.063991405
120	0x3de77c3e	0.11302994
121	0xbe1b3d0e	-0.1516001
122	0x3df58db3	0.119899176
123	0xbcc2625c	-0.023728542
124	0x3df69488	0.12040049
125	0x3e0be2ee	0.13660786
126	0x3e10931f	0.14118622
127	0x3d87bf14	0.06628242
128	0x3dd8fb0c	0.105947584
129	0x3d76bc75	0.06023832
130	0x3d021851	0.03176147
131	0xbdb654d6	-0.089029
132	0x3c1a4b90	0.00941743
133	0x3e113e87	0.14184009
134	0xbd137204	-0.035997406
135	0xbcea0efe	-0.028571602
136	0x3e089a7f	0.13340186
137	0x3dcaded4	0.09905782
138	0xbda769f9	-0.081745096
139	0xbe25e81d	-0.16201825
140	0x3c903e12	0.017607722
141	0xbe099814	-0.1343692
142	0xbe0686a1	-0.13137294
143	0x3e12dff5	0.14343245
144	0x3dd2d406	0.102943465
145	0xbe288b2f	-0.16459344
146	0xbdbc5d1f	-0.09197449
147	0x3dc49dd3	0.09600415
148	0xbe05d732	-0.13070372
149	0x3d9648af	0.07338082
150	0x3cfe68ff	0.031055925
151	0xbdfa63a9	-0.1222604
152	0x3bd789d7	0.006577711
153	0x3d718bb1	0.05897111
154	0x3e2de773	0.16982822
155	0x3dd7a6d4	0.10529867
156	0x3cd1c6b3	0.025607442
157	0xbd8f132c	-0.069860786
158	0xbe23da1c	-0.16001171
159	0x3cbc8643	0.02301324
160	0x3cd81cc9	0.026380913
161	0x3d8d32d3	0.068944596
162	0xbd68247a	-0.05667541
163	0xbe07d461	-0.1326461
164	0x3de59450	0.11209929
165	0x3dbc9fca	0.09210165
166	0xbd5f9728	-0.054587513
167	0x3e077ee4	0.13231999
168	0x3e1b7713	0.15182142
169	0x3dd5ef14	0.10445991
170	0xbdba6e46	-0.09103064
171	0xbdeebb6f	-0.11656844
172	0xbdce742f	-0.10080754
173	0x3e13405d	0.14380021
174	0xbdec435a	-0.11536284
175	0x3d4f121c	0.05055438
176	0xbd3da42f	-0.046299156
177	0xbdd09cba	-0.10186143
178	0x3e0d327a	0.13788787
179	0x3d32e712	0.043677397
180	0xbd9a84f2	-0.075448886
181	0xbd42c6df	-0.04755294
182	0x3e0085a1	0.12550975
183	0xbc9783ae	-0.018495407
184	0x3d4af744	0.049552217
185	0xbe0d4acb	-0.13798063
186	0xbd8ac6e1	-0.067762144
187	0xbd429db5	-0.047513682
188	0x3e15f014	0.14642364
189	0xbe2375e6	-0.15962943
190	0x3db35789	0.087569304
191	0x3c32643f	0.010888158
192	0x3d3fee03	0.046857845
193	0xbd7b5d0f	-0.061368044
194	0x3def0037	0.11669963
195	0xba35dc99	-0.00069374737
196	0xbde691b7	-0.11258262
197	0xbc841a04	-0.016125686
198	0x3da2379f	0.07920765
199	0x3df7f458	0.12107152
200	0x3e3037ea	0.1720883
201	0x3e257480	0.16157722
202	0xbcec6b34	-0.028859712
203	0xbdc1dda4	-0.09466103
204	0x3caca05c	0.021072559
205	0xbe24804c	-0.16064566
206	0x3e001ad0	0.12510228
207	0x3b9e8cb4	0.0048385505
208	0x3e307f96	0.1723617
209	0xbd942c6d	-0.07235036
210	0x3dcce59e	0.100047335
211	0x3e204aeb	0.15653579
212	0xbce0cf19	-0.027442502
213	0x3dcf9bd6	0.10137145
214	0xbdecac9c	-0.1155636
215	0x3e22aabf	0.15885447
216	0x3d2e5692	0.04256303
217	0x3e1128f9	0.14175786
218	0x3cb890da	0.022530008
219	0xbc6ab7ed	-0.014326078
220	0x3d44c604	0.048040405
221	0x3df749f7	0.120746545
222	0x3decf14d	0.11569462
223	0xbdf87a5c	-0.12132713
224	0xbdf80458	-0.121102035
225	0x3daf039f	0.085456125
226	0x3e29ca27	0.16581021
227	0x3e15f5dc	0.14644569
228	0xbdd511a7	-0.104037575
229	0x3cb6d80d	0.022319818
230	0xbc8c052f	-0.017092315
231	0xbe1bec14	-0.15226775
232	0x3e10c362	0.14137033
233	0x3e270a42	0.16312507
234	0x3d34981e	0.044090383
235	0xbde33f6d	-0.11096082
236	0xbc92480c	-0.01785662
237	0x3dfacfd3	0.122466706
238	0xbdcade9b	-0.0990574
239	0xbd415779	-0.04720256
240	0xbdb509b3	-0.088397406
241	0x3c0bf054	0.008541185
242	0xbd9f539b	-0.07779618
243	0xbcee9010	-0.029121429
244	0xbd4d1a91	-0.050074164
245	0x3dd8a8b7	0.10579055
246	0xbdb3b715	-0.087751545
247	0x3d42ec86	0.047588848
248	0x3e0f1029	0.13971008
249	0x3e127607	0.14302836
250	0xbe1cda40	-0.15317631
251	0xbd62db40	-0.055384874
252	0xbdc33528	-0.09531623
253	0xbe0d774d	-0.13815041
254	0x3d65bbdc	0.05608736
255	0x3df5c8b6	0.12001173

col_embedding.3.bias f4 [32]
0	0xbd3cb497	-0.04607066
1	0x3e1b1e00	0.15148163
2	0xbdc806f7	-0.097669534
3	0x3df58542	0.119883075
4	0xbcc12379	-0.023576485
5	0x3e1caa0e	0.15299246
6	0x3dd6247c	0.104561776
7	0x3cf26ca7	0.029592825
8	0x3e12788d	0.14303799
9	0x3e112caf	0.14177202
10	0x3e07a983	0.13248257
11	0x3e080176	0.13281807
12	0xbda4992e	-0.08037029
13	0x3e21aea6	0.1578928
14	0x3d8a75c4	0.06760743
15	0xbca98aef	-0.020696132
16	0xbdbe1cc3	-0.092828296
17	0xbdab8366	-0.08374672
18	0x3dec8bee	0.11550127
19	0x3e13d171	0.14435364
20	0x3dbb2568	0.09137994
21	0x3dc9f897	0.09861868
22	0xbdfcf855	-0.12352053
23	0x3e1b3175	0.15155585
24	0x3e0de932	0.13858488
25	0xbd863328	-0.06552726
26	0x3e0b139c	0.13581699
27	0x3dbc0df8	0.09182352
28	0x3dbcec34	0.0922474
29	0x3cef2aeb	0.02919527
30	0xbdb773dd	-0.08957646
31	0x3d9aca56	0.07558124

conv_col_to_row.feature_module_left.0.weight f4 [32, 32]
0	0x3cc9f45b	0.02465265
1	0xbe1b2216	-0.15149722
2	0xbb765c38	-0.0037591588
3	0x3d1c1671	0.03810734
4	0xbd0390eb	-0.032120626
5	0xbdef7908	-0.11693007
6	0x3c60af33	0.013713646
7	0xbd72fa61	-0.05932081
8	0x3e1dcd4e	0.15410349
9	0x3bfd283b	0.007725743
10	0xbcbeaa86	-0.023274671
11	0x3e076516	0.13222155
12	0x3adc80c6	0.0016823045
13	0xbd583d91	-0.05279309
14	0xbca07336	-0.019586187
15	0xbc13aa19	-0.009012722
16	0xbc2da555	-0.0105985
17	0xbe106fb2	-0.14105108
18	0x3e06eea5	0.13176973
19	0x3cd8d9ce	0.026471045
20	0xbdb7486f	-0.089493625
21	0xbddb2644	-0.10700658
22	0x3d9be7c9	0.07612569
23	0x3da20de9	0.079128094
24	0x3dc7f408	0.09763342
25	0xbdd83fd8	-0.10559052
26	0xbe24a31b	-0.16077845
27	0xbe089630	-0.13338542
28	0x3e023c43	0.127183
29	0xbd43396c	-0.047662184
30	0xbd58e21f	-0.05295002
31	0xbdcb6280	-0.09930897
32	0x3e0671b0	0.13129306
33	0x3d932315	0.07184426
34	0x3dd8e39f	0.1059029
35	0xbdc6e733	-0.097120665
36	0xbcfcc4b5	-0.030855516
37	0x3e23c9d1	0.15994956
38	0xbca4e74b	-0.02012982
39	0xbe2edcbf	-0.17076395
40	0xbdb14a67	-0.08656769
41	0x3b89b1af	0.0042020897
42	0x3df49506	0.119424865
43	0x3cfd9e42	0.030959252
44	0x3d215680	0.039389133
45	0xbdf76637	-0.12080043
46	0x3cf33269	0.029687123
47	0x3c72bc3a	0.0148153845
48	0x3e0185eb	0.12648742
49	0xbe0768fc	-0.13223642
50	0x3cf64773	0.030063367
51	0xbdd08c6f	-0.101830356
52	0xbd2b1ae7	-0.041773703
53	0x3dbd6934	0.092485815
54	0xbe3150b3	-0.1731594
55	0x3dddb6ab	0.10825857
56	0xbe22a078	-0.15881526
57	0x3d146304	0.03622724
58	0x3da44ae0	0.08022094
59	0x3dd3c12f	0.10339581
60	0xbdc06b0d	-0.09395418
61	0xbde35ab1	-0.111012824
62	0x3dc51f10	0.09625065
63	0xbc7776d7	-0.015104017
64	0x3dea6b30	0.11446226
65	0xbddd1e16	-0.10796754
66	0x3ce282ba	0.027650226
67	0x3d8f3a04	0.069934875
68	0x3cc5d842	0.024150971
69	0x3e0310d7	0.12799393
70	0xbe02a179	-0.1275691
71	0x3e2ddb67	0.16978227
72	0xbde8886f	-0.11354148
73	0xbddcceb4	-0.10781613
74	0x3e057b85	0.130354
75	0x3cae15e6	0.021250676
76	0xbe2d181e	-0.16903731
77	0xbe287832	-0.16452101
78	0xbda33987	-0.07969957
79	0x3e2a5a1d	0.16635938
80	0x3d2751d2	0.040849514
81	0xbe079c31	-0.13243176
82	0x3e2cb37e	0.16865346
83	0x3d930230	0.071781516
84	0xbd8c5887	-0.06852823
85	0xbcd8d4c5	-0.026468644
86	0xbd3c5f86	-0.045989536
87	0x3e342888	0.17593586
88	0x3bbbf835	0.0057363757
89	0x3d592d69	0.053021822
90	0xbe0fd59b	-0.14046328
91	0x3caed4f4	0.021341778
92	0xbd857d35	-0.06518022
93	0x3d8ddb1e	0.06926559
94	0x3cd4c6f0	0.025973767
95	0xbc2f51f8	-0.010700695
96	0xbd4b1710	-0.04958254
97	0xbd79a01f	-0.06094372
98	0x3c60d66f	0.013723
99	0x3c32d121	0.010914118
100	0xbc5f538b	-0.013630758
101	0x3d51a94b	0.05118684
102	0xbc76077d	-0.015016434
103	0xbd893f32	-0.06701507
104	0x3e1280d4	0.14306957
105	0xbdc4cc19	-0.09609241
106	0xbdfa4492	-0.1222011
107	0x3e1b73c8	0.15180886
108	0x3ce122d0	0.02748242
109	0xbcfc7f92	-0.030822549
110	0xbdc21203	-0.09476092
111	0xbd057cf5	-0.03258987
112	0xbe07cd72	-0.13261965
113	0x3d1b683c	0.037941203
114	0x3c9e6930	0.019337267
115	0x3da0377f	0.07823085
116	0xbce1015c	-0.027466469
117	0xbe29ee77	-0.16594873
118	0x3e0e69c5	0.13907535
119	0xbe25169a	-0.16121903
120	0xbde977fb	-0.113998376
121	0xbba6ea85	-0.005093875
122	0xbdced940	-0.10100031
123	0xbdc2ec7f	-0.09517764
124	0x3dfcfc9c	0.12352869
125	0xbe2d4083	-0.1691914
126	0xbcb35935	-0.021893123
127	0x3db92f0c	0.090421766
128	0xbe18e860	-0.14932394
129	0x3da07906	0.078355834
130	0x3e25d71a	0.16195336
131	0x3b894c49	0.004190002
132	0x3dc272fc	0.09494588
133	0xbde537a4	-0.11192253
134	0x3e09e094	0.13464576
135	0xbe1e9c00	-0.15489197
136	0x3d866c65	0.06563643
137	0x3dce4acb	0.100728594
138	0xbda88d8d	-0.08230124
139	0xbdd12fd5	-0.10214201
140	0x3d259ad5	0.040430862
141	0x3e2918e2	0.16513398
142	0xbd9e5cab	-0.07732519
143	0x3e05a39a	0.1305069
144	0xbda581eb	-0.080814205
145	0xbc094cf0	-0.00838016
146	0x3e05bb95	0.13059838
147	0xbe123036	-0.14276204
148	0xbe2edfde	-0.17077586
149	0xbcf2867d	-0.029605145
150	0x3d146c52	0.036236115
151	0x3cbd2c61	0.02309245
152	0xbe3322fb	-0.17493813
153	0xbda3d67a	-0.079998925
154	0x3d2941d0	0.04132253
155	0xbcec303c	-0.028831594
156	0xbe1bb971	-0.15207459
157	0x3d69c113	0.057068896
158	0x3d3f3905	0.046685237
159	0xbdc5545a	-0.096352294
160	0x3bed9390	0.007250257
161	0xbe0ca426	-0.13734493
162	0x3e233aa2	0.15940335
163	0x3da9be63	0.082882665
164	0x3c5ebbab	0.013594548
165	0x3da79877	0.08183377
166	0x3d656908	0.05600837
167	0x3df48ddd	0.11941121
168	0xbe0f0f44	-0.13970667
169	0xbd0886ff	-0.033331867
170	0x3d8d595a	0.06901808
171	0xbe174309	-0.14771666
172	0xbd117694	-0.035513476
173	0xbd79034a	-0.060794152
174	0x3cbac2ac	0.022797905
175	0xbe00955d	-0.12556978
176	0x3e2b46ef	0.16726278
177	0xbe02e7a2	-0.12783673
178	0xbd8ac05b	-0.0677497
179	0xbdc9fb5c	-0.09862396
180	0x3dffa74c	0.12483081
181	0x3df6031a	0.1201231
182	0x3d6dded5	0.058073837
183	0x3df92d8d	0.12166891
184	0x3e233fd9	0.15942325
185	0xbbe1f755	-0.0068959394
186	0xbdca11ea	-0.09866698
187	0x3e111bb3	0.14170723
188	0x3d8351be	0.064120755
189	0xbe0786b2	-0.13234976
190	0x3b4eb91f	0.0031543446
191	0x3e30f1be	0.17279717
192	0xbd53e3a8	-0.05173078
193	0xbe1e8472	-0.15480211
194	0x3e25ef19	0.1620449
195	0x3cc4ea96	0.02403764
196	0x3d8ca06a	0.06866534
197	0xbe276c7a	-0.16349974
198	0x3e13cf1c	0.14434475
199	0xbdef5d1f	-0.11687683
200	0x3cc62c6a	0.0241911
201	0x3daaa5d6	0.08332412
202	0x3c44875a	0.011995161
203	0xbe30821b	-0.17237131
204	0x3ceb8fec	0.02875515
205	0xbda66110	-0.08123982
206	0x3d2bad8b	0.04191355
207	0x3d9e3ba6	0.07726221
208	0x3cc1b5f5	0.023646334
209	0xbcd88180	-0.026428938
210	0xbd5d8f4b	-0.054091733
211	0x3df0c7f9	0.11756892
212	0xbd8abc0e	-0.0677415
213	0x3d6006f0	0.054694116
214	0xbdda4726	-0.10658102
215	0xbd92af6b	-0.071623646
216	0x3cca5ba2	0.024701897
217	0xbe0f007a	-0.13965026
218	0x3d4ab25f	0.049486514
219	0xbd52eccd	-0.051495362
220	0x3e28837e	0.1645641
221	0x3bcff10c	0.0063458737
222	0xbe181bbf	-0.14854334
223	0x3dfd46ee	0.123670444
224	0xbe007e10	-0.12548089
225	0x3c226901	0.00991273
226	0xbc018b47	-0.007906741
227	0xbe008246	-0.12549695
228	0x3e13652a	0.1439406
229	0xbdce5a75	-0.10075847
230	0x3cd50bd9	0.026006626
231	0x3e12b066	0.14325103
232	0x3e08107d	0.1328754
233	0xbe1f511e	-0.15558288
234	0x3e14b47b	0.14521973
235	0xbd9b86a4	-0.0759404
236	0xbb589e90	-0.0033053495
237	0xbdc7882a	-0.09742768
238	0x3c63624b	0.013878415
239	0x3dcc1003	0.099639915
240	0xbe065c2b	-0.13121097
241	0xbb080f26	-0.0020760982
242	0x3e3362e0	0.17518187
243	0x3de32569	0.1109112
244	0xbd3f076d	-0.04663794
245	0xbe157053	-0.1459363
246	0xb9c87e1d	-0.00038240934
247	0xbd84040f	-0.064460866
248	0x3dc0aa0a	0.094074324
249	0x3ded577c	0.11588952
250	0xbdecf2a4	-0.115697175
251	0xba5ee67b	-0.0008502972
252	0x3e000602	0.12502292
253	0x3d9ea18c	0.07745656
254	0xbe139f2f	-0.14416192
255	0xbe16b3aa	-0.14716974

conv_col_to_row.feature_module_left.0.bias f4 [32]
0	0x3ddd602b	0.10809358
1	0x3e047a5f	0.12937306
2	0xbddea2a3	-0.10870864
3	0x3d891951	0.06694282
4	0xbc9ed7cf	-0.019390015
5	0x3de6f0f5	0.11276428
6	0xbdb4084e	-0.087906465
7	0x3e32b5f5	0.17452224
8	0xbd722f29	-0.059127007
9	0xbe15746c	-0.14595193
10	0xbddd1378	-0.10794729
11	0xbe1b28cf	-0.15152286
12	0x3d16c1d7	0.036805954
13	0x3d910f2d	0.07082973
14	0xbe276508	-0.16347134
15	0xbe1ab992	-0.15109852
16	0x3db2b245	0.087254085
17	0x3e055b9a	0.13023224
18	0x3cd26341	0.025682094
19	0x3d151039	0.036392424
20	0x3d36c5db	0.044622283
21	0x3db099f5	0.08623115
22	0x3e25a11e	0.16174743
23	0xbdb37467	-0.08762436
24	0x3db58515	0.08863274
25	0xbd562bcd	-0.052287865
26	0x3dfe1b23	0.1240752
27	0xbe2e1c22	-0.1700292
28	0xbdcfc34f	-0.10144674
29	0xbd887443	-0.066628
30	0xbd676e0b	-0.05650143
31	0xbe2b751e	-0.16743895

conv_col_to_row.feature_module_edge.0.weight f4 [32, 1]
0	0x3f0be6c7	0.54649013
1	0x3f1c3ec0	0.6103325
2	0x3dc22e18	0.09481448
3	0x3eabc270	0.33546782
4	0x3db0bd19	0.086298175
5	0x3ee90949	0.45514897
6	0xbf3b94c0	-0.7327385
7	0xbea8bce2	-0.32956606
8	0xbf021685	-0.5081561
9	0x3e53f0a4	0.20697266
10	0xbf695cd5	-0.91157275
11	0xbf56c3c1	-0.83892447
12	0xbf53d453	-0.82745856
13	0x3e08a4bf	0.13344096
14	0xbf080cd2	-0.5314456
15	0x3db79800	0.089645386
16	0xbd81c915	-0.063371815
17	0xbe1491d9	-0.14508761
18	0x3f316434	0.6929352
19	0x3f279b80	0.6547165
20	0xbf3b7cbf	-0.7323722
21	0x3c1c538e	0.009541405
22	0xbf50ec7a	-0.81610835
23	0xbf300872	-0.68762887
24	0x3f2e5f4c	0.6811416
25	0x3ed14214	0.40870726
26	0xbf29eea9	-0.6637979
27	0x3f2736d9	0.65318066
28	0xbe1cf5d2	-0.15328148
29	0x3e1815d8	0.14852083
30	0xbe870bfb	-0.26376328
31	0x3f6c1275	0.92215663

conv_col_to_row.feature_module_right.0.weight f4 [32, 32]
0	0xbd76345d	-0.06010853
1	0x3da52db2	0.08065356
2	0xbdca653c	-0.0988259
3	0x3df4d725	0.11955098
4	0xbdabd414	-0.0839006
5	0xbdecdd44	-0.115656406
6	0xbc6a349f	-0.014294772
7	0x3cf80c44	0.030279286
8	0x3b8c852e	0.004288337
9	0xbddab726	-0.10679464
10	0xbdbb4014	-0.09143081
11	0x3d7f802e	0.0623781
12	0xbdd4dbee	-0.10393511
13	0x3aaac878	0.0013029715
14	0x3d9b961a	0.07596989
15	0x3c73d5d5	0.0148825245
16	0x3e32d5cc	0.1746437
17	0x3e28b94f	0.1647694
18	0x3cbcccfc	0.023046963
19	0x3e096496	0.13417277
20	0xbe2a1598	-0.166098
21	0x3d20db14	0.03927143
22	0x3e3167e4	0.17324787
23	0xbd6d6443	-0.057956945
24	0x3d8f6cdd	0.07003186
25	0x3d21fb0a	0.03954605
26	0x3e0dea07	0.13858806
27	0xbdcf218a	-0.10113819
28	0xbdebe660	-0.1151855
29	0x3bd33b52	0.0064462805
30	0xbdea5cfd	-0.11443517
31	0x3e1968f3	0.14981441
32	0x3e2044d7	0.1565126
33	0x3dbea639	0.09309048
34	0xbc8f6f39	-0.01750909
35	0x3e354811	0.17703272
36	0xbe1d5943	-0.15366082
37	0x3e341a78	0.17588222
38	0xbd9d105e	-0.076691374
39	0x3e17ee52	0.14837006
40	0xbddc23c1	-0.10749007
41	0xbdc1a71d	-0.094557025
42	0xbdd95a56	-0.10612933
43	0x3db88d51	0.09011329
44	0x3d0f4fe5	0.034988303
45	0x3dd27fa9	0.102782555
46	0x3bb830d8	0.005621057
47	0xbd6b783e	-0.05748772
48	0x3e0dcf78	0.13848674
49	0xbe0f5f89	-0.14001288
50	0x3d9baa05	0.07600788
51	0xbe1aaa62	-0.15104058
52	0x3e29b0d2	0.16571358
53	0x3c4b40ea	0.012405613
54	0xbd7130f5	-0.05888458
55	0x3e0d7bfe	0.1381683
56	0xbe1832b0	-0.14863086
57	0xbdc9b2f5	-0.098485865
58	0xbe10da94	-0.14145881
59	0xbd662097	-0.056183424
60	0xbd996adb	-0.07491084
61	0x3dc6e600	0.09711838
62	0xbe1771f1	-0.14789559
63	0x3ba4b096	0.0050259335
64	0x3e0e6a9f	0.1390786
65	0xbd1b6998	-0.0379425
66	0xbd74b93b	-0.059746962
67	0xbda1b236	-0.07895319
68	0x3db7e9b8	0.08980125
69	0x3de95d5d	0.11394761
70	0xbe07bb45	-0.13255031
71	0xbcc6a9b6	-0.024250846
72	0xbe1a13c1	-0.15046598
73	0xbd593cb9	-0.053036425
74	0x3cac5ffa	0.021041859
75	0x3ccc8cf7	0.024969561
76	0x3e026959	0.127355
77	0x3df5f78d	0.12010107
78	0x3d53bb97	0.05169257
79	0xbe255393	-0.16145162
80	0xbd3c4ab2	-0.045969673
81	0x3e348a59	0.176309
82	0xbd653b01	-0.055964474
83	0x3d36c631	0.044622604
84	0x3ce19c94	0.027540483
85	0x3dc93740	0.09824991
86	0xbdb84056	-0.08996646
87	0xbdcb5edb	-0.099302016
88	0xbd376d65	-0.04478206
89	0x3dee2204	0.11627582
90	0xbe2500c3	-0.16113572
91	0xbcd79a0f	-0.026318578
92	0x3dd4bf10	0.10388005
93	0x3e0d30c7	0.13788138
94	0x3d13665c	0.03598629
95	0xbdb18d15	-0.086694874
96	0x3d278bd9	0.040904853
97	0xbe078022	-0.13232473
98	0xbe2f81ff	-0.17139433
99	0x3e0a64b4	0.13514978
100	0xbe334783	-0.17507748
101	0xbe05a225	-0.13050134
102	0x3e29279c	0.16519016
103	0x3d832042	0.06402637
104	0xbdd96f64	-0.10616949
105	0xbe016c72	-0.12639025
106	0xbe199e53	-0.15001802
107	0xbd01e7e5	-0.031715292
108	0xbdda08e0	-0.10646224
109	0x3daa2b22	0.08309008
110	0xbdf8b84e	-0.12144528
111	0xbd8b0e42	-0.06789829
112	0xbd545300	-0.051836967
113	0x3d6331ce	0.05546742
114	0xbc93ad38	-0.018026933
115	0xbd0108f2	-0.03150267
116	0xbda144e7	-0.0787447
117	0xbe2cf866	-0.16891631
118	0x3e2ebdea	0.17064634
119	0x3e13339e	0.14375159
120	0x3d7e418f	0.06207424
121	0xbc42b203	-0.011883262
122	0x3e032a76	0.12809166
123	0xbd3d6e2a	-0.04624764
124	0x3bd0543d	0.0063576982
125	0x3de1ef66	0.1103199
126	0xbdddd20d	-0.1083108
127	0x3dea70db	0.11447307
128	0xbdad8e50	-0.084744096
129	0xbe08daa0	-0.13364649
130	0x3e308ea9	0.1724192
131	0xbd930f9a	-0.0718071
132	0xbd957f7f	-0.072997086
133	0xbd6c955b	-0.057759624
134	0x3cff8b30	0.0311943
135	0xbc802508	-0.015642658
136	0xbe184c57	-0.14872871
137	0xbe25c16d	-0.16187067
138	0x3dd8695d	0.105669715
139	0x3d98f7f6	0.0746917
140	0x3e0a3f4b	0.13500707
141	0xbe26cc40	-0.16288853
142	0x3c9a5348	0.01883854
143	0x3e1136f1	0.14181115
144	0xbda311a6	-0.079623505
145	0x3c09406d	0.008377177
146	0x3b119ba0	0.0022218004
147	0x3e214eee	0.15752766
148	0xbe0ce8c1	-0.13760664
149	0xbd09de2c	-0.033659145
150	0x3d84493c	0.06459281
151	0x3ba42c24	0.005010145
152	0x3d1d4c9f	0.03840315
153	0xbddf8f55	-0.1091601
154	0xbe17513a	-0.14777079
155	0x3e20f919	0.15720023
156	0x3c59b693	0.013288158
157	0xbd937ae9	-0.072011776
158	0xbb6d4a75	-0.003620771
159	0x3d4d8631	0.050176803
160	0x3da3e121	0.08001924
161	0x3e1d70f8	0.15375125
162	0xbe2b1f4e	-0.1671116
163	0xbe0fc28a	-0.14039055
164	0x3d7ab169	0.061204348
165	0xbdbdd634	-0.09269372
166	0x3d5b4a28	0.053537518
167	0x3e2ff636	0.17183766
168	0xbd8f6519	-0.07001705
169	0x3e1eaaee	0.15494892
170	0x3d890fab	0.066924416
171	0x3dcf433b	0.10120245
172	0x3e296fc9	0.16546549
173	0x3e32a438	0.17445457
174	0x3de2a31c	0.11066267
175	0x3dbc1abe	0.09184788
176	0x3d838fdd	0.06423924
177	0x3e134c36	0.14384541
178	0x3e2cd49b	0.16877978
179	0xbe161b42	-0.14658836
180	0x3e01663b	0.12636654
181	0x3de09402	0.1096573
182	0x3dbcb0cb	0.09213408
183	0x3dabdb82	0.08391477
184	0xbdb59d70	-0.088679194
185	0x3db9f711	0.09080327
186	0x3de4cc1c	0.11171743
187	0x3d396c12	0.04526908
188	0x3d1b1ac1	0.03786731
189	0xbdfc031a	-0.12305279
190	0xbe20dc2b	-0.15708987
191	0xbd70249b	-0.05862866
192	0x3e1cc857	0.15310799
193	0x3bdfc3e4	0.006828772
194	0x3d67ebde	0.056621425
195	0x3d7bd21d	0.061479677
196	0xbb0acec2	-0.0021180366
197	0xbb2eb29f	-0.002665676
198	0xbc7e3c38	-0.015517287
199	0xbde971a4	-0.11398628
200	0x3dab5367	0.08365517
201	0xbdc58256	-0.09644
202	0x3d540a7e	0.05176782
203	0xbd9e4d65	-0.077296056
204	0xbd541c14	-0.05178459
205	0x3959bcc6	0.00020765056
206	0xbda383e6	-0.07984142
207	0xbdeaedf1	-0.11471165
208	0xbe09a9e2	-0.13443711
209	0x3d6eb9e3	0.058282744
210	0xbe00fb16	-0.12595782
211	0xbe2d559c	-0.16927189
212	0xbdd87803	-0.105697654
213	0x3be7e14c	0.007076418
214	0x3c0a29e7	0.008432842
215	0x3c010bac	0.007876318
216	0x3d4a8175	0.049439866
217	0xbdaad55c	-0.08341476
218	0x3dc850b8	0.09781021
219	0x3c1d5bc7	0.009604401
220	0x3e0bbfaa	0.13647333
221	0x3ce5a7f9	0.028034197
222	0x3d781efd	0.060576428
223	0xbe008ff4	-0.12554914
224	0x3e0cd83d	0.13754363
225	0xbca54562	-0.020174686
226	0xbd97396b	-0.073839985
227	0x3e16fdc6	0.14745244
228	0xbd59c9e0	-0.05317104
229	0x3de21610	0.11039364
230	0x3c18cc9f	0.009326129
231	0x3b5ae3ac	0.0033399863
232	0x3e19100c	0.14947528
233	0xbdcb180d	-0.09916697
234	0x3ce0e172	0.02745125
235	0xbda175a9	-0.0788377
236	0x3ddff95a	0.10936232
237	0x3d083fbf	0.033263918
238	0x3dc25344	0.09488538
239	0x3ddaef96	0.10690229
240	0xbd683ba1	-0.05669749
241	0xbdd06696	-0.10175817
242	0xbd3b239f	-0.045688268
243	0x3cad32eb	0.021142444
244	0xbdcba441	-0.09943438
245	0x3dd9fc2d	0.10643802
246	0xbdc20531	-0.094736464
247	0x3daf3c24	0.08556393
248	0xbe191d90	-0.14952683
249	0xbdb553bd	-0.088538624
250	0x3cd99fa2	0.026565377
251	0xbe330a10	-0.17484307
252	0x3e174180	0.1477108
253	0x3e1c5b80	0.1526928
254	0x3da1a86b	0.07893451
255	0xbcd6ede2	-0.026236478

conv_col_to_row.feature_module_final.0.weight f4 [32]
0	0x3f7fcd5f	0.99922746
1	0x3f7ffff1	0.9999991
2	0x3f800000	1.0
3	0x3f8009c8	1.0002985
4	0x3f800000	1.0
5	0x3f800740	1.0002213
6	0x3f800c49	1.0003749
7	0x3f7feb17	0.99968094
8	0x3f7fe25e	0.99954784
9	0x3f802606	1.0011604
10	0x3f7feb7c	0.99968696
11	0x3f7fe962	0.9996549
12	0x3f800cff	1.0003966
13	0x3f7fd8f0	0.99940395
14	0x3f80056d	1.0001656
15	0x3f7fdb8a	0.99944365
16	0x3f7fefb7	0.9997515
17	0x3f7fff4b	0.9999892
18	0x3f8000a6	1.0000198
19	0x3f80072e	1.0002191
20	0x3f8005fb	1.0001825
21	0x3f80053a	1.0001595
22	0x3f800323	1.0000957
23	0x3f7ff3d3	0.9998142
24	0x3f800c72	1.0003798
25	0x3f801132	1.0005248
26	0x3f801899	1.0007507
27	0x3f800000	1.0
28	0x3f800000	1.0
29	0x3f7fec25	0.999697
30	0x3f800000	1.0
31	0x3f800000	1.0

conv_col_to_row.feature_module_final.0.bias f4 [32]
0	0xba118652	-0.00055513263
1	0x391c3fa1	0.00014901023
2	0x00000000	0.0
3	0x39a1d6a6	0.00030868239
4	0x00000000	0.0
5	0x397cd092	0.00024110291
6	0xb79af5fa	-1.8472772e-05
7	0xb98e6919	-0.00027162654
8	0xb9cb1514	-0.00038734882
9	0x3a8a1031	0.001053339
10	0xb98e4064	-0.00027132325
11	0xb9aab291	-0.0003255797
12	0x39cac04b	0.00038671712
13	0xba2b81e8	-0.000654249
14	0x396c9500	0.0002256222
15	0xb98669ce	-0.00025637302
16	0xb9f15cc1	-0.0004603621
17	0x377b472a	1.4977335e-05
18	0x38ebde25	0.00011247051
19	0x39fb7c2f	0.00047966975
20	0x38dc3c1e	0.00010501615
21	0x38c506c4	9.394952e-05
22	0x39818935	0.00024707025
23	0xb95877d6	-0.00020644008
24	0x3a55a782	0.0008150266
25	0x39f70d5a	0.0004712146
26	0x3a3f83bb	0.0007305701
27	0x00000000	0.0
28	0x00000000	0.0
29	0xb9b0ca3e	-0.00033720018
30	0x00000000	0.0
31	0x00000000	0.0
