GNN_method/ResultsGCNN/actor_28.pt (torch, 83520 bytes, 43 tensors)

row_embedding.0.weight f4 [7]
0	0x3f8030b9	1.0014869
1	0x3f8014b6	1.000632
2	0x3f7fe91b	0.99965066
3	0x3f8024d6	1.0011241
4	0x3f7fe8d8	0.99964666
5	0x3f8016a4	1.0006909
6	0x3f80024b	1.00007

row_embedding.0.bias f4 [7]
0	0xbab062db	-0.0013457196
1	0xba5b1936	-0.0008357944
2	0xb9bc0617	-0.00035862692
3	0xba8f3a54	-0.0010927417
4	0x39f6fde9	0.00047109954
5	0xba454bcd	-0.0007526249
6	0x39836687	0.00025062656

row_embedding.1.weight f4 [32, 7]
0	0x3d5b7293	0.053576063
1	0x3d5f0b22	0.054453976
2	0x3e0d2b17	0.13785969
3	0xbeb7164d	-0.35759202
4	0xbe3bcae3	-0.18339114
5	0x3e762ea5	0.24041231
6	0xbdaf52d7	-0.08560722
7	0xbe8b0f56	-0.27160138
8	0xbd820c0b	-0.06349953
9	0xbd220680	-0.03955698
10	0xbddaf45b	-0.10691138
11	0x3e471487	0.19441424
12	0x3a89425e	0.001047205
13	0xbdb00096	-0.08593862
14	0xbe0114d0	-0.12605596
15	0xbe95d4e5	-0.29263988
16	0xbe91335e	-0.28359503
17	0x3e85debc	0.26146495
18	0x3ea26407	0.3171694
19	0x3ca03245	0.01955522
20	0xbe4ee828	-0.20205748
21	0xbe578712	-0.21047619
22	0x3e04823c	0.12940305
23	0x3ea28b17	0.31746742
24	0xbeb62a6c	-0.3557924
25	0x3ce92e65	0.028464505
26	0x3bdb4c58	0.0066924505
27	0x3e48dc0e	0.19615194
28	0xbe0ecc10	-0.13945031
29	0xbd05f814	-0.03270729
30	0xbe9d4dca	-0.3072341
31	0x3e563370	0.2091806
32	0xbe4fa1c2	-0.2027655
33	0xbe4e9d80	-0.20177269
34	0xbe488945	-0.19583614
35	0xbdda4ac6	-0.10658793
36	0x3d59a98e	0.053140216
37	0xbc4e0fbc	-0.012576994
38	0xbeb4edc6	-0.35337657
39	0x3dca6dfd	0.0988426
40	0xbe4fb25f	-0.20282887
41	0x3ea0fcb4	0.31442797
42	0xbe895a48	-0.26826692
43	0xbeac150c	-0.33609807
44	0x3e8b2dbe	0.27183336
45	0xbe65cac8	-0.22440636
46	0xbea03710	-0.3129201
47	0xbd682a70	-0.056681097
48	0x3c9e7690	0.019343644
49	0xbe799e00	-0.24376678
50	0x3e8a9c67	0.2707245
51	0x3e6a25d0	0.22865987
52	0x3e859083	0.26086816
53	0x3e5938c6	0.21213064
54	0x3d0441cb	0.032289308
55	0x3d0df467	0.03465691
56	0xbe0c5bc3	-0.1370688
57	0xbd9c572d	-0.07633815
58	0x3cc5448e	0.024080541
59	0x3c6137ee	0.013746245
60	0xbe0ce610	-0.13759637
61	0xbe53ee6f	-0.20696424
62	0x3e8e335b	0.27773556
63	0x3d47c63d	0.04877304
64	0xbeaf1dd1	-0.34202436
65	0xbe4cd167	-0.20001756
66	0x3eba3a8a	0.36372787
67	0xbe41a7c3	-0.18911652
68	0x3e835dc6	0.2565748
69	0xbeb3001a	-0.34961015
70	0xbe88ef71	-0.2674518
71	0x3eacd501	0.3375626
72	0xbdc3180a	-0.095260695
73	0xbbc9be0c	-0.0061566886
74	0xbd2165bd	-0.039403666
75	0xbe80b118	-0.25135112
76	0x3e811aa7	0.25215647
77	0xbe3a2a80	-0.18180275
78	0x3c4f9c7e	0.012671588
79	0xbeb663f6	-0.3562314
80	0xbd99bdbc	-0.07506892
81	0xbc7991f4	-0.015232552
82	0x3e845089	0.25842693
83	0x3e0b2c86	0.13591203
84	0x3e93cf63	0.2886916
85	0xbd94d0f2	-0.07266416
86	0xbe9e58cd	-0.30927125
87	0xbdda0659	-0.10645742
88	0xbd8c5cfb	-0.06853672
89	0x3ea26021	0.31713966
90	0xbe69a986	-0.22818574
91	0x3e7f6dc0	0.2494421
92	0x3e5aa80d	0.21353169
93	0xbe6040a7	-0.21899663
94	0xbe7ba3e1	-0.24574234
95	0xbe1dfb15	-0.15427811
96	0xbe17bcce	-0.14818117
97	0xbe8a4744	-0.27007496
98	0xbeb95cd8	-0.36203647
99	0x3db6e6a0	0.08930707
100	0x3dcbbe5d	0.09948418
101	0xbe8f61fa	-0.28004438
102	0x3e8bd784	0.27312863
103	0xbe12c28e	-0.14332029
104	0xbdec5514	-0.11539665
105	0x3d896599	0.06708831
106	0x3e91e6a9	0.28496292
107	0xbea82b9d	-0.32845774
108	0xbd90652a	-0.070505455
109	0x3df43df0	0.11925876
110	0xbe9dd22e	-0.30824417
111	0x3e97cc3d	0.2964801
112	0x3e174687	0.14772998
113	0x3ea78226	0.32716483
114	0xbce4dbc2	-0.02793682
115	0x3e324b20	0.1741147
116	0xbe81baeb	-0.2533792
117	0x3eb3d48d	0.351231
118	0x3dbdfbcf	0.09276544
119	0x3e4968df	0.19668911
120	0xbe5e643d	-0.21717925
121	0xbe8801cb	-0.26563868
122	0xbea5f217	-0.32411262
123	0xbeb12398	-0.34597468
124	0x3b42e336	0.002973748
125	0xbcb9602e	-0.02262887
126	0xbeb462d1	-0.3523164
127	0x3eaeffd9	0.3417957
128	0xbe32c3b7	-0.17457472
129	0xbe9a60ac	-0.3015188
130	0xbe26e726	-0.16299114
131	0x3ea2258a	0.31669265
132	0x3db56059	0.088562675
133	0xbe493323	-0.19648413
134	0xbe2ba63c	-0.16762632
135	0xbe7659b5	-0.24057658
136	0x3e008d26	0.12553844
137	0x3e7de59a	0.24794617
138	0xbe44a835	-0.19204791
139	0x3eb7ccbd	0.3589839
140	0x3ea85e96	0.32884663
141	0x3e02b071	0.1276262
142	0xbc1a3f83	-0.009414556
143	0x3e8c9c45	0.27462974
144	0x3dd54bf3	0.10414877
145	0xbeab1bfb	-0.33419785
146	0xbe83a4e2	-0.25711733
147	0x3e4b7003	0.19866948
148	0x3d08e02f	0.033416923
149	0x3eb502c5	0.35353675
150	0xbe8b355a	-0.27189142
151	0xbe929b80	-0.28634262
152	0xbddb39c2	-0.10704376
153	0xbe6bb699	-0.23018874
154	0x3e9036ef	0.2816691
155	0x3d03391b	0.032036882
156	0xbe0980ed	-0.13428088
157	0xbd47cfa0	-0.04878199
158	0x3d0b679b	0.034034353
159	0xbe8c4b79	-0.2740133
160	0x3d2f89c4	0.042855993
161	0xbe7ac6b1	-0.24489857
162	0x3d73ab69	0.05948964
163	0x3e0be720	0.13662386
164	0xbe6e06c9	-0.23244776
165	0xbe565771	-0.20931794
166	0xbc41b9ca	-0.011824081
167	0x3e985db8	0.29759002
168	0x3e41f1d8	0.18939912
169	0xbdb4cc7e	-0.08828066
170	0x3ea92600	0.33036804
171	0x3dc7035b	0.09717437
172	0x3ebade3f	0.36497685
173	0x3e882123	0.2658778
174	0xbe862201	-0.26197818
175	0x3cbdef17	0.023185296
176	0x3e6c8b9a	0.23100129
177	0x3d9bab73	0.07601061
178	0x3df58410	0.119880795
179	0x3e9fdbfd	0.31222525
180	0xbe8e2d5c	-0.2776898
181	0x3e021d91	0.12706591
182	0xbdef9919	-0.11699123
183	0xbe20d293	-0.15705328
184	0x3ead6872	0.33868748
185	0x3e8a6117	0.270272
186	0x3e7d3f11	0.24731089
187	0x3d16fd16	0.036862455
188	0xbe96376e	-0.29339164
189	0x3eaf38ff	0.34223172
190	0x3ddaef5b	0.10690185
191	0xbd1f117a	-0.038835026
192	0xbe93fad5	-0.28902307
193	0xbdde191d	-0.10844634
194	0xbea8beb5	-0.32957998
195	0x3e97396e	0.29536003
196	0x3ea3e420	0.32009983
197	0x3d97709b	0.07394525
198	0x3ea28cb1	0.31747964
199	0xbe75a2f7	-0.23987947
200	0xbe5a43c4	-0.21314913
201	0x3e385d1c	0.18004268
202	0x3ebd3a68	0.36958623
203	0xbe71963b	-0.23592465
204	0xbe9cfa2c	-0.30659616
205	0x3e030a5c	0.1279692
206	0x3dec8efd	0.1155071
207	0x3e885684	0.26628506
208	0x3d6946b7	0.056952205
209	0xbec18df7	-0.37803623
210	0x3e1bd449	0.15217699
211	0xbe39a089	-0.18127646
212	0x3e4798ef	0.19491933
213	0xbe8f9344	-0.28042042
214	0xbe95db8c	-0.29269063
215	0x3d09a861	0.033607844
216	0xbd83a678	-0.06428236
217	0xbeb3ad67	-0.35093233
218	0xbe3f2fe1	-0.18670608
219	0xbe9f1125	-0.31067768
220	0x3ddb293d	0.10701225
221	0x3dce39b7	0.10069602
222	0xbdf49c69	-0.11943895
223	0xbea212d1	-0.3165498

row_embedding.1.bias f4 [32]
0	0xbd50887e	-0.05091142
1	0x3e8374f9	0.2567518
2	0x3de1e789	0.1103049
3	0xbebcfe36	-0.36912698
4	0x3da5d799	0.080977626
5	0xbdfac30b	-0.12244233
6	0x3c95b8d1	0.018276604
7	0xbdda9873	-0.10673609
8	0x3e1ac1a8	0.15112936
9	0xbe56f6b1	-0.20992543
10	0xbeb32c4d	-0.34994736
11	0xbcd4f718	-0.02599673
12	0x3ea2f84d	0.31830063
13	0x3e19a936	0.15005955
14	0x3eb1591e	0.34638304
15	0x3dca842f	0.09888493
16	0xbe2269c5	-0.1586066
17	0x3c8bd6a6	0.017070126
18	0xbdf84019	-0.12121601
19	0x3e9d972b	0.30779395
20	0x3e9005d6	0.28129452
21	0xbcd5a523	-0.02607972
22	0x3e5788e5	0.21048315
23	0xbdcbad2f	-0.099451415
24	0x3ea4b7f8	0.32171607
25	0x3e53c900	0.20682144
26	0xbe17e6c2	-0.14834121
27	0x3e00aae6	0.12565193
28	0xbe970667	-0.29497072
29	0xbe491dc8	-0.19640267
30	0x3caf3c16	0.021390956
31	0xbe5d0388	-0.21583378

row_embedding.3.weight f4 [32, 32]
0	0xbdfb98ed	-0.12285028
1	0xbd27c15c	-0.040955886
2	0x3d91152d	0.07084117
3	0x3c405a3c	0.011740264
4	0x3dcea0f2	0.10089292
5	0x3b33164e	0.0027326527
6	0x3e26e983	0.16300015
7	0x3e150400	0.14552307
8	0x3dcdc8b5	0.100480475
9	0xbe15fb74	-0.14646703
10	0x3d0df4b7	0.034657206
11	0x3cf13434	0.029443838
12	0x3dccb990	0.09996331
13	0x3afdb3c7	0.0019355946
14	0x3e0cfa48	0.1376735
15	0x3e1e3d81	0.1545315
16	0x3e1f10f8	0.15533817
17	0x3d1366d1	0.035986725
18	0xbdf45fac	-0.119323105
19	0x3dd58dcd	0.10427437
20	0x3d252643	0.040319692
21	0x3d5ef424	0.05443205
22	0x3d3a1ffc	0.04544066
23	0x3de97e3c	0.114010304
24	0xbe27407c	-0.16333193
25	0x3ddb3841	0.10704089
26	0x3e01a303	0.1265984
27	0x3e1ae286	0.15125474
28	0x3c9136c6	0.017726313
29	0xbe1eae39	-0.15496148
30	0x3e16cfcf	0.1472771
31	0xbceff0b1	-0.029289575
32	0x3d0eec90	0.034893572
33	0x3ce5c90a	0.028049964
34	0xbe35f539	-0.17769326
35	0x3c03277e	0.008005021
36	0xbc8f4683	-0.017489677
37	0xbd3b6a0a	-0.045755424
38	0x3d9f0444	0.077644855
39	0x3d31065c	0.043218955
40	0xbdc08907	-0.09401136
41	0xbd203bd8	-0.03911957
42	0xbdcf7e0c	-0.101314634
43	0xbe246185	-0.16052826
44	0x3db2041a	0.086921886
45	0x3dd2a2d6	0.10284965
46	0x3e20fd38	0.15721595
47	0xbe2c3852	-0.1681836
48	0xbd46dad2	-0.048548527
49	0x3e05d162	0.13068154
50	0x3da1c004	0.07897952
51	0xbe0a576e	-0.13509914
52	0x3e03e4d2	0.12880257
53	0x3dfb194f	0.122606866
54	0x3e07dcc4	0.13267809
55	0x3df9ef27	0.12203818
56	0x3e0f24a6	0.13978824
57	0xbd8ea502	-0.069650665
58	0x3e0e509f	0.13897942
59	0x3de7ecfc	0.11324498
60	0xbe08d3a3	-0.13361983
61	0x3d694bf2	0.056957193
62	0xbe0be12a	-0.13660112
63	0xbdbda374	-0.09259692
64	0x3c7661e1	0.015037985
65	0x3e25921c	0.16169018
66	0xbdd8a43c	-0.105782
67	0xbe176062	-0.14782861
68	0x3e2e5835	0.17025836
69	0xbdab1d54	-0.08355203
70	0xbe27a71b	-0.1637234
71	0xbd938dd0	-0.07204783
72	0x3df3eac5	0.11910013
73	0x3d03b339	0.032153342
74	0x3e236794	0.1595748
75	0x3dd59798	0.10429305
76	0x3c2e1313	0.010624665
77	0x3e2741f9	0.1633376
78	0xbda5c1eb	-0.080936275
79	0x3db1d417	0.08683031
80	0xbd153b48	-0.036433488
81	0xbc919d7a	-0.017775286
82	0x3d2cbd08	0.04217246
83	0x3e019f06	0.12658319
84	0x3e1ceacc	0.15323943
85	0x3d4fec9e	0.050762765
86	0xbd55752e	-0.052113704
87	0x3e2e53aa	0.17024103
88	0x3d06e29e	0.032930963
89	0x3d697b45	0.057002325
90	0x3d635b70	0.055507123
91	0xbe264a3f	-0.1623926
92	0x3e2b1514	0.1670726
93	0x3e28037d	0.1640758
94	0x3e049d6c	0.12950677
95	0x3e1e267c	0.15444368
96	0xbda42134	-0.080141455
97	0xbd196c8f	-0.037457045
98	0xbe1dc25e	-0.15406176
99	0x3d69d5c9	0.057088647
100	0x3d42bccf	0.047543343
101	0x3d772121	0.06033433
102	0x3e2e9fd5	0.17053159
103	0xbcbfde31	-0.023421379
104	0x3db6df01	0.08929253
105	0x3dee3e57	0.11632984
106	0xbddc2e7e	-0.10751055
107	0xbcfb3afa	-0.03066777
108	0x3e02c28e	0.12769529
109	0xbdd2d6be	-0.10294865
110	0x3d7d4144	0.06182982
111	0x3db796eb	0.08964332
112	0xbc99f607	-0.018794073
113	0x3e2e372d	0.17013235
114	0xbd8c05ea	-0.068370655
115	0x3d956f8d	0.07296667
116	0xbd220f92	-0.03956563
117	0xbe22a360	-0.15882635
118	0x3d97ddfe	0.074153885
119	0xbd8858f6	-0.06657593
120	0xbb32537d	-0.0027210407
121	0x3e1ea052	0.15490845
122	0xbda1e2e7	-0.07904606
123	0xbd843fe9	-0.064575024
124	0xbe325788	-0.17416203
125	0xbe0198a8	-0.1265589
126	0xbdea8630	-0.114513755
127	0x3d3895ac	0.045064613
128	0x3dbd1f0f	0.092344396
129	0xbce5d144	-0.028053887
130	0xbdea43a6	-0.11438684
131	0x3c2f92c6	0.010716146
132	0x3dac53b8	0.084144056
133	0xbd821e17	-0.063533954
134	0xbde0b12b	-0.10971292
135	0x3dc0f124	0.09420994
136	0xbe2e61b6	-0.17029461
137	0x3d94f98a	0.07274158
138	0x3e0d7dc5	0.13817509
139	0xbe316059	-0.1732191
140	0xbd49bd9f	-0.049253102
141	0xbd20d918	-0.039269537
142	0x3c4cdc5d	0.012503711
143	0xbe33e36f	-0.17567228
144	0xbdddd08e	-0.10830794
145	0xbdd2cc69	-0.102928944
146	0x3d8da497	0.06916159
147	0x3d7e5db5	0.062101085
148	0xbe0af042	-0.13568214
149	0x3d41d982	0.047326572
150	0x3c006351	0.007836179
151	0x3d864096	0.065552875
152	0xbd86684a	-0.0656286
153	0x3df5b101	0.119966514
154	0xbda645ab	-0.08118757
155	0xbe08cd35	-0.1335953
156	0x3ddb71a2	0.10715033
157	0xbe323ea5	-0.1740671
158	0x3df7a34a	0.12091692
159	0xbd4d4c54	-0.05012162
160	0xbdb2b80a	-0.08726509
161	0xbe234067	-0.15942536
162	0xbd07c690	-0.03314835
163	0x3d7ada7d	0.061243523
164	0xbd666213	-0.056245875
165	0x3e27185d	0.16317888
166	0x3dbdcf9b	0.09268113
167	0x3d780f50	0.06056148
168	0xbe28bb38	-0.16477668
169	0x3b7bed71	0.0038441087
170	0xbe01be7d	-0.12670322
171	0x3d3d2509	0.046177898
172	0xbd211fba	-0.039336897
173	0x3de01a12	0.109424725
174	0xbb21fc47	-0.002471702
175	0xbe278ad5	-0.16361554
176	0xbdc6bdb1	-0.097041495
177	0xbe33d467	-0.17561494
178	0xbd370fa8	-0.044692665
179	0x3dae2a9b	0.0850422
180	0xbe13f315	-0.14448197
181	0x3df0aa6f	0.11751258
182	0xbe328c8b	-0.17436425
183	0xbc584566	-0.01320014
184	0x3a1bef01	0.0005948395
185	0xbdb54fbd	-0.088530995
186	0xbe1c7012	-0.15277126
187	0xbdc63b49	-0.096792765
188	0xbe1317ba	-0.1436452
189	0xbca437f9	-0.020046221
190	0x3cdbe4dc	0.026842527
191	0xbe27d085	-0.16388138
192	0x3db15eb9	0.08660645
193	0x3e049083	0.12945752
194	0x3df9e459	0.12201757
195	0xbd200ca0	-0.03907454
196	0x3e0ff183	0.14056973
197	0x3d6ac23d	0.057314146
198	0xbdfdca27	-0.12392073
199	0xbda3edf0	-0.08004367
200	0xbe1dcbd5	-0.15409787
201	0x3da6c32c	0.08142695
202	0x3e0316cd	0.12801667
203	0x3d874af7	0.06606095
204	0xbcf72ff1	-0.030174227
205	0xbe0ff74c	-0.1405918
206	0xbe28893c	-0.16458601
207	0x3c9e5cb8	0.019331321
208	0xbcbb178d	-0.022838378
209	0x3e099d20	0.13438845
210	0xbd953628	-0.0728572
211	0x3e0bb277	0.13642298
212	0x3dc4a4a4	0.09601715
213	0x3de7950a	0.11307724
214	0x3d28f266	0.041246794
215	0x3e0a5adc	0.13511223
216	0xbdb48cdf	-0.088159315
217	0xbd371a71	-0.04470295
218	0xbdb10476	-0.08643429
219	0x3c6a285d	0.01429185
220	0x3e2a2389	0.16615118
221	0xbd445e60	-0.047941566
222	0xbd0b2123	-0.03396715
223	0x3ddb838d	0.10718451
224	0xbd81366d	-0.06309209
225	0xbd2e7747	-0.04259422
226	0xbdf52e3b	-0.119717084
227	0xbe03166e	-0.12801525
228	0x3d147a8d	0.036249686
229	0x3e0ded28	0.13859999
230	0x3e0ee5ef	0.139549
231	0xbdcda604	-0.100414306
232	0x3db5917f	0.08865642
233	0xbddd937d	-0.10819147
234	0xbe31ce34	-0.17363816
235	0xbb020a39	-0.001984252
236	0x3e1bf514	0.15230209
237	0xbca109e1	-0.019658031
238	0xbe1613e6	-0.14656028
239	0xbd72cf67	-0.059279826
240	0x3d8b7989	0.0681029
241	0x3e096780	0.13418388
242	0xbe32c33a	-0.17457286
243	0x3d381e41	0.044950727
244	0x3d79294c	0.0608304
245	0x3d1008c9	0.03516463
246	0xbe30e19d	-0.17273565
247	0xbd7bed1f	-0.061505433
248	0xbcfe4984	-0.031040914
249	0xbdc6a36c	-0.09699139
250	0xbe061791	-0.13094927
251	0x3d048178	0.032350034
252	0xbc83d8cf	-0.016094593
253	0xbc185f81	-0.009300114
254	0xbdff06e6	-0.12452488
255	0x3e10f127	0.14154492

row_embedding.3.bias f4 [32]
0	0x3dde22ce	0.10846482
1	0xbd560c0f	-0.052257594
2	0xbd75f5f7	-0.060049023
3	0xbd294765	-0.041327853
4	0x3c854687	0.016268982
5	0xbe04ea03	-0.12979893
6	0x3ddd176a	0.107954815
7	0x3e11aa11	0.14225031
8	0xbd8597b3	-0.06523075
9	0x3dd18efc	0.1023235
10	0x3e08a32c	0.13343495
11	0x3dca3bd2	0.09874691
12	0xbc9f285b	-0.019428423
13	0x3d307ea3	0.04308952
14	0x3dd5fb15	0.10448281
15	0x3dd8d4b7	0.10587447
16	0x3dc44115	0.09582726
17	0xbd976bd5	-0.07393614
18	0x3d4b6bb7	0.04966327
19	0x3dbc960a	0.09208305
20	0xbc374094	-0.01118483
21	0x3d07ca2e	0.033151798
22	0x3d61373c	0.054984316
23	0x3d85667d	0.06513689
24	0x3dd45f54	0.10369745
25	0x3d2a16f2	0.04152579
26	0x3e28911d	0.16461606
27	0xbd6117d3	-0.05495436
28	0x3b78acd7	0.0037944817
29	0xbc09d9c3	-0.008413735
30	0xbe18d240	-0.14923954
31	0x3df6194c	0.12016544

col_embedding.0.weight f4 [7]
0	0x3f7fac3a	0.9987217
1	0x3f8001fa	1.0000603
2	0x3f80029b	1.0000795
3	0x3f800527	1.0001572
4	0x3f7fd252	0.999303
5	0x3f7fe240	0.99954605
6	0x3f800b0c	1.0003371

col_embedding.0.bias f4 [7]
0	0xb99cb6f6	-0.00029890955
1	0xb77b5301	-1.4980092e-05
2	0x37d9c824	2.5961614e-05
3	0xb9292123	-0.0001612944
4	0x39fb1813	0.00047892387
5	0x39fe6004	0.00048518192
6	0x39a92f91	0.00032269632

col_embedding.1.weight f4 [32, 7]
0	0x3eb50f75	0.35363355
1	0x3b9084b8	0.0044103526
2	0xba84db8c	-0.0010136231
3	0xbe337e1d	-0.17528577
4	0x3e8ce28f	0.275166
5	0xbebac29a	-0.36476594
6	0xbdd07384	-0.10178283
7	0xbdee0b36	-0.11623232
8	0xbe84749e	-0.25870222
9	0xbe28104c	-0.16412467
10	0x3e3e3aff	0.18577193
11	0xbe5a8833	-0.21341018
12	0x3ba7aa06	0.005116704
13	0xbe71f89f	-0.23629998
14	0xbe49d3a7	-0.19709645
15	0x3c577746	0.013150996
16	0x3e8a9ad3	0.27071247
17	0xbe3510dd	-0.17682214
18	0x3d01cca8	0.031689316
19	0x3db8c9f9	0.09022898
20	0x3e571348	0.21003449
21	0x3e91abcb	0.2845138
22	0x3e904e1f	0.28184602
23	0xbdd504a9	-0.104012795
24	0x3d754a03	0.059885036
25	0xbe9e77de	-0.30950826
26	0xbc97e780	-0.018543005
27	0x3e34b7e8	0.1764828
28	0x3e16b365	0.14716871
29	0x3ea4324a	0.32069618
30	0x3e9779a0	0.2958498
31	0xbe37aebe	-0.17937753
32	0xbd887bda	-0.06664248
33	0xbe80e617	-0.25175545
34	0xbebb0b76	-0.36532182
35	0xbec0e96c	-0.37678087
36	0x3d1b3fc5	0.037902612
37	0xbd92c1b6	-0.07165854
38	0x3e77b08a	0.24188438
39	0xbe695313	-0.22785597
40	0x3e2cd6e4	0.1687885
41	0xbdf73a49	-0.12071664
42	0xbd08a1c5	-0.0333574
43	0x3eba051a	0.36332017
44	0x3ebedf17	0.3727958
45	0x3e517a22	0.20456746
46	0x3e6c121a	0.2305378
47	0x3d15731a	0.036486723
48	0x3e30a7b4	0.17251474
49	0x3d9f0840	0.077652454
50	0xbdfc6350	-0.1232363
51	0x3e3d7f6f	0.18505643
52	0xbeb5c828	-0.3550427
53	0x3d9147c8	0.07093769
54	0x3d9497ba	0.07255502
55	0x3e053cb8	0.13011444
56	0xbde0485e	-0.10951303
57	0xbe385645	-0.18001659
58	0xbdbe8844	-0.09303334
59	0xbc5214b1	-0.012822316
60	0xbe64cf00	-0.22344589
61	0xbe1d9f52	-0.15392807
62	0x3e35174e	0.17684671
63	0x3d9b358a	0.07578571
64	0xbea6b749	-0.3256171
65	0xbd5ddec8	-0.05416754
66	0xbccd4cdb	-0.025061062
67	0x3e276105	0.16345604
68	0x3e9a09fc	0.30085742
69	0xbec17679	-0.377857
70	0x3eba9586	0.36442202
71	0x3c9259f5	0.01786516
72	0x3eb9cacb	0.3628753
73	0xbe03af87	-0.12859927
74	0xbe928ffe	-0.28625482
75	0xbe743de2	-0.23851731
76	0xbe6fb27e	-0.23407933
77	0x3eb74ae4	0.35799325
78	0x3e07ebc9	0.13273539
79	0xbe892e4f	-0.26793143
80	0xbd858208	-0.06518942
81	0xbe317370	-0.17329192
82	0xbe6c9c07	-0.23106395
83	0x3e61e632	0.22060469
84	0x3e963a17	0.29341194
85	0xbe98fe10	-0.29881334
86	0x3cc38f7e	0.023872133
87	0x3e7dc58a	0.24782386
88	0x3e261181	0.16217615
89	0xbd94f1bc	-0.0727267
90	0xbe6965be	-0.22792718
91	0xbea6900d	-0.32531777
92	0xbe54ae4d	-0.20769615
93	0x3c57b6cd	0.013166142
94	0xbd0eb637	-0.034841742
95	0x3e4cffc1	0.20019437
96	0x3e2b362c	0.16719884
97	0xbc05dcb2	-0.008170294
98	0xbc847f8e	-0.016174104
99	0x3e4084fb	0.18800728
100	0xbe3fcda1	-0.18730785
101	0x3e5c3856	0.21505865
102	0x3ea37f76	0.31933182
103	0x3e64c433	0.22340469
104	0x3db0f499	0.08640403
105	0x3d3b8413	0.045780253
106	0xbce27a07	-0.027646078
107	0x3e4b466e	0.19851086
108	0x3e83ea90	0.25764894
109	0xbce260c0	-0.027634025
110	0x3e02141d	0.12702985
111	0xbe9168da	-0.28400308
112	0x3e40f19c	0.18842167
113	0x3e8c427d	0.27394477
114	0xba4b6ce0	-0.0007760059
115	0xbe1d2526	-0.15346202
116	0xbdbe504d	-0.0929266
117	0xbdfade74	-0.12249461
118	0xbeaf3f73	-0.34228095
119	0x3ea76785	0.32696167
120	0xbc44a403	-0.012001994
121	0xbea38274	-0.31935465
122	0x3e83f59f	0.25773332
123	0x3ea2f750	0.3182931
124	0x3e9ff8c9	0.31244496
125	0xbe6b61fb	-0.22986595
126	0xbe838cd0	-0.2569337
127	0x3d9e3f3e	0.07726906
128	0x3d8fac0b	0.070152365
129	0xbe622646	-0.22084913
130	0x3d87cbe0	0.06630683
131	0x3e817d0f	0.25290725
132	0xbe8dda40	-0.27705574
133	0x3ebdbc3f	0.37057683
134	0xbeb30108	-0.34961724
135	0xbdac4311	-0.084112294
136	0xbd663bdb	-0.056209426
137	0x3db1deeb	0.08685096
138	0xbc45889d	-0.012056497
139	0x3e812ae0	0.25228024
140	0x3d8daacd	0.06917343
141	0xbe253164	-0.16132122
142	0xbebef684	-0.37297451
143	0xbe95f930	-0.29291677
144	0x3e523ce4	0.2053104
145	0x3e208cbd	0.15678687
146	0x3e4f0514	0.20216781
147	0xbd30086b	-0.042976778
148	0x3dddd039	0.10830731
149	0xbea48146	-0.32129878
150	0x3c320572	0.010865556
151	0xbe1fcc25	-0.15605219
152	0xbe81813e	-0.25293916
153	0xbdb861b1	-0.09003008
154	0x3e6766ba	0.22597781
155	0x3e6bf93a	0.23044291
156	0x3d6a56ac	0.057211563
157	0xbd8338eb	-0.064073406
158	0xbe329107	-0.17438136
159	0xbc78dc85	-0.015189295
160	0xbd3a7ecc	-0.04553108
161	0x3e678092	0.2260764
162	0x3de978e3	0.114000104
163	0xbe93134a	-0.28725654
164	0xbea468fe	-0.32111353
165	0x3dff42a5	0.12463883
166	0x3ce14947	0.027500762
167	0x3e0be0bf	0.13659953
168	0xbe2c622d	-0.16834326
169	0x3e25024a	0.16114154
170	0xbe9ce4d5	-0.30643335
171	0x3db063e3	0.08612802
172	0xbe835923	-0.25653943
173	0xbe9894e1	-0.29801086
174	0xbda1b9a3	-0.078967355
175	0x3e8ba5aa	0.2727483
176	0xbe84faa5	-0.25972477
177	0xbe8906c1	-0.26762965
178	0x3e3e10c9	0.1856109
179	0xbeb4c741	-0.3530827
180	0xbc14d9cd	-0.009085131
181	0xbe87a556	-0.2649333
182	0x3e8a0742	0.26958662
183	0xbd69d484	-0.057087436
184	0xbdcbcd48	-0.09951264
185	0xbe6aa5c3	-0.22914796
186	0x3cc48108	0.023987308
187	0x3e12c274	0.1433199
188	0x3dc86f5b	0.09786864
189	0x3e4936f4	0.19649869
190	0x3ebe2360	0.37136364
191	0x3e3d1fda	0.18469182
192	0x3ea03be4	0.31295693
193	0x3d9c6538	0.076364934
194	0xbe6e0184	-0.23242766
195	0xbe970c9e	-0.29501814
196	0x3eb79677	0.35856983
197	0xbe0c3788	-0.13693058
198	0x3ea74de2	0.32676607
199	0x3d5460be	0.051850073
200	0xbe060c66	-0.13090667
201	0xbe6443aa	-0.22291437
202	0xbeb293ed	-0.34878483
203	0x3c914e20	0.017737448
204	0x3dcdfc8b	0.100579344
205	0xbbc179a3	-0.005904393
206	0xbe9bb4fa	-0.30411512
207	0x3e9092dc	0.28237045
208	0x3e879c77	0.2648656
209	0x3eb6e91b	0.3572472
210	0x3eb30391	0.34963658
211	0xbdd4ccb7	-0.10390609
212	0xbe452d21	-0.19255497
213	0x3e3584d9	0.17726459
214	0x3c1d2905	0.009592299
215	0x3e101b12	0.14072827
216	0xbd605fc4	-0.05477883
217	0x3e32ca0e	0.1745989
218	0xbebb413f	-0.36573216
219	0x3eb0aca3	0.3450671
220	0x3e22a699	0.15883864
221	0x3eb9b16a	0.3626817
222	0x3bae5245	0.005319866
223	0x3e73ca59	0.23807658

col_embedding.1.bias f4 [32]
0	0xbe87726f	-0.26454493
1	0xbe308887	-0.17239581
2	0xbd9f886d	-0.07789693
3	0xbe929ddb	-0.2863606
4	0xbe99ccb4	-0.3003899
5	0x3e8ae464	0.27127373
6	0xbe48f9fd	-0.19626613
7	0xbe24b5ab	-0.16084926
8	0xbd243be2	-0.04009617
9	0xbd1446f9	-0.036200497
10	0x3dc712b0	0.09720361
11	0x3e8a78d2	0.27045304
12	0x3d6c05e1	0.057622794
13	0xbe2d500a	-0.16925064
14	0x3e010fb2	0.12603644
15	0xbec08ab8	-0.37605834
16	0x3eb51b7f	0.3537254
17	0x3baed98f	0.0053359936
18	0xbe53a57c	-0.20668596
19	0xbd24882d	-0.04016893
20	0xbcc9a0a4	-0.024612732
21	0xbea934a7	-0.33047983
22	0x3e8e9032	0.27844387
23	0x3d9e7997	0.07738035
24	0xbeb50725	-0.35357013
25	0x3e9c687b	0.30548462
26	0xbe8ef4d7	-0.27921173
27	0xbda79799	-0.08183212
28	0x3de875f7	0.11350625
29	0x3eb55293	0.35414562
30	0xbd4efb30	-0.05053252
31	0x3eabbe0c	0.33543432

col_embedding.3.weight f4 [32, 32]
0	0x3e0d6478	0.13807857
1	0x3e02decf	0.12780307
2	0xbbe88b6a	-0.0070966976
3	0xbe0e3fcf	-0.13891529
4	0x3d9e3d33	0.077265166
5	0xbd02ad26	-0.03190341
6	0xbe2b41e8	-0.1672436
7	0x3e0b98cd	0.13632508
8	0x3e0c4426	0.13697872
9	0x3e1b190e	0.15146276
10	0x3dc1be29	0.09460098
11	0x3de37d52	0.11107887
12	0xbe13f6aa	-0.14449564
13	0xbbe7a539	-0.0070692566
14	0x3d6c4ab3	0.057688426
15	0x3d943396	0.07236402
16	0xbd61a8cb	-0.055092614
17	0xbd0e901f	-0.034805413
18	0xbe063f77	-0.13110147
19	0xbe20de0d	-0.15709706
20	0x3c16336f	0.009167536
21	0x3e30718e	0.17230818
22	0xbdf49967	-0.11943322
23	0x3e2a4588	0.16628087
24	0xbe230fdb	-0.15924017
25	0xbdf2a570	-0.11847961
26	0xbe0d8c94	-0.13823158
27	0xbe017ea8	-0.12645972
28	0x3e15060d	0.1455309
29	0x3b193ae0	0.002338104
30	0xbd3c738a	-0.046008624
31	0x3e2ec276	0.17066368
32	0x3db35c5d	0.08757851
33	0xbe0ced8f	-0.13762496
34	0x3e1b74c6	0.15181264
35	0xbdb4905a	-0.088165954
36	0x3dc2c76a	0.095106915
37	0x3d4f2a4d	0.05057745
38	0x3d6b92dc	0.057513103
39	0xbd466aa8	-0.04844156
40	0x3e2725b6	0.1632298
41	0xbb81fc83	-0.0039668693
42	0x3dd9492c	0.106096596
43	0x3df6d3ee	0.12052141
44	0xbe1d139c	-0.15339512
45	0xbcf8480f	-0.030307798
46	0xbdcf9e8b	-0.101376615
47	0xbc9126f1	-0.017718764
48	0xbe182a74	-0.14859945
49	0xbc8df18c	-0.017327093
50	0xbdeb563a	-0.11491056
51	0xbd8a276e	-0.06745802
52	0x3dc6870f	0.09693729
53	0xbc70d734	-0.014699746
54	0x3e285c3a	0.16441432
55	0x3d76e466	0.06027641
56	0x3d6aa83c	0.057289347
57	0x3d3d9c58	0.04629168
58	0xbe342a20	-0.17594194
59	0x3e2e9e34	0.17052537
60	0xbbd2bf12	-0.0064314688
61	0xbe2f3b9a	-0.1711258
62	0xbbbe5914	-0.005808959
63	0xbdb44c41	-0.08803607
64	0xbd73f806	-0.059562705
65	0xbd37dd3a	-0.044888712
66	0xbcbe41b0	-0.023224682
67	0xbdd88b51	-0.105734475
68	0xbdd30ef4	-0.103055865
69	0x3d7e425a	0.062074997
70	0x3e2032ad	0.15644331
71	0x3e335ae5	0.17515142
72	0xbda67b98	-0.081290424
73	0xbe222aef	-0.1583669
74	0xbd103899	-0.035210226
75	0xbc6b7359	-0.014370763
76	0xbe1f8c71	-0.15580918
77	0xbe06e339	-0.13172616
78	0xbc3917ef	-0.01129721
79	0x3d8e8241	0.06958438
80	0x3a803f01	0.0009784402
81	0xbd57b274	-0.05266042
82	0xbcc92d01	-0.024557592
83	0x3e258625	0.16164453
84	0x3d9938a9	0.0748151
85	0xbdcb7483	-0.09934332
86	0x3dd6a9ea	0.10481627
87	0x3df4cf84	0.11953643
88	0xbdc64bfe	-0.09682463
89	0xbd0c28f1	-0.034218732
90	0x3de08992	0.109637395
91	0x3b8704ff	0.0041204686
92	0x3ce68c58	0.028143093
93	0xbd2305e9	-0.03980056
94	0xbd2b6b94	-0.04185064
95	0x3dabcc5e	0.08388589
96	0x3dda3cc8	0.10656124
97	0xbd35a25e	-0.0443443
98	0xbcb2fd4d	-0.021849299
99	0x3cd64355	0.026155153
100	0x3da0f9af	0.07860123
101	0xbe2fca34	-0.17166978
102	0xbd90ed07	-0.070764594
103	0x3dd6d655	0.10490099
104	0x3e1f2381	0.15540887
105	0xbe2d8053	-0.16943483
106	0x3d27398d	0.04082637
107	0xbd404570	-0.04694122
108	0x3d848673	0.06470957
109	0xbc244071	-0.01002513
110	0xbd9c3259	-0.076267906
111	0xbe155b03	-0.145855
112	0xbd502680	-0.050817966
113	0x3d15a41f	0.03653347
114	0xbd4d68e0	-0.050148845
115	0x3bf9f2d4	0.0076278243
116	0x3d7ab3c1	0.061206583
117	0x3debd68e	0.115155324
118	0x3df61651	0.12015975
119	0x3d82138a	0.06351383
120	0x3de77c3e	0.11302994
121	0xbe1bb785	-0.15206726
122	0x3df49515	0.11942498
123	0xbcc4d598	-0.02402763
124	0x3df61d03	0.12017252
125	0x3e0c0232	0.13672712
126	0x3e1017b4	0.14071542
127	0x3d878511	0.06617177
128	0x3dd8fb0c	0.105947584
129	0x3d76bc75	0.06023832
130	0x3d027b22	0.03185571
131	0xbdb654d6	-0.089029
132	0x3c1a95fc	0.009435173
133	0x3e11386d	0.14181681
134	0xbd1330cb	-0.035935204
135	0xbce924f4	-0.028460003
136	0x3e091a9e	0.1338906
137	0x3dcaded4	0.09905782
138	0xbda75a7a	-0.08171554
139	0xbe24ed06	-0.16106042
140	0x3c92e287	0.017930282
141	0xbe099814	-0.1343692
142	0xbe0686a1	-0.13137294
143	0x3e12f02c	0.14349431
144	0x3dd2dbed	0.10295854
145	0xbe288b2f	-0.16459344
146	0xbdbbed50	-0.09176123
147	0x3dc5fcb7	0.09667342
148	0xbe05d732	-0.13070372
149	0x3d9648af	0.07338082
150	0x3cfe7314	0.031060733
151	0xbdfa63a9	-0.1222604
152	0x3bd789d7	0.006577711
153	0x3d718bb1	0.05897111
154	0x3e2de773	0.16982822
155	0x3dd7dcbb	0.10540148
156	0x3cd1f9fd	0.025631899
157	0xbd8e1ab6	-0.069386885
158	0xbe23da1c	-0.16001171
159	0x3cbd5509	0.023111837
160	0x3cd81cc9	0.026380913
161	0x3d8d32d3	0.068944596
162	0xbd672983	-0.056436073
163	0xbe07d461	-0.1326461
164	0x3de5e4e8	0.11225301
165	0x3dbcda09	0.092212744
166	0xbd5eb917	-0.054375734
167	0x3e07c305	0.13257988
168	0x3e1bf237	0.15229116
169	0x3dd5ef14	0.10445991
170	0xbdba138d	-0.0908576
171	0xbdedff9f	-0.116210215
172	0xbdcdc87c	-0.10048005
173	0x3e13405d	0.14380021
174	0xbdec435a	-0.11536284
175	0x3d4f55c3	0.050618898
176	0xbd3d0dfb	-0.04615591
177	0xbdd09cba	-0.10186143
178	0x3e0d7483	0.13813977
179	0x3d349351	0.044085804
180	0xbd9a84f2	-0.075448886
181	0xbd42c6df	-0.04755294
182	0x3e00ab1b	0.12565272
183	0xbc9783ae	-0.018495407
184	0x3d4af744	0.049552217
185	0xbe0d4acb	-0.13798063
186	0xbd8ac6e1	-0.067762144
187	0xbd41fe7d	-0.04736184
188	0x3e161c3d	0.1465921
189	0xbe22bfe9	-0.1589352
190	0x3db35789	0.087569304
191	0x3c365793	0.011129278
192	0x3d3f7e9b	0.0467516
193	0xbd7b5d0f	-0.061368044
194	0x3def10c0	0.11673117
195	0xba3bc8a8	-0.0007163384
196	0xbde6dc15	-0.11272446
197	0xbc84778d	-0.016170288
198	0x3da21d72	0.079157725
199	0x3df802eb	0.121099316
200	0x3e30ac19	0.1725315
201	0x3e2552f7	0.1614493
202	0xbcece556	-0.02891795
203	0xbdc1f713	-0.09470954
204	0x3cab7bb1	0.020933004
205	0xbe23b3af	-0.15986513
206	0x3e00e79c	0.12588352
207	0x3b9e14bc	0.004824249
208	0x3e30596a	0.17221609
209	0xbd9462bc	-0.072453946
210	0x3dcc974f	0.09989797
211	0x3e20444b	0.15651052
212	0xbce1eb89	-0.027578132
213	0x3dcf9bd6	0.10137145
214	0xbdecc6a4	-0.11561325
215	0x3e229270	0.15876174
216	0x3d2e5692	0.04256303
217	0x3e11169a	0.14168778
218	0x3cb7dd77	0.02244447
219	0xbc6c6597	-0.014428518
220	0x3d4464a8	0.047947556
221	0x3df7c970	0.12098968
222	0x3decc7c2	0.11561538
223	0xbdf87f25	-0.12133626
224	0xbdf80458	-0.121102035
225	0x3daf039f	0.085456125
226	0x3e29a6b6	0.16567501
227	0x3e15f5dc	0.14644569
228	0xbdd4273f	-0.10359048
229	0x3cb85876	0.022503119
230	0xbc8b764d	-0.017024184
231	0xbe1c11ce	-0.15241167
232	0x3e1026b3	0.14077263
233	0x3e270a42	0.16312507
234	0x3d3512e4	0.04420747
235	0xbde4688a	-0.11152752
236	0xbc8e4dea	-0.017371137
237	0x3dfacfd3	0.122466706
238	0xbdcade9b	-0.0990574
239	0xbd3f47a3	-0.046699177
240	0xbdb41682	-0.087933555
241	0x3c0bf054	0.008541185
242	0xbd9ebdc5	-0.077510394
243	0xbcf3f383	-0.029779201
244	0xbd4d1a91	-0.050074164
245	0x3dd8a8b7	0.10579055
246	0xbdb38175	-0.08764926
247	0x3d42ec86	0.047588848
248	0x3e0f1029	0.13971008
249	0x3e127607	0.14302836
250	0xbe1cda40	-0.15317631
251	0xbd619435	-0.055072982
252	0xbdc2ba30	-0.09508169
253	0xbe0df413	-0.13862638
254	0x3d65bbdc	0.05608736
255	0x3df59e32	0.11993064

col_embedding.3.bias f4 [32]
0	0xbd3cfa36	-0.046137057
1	0x3e1aff4b	0.15136449
2	0xbdc7f5db	-0.0976369
3	0x3df532cf	0.119725816
4	0xbcc0894d	-0.02350297
5	0x3e1ce15a	0.1532034
6	0x3dd61c41	0.10454608
7	0x3cf1f9c4	0.029538043
8	0x3e127bec	0.14305085
9	0x3e1171df	0.14203595
10	0x3e077763	0.13229136
11	0x3e081fcd	0.13293381
12	0xbda6e885	-0.08149818
13	0x3e21cecb	0.15801542
14	0x3d8a75b7	0.067607336
15	0xbca958fc	-0.020672314
16	0xbdbf4855	-0.09339968
17	0xbdab61a6	-0.08368234
18	0x3dec7663	0.11546018
19	0x3e132726	0.14370403
20	0x3dbb492b	0.09144815
21	0x3dc9c868	0.098526776
22	0xbdfd2c30	-0.12361944
23	0x3e1b4b7e	0.15165517
24	0x3e0de12d	0.13855429
25	0xbd863328	-0.06552726
26	0x3e0af71a	0.13570824
27	0x3dbcbf62	0.09216191
28	0x3dbd0130	0.09228742
29	0x3cf1e354	0.029527344
30	0xbdb7a0d6	-0.08966224
31	0x3d9a91fd	0.07547376

conv_col_to_row.feature_module_left.0.weight f4 [32, 32]
0	0x3cc9aaeb	0.024617633
1	0xbe1bd59b	-0.15218203
2	0xbb6b50f7	-0.0035906413
3	0x3d203a47	0.039118078
4	0xbd04be72	-0.032408185
5	0xbdef7908	-0.11693007
6	0x3c6cbe6c	0.014449697
7	0xbd6e7b87	-0.058223274
8	0x3e1ed938	0.1551255
9	0x3c0b62c4	0.008507434
10	0xbcb69e86	-0.022292387
11	0x3e06d74d	0.13168068
12	0x3a8c0708	0.0010683248
13	0xbd564ac0	-0.05231738
14	0xbc9d63d6	-0.019212645
15	0xbc1afeaf	-0.009460135
16	0xbc2cc822	-0.010545762
17	0xbe0fac46	-0.14030561
18	0x3e065c5d	0.13121171
19	0x3ce1f6f3	0.027583575
20	0xbdb87592	-0.090068
21	0xbddad811	-0.10685743
22	0x3d9e8525	0.07740239
23	0x3da0ec23	0.078575395
24	0x3dc69155	0.09695689
25	0xbdd82095	-0.105530895
26	0xbe24dadb	-0.16099112
27	0xbe07e89a	-0.13272324
28	0x3e01ec99	0.12687911
29	0xbd41bb50	-0.047297776
30	0xbd5b3113	-0.053513598
31	0xbdcc6431	-0.099800475
32	0x3e065954	0.13120013
33	0x3d936712	0.071973935
34	0x3dd7dee4	0.1054056
35	0xbdc89884	-0.09794715
36	0xbcfd2d20	-0.030905306
37	0x3e23c9d1	0.15994956
38	0xbcad0fd8	-0.021125719
39	0xbe2fc999	-0.17166747
40	0xbdb2ff06	-0.08740048
41	0x3b8ce077	0.004299219
42	0x3df34b1f	0.118795626
43	0x3cfe6655	0.031054655
44	0x3d216432	0.039402194
45	0xbdf8efb0	-0.12155092
46	0x3cf661d3	0.030075943
47	0x3c75c4c7	0.015000529
48	0x3e019fe9	0.12658657
49	0xbe07d22d	-0.1326377
50	0x3cf138b9	0.029445993
51	0xbdd26652	-0.10273422
52	0xbd279cc4	-0.040920988
53	0x3dbac557	0.09119671
54	0xbe326d49	-0.17424501
55	0x3dddebf1	0.10836018
56	0xbe236129	-0.15955032
57	0x3d160682	0.0366273
58	0x3da445c7	0.080211215
59	0x3dd2aebc	0.10287234
60	0xbdc01600	-0.09379196
61	0xbde30d19	-0.110864826
62	0x3dc3077f	0.09522914
63	0xbc77d8eb	-0.015127401
64	0x3de995dc	0.114055365
65	0xbdddaac5	-0.10823587
66	0x3cdf6936	0.027271848
67	0x3d8e02c3	0.069341205
68	0x3cc21268	0.023690417
69	0x3e0310d7	0.12799393
70	0xbe0328e6	-0.1280857
71	0x3e2d28ea	0.16910139
72	0xbde9bd3d	-0.114130475
73	0xbddaef0f	-0.10690128
74	0x3e04ec93	0.12980871
75	0x3cac333f	0.02102053
76	0xbe2d3e2a	-0.16918245
77	0xbe292339	-0.16517343
78	0xbda41ea5	-0.080136575
79	0x3e2a1142	0.16608146
80	0x3d2633a5	0.040576596
81	0xbe069a2b	-0.13144748
82	0x3e2cbd6e	0.16869137
83	0x3d91a5a5	0.07111672
84	0xbd8f52a9	-0.06998188
85	0xbcddc354	-0.027070679
86	0xbd40353d	-0.046925772
87	0x3e33d293	0.17560796
88	0x3baf8e2c	0.0053575244
89	0x3d584eff	0.05280971
90	0xbe1021b5	-0.14075358
91	0x3cb65015	0.022254983
92	0xbd875f2c	-0.066099495
93	0x3d8ea564	0.069651395
94	0x3cd05812	0.02543262
95	0xbc34e09e	-0.011039881
96	0xbd4c1173	-0.04982133
97	0xbd7a2a81	-0.06107569
98	0x3c59f120	0.013302118
99	0x3c2819df	0.010260074
100	0xbc5fb378	-0.0136536285
101	0x3d51a94b	0.05118684
102	0xbc7ffea0	-0.015624672
103	0xbd8ac505	-0.0677586
104	0x3e11d5e3	0.14241748
105	0xbdc36e3e	-0.095425114
106	0xbdfb6c5a	-0.12276526
107	0x3e1b4733	0.15163879
108	0x3cdfcafd	0.027318472
109	0xbd00d632	-0.031454273
110	0xbdc24a14	-0.094867855
111	0xbd061c06	-0.03274157
112	0xbe080a6c	-0.13285226
113	0x3d1f3767	0.038871195
114	0x3c9de200	0.019272804
115	0x3d9eb889	0.07750041
116	0xbceccb45	-0.02890552
117	0xbe2a6bc7	-0.16642676
118	0x3e0d64ad	0.13807936
119	0xbe2537f7	-0.1613463
120	0xbde98927	-0.11403113
121	0xbba93bc7	-0.0051645967
122	0xbdcf596d	-0.101244785
123	0xbdc124c0	-0.09430838
124	0x3dfcdac8	0.12346417
125	0xbe2cd375	-0.1687754
126	0xbcb464bb	-0.022020688
127	0x3db8eaa7	0.090291314
128	0xbe1966e6	-0.14980659
129	0x3d9fc8ad	0.07801948
130	0x3e255dbc	0.16149038
131	0x3b6b0a46	0.0035864278
132	0x3dc12bda	0.09432192
133	0xbde537a4	-0.11192253
134	0x3e094d91	0.13408495
135	0xbe1f5174	-0.15558416
136	0x3d853188	0.06503588
137	0x3dcfd713	0.10148444
138	0xbda9bd39	-0.082880445
139	0xbdd1c752	-0.102430955
140	0x3d24c9bf	0.040231463
141	0x3e28665b	0.16445296
142	0xbd9f5686	-0.07780175
143	0x3e054d25	0.1301771
144	0xbda62a99	-0.081135936
145	0xbbf2dca1	-0.007411555
146	0x3e058fbf	0.13043116
147	0xbe12e1ad	-0.14343901
148	0xbe303314	-0.17206985
149	0xbcf82b70	-0.03029415
150	0x3d1087a4	0.035285607
151	0x3cb9cd30	0.022680849
152	0xbe33d1a0	-0.17560434
153	0xbda44d5a	-0.08022566
154	0x3d27ca2e	0.040964298
155	0xbce4cea0	-0.027930558
156	0xbe1cbaa7	-0.15305577
157	0x3d6b827c	0.057497486
158	0x3d3bf743	0.045890104
159	0xbdc63cd1	-0.096795686
160	0x3be596af	0.0070064883
161	0xbe0caf75	-0.13738807
162	0x3e230a33	0.1592186
163	0x3da80a8d	0.082051374
164	0x3c6061d5	0.0136952
165	0x3da79877	0.08183377
166	0x3d62b062	0.055343993
167	0x3df2a3dc	0.1184766
168	0xbe0fe9a8	-0.14053977
169	0xbd086536	-0.033299647
170	0x3d8c473a	0.06849523
171	0xbe175951	-0.14780165
172	0xbd111c5a	-0.03542743
173	0xbd7b39eb	-0.06133453
174	0x3cb5807e	0.022155996
175	0xbe00cb17	-0.12577473
176	0x3e2b0317	0.16700397
177	0xbe02c951	-0.12772109
178	0xbd894d9d	-0.06704257
179	0xbdcbe08f	-0.099549405
180	0x3dfd47af	0.12367188
181	0x3df5c5ab	0.12000593
182	0x3d68eb85	0.056865234
183	0x3df8f167	0.12155419
184	0x3e241419	0.16023292
185	0xbbef6faf	-0.007307015
186	0xbdca4ad4	-0.098775536
187	0x3e1133c0	0.14179897
188	0x3d831e03	0.06402209
189	0xbe088288	-0.13331044
190	0x3b7af2de	0.0038291733
191	0x3e30f1b3	0.17279701
192	0xbd52db48	-0.051478654
193	0xbe1ecb0d	-0.15507145
194	0x3e263c07	0.16233836
195	0x3ccb08e3	0.024784511
196	0x3d8e9360	0.06961703
197	0xbe276c7a	-0.16349974
198	0x3e14a320	0.14515352
199	0xbdeda307	-0.116033606
200	0x3ccc4a42	0.024937753
201	0x3dab560e	0.08366023
202	0x3c4b3703	0.012403253
203	0xbe3110c5	-0.17291553
204	0x3ce3a3d1	0.027788075
205	0xbda5143d	-0.08060501
206	0x3d2fb5be	0.042897932
207	0x3d9dede9	0.077113934
208	0x3cbf3756	0.023341816
209	0xbcd1090d	-0.025517011
210	0xbd5e5c40	-0.054287195
211	0x3df27d7b	0.1184034
212	0xbd8dce0c	-0.06924066
213	0x3d632d71	0.05546326
214	0xbdd7fb46	-0.105459735
215	0xbd92728f	-0.071507566
216	0x3cd1aa00	0.025593758
217	0xbe0eb9a9	-0.13938011
218	0x3d48ca72	0.049021192
219	0xbd4f31f1	-0.050584737
220	0x3e29937a	0.16560164
221	0x3bdd2929	0.0067492914
222	0xbe17425d	-0.1477141
223	0x3dfdaf00	0.12386894
224	0xbe0068e8	-0.12540019
225	0x3c220800	0.009889603
226	0xbc036347	-0.008019275
227	0xbe0010de	-0.12506434
228	0x3e13506d	0.14386149
229	0xbdce5a75	-0.10075847
230	0x3cd580f7	0.026062472
231	0x3e133330	0.14374995
232	0x3e088193	0.13330679
233	0xbe1fe6db	-0.15615408
234	0x3e1503ce	0.14552233
235	0xbd9b88b9	-0.07594437
236	0xbb61cd13	-0.003445451
237	0xbdc721d2	-0.097232476
238	0x3c6c1035	0.014408161
239	0x3dcc557e	0.09977244
240	0xbe062d4e	-0.1310322
241	0xbb3081d3	-0.002693285
242	0x3e329714	0.17440444
243	0x3de42523	0.11139896
244	0xbd39fb8c	-0.04540591
245	0xbe15c86a	-0.14627233
246	0x39a400f6	0.00031281234
247	0xbd83fe5b	-0.06444999
248	0x3dbed791	0.0931846
249	0x3dee3409	0.11631019
250	0xbdece282	-0.115666404
251	0xbabba59e	-0.0014316326
252	0x3e002871	0.12515427
253	0x3d9ec8dd	0.077531554
254	0xbe1479e6	-0.14499626
255	0xbe16cef1	-0.1472738

conv_col_to_row.feature_module_left.0.bias f4 [32]
0	0x3ddcf1d8	0.107883155
1	0x3e04771a	0.12936059
2	0xbddf50bd	-0.109040715
3	0x3d88b0f3	0.066743754
4	0xbca23659	-0.019801306
5	0x3de6991f	0.11259674
6	0xbdb3e0a3	-0.087830804
7	0x3e32bdde	0.17455241
8	0xbd7263dc	-0.059177265
9	0xbe1531b7	-0.14569746
10	0xbddd3dfe	-0.1080284
11	0xbe1b6670	-0.15175796
12	0x3d170746	0.03687217
13	0x3d90a0fb	0.070619546
14	0xbe27d0c6	-0.16388234
15	0xbe1b1334	-0.15144044
16	0x3db2ee3a	0.08736844
17	0x3e0535d4	0.13008815
18	0x3cd26add	0.025685722
19	0x3d168980	0.036752224
20	0x3d390697	0.0451723
21	0x3db08117	0.08618372
22	0x3e258b29	0.16166367
23	0xbdb36769	-0.08759958
24	0x3db77349	0.08957536
25	0xbd563eb7	-0.052305903
26	0x3dfea693	0.12434115
27	0xbe2e8f3a	-0.17046824
28	0xbdd0b500	-0.10190773
29	0xbd8a9fc0	-0.06768751
30	0xbd694d22	-0.056958325
31	0xbe2bd2fc	-0.16779703

conv_col_to_row.feature_module_edge.0.weight f4 [32, 1]
0	0x3f0bdfb7	0.54638237
1	0x3f1c47aa	0.6104685
2	0x3dc11b97	0.094290905
3	0x3eaba24e	0.33522266
4	0x3daf781e	0.085678324
5	0x3ee8e289	0.45485333
6	0xbf3b846d	-0.7324894
7	0xbea8a40c	-0.32937658
8	0xbf0217ba	-0.50817454
9	0x3e544497	0.2072929
10	0xbf6967e4	-0.9117415
11	0xbf56d960	-0.8392544
12	0xbf53c479	-0.8272167
13	0x3e088639	0.13332452
14	0xbf08348e	-0.5320519
15	0x3db67c38	0.089104116
16	0xbd81ccfc	-0.06337926
17	0xbe14e0dc	-0.14538902
18	0x3f3170d7	0.69312805
19	0x3f27a206	0.65481603
20	0xbf3b573b	-0.7317998
21	0x3c17dcd6	0.00926896
22	0xbf50fc36	-0.81634843
23	0xbf2ffcc8	-0.6874509
24	0x3f2e9b86	0.6820606
25	0x3ed1559f	0.40885636
26	0xbf29e553	-0.66365546
27	0x3f270d4c	0.65254664
28	0xbe1da779	-0.15395917
29	0x3e17130e	0.14753363
30	0xbe876467	-0.26443788
31	0x3f6bed4b	0.92158955

conv_col_to_row.feature_module_right.0.weight f4 [32, 32]
0	0xbd782313	-0.060580324
1	0x3da498d2	0.08036961
2	0xbdcb5020	-0.09927392
3	0x3df49a68	0.11943513
4	0xbdacfdb1	-0.08446825
5	0xbdedf55a	-0.11619063
6	0xbc636fb1	-0.01388161
7	0x3cf8a253	0.03035084
8	0x3ba8f339	0.0051559475
9	0xbdd88866	-0.10572891
10	0xbdbc4367	-0.091925435
11	0x3d7d5e0e	0.061857276
12	0xbdd2dab2	-0.10295619
13	0x3b1dc698	0.002407467
14	0x3d9b9611	0.07596982
15	0x3c822817	0.015888257
16	0x3e33fc94	0.1757682
17	0x3e284556	0.164327
18	0x3cba26a9	0.022723513
19	0x3e09f614	0.13472778
20	0xbe2a201b	-0.1661381
21	0x3d1ee6a3	0.03879417
22	0x3e31a5f1	0.17348458
23	0xbd6fdb40	-0.058558702
24	0x3d8ead89	0.06966693
25	0x3d21fb0a	0.03954605
26	0x3e0dce32	0.13848189
27	0xbdcd22b7	-0.10016387
28	0xbdec6bd7	-0.11544006
29	0x3be33276	0.0069335056
30	0xbde8e789	-0.11372287
31	0x3e19112d	0.14947958
32	0x3e205355	0.15656789
33	0x3dbe9b4f	0.093069665
34	0xbc8ee85e	-0.017444786
35	0x3e354118	0.17700613
36	0xbe1d7dd6	-0.15380034
37	0x3e3424e2	0.17592195
38	0xbd9d752f	-0.076883666
39	0x3e17e0ef	0.14831899
40	0xbddcedfd	-0.1078758
41	0xbdc27029	-0.09494049
42	0xbdd94814	-0.10609451
43	0x3db8a87a	0.09016509
44	0x3d0dfbda	0.034664012
45	0x3dd197c5	0.10234026
46	0x3bb83118	0.005621087
47	0xbd6d196a	-0.057885565
48	0x3e0d5348	0.138013
49	0xbe0f5d5c	-0.14000458
50	0x3d9bd233	0.07608452
51	0xbe1a6e51	-0.15081145
52	0x3e29a551	0.1656697
53	0x3c4c463b	0.012467916
54	0xbd715abd	-0.058924425
55	0x3e0d0e62	0.13775018
56	0xbe18303a	-0.14862147
57	0xbdc9b2f5	-0.098485865
58	0xbe10e5ed	-0.1415021
59	0xbd67db76	-0.05660578
60	0xbd996104	-0.074892074
61	0x3dc7066d	0.097180225
62	0xbe17cd4e	-0.14824411
63	0x3ba591e4	0.005052792
64	0x3e0dfcec	0.13866013
65	0xbd1cd072	-0.038284726
66	0xbd763ff3	-0.06011958
67	0xbda24faf	-0.07925355
68	0x3db6f0a0	0.08932614
69	0x3de87059	0.113495536
70	0xbe07d671	-0.13265397
71	0xbcc6c8ab	-0.024265608
72	0xbe1a035a	-0.15040341
73	0xbd589663	-0.052877795
74	0x3ca8c813	0.020603215
75	0x3cc89c64	0.024488635
76	0x3e029803	0.127533
77	0x3df62168	0.120180905
78	0x3d53bba1	0.05169261
79	0xbe2523cf	-0.16126941
80	0xbd3c003f	-0.045898672
81	0x3e341877	0.17587458
82	0xbd66af5a	-0.056319572
83	0x3d33de94	0.04391344
84	0x3cdf61c3	0.027268296
85	0x3dc859d1	0.09782756
86	0xbdb8a15d	-0.090151526
87	0xbdcbe22a	-0.09955247
88	0xbd390f29	-0.045180473
89	0x3dee2204	0.11627582
90	0xbe254fe3	-0.16143756
91	0xbcd64236	-0.026154619
92	0x3dd40184	0.103518516
93	0x3e0dbdb7	0.13841902
94	0x3d139232	0.036028095
95	0xbdb24972	-0.08705415
96	0x3d26ba3b	0.040704947
97	0xbe07bd2c	-0.13255757
98	0xbe2fab72	-0.17155245
99	0x3e0a32bb	0.13495915
100	0xbe33c31e	-0.175549
101	0xbe05edad	-0.13078947
102	0x3e290276	0.16504845
103	0x3d830c31	0.0639881
104	0xbdd9ce7c	-0.10635087
105	0xbe01904f	-0.12652706
106	0xbe1a1457	-0.15046822
107	0xbd033ebd	-0.032042254
108	0xbdda38e7	-0.106553845
109	0x3da9be7e	0.082882866
110	0xbdf8b84b	-0.12144526
111	0xbd8b4789	-0.068007536
112	0xbd554720	-0.052069783
113	0x3d614d81	0.055005554
114	0xbc94a585	-0.018145332
115	0xbcfdf816	-0.031002086
116	0xbda19625	-0.07889966
117	0xbe2d2d3c	-0.16911787
118	0x3e2e8950	0.17044568
119	0x3e12f23b	0.14350216
120	0x3d7d430f	0.06183153
121	0xbc42b203	-0.011883262
122	0x3e02e892	0.12784031
123	0xbd3df445	-0.04637553
124	0x3bcbe7e4	0.006222712
125	0x3de28f1f	0.110624544
126	0xbdde37cb	-0.108504854
127	0x3dea1406	0.114296004
128	0xbdae927e	-0.08524035
129	0xbe094a1f	-0.13407181
130	0x3e301aeb	0.17197768
131	0xbd93d55a	-0.07218428
132	0xbd96b70f	-0.073591344
133	0xbd6ecb7a	-0.05829952
134	0x3cfdfb9b	0.031003764
135	0xbc804ea8	-0.015662506
136	0xbe185f1a	-0.14880028
137	0xbe25c138	-0.16186988
138	0x3dd75370	0.10513961
139	0x3d97cb9d	0.07411883
140	0x3e0a47ea	0.13503996
141	0xbe26dea8	-0.16295874
142	0x3c9a535c	0.018838577
143	0x3e113d0f	0.14183448
144	0xbda34010	-0.07971203
145	0x3c0080b0	0.0078431815
146	0x3aed5f70	0.0018110108
147	0x3e207937	0.1567124
148	0xbe0d447c	-0.13795656
149	0xbd0be926	-0.034157895
150	0x3d83bc45	0.06432394
151	0x3b974d1e	0.0046173474
152	0x3d1b4ebc	0.037916884
153	0xbddf8f55	-0.1091601
154	0xbe17b657	-0.14815651
155	0x3e20f9e6	0.15720329
156	0x3c529f3f	0.01285535
157	0xbd92ac45	-0.07161764
158	0xbb734269	-0.003711844
159	0x3d4bbef3	0.04974265
160	0x3da39f5e	0.07989381
161	0x3e1d4d3d	0.15361495
162	0xbe2b3da2	-0.1672273
163	0xbe0ff3e7	-0.14057885
164	0x3d7ad0ee	0.061234407
165	0xbdbe119e	-0.09280704
166	0x3d5a2f4d	0.053267766
167	0x3e2ffd05	0.17186363
168	0xbd9034ca	-0.07041319
169	0x3e1e31e3	0.15448718
170	0x3d88c924	0.066789895
171	0x3dcef579	0.10105414
172	0x3e290a96	0.16507944
173	0x3e32171d	0.1739163
174	0x3de2a327	0.11066275
175	0x3dbb521a	0.09146519
176	0x3d82614a	0.06366213
177	0x3e1327ab	0.14370601
178	0x3e2cafc4	0.16863924
179	0xbe1663e0	-0.14686537
180	0x3e0132df	0.12617062
181	0x3de04f1e	0.109525904
182	0x3dbc197e	0.0918455
183	0x3dac7696	0.08421056
184	0xbdb5e8c7	-0.088822894
185	0x3db9f711	0.09080327
186	0x3de46663	0.11152341
187	0x3d37e7fd	0.044898976
188	0x3d1a7b71	0.03771538
189	0xbdfbbd9b	-0.12292024
190	0xbe2134eb	-0.15742843
191	0xbd70b86c	-0.05876963
192	0x3e1cde0a	0.15319076
193	0x3be0dde5	0.0068623894
194	0x3d681ce8	0.056668192
195	0x3d7c27c9	0.06156138
196	0xbb0bd8c2	-0.0021338915
197	0xbb2a188a	-0.0025954568
198	0xbc7cefb3	-0.015438008
199	0xbde961ab	-0.11395582
200	0x3dab1e5f	0.08355402
201	0xbdc5d5bf	-0.096599095
202	0x3d54571d	0.05184089
203	0xbd9e10cc	-0.077180475
204	0xbd548f95	-0.051894743
205	0xb7bd0a8d	-2.2535469e-05
206	0xbda383ec	-0.079841465
207	0xbdeb7aee	-0.11498056
208	0xbe09ed26	-0.13469371
209	0x3d6ee801	0.058326725
210	0xbe00d022	-0.12579396
211	0xbe2e41ce	-0.1701729
212	0xbdd85b8c	-0.10564336
213	0x3beb3e7a	0.0071790786
214	0x3c097996	0.008390805
215	0x3bfb379c	0.0076665413
216	0x3d4acd73	0.049512338
217	0xbdaad55c	-0.08341476
218	0x3dc86dc3	0.097865604
219	0x3c17514c	0.009235691
220	0x3e0bdfaf	0.13659547
221	0x3ce82684	0.028338678
222	0x3d77c47c	0.060490116
223	0xbe007a60	-0.12546682
224	0x3e0ce29b	0.13758318
225	0xbca5449f	-0.020174323
226	0xbd972975	-0.07380954
227	0x3e170809	0.14749159
228	0xbd5a623f	-0.05331635
229	0x3de2212b	0.110414825
230	0x3c196187	0.009361631
231	0x3b589715	0.0033049036
232	0x3e19131b	0.14948694
233	0xbdcb105d	-0.099152304
234	0x3ce11a2f	0.027478306
235	0xbda158f2	-0.07878293
236	0x3ddff14f	0.10934698
237	0x3d088db1	0.033338252
238	0x3dc25337	0.09488528
239	0x3ddad2ce	0.10684739
240	0xbd67dcfb	-0.056607228
241	0xbdd05eb0	-0.1017431
242	0xbd3ad708	-0.045615226
243	0x3ca917e6	0.020641278
244	0xbdcb8e0f	-0.09939205
245	0x3dda1587	0.10648637
246	0xbdc1d3f9	-0.09464259
247	0x3dae61ef	0.08514773
248	0xbe19172e	-0.14950249
249	0xbdb553bd	-0.088538624
250	0x3cd9d9f9	0.026593195
251	0xbe331fb6	-0.17492566
252	0x3e17501a	0.1477665
253	0x3e1c03ae	0.15235779
254	0x3da199b4	0.07890645
255	0xbcd6ac18	-0.026205108

conv_col_to_row.feature_module_final.0.weight f4 [32]
0	0x3f7fc2a3	0.9990637
1	0x3f8003ad	1.0001122
2	0x3f800000	1.0
3	0x3f80085f	1.0002555
4	0x3f800000	1.0
5	0x3f800076	1.0000141
6	0x3f802c4c	1.0013518
7	0x3f7fec0a	0.9996954
8	0x3f7fded8	0.9994941
9	0x3f803836	1.0017154
10	0x3f7feccb	0.9997069
11	0x3f7fe48c	0.9995811
12	0x3f801806	1.0007331
13	0x3f7fe57e	0.9995955
14	0x3f800a61	1.0003167
15	0x3f7fcc58	0.9992118
16	0x3f8008b5	1.0002657
17	0x3f7ff514	0.99983335
18	0x3f8005db	1.0001787
19	0x3f801045	1.0004965
20	0x3f801d0c	1.0008864
21	0x3f800345	1.0000998
22	0x3f7ff1cb	0.9997832
23	0x3f7ffbee	0.9999379
24	0x3f8029b8	1.0012732
25	0x3f80155d	1.000652
26	0x3f802821	1.0012246
27	0x3f800000	1.0
28	0x3f800000	1.0
29	0x3f7fb9ce	0.9989289
30	0x3f800000	1.0
31	0x3f800000	1.0

conv_col_to_row.feature_module_final.0.bias f4 [32]
0	0xba0662dc	-0.00051264255
1	0x392eeb31	0.00016681549
2	0x00000000	0.0
3	0x398ef4e4	0.00027266808
4	0x00000000	0.0
5	0x38320c1e	4.2449792e-05
6	0x396a4c46	0.00022344393
7	0xb947be65	-0.00019049046
8	0xb9ba6973	-0.0003555525
9	0x3ab33e3a	0.0013675161
10	0xb96cabdb	-0.00022570735
11	0xb9d3b73e	-0.00040381582
12	0x3a109e16	0.00055167207
13	0xba2d9d1e	-0.00066228386
14	0x3a8134ab	0.0009857615
15	0xb8b02700	-8.399598e-05
16	0xb9816d3b	-0.0002468618
17	0xb90e8d7c	-0.00013594882
18	0x39397421	0.00017686236
19	0x3a6977d8	0.0008906103
20	0x3a327ec4	0.00068090507
21	0x380baca6	3.3300974e-05
22	0x38e592d1	0.000109469176
23	0xb90ca443	-0.00013412633
24	0x3ae23e90	0.0017261077
25	0x3a0d1107	0.00053812604
26	0x3a8af87b	0.0010602617
27	0x00000000	0.0
28	0x00000000	0.0
29	0xba9cc575	-0.0011960702
30	0x00000000	0.0
31	0x00000000	0.0
