GNN_method/ResultsGCNN/actor_94.pt (torch, 83520 bytes, 43 tensors)

row_embedding.0.weight f4 [7]
000000 0a da 80 3f bc 6a 80 3f bd d9 7f 3f f7 1f 80 3f
       1.006654 1.0032573 0.9994162 1.0009755
000010 5c 67 7f 3f 54 b3 80 3f 9c 09 80 3f
       0.9976709 1.0054727 1.0002933

row_embedding.0.bias f4 [7]
000000 99 02 5d bb 6c 61 a6 ba 85 e6 8d ba d5 51 e7 ba
       -0.0033723472 -0.0012693829 -0.0010826146 -0.0017648289
000010 4f 9c 1d 3b 99 90 98 bb 82 29 4f 3a
       0.0024049466 -0.0046559093 0.00079026085

row_embedding.1.weight f4 [32, 7]
000000 f1 19 4b 3d 28 a3 3c 3d b6 07 0d 3e ef 12 b6 be
       0.049585287 0.046054035 0.13772473 -0.3556132
000010 70 c4 39 be ad 35 78 3e 53 44 ab bd 55 80 89 be
       -0.18141341 0.24239226 -0.08362641 -0.26855722
000020 52 44 87 bd 96 e6 27 bd 71 2c db bd a4 f0 46 3e
       -0.06604828 -0.04099139 -0.10701836 0.19427735
000030 52 2a 71 3a e1 ff a8 bd 3e f8 00 be 1b c0 95 be
       0.00091997266 -0.0825193 -0.12594697 -0.29248127
000040 e2 d1 90 be d0 ac 85 3e 08 4d a2 3e 36 0c a1 3c
       -0.28285128 0.26108408 0.31699395 0.019659143
000050 46 cd 4e be 4f 31 54 be ae 67 0c 3e 0b b4 a2 3e
       -0.20195493 -0.20721935 0.13711426 0.31777987
000060 82 17 b7 be 70 5c da 3c 1b 03 a0 3b 95 84 44 3e
       -0.35760123 0.026655406 0.0048831827 0.19191201
000070 0b af 0e be 48 6c 06 bd 41 3f 9d be 6b 16 56 3e
       -0.13933961 -0.03281811 -0.3071232 0.2090699
000080 ac 84 4f be 7b 80 4e be 41 6c 48 be ef 6b db bd
       -0.20265454 -0.20166199 -0.19572546 -0.10713946
000090 ea bd 6c 3d d9 b5 0c bc c3 e4 b7 be 54 6b be 3d
       0.057798304 -0.008588278 -0.3591672 0.09297815
0000a0 63 a3 55 be 10 ef 9f 3e 14 5f 8a be 5b e6 ab be
       -0.20863108 0.31237078 -0.27025664 -0.33574185
0000b0 9a fe 8b 3e c0 e7 66 be ed a8 a0 be e3 a1 6c bd
       0.27342683 -0.22549343 -0.3137888 -0.057771575
0000c0 2e 17 85 3c 1a 3f 78 be 31 c1 88 3e a7 12 6a 3e
       0.016246404 -0.24242821 0.26709893 0.22858678
0000d0 c2 09 86 3e 5e 2f 5a 3e 6f eb 07 3d a3 9c 11 3d
       0.2617932 0.21307132 0.03318351 0.03554977
0000e0 d5 54 0d be a1 c3 93 bd fe e5 e5 3c b0 07 1c 3c
       -0.13801892 -0.07215048 0.02806377 0.009523317
0000f0 1d f9 10 be 3a 4e 58 be 10 81 8a 3e 89 47 4f 3d
       -0.14157529 -0.21123591 0.27051592 0.05060533
000100 81 43 af be ee cd 44 be a2 54 b9 3e 13 77 42 be
       -0.3423119 -0.19219181 0.36197382 -0.18990736
000110 6b 26 84 3e bf 30 b2 be d5 59 8b be 22 e8 ac 3e
       0.2581056 -0.34802815 -0.27216974 0.33770853
000120 61 f0 c2 bd df 16 be bb e2 e6 1f bd 90 81 80 be
       -0.09518505 -0.0058010663 -0.039038546 -0.25098848
000130 f3 bf 81 3e 63 d9 39 be c4 61 44 3c 4f bf b6 be
       0.25341758 -0.18149333 0.0119862 -0.35692832
000140 f9 2a 9b bd db 3a 82 bc c5 f4 83 3e 84 c9 0b 3e
       -0.07576556 -0.015897205 0.25772682 0.13651091
000150 c1 6e 94 3e 24 88 90 bd e3 bb 9d be 9f 2c da bd
       0.2899075 -0.07057217 -0.3080741 -0.10653042
000160 07 a6 90 bd 49 00 a3 3e e9 72 68 be d4 9e 81 3e
       -0.07062917 0.31836155 -0.22700085 0.2531649
000170 7a e8 5b 3e 48 97 5e be 18 b1 7d be 2a 03 20 be
       0.21475402 -0.21737397 -0.24774587 -0.15626207
000180 76 cd 19 be c3 4e 8b be 04 b2 bb be 48 57 b0 3d
       -0.15019783 -0.27208528 -0.36659253 0.086103976
000190 69 a0 cd 3d 4d f5 8e be 92 4e 8c 3e 9c e9 11 be
       0.100403614 -0.27921525 0.27403694 -0.14249271
0001a0 34 e5 ee bd 34 2d 95 3d 3d 88 95 3e ef 79 a4 be
       -0.11664811 0.072840124 0.29205504 -0.32124278
0001b0 3f dc a2 bd ea e6 e1 3d bf 6c a2 be 30 a6 97 3e
       -0.07952165 0.110303715 -0.31723592 0.29618979
0001c0 90 4d 13 3e dc 5e a6 3e a0 15 f7 bc 17 ca 34 3e
       0.14385056 0.32494247 -0.030161679 0.17655216
0001d0 fb 8a 80 be 62 06 b5 3e 11 be c2 3d 51 fc 49 3e
       -0.25106034 0.35356432 0.095089085 0.19725157
0001e0 59 40 5c be 3f f0 86 be f3 df a4 be ea 12 b0 be
       -0.21508922 -0.26355168 -0.3220211 -0.3438943
0001f0 9e 2e a6 3b c5 09 c9 bc 17 33 b3 be 6c 72 b1 3e
       0.005071475 -0.024540791 -0.34999916 0.3465761
000200 f9 47 2e be d5 05 9c be 6e 2e 2a be 88 7f a0 3e
       -0.17019643 -0.304732 -0.16619274 0.313473
000210 de 6b a6 3d fe 6e 4c be ef ae 2e be fe c6 7b be
       0.08126043 -0.19964215 -0.1705892 -0.24587628
000220 89 b2 f6 3d 0d e6 7c 3e 4a e0 49 be 9a 42 ba 3e
       0.12045772 0.24697132 -0.19714466 0.36378938
000230 84 46 a7 3e 3e e6 fe 3d 48 50 27 bc e1 84 8d 3e
       0.32670987 0.12446259 -0.010212012 0.2764044
000240 b2 6e d9 3d 84 31 aa be 2b bb 82 be ff 55 47 3e
       0.106168166 -0.33240902 -0.25533423 0.19466399
000250 1d 52 e2 3c 8a 2a b4 3e 35 80 89 be 56 e7 90 be
       0.027627045 0.35188705 -0.26855627 -0.28301495
000260 57 62 d4 bd d3 4c 68 be ae 5a 94 3e 16 58 09 3d
       -0.10370319 -0.22685556 0.28975433 0.03353127
000270 66 78 04 be 61 84 5b bd 7a 75 ef 3c d0 be 8e be
       -0.12936553 -0.053593043 0.029230822 -0.27879953
000280 b3 08 21 3d d0 e9 7c be 5e 7a 6e 3d a6 ca 09 3e
       0.039314937 -0.24698567 0.058222167 0.1345621
000290 66 70 6a be 9c c3 52 be b1 2d 08 bc 04 88 99 3e
       -0.22894439 -0.20582432 -0.008311675 0.29986584
0002a0 93 af 3e 3e af 61 bb bd a5 25 a9 3e 5c 71 c9 3d
       0.18621664 -0.09149491 0.33036533 0.09836075
0002b0 00 5e bb 3e ac bc 88 3e 4f 86 85 be 53 b6 b8 3c
       0.36595154 0.26706445 -0.26079032 0.022547876
0002c0 78 1f 6d 3e 42 63 9e 3d f4 fc f2 3d 57 6c 9f 3e
       0.23156536 0.07733776 0.11864653 0.31137344
0002d0 ef cf 8e be 62 69 fd 3d 72 ae fa bd 2f 88 20 be
       -0.27893016 0.12373616 -0.12240304 -0.1567695
0002e0 02 f3 ad 3e f3 2c 8a 3e 0e 07 7d 3e 18 50 15 3d
       0.33974463 0.2698742 0.24709722 0.036453336
0002f0 07 6c 96 be f3 bf ad 3e 46 78 ce 3d 03 0d 1f bd
       -0.29379293 0.33935508 0.10081534 -0.03883077
000300 6a 2b 93 be a4 dc da bd 20 ef a7 be a4 36 98 3e
       -0.2874406 -0.10686615 -0.32799625 0.29729187
000310 3a 26 a6 3e 42 75 94 3d 93 c2 a1 3e e7 fe 75 be
       0.3245104 0.07248928 0.3159376 -0.24023019
000320 fa 9f 5a be a7 01 38 3e 62 d1 be 3e 44 50 76 be
       -0.21350089 0.1796938 0.3726912 -0.24054056
000330 45 6d 9d be f4 5f 04 3e d4 18 eb 3d 14 f2 87 3e
       -0.3074743 0.12927228 0.11479345 0.26551878
000340 35 55 66 3d fd ea c1 be 51 e9 18 3e 7b 7b 3d be
       0.056233604 -0.37874594 0.14932753 -0.18504135
000350 ab 50 48 3e b1 7c 8f be 92 c4 95 be 0d 5b 0a 3d
       0.19562022 -0.2802482 -0.29251534 0.03377824
000360 8b 98 7f bd aa ef b2 be fc ce 3e be e3 52 9e be
       -0.062401336 -0.34948474 -0.18633646 -0.30922613
000370 16 b3 da 3d e7 53 cd 3d e9 9f f1 bd d5 53 a1 be
       0.10678689 0.10025769 -0.117980786 -0.3150927

row_embedding.1.bias f4 [32]
000000 5a 39 53 bd f7 72 83 3e 48 9b e1 3d dd be bc be
       -0.051568367 0.2567365 0.11015946 -0.36864367
000010 86 9d a5 3d 9b 45 ef bd a1 3f 9f 3c 64 a6 db bd
       0.08086686 -0.11683198 0.01943952 -0.10725096
000020 11 57 1e 3e 44 db 56 be 9b 00 b3 be 26 f9 cf bc
       0.154629 -0.2098208 -0.349614 -0.025387358
000030 16 eb a1 3e a7 54 1b 3e 4f 76 b1 3e 6e a1 db 3d
       0.3162467 0.15169011 0.34660575 0.1072415
000040 21 b6 24 be 01 35 78 3c 9e 71 f3 bd ae fa 9f 3e
       -0.16085102 0.015149356 -0.11886905 0.3124594
000050 6c 78 8f 3e b7 82 e7 bc 2a 50 5c 3e 2f 0a d1 bd
       0.28021562 -0.028260572 0.21514955 -0.102070205
000060 ae 8d a4 3e 53 d3 54 3e 41 c2 16 be 99 37 00 3e
       0.32139343 0.20783739 -0.1472254 0.12521209
000070 17 25 97 be a6 d6 47 be 4b 6e b4 3c 95 83 5d be
       -0.29520485 -0.19515476 0.022025248 -0.21632226

row_embedding.3.weight f4 [32, 32]
000000 66 2c fe bd f8 dd 20 bd 7d 53 93 3d af e7 3e 3c
       -0.12410812 -0.039274186 0.071936585 0.011651917
000010 14 d7 cf 3d 57 03 9c 3b 27 cf 27 3e 37 45 15 3e
       0.10148445 0.0047611403 0.16387616 0.14577185
000020 72 57 d1 3d a3 1e 15 be 98 7d 15 3d e6 9c 02 3d
       0.10221757 -0.14562468 0.03649673 0.03188791
000030 2a f6 ce 3d f8 60 1f bb 86 af 0c 3e 72 99 20 3e
       0.10105546 -0.0024319272 0.13738832 0.15683535
000040 ef dc 1c 3e 6e 26 1e 3d c2 23 f5 bd 6e 20 db 3d
       0.15318654 0.03861087 -0.11969711 0.10699545
000050 38 57 19 3d 90 8a 5a 3d 0a 38 33 3d 3c 49 eb 3d
       0.037436694 0.0533548 0.043754615 0.11488578
000060 5b b0 26 be b1 77 d9 3d f1 86 03 3e 23 c7 19 3e
       -0.16278212 0.106185324 0.12844445 0.15017371
000070 aa a6 91 3c 90 48 1c be 52 65 16 3e b2 b8 e6 bc
       0.017779667 -0.15262055 0.14687088 -0.028164241
000080 19 da 0a 3d ca ce eb 3c 16 fe 36 be bd 1f 01 3c
       0.0338994 0.028785128 -0.17870364 0.007881102
000090 83 46 8f bc 9a 34 58 bd 10 3b a0 3d e8 7c 31 3d
       -0.017489677 -0.05278454 0.07823765 0.04333201
0000a0 6e 45 bf bd b9 21 23 bd 30 c5 db bd c8 04 25 be
       -0.093394145 -0.039827082 -0.1073097 -0.16115105
0000b0 b5 f1 af 3d eb 31 c8 3d 5b 8b 20 3e a6 31 2b be
       0.08591024 0.09775146 0.1567816 -0.16718158
0000c0 6b c6 41 bd 62 d1 05 3e 99 6d 94 3d 14 5f 0b be
       -0.047308367 0.13068154 0.072474666 -0.13610488
0000d0 35 3c 00 3e 52 99 f9 3d 58 46 03 3e bc e3 f9 3d
       0.12522967 0.12187447 0.12819803 0.1220164
0000e0 6f 79 0f 3e 24 94 93 bd 3a 8e 0f 3e 31 fa db 3d
       0.14011167 -0.0720599 0.14019099 0.107410796
0000f0 dd 63 09 be 74 32 70 3d 5f ff 0b be d1 c7 bf bd
       -0.13417001 0.058641866 -0.13671635 -0.09364284
000100 79 88 66 3c 63 63 26 3e 1a d0 da bd 2b 55 17 be
       0.014070624 0.1624885 -0.106842235 -0.14778583
000110 a7 23 2d 3e 1d e6 ad bd 68 12 28 be 98 02 90 bd
       0.16908132 -0.08491156 -0.16413271 -0.07031745
000120 24 82 f2 3d 2b da fe 3c 17 4c 25 3e 83 21 d2 3d
       0.118412286 0.03110989 0.16142307 0.10260298
000130 0d 05 1d 3c f7 05 25 3e 46 dd a5 bd fb 9f ad 3d
       0.009583724 0.16115557 -0.08098845 0.084777795
000140 c2 d6 1a bd 17 ca a0 bc 67 81 34 3d 15 5a ff 3d
       -0.037802465 -0.019627614 0.04406872 0.12468354
000150 bb 57 1a 3e 6d bc 4b 3d 86 88 6e bd 5e 3a 2e 3e
       0.15072529 0.049740244 -0.058235668 0.17014453
000160 6e 0c 04 3d db 58 67 3d 60 ed 62 3d 68 ef 2a be
       0.032238416 0.056481224 0.05540216 -0.16692889
000170 e7 87 28 3e 59 25 28 3e b2 6e 03 3e 27 f0 1c 3e
       0.16458093 0.16420497 0.12835196 0.15325986
000180 34 21 a4 bd 68 34 1e bd 7f e6 1e be 3c 37 66 3d
       -0.080141455 -0.038624197 -0.15517615 0.05620502
000190 cc 2f 3e 3d 01 57 70 3d 0b 0b 2d 3e 60 fe c8 bc
       0.0464323 0.058676723 0.16898744 -0.024535358
0001a0 90 88 b3 3d 93 fd eb 3d a8 1d df bd 82 f3 03 bd
       0.087662816 0.11522975 -0.10894328 -0.03221465
0001b0 93 a7 01 3e b2 1d d5 bd ea 37 79 3d 51 0c b4 3d
       0.1266158 -0.104060546 0.06084434 0.08791412
0001c0 51 07 a3 bc 40 33 2c 3e 96 f3 8d bd fa 0a 92 3d
       -0.01990095 0.16816425 -0.06931226 0.07131
0001d0 71 a3 26 bd 60 a3 22 be 32 d9 93 3d 22 93 8b bd
       -0.040683214 -0.15882635 0.07219161 -0.06815173
0001e0 f2 c7 7a bb d8 f0 1c 3e 3f 33 a4 bd a6 f5 87 bd
       -0.003826615 0.1532625 -0.08017587 -0.066386506
0001f0 f7 41 34 be cd bb 02 be f3 9f f1 bd 6e 03 34 3d
       -0.17603289 -0.12766953 -0.11798086 0.043948583
000200 46 e4 b4 3d 65 32 f0 bc a6 43 ea bd a3 e7 fc 3b
       0.08832602 -0.029320905 -0.11438684 0.007718043
000210 b8 53 ac 3d 52 2b 88 bd 01 46 e6 bd 84 00 bd 3d
       0.084144056 -0.06648888 -0.11243821 0.09228614
000220 e0 0b 31 be 8a f9 94 3d ec 77 0d 3e 59 60 31 be
       -0.17289686 0.07274158 0.13815278 -0.1732191
000230 9f bd 49 bd c2 72 36 bd bb ef 17 3c 25 01 3e be
       -0.049253102 -0.044543035 0.009273465 -0.18555124
000240 37 61 e2 bd 69 cc d2 bd f5 6b 89 3d b5 5d 7e 3d
       -0.110536985 -0.102928944 0.06710044 0.062101085
000250 96 fa 0f be 83 2f 31 3d d4 f4 8c 3a df a0 80 3d
       -0.14060435 0.0432582 0.0010754117 0.06280684
000260 01 48 8d bd 8e e8 ed 3d eb e8 a6 bd 8d 46 0e be
       -0.06898499 0.11616622 -0.08149894 -0.138941
000270 ba 40 d1 3d 98 46 32 be f0 1d ef 3d 54 4c 4d bd
       0.10217424 -0.17409742 0.11675632 -0.05012162
000280 0a b8 b2 bd 67 40 23 be 90 c6 07 bd 7d da 7a 3d
       -0.08726509 -0.15942536 -0.03314835 0.061243523
000290 13 62 66 bd 5d 18 27 3e 9b cf bd 3d 50 0f 78 3d
       -0.056245875 0.16317888 0.09268113 0.06056148
0002a0 38 bb 28 be 71 ed 7b 3b 7d be 01 be 09 25 3d 3d
       -0.16477668 0.0038441087 -0.12670322 0.046177898
0002b0 ba 1f 21 bd 12 1a e0 3d 47 fc 21 bb d5 8a 27 be
       -0.039336897 0.109424725 -0.002471702 -0.16361554
0002c0 b1 bd c6 bd 67 d4 33 be a8 0f 37 bd 9b 2a ae 3d
       -0.097041495 -0.17561494 -0.044692665 0.0850422
0002d0 15 f3 13 be 6f aa f0 3d 8b 8c 32 be 66 45 58 bc
       -0.14448197 0.11751258 -0.17436425 -0.01320014
0002e0 01 ef 1b 3a bd 4f b5 bd 12 70 1c be 49 3b c6 bd
       0.0005948395 -0.088530995 -0.15277126 -0.096792765
0002f0 ba 17 13 be f9 37 a4 bc dc e4 db 3c 85 d0 27 be
       -0.1436452 -0.020046221 0.026842527 -0.16388138
000300 a6 c2 a3 3d 56 57 03 3e c8 16 f9 3d ae f9 36 bd
       0.079961106 0.12826285 0.12162548 -0.044671707
000310 dc d8 0f 3e 46 89 79 3d 74 0d 02 be 8c f3 ae bd
       0.14047569 0.06092193 -0.12700444 -0.08542547
000320 c4 02 1b be 59 35 a6 3d ea 3c 06 3e e6 6a 8f 3d
       -0.15137774 0.08115644 0.13109174 0.07002811
000330 05 65 fa bc 85 f7 16 be 27 7f 2e be 7e f9 be 3c
       -0.030565748 -0.14742859 -0.17040692 0.023312327
000340 83 62 d6 bc 15 60 0e 3e 86 8f 98 bd 6b bf 0f 3e
       -0.02617002 0.1390384 -0.0744925 0.14037864
000350 44 bc b6 3d 17 ce d9 3d 61 fe 23 3d fc db 0a 3e
       0.089226276 0.10635012 0.040037517 0.1356048
000360 b6 5d c1 bd 3a 3a 46 bd 5d 10 b8 bd 6d 5c 60 3c
       -0.09441702 -0.048395373 -0.08987496 0.013693911
000370 d8 27 29 3e f6 01 46 bd 6b 44 25 bd fd ba da 3d
       0.16519105 -0.048341714 -0.04034845 0.106801964
000380 28 c8 5f bd a8 f5 2d bd 74 a9 ed bd 68 55 03 be
       -0.054634243 -0.042470604 -0.11604586 -0.12825549
000390 0c 01 1b 3d eb c5 0d 3e 4b 29 0f 3e c5 63 ca bd
       0.037842795 0.13845031 0.13980596 -0.09882311
0003a0 3e 62 b5 3d 63 01 d8 bd b3 fc 31 be 4f 30 0d bb
       0.08856629 -0.105471395 -0.17381553 -0.0021543687
0003b0 3e 80 1d 3e d0 0e 94 bc 0c f3 15 be 60 58 73 bd
       0.15380952 -0.01807347 -0.14643496 -0.059410453
0003c0 d3 ba 8e 3d 8a 51 09 3e 21 04 33 be 21 9b 37 3d
       0.06969228 0.13410011 -0.17482044 0.044825677
0003d0 af 8c 80 3d f2 98 30 3d 36 f7 30 be 75 8b 7c bd
       0.06276833 0.04311461 -0.17281803 -0.061656434
0003e0 fa 85 be bc d7 d8 c6 bd 0e bd fb bd c6 01 04 3d
       -0.023257244 -0.09709328 -0.12291919 0.032228254
0003f0 15 58 84 bc e8 51 c7 ba 93 4e fb bd 44 92 12 3e
       -0.016155282 -0.0015206905 -0.12270846 0.14313608

row_embedding.3.bias f4 [32]
000000 aa 2f de 3d 36 20 58 bd e6 4c 79 bd e9 34 30 bd
       0.10848935 -0.052765094 -0.06086435 -0.04301921
000010 7f 55 4d 3c 03 ea 04 be 58 59 d7 3d 03 b5 11 3e
       0.012532591 -0.12979893 0.10515088 0.14229207
000020 f5 6f 80 bd a0 e0 d1 3d 36 c8 07 3e c7 73 ca 3d
       -0.06271354 0.10247922 0.13259968 0.09885364
000030 e2 97 9e bc c9 ab 33 3d 8a 65 d6 3d 82 45 d8 3d
       -0.019359533 0.043865 0.10468586 0.105601326
000040 f1 a7 c5 3d a3 59 95 bd 83 05 47 3d 0b c1 c3 3d
       0.09651173 -0.072924875 0.04858924 0.095583044
000050 91 f5 04 bc 66 2d 06 3d 78 00 5f 3d 6b 5c 85 3d
       -0.008115188 0.03275814 0.054443806 0.06511768
000060 42 1c db 3d f3 6c 2c 3d 8c ee 28 3e 66 d7 66 bd
       0.10698749 0.04209609 0.16497248 -0.056357764
000070 c8 0e e7 3b 8a 20 0e bc 98 fb 17 be 8c 6e f5 3d
       0.0070513226 -0.00867475 -0.14842069 0.11983976

col_embedding.0.weight f4 [7]
000000 65 7d 7f 3f 49 02 80 3f fb e0 7f 3f 40 05 80 3f
       0.9980071 1.0000697 0.9995267 1.0001602
000010 5a 8b 7f 3f f5 ca 7f 3f 4d 12 80 3f
       0.9982201 0.9991906 1.0005585

col_embedding.0.bias f4 [7]
000000 03 d6 13 bb 3c 48 ba b8 da 88 bd b9 72 17 8e b9
       -0.002255798 -8.882626e-05 -0.00036150852 -0.0002710182
000010 68 11 78 3a 56 fb 79 3a 3a e7 41 3a
       0.0009463043 0.0009536048 0.0007396821

col_embedding.1.weight f4 [32, 7]
000000 b5 51 b4 3e 42 a2 c4 3b 69 72 17 3a 1c dd 31 be
       0.35218588 0.006000788 0.00057772413 -0.17369503
000010 5a 33 8d 3e 32 f2 b9 be 82 1e cd bd 36 0b ee bd
       0.2757824 -0.36317593 -0.100155845 -0.11623232
000020 9e 74 84 be 4c 10 28 be ff 3a 3e 3e 33 88 5a be
       -0.25870222 -0.16412467 0.18577193 -0.21341018
000030 06 aa a7 3b 9f f8 71 be 20 0f 4a be 1d c6 53 3c
       0.005116704 -0.23629998 -0.19732332 0.012925652
000040 01 c1 8a 3e 32 4c 35 be b9 5d fb 3c 2e 53 b8 3d
       0.27100375 -0.17704847 0.030684339 0.0900024
000050 83 88 57 3e 4c 15 91 3e 2f d9 90 3e 3d d8 d2 bd
       0.21048169 0.2833656 0.28290698 -0.102951504
000060 b3 a2 79 3d 40 a4 9d be 8a 3a 8f bc 2d d2 35 3e
       0.060946178 -0.30789375 -0.017483968 0.17755957
000070 8a 0c 17 3e 32 d3 a4 3e b6 ed 96 3e f0 6c 36 be
       0.14750877 0.3219238 0.29478234 -0.17814994
000080 f9 a8 86 bd 59 45 80 be 78 74 ba be da 2e c1 be
       -0.06575198 -0.25052908 -0.36416984 -0.37731057
000090 1b 17 19 3d 14 53 91 bd 06 26 77 3e 6b c7 6a be
       0.03737555 -0.07095924 0.24135599 -0.22927634
0000a0 71 4c 2c 3e 43 02 f8 bd af f1 08 bd 10 fb b9 3e
       0.16826035 -0.121098064 -0.033433612 0.36324358
0000b0 b4 f8 be 3e 18 66 51 3e ea 0f 6c 3e a1 23 15 3d
       0.3729912 0.20449102 0.23052946 0.03641093
0000c0 0c 1a 30 3e 8b cd 9e 3d 0b a4 fc bd b4 a4 3d 3e
       0.17197436 0.07754048 -0.12335976 0.1851986
0000d0 76 d8 b5 be ce c5 8f 3d 64 56 94 3d e9 ff 05 3e
       -0.3551671 0.0702015 0.0724304 0.13085903
0000e0 43 5c e1 bd 34 e0 38 be 2f dd be bd ba b3 5a bc
       -0.11003926 -0.18054277 -0.09319531 -0.013348514
0000f0 9c 36 65 be 7c 29 1e be df 05 37 3e c5 4a 9a 3d
       -0.22384113 -0.15445513 0.17873333 0.075337924
000100 2b 6f a6 be 2e 9e 5b bd 22 cb c8 bc 97 37 27 3e
       -0.3250669 -0.05361765 -0.024510924 0.163298
000110 f2 51 9a 3e d9 2a c1 be 4a 88 ba 3e 90 3b 97 3c
       0.30140644 -0.37728003 0.36432105 0.018461019
000120 68 85 b9 3e 4c 13 03 be 26 f6 91 be 84 a1 73 be
       0.36234593 -0.1280033 -0.2850811 -0.23792082
000130 0f f2 6f be 91 17 b7 3e ca bb 07 3e b8 ca 88 be
       -0.23432182 0.35760167 0.1325523 -0.26717162
000140 45 e1 85 bd 87 d7 31 be fb cb 6c be 40 c2 62 3e
       -0.065371074 -0.17367373 -0.23124687 0.22144413
000150 26 27 96 3e 61 2e 99 be 46 eb c5 3c d6 64 7d 3e
       0.29326743 -0.29918197 0.024160039 0.24745497
000160 85 20 26 3e b8 b2 95 bd 93 a1 69 be 05 dc a5 be
       0.16223343 -0.073094785 -0.22815542 -0.32394424
000170 1e 16 56 be cf 34 6e 3c a5 16 09 bd 00 98 4b 3e
       -0.20906875 0.014538958 -0.03346886 0.19882202
000180 5b ce 29 3e a3 5b 1c bc 41 4c 75 bc 0b 4a 3f 3e
       0.16582625 -0.009543332 -0.014971794 0.18680589
000190 aa 92 3e be 57 73 5d 3e f2 e1 a2 3e 3c 89 63 3e
       -0.18610635 0.2162603 0.31813008 0.2222032
0001a0 63 7e ae 3d 3e 7c 3e 3d a3 8c dc bc 19 58 4a 3e
       0.085202 0.046505205 -0.02692253 0.19760169
0001b0 6b 49 84 3e 39 31 d5 bc f7 d1 02 3e 05 f6 90 be
       0.25837263 -0.026024448 0.12775408 -0.28312698
0001c0 d1 bf 41 3e be e4 8b 3e da d5 d4 b9 19 e0 1d be
       0.18920828 0.27322954 -0.00040595123 -0.15417518
0001d0 9e 72 c0 bd a8 55 fc bd ba 80 af be 4b cc a7 3e
       -0.093968615 -0.12321025 -0.34277898 0.3277305
0001e0 b0 56 52 bc 09 ec a3 be 1c 8c 83 3e ff ba a2 3e
       -0.012838051 -0.32016018 0.25692832 0.31783292
0001f0 41 8b 9f 3e a2 43 6c be c1 95 83 be 92 1b 9e 3d
       0.3116093 -0.23072675 -0.2570019 0.07720102
000200 88 4f 8f 3d 56 38 62 be 9e bc 89 3d 4e 74 81 3e
       0.06997591 -0.22091803 0.06725429 0.25284046
000210 1f ad 8d be c7 8e be 3e ed c8 b2 be 57 d0 ad bd
       -0.27671143 0.37218305 -0.3491892 -0.08487003
000220 af 7a 64 bd 2f c7 b2 3d be 85 3e bc 87 c7 80 3e
       -0.055781063 0.087293975 -0.011628566 0.25152227
000230 2f 22 8a 3d 12 5b 23 be 11 09 be be ae 0b 95 be
       0.06744801 -0.1595271 -0.37116292 -0.29110473
000240 91 88 53 3e 26 62 22 3e d2 ee 50 3e 6b 08 30 bd
       0.20657565 0.15857753 0.20403603 -0.042976778
000250 39 d0 dd 3d 46 81 a4 be 72 05 32 3c 25 cc 1f be
       0.10830731 -0.32129878 0.010865556 -0.15605219
000260 3e 81 81 be b1 61 b8 bd 10 9d 66 3e 1d 55 6c 3e
       -0.25293916 -0.09003008 0.22520852 0.23079343
000270 9f 33 6a 3d db 80 82 bd 11 bd 31 be 39 19 73 bc
       0.057178136 -0.063722335 -0.1735728 -0.0148375565
000280 78 dc 3e bd 55 a0 66 3e d7 71 eb 3d 4f 97 92 be
       -0.046596974 0.225221 0.114963226 -0.28631064
000290 fa ec a3 be da e2 ff 3d 3a 29 e9 3c c1 e4 0c 3e
       -0.32016736 0.124944404 0.028462041 0.13759138
0002a0 2d 62 2c be 4a 02 25 3e d5 e4 9c be e3 63 b0 3d
       -0.16834326 0.16114154 -0.30643335 0.08612802
0002b0 23 59 83 be e1 94 98 be a3 b9 a1 bd 9b 36 8b 3e
       -0.25653943 -0.29801086 -0.078967355 0.27190098
0002c0 34 80 84 be 59 8c 88 be b7 05 3f 3e db 92 b4 be
       -0.2587906 -0.26669577 0.18654524 -0.35268292
0002d0 b5 93 05 bc 1c 27 87 be 74 45 89 3e 38 6d 63 bd
       -0.008152892 -0.26397026 0.268108 -0.05552408
0002e0 99 99 c8 bd d9 0b 69 be 3a 9f cc 3c b2 5b 14 3e
       -0.097949214 -0.22758426 0.024978269 0.14488104
0002f0 ba bb cb 3d b6 61 49 3e 83 10 be 3e 06 09 3d 3e
       0.099479154 0.1966618 0.37121972 0.18460473
000300 06 29 a0 3e 82 c4 9d 3d dd 26 6e be 88 03 97 be
       0.31281298 0.077034965 -0.23257013 -0.29494882
000310 4a 83 b7 3e bf ee 0b be 78 34 a7 3e 0a 84 55 3d
       0.35842353 -0.13665293 0.32657218 0.052127875
000320 a2 53 06 be 32 fb 63 be 97 33 b2 be b3 ee 8d 3c
       -0.13117841 -0.22263792 -0.34804985 0.017325735
000330 4f 8c cd 3d 67 1d b7 bb 1c d1 9b be 18 11 90 3e
       0.10036527 -0.005588222 -0.30432975 0.28138041
000340 3e 80 87 3e 75 2a b7 3e d1 68 b2 3e 42 6c d2 bd
       0.2646503 0.3577458 0.34845594 -0.10274555
000350 b8 fc 43 be 21 b5 36 3e 7b e5 31 3c 0a 4b 11 3e
       -0.19139373 0.17842533 0.010857935 0.14188781
000360 07 8b 5b bd 9d 7d 33 3e 88 4c bb be 9d 94 b0 3e
       -0.053599384 0.17528386 -0.36581826 0.34488383
000370 06 90 22 3e b9 83 b9 3e 08 75 ab 3b cb 09 75 3e
       0.15875253 0.3623331 0.005232457 0.23929517

col_embedding.1.bias f4 [32]
000000 5b 31 88 be 87 88 30 be 80 df 9e bd bb 33 93 be
       -0.26600155 -0.17239581 -0.07757473 -0.28750405
000010 3d 68 9a be a0 42 8b 3e 8b d6 48 be 9c 85 24 be
       -0.30157652 0.27199268 -0.19613092 -0.16066593
000020 46 e3 23 bd 9e 21 16 bd 22 b0 c5 3d 89 89 8a 3e
       -0.040011667 -0.036653154 0.09652735 0.27058056
000030 6b 25 6d 3d e0 b7 2e be 6a a9 ff 3d 5b 02 c1 be
       0.057897013 -0.1706233 0.12483485 -0.3769711
000040 50 83 b5 3e 44 cc c7 3b 26 d4 53 be 0b d2 25 bd
       0.35451746 0.0060973484 -0.20686397 -0.040483516
000050 49 d9 d7 bc a7 34 a9 be 86 69 8e 3e 15 b9 9c 3d
       -0.026348727 -0.33047983 0.27814883 0.07652489
000060 25 07 b5 be 00 f9 9b 3e 16 b7 8f be 1f a9 a7 bd
       -0.35357013 0.3046341 -0.2806937 -0.08186554
000070 d5 ff e7 3d 23 7b b5 3e 1b d1 53 bd d6 c2 ab 3e
       0.11328093 0.35445508 -0.05171309 0.33547086

col_embedding.3.weight f4 [32, 32]
000000 d8 28 0b 3e cf de 02 3e 35 7f e3 bb e1 3c 10 be
       0.135898 0.12780307 -0.0069426545 -0.14085723
000010 24 80 9d 3d 85 58 02 bd 8d 51 2b be 2a ba 0b 3e
       0.076904565 -0.0318227 -0.16730328 0.13645235
000020 b4 83 0d 3e 35 c1 18 3e 35 aa c1 3d 4f 8d e1 3d
       0.13819772 0.14917453 0.094562925 0.110132806
000030 60 1c 15 be 86 86 d6 bb 83 71 6e 3d 4a 8c 95 3d
       -0.14561605 -0.006546798 0.058213722 0.07302149
000040 30 34 63 bd 7e a8 17 bd b2 a5 06 be 39 4c 21 be
       -0.05546969 -0.03702592 -0.13149145 -0.15751733
000050 b1 7c e7 3b 8e 71 30 3e 28 87 f4 bd bd 13 28 3e
       0.007064425 0.17230818 -0.119398415 0.1641378
000060 db 0f 23 be 80 05 f7 bd c1 bd 0f be 5d 89 01 be
       -0.15924017 -0.12061596 -0.14037229 -0.12650056
000070 b4 df 14 3e 8d 49 3e 3b 87 31 45 bd bb cc 2e 3e
       0.14538461 0.002903554 -0.048142936 0.17070286
000080 15 b8 b1 3d 8f ed 0c be 6c 88 1a 3e b2 38 b6 bd
       0.08677689 -0.13762496 0.15091103 -0.088975325
000090 ec 79 c1 3d f2 d9 4a 3d d1 74 68 3d 47 f3 49 bd
       0.09447083 0.049524255 0.05675203 -0.049304273
0000a0 56 ce 25 3e ff 28 9d bb 31 4e d7 3d 1e 35 f5 3d
       0.16191992 -0.004796147 0.10512961 0.11973022
0000b0 90 f3 1d be 0f 48 f8 bc 8b 9e cf bd 97 6d a0 bc
       -0.15424943 -0.030307798 -0.101376615 -0.019583507
0000c0 4c 1c 19 be ff af 94 bc b3 85 ec bd da bb 8b bd
       -0.149522 -0.018150328 -0.115489386 -0.06822939
0000d0 9d f2 c4 3d 34 d7 70 bc 38 29 27 3e 2f 95 73 3d
       0.09616587 -0.014699746 0.16324317 0.059468444
0000e0 3c a8 6a 3d 4a 43 3a 3d f0 fc 34 be 8d 56 2d 3e
       0.057289347 0.045474328 -0.17674613 0.16927548
0000f0 96 6e f0 bb d3 1b 30 be 78 d4 d8 bb 95 11 b6 bd
       -0.0073374016 -0.17198114 -0.006617125 -0.08890072
000100 06 f8 73 bd 3a dd 37 bd 2c a0 ba bc 51 8b d8 bd
       -0.059562705 -0.044888712 -0.022781454 -0.105734475
000110 fe b5 d2 bd 89 0d 80 3d 85 82 20 3e e6 c8 33 3e
       -0.102886185 0.062525816 0.15674789 0.17557105
000120 66 c7 a3 bd ef 2a 22 be 54 cb 0e bd 7a 01 65 bc
       -0.079970166 -0.1583669 -0.034861878 -0.013977403
000130 31 7f 1e be 39 e3 06 be ef 17 39 bc c9 a1 91 3d
       -0.15478207 -0.13172616 -0.01129721 0.07110936
000140 43 76 9e 3a 74 b2 57 bd 38 ac c1 bc f7 0b 26 3e
       0.0012089688 -0.05266042 -0.02364169 0.16215502
000150 a9 38 99 3d 83 74 cb bd 10 87 d7 3d 84 cf f4 3d
       0.0748151 -0.09934332 0.10523808 0.11953643
000160 fe 4b c6 bd f1 28 0c bd 92 89 e0 3d b6 40 a9 3b
       -0.09682463 -0.034218732 0.109637395 0.005165185
000170 01 eb e8 3c e8 19 20 bd 94 6b 2b bd 15 9b ac 3d
       0.028432371 -0.039087206 -0.04185064 0.08428017
000180 eb 6c d9 3d 5e a2 35 bd 26 91 b1 bc 9c 3c d4 3c
       0.106164776 -0.0443443 -0.021675657 0.025907807
000190 d6 6b a1 3d dc 61 2f be 86 91 90 bd 2a 18 d7 3d
       0.07881896 -0.17127174 -0.070590064 0.10502656
0001a0 38 0d 1f 3e 79 f3 2d be 97 06 28 3d b5 c1 41 bd
       0.15532386 -0.16987409 0.04102191 -0.047303874
0001b0 65 a1 83 3d 6f f0 14 bc 9e 46 9a bd 04 a9 14 be
       0.06427268 -0.009090527 -0.075330004 -0.145176
0001c0 3c 99 4f bd c0 06 14 3d a0 2e 4d bd 23 e2 ec 3b
       -0.050683245 0.03613925 -0.050093293 0.007229106
0001d0 e6 ed 78 3d 8e d6 eb 3d 49 76 f6 3d 59 51 81 3d
       0.060773753 0.115155324 0.1203428 0.06314344
0001e0 3e 7c e7 3d 2b 0f 1c be 83 d8 f3 3d ea f4 c2 bc
       0.11302994 -0.15240161 0.11906531 -0.023798425
0001f0 77 79 f6 3d 1d 94 0b 3e 1e bc 0f 3e b1 c3 87 3d
       0.12034886 0.1363072 0.14036605 0.06629122
000200 0c fb d8 3d 75 bc 76 3d e7 01 02 3d d6 54 b6 bd
       0.105947584 0.06023832 0.031740095 -0.089029
000210 99 a8 19 3c d1 f9 10 3e aa 7c 13 bd 44 d0 e9 bc
       0.009378576 0.14157797 -0.03600756 -0.028541692
000220 5b e3 08 3e d4 de ca 3d be 9f a7 bd 2c 89 24 be
       0.13367979 0.09905782 -0.08184765 -0.16067952
000230 f3 29 9a 3c 14 98 09 be a1 86 06 be 2f 12 13 3e
       0.018818831 -0.1343692 -0.13137294 0.14362405
000240 2a bb d2 3d 2f 8b 28 be 01 e8 ba bd ca c5 c6 3d
       0.10289605 -0.16459344 -0.091262825 0.09705694
000250 32 d7 05 be af 48 96 3d b8 c6 fc 3c a9 63 fa bd
       -0.13070372 0.07338082 0.030856475 -0.1222604
000260 d7 89 d7 3b b1 8b 71 3d 73 e7 2d 3e 14 4a d8 3d
       0.006577711 0.05897111 0.16982822 0.10561004
000270 fb 26 d1 3c 9d d2 8d bd 1c da 23 be 63 db bc 3c
       0.025531283 -0.06924937 -0.16001171 0.02305383
000280 c9 1c d8 3c d3 32 8d 3d 9a b5 67 bd 61 d4 07 be
       0.026380913 0.068944596 -0.056569673 -0.1326461
000290 ff 5f e5 3d 0b b6 bb 3d 00 34 5f bd 88 b6 07 3e
       0.111999504 0.09165581 -0.05449295 0.13253224
0002a0 93 3b 1c 3e 14 ef d5 3d aa a5 ba bd 7a d6 ed bd
       0.15257101 0.10445991 -0.09113629 -0.11613174
0002b0 36 79 cc bd 5d 40 13 3e 5a 43 ec bd ea e8 4b 3d
       -0.09984057 0.14380021 -0.11536284 0.04978267
0002c0 04 55 3e bd ba 9c d0 bd 67 a8 0d 3e be 22 35 3d
       -0.046467796 -0.10186143 0.13833772 0.044222586
0002d0 f2 84 9a bd df c6 42 bd df 38 00 3e ae 83 97 bc
       -0.075448886 -0.04755294 0.12521695 -0.018495407
0002e0 44 f7 4a 3d cb 4a 0d be e1 c6 8a bd da 3e 43 bd
       0.049552217 -0.13798063 -0.067762144 -0.04766736
0002f0 6b db 15 3e 68 73 21 be 89 57 b3 3d f8 2f 35 3c
       0.14634483 -0.1576668 0.087569304 0.0110588
000300 3c 7e 3c 3d 0f 5d 7b bd cd ab ef 3d f8 62 80 ba
       0.046018824 -0.061368044 0.1170269 -0.000979512
000310 e1 c6 e6 bd 1d ee 80 bc cb 72 a2 3d b7 7d f8 3d
       -0.11268402 -0.015738541 0.07932051 0.12133353
000320 c1 c5 31 3e 40 6e 24 3e 64 5f eb bc 7f 15 c3 bd
       0.17360593 0.16057682 -0.02873201 -0.095255844
000330 cb a2 a5 3c 9f f9 22 be 8a a2 01 3e 3e a9 bd 3b
       0.020219227 -0.15915535 0.1265966 0.0057879975
000340 8d 4d 30 3e 70 e0 95 bd 28 79 cc 3d a9 aa 1f 3e
       0.17217083 -0.07318199 0.09984046 0.15592445
000350 f2 22 e9 bc d6 9b cf 3d cb 58 ec bd b2 e5 21 3e
       -0.028459046 0.10137145 -0.115403734 0.15810278
000360 92 56 2e 3d 8c 89 10 3e ab d7 b2 3c 50 5d 68 bc
       0.04256303 0.1411497 0.021831354 -0.014182404
000370 8e d5 44 3d ff 35 f8 3d 56 94 eb 3d c1 28 f8 bd
       0.048055224 0.12119674 0.11502902 -0.12117148
000380 58 04 f8 bd 9f 03 af 3d bb 0f 2c 3e dc f5 15 3e
       -0.121102035 0.085456125 0.16802876 0.14644569
000390 06 99 d0 bd cb a1 ca 3c ca ca 70 bc 4d a7 19 be
       -0.10185437 0.024735352 -0.014696786 -0.15005226
0003a0 91 f5 11 3e 42 0a 27 3e 3f 68 3e 3d 98 d8 e4 bd
       0.14253832 0.16312507 0.046486136 -0.111741245
0003b0 ef e0 93 bc d3 cf fa 3d 9b de ca bd 6c 49 3e bd
       -0.018051593 0.122466706 -0.0990574 -0.04645674
0003c0 f6 a7 b0 bd 54 f0 0b 3c 5c c8 9c bd c8 19 f5 bc
       -0.08625786 0.008541185 -0.07655403 -0.02991952
0003d0 91 1a 4d bd b7 a8 d8 3d 28 db ae bd 86 ec 42 3d
       -0.050074164 0.10579055 -0.085378945 0.047588848
0003e0 29 10 0f 3e 07 76 12 3e 40 da 1c be 52 d9 5c bd
       0.13971008 0.14302836 -0.15317631 -0.05391819
0003f0 82 37 be bd e2 df 0b be dc bb 65 3d ac 5a fa 3d
       -0.09287931 -0.13659623 0.05608736 0.122243255

col_embedding.3.bias f4 [32]
000000 38 c0 3c bd 46 fe 19 3e 26 15 c7 bd 67 81 f5 3d
       -0.04608175 0.15038404 -0.097208306 0.11987572
000010 23 5c c1 bc a4 ae 1c 3e b6 83 d6 3d 86 5d 02 3d
       -0.023603505 0.15300995 0.104743406 0.031827472
000020 4b 5e 12 3e 71 84 11 3e 79 20 07 3e 95 71 07 3e
       0.14293782 0.14210679 0.13195981 0.13226922
000030 90 09 ae bd ab a9 21 3e b7 75 8a 3d ab f5 a2 bc
       -0.08497918 0.1578738 0.067607336 -0.019892534
000040 21 51 bf bd 8e 48 ac bd 5b c0 ec 3d fe bc 12 3e
       -0.09341646 -0.08412276 0.115601264 0.14329907
000050 70 ea ba 3d 64 c5 c9 3d 76 7f fc bd e0 c9 1a 3e
       0.09126747 0.098521024 -0.12328999 0.15116072
000060 4a 1d 0e 3e 28 33 86 bd 81 e3 0a 3e 79 41 c0 3d
       0.1387836 -0.06552726 0.13563348 0.09387488
000070 c7 90 bc 3d 1d a5 f6 3c 72 1a b8 bd 32 b2 9a 3d
       0.092073016 0.030108029 -0.08989419 0.07553519

conv_col_to_row.feature_module_left.0.weight f4 [32, 32]
000000 7b 83 c5 3c 65 d6 1f be 35 df 41 bb 7d c9 30 3d
       0.024110546 -0.15609129 -0.0029582505 0.043160904
000010 ad 4f 04 bd 08 79 ef bd c8 cc 92 3c 5f e1 5b bd
       -0.032302547 -0.11693007 0.017919913 -0.053681727
000020 b0 43 23 3e 73 f8 2f 3c e0 5b 93 bc 06 8a 03 3e
       0.1594379 0.010740387 -0.017988145 0.1284562
000030 bf 49 19 bb 17 bb 4d bd 10 a2 94 bc 11 23 4c bc
       -0.0023389903 -0.05022725 -0.018143684 -0.012459532
000040 d7 93 3c bc 22 1e 0e be ed af 03 3e ca e4 04 3d
       -0.011509857 -0.13878682 0.12860079 0.032444753
000050 d2 c0 c1 bd b6 48 d9 bd 84 2e a8 3d 13 33 9a 3d
       -0.09460606 -0.10609572 0.08211997 0.07529273
000060 02 ae bf 3d 81 ba da bd 76 5e 26 be 1f 9f 06 be
       0.09359361 -0.10680104 -0.16246971 -0.13146637
000070 3c fc fe 3d 1c 10 4a bd 9f a9 65 bd a6 38 d2 bd
       0.12450454 -0.04933177 -0.056069966 -0.10264711
000080 34 9d 04 3e e5 05 92 3d fe 6c d0 3d 03 37 d0 bd
       0.12950593 0.071300305 0.101770386 -0.10166743
000090 db 75 06 bd d1 c9 23 3e e8 b4 d3 bc 3c 14 34 be
       -0.03282724 0.15994956 -0.025843099 -0.17585844
0000a0 4c 2d bb bd 3d 61 96 3b 91 c3 ec 3d 47 ed f9 3c
       -0.09139499 0.0045892284 0.11560739 0.03050865
0000b0 4e 1f 1d 3d 3d fe 01 be 12 f0 00 3d bc 3a 75 3c
       0.038359933 -0.1269464 0.03147895 0.014967617
0000c0 93 7a 01 3e ad 1d 07 be f6 c5 c8 3c ac a6 db bd
       0.12644415 -0.13194914 0.024508458 -0.107251495
0000d0 cb 3a 1b bd ba c3 a9 3d f7 b6 36 be 64 95 db 3d
       -0.037897866 0.08289285 -0.17843233 0.107218534
0000e0 e0 cf 2a be 02 a4 1d 3d 7a 41 a2 3d c6 00 d4 3d
       -0.1668086 0.03848649 0.07922645 0.1035171
0000f0 bf 92 c8 bd ae 37 dc bd 50 fa b2 3d 96 72 8b bc
       -0.097936146 -0.107528076 0.087391496 -0.017022412
000100 13 a9 e8 3d 15 41 dd bd 08 2c dc 3c 38 da 88 3d
       0.11360373 -0.10803429 0.026876464 0.06682247
000110 77 71 b4 3c d7 10 03 3e 9c dc 05 be 0d 03 2a 3e
       0.02202676 0.12799393 -0.13072437 0.16602726
000120 12 4b ef bd bf f2 d9 bd 36 87 03 3e 2a f3 ad 3c
       -0.116842404 -0.10642003 0.12844548 0.021234114
000130 c9 2d 2c be 74 f3 2a be b2 de a8 bd 25 d2 29 3e
       -0.1681434 -0.16694432 -0.08245601 0.1658407
000140 6a 86 25 3d d1 d6 05 be 29 29 30 3e e5 f3 8a 3d
       0.04041139 -0.13070227 0.17203201 0.067848004
000150 35 97 a4 bd e2 ef e4 bc d2 0f 4f bd d7 bb 33 3e
       -0.08036653 -0.027946416 -0.050552197 0.17552124
000160 87 79 e3 3b ee 9c 54 3d 19 d3 0f be 40 68 bc 3c
       0.0069419774 0.051907472 -0.14045371 0.022998929
000170 fe 2f 8d bd 82 2d 88 3d b5 93 da 3c c2 59 31 bc
       -0.068939194 0.06649305 0.02668176 -0.010824623
000180 53 04 51 bd 95 04 7d bd 16 52 46 3c 6e da f3 3b
       -0.051029515 -0.061771948 0.012104532 0.0074418103
000190 77 d6 6f bc 4b a9 51 3d b7 9c 98 bc 7a b4 91 bd
       -0.014638535 0.05118684 -0.018629415 -0.07114501
0001a0 63 b9 0e 3e 48 dc c2 bd ca 96 ff bd 21 97 1a 3e
       0.13937907 -0.095146716 -0.124799326 0.15096714
0001b0 ab db de 3c 1c 0c 0b bd 82 15 c6 bd 5e 02 0a bd
       0.027204355 -0.033947095 -0.09672071 -0.033693664
0001c0 66 02 09 be f5 a3 21 3d 05 c9 a2 3c c4 4d 97 3d
       -0.13379821 0.039463002 0.019871244 0.073878795
0001d0 06 cf 20 bd e2 66 2c be 55 6e 09 3e 0d 23 26 be
       -0.039259933 -0.16836122 0.13420995 -0.16224308
0001e0 0b 9b ea bd dd ba d3 bb 79 aa d0 bd 05 e4 bf bd
       -0.11455353 -0.006461485 -0.10188765 -0.09369663
0001f0 3a c2 f8 3d cc 7b 30 be b5 41 b8 bc 1b 48 b7 3d
       0.12146421 -0.17234725 -0.022492269 0.089493
000200 68 f2 19 be 0b 67 a0 3d a3 be 24 3e bf 57 8d 3a
       -0.15033877 0.07832154 0.16088347 0.0010783597
000210 6c 44 bd 3d a4 37 e5 bd 91 86 06 3e 66 75 22 be
       0.09241566 -0.11192253 0.1313727 -0.15865096
000220 41 51 7f 3d 42 8d d0 3d 9f cc ac bd 17 28 d1 bd
       0.06233335 0.10183193 -0.08437466 -0.10212725
000230 7b b3 29 3d 4d 6f 26 3e ba 0e a4 bd d1 23 05 3e
       0.04143093 0.16253395 -0.08010621 0.13001944
000240 11 67 a6 bd 28 62 dd bb e1 d3 08 3e 97 38 16 be
       -0.08125127 -0.006756086 0.13362075 -0.14670025
000250 68 f5 3a be 95 6b 01 bd 88 86 01 3d a1 3b b9 3c
       -0.18257678 -0.03159674 0.03162244 0.022611441
000260 bb 0b 33 be 65 ed a5 bd da 23 29 3d a3 5a df bc
       -0.17484944 -0.0810192 0.041293956 -0.027264899
000270 f8 d1 1f be 5b ea 5e 3d 6f ae 3d 3d 6b db c5 bd
       -0.1560744 0.054422718 0.04630893 -0.09660991
000280 c8 89 d6 3b 74 3f 0c be 6d c8 22 3e 57 41 a0 3d
       0.0065471865 -0.1369608 0.15896769 0.078249626
000290 d8 ff 6b 3c 77 98 a7 3d 06 08 54 3d de 8e e9 3d
       0.01440426 0.08183377 0.051765464 0.11404203
0002a0 0e 10 14 be 1c c9 0b bd b7 04 88 3d af 40 17 be
       -0.1445925 -0.03412734 0.06641524 -0.14770769
0002b0 73 d9 0c bd 6e 42 81 bd 34 86 9d 3c fb 3c 01 be
       -0.034387063 -0.063114986 0.019229032 -0.12620918
0002c0 0d 51 2a 3e 15 70 03 be 7b 65 80 bd 69 7b d5 bd
       0.16632481 -0.12835725 -0.06269356 -0.10423929
0002d0 eb 07 ec 3d e8 f4 f7 3d 0e 26 54 3d d7 81 f9 3d
       0.11524948 0.12107259 0.051794104 0.12182968
0002e0 00 05 2a 3e 27 eb 14 bc 56 10 ca bd 4a a1 10 3e
       0.1660347 -0.009089268 -0.09866397 0.14124027
0002f0 49 df 87 3d f3 10 10 be c1 0f 11 3c e7 dc 31 3e
       0.06634385 -0.14068966 0.008853854 0.17369424
000300 b5 96 4b bd 3e 20 1f be a7 ea 27 3e b8 a1 e8 3c
       -0.049704272 -0.15539643 0.16398107 0.028397426
000310 a0 80 95 3d 7a 6c 27 be 62 c0 18 3e 6b bd e4 bd
       0.07299924 -0.16349974 0.14917138 -0.11168941
000320 d1 a1 eb 3c 23 14 ab 3d 29 02 78 3c 84 2f 32 be
       0.028763684 0.0835345 0.015137234 -0.17400938
000330 bd 30 cf 3c 74 e7 9e bd 86 88 40 3d 85 5a 9e 3d
       0.025291795 -0.0775899 0.0470052 0.07732109
000340 01 34 bf 3c 4a 5d cc bc 5d e8 5f bd 90 ba fb 3d
       0.023340227 -0.024946827 -0.05466496 0.12291443
000350 a8 d6 a2 bd 00 43 70 3d ca ab cc bd a7 31 90 bd
       -0.07951099 0.058657646 -0.09993704 -0.070407204
000360 88 54 e1 3c c4 54 0c be 22 4f 47 3d 8e b1 4c bd
       0.027506128 -0.1370421 0.04865945 -0.049974017
000370 19 95 2d 3e 99 f6 38 3b 68 19 15 be bd 26 00 3e
       0.16951407 0.0028223156 -0.14560473 0.12514777
000380 b6 d1 00 be e5 b1 13 3c 3c 28 17 bc 60 c1 fb bd
       -0.12579998 0.009014581 -0.009225901 -0.12292743
000390 39 6a 13 3e 75 5a ce bd 83 07 dd 3c 59 e6 15 3e
       0.1439599 -0.10075847 0.02698112 0.14638652
0003a0 8c e2 0a 3e 9b a3 1f be cd 17 16 3e ea dd 9c bd
       0.13562983 -0.15589754 0.14657517 -0.07659514
0003b0 52 b1 9f bb a0 90 c7 bd 47 39 8c 3c 6f 54 cc 3d
       -0.004873433 -0.09744382 0.017117156 0.09977042
0003c0 90 f4 05 be dc 20 26 bb ad 16 2e 3e 28 08 ea 3d
       -0.13081574 -0.0025349176 0.17000838 0.11427337
0003d0 4c fb 19 bd de f5 18 be 4e 12 61 3b 13 c7 85 bd
       -0.03759317 -0.14937541 0.0034343186 -0.06532111
0003e0 a2 8f b3 3d 68 2a f2 3d 1c 2f ee bd 2a 6e b1 ba
       0.0876763 0.118244946 -0.11630079 -0.001353686
0003f0 78 20 fd 3d 57 8e ab 3d 69 d1 19 be cb 3f 18 be
       0.123597085 0.083767585 -0.1502129 -0.14868085

conv_col_to_row.feature_module_left.0.bias f4 [32]
000000 e5 99 d9 3d ec 23 03 3e d4 a4 df bd 05 ab 86 3d
       0.10625056 0.12806672 -0.1092011 0.06575588
000010 0d cb a3 bc 64 59 e6 3d 43 9b b1 bd 15 21 32 3e
       -0.019994283 0.11247519 -0.08672192 0.17395432
000020 29 26 75 bd 74 60 14 be 9a e8 db bd df 4c 1b be
       -0.059850845 -0.14489919 -0.107377246 -0.15166043
000030 0b 65 18 3d ed 7c 90 3d 0e 1d 28 be 9d 92 1b be
       0.037205737 0.07055078 -0.16417333 -0.15192647
000040 42 f6 b3 3d c5 43 05 3e 2f 4f d1 3c 87 22 1b 3d
       0.08787204 0.13014133 0.025550453 0.037874725
000050 a0 a3 41 3d 76 80 b0 3d 78 d6 25 3e 67 49 b4 bd
       0.047275186 0.08618252 0.16195095 -0.08803063
000060 4f 5b bb 3d 87 07 5a bd 4f 9f 00 3e 7b d9 2e be
       0.09148275 -0.053229835 0.12560771 -0.1707515
000070 a9 fc d0 bd c7 02 8d bd b0 d8 69 bd 2c fb 2b be
       -0.10204441 -0.06885295 -0.057091415 -0.16795033

conv_col_to_row.feature_module_edge.0.weight f4 [32, 1]
000000 2b 16 0b 3f 74 f1 1b 3f 86 f0 bf 3d e5 b2 aa 3e
       0.543307 0.60915303 0.09372048 0.3333961
000010 3b 25 ae 3d aa 8c e8 3e 6a e6 3a bf 41 e0 a8 be
       0.08503195 0.45419818 -0.73007834 -0.32983592
000020 8b 73 02 bf 87 70 55 3e 2d fe 68 bf d9 cc 56 bf
       -0.50957555 0.20843707 -0.9101284 -0.8390632
000030 67 a7 53 bf 61 19 08 3e 61 66 08 bf 9e 3f b4 3d
       -0.8267731 0.13290931 -0.5328122 0.088011965
000040 64 5e 7f bd 13 3e 15 be 3e 7a 31 3f d3 1e 28 3f
       -0.062345877 -0.1457446 0.6932715 0.65672034
000050 55 6c 3a bf 51 da 16 3c 2b fb 50 bf cf 06 30 bf
       -0.7282155 0.009207324 -0.8163325 -0.6876039
000060 6c 4f 2f 3f 15 dd d0 3e 73 7f 29 bf e9 da 26 3f
       0.68480563 0.40793672 -0.662101 0.6517778
000070 b6 47 1e be 6e 09 15 3e bb b4 87 be b4 c7 6b 3f
       -0.15457043 0.14554378 -0.26505074 0.921016

conv_col_to_row.feature_module_right.0.weight f4 [32, 32]
000000 4a 67 81 bd 43 b7 a0 3d 3b ba d0 bd e8 fe f1 3d
       -0.06318529 0.078474544 -0.10191771 0.11816198
000010 56 e3 b1 bd ff 91 f3 bd 9e 3d 57 bc 93 b0 f4 3c
       -0.08685939 -0.11893081 -0.013137249 0.029869353
000020 ce 4f f1 3b b7 bd d2 bd f6 92 c1 bd e1 c2 72 3d
       0.00736425 -0.102900915 -0.09451859 0.059267882
000030 a4 4f ce bd dd ae ba 3b 11 96 9b 3d 92 23 97 3c
       -0.10073784 0.005697115 0.07596982 0.018449578
000040 9f 50 37 3e e7 e9 25 3e 2e 41 a8 3c 3e d1 0a 3e
       0.17901848 0.16202508 0.020538893 0.13556382
000050 48 12 2b be 3e 1d 14 3d 6c 99 31 3e 21 d1 78 bd
       -0.16706192 0.0361607 0.17343682 -0.060746316
000060 92 49 8a 3d 0a fb 21 3d 97 93 0c 3e 42 9e c8 bd
       0.06752314 0.03954605 0.13728176 -0.0979581
000070 be 1d f0 bd 7d fd cb 3b 09 8b e5 bd ae d8 16 3e
       -0.11724423 0.0062252865 -0.112081595 0.14731094
000080 67 28 1f 3e 8d ca bb 3d 89 8a 98 bc 96 f1 33 3e
       0.15542756 0.09169493 -0.018620746 0.17572626
000090 ac cc 1f be 46 e3 32 3e 06 89 a0 bd 52 3d 16 3e
       -0.1560542 0.1746951 -0.07838635 0.1467183
0000a0 95 33 df bd e1 40 c3 bd c6 95 db bd 78 64 b6 3d
       -0.1089851 -0.09533859 -0.107219264 0.08905882
0000b0 15 3d 0d 3d 26 13 d0 3d 18 31 b8 3b 3d 34 70 bd
       0.03448208 0.10159902 0.005621087 -0.05864357
0000c0 c0 8a 0c 3e 27 a2 10 be 1e a9 99 3d 04 f1 19 be
       0.13724804 -0.14124356 0.0750296 -0.15033346
0000d0 b7 39 28 3e fe 30 3a 3c 2a 14 75 bd 71 42 09 3e
       0.16428266 0.01136422 -0.059833683 0.13404252
0000e0 69 80 19 be f5 b2 c9 bd 8b 3a 12 be 8f 45 6d bd
       -0.14990391 -0.098485865 -0.14280145 -0.057927664
0000f0 df 0c 9c bd 4e fa c9 3d 1d 2d 19 be fb de 7b 3b
       -0.076196425 0.09862195 -0.14958616 0.0038432467
000100 31 af 0d 3e ab 2f 1d bd 1e dc 76 bd 43 9c a2 bd
       0.13836361 -0.038375538 -0.060268514 -0.07939961
000110 ba 41 b7 3d 7f bf e7 3d 2f ad 07 be 49 35 be bc
       0.08948083 0.11315822 -0.13249658 -0.023218768
000120 50 ab 19 be bd d9 56 bd b6 7e a5 3c 1b 67 c4 3c
       -0.15006757 -0.052453745 0.020202022 0.023974946
000130 cc 27 03 3e fe 1b f6 3d a1 bb 53 3d 10 6b 24 be
       0.1280815 0.12017058 0.05169261 -0.16056466
000140 7f 61 3c bd 49 b8 33 3e 13 a8 67 bd 77 13 31 3d
       -0.045991417 0.17550768 -0.056556772 0.043231454
000150 de be de 3c 0f a9 c7 3d 7a 0c b9 bd 2c b5 c8 bd
       0.027190622 0.09749042 -0.09035583 -0.09800181
000160 32 1d 3a bd 04 22 ee 3d 20 77 25 be 7f 99 d0 bc
       -0.045438 0.11627582 -0.16158724 -0.025463818
000170 ca 92 d3 3d 03 5d 10 3e ac 60 15 3d 29 aa b2 bd
       0.10330732 0.14097981 0.036469147 -0.08723862
000180 39 00 23 3d 1c 97 08 be f2 8d 30 be 67 23 09 3e
       0.039795134 -0.13338894 -0.17241648 0.13392411
000190 1c 89 33 be af bf 06 be 16 d0 27 3e d4 48 81 3d
       -0.17532772 -0.13159059 0.16387972 0.06312719
0001a0 09 e8 db bd 74 87 02 be 08 8a 1a be 8b 1f 07 bd
       -0.107376166 -0.12746984 -0.15091717 -0.032989066
0001b0 b5 39 db bd 9e 0e a7 3d 4b b8 f8 bd 91 7a 8c bd
       -0.10704366 0.08157085 -0.12144526 -0.06859315
0001c0 fb fe 5a bd 9a 2a 5f 3d 30 e1 9c bc 67 71 f8 bc
       -0.053465825 0.054483987 -0.019150347 -0.030327512
0001d0 2a c9 a3 bd 2f 20 2e be fb 3c 2d 3e 98 9b 14 3e
       -0.079973534 -0.17004465 0.16917793 0.1451248
0001e0 b8 73 79 3d 03 b2 42 bc 86 e8 01 3e 2d 4e 40 bd
       0.060901374 -0.011883262 0.12686357 -0.046949554
0001f0 c8 4d aa 3b 80 69 e6 3d 1f 67 df bd 18 23 e8 3d
       0.0051972605 0.11250591 -0.10908341 0.113348186
000200 2f 0c af bd 76 66 09 be 45 0b 30 3e b6 40 94 bd
       -0.08547246 -0.13417992 0.17191799 -0.07238905
000210 32 79 96 bd 9e 04 70 bd f4 24 fd 3c 88 58 6c bc
       -0.07347335 -0.058598153 0.03090141 -0.014425404
000220 1f 91 18 be 76 f7 25 be 63 85 d6 3d 19 c1 96 3d
       -0.1489911 -0.1620768 0.1047466 0.07361049
000230 df 51 0a 3e 58 87 27 be 5c 53 9a 3c 25 4b 11 3e
       0.13507794 -0.16360223 0.018838577 0.14188822
000240 58 bf a4 bd 33 f3 f3 3b be ff db 3a 62 8f 1f 3e
       -0.080443084 0.007444763 0.0016784591 0.1558204
000250 4d 6e 0d be c2 07 0d bd 62 02 83 3d d0 0b c9 3b
       -0.13811608 -0.034431227 0.06396939 0.0061354414
000260 a6 37 1a 3d 55 8f df bd 4d f4 17 be c5 0a 21 3e
       0.037650727 -0.1091601 -0.14839287 0.15726765
000270 c9 9d 4f 3c 70 30 8e bd 94 6b 76 bb 09 1d 4b 3d
       0.012671896 -0.069428325 -0.0037600743 0.049588237
000280 5e b3 a3 3d b0 50 1d 3e 02 11 2b be df 29 10 be
       0.07993196 0.15362811 -0.16705707 -0.14078473
000290 2c 99 7d 3d a0 05 be bd 8e 06 58 3d 45 78 31 3e
       0.061913654 -0.09278417 0.052740626 0.17331035
0002a0 34 fb 92 bd ae 39 1c 3e 35 7a 88 3d fd 8d ce 3d
       -0.071768194 0.15256378 0.06663934 0.10085676
0002b0 fd a7 27 3e 36 8a 2f 3e 27 a3 e2 3d 13 88 b8 3d
       0.16372676 0.17142567 0.11066275 0.09010329
0002c0 57 2c 7a 3d c4 fb 12 3e 22 c5 2c 3e 1b 27 17 be
       0.061077442 0.14353853 0.16872075 -0.14761011
0002d0 ad 04 01 3e 4a 4b e0 3d 33 af ba 3d 0c bd b0 3d
       0.1259944 0.1095186 0.09115448 0.08629808
0002e0 db 0d b6 bd 11 f7 b9 3d fa d8 e3 3d f1 17 33 3d
       -0.088893615 0.09080327 0.11125369 0.043724004
0002f0 f6 a3 1a 3d b8 12 f8 bd aa 34 22 be 01 b4 70 bd
       0.03775402 -0.12112945 -0.15840402 -0.058765415
000300 b0 3f 1e 3e 8c b9 ff 3b 51 d0 6c 3d ee 45 80 3d
       0.15453982 0.0078041013 0.057815854 0.06263338
000310 24 83 a6 ba 67 a5 a6 ba 58 56 79 bc 20 41 ea bd
       -0.0012703878 -0.0012714089 -0.01521834 -0.11438203
000320 11 7c a6 3d 2c 88 ce bd d8 cc 59 3d 42 ea 9a bd
       0.081291325 -0.100845665 0.05317387 -0.075642124
000330 79 5d 62 bd b1 84 8c bb ec 83 a3 bd 77 c4 f4 bd
       -0.055264924 -0.004288279 -0.079841465 -0.11951535
000340 73 4c 0e be f9 8c 73 3d 7a 23 fe bd 7f 55 2f be
       -0.1389635 0.059460614 -0.1240911 -0.17122458
000350 d3 a3 d6 bd c5 93 0d 3c 71 7a 0b 3c 6c da f2 3b
       -0.10480466 0.008641188 0.008513079 0.007411292
000360 88 c4 4f 3d 5c d5 aa bd 71 53 ca 3d 5a 2f b8 3b
       0.050724536 -0.08341476 0.098791964 0.005620879
000370 64 59 0d 3e e0 da d3 3c 21 eb 71 3d 54 6e fe bd
       0.13803631 0.025861204 0.059062127 -0.12423387
000380 d8 35 0c 3e 98 6a ab bc 1e b7 98 bd b1 7f 16 3e
       0.13692415 -0.020924851 -0.07456802 0.14697148
000390 b3 93 60 bd fa a4 e0 3d f0 10 15 3c 8e 1b 15 3b
       -0.054828357 0.10968967 0.0090982765 0.002275202
0003a0 96 45 19 3e a2 8f c9 bd d8 00 dc 3c 7f 72 a2 bd
       0.14967951 -0.09841849 0.026855871 -0.07931995
0003b0 d0 db e0 3d 3a bd 0c 3d 37 53 c2 3d 66 23 db 3d
       0.10979426 0.034360148 0.09488528 0.10700111
0003c0 6a 5e 63 bd 34 bc d1 bd 07 e8 3c bd 5b d3 a8 3c
       -0.055509962 -0.10240975 -0.046119716 0.020608595
0003d0 37 a4 cc bd f3 d5 d8 3d f0 01 c2 bd 20 a2 a8 3d
       -0.09992259 0.105876826 -0.09473026 0.08234048
0003e0 46 c5 19 be bd 53 b5 bd 9b 69 d5 3c a4 5b 33 be
       -0.1501666 -0.088538624 0.026051333 -0.17515427
0003f0 1b b7 16 3e b4 f3 1a 3e e4 33 a1 3d 66 f5 db bc
       0.14718287 0.15132028 0.078712255 -0.026850414

conv_col_to_row.feature_module_final.0.weight f4 [32]
000000 2d 88 7f 3f 2f d6 7f 3f 00 00 80 3f 5b d8 7f 3f
       0.9981716 0.99936193 1.0 0.9993951
000010 00 00 80 3f 76 f1 7f 3f 62 e1 80 3f d3 d4 7f 3f
       1.0 0.99977815 1.0068781 0.9993412
000020 2c b5 7f 3f 5a 5b 80 3f a0 0c 80 3f 32 04 80 3f
       0.9988582 1.0027878 1.0003853 1.000128
000030 77 1f 80 3f 69 24 80 3f b9 0a 80 3f 6b 7f 7f 3f
       1.0009602 1.0011111 1.0003272 0.998038
000040 38 66 80 3f 37 fe 7f 3f cc 17 80 3f 76 17 80 3f
       1.0031195 0.99997276 1.0007262 1.000716
000050 45 7a 80 3f 1c 1d 80 3f f9 c9 7f 3f 8c 04 80 3f
       1.0037314 1.0008883 0.9991756 1.0001388
000060 f2 98 80 3f 17 0c 80 3f 78 7a 80 3f 00 00 80 3f
       1.0046675 1.000369 1.0037374 1.0
000070 00 00 80 3f 0a 94 7f 3f 00 00 80 3f 00 00 80 3f
       1.0 0.99835265 1.0 1.0

conv_col_to_row.feature_module_final.0.bias f4 [32]
000000 da 04 84 ba 60 36 79 ba 00 00 00 00 fb 69 3b ba
       -0.0010072247 -0.00095066987 0.0 -0.0007149276
000010 00 00 00 00 78 a3 96 b9 35 b1 c0 3a ab a1 09 ba
       0.0 -0.00028732023 0.0014701249 -0.00052502257
000020 35 2f 2d ba 9c 35 11 3b e9 64 48 3a a8 3e e7 37
       -0.00066064607 0.0022157198 0.00076444313 2.7566522e-05
000030 11 a0 81 3a 59 fe a9 b9 9d 57 d5 3a af 83 9d ba
       0.0009889622 -0.00032423696 0.0016276721 -0.0012017394
000040 ad e3 23 3a 07 dd 32 b9 2c ce 1e 39 90 ad 01 3b
       0.0006251883 -0.00017057742 0.00015144859 0.001978729
000050 b0 b9 2c 3b 52 91 86 36 47 96 05 39 56 55 dd b9
       0.0026355796 4.0104287e-06 0.00012739851 -0.00042215985
000060 ce 0d 6c 3b a2 60 d3 b8 78 f0 15 3b 00 00 00 00
       0.003601897 -0.00010079263 0.0022878926 0.0
000070 00 00 00 00 6c 6f 22 bb 00 00 00 00 00 00 00 00
       0.0 -0.002478565 0.0 0.0
