GNN_method/ResultsGCNN/actor_45.pt (torch, 83520 bytes, 43 tensors)

row_embedding.0.weight f4 [7]
0	0x3f8058c0	1.0027084
1	0x3f801fba	1.0009682
2	0x3f7fd7fd	0.99938947
3	0x3f801d4b	1.000894
4	0x3f7fdfe2	0.99950993
5	0x3f8035e9	1.0016452
6	0x3f7ffd4f	0.99995893

row_embedding.0.bias f4 [7]
0	0xbaffd262	-0.0019517655
1	0xba779afc	-0.0009445397
2	0xba3301f9	-0.0006828602
3	0xba9978dd	-0.0011708994
4	0x3a1a8293	0.0005894091
5	0xbad7ea65	-0.0016473053
6	0x3a0b6369	0.00053172425

row_embedding.1.weight f4 [32, 7]
0	0x3d58ce8f	0.052931365
1	0x3d57f6bb	0.052725535
2	0x3e0cee6e	0.13762829
3	0xbeb6c621	-0.35698035
4	0xbe3b2aca	-0.18278041
5	0x3e76cf07	0.24102412
6	0xbdae1247	-0.0849958
7	0xbe8a91a2	-0.27064234
8	0xbd81ac1d	-0.06331656
9	0xbd22cc35	-0.03974553
10	0xbddb7459	-0.10715551
11	0x3e46cc90	0.19413972
12	0x3a54665e	0.0008102412
13	0xbdaf45fa	-0.08558269
14	0xbe00b019	-0.12567176
15	0xbe959cc4	-0.29221165
16	0xbe90dbed	-0.2829279
17	0x3e85aca9	0.26108292
18	0x3ea229ca	0.31672508
19	0x3ca35304	0.019937046
20	0xbe4e84ff	-0.20167921
21	0xbe56ed69	-0.20989002
22	0x3e0602c4	0.13086993
23	0x3ea2a025	0.31762806
24	0xbeb66489	-0.35623577
25	0x3ce58d72	0.028021548
26	0x3bccc3ef	0.006248943
27	0x3e47c623	0.19509177
28	0xbe0e8363	-0.13917308
29	0xbd071a3c	-0.032984003
30	0xbe9d2983	-0.30695733
31	0x3e55eae9	0.20890392
32	0xbe4f594b	-0.20248906
33	0xbe4e54d6	-0.2014955
34	0xbe4840c6	-0.19555959
35	0xbddaba58	-0.106800735
36	0x3d5d3b6d	0.05401175
37	0xbc42bade	-0.011885373
38	0xbeb5761e	-0.3544168
39	0x3dc83e44	0.09777501
40	0xbe50c325	-0.20386942
41	0x3ea0c9c9	0.3140395
42	0xbe89b99e	-0.26899427
43	0xbeac36e1	-0.3363562
44	0x3e8b6f90	0.27233553
45	0xbe663179	-0.2247981
46	0xbea05c73	-0.31320533
47	0xbd69c4eb	-0.05707256
48	0x3c9a8065	0.018860051
49	0xbe793d94	-0.24339896
50	0x3e8a2316	0.26979893
51	0x3e69d1b9	0.22833909
52	0x3e85dbb8	0.26144195
53	0x3e59cc35	0.21269305
54	0x3d067d57	0.032834377
55	0x3d102f61	0.035201434
56	0xbe0c9b18	-0.13731039
57	0xbd9a216c	-0.07525906
58	0x3ccddbeb	0.02512928
59	0x3c4e5c7c	0.012595292
60	0xbe0de60e	-0.1385729
61	0xbe551e5b	-0.20812361
62	0x3e8d6caa	0.27621967
63	0x3d49d91d	0.04927932
64	0xbeaeefee	-0.34167427
65	0xbe4b699c	-0.19864506
66	0x3eba1921	0.36347297
67	0xbe4234e4	-0.18965489
68	0x3e839a0d	0.2570347
69	0xbeb2c513	-0.3491598
70	0xbe8971f3	-0.2684475
71	0x3eacbbff	0.3373718
72	0xbdc3844a	-0.095467165
73	0xbbbedd20	-0.0058247
74	0xbd1ffe45	-0.03906085
75	0xbe808414	-0.25100768
76	0x3e8154e2	0.25260073
77	0xbe3a3d44	-0.18187433
78	0x3c4c30a4	0.012462769
79	0xbeb67ec7	-0.35643598
80	0xbd9a2934	-0.0752739
81	0xbc7d17b6	-0.015447548
82	0x3e8435ac	0.25822198
83	0x3e0b5ffd	0.13610835
84	0x3e93d1c0	0.28870964
85	0xbd93c9d8	-0.07216233
86	0xbe9e56f0	-0.30925703
87	0xbdd92f9d	-0.10604785
88	0xbd8d511b	-0.06900235
89	0x3ea26251	0.31715634
90	0xbe69a644	-0.22817332
91	0x3e802028	0.25024533
92	0x3e5b687d	0.21426578
93	0xbe5f8886	-0.21829423
94	0xbe7c8236	-0.24659047
95	0xbe1edffe	-0.15515134
96	0xbe18a638	-0.14907157
97	0xbe8abbb7	-0.2709634
98	0xbeb9da8c	-0.3629955
99	0x3db5e35e	0.088812575
100	0x3dcbde9d	0.099545695
101	0xbe8f39c3	-0.27973756
102	0x3e8c0305	0.27346054
103	0xbe127225	-0.14301355
104	0xbdec7a6c	-0.115467876
105	0x3d8c3fc5	0.068481006
106	0x3e934d8d	0.28770104
107	0xbea6c0cf	-0.32568976
108	0xbd957cc4	-0.07299188
109	0x3def2f9c	0.11679003
110	0xbe9f132d	-0.31069317
111	0x3e97755a	0.2958172
112	0x3e16d92d	0.14731283
113	0x3ea73330	0.3265624
114	0xbce9cac8	-0.028539076
115	0x3e32e7df	0.17471264
116	0xbe816c05	-0.25277725
117	0x3eb423ac	0.35183465
118	0x3dbf37be	0.09336804
119	0x3e493e24	0.19652611
120	0xbe5e20d8	-0.21692216
121	0xbe87e024	-0.26538193
122	0xbea5d056	-0.3238551
123	0xbeb101fc	-0.34571826
124	0x3b53c1cf	0.0032311564
125	0xbcbb135d	-0.022836382
126	0xbeb4263a	-0.35185415
127	0x3eaf9c4e	0.3429894
128	0xbe319e3d	-0.1734552
129	0xbe9adac1	-0.3024502
130	0xbe27da9a	-0.16391984
131	0x3ea1ab76	0.31576127
132	0x3db1de09	0.08684928
133	0xbe49b739	-0.196988
134	0xbe2c871f	-0.1684842
135	0xbe777c2c	-0.24168462
136	0x3dfee1f8	0.12445444
137	0x3e7e0797	0.24807583
138	0xbe45c1f6	-0.19312271
139	0x3eb84bda	0.3599537
140	0x3ea808cb	0.32819209
141	0x3e01901a	0.12652627
142	0xbc1f706b	-0.009731392
143	0x3e8ceece	0.27525944
144	0x3dd6b527	0.10483771
145	0xbeaac859	-0.33355978
146	0xbe83515b	-0.25648007
147	0x3e4ab6e3	0.19796328
148	0x3d022198	0.03177032
149	0x3eb4b7bb	0.35296425
150	0xbe8ab71c	-0.27092826
151	0xbe921d86	-0.2853815
152	0xbdd940b6	-0.10608046
153	0xbe6aba6b	-0.22922675
154	0x3e911d5d	0.28342715
155	0x3d056c5c	0.032574043
156	0xbe07f5f2	-0.13277414
157	0xbd4d9c96	-0.05019816
158	0x3d060d31	0.032727424
159	0xbe8d05a1	-0.27543357
160	0x3d2a47d0	0.041572392
161	0xbe7b8bc0	-0.24565029
162	0x3d7272c0	0.059191465
163	0x3e0ba9a2	0.13638929
164	0xbe6d7f36	-0.23193058
165	0xbe55d012	-0.20880154
166	0xbc394023	-0.011306795
167	0x3e98904e	0.29797596
168	0x3e418adf	0.18900631
169	0xbdb51fe1	-0.08843971
170	0x3ea90d56	0.33017987
171	0x3dc7c387	0.09754091
172	0x3ebafdb5	0.36521688
173	0x3e885125	0.26624408
174	0xbe85f204	-0.26161206
175	0x3cba1dae	0.02271923
176	0x3e6bf653	0.23043184
177	0x3d9c5d01	0.076349266
178	0x3df50e57	0.11965626
179	0x3e9fe933	0.31232604
180	0xbe8e4b37	-0.2779176
181	0x3e01cda9	0.1267611
182	0xbdf219f1	-0.11821354
183	0xbe20769c	-0.15670246
184	0x3ead7903	0.33881387
185	0x3e8a6038	0.27026534
186	0x3e7d5efd	0.24743266
187	0x3d16f01b	0.036850076
188	0xbe9638fa	-0.29340345
189	0x3eaef3f8	0.34170508
190	0x3dd824d6	0.10553901
191	0xbd201c29	-0.039089356
192	0xbe93af0e	-0.28844494
193	0xbddcea9d	-0.107869364
194	0xbea872eb	-0.32900175
195	0x3e97a739	0.29619768
196	0x3ea45621	0.3209696
197	0x3d9666c0	0.07343817
198	0x3ea278ce	0.31732792
199	0xbe75d2fb	-0.24006264
200	0xbe5a73ab	-0.21333186
201	0x3e382d20	0.17985964
202	0x3ebd7611	0.3700414
203	0xbe728374	-0.23682958
204	0xbe9cf16d	-0.30652943
205	0x3e032108	0.12805569
206	0x3decaa59	0.11555929
207	0x3e88582f	0.2662978
208	0x3d697d58	0.057004303
209	0xbec18711	-0.3779836
210	0x3e1aeb16	0.1512874
211	0xbe3b08fd	-0.18265148
212	0x3e479fdd	0.19494577
213	0xbe8f7033	-0.2801529
214	0xbe95b879	-0.29242304
215	0x3d0ac137	0.03387567
216	0xbd8153ba	-0.06314798
217	0xbeb38eef	-0.35069987
218	0xbe3ecab2	-0.1863201
219	0xbe9ef3a2	-0.31045252
220	0x3ddc3d15	0.10753838
221	0x3dcd70f0	0.10031307
222	0xbdf42341	-0.11920787
223	0xbea1f609	-0.31633022

row_embedding.1.bias f4 [32]
0	0xbd51e635	-0.051244933
1	0x3e837a21	0.25679114
2	0x3de10cf2	0.10988797
3	0xbebce737	-0.36895153
4	0x3da54688	0.080700934
5	0xbdf8bfe6	-0.12145977
6	0x3c998c6f	0.018743722
7	0xbddb75fc	-0.10715863
8	0x3e1bcf8b	0.1521589
9	0xbe575866	-0.21029815
10	0xbeb340c8	-0.35010362
11	0xbcd35e90	-0.025801927
12	0x3ea2c3db	0.3179005
13	0x3e1a72df	0.15082882
14	0x3eb150fc	0.346321
15	0x3dce43a8	0.10071498
16	0xbe23081b	-0.1592106
17	0x3c8a1e19	0.016860055
18	0xbdf6b94a	-0.1204706
19	0x3e9e2592	0.3088804
20	0x3e8fd133	0.28089294
21	0xbcdb5447	-0.026773585
22	0x3e58fdef	0.21190618
23	0xbdcc3b8d	-0.09972296
24	0x3ea4977b	0.3214682
25	0x3e5423c7	0.20716773
26	0xbe17b99a	-0.14816895
27	0x3e00592f	0.12534021
28	0xbe96fd8a	-0.2949031
29	0xbe490c02	-0.19633487
30	0x3caf8bb4	0.02142892
31	0xbe5d6572	-0.2162073

row_embedding.3.weight f4 [32, 32]
0	0xbdfc7826	-0.12327604
1	0xbd258008	-0.040405303
2	0x3d92c59f	0.071665995
3	0x3c3f2bbe	0.011668144
4	0x3dcfa2cf	0.10138475
5	0x3b58a7dd	0.0033059039
6	0x3e271a1b	0.16318552
7	0x3e150dcb	0.14556043
8	0x3dcebdb6	0.10094778
9	0xbe153c8f	-0.14573883
10	0x3d10020d	0.035158206
11	0x3cf6d859	0.03013246
12	0x3dce6902	0.100786224
13	0x3a3768f1	0.00069965335
14	0x3e0cdfaa	0.13757196
15	0x3e1ef06d	0.15521403
16	0x3e1e5851	0.15463378
17	0x3d1674e7	0.03673258
18	0xbdf48999	-0.11940307
19	0x3dd77079	0.10519499
20	0x3d21a96c	0.039468214
21	0x3d5d6b7e	0.05405759
22	0x3d387557	0.04503378
23	0x3de9e424	0.114204675
24	0xbe2718bd	-0.1631803
25	0x3ddabd6f	0.10680663
26	0x3e0230e1	0.12713958
27	0x3e1a8127	0.1508833
28	0x3c90a52f	0.01765689
29	0xbe1dc4b9	-0.15407075
30	0x3e169c04	0.14707953
31	0xbce9438a	-0.028474588
32	0x3d0d7065	0.034531016
33	0x3ce3d484	0.027811296
34	0xbe369945	-0.17831905
35	0x3bfe610a	0.007763033
36	0xbc8f4683	-0.017489677
37	0xbd406aa8	-0.046976715
38	0x3d9eabe2	0.07747628
39	0x3d3044c1	0.04303432
40	0xbdc0dd72	-0.09417237
41	0xbd228db6	-0.039685927
42	0xbdd259fc	-0.102710694
43	0xbe24507f	-0.16046332
44	0x3db0be4d	0.08630047
45	0x3dd19cfc	0.102350205
46	0x3e20a9f2	0.15689829
47	0xbe2a8620	-0.16652727
48	0xbd44dedd	-0.0480641
49	0x3e05d162	0.13068154
50	0x3d9f230c	0.077703565
51	0xbe0afc0e	-0.13572714
52	0x3e032761	0.1280799
53	0x3dfa6c8e	0.122277364
54	0x3e077d7a	0.1323146
55	0x3df97606	0.12180714
56	0x3e0ee2e8	0.13953745
57	0xbd8fcf70	-0.070219874
58	0x3e0e31fe	0.13886258
59	0x3de5f814	0.11228958
60	0xbe092667	-0.13393556
61	0x3d68f356	0.05687269
62	0xbe0c2504	-0.13685995
63	0xbdbeedc0	-0.09322691
64	0x3c725bcc	0.014792394
65	0x3e259f76	0.16174111
66	0xbdd8972b	-0.10575708
67	0xbe176f9d	-0.14788671
68	0x3e2e339c	0.17011875
69	0xbdabd7fd	-0.08390806
70	0xbe27e5bf	-0.16396235
71	0xbd92d373	-0.07169237
72	0x3df33d14	0.11876884
73	0x3d036ad8	0.032084316
74	0x3e23995c	0.1597647
75	0x3dd4b556	0.103861496
76	0x3c2eb584	0.010663394
77	0x3e272033	0.16320877
78	0xbda5e19a	-0.08099671
79	0x3db0dc88	0.08635813
80	0xbd16132a	-0.03663937
81	0xbc9602ca	-0.018311877
82	0x3d2e8fa9	0.042617474
83	0x3e012c99	0.12614669
84	0x3e1c6ded	0.15276308
85	0x3d4ecabc	0.05048631
86	0xbd597347	-0.053088453
87	0x3e2e317f	0.17011069
88	0x3d05bfba	0.032653548
89	0x3d693acc	0.05694084
90	0x3d628361	0.055301074
91	0xbe272f5f	-0.16326664
92	0x3e2a6d30	0.16643214
93	0x3e27de1a	0.16393319
94	0x3e043fef	0.12915014
95	0x3e1e1f6f	0.15441678
96	0xbda42134	-0.080141455
97	0xbd1a4faf	-0.03767365
98	0xbe1dd742	-0.15414146
99	0x3d690a75	0.05689474
100	0x3d427f6a	0.047484793
101	0x3d758801	0.059944157
102	0x3e2e40a9	0.17016853
103	0xbcc07637	-0.02349387
104	0x3db614d4	0.088906914
105	0x3dee1f59	0.11627073
106	0xbddcd951	-0.10783637
107	0xbcfe2fc2	-0.031028632
108	0x3e02aa4e	0.12760279
109	0xbdd30358	-0.10303372
110	0x3d7c879b	0.06165276
111	0x3db6c1d0	0.089236856
112	0xbc9a707a	-0.018852461
113	0x3e2db828	0.16964781
114	0xbd8c7347	-0.06857925
115	0x3d94a56e	0.07258116
116	0xbd2259f4	-0.039636567
117	0xbe22a360	-0.15882635
118	0x3d96e57f	0.07367992
119	0xbd891ad2	-0.06694569
120	0xbb38cc5b	-0.0028197977
121	0x3e1e3e26	0.15453395
122	0xbda20bde	-0.0791242
123	0xbd8523fb	-0.06501003
124	0xbe32cda2	-0.17461255
125	0xbe01b29c	-0.1266579
126	0xbdec61f8	-0.115421236
127	0x3d38451e	0.04498779
128	0x3dbaa58d	0.091136076
129	0xbce8c4d9	-0.028414177
130	0xbdea43a6	-0.11438684
131	0x3c21d531	0.009877489
132	0x3dac53b8	0.084144056
133	0xbd837733	-0.0641922
134	0xbde251c5	-0.110507526
135	0x3dbfe599	0.09369964
136	0xbe2f1861	-0.17099144
137	0x3d94f98a	0.07274158
138	0x3e0d6645	0.13808544
139	0xbe316059	-0.1732191
140	0xbd49bd9f	-0.049253102
141	0xbd27ad8b	-0.040936988
142	0x3c3da7b7	0.011575631
143	0xbe36e441	-0.1786051
144	0xbde09c08	-0.109672606
145	0xbdd2cc69	-0.102928944
146	0x3d8c823c	0.06860778
147	0x3d7e5db5	0.062101085
148	0xbe0c8394	-0.13722068
149	0x3d3cd8d0	0.046105206
150	0x3bb84c84	0.0056243557
151	0x3d84a609	0.06476981
152	0xbd8876c4	-0.06663278
153	0x3df36b99	0.11885757
154	0xbda6cde5	-0.0814474
155	0xbe0a8c7e	-0.13530156
156	0x3dd84117	0.1055929
157	0xbe324cda	-0.17412129
158	0x3df50e83	0.119656585
159	0xbd4d4c54	-0.05012162
160	0xbdb2b80a	-0.08726509
161	0xbe234067	-0.15942536
162	0xbd07c690	-0.03314835
163	0x3d7ada7d	0.061243523
164	0xbd666213	-0.056245875
165	0x3e27185d	0.16317888
166	0x3dbdcf9b	0.09268113
167	0x3d780f50	0.06056148
168	0xbe28bb38	-0.16477668
169	0x3b7bed71	0.0038441087
170	0xbe01be7d	-0.12670322
171	0x3d3d2509	0.046177898
172	0xbd211fba	-0.039336897
173	0x3de01a12	0.109424725
174	0xbb21fc47	-0.002471702
175	0xbe278ad5	-0.16361554
176	0xbdc6bdb1	-0.097041495
177	0xbe33d467	-0.17561494
178	0xbd370fa8	-0.044692665
179	0x3dae2a9b	0.0850422
180	0xbe13f315	-0.14448197
181	0x3df0aa6f	0.11751258
182	0xbe328c8b	-0.17436425
183	0xbc584566	-0.01320014
184	0x3a1bef01	0.0005948395
185	0xbdb54fbd	-0.088530995
186	0xbe1c7012	-0.15277126
187	0xbdc63b49	-0.096792765
188	0xbe1317ba	-0.1436452
189	0xbca437f9	-0.020046221
190	0x3cdbe4dc	0.026842527
191	0xbe27d085	-0.16388138
192	0x3dadf6f8	0.08494371
193	0x3e03bd20	0.12865114
194	0x3df8ab67	0.121420674
195	0xbd25bfad	-0.040466
196	0x3e0f738e	0.14008924
197	0x3d6cef3d	0.057845343
198	0xbdffa4d5	-0.12482611
199	0xbda68805	-0.081314124
200	0xbe1d71f2	-0.15375498
201	0x3da5aabf	0.08089208
202	0x3e037f84	0.12841612
203	0x3d887db1	0.06664599
204	0xbcfc0db1	-0.030768247
205	0xbe11b82f	-0.14230417
206	0xbe2a1d64	-0.16612774
207	0x3ca375bf	0.019953607
208	0xbcc478f0	-0.023983449
209	0x3e0a6791	0.1351607
210	0xbd9636fb	-0.073347054
211	0x3e0c33d6	0.13691649
212	0x3dc10d40	0.09426355
213	0x3de42476	0.11139767
214	0x3d26a885	0.040688056
215	0x3e0a2f15	0.13494523
216	0xbdb844f7	-0.08997529
217	0xbd3b9cdc	-0.04580389
218	0xbdb3b772	-0.08775224
219	0x3c637dc6	0.013884967
220	0x3e29a27a	0.16565886
221	0xbd46d54d	-0.048543263
222	0xbd11cf59	-0.035598133
223	0x3dda4d87	0.106593184
224	0xbd7c2c1d	-0.061565507
225	0xbd2d5bc7	-0.042323854
226	0xbdf2d290	-0.11856568
227	0xbe02e252	-0.12781647
228	0x3d173c84	0.036922947
229	0x3e0e3d80	0.13890648
230	0x3e0f418e	0.13989851
231	0xbdcc4552	-0.09974159
232	0x3db634f2	0.08896817
233	0xbddbadb7	-0.10726493
234	0xbe3185d3	-0.17336206
235	0xbadde147	-0.00169281
236	0x3e1ca20b	0.1529619
237	0xbc9b8c13	-0.018987691
238	0xbe15d3ee	-0.14631626
239	0xbd71841b	-0.058963876
240	0x3d8cd937	0.06877368
241	0x3e09c32b	0.13453357
242	0xbe328cfd	-0.17436595
243	0x3d396211	0.04525954
244	0x3d7c3c77	0.0615811
245	0x3d161132	0.036637492
246	0xbe30868e	-0.17238829
247	0xbd7ab529	-0.061207924
248	0xbcf25215	-0.029580155
249	0xbdc60302	-0.096685424
250	0xbe048502	-0.12941363
251	0x3d05d981	0.03267813
252	0xbc8109c0	-0.01575172
253	0xbc006134	-0.007835675
254	0xbdfd88f3	-0.123796366
255	0x3e11a222	0.14222005

row_embedding.3.bias f4 [32]
0	0x3dde1a59	0.10844869
1	0xbd5769a9	-0.052591
2	0xbd7703a6	-0.060306214
3	0xbd2ae506	-0.04172232
4	0x3c78752e	0.015164657
5	0xbe04ea03	-0.12979893
6	0x3ddb344c	0.10703334
7	0x3e1201b4	0.14258462
8	0xbd84beef	-0.0648173
9	0x3dd29094	0.10281482
10	0x3e08371c	0.13302273
11	0x3dc9f318	0.098608196
12	0xbca03ed5	-0.01956121
13	0x3d320fd7	0.043472137
14	0x3dd640d4	0.10461584
15	0x3dd87294	0.10568729
16	0x3dc51840	0.09623766
17	0xbd960db4	-0.073268324
18	0x3d499d8f	0.049222525
19	0x3dbd3281	0.092381485
20	0xbc1f6840	-0.009729445
21	0x3d071f0d	0.032988597
22	0x3d5f9fb9	0.054595683
23	0x3d85b028	0.0652774
24	0x3dd4d0bd	0.10391376
25	0x3d29aff2	0.04142756
26	0x3e287d91	0.1645415
27	0xbd629c13	-0.055324625
28	0x3ba0e8dc	0.0049105715
29	0xbc0842a8	-0.008316673
30	0xbe18a3fb	-0.14906304
31	0x3df6647e	0.12030886

col_embedding.0.weight f4 [7]
0	0x3f7f9a66	0.9984497
1	0x3f800853	1.000254
2	0x3f8002b6	1.0000827
3	0x3f800bd2	1.0003607
4	0x3f7fb50d	0.99885637
5	0x3f7fcca7	0.9992165
6	0x3f80085b	1.000255

col_embedding.0.bias f4 [7]
0	0xba9217fc	-0.0011146064
1	0xb95c6df7	-0.000210218
2	0x3822c2b1	3.880513e-05
3	0xb9c65bb3	-0.00037833824
4	0x3a51eed2	0.0008008304
5	0x3a584e4b	0.00082514127
6	0x3a2943b0	0.00064569246

col_embedding.1.weight f4 [32, 7]
0	0x3eb4cc6e	0.35312217
1	0x3ba24d8e	0.004953093
2	0xb9f6a8f9	-0.0004704667
3	0xbe32efcd	-0.17474289
4	0x3e8d0d44	0.27549183
5	0xbeba7b70	-0.364223
6	0xbdcf5285	-0.10123161
7	0xbdee0b36	-0.11623232
8	0xbe84749e	-0.25870222
9	0xbe28104c	-0.16412467
10	0x3e3e3aff	0.18577193
11	0xbe5a8833	-0.21341018
12	0x3ba7aa06	0.005116704
13	0xbe71f89f	-0.23629998
14	0xbe4a1c61	-0.19737388
15	0x3c52ef54	0.012874443
16	0x3e8abef4	0.2709881
17	0xbe355980	-0.17709923
18	0x3d000400	0.031253815
19	0x3db838db	0.08995219
20	0x3e5718d1	0.2100556
21	0x3e91a15b	0.28443417
22	0x3e9053e8	0.28189015
23	0xbdd4ed77	-0.10396855
24	0x3d75785f	0.059929248
25	0xbe9e5372	-0.3092304
26	0xbc978aeb	-0.018498858
27	0x3e34c521	0.17653324
28	0x3e16aba9	0.1471392
29	0x3ea45627	0.3209698
30	0x3e975c63	0.29562673
31	0xbe376708	-0.17910397
32	0xbd88324f	-0.066502206
33	0xbe80c23a	-0.25148183
34	0xbebae104	-0.36499798
35	0xbec1050b	-0.3769916
36	0x3d1a630b	0.03769211
37	0xbd923bea	-0.07140334
38	0x3e777955	0.24167378
39	0xbe69b8fe	-0.22824475
40	0x3e2c9fa9	0.1685778
41	0xbdf7a76f	-0.12092482
42	0xbd0881eb	-0.033327024
43	0x3eba090e	0.36335033
44	0x3ebee45a	0.37283593
45	0x3e518212	0.20459774
46	0x3e6c26b9	0.23061647
47	0x3d1592d7	0.03651699
48	0x3e3053e9	0.17219509
49	0x3d9eedfa	0.07760234
50	0xbdfcd198	-0.12344664
51	0x3e3dad44	0.18523127
52	0xbeb5e3c7	-0.35525343
53	0x3d90a158	0.07062024
54	0x3d942957	0.072344474
55	0x3e056a06	0.13028726
56	0xbde09831	-0.10966528
57	0xbe387e33	-0.18016891
58	0xbdbebd35	-0.09313432
59	0xbc549388	-0.012974627
60	0xbe64ec29	-0.22355713
61	0xbe1dc74d	-0.15408058
62	0x3e35b708	0.17745602
63	0x3d9b87dc	0.075942725
64	0xbea6c8e4	-0.32575142
65	0xbd5e6b9d	-0.054301847
66	0xbcce66c1	-0.025195481
67	0x3e27162d	0.16317053
68	0x3e99f86e	0.3007235
69	0xbec18829	-0.37799194
70	0x3eba8e4e	0.36436695
71	0x3c955ed6	0.018233698
72	0x3eb9a49e	0.36258405
73	0xbe034eec	-0.12823075
74	0xbe9255c0	-0.28581047
75	0xbe73dd39	-0.23814858
76	0xbe6fc16d	-0.2341363
77	0x3eb76fc0	0.35827446
78	0x3e07b7ab	0.13253658
79	0xbe892040	-0.26782417
80	0xbd85eaf1	-0.06538952
81	0xbe31b19b	-0.17352907
82	0xbe6cd002	-0.23126224
83	0x3e62010c	0.22070712
84	0x3e961474	0.2931248
85	0xbe98fd66	-0.29880828
86	0x3cc404be	0.023928043
87	0x3e7dc6d2	0.24782875
88	0x3e263534	0.16231233
89	0xbd94ef31	-0.07272185
90	0xbe69598a	-0.22788063
91	0xbea66ddb	-0.32505688
92	0xbe54f2b2	-0.20795706
93	0x3c5bfd67	0.013427115
94	0xbd0da49d	-0.034580816
95	0x3e4cbb5c	0.19993347
96	0x3e2af1c7	0.16693793
97	0xbc0a233b	-0.008431251
98	0xbc81d6ab	-0.015849432
99	0x3e402fe5	0.1876827
100	0xbe3f788a	-0.18698326
101	0x3e5c8d6f	0.21538328
102	0x3ea354e4	0.31900704
103	0x3e646f1c	0.2230801
104	0x3db04a5b	0.08607932
105	0x3d3d1d27	0.04617038
106	0xbcdf48bb	-0.02725636
107	0x3e4ad2d9	0.19806994
108	0x3e841da2	0.25803858
109	0xbcdd1b9b	-0.026990702
110	0x3e027a49	0.1274196
111	0xbe9131cb	-0.28358302
112	0x3e4157f8	0.18881214
113	0x3e8c24f0	0.2737193
114	0xba479b6e	-0.00076144084
115	0xbe1d6032	-0.15368727
116	0xbdbed12f	-0.09317242
117	0xbdfb54d4	-0.12272039
118	0xbeaf4dd6	-0.34239072
119	0x3ea77225	0.32704273
120	0xbc465167	-0.012104369
121	0xbea38eb6	-0.31944817
122	0x3e83e966	0.25764006
123	0x3ea2f8ff	0.31830594
124	0x3e9feb55	0.31234232
125	0xbe6b7e5f	-0.22997425
126	0xbe837b17	-0.25679848
127	0x3d9e85e3	0.077403806
128	0x3d8f4b33	0.06996765
129	0xbe6202e7	-0.2207142
130	0x3d888794	0.066664845
131	0x3e818ebd	0.25304213
132	0xbe8dbfc2	-0.27685362
133	0x3ebdf372	0.37099797
134	0xbeb2e694	-0.34941542
135	0xbdaccf0f	-0.08437931
136	0xbd65682e	-0.056007557
137	0x3db2517b	0.087069474
138	0xbc423afa	-0.011854881
139	0x3e810710	0.252007
140	0x3d8c9c00	0.06865692
141	0xbe24a8b1	-0.16079976
142	0xbebeb135	-0.37244573
143	0xbe95b3dd	-0.29238787
144	0x3e52b5d3	0.20577173
145	0x3e211531	0.1573074
146	0x3e4f9274	0.20270711
147	0xbd30086b	-0.042976778
148	0x3dddd039	0.10830731
149	0xbea48146	-0.32129878
150	0x3c320572	0.010865556
151	0xbe1fcc25	-0.15605219
152	0xbe81813e	-0.25293916
153	0xbdb861b1	-0.09003008
154	0x3e66f317	0.22553669
155	0x3e6c30d6	0.23065504
156	0x3d6a0c07	0.057140376
157	0xbd82c9d3	-0.06386151
158	0xbe323530	-0.17403102
159	0xbc7562c4	-0.014977161
160	0xbd3aec73	-0.04563565
161	0x3e677320	0.2260251
162	0x3de99fdd	0.114074446
163	0xbe930a92	-0.28719002
164	0xbea46047	-0.32104704
165	0x3dff2599	0.12458343
166	0x3ce1e547	0.027575148
167	0x3e0bf56c	0.1366784
168	0xbe2c622d	-0.16834326
169	0x3e25024a	0.16114154
170	0xbe9ce4d5	-0.30643335
171	0x3db063e3	0.08612802
172	0xbe835923	-0.25653943
173	0xbe9894e1	-0.29801086
174	0xbda1b9a3	-0.078967355
175	0x3e8bafe9	0.27282646
176	0xbe8502eb	-0.2597879
177	0xbe890f03	-0.26769266
178	0x3e3e003e	0.1855478
179	0xbeb4db23	-0.35323438
180	0xbc15e151	-0.009147958
181	0xbe87ad6f	-0.26499507
182	0x3e89f2e9	0.26943138
183	0xbd691ca0	-0.056912065
184	0xbdcb7144	-0.09933713
185	0xbe6a77c1	-0.22897245
186	0x3cc4d9c4	0.02402962
187	0x3e12f06d	0.14349528
188	0x3dc8d0e0	0.09805465
189	0x3e4932e7	0.19648324
190	0x3ebe3933	0.37153015
191	0x3e3cf169	0.18451466
192	0x3ea051b7	0.31312343
193	0x3d9d17cc	0.076705545
194	0xbe6dd5cd	-0.2322609
195	0xbe96f434	-0.29483187
196	0x3eb78aa3	0.3584796
197	0xbe0c56d5	-0.13704999
198	0x3ea75b7a	0.3268698
199	0x3d53e391	0.051730696
200	0xbe064726	-0.13113078
201	0xbe646301	-0.22303392
202	0xbeb27a53	-0.3485895
203	0x3c8fd6d7	0.017558498
204	0x3dcd69bc	0.10029933
205	0xbbb8afea	-0.005636205
206	0xbe9bd9b6	-0.30439538
207	0x3e90597c	0.2819327
208	0x3e8777c0	0.2645855
209	0x3eb6f0d5	0.35730615
210	0x3eb2bd52	0.34910065
211	0xbdd3b6a3	-0.103375696
212	0xbe44a209	-0.19202437
213	0x3e360feb	0.1777951
214	0x3c2650b8	0.010151081
215	0x3e10a60b	0.1412584
216	0xbd5e2c8a	-0.054241695
217	0x3e32bff0	0.17456031
218	0xbebb52b4	-0.36586535
219	0x3eb0b5cb	0.34513697
220	0x3e2283ae	0.15870544
221	0x3eb9990d	0.3624958
222	0x3ba9f31d	0.005186452
223	0x3e742b06	0.23844537

col_embedding.1.bias f4 [32]
0	0xbe87b5bc	-0.2650584
1	0xbe308887	-0.17239581
2	0xbd9ef32c	-0.07761225
3	0xbe92a812	-0.28643852
4	0xbe99ef17	-0.30065224
5	0x3e8b05e2	0.27152926
6	0xbe48f764	-0.19625622
7	0xbe247e36	-0.1606377
8	0xbd244006	-0.04010012
9	0xbd13a2fe	-0.036044113
10	0x3dc65197	0.09683531
11	0x3e8a9582	0.2706719
12	0x3d6be230	0.057588756
13	0xbe2d9472	-0.16951159
14	0x3e00ba9b	0.12571184
15	0xbec0c4a8	-0.37650037
16	0x3eb53966	0.35395354
17	0x3bb16e78	0.00541478
18	0xbe53d603	-0.20687108
19	0xbd254552	-0.040349312
20	0xbccde23c	-0.025132291
21	0xbea934a7	-0.33047983
22	0x3e8e74aa	0.27823383
23	0x3d9e5f8a	0.077330664
24	0xbeb50725	-0.35357013
25	0x3e9c72b8	0.30556273
26	0xbe8f0940	-0.27936745
27	0xbda800fd	-0.082033135
28	0x3de8b52c	0.11362681
29	0x3eb5787c	0.35443485
30	0xbd512d8d	-0.05106883
31	0x3eabcc03	0.33554086

col_embedding.3.weight f4 [32, 32]
0	0x3e0cbd0d	0.13743992
1	0x3e02decf	0.12780307
2	0xbbe2a28b	-0.0069163493
3	0xbe0ed447	-0.13948165
4	0x3d9e4662	0.07728268
5	0xbd021b7b	-0.03176449
6	0xbe2b2268	-0.16712344
7	0x3e0bc6dd	0.13650079
8	0x3e0ca403	0.1373444
9	0x3e1a6938	0.150792
10	0x3dc1fb1c	0.094717234
11	0x3de30c73	0.11086359
12	0xbe143cea	-0.14476362
13	0xbbdcc5c2	-0.0067374418
14	0x3d6da894	0.058022097
15	0x3d9491a8	0.07254344
16	0xbd61a3d0	-0.055087864
17	0xbd113a26	-0.035455845
18	0xbe064096	-0.13110575
19	0xbe20eddb	-0.15715735
20	0x3c0c5f52	0.008567648
21	0x3e30718e	0.17230818
22	0xbdf45611	-0.11930478
23	0x3e29a321	0.16566135
24	0xbe230fdb	-0.15924017
25	0xbdf3ecc7	-0.11910396
26	0xbe0e308d	-0.13885708
27	0xbe016c18	-0.1263889
28	0x3e151bee	0.14561436
29	0x3b2ad181	0.0026064815
30	0xbd3f01be	-0.04663252
31	0x3e2ee992	0.17081288
32	0x3db2915e	0.08719133
33	0xbe0ced8f	-0.13762496
34	0x3e1b0c12	0.15141323
35	0xbdb55f6e	-0.088560924
36	0x3dc223df	0.09479498
37	0x3d4d8229	0.05017296
38	0x3d6a17d5	0.057151634
39	0xbd480b6f	-0.04883903
40	0x3e26ba99	0.16282119
41	0xbb8f00a5	-0.0043640905
42	0x3dd86389	0.1056586
43	0x3df60877	0.12013333
44	0xbe1d7e8c	-0.15380305
45	0xbcf8480f	-0.030307798
46	0xbdcf9e8b	-0.101376615
47	0xbc950ef2	-0.018195603
48	0xbe189f80	-0.14904594
49	0xbc912f6e	-0.017722812
50	0xbdebe0ef	-0.11517512
51	0xbd8aee9f	-0.067837946
52	0x3dc5c1ef	0.096561305
53	0xbc70d734	-0.014699746
54	0x3e27d730	0.16390681
55	0x3d754a48	0.059885293
56	0x3d6aa83c	0.057289347
57	0x3d3bfde5	0.04589643
58	0xbe349079	-0.17633237
59	0x3e2e1ec5	0.17003925
60	0xbbe0acba	-0.006856528
61	0xbe2fa28f	-0.17151855
62	0xbbcb22ae	-0.0061992025
63	0xbdb5214c	-0.088442415
64	0xbd73f806	-0.059562705
65	0xbd37dd3a	-0.044888712
66	0xbcbcbdb5	-0.023039678
67	0xbdd88b51	-0.105734475
68	0xbdd2ec8b	-0.10299023
69	0x3d7ea8e2	0.062172778
70	0x3e2057de	0.15658519
71	0x3e338d17	0.1753429
72	0xbda5ad84	-0.08089736
73	0xbe222aef	-0.1583669
74	0xbd0fb5b9	-0.035085414
75	0xbc690f93	-0.014224905
76	0xbe1f48cd	-0.15555115
77	0xbe06e339	-0.13172616
78	0xbc3917ef	-0.01129721
79	0x3d8ecb72	0.06972398
80	0x3a888886	0.0010416664
81	0xbd57b274	-0.05266042
82	0xbcc76fdd	-0.024345333
83	0x3e25b361	0.16181709
84	0x3d9938a9	0.0748151
85	0xbdcb7483	-0.09934332
86	0x3dd6e839	0.10493512
87	0x3df4cf84	0.11953643
88	0xbdc64bfe	-0.09682463
89	0xbd0c28f1	-0.034218732
90	0x3de08992	0.109637395
91	0x3b8c8e97	0.004289459
92	0x3ce76df7	0.028250678
93	0xbd219d74	-0.0394568
94	0xbd2b6b94	-0.04185064
95	0x3dac27ae	0.08406006
96	0x3dda6a84	0.106648475
97	0xbd35a25e	-0.0443443
98	0xbcb0c209	-0.021576898
99	0x3cd74f0c	0.02628281
100	0x3da17814	0.07884231
101	0xbe2f82e4	-0.17139775
102	0xbd90639e	-0.070502505
103	0x3dd7636a	0.105170086
104	0x3e1f43f0	0.1555326
105	0xbe2d6bb2	-0.16935614
106	0x3d284ef6	0.041090928
107	0xbd3fd75a	-0.046836235
108	0x3d84c3aa	0.064826325
109	0xbc1d51c6	-0.009602016
110	0xbd9b5369	-0.075842686
111	0xbe152a42	-0.14566901
112	0xbd4f2a0a	-0.0505772
113	0x3d1603cb	0.03662471
114	0xbd4ca874	-0.049965337
115	0x3bfd4749	0.007729445
116	0x3d7b03b5	0.061282832
117	0x3debd68e	0.115155324
118	0x3df6a052	0.120422974
119	0x3d82463d	0.06361053
120	0x3de77c3e	0.11302994
121	0xbe1b9bad	-0.15196104
122	0x3df4c857	0.11952274
123	0xbcc31025	-0.02381141
124	0x3df6a3d2	0.12042965
125	0x3e0c36c8	0.13692772
126	0x3e1031fb	0.14081566
127	0x3d880f7e	0.0664358
128	0x3dd8fb0c	0.105947584
129	0x3d76bc75	0.06023832
130	0x3d016cea	0.03159801
131	0xbdb654d6	-0.089029
132	0x3c1556cf	0.009114935
133	0x3e10d1c8	0.14142525
134	0xbd1456fe	-0.036215775
135	0xbceb1293	-0.02869538
136	0x3e0997ba	0.13436785
137	0x3dcaded4	0.09905782
138	0xbda802a1	-0.082036264
139	0xbe23c57b	-0.15993302
140	0x3c932c87	0.017965568
141	0xbe099814	-0.1343692
142	0xbe0686a1	-0.13137294
143	0x3e129593	0.1431487
144	0x3dd22ecc	0.10262832
145	0xbe288b2f	-0.16459344
146	0xbdbc2d57	-0.091883354
147	0x3dc782df	0.097417586
148	0xbe05d732	-0.13070372
149	0x3d9648af	0.07338082
150	0x3cfb878c	0.030704282
151	0xbdfa63a9	-0.1222604
152	0x3bd789d7	0.006577711
153	0x3d718bb1	0.05897111
154	0x3e2de773	0.16982822
155	0x3dd75511	0.10514272
156	0x3ccf59a5	0.0253113
157	0xbd8d7afd	-0.06908224
158	0xbe23da1c	-0.16001171
159	0x3cbb4f12	0.022864852
160	0x3cd81cc9	0.026380913
161	0x3d8d32d3	0.068944596
162	0xbd681d8d	-0.056668807
163	0xbe07d461	-0.1326461
164	0x3de556c8	0.11198193
165	0x3dbc29d5	0.09187666
166	0xbd5fb2e2	-0.054613955
167	0x3e078b1b	0.13236658
168	0x3e1c459f	0.15260933
169	0x3dd5ef14	0.10445991
170	0xbdbaa2ca	-0.09113081
171	0xbdedadb6	-0.11605398
172	0xbdcdb41b	-0.10044118
173	0x3e13405d	0.14380021
174	0xbdec435a	-0.11536284
175	0x3d4e24f0	0.050328195
176	0xbd3e35ae	-0.04643791
177	0xbdd09cba	-0.10186143
178	0x3e0d55aa	0.1380221
179	0x3d356301	0.04428387
180	0xbd9a84f2	-0.075448886
181	0xbd42c6df	-0.04755294
182	0x3e005a86	0.12534532
183	0xbc9783ae	-0.018495407
184	0x3d4af744	0.049552217
185	0xbe0d4acb	-0.13798063
186	0xbd8ac6e1	-0.067762144
187	0xbd42f5de	-0.04759776
188	0x3e15d5e9	0.14632381
189	0xbe228e24	-0.15874535
190	0x3db35789	0.087569304
191	0x3c32be86	0.010909682
192	0x3d40249b	0.04690991
193	0xbd7b5d0f	-0.061368044
194	0x3defa123	0.11700656
195	0xb9eaa489	-0.00044754546
196	0xbde6814a	-0.11255129
197	0xbc825734	-0.015910722
198	0x3da29717	0.07938974
199	0x3df89014	0.12136856
200	0x3e311271	0.17292191
201	0x3e2575d0	0.16158223
202	0xbcead52c	-0.028666101
203	0xbdc18d14	-0.09450737
204	0x3cace1c8	0.021103755
205	0xbe234028	-0.15942442
206	0x3e015bb3	0.12632637
207	0x3ba742ee	0.005104414
208	0x3e308fd5	0.17242368
209	0xbd940be8	-0.072288334
210	0x3dcce495	0.10004536
211	0x3e207507	0.15669642
212	0xbce0f3fa	-0.027460087
213	0x3dcf9bd6	0.10137145
214	0xbdec335e	-0.11533235
215	0x3e22c154	0.15894061
216	0x3d2e5692	0.04256303
217	0x3e114d31	0.14189602
218	0x3cb9675a	0.02263229
219	0xbc686c1b	-0.014185931
220	0x3d45572d	0.04817884
221	0x3df86a8b	0.121296965
222	0x3ded2d2c	0.115808815
223	0xbdf7f9c7	-0.12108188
224	0xbdf80458	-0.121102035
225	0x3daf039f	0.085456125
226	0x3e2a5522	0.16634038
227	0x3e15f5dc	0.14644569
228	0xbdd245a4	-0.10267189
229	0x3cbf80e2	0.023376886
230	0xbc84ba9a	-0.01620226
231	0xbe1b650c	-0.15175265
232	0x3e103d06	0.14085779
233	0x3e270a42	0.16312507
234	0x3d388715	0.0450507
235	0xbde504ab	-0.11182531
236	0xbc911376	-0.017709475
237	0x3dfacfd3	0.122466706
238	0xbdcade9b	-0.0990574
239	0xbd3f15e8	-0.04665175
240	0xbdb23844	-0.08702138
241	0x3c0bf054	0.008541185
242	0xbd9d7dcf	-0.07690012
243	0xbcf6a439	-0.030107604
244	0xbd4d1a91	-0.050074164
245	0x3dd8a8b7	0.10579055
246	0xbdb1cc88	-0.08681589
247	0x3d42ec86	0.047588848
248	0x3e0f1029	0.13971008
249	0x3e127607	0.14302836
250	0xbe1cda40	-0.15317631
251	0xbd5edbf9	-0.054409
252	0xbdc0e04b	-0.094177805
253	0xbe0dacde	-0.13835475
254	0x3d65bbdc	0.05608736
255	0x3df70f2c	0.12063441

col_embedding.3.bias f4 [32]
0	0xbd3c5ef9	-0.04598901
1	0x3e1a8b23	0.15092139
2	0xbdc7a0f7	-0.097474985
3	0x3df5be79	0.119992204
4	0xbcc2d246	-0.023781907
5	0x3e1ca078	0.15295589
6	0x3dd6a7a3	0.10481193
7	0x3cf7e288	0.030259386
8	0x3e1253b7	0.14289747
9	0x3e116989	0.14200415
10	0x3e0758aa	0.13217416
11	0x3e07d49b	0.13264696
12	0xbda9033e	-0.082525715
13	0x3e224fb1	0.15850712
14	0x3d8a75b7	0.067607336
15	0xbca6af8c	-0.02034738
16	0xbdc02b36	-0.09383242
17	0xbdac229c	-0.08405039
18	0x3dece308	0.1156674
19	0x3e12d190	0.14337754
20	0x3dbb166d	0.09135137
21	0x3dca2b96	0.098715946
22	0xbdfc8dcc	-0.12331733
23	0x3e1b0e63	0.15142207
24	0x3e0e2811	0.13882472
25	0xbd863328	-0.06552726
26	0x3e0b1fbd	0.13586326
27	0x3dbe363e	0.092876896
28	0x3dbc9418	0.09207934
29	0x3cf7e048	0.030258313
30	0xbdb7fb72	-0.08983506
31	0x3d9af7ad	0.07566772

conv_col_to_row.feature_module_left.0.weight f4 [32, 32]
0	0x3cc8081d	0.024417931
1	0xbe1cae58	-0.15300882
2	0xbb697569	-0.003562296
3	0x3d2397ed	0.03993981
4	0xbd0601a5	-0.032716412
5	0xbdef7908	-0.11693007
6	0x3c76a9aa	0.0150550995
7	0xbd6a8db0	-0.05726403
8	0x3e1fb763	0.155973
9	0x3c173962	0.00922999
10	0xbcaf820a	-0.021424312
11	0x3e062d41	0.131032
12	0x39c67a98	0.00037856842
13	0xbd550ca1	-0.052013997
14	0xbc9c000c	-0.019042991
15	0xbc249e10	-0.010047451
16	0xbc2e20b3	-0.010627913
17	0xbe0ef4a4	-0.1396051
18	0x3e05ad1a	0.13054314
19	0x3ce9d825	0.028545449
20	0xbdba026f	-0.090824954
21	0xbddad56b	-0.106852375
22	0x3da0c7ad	0.07850585
23	0x3d9f6656	0.07783191
24	0x3dc4d4a8	0.096108735
25	0xbdd8379e	-0.10557483
26	0xbe252bf5	-0.1613005
27	0xbe07546e	-0.13215801
28	0x3e015dc3	0.12633424
29	0xbd4222ff	-0.047396656
30	0xbd5e236e	-0.054233007
31	0xbdcdc584	-0.10047439
32	0x3e05dcdf	0.13072537
33	0x3d92d677	0.07169812
34	0x3dd61e80	0.10455036
35	0xbdca0038	-0.09863323
36	0xbd012f1c	-0.031539068
37	0x3e23c9d1	0.15994956
38	0xbcb4a2a1	-0.022050204
39	0xbe309b8b	-0.17246835
40	0xbdb47217	-0.088108234
41	0x3b97868b	0.004624193
42	0x3df1991f	0.11796784
43	0x3cfc1b19	0.03077464
44	0x3d1fe2c3	0.039034616
45	0xbdfb25bb	-0.12263056
46	0x3cf7752c	0.03020724
47	0x3c72e140	0.014824212
48	0x3e0164e7	0.12636147
49	0xbe07785c	-0.13229507
50	0x3ce7f730	0.02831611
51	0xbdd40ad7	-0.1035363
52	0xbd257b48	-0.040400773
53	0x3db75a16	0.089527294
54	0xbe335c70	-0.17515731
55	0x3ddd4934	0.10804978
56	0xbe24f7a3	-0.16110091
57	0x3d1675d0	0.03673345
58	0x3da38406	0.07984166
59	0x3dd34060	0.10315013
60	0xbdc1b1b7	-0.094577245
61	0xbde23564	-0.1104534
62	0x3dbf7f32	0.093504325
63	0xbc7fa6a2	-0.015603693
64	0x3de94ddb	0.11391803
65	0xbdddc626	-0.108288094
66	0x3cdefbcf	0.027219681
67	0x3d8d320e	0.06894313
68	0x3cbf7663	0.02337188
69	0x3e0310d7	0.12799393
70	0xbe038381	-0.12843134
71	0x3e2ca36a	0.16859213
72	0xbdea916b	-0.114535175
73	0xbdd98452	-0.10620941
74	0x3e04ae5a	0.12957135
75	0x3cac2c9a	0.021017361
76	0xbe2d0e7d	-0.16900058
77	0xbe299019	-0.16558875
78	0xbda4f363	-0.08054235
79	0x3e29f5ea	0.16597715
80	0x3d260a70	0.040537298
81	0xbe05d41a	-0.13069192
82	0x3e2d78bb	0.16940586
83	0x3d90a23c	0.07062194
84	0xbd93ef75	-0.07223407
85	0xbce004ff	-0.027346132
86	0xbd4320d5	-0.047638733
87	0x3e33b297	0.17548595
88	0x3ba7f7f3	0.0051259934
89	0x3d57be93	0.05267198
90	0xbe1019ce	-0.14072344
91	0x3cbba6f1	0.022906752
92	0xbd89002d	-0.06689487
93	0x3d8e53fd	0.06949613
94	0x3cce9e58	0.025221989
95	0xbc359a99	-0.011084222
96	0xbd4d4225	-0.05011191
97	0xbd7b128d	-0.06129699
98	0x3c55a66c	0.013040166
99	0x3c202677	0.009774796
100	0xbc6392e2	-0.01389
101	0x3d51a94b	0.05118684
102	0xbc83ad4a	-0.016073842
103	0xbd8c0169	-0.068362065
104	0x3e1153de	0.14192149
105	0xbdc23849	-0.09483392
106	0xbdfc431f	-0.1231749
107	0x3e1b10bf	0.15143107
108	0x3cded629	0.027201729
109	0xbd031853	-0.03200562
110	0xbdc2f850	-0.09520018
111	0xbd071fc6	-0.032989286
112	0xbe084806	-0.13308725
113	0x3d224daf	0.039624866
114	0x3c9de174	0.019272543
115	0x3d9d8182	0.07690717
116	0xbcff1da2	-0.03114206
117	0xbe2ae4a9	-0.1668879
118	0x3e0c92f3	0.13727932
119	0xbe257881	-0.1615925
120	0xbdea0430	-0.1142658
121	0xbbb16700	-0.00541389
122	0xbdcfc3be	-0.10144757
123	0xbdbfce38	-0.09365505
124	0x3dfc0ade	0.1230676
125	0xbe2d0511	-0.16896464
126	0xbcb68bbe	-0.022283431
127	0x3db87349	0.09006364
128	0xbe199096	-0.14996561
129	0x3d9faf2e	0.07797085
130	0x3e25402e	0.16137764
131	0x3b50b8ec	0.0031848503
132	0x3dc0492f	0.09388959
133	0xbde537a4	-0.11192253
134	0x3e08e858	0.13369882
135	0xbe1fd845	-0.15609844
136	0x3d845b42	0.064627185
137	0x3dd12264	0.102116376
138	0xbdaa42e3	-0.08313539
139	0xbdd1c151	-0.1024195
140	0x3d25a369	0.040439043
141	0x3e27f27d	0.16401096
142	0xbda01499	-0.07816429
143	0x3e053778	0.13009441
144	0xbda63190	-0.08114922
145	0xbbd9da26	-0.00664832
146	0x3e062792	0.13101032
147	0xbe136497	-0.1439384
148	0xbe325b28	-0.17417586
149	0xbcfb7ac5	-0.03069819
150	0x3d0d8bee	0.034557275
151	0x3cb8aa7c	0.02254223
152	0xbe347b64	-0.17625195
153	0xbda46f26	-0.080290124
154	0x3d27ef25	0.04099955
155	0xbcdf65b2	-0.027270172
156	0xbe1d9dfa	-0.15392295
157	0x3d6b02ac	0.057375595
158	0x3d39a266	0.04532089
159	0xbdc667a7	-0.09687739
160	0x3bea5d86	0.007152262
161	0xbe0c5ab5	-0.13706477
162	0x3e234561	0.15944435
163	0x3da6e338	0.08148807
164	0x3c68108d	0.014164102
165	0x3da79877	0.08183377
166	0x3d611caf	0.054958995
167	0x3df131e2	0.117770925
168	0xbe1080e8	-0.14111674
169	0xbd078ef0	-0.0330953
170	0x3d8bf121	0.06833101
171	0xbe1710e4	-0.14752537
172	0xbd0f350c	-0.0349627
173	0xbd7be3b2	-0.061496444
174	0x3cb2b475	0.021814564
175	0xbe00a2d7	-0.12562118
176	0x3e2b2112	0.16711834
177	0xbe026ca0	-0.1273675
178	0xbd86ea34	-0.065876395
179	0xbdcd48db	-0.10023662
180	0x3dfab732	0.12241973
181	0x3df68816	0.12037675
182	0x3d6506d9	0.055914734
183	0x3df97af9	0.12181658
184	0x3e256dc6	0.16155156
185	0xbbf1c996	-0.0073787672
186	0xbdc9bb96	-0.09850232
187	0x3e11812b	0.1420943
188	0x3d846621	0.06464792
189	0xbe09357c	-0.13399309
190	0x3ba464f8	0.005016919
191	0x3e315d9a	0.17320862
192	0xbd5156ec	-0.051108286
193	0xbe1ebbdc	-0.1550135
194	0x3e2695b3	0.16268043
195	0x3ccfd88d	0.025371814
196	0x3d905af7	0.070486
197	0xbe276c7a	-0.16349974
198	0x3e154fd5	0.14581235
199	0xbdec2cbd	-0.11531971
200	0x3cd13a23	0.025540417
201	0x3dab780e	0.08372508
202	0x3c51e0f5	0.012809982
203	0xbe313b14	-0.17307693
204	0x3cdfdb2f	0.027326195
205	0xbda3f500	-0.080057144
206	0x3d335735	0.04378434
207	0x3d9e2edc	0.077237815
208	0x3cbf0cfc	0.023321621
209	0xbccaebf3	-0.024770712
210	0xbd5dd6b4	-0.054159835
211	0x3df3f265	0.119114675
212	0xbd927c52	-0.071526185
213	0x3d661577	0.056172814
214	0xbdd62349	-0.10455949
215	0xbd91c336	-0.07117312
216	0x3cd7e6d7	0.02635519
217	0xbe0e37d7	-0.13888489
218	0x3d485632	0.048910327
219	0xbd4c8460	-0.04993093
220	0x3e2aa0c6	0.16662893
221	0x3bd5807d	0.006515561
222	0xbe168480	-0.14698982
223	0x3dfe78da	0.12425394
224	0xbe00b477	-0.12568842
225	0x3c1b2a9c	0.009470608
226	0xbc0be7b6	-0.008539131
227	0xbdff59d5	-0.12468306
228	0x3e12fe74	0.14354879
229	0xbdce5a75	-0.10075847
230	0x3cd473ac	0.025934063
231	0x3e13b21f	0.14423417
232	0x3e08e83a	0.13369837
233	0xbe20692d	-0.15665121
234	0x3e150ffe	0.14556882
235	0xbd9c55e8	-0.07633573
236	0xbb837c06	-0.0040125875
237	0xbdc778dc	-0.09739849
238	0x3c72be2e	0.01481585
239	0x3dcbe1b3	0.09955158
240	0xbe065b4c	-0.13120764
241	0xbb564b77	-0.003269879
242	0x3e3141b5	0.17310221
243	0x3de51e87	0.11187463
244	0xbd340380	-0.04394865
245	0xbe16a5aa	-0.14711633
246	0x3a8023aa	0.0009776254
247	0xbd84c486	-0.06482796
248	0x3dbbcfe6	0.09170513
249	0x3dee90d2	0.11648716
250	0xbdeda0db	-0.11602946
251	0xbafc7a62	-0.0019262547
252	0x3dff749c	0.12473413
253	0x3da037b0	0.078231215
254	0xbe15ec0d	-0.14640827
255	0xbe175894	-0.14779884

conv_col_to_row.feature_module_left.0.bias f4 [32]
0	0x3ddc2fe5	0.10751323
1	0x3e040e31	0.12896039
2	0xbddf7620	-0.109112024
3	0x3d882da4	0.0664933
4	0xbca2e800	-0.019886017
5	0x3de70d3c	0.11281821
6	0xbdb35347	-0.08756118
7	0x3e326182	0.17420009
8	0xbd732930	-0.05936545
9	0xbe14e6e4	-0.14541203
10	0xbddda268	-0.10821992
11	0xbe1bd869	-0.15219273
12	0x3d175ef8	0.036955804
13	0x3d905643	0.07047703
14	0xbe27ee80	-0.16399574
15	0xbe1b40be	-0.15161416
16	0x3db2d2a8	0.08731586
17	0x3e0562a1	0.13025905
18	0x3cd15fe8	0.025558427
19	0x3d186852	0.037208863
20	0x3d3a1987	0.0454345
21	0x3db08912	0.08619894
22	0x3e25c44a	0.1618816
23	0xbdb3e912	-0.08784689
24	0x3db878e3	0.09007432
25	0xbd56ca35	-0.052438933
26	0x3dffdec5	0.12493662
27	0xbe2ead7f	-0.17058371
28	0xbdd0e807	-0.10200506
29	0xbd8b9a1d	-0.06816504
30	0xbd69c1a2	-0.05706943
31	0xbe2be24a	-0.16785541

conv_col_to_row.feature_module_edge.0.weight f4 [32, 1]
0	0x3f0bb580	0.5457382
1	0x3f1c2c2e	0.6100491
2	0x3dc102c3	0.09424355
3	0x3eab6e5d	0.33482638
4	0x3daf4be9	0.085594006
5	0x3ee8ff2c	0.4550718
6	0xbf3b558f	-0.7317743
7	0xbea8e39f	-0.3298616
8	0xbf023a59	-0.5087028
9	0x3e549cb9	0.2076291
10	0xbf698e1a	-0.91232455
11	0xbf571d92	-0.84029496
12	0xbf53be3c	-0.8271215
13	0x3e08791e	0.13327453
14	0xbf083c88	-0.53217363
15	0x3db60178	0.08886999
16	0xbd81ec34	-0.0634388
17	0xbe14b6b5	-0.14522822
18	0x3f316daf	0.6930799
19	0x3f27cb9d	0.65545064
20	0xbf3b34be	-0.73127353
21	0x3c18a1fa	0.009315962
22	0xbf50ea56	-0.8160757
23	0xbf300a0a	-0.6876532
24	0x3f2ec2f1	0.68266207
25	0x3ed13ef7	0.4086835
26	0xbf29a921	-0.66273695
27	0x3f2704c9	0.65241677
28	0xbe1dc80b	-0.15408342
29	0x3e163a12	0.1467059
30	0xbe8776cc	-0.26457822
31	0x3f6beb00	0.92155457

conv_col_to_row.feature_module_right.0.weight f4 [32, 32]
0	0xbd7a5a0d	-0.061121035
1	0x3da3bcaa	0.07994969
2	0xbdcc766c	-0.09983525
3	0x3df3fa5e	0.11912988
4	0xbdae12d4	-0.08499685
5	0xbdef1e86	-0.11675744
6	0xbc6224d7	-0.013802729
7	0x3cf7a554	0.030230202
8	0x3bb6e2bd	0.0055812285
9	0xbdd75785	-0.1051474
10	0xbdbd5b91	-0.092459805
11	0x3d7b2a53	0.06131966
12	0xbdd1eb0f	-0.10249912
13	0x3b4cbfd4	0.0031242268
14	0x3d9b9611	0.07596982
15	0x3c865c09	0.016401308
16	0x3e34b10c	0.17645663
17	0x3e27c625	0.1638418
18	0x3cb66ad7	0.022267742
19	0x3e09c048	0.13452256
20	0xbe2a5f9a	-0.16638032
21	0x3d1ca86f	0.03824657
22	0x3e319470	0.1734178
23	0xbd721354	-0.059100464
24	0x3d8dbbeb	0.06920608
25	0x3d21fb0a	0.03954605
26	0x3e0d80f3	0.13818721
27	0xbdcc31ec	-0.09970459
28	0xbded34d2	-0.1158234
29	0x3bd96223	0.0066340133
30	0xbde85222	-0.113437906
31	0x3e18977a	0.14901534
32	0x3e1fef9e	0.1561875
33	0x3dbdc104	0.092653304
34	0xbc9225e7	-0.017840339
35	0x3e34d935	0.17660983
36	0xbe1e170e	-0.15438482
37	0x3e33bcc6	0.1755248
38	0xbd9e39c3	-0.07725861
39	0x3e177c42	0.14793494
40	0xbddd457c	-0.10804269
41	0xbdc26ab4	-0.09493008
42	0xbdda0bb9	-0.10646767
43	0x3db7e45f	0.08979105
44	0x3d0e3e65	0.034727473
45	0x3dd16285	0.10223869
46	0x3bb83118	0.005621087
47	0xbd6d376d	-0.057914186
48	0x3e0d2fd1	0.13787772
49	0xbe0fc55a	-0.14040127
50	0x3d9b13ee	0.07572161
51	0xbe19cb9a	-0.15019074
52	0x3e2936b3	0.16524772
53	0x3c46260b	0.012094031
54	0xbd72bed0	-0.059264004
55	0x3e0c266a	0.13686529
56	0xbe1899a2	-0.14902356
57	0xbdc9b2f5	-0.098485865
58	0xbe114d59	-0.14189662
59	0xbd686eda	-0.05674634
60	0xbd9a3be5	-0.07530955
61	0x3dc89700	0.09794426
62	0xbe180710	-0.14846444
63	0x3b98f091	0.0046673496
64	0x3e0dc6ac	0.13845319
65	0xbd1d24d4	-0.0383652
66	0xbd76e298	-0.06027469
67	0xbda2617f	-0.07928752
68	0x3db68707	0.08912473
69	0x3de7f10d	0.11325274
70	0xbe07998b	-0.13242166
71	0xbcc4d777	-0.024028523
72	0xbe1990b8	-0.14996612
73	0xbd5658ce	-0.052330784
74	0x3ca6d250	0.020363957
75	0x3cc652fb	0.02420949
76	0x3e031ec8	0.12804711
77	0x3df70c07	0.12062841
78	0x3d53bba1	0.05169261
79	0xbe248a12	-0.16068295
80	0xbd3a60a3	-0.045502316
81	0x3e33e0ae	0.17566177
82	0xbd674b70	-0.056468427
83	0x3d3383f8	0.043827027
84	0x3cdf7200	0.02727604
85	0x3dc7e773	0.09760942
86	0xbdb86bee	-0.09004961
87	0xbdcba47e	-0.09943484
88	0xbd39b2bc	-0.04533647
89	0x3dee2204	0.11627582
90	0xbe2555dc	-0.16146034
91	0xbcd15c65	-0.025556752
92	0x3dd3bc6d	0.10338674
93	0x3e0eed36	0.13957676
94	0x3d1563c4	0.036472097
95	0xbdb2894f	-0.08717596
96	0x3d258949	0.04041413
97	0xbe07fc28	-0.13279784
98	0xbe2ff147	-0.17181884
99	0x3e09f359	0.13471736
100	0xbe33f70e	-0.17574713
101	0xbe0640bc	-0.13110632
102	0x3e28d38a	0.16486946
103	0x3d82a17c	0.06378457
104	0xbdd9aa5f	-0.10628199
105	0xbe01615e	-0.12634799
106	0xbe1a5443	-0.15071206
107	0xbd04ac13	-0.032390665
108	0xbdd9c4ee	-0.106332645
109	0x3da9ead6	0.082967445
110	0xbdf8b84b	-0.12144526
111	0xbd8ac85c	-0.06776497
112	0xbd551efd	-0.052031506
113	0x3d604c96	0.054760538
114	0xbc96d456	-0.018411797
115	0xbcf89b8e	-0.030347612
116	0xbda21483	-0.079140685
117	0xbe2d7a66	-0.16941223
118	0x3e2e54b6	0.17024502
119	0x3e1316d7	0.14364181
120	0x3d7c1bf4	0.061550096
121	0xbc42b203	-0.011883262
122	0x3e02ae45	0.12761791
123	0xbd3cf257	-0.04612955
124	0x3bc312a1	0.0059531485
125	0x3de486a1	0.11158491
126	0xbddddfd7	-0.1083371
127	0x3de98a66	0.114033505
128	0xbdaf0544	-0.08545926
129	0xbe09635f	-0.13416813
130	0x3e2ff1f7	0.17182146
131	0xbd93eeab	-0.07223257
132	0xbd97472b	-0.07386621
133	0xbd6fe52a	-0.058568157
134	0x3cff710f	0.03118184
135	0xbc7bedc9	-0.015376517
136	0xbe18111b	-0.14850275
137	0xbe255e14	-0.16149169
138	0x3dd6c76b	0.10487255
139	0x3d972914	0.07380882
140	0x3e0aa905	0.13541038
141	0xbe2696d2	-0.16268471
142	0x3c9a535c	0.018838577
143	0x3e11a951	0.14224745
144	0xbda2cab8	-0.07948822
145	0x3bf8e6fe	0.007595896
146	0x3adb3423	0.0016723912
147	0x3e203eae	0.1564891
148	0xbe0d4732	-0.1379669
149	0xbd0cd9f4	-0.034387544
150	0x3d83e4cf	0.06440126
151	0x3b981926	0.00464167
152	0x3d1a95a0	0.03774035
153	0xbddf8f55	-0.1091601
154	0xbe17c1c1	-0.14820005
155	0x3e21673c	0.15762037
156	0x3c50508c	0.012714516
157	0xbd9085bc	-0.07056758
158	0xbb5ef6f3	-0.0034021705
159	0x3d4b3891	0.049614493
160	0x3da41747	0.08012252
161	0x3e1d8cf2	0.15385798
162	0xbe2af6d3	-0.16695718
163	0xbe0fbca5	-0.14036806
164	0x3d7c1e9d	0.061552633
165	0xbdbd9dfe	-0.0925865
166	0x3d5afa19	0.053461168
167	0x3e306b73	0.17228489
168	0xbd900b1f	-0.07033371
169	0x3e1e335e	0.15449283
170	0x3d8929b0	0.066974044
171	0x3dcf50f8	0.101228654
172	0x3e291d27	0.16515027
173	0x3e31f29d	0.17377706
174	0x3de2a327	0.11066275
175	0x3dbb8d87	0.091578536
176	0x3d8202c9	0.063481875
177	0x3e135868	0.14389193
178	0x3e2cefcd	0.16888352
179	0xbe163541	-0.14668752
180	0x3e016ca0	0.12639093
181	0x3de0c2c9	0.10974652
182	0x3dbc685f	0.09199595
183	0x3dadaedc	0.084806174
184	0xbdb576e4	-0.08860567
185	0x3db9f711	0.09080327
186	0x3de4cfaf	0.11172425
187	0x3d38a737	0.045081344
188	0x3d1b723d	0.037950743
189	0xbdf9bde6	-0.121944234
190	0xbe210c0b	-0.1572725
191	0xbd6fc085	-0.05853321
192	0x3e1d1b11	0.15342356
193	0x3be8a5c6	0.00709984
194	0x3d68d293	0.056841444
195	0x3d7d4b44	0.061839357
196	0xbaf82e8a	-0.0018934768
197	0xbb193422	-0.002337702
198	0xbc77139e	-0.015080361
199	0xbde9e55d	-0.11420701
200	0x3dabf4b3	0.08396282
201	0xbdc58ae7	-0.09645634
202	0x3d5589fd	0.05213355
203	0xbd9d6cca	-0.076867655
204	0xbd53d6d6	-0.051718555
205	0x3671b20f	3.6015442e-06
206	0xbda383ec	-0.079841465
207	0xbdeb5aec	-0.11491951
208	0xbe09f0ec	-0.1347081
209	0x3d7005ed	0.0585994
210	0xbe008fa1	-0.1255479
211	0xbe2eabcd	-0.17057724
212	0xbdd7eb5b	-0.10542937
213	0x3bf3a7f2	0.007435792
214	0x3c0b3ca7	0.008498347
215	0x3bfd8312	0.007736572
216	0x3d4be806	0.04978182
217	0xbdaad55c	-0.08341476
218	0x3dc90416	0.098152325
219	0x3c18f80d	0.009336484
220	0x3e0c1cae	0.13682815
221	0x3cefc9fe	0.029271122
222	0x3d797203	0.060899746
223	0xbe003959	-0.12521876
224	0x3e0c8915	0.13724168
225	0xbca86ef5	-0.020560721
226	0xbd97edc8	-0.074184
227	0x3e16af38	0.14715278
228	0xbd5c8e9d	-0.053846944
229	0x3de164e9	0.11005575
230	0x3c142f42	0.00904447
231	0x3b464e86	0.0030259206
232	0x3e18c77e	0.1491985
233	0xbdcb7b68	-0.09935647
234	0x3cde52ef	0.027139155
235	0xbda1fe36	-0.07909815
236	0x3ddf81e7	0.10913449
237	0x3d081003	0.033218395
238	0x3dc25337	0.09488528
239	0x3dda2a5c	0.10652611
240	0xbd682cc0	-0.056683302
241	0xbdd11995	-0.102099575
242	0xbd3c0f10	-0.045912802
243	0x3ca54548	0.020174637
244	0xbdcc3f6d	-0.09973035
245	0x3dd967ff	0.10615539
246	0xbdc261f1	-0.09491337
247	0x3dacab49	0.084311076
248	0xbe197527	-0.14986096
249	0xbdb553bd	-0.088538624
250	0x3cd6f467	0.026239587
251	0xbe339614	-0.17537719
252	0x3e16fcab	0.14744823
253	0x3e1b30b8	0.15155303
254	0x3da0cd8d	0.07851706
255	0xbcd98cf4	-0.02655647

conv_col_to_row.feature_module_final.0.weight f4 [32]
0	0x3f7fb046	0.99878347
1	0x3f7ff25a	0.99979174
2	0x3f800000	1.0
3	0x3f8000eb	1.000028
4	0x3f800000	1.0
5	0x3f80076d	1.0002266
6	0x3f804a33	1.0022644
7	0x3f7fd6c7	0.999371
8	0x3f7fcf18	0.99925375
9	0x3f8045c6	1.0021293
10	0x3f7fddf4	0.9994805
11	0x3f7fd55f	0.99934953
12	0x3f801f4d	1.0009552
13	0x3f7feaef	0.99967855
14	0x3f7fd4e2	0.9993421
15	0x3f7facb9	0.9987293
16	0x3f800f29	1.0004627
17	0x3f800016	1.0000026
18	0x3f80045c	1.000133
19	0x3f80187d	1.0007473
20	0x3f802ae2	1.0013087
21	0x3f8003bc	1.000114
22	0x3f7fefd1	0.99975306
23	0x3f7ff2fb	0.99980134
24	0x3f8042f3	1.0020431
25	0x3f8015e2	1.0006678
26	0x3f8047ef	1.0021952
27	0x3f800000	1.0
28	0x3f800000	1.0
29	0x3f7fa8e4	0.9986708
30	0x3f800000	1.0
31	0x3f800000	1.0

conv_col_to_row.feature_module_final.0.bias f4 [32]
0	0xba30f1f9	-0.0006749924
1	0xb96714f7	-0.00022037687
2	0x00000000	0.0
3	0x3809b986	3.2836128e-05
4	0x00000000	0.0
5	0x397c0ebb	0.0002403808
6	0x3a0a1751	0.00052677566
7	0xb9fbc505	-0.00048021242
8	0xb9efe0f8	-0.00045753247
9	0x3adbb897	0.0016763386
10	0xb9ad8be3	-0.00033101355
11	0xba385a58	-0.0007032505
12	0x3a32ee81	0.0006825701
13	0xba432e40	-0.00074455515
14	0x3990b8a9	0.00027603403
15	0xb9dee466	-0.0004251331
16	0xb980c380	-0.0002455972
17	0x37a824be	2.004427e-05
18	0x38c87f25	9.560426e-05
19	0x3ab05413	0.001345279
20	0x3a786987	0.0009476174
21	0x3710756e	8.61041e-06
22	0x398be126	0.00026679895
23	0xb9b94919	-0.00035340412
24	0x3b114360	0.0022165403
25	0x3a0007b8	0.00048839627
26	0x3adcc342	0.0016842859
27	0x00000000	0.0
28	0x00000000	0.0
29	0xbad4b55d	-0.0016228367
30	0x00000000	0.0
31	0x00000000	0.0
