GNN_method/ResultsGCNN/actor_11.pt (torch, 83520 bytes, 43 tensors)

row_embedding.0.weight f4 [7]
0	0x3f801773	1.0007156
1	0x3f801128	1.0005236
2	0x3f7fe6cb	0.9996154
3	0x3f8016f9	1.0007011
4	0x3f7ffa29	0.9999109
5	0x3f8004a4	1.0001416
6	0x3f7ff520	0.99983406

row_embedding.0.bias f4 [7]
0	0xba6fa4ff	-0.0009141713
1	0xba054963	-0.0005084483
2	0xb9b83a44	-0.00035138626
3	0xba0e2540	-0.0005422421
4	0x391ed7c2	0.0001514843
5	0xb97956bc	-0.00023778802
6	0x399235e9	0.00027887456

row_embedding.1.weight f4 [32, 7]
0	0x3d5f3247	0.054491308
1	0x3d635093	0.055496763
2	0x3e0d08c3	0.13772874
3	0xbeb72c3e	-0.35775942
4	0xbe3bf6b8	-0.18355834
5	0x3e7602cf	0.24024509
6	0xbdafaac8	-0.08577496
7	0xbe8b7064	-0.27234185
8	0xbd81b5f8	-0.06333536
9	0xbd21094c	-0.039315507
10	0xbdda857d	-0.10669992
11	0x3e473ba2	0.19456342
12	0x3aa3ea8d	0.0012505815
13	0xbdb1616d	-0.086611606
14	0xbe01a798	-0.12661588
15	0xbe962a92	-0.29329354
16	0xbe91994e	-0.28437275
17	0x3e8634e3	0.26212224
18	0x3ea2b98a	0.3178218
19	0x3c9ba16a	0.018997867
20	0xbe4f79db	-0.20261328
21	0xbe58594c	-0.21127814
22	0x3e03b00b	0.12860124
23	0x3ea29dda	0.31761056
24	0xbeb62603	-0.35575876
25	0x3ce97530	0.028498262
26	0x3bdc657e	0.006725966
27	0x3e497ee6	0.19677314
28	0xbe0f2d37	-0.13982092
29	0xbd0473ee	-0.03233712
30	0xbe9d7e52	-0.30760437
31	0x3e56948a	0.209551
32	0xbe5002c8	-0.20313561
33	0xbe4efea4	-0.20214325
34	0xbe48ea57	-0.19620644
35	0xbddad8d4	-0.10685888
36	0x3d589e71	0.052885476
37	0xbc5058ae	-0.012716455
38	0xbeb4b1d3	-0.3529192
39	0x3dcb6738	0.09931797
40	0xbe4f3a9b	-0.202372
41	0x3ea0ef2c	0.31432474
42	0xbe89332b	-0.2679685
43	0xbeac1260	-0.3360777
44	0x3e8afac9	0.2714446
45	0xbe658231	-0.22412945
46	0xbea0263e	-0.31279176
47	0xbd670828	-0.056404263
48	0x3ca4c86c	0.0201151
49	0xbe795d61	-0.24352027
50	0x3e8b35c7	0.27189466
51	0x3e6a7f4f	0.22900127
52	0x3e85298d	0.26008263
53	0x3e5870e6	0.21136817
54	0x3d012f44	0.031539217
55	0x3d0ae1d6	0.03390678
56	0xbe0c87ba	-0.1372365
57	0xbd9da75f	-0.07697939
58	0x3cc028d8	0.023456976
59	0x3c6b534a	0.014363119
60	0xbe0c72a2	-0.13715604
61	0xbe534a83	-0.20633893
62	0x3e8edfc4	0.27905095
63	0x3d450f1c	0.048110113
64	0xbeaf5509	-0.34244564
65	0xbe4e4428	-0.20143187
66	0x3eba7457	0.36416885
67	0xbe41079e	-0.18850562
68	0x3e830d08	0.2559588
69	0xbeb35093	-0.3502241
70	0xbe886c60	-0.26645184
71	0x3eacb27d	0.33729926
72	0xbdc394b1	-0.09549845
73	0xbbc56503	-0.0060240044
74	0xbd20e430	-0.039280117
75	0xbe80a0e2	-0.25122744
76	0x3e811e6b	0.2521852
77	0xbe3a1647	-0.1817256
78	0x3c4f871b	0.012666489
79	0xbeb662e5	-0.35622326
80	0xbd99b95a	-0.07506056
81	0xbc7a0324	-0.015259538
82	0x3e8451a4	0.25843537
83	0x3e0b2abf	0.13590525
84	0x3e93d031	0.28869775
85	0xbd965d5f	-0.07342028
86	0xbe9e57ad	-0.30926266
87	0xbddb2b48	-0.107016146
88	0xbd8aff51	-0.06786979
89	0x3ea26147	0.31714842
90	0xbe69a6b0	-0.22817492
91	0x3e7f142e	0.24910042
92	0x3e5a2b0f	0.21305488
93	0xbe609ea0	-0.2193551
94	0xbe7b2ba3	-0.24528365
95	0xbe1d787a	-0.1537799
96	0xbe1737b9	-0.1476735
97	0xbe8a04c1	-0.26956752
98	0xbeb8cfa3	-0.36095914
99	0x3db77a27	0.089588456
100	0x3dcb0f7c	0.09915063
101	0xbe8f6396	-0.28005666
102	0x3e8bd53e	0.27311128
103	0xbe12c5ad	-0.1433322
104	0xbdeb803d	-0.11499069
105	0x3d87bdb6	0.06627981
106	0x3e914e66	0.28380126
107	0xbea8cca4	-0.32968628
108	0xbd8d24a0	-0.06891751
109	0x3df74797	0.120742016
110	0xbe9d07b9	-0.30669954
111	0x3e97ba57	0.29634354
112	0x3e17de36	0.1483086
113	0x3ea801c3	0.32813844
114	0xbcdcdc27	-0.026960446
115	0x3e3150c9	0.17315973
116	0xbe823a2b	-0.25435004
117	0x3eb35520	0.35025883
118	0x3dbbfe58	0.091793716
119	0x3e493597	0.19649349
120	0xbe5ef49e	-0.21773002
121	0xbe8849f2	-0.26618916
122	0xbea63a56	-0.32466382
123	0xbeb16bb3	-0.3465248
124	0x3b1eca33	0.0024229407
125	0xbcb534f5	-0.022119978
126	0xbeb4a328	-0.35280728
127	0x3eae93f9	0.3409727
128	0xbe338710	-0.17531991
129	0xbe9a15bb	-0.30094704
130	0xbe265190	-0.16242051
131	0x3ea27068	0.31726384
132	0x3db865db	0.090038024
133	0xbe485cd1	-0.19566657
134	0xbe2a64b2	-0.16639975
135	0xbe750625	-0.23928125
136	0x3e01c9ea	0.1267468
137	0x3e7d8b2d	0.24760123
138	0xbe4360a8	-0.1907984
139	0x3eb73ae3	0.35787115
140	0x3ea8a6ef	0.3293986
141	0x3e0378bc	0.12839025
142	0xbc178ea0	-0.009250313
143	0x3e8c6c93	0.27426586
144	0x3dd434ba	0.10361619
145	0xbeab4be2	-0.33456331
146	0xbe83d4ca	-0.25748283
147	0x3e4c60a6	0.19958743
148	0x3d0cc0fc	0.03436373
149	0x3eb5204d	0.35376206
150	0xbe8b7a1f	-0.27241609
151	0xbe92e026	-0.28686637
152	0xbddc4c9b	-0.10756799
153	0xbe6c4002	-0.23071292
154	0x3e8f67fd	0.28009024
155	0x3d0289d8	0.03186974
156	0xbe0ab387	-0.13545047
157	0xbd436053	-0.047699284
158	0x3d0f67e9	0.035011206
159	0xbe8bbca6	-0.27292365
160	0x3d32e799	0.0436779
161	0xbe7a4fe0	-0.24444532
162	0x3d71bac0	0.05901599
163	0x3e0c38f0	0.13693595
164	0xbe6e3f85	-0.23266418
165	0xbe569006	-0.20953378
166	0xbc454566	-0.012040472
167	0x3e9843aa	0.29739124
168	0x3e42b3bb	0.19013874
169	0xbdb5059e	-0.08838962
170	0x3ea918c8	0.3302672
171	0x3dc6e676	0.09711926
172	0x3ebaeff9	0.3651121
173	0x3e8819f7	0.2658231
174	0xbe862940	-0.26203346
175	0x3cbd3fc9	0.023101704
176	0x3e6ced9a	0.23137513
177	0x3d9b7e68	0.075924695
178	0x3df5b7ff	0.11997985
179	0x3e9fb5a4	0.31193268
180	0xbe8e1faf	-0.27758548
181	0x3e0261b8	0.12732589
182	0xbdecc456	-0.115608856
183	0xbe20edbd	-0.1571569
184	0x3ead3b44	0.3383428
185	0x3e8a80af	0.27051303
186	0x3e7d43aa	0.24732843
187	0x3d180442	0.037113436
188	0xbe9616a1	-0.2931414
189	0x3eaf983d	0.34295836
190	0x3ddd21e4	0.1079748
191	0xbd1f3faf	-0.038879093
192	0xbe941a4b	-0.2892631
193	0xbdde96b1	-0.10868586
194	0xbea8de19	-0.32981947
195	0x3e96f38f	0.29482695
196	0x3ea36247	0.31910917
197	0x3d98600b	0.07440194
198	0x3ea2ba0c	0.31782568
199	0xbe7592a0	-0.23981714
200	0xbe5a3385	-0.21308716
201	0x3e386d5b	0.18010466
202	0x3ebcde27	0.3688824
203	0xbe708b5f	-0.23490666
204	0xbe9ced3b	-0.30649742
205	0x3e02bc66	0.12767181
206	0x3decea26	0.11568098
207	0x3e887645	0.26652732
208	0x3d69fd24	0.05712618
209	0xbec1773f	-0.3778629
210	0x3e1c8c72	0.1528795
211	0xbe38e3bc	-0.18055624
212	0x3e474c8e	0.19462797
213	0xbe8f882d	-0.2803358
214	0xbe95d081	-0.29260638
215	0x3d0a012b	0.03369252
216	0xbd849d7c	-0.0647535
217	0xbeb3d097	-0.3512008
218	0xbe3fb0da	-0.18719807
219	0xbe9f33d4	-0.3109423
220	0x3dd99bca	0.106254175
221	0x3dcf38c1	0.10118247
222	0xbdf527be	-0.11970471
223	0xbea234f3	-0.31681022

row_embedding.1.bias f4 [32]
0	0xbd50c611	-0.05097014
1	0x3e8366f4	0.25664485
2	0x3de33633	0.11094322
3	0xbebce9c9	-0.36897114
4	0x3da699bc	0.08134791
5	0xbdfb931e	-0.1228392
6	0x3c935efb	0.017989626
7	0xbdd997db	-0.10624667
8	0x3e1a3386	0.15058717
9	0xbe567df4	-0.20946485
10	0xbeb34c75	-0.3501927
11	0xbcd51302	-0.02601004
12	0x3ea341ef	0.3188624
13	0x3e1937ee	0.14962742
14	0x3eb1411d	0.3461999
15	0x3dc81cf5	0.09771148
16	0xbe2169a7	-0.1576296
17	0x3c900674	0.017581202
18	0xbdf91100	-0.121614456
19	0x3e9cdf62	0.30639178
20	0x3e901cbb	0.2814692
21	0xbcd31bfa	-0.025770176
22	0x3e56624d	0.20935936
23	0xbdcb33d8	-0.09921998
24	0x3ea4b343	0.32168016
25	0x3e53a0ca	0.20666805
26	0xbe185346	-0.14875516
27	0x3e00ac66	0.12565765
28	0xbe96ff63	-0.2949172
29	0xbe496571	-0.19667603
30	0x3cacee5e	0.021109756
31	0xbe5c8842	-0.21536353

row_embedding.3.weight f4 [32, 32]
0	0xbdfb2a0a	-0.12263878
1	0xbd2a3d2b	-0.04156224
2	0x3d8f1031	0.0698551
3	0x3c3f09f5	0.011660089
4	0x3dcd76e9	0.10032446
5	0x3b0d76d9	0.0021585731
6	0x3e269c9a	0.16270676
7	0x3e14dc7a	0.1453723
8	0x3dccb564	0.09995535
9	0xbe16daef	-0.14731954
10	0x3d0c0d0b	0.034192126
11	0x3cebc666	0.028781127
12	0x3dcab39a	0.098975375
13	0x3b336a00	0.0027376413
14	0x3e0ceaf8	0.13761508
15	0x3e1d8917	0.15384327
16	0x3e1fac9d	0.1559319
17	0x3d104c32	0.035228916
18	0xbdf46754	-0.11933771
19	0x3dd3b550	0.10337317
20	0x3d275f7b	0.04086254
21	0x3d5fa990	0.054605067
22	0x3d3a9cd8	0.045559734
23	0x3de8e85e	0.113724455
24	0xbe278984	-0.16361052
25	0x3ddb4c76	0.10707943
26	0x3e00fba4	0.12595993
27	0x3e1b0d70	0.15141845
28	0x3c909377	0.017648442
29	0xbe1fbab8	-0.15598571
30	0x3e16d8f1	0.14731194
31	0xbcf7f518	-0.030268237
32	0x3d0ef6aa	0.034903206
33	0x3ce56478	0.028002009
34	0xbe351442	-0.17683509
35	0x3c0122a3	0.007881793
36	0xbc8f4683	-0.017489677
37	0xbd38a6eb	-0.04508106
38	0x3d9ec408	0.07752234
39	0x3d2fec47	0.04294994
40	0xbdc0d8dc	-0.09416363
41	0xbd1cf9de	-0.03832423
42	0xbdcd834f	-0.10034811
43	0xbe2494d5	-0.160724
44	0x3db3c65e	0.0877807
45	0x3dd30447	0.1030355
46	0x3e20f319	0.15717734
47	0xbe2d2d8d	-0.16911907
48	0xbd481fc0	-0.048858404
49	0x3e05d162	0.13068154
50	0x3da34908	0.07972914
51	0xbe097655	-0.13424046
52	0x3e044bd5	0.12919553
53	0x3dfb168e	0.12260161
54	0x3e082732	0.13296202
55	0x3df9a4de	0.12189649
56	0x3e0f2284	0.1397801
57	0xbd8e5360	-0.06949496
58	0x3e0e2fb2	0.13885382
59	0x3de94ce1	0.113916166
60	0xbe08c881	-0.13357736
61	0x3d68e33c	0.056857333
62	0xbe0bea44	-0.13663584
63	0xbdbbde7b	-0.09173294
64	0x3c75c24a	0.014999935
65	0x3e25564e	0.16146204
66	0xbdda6a75	-0.10664836
67	0xbe178af3	-0.14799099
68	0x3e2e1cae	0.17003128
69	0xbda9f062	-0.082978025
70	0xbe27924e	-0.16364405
71	0xbd94bb1b	-0.0726225
72	0x3df48975	0.1194028
73	0x3d01be76	0.03167578
74	0x3e2355f3	0.15950756
75	0x3dd70536	0.10499041
76	0x3c2096ae	0.00980155
77	0x3e26c15a	0.16284695
78	0xbda626ea	-0.08112891
79	0x3db3574a	0.087568834
80	0xbd15bb4c	-0.036555573
81	0xbc8adb32	-0.016950224
82	0x3d2a5761	0.041587237
83	0x3e0250b6	0.12726101
84	0x3e1cf769	0.15328754
85	0x3d4ff875	0.050774056
86	0xbd530df8	-0.051526994
87	0x3e2e512a	0.17023149
88	0x3d073c73	0.033016633
89	0x3d68824f	0.056764897
90	0x3d63a26c	0.05557482
91	0xbe259d48	-0.1617328
92	0x3e2b93e9	0.16755642
93	0x3e27f5ba	0.16402331
94	0x3e04c266	0.12964782
95	0x3e1d51f9	0.15363301
96	0xbda42134	-0.080141455
97	0xbd180a7c	-0.037119374
98	0xbe1dc4c9	-0.15407099
99	0x3d6b2734	0.057410434
100	0x3d42626f	0.047457155
101	0x3d7916b7	0.06081268
102	0x3e2f1786	0.17098817
103	0xbcc02b2e	-0.02345809
104	0x3db7d7d8	0.08976716
105	0x3dee1192	0.11624445
106	0xbddb4fd3	-0.10708585
107	0xbcf7840b	-0.03021433
108	0x3e02cc37	0.12773214
109	0xbdd2d0e7	-0.10293751
110	0x3d7e83e2	0.062137492
111	0x3db898fd	0.09013555
112	0xbc9aaa24	-0.018879957
113	0x3e2ec95f	0.17069004
114	0xbd8b57d5	-0.06803862
115	0x3d96682b	0.07344087
116	0xbd223cc2	-0.039608724
117	0xbe22a360	-0.15882635
118	0x3d98fd58	0.074701965
119	0xbd8766f0	-0.06611431
120	0xbb2e2dbb	-0.002657755
121	0x3e1f1a5a	0.15537396
122	0xbda1ecfa	-0.07906528
123	0xbd8331c8	-0.064059794
124	0xbe31cd1f	-0.17363404
125	0xbe018812	-0.12649563
126	0xbde8a45d	-0.11359475
127	0x3d387f9d	0.045043577
128	0x3dbe4be4	0.09291819
129	0xbce5f189	-0.028069275
130	0xbdea43a6	-0.11438684
131	0x3c344edf	0.011005132
132	0x3dac53b8	0.084144056
133	0xbd82111d	-0.0635092
134	0xbde01377	-0.109412126
135	0x3dc1128c	0.09427366
136	0xbe2e30d9	-0.17010821
137	0x3d94f98a	0.07274158
138	0x3e0d19b8	0.13779342
139	0xbe316059	-0.1732191
140	0xbd49bd9f	-0.049253102
141	0xbd1cd134	-0.03828545
142	0x3c528444	0.012848917
143	0xbe31f44a	-0.17378345
144	0xbddaf956	-0.10692088
145	0xbdd2cc69	-0.102928944
146	0x3d8d8735	0.06910554
147	0x3d7e5db5	0.062101085
148	0xbe0a0cf3	-0.13481502
149	0x3d4441e4	0.0479144
150	0x3c1c46bf	0.009538352
151	0x3d86c41a	0.06580372
152	0xbd857991	-0.065173276
153	0x3df6a3c7	0.12042957
154	0xbda628d3	-0.08113255
155	0xbe07ba0f	-0.1325457
156	0x3ddd54e3	0.108072065
157	0xbe324be8	-0.17411768
158	0x3df8f22a	0.12155564
159	0xbd4d4c54	-0.05012162
160	0xbdb2b80a	-0.08726509
161	0xbe234067	-0.15942536
162	0xbd07c690	-0.03314835
163	0x3d7ada7d	0.061243523
164	0xbd666213	-0.056245875
165	0x3e27185d	0.16317888
166	0x3dbdcf9b	0.09268113
167	0x3d780f50	0.06056148
168	0xbe28bb38	-0.16477668
169	0x3b7bed71	0.0038441087
170	0xbe01be7d	-0.12670322
171	0x3d3d2509	0.046177898
172	0xbd211fba	-0.039336897
173	0x3de01a12	0.109424725
174	0xbb21fc47	-0.002471702
175	0xbe278ad5	-0.16361554
176	0xbdc6bdb1	-0.097041495
177	0xbe33d467	-0.17561494
178	0xbd370fa8	-0.044692665
179	0x3dae2a9b	0.0850422
180	0xbe13f315	-0.14448197
181	0x3df0aa6f	0.11751258
182	0xbe328c8b	-0.17436425
183	0xbc584566	-0.01320014
184	0x3a1bef01	0.0005948395
185	0xbdb54fbd	-0.088530995
186	0xbe1c7012	-0.15277126
187	0xbdc63b49	-0.096792765
188	0xbe1317ba	-0.1436452
189	0xbca437f9	-0.020046221
190	0x3cdbe4dc	0.026842527
191	0xbe27d085	-0.16388138
192	0x3db349b7	0.08754294
193	0x3e04cfc6	0.12969884
194	0x3dfafbbf	0.12255048
195	0xbd1d6f67	-0.03843632
196	0x3e1068ed	0.14102526
197	0x3d674899	0.05646572
198	0xbdfd6268	-0.12372285
199	0xbda2b761	-0.07945133
200	0xbe1e8bda	-0.15483037
201	0x3da7c55d	0.08191941
202	0x3e024eb6	0.12725338
203	0x3d8589eb	0.065204464
204	0xbcf2d321	-0.02964169
205	0xbe0ef900	-0.13962173
206	0xbe27baf3	-0.16379909
207	0x3c96f9db	0.018429687
208	0xbcb38b64	-0.021917053
209	0x3e089327	0.13337384
210	0xbd9593bd	-0.073035695
211	0x3e0ae255	0.13562901
212	0x3dc6bb27	0.09703665
213	0x3de98781	0.114027984
214	0x3d287fbb	0.04113744
215	0x3e09f81d	0.13473554
216	0xbdb24119	-0.08703823
217	0xbd35977b	-0.044333916
218	0xbdaef3e5	-0.08542613
219	0x3c66eeb0	0.0140949935
220	0x3e2a0273	0.16602497
221	0xbd422cf3	-0.04740615
222	0xbd077239	-0.033067916
223	0x3ddc98f1	0.10771359
224	0xbd83d0b0	-0.06436288
225	0xbd2f3b5e	-0.042781226
226	0xbdf85475	-0.12125484
227	0xbe033928	-0.12814772
228	0x3d103e52	0.035215683
229	0x3e0db7be	0.13839623
230	0x3e0ea6b9	0.13930787
231	0xbdcfc40f	-0.10144817
232	0x3db523e0	0.08844733
233	0xbde04d77	-0.10952275
234	0xbe31fe5d	-0.17382188
235	0xbb0eac54	-0.0021770196
236	0x3e1ae6fc	0.15127176
237	0xbca97f0c	-0.020690463
238	0xbe163fe7	-0.14672814
239	0xbd73acd4	-0.059490994
240	0x3d895be0	0.06706977
241	0x3e0929f8	0.13394916
242	0xbe32e763	-0.1747108
243	0x3d3745e7	0.0447444
244	0x3d7489f9	0.059701893
245	0x3d0aea6c	0.03391497
246	0xbe311ee8	-0.17296946
247	0xbd7cbc79	-0.06170318
248	0xbd04406d	-0.032288004
249	0xbdc71036	-0.09719889
250	0xbe0777ca	-0.1322929
251	0x3d039bf5	0.032131154
252	0xbc85bbc2	-0.016324881
253	0xbc2cd621	-0.010549099
254	0xbe00131c	-0.1250729
255	0x3e0fe1ec	0.14051026

row_embedding.3.bias f4 [32]
0	0x3ddddf81	0.108336456
1	0xbd560178	-0.052247494
2	0xbd75d0dd	-0.06001364
3	0xbd274e5a	-0.040846206
4	0x3c893b4f	0.016751913
5	0xbe04ea03	-0.12979893
6	0x3ddd889d	0.108170725
7	0x3e116e25	0.14202173
8	0xbd86d05c	-0.0658271
9	0x3dd03a2e	0.10167347
10	0x3e08c50e	0.1335642
11	0x3dc9a9e4	0.09846857
12	0xbc9ff7ec	-0.019527398
13	0x3d3093c7	0.04310968
14	0x3dd6638e	0.10468207
15	0x3dd891eb	0.10574707
16	0x3dc3d5d7	0.09562271
17	0xbd98f855	-0.074692406
18	0x3d4be1ce	0.04977589
19	0x3dbb192f	0.09135663
20	0xbc4d6553	-0.012536365
21	0x3d07fff4	0.03320308
22	0x3d62eba3	0.055400502
23	0x3d859ffe	0.06524657
24	0x3dd47e42	0.10375644
25	0x3d294ea1	0.041334752
26	0x3e285e74	0.16442281
27	0xbd5e2998	-0.054238886
28	0x3b4d80e4	0.0031357342
29	0xbc08363f	-0.0083137145
30	0xbe18b832	-0.14914015
31	0x3df6a075	0.120423235

col_embedding.0.weight f4 [7]
0	0x3f7fd705	0.9993747
1	0x3f800691	1.0002004
2	0x3f80086b	1.0002569
3	0x3f800967	1.0002869
4	0x3f7fd7a0	0.9993839
5	0x3f7fdc4a	0.9994551
6	0x3f8001f8	1.0000601

col_embedding.0.bias f4 [7]
0	0x375cd3cc	1.3162335e-05
1	0xb936670f	-0.00017395265
2	0x394da23f	0.00019610765
3	0xb99b2177	-0.00029588837
4	0x3a0b2166	0.0005307406
5	0x3a124a6e	0.0005580549
6	0x39e5d2d0	0.0004383535

col_embedding.1.weight f4 [32, 7]
0	0x3eb564d8	0.354285
1	0x3b73ebdd	0.0037219443
2	0xbadf2387	-0.0017024138
3	0xbe34329d	-0.17597432
4	0x3e8caad0	0.2747407
5	0xbebb1cdd	-0.36545458
6	0xbdd1e3ce	-0.102485284
7	0xbdee0b36	-0.11623232
8	0xbe84749e	-0.25870222
9	0xbe28104c	-0.16412467
10	0x3e3e3aff	0.18577193
11	0xbe5a8833	-0.21341018
12	0x3ba7aa06	0.005116704
13	0xbe71f89f	-0.23629998
14	0xbe49fa42	-0.19724372
15	0x3c550985	0.013002758
16	0x3e8aaf56	0.27086896
17	0xbe35377a	-0.17696944
18	0x3d01c166	0.03167858
19	0x3db87c58	0.09008092
20	0x3e56b2b8	0.20966613
21	0x3e91aeab	0.28453574
22	0x3e9050ef	0.28186747
23	0xbdd4f96e	-0.103991374
24	0x3d756080	0.059906483
25	0xbe9e9b24	-0.30977738
26	0xbc97ba93	-0.018521583
27	0x3e34bbe6	0.17649803
28	0x3e16eead	0.14739485
29	0x3ea40eb1	0.3204246
30	0x3e9798c1	0.2960873
31	0xbe37f5fd	-0.17964931
32	0xbd88d58e	-0.06681357
33	0xbe8109aa	-0.25202686
34	0xbebb5cec	-0.3659433
35	0xbec0ee30	-0.37681723
36	0x3d1b1947	0.037865903
37	0xbd92e003	-0.07171633
38	0x3e77a703	0.24184804
39	0xbe692fb9	-0.22772111
40	0x3e2ccd55	0.16875203
41	0xbdf67d0b	-0.12035569
42	0xbd08b1fb	-0.03337286
43	0x3eba0317	0.36330482
44	0x3ebecdcd	0.3726639
45	0x3e51761a	0.20455208
46	0x3e6c0fac	0.23052853
47	0x3d1562ae	0.03647106
48	0x3e313835	0.17306598
49	0x3d9ede4d	0.07757244
50	0xbdfc7c0f	-0.1232835
51	0x3e3d98d2	0.18515328
52	0xbeb5ce42	-0.35508925
53	0x3d91624c	0.07098827
54	0x3d947f24	0.07250813
55	0x3e04d177	0.1297053
56	0xbddf94bb	-0.1091704
57	0xbe37fc79	-0.17967404
58	0xbdbef6da	-0.09324427
59	0xbc4c77ce	-0.012479736
60	0xbe647c84	-0.22313124
61	0xbe1d457b	-0.15358536
62	0x3e348725	0.17629679
63	0x3d9b001f	0.075683825
64	0xbea6ad3c	-0.32554042
65	0xbd5d8e81	-0.05409098
66	0xbcccac2d	-0.024984444
67	0x3e279ef4	0.1636923
68	0x3e9a1403	0.30093393
69	0xbec16b4c	-0.37777174
70	0x3ebac269	0.36476448
71	0x3c91c4f6	0.017794114
72	0x3eb9c493	0.36282787
73	0xbe03c227	-0.12867032
74	0xbe92a2a0	-0.28639698
75	0xbe745091	-0.23858859
76	0xbe6f69a8	-0.23380148
77	0x3eb7394f	0.3578591
78	0x3e0806ba	0.13283816
79	0xbe893905	-0.26801315
80	0xbd854b82	-0.065085426
81	0xbe314f76	-0.17315468
82	0xbe6c8120	-0.23096132
83	0x3e61d17c	0.22052568
84	0x3e964bd8	0.2935474
85	0xbe98e324	-0.29860795
86	0x3cc1f42d	0.023676002
87	0x3e7dfb58	0.24802911
88	0x3e262912	0.16226605
89	0xbd948628	-0.07252151
90	0xbe694994	-0.22781974
91	0xbea6e669	-0.32597664
92	0xbe540196	-0.2070373
93	0x3c4cead7	0.012507162
94	0xbd116927	-0.03550067
95	0x3e4dac74	0.20085317
96	0x3e2be2e3	0.16785769
97	0xbbf6225b	-0.0075114197
98	0xbc8c702d	-0.017143333
99	0x3e41830c	0.18897647
100	0xbe40cbb8	-0.18827713
101	0x3e5b3a42	0.21408942
102	0x3ea3fe76	0.32030076
103	0x3e65c243	0.22437386
104	0x3db2f0bd	0.087373234
105	0x3d3b7b4b	0.04577188
106	0xbce28b6e	-0.027654376
107	0x3e4b5321	0.1985593
108	0x3e83e977	0.25764057
109	0xbce431dd	-0.027855808
110	0x3e0211e3	0.12702136
111	0xbe916b04	-0.2840196
112	0x3e4078c9	0.18796076
113	0x3e8c5d52	0.27414948
114	0xba4206db	-0.0007401534
115	0xbe1cefd1	-0.15325858
116	0xbdbdd2be	-0.092687115
117	0xbdfa7305	-0.122289695
118	0xbeaf0ca9	-0.34189346
119	0x3ea74306	0.32668322
120	0xbc3fb1fe	-0.0117001515
121	0xbea35cbd	-0.3190669
122	0x3e841b56	0.25802106
123	0x3ea30fce	0.31847996
124	0x3ea02063	0.3127471
125	0xbe6b125a	-0.2295622
126	0xbe836542	-0.2566319
127	0x3d9edd10	0.07757008
128	0x3d8f222c	0.0698894
129	0xbe61d732	-0.22054747
130	0x3d8810b0	0.06643808
131	0x3e81a482	0.25320822
132	0xbe8dba69	-0.27681282
133	0x3ebd6163	0.36988363
134	0xbeb323bb	-0.34988198
135	0xbdab7f1b	-0.08373853
136	0xbd6751a4	-0.056474343
137	0x3db14c70	0.086571574
138	0xbc49de92	-0.012321131
139	0x3e815e34	0.25267184
140	0x3d8e7dc8	0.069575846
141	0xbe25992a	-0.16171709
142	0xbebf2d51	-0.3733926
143	0xbe963002	-0.29333502
144	0x3e51dc00	0.2049408
145	0x3e20251f	0.1563916
146	0x3e4e97a8	0.2017504
147	0xbd30086b	-0.042976778
148	0x3dddd039	0.10830731
149	0xbea48146	-0.32129878
150	0x3c320572	0.010865556
151	0xbe1fcc25	-0.15605219
152	0xbe81813e	-0.25293916
153	0xbdb861b1	-0.09003008
154	0x3e67f294	0.2265113
155	0x3e6be4e7	0.23036538
156	0x3d6a2530	0.05716437
157	0xbd8361ce	-0.06415139
158	0xbe32c550	-0.17458081
159	0xbc7a2261	-0.015266986
160	0xbd3a12b2	-0.045427985
161	0x3e67b082	0.22625926
162	0x3de90c59	0.11379308
163	0xbe932cf7	-0.28745243
164	0xbea482ab	-0.32130942
165	0x3dff19df	0.124561064
166	0x3cdf97cb	0.02729406
167	0x3e0ba92f	0.13638757
168	0xbe2c622d	-0.16834326
169	0x3e25024a	0.16114154
170	0xbe9ce4d5	-0.30643335
171	0x3db063e3	0.08612802
172	0xbe835923	-0.25653943
173	0xbe9894e1	-0.29801086
174	0xbda1b9a3	-0.078967355
175	0x3e8bacce	0.27280277
176	0xbe8502cb	-0.25978693
177	0xbe890ee5	-0.26769176
178	0x3e3e007e	0.18554875
179	0xbeb4ca12	-0.35310417
180	0xbc15de37	-0.009147218
181	0xbe87ad07	-0.26499197
182	0x3e8a2bdb	0.26986584
183	0xbd6b0bfc	-0.057384476
184	0xbdcc68f9	-0.099809594
185	0xbe6af3a4	-0.22944504
186	0x3cc2fc8b	0.023802062
187	0x3e1274ae	0.14302322
188	0x3dc7d0bd	0.097566105
189	0x3e49666a	0.19667974
190	0x3ebe411d	0.37159052
191	0x3e3cec4f	0.1844952
192	0x3ea059a1	0.3131838
193	0x3d9c89ce	0.07643472
194	0xbe6dc617	-0.23220097
195	0xbe96f540	-0.29483986
196	0x3eb79f70	0.3586383
197	0xbe0c5343	-0.13703637
198	0x3ea7622d	0.3269209
199	0x3d53f1c7	0.05174425
200	0xbe0612f3	-0.13093166
201	0xbe645f53	-0.22301988
202	0xbeb2cf08	-0.34923577
203	0x3c90a703	0.017657762
204	0x3dcdccc8	0.100488245
205	0xbbbd81c5	-0.005783292
206	0xbe9bc0dc	-0.30420578
207	0x3e909942	0.28241926
208	0x3e87908d	0.2647747
209	0x3eb6af98	0.35680842
210	0x3eb34edf	0.3502111
211	0xbdd5f4ad	-0.10447059
212	0xbe45c122	-0.19311956
213	0x3e34f0d6	0.17669997
214	0x3c1345fe	0.008988855
215	0x3e0f872f	0.14016412
216	0xbd62c7f3	-0.055366468
217	0x3e328bb7	0.1743611
218	0xbebb4585	-0.36576477
219	0x3eb0bfe3	0.34521398
220	0x3e229e00	0.15880585
221	0x3eb9b37f	0.36269757
222	0x3bad42cd	0.0052875043
223	0x3e7341c3	0.23755555

col_embedding.1.bias f4 [32]
0	0xbe871cc5	-0.26389137
1	0xbe308887	-0.17239581
2	0xbd9f3c5d	-0.07775185
3	0xbe929b41	-0.28634074
4	0xbe99a546	-0.30008906
5	0x3e8adf3d	0.27123442
6	0xbe490dcd	-0.19634171
7	0xbe24a466	-0.16078338
8	0xbd255909	-0.040368114
9	0xbd14b0b1	-0.03630132
10	0x3dc73306	0.09726529
11	0x3e8a69f6	0.27033967
12	0x3d6b519a	0.05745087
13	0xbe2ca34c	-0.16859168
14	0x3e020dc7	0.12700568
15	0xbec08442	-0.37600905
16	0x3eb4fcca	0.35349113
17	0x3ba5d908	0.0050612725
18	0xbe53ea68	-0.20694888
19	0xbd239bfb	-0.039943676
20	0xbcc6461a	-0.024203349
21	0xbea934a7	-0.33047983
22	0x3e8e9bff	0.2785339
23	0x3d9ed82c	0.07756075
24	0xbeb50725	-0.35357013
25	0x3e9c6fa4	0.30553925
26	0xbe8ed028	-0.27893186
27	0xbda7fc80	-0.082024574
28	0x3de8c433	0.11365547
29	0x3eb55fcb	0.35424647
30	0xbd4ca107	-0.049958255
31	0x3eabc7af	0.33550784

col_embedding.3.weight f4 [32, 32]
0	0x3e0e59bc	0.13901418
1	0x3e02decf	0.12780307
2	0xbbe7c42f	-0.0070729475
3	0xbe0d55ef	-0.13802312
4	0x3d9ec30a	0.077520445
5	0xbd02258e	-0.031774096
6	0xbe2b20f0	-0.16711783
7	0x3e0b9f79	0.13635053
8	0x3e0be8fd	0.13663097
9	0x3e1c16c4	0.1524306
10	0x3dc20888	0.094742835
11	0x3de3ee3b	0.11129423
12	0xbe13616a	-0.1439263
13	0xbc00aeaa	-0.007854143
14	0x3d691446	0.0569041
15	0x3d946f3d	0.072477795
16	0xbd6085bd	-0.054815043
17	0xbd0aadee	-0.03385728
18	0xbe05f8ca	-0.13083187
19	0xbe20e896	-0.15713724
20	0x3c24513d	0.010029134
21	0x3e30718e	0.17230818
22	0xbdf4527f	-0.119297974
23	0x3e2b3428	0.16719115
24	0xbe230fdb	-0.15924017
25	0xbdf0bc91	-0.11754716
26	0xbe0c98b0	-0.1373012
27	0xbe014542	-0.12624076
28	0x3e153813	0.14572172
29	0x3b0bc701	0.0021328332
30	0xbd38a616	-0.045080267
31	0x3e2ed41d	0.17073102
32	0x3db41169	0.08792383
33	0xbe0ced8f	-0.13762496
34	0x3e1b800c	0.15185565
35	0xbdb3d9b4	-0.08781758
36	0x3dc27fb7	0.09497016
37	0x3d4efc86	0.050533794
38	0x3d6b5715	0.057456095
39	0xbd4637a5	-0.04839291
40	0x3e279174	0.1636408
41	0xbb6c9ff5	-0.0036106084
42	0x3dd95b5c	0.106131285
43	0x3df78f33	0.1208786
44	0xbe1cc42e	-0.15309212
45	0xbcf8480f	-0.030307798
46	0xbdcf9e8b	-0.101376615
47	0xbc9117b7	-0.017711503
48	0xbe18199e	-0.14853522
49	0xbc8b10e2	-0.016975824
50	0xbdebb63a	-0.11509366
51	0xbd8965bc	-0.067088574
52	0x3dc735f5	0.09727088
53	0xbc70d734	-0.014699746
54	0x3e288378	0.16456401
55	0x3d784fb0	0.06062287
56	0x3d6aa83c	0.057289347
57	0x3d3f0bd2	0.046642132
58	0xbe33cf24	-0.17559487
59	0x3e2eadab	0.17058437
60	0xbbd2978a	-0.0064267563
61	0xbe2eeed4	-0.17083293
62	0xbbb2f7bb	-0.0054616607
63	0xbdb435cc	-0.087993234
64	0xbd73f806	-0.059562705
65	0xbd37dd3a	-0.044888712
66	0xbcbe7c2c	-0.02325257
67	0xbdd88b51	-0.105734475
68	0xbdd2c7a8	-0.10291988
69	0x3d7e9e2d	0.062162567
70	0x3e203faa	0.15649286
71	0x3e3351f0	0.17511725
72	0xbda77b90	-0.081778646
73	0xbe222aef	-0.1583669
74	0xbd0ff3cc	-0.035144612
75	0xbc71e542	-0.014764132
76	0xbe1fa2de	-0.15589473
77	0xbe06e339	-0.13172616
78	0xbc3917ef	-0.01129721
79	0x3d8e748b	0.069558226
80	0x3a91f25c	0.0011134851
81	0xbd57b274	-0.05266042
82	0xbcc94c31	-0.024572464
83	0x3e250db0	0.16118503
84	0x3d9938a9	0.0748151
85	0xbdcb7483	-0.09934332
86	0x3dd6cc33	0.10488167
87	0x3df4cf84	0.11953643
88	0xbdc64bfe	-0.09682463
89	0xbd0c28f1	-0.034218732
90	0x3de08992	0.109637395
91	0x3b8795ef	0.0041377465
92	0x3ce752d2	0.028237734
93	0xbd245e0a	-0.040128745
94	0xbd2b6b94	-0.04185064
95	0x3dabc905	0.08387951
96	0x3ddb31ae	0.10702835
97	0xbd35a25e	-0.0443443
98	0xbcb1d9fd	-0.02171039
99	0x3cd99ecd	0.02656498
100	0x3da193d0	0.07889521
101	0xbe2f9131	-0.1714523
102	0xbd907f91	-0.07055581
103	0x3dd722d5	0.105046906
104	0x3e1ed159	0.15509547
105	0xbe2cff59	-0.16894282
106	0x3d286751	0.041114155
107	0xbd3e8b40	-0.046519518
108	0x3d8597aa	0.06523068
109	0xbc2c9ef6	-0.010535946
110	0xbd9d3ebc	-0.07677981
111	0xbe151841	-0.14560033
112	0xbd4e6de3	-0.050397765
113	0x3d1790ee	0.03700345
114	0xbd4c242d	-0.049839187
115	0x3c03703b	0.008022363
116	0x3d7ca625	0.061681885
117	0x3debd68e	0.115155324
118	0x3df6ce44	0.12051061
119	0x3d830315	0.06397072
120	0x3de77c3e	0.11302994
121	0xbe1b42c6	-0.15162191
122	0x3df582b3	0.119878195
123	0xbcc1a3d0	-0.023637682
124	0x3df6c58c	0.12049398
125	0x3e0bebdf	0.13664196
126	0x3e108d8e	0.14116499
127	0x3d87f026	0.066376016
128	0x3dd8fb0c	0.105947584
129	0x3d76bc75	0.06023832
130	0x3d023c12	0.03179557
131	0xbdb654d6	-0.089029
132	0x3c1ad673	0.009450543
133	0x3e114853	0.14187746
134	0xbd134e1a	-0.035963155
135	0xbce9c8ff	-0.028538225
136	0x3e0895dc	0.13338417
137	0x3dcaded4	0.09905782
138	0xbda7577d	-0.08170984
139	0xbe25f000	-0.16204834
140	0x3c902009	0.0175934
141	0xbe099814	-0.1343692
142	0xbe0686a1	-0.13137294
143	0x3e12e080	0.14343452
144	0x3dd2e514	0.102975994
145	0xbe288b2f	-0.16459344
146	0xbdbc58fa	-0.091966584
147	0x3dc48f94	0.09597698
148	0xbe05d732	-0.13070372
149	0x3d9648af	0.07338082
150	0x3cfeb5eb	0.031092605
151	0xbdfa63a9	-0.1222604
152	0x3bd789d7	0.006577711
153	0x3d718bb1	0.05897111
154	0x3e2de773	0.16982822
155	0x3dd7afc1	0.10531569
156	0x3cd20f61	0.025642099
157	0xbd8f0d20	-0.06984925
158	0xbe23da1c	-0.16001171
159	0x3cbccaed	0.023045981
160	0x3cd81cc9	0.026380913
161	0x3d8d32d3	0.068944596
162	0xbd6852a8	-0.056719452
163	0xbe07d461	-0.1326461
164	0x3de57c61	0.11205364
165	0x3dbc8b20	0.092062235
166	0xbd5fc661	-0.05463255
167	0x3e077318	0.13227499
168	0x3e1b75ad	0.15181608
169	0x3dd5ef14	0.10445991
170	0xbdba84cb	-0.091073595
171	0xbdeed437	-0.116615705
172	0xbdce9600	-0.10087204
173	0x3e13405d	0.14380021
174	0xbdec435a	-0.11536284
175	0x3d4ee4bf	0.050511118
176	0xbd3dd3cc	-0.046344563
177	0xbdd09cba	-0.10186143
178	0x3e0d23a3	0.13783126
179	0x3d32b2e9	0.043627653
180	0xbd9a84f2	-0.075448886
181	0xbd42c6df	-0.04755294
182	0x3e007ad8	0.12546861
183	0xbc9783ae	-0.018495407
184	0x3d4af744	0.049552217
185	0xbe0d4acb	-0.13798063
186	0xbd8ac6e1	-0.067762144
187	0xbd42d053	-0.047561955
188	0x3e15e4a5	0.14638002
189	0xbe2380f3	-0.15967159
190	0x3db35789	0.087569304
191	0x3c31a4da	0.010842526
192	0x3d3fe120	0.046845555
193	0xbd7b5d0f	-0.061368044
194	0x3def1ce1	0.1167543
195	0xba3a9245	-0.0007117133
196	0xbde67242	-0.11252262
197	0xbc83a2ec	-0.016068898
198	0x3da25803	0.07926943
199	0x3df810eb	0.12112602
200	0x3e30364b	0.17208211
201	0x3e2571a4	0.16156632
202	0xbcebfa17	-0.028805776
203	0xbdc1e64d	-0.094677545
204	0x3cacaf80	0.021079779
205	0xbe249255	-0.16071446
206	0x3e0008be	0.12503335
207	0x3ba036a0	0.0048893243
208	0x3e308bf3	0.17240886
209	0xbd94330c	-0.07236299
210	0x3dcd0856	0.100113556
211	0x3e20462a	0.15651765
212	0xbce0e4d7	-0.02745287
213	0x3dcf9bd6	0.10137145
214	0xbdec95cc	-0.11552009
215	0x3e22a73e	0.1588411
216	0x3d2e5692	0.04256303
217	0x3e112517	0.14174305
218	0x3cb873c9	0.022516148
219	0xbc69e147	-0.014274902
220	0x3d45005d	0.04809605
221	0x3df752ec	0.12076363
222	0x3dece9e7	0.11568051
223	0xbdf85dd1	-0.12127269
224	0xbdf80458	-0.121102035
225	0x3daf039f	0.085456125
226	0x3e29c787	0.1658002
227	0x3e15f5dc	0.14644569
228	0xbdd51098	-0.10403556
229	0x3cb6d2b4	0.022317268
230	0xbc8c0fdf	-0.017097412
231	0xbe1beebf	-0.15227793
232	0x3e10bec1	0.14135267
233	0x3e270a42	0.16312507
234	0x3d3493fc	0.04408644
235	0xbde34993	-0.110980175
236	0xbc925754	-0.017863907
237	0x3dfacfd3	0.122466706
238	0xbdcade9b	-0.0990574
239	0xbd41614b	-0.047211926
240	0xbdb5088e	-0.08839522
241	0x3c0bf054	0.008541185
242	0xbd9f4dbc	-0.077784985
243	0xbceec8f1	-0.02914855
244	0xbd4d1a91	-0.050074164
245	0x3dd8a8b7	0.10579055
246	0xbdb3b969	-0.087755986
247	0x3d42ec86	0.047588848
248	0x3e0f1029	0.13971008
249	0x3e127607	0.14302836
250	0xbe1cda40	-0.15317631
251	0xbd62d053	-0.055374455
252	0xbdc335a5	-0.09531716
253	0xbe0d7b97	-0.13816677
254	0x3d65bbdc	0.05608736
255	0x3df5c417	0.12000292

col_embedding.3.bias f4 [32]
0	0xbd3ca925	-0.046059746
1	0x3e1b14ab	0.15144603
2	0xbdc7f257	-0.097630195
3	0x3df5b3a0	0.119971514
4	0xbcc0dcf7	-0.023542864
5	0x3e1c9e69	0.15294804
6	0x3dd63f0f	0.10461246
7	0x3cf25b4d	0.029584551
8	0x3e127f54	0.14306384
9	0x3e112de7	0.14177667
10	0x3e07b3d7	0.13252197
11	0x3e07e8d6	0.13272414
12	0xbda46dc3	-0.08028748
13	0x3e21c101	0.15796281
14	0x3d8a75d2	0.06760754
15	0xbca95bbb	-0.020673623
16	0xbdbe1aea	-0.09282477
17	0xbdaba24b	-0.08380564
18	0x3dec9e4b	0.115536295
19	0x3e13e67f	0.14443396
20	0x3dbb0b55	0.09133021
21	0x3dca09cb	0.09865149
22	0xbdfceba1	-0.1234963
23	0x3e1b2c23	0.15153556
24	0x3e0df47b	0.13862793
25	0xbd863328	-0.06552726
26	0x3e0b180a	0.13583389
27	0x3dbc1e6a	0.091854885
28	0x3dbce398	0.092230976
29	0x3ceee7ef	0.029163329
30	0xbdb77a91	-0.089589246
31	0x3d9adc98	0.07561606

conv_col_to_row.feature_module_left.0.weight f4 [32, 32]
0	0x3cc9d318	0.02463679
1	0xbe1b1270	-0.15143752
2	0xbb78cd1c	-0.0037964052
3	0x3d1b8248	0.037966043
4	0xbd038d46	-0.03211715
5	0xbdef7908	-0.11693007
6	0x3c5ee6b5	0.0136048095
7	0xbd73977c	-0.05947064
8	0x3e1da83b	0.15396206
9	0x3bfc70ea	0.00770389
10	0xbcbfad44	-0.02339805
11	0x3e07734e	0.13227579
12	0x3ae5cf9b	0.0017533185
13	0xbd589452	-0.052875824
14	0xbca0f9af	-0.019650308
15	0xbc1304dc	-0.0089733265
16	0xbc2db05c	-0.010601129
17	0xbe107efd	-0.14110942
18	0x3e06f99f	0.1318116
19	0x3cd7a02d	0.026321495
20	0xbdb6f7b7	-0.089339666
21	0xbddb4015	-0.10705582
22	0x3d9b90fd	0.07596014
23	0x3da221a4	0.07916573
24	0x3dc80945	0.09767393
25	0xbdd84015	-0.10559098
26	0xbe249d0a	-0.1607553
27	0xbe08a5bd	-0.13344474
28	0x3e023a79	0.12717618
29	0xbd42e181	-0.04757834
30	0xbd58c3a7	-0.052920964
31	0xbdcb52d8	-0.099279106
32	0x3e066dbe	0.13127801
33	0x3d930d2b	0.07180246
34	0x3dd8f1b9	0.1059298
35	0xbdc6af84	-0.09701446
36	0xbcfd3189	-0.03090741
37	0x3e23c9d1	0.15994956
38	0xbca3fb90	-0.020017415
39	0xbe2ebdf2	-0.17064646
40	0xbdb11307	-0.08646207
41	0x3b86c1ac	0.004112443
42	0x3df4b616	0.11948793
43	0x3cfd53c3	0.03092373
44	0x3d213527	0.03935733
45	0xbdf73e3d	-0.12072418
46	0x3cf2c8a6	0.029636692
47	0x3c720e8b	0.014773975
48	0x3e017e51	0.12645842
49	0xbe077adb	-0.1323046
50	0x3cf640e9	0.030060248
51	0xbdd050ca	-0.10171659
52	0xbd2b6ed2	-0.041853733
53	0x3dbd9ec7	0.092588
54	0xbe312acc	-0.17301482
55	0x3ddda1b1	0.10821856
56	0xbe22a24c	-0.15882224
57	0x3d14261c	0.036169156
58	0x3da43e88	0.080197394
59	0x3dd3a9ff	0.103351586
60	0xbdc08baf	-0.094016425
61	0xbde3c380	-0.11121273
62	0x3dc52dc1	0.096278675
63	0xbc7802c1	-0.015137375
64	0x3dea6a97	0.11446112
65	0xbddd3037	-0.10800212
66	0x3ce29fbe	0.027664062
67	0x3d8f5aba	0.069997266
68	0x3cc6576c	0.024211608
69	0x3e0310d7	0.12799393
70	0xbe02900a	-0.12750259
71	0x3e2dedec	0.16985291
72	0xbde86853	-0.11348023
73	0xbddce1f0	-0.10785282
74	0x3e05824d	0.13037987
75	0x3cadc706	0.021213066
76	0xbe2d25e7	-0.1690899
77	0xbe286d03	-0.16447835
78	0xbda32a8b	-0.07967099
79	0x3e2a52d7	0.16633163
80	0x3d27367a	0.040823437
81	0xbe079869	-0.13241734
82	0x3e2cac7c	0.16862673
83	0x3d9325f1	0.07184971
84	0xbd8c0450	-0.0683676
85	0xbcd84d42	-0.026404027
86	0xbd3bfaa8	-0.04589334
87	0x3e3423d5	0.17591794
88	0x3bbe268a	0.005802934
89	0x3d591524	0.052998677
90	0xbe0fddea	-0.14049497
91	0x3caef7b8	0.021358356
92	0xbd8543fc	-0.065071076
93	0x3d8e448b	0.06946667
94	0x3cd55bef	0.026044814
95	0xbc2f841b	-0.010712649
96	0xbd4b3a9c	-0.04961644
97	0xbd79d3c5	-0.060992975
98	0x3c609ba3	0.013708982
99	0x3c33e119	0.01097896
100	0xbc5fea7b	-0.013666744
101	0x3d51a94b	0.05118684
102	0xbc74f413	-0.01495077
103	0xbd891898	-0.06694144
104	0x3e129181	0.14313318
105	0xbdc4eef1	-0.09615887
106	0xbdfa406b	-0.12219318
107	0x3e1b66cc	0.15175933
108	0x3ce0afc8	0.027427569
109	0xbcfc5564	-0.030802436
110	0xbdc223eb	-0.09479507
111	0xbd05ae59	-0.032636974
112	0xbe07d907	-0.13266383
113	0x3d1b4ab8	0.037913054
114	0x3c9e05a2	0.019289795
115	0x3da05ca3	0.07830169
116	0xbcdfb239	-0.027306663
117	0xbe29ec01	-0.16593935
118	0x3e0e83f5	0.13917525
119	0xbe2521ea	-0.16126218
120	0xbde98a87	-0.11403375
121	0xbba88826	-0.0051431833
122	0xbdcef112	-0.10104574
123	0xbdc2f9b9	-0.09520287
124	0x3dfce970	0.12349212
125	0xbe2d1c1e	-0.16905257
126	0xbcb3944f	-0.021921305
127	0x3db91880	0.09037876
128	0xbe18e777	-0.14932047
129	0x3da06564	0.07831839
130	0x3e25dc00	0.16197205
131	0x3b8b48ca	0.0042506205
132	0x3dc29e0b	0.095028006
133	0xbde537a4	-0.11192253
134	0x3e09f15c	0.13470978
135	0xbe1e8a07	-0.15482341
136	0x3d868b8f	0.065695874
137	0x3dce2b86	0.10066895
138	0xbda87e0b	-0.08227166
139	0xbdd14577	-0.102183275
140	0x3d255db4	0.040372565
141	0x3e292507	0.16518031
142	0xbd9e4cdb	-0.07729503
143	0x3e059b94	0.1304763
144	0xbda59057	-0.08084171
145	0xbc098746	-0.008394068
146	0x3e05b701	0.13058092
147	0xbe121edd	-0.14269586
148	0xbe2eb76e	-0.1706216
149	0xbcf1f3a1	-0.029535117
150	0x3d14cdec	0.036329195
151	0x3cbd0951	0.023075731
152	0xbe3308f5	-0.17483886
153	0xbda3e734	-0.08003083
154	0x3d2920fd	0.041291226
155	0xbcec4967	-0.028843595
156	0xbe1b9bea	-0.15196195
157	0x3d6a5471	0.057209436
158	0x3d3f9e72	0.046781965
159	0xbdc55831	-0.09635962
160	0x3bee7eb5	0.0072782882
161	0xbe0ca213	-0.13733701
162	0x3e234097	0.15942608
163	0x3da9eba4	0.08296898
164	0x3c5f433d	0.013626871
165	0x3da79877	0.08183377
166	0x3d65b3c3	0.056079637
167	0x3df4c014	0.119506985
168	0xbe0ef8ec	-0.13962144
169	0xbd08eba0	-0.033427835
170	0x3d8d74d2	0.06907047
171	0xbe174128	-0.14770949
172	0xbd117cae	-0.035519294
173	0xbd78c689	-0.060736213
174	0x3cbb3c1f	0.022855816
175	0xbe0090d7	-0.12555252
176	0x3e2b4c01	0.16728212
177	0xbe02ff57	-0.12792717
178	0xbd8ad37e	-0.0677862
179	0xbdc9cacd	-0.09853134
180	0x3dffe6ac	0.12495169
181	0x3df61b68	0.12016946
182	0x3d6e5f03	0.05819608
183	0x3df9369f	0.12168621
184	0x3e233a9f	0.15940331
185	0xbbe10da8	-0.006868083
186	0xbdca0bf4	-0.09865561
187	0x3e1103c7	0.14161597
188	0x3d836f1f	0.06417679
189	0xbe07544a	-0.13215747
190	0x3b4e0583	0.003143639
191	0x3e30f511	0.17280985
192	0xbd54273d	-0.051795233
193	0xbe1e8e39	-0.15483941
194	0x3e25e0f6	0.16199097
195	0x3cc461d8	0.023972437
196	0x3d8c65fa	0.06855388
197	0xbe276c7a	-0.16349974
198	0x3e13bd43	0.14427666
199	0xbdef8423	-0.11695125
200	0x3cc5a70a	0.024127502
201	0x3daad238	0.08340877
202	0x3c439d35	0.011939337
203	0xbe3085b6	-0.17238507
204	0x3cebccb3	0.028784132
205	0xbda6856e	-0.081309184
206	0x3d2b39a7	0.04180303
207	0x3d9e230c	0.077215284
208	0x3cc179ac	0.023617588
209	0xbcd8c53e	-0.02646124
210	0xbd5daec9	-0.054121766
211	0x3df0a297	0.117497616
212	0xbd8a6733	-0.06757965
213	0x3d5fac65	0.054607768
214	0xbdda7d68	-0.106684506
215	0xbd92d1dc	-0.07168934
216	0x3cc97f67	0.024596883
217	0xbe0f144c	-0.13972586
218	0x3d4aa2a0	0.049471498
219	0xbd52f5f8	-0.051504105
220	0x3e286501	0.1644478
221	0x3bd49f0b	0.006488686
222	0xbe1836c7	-0.14864646
223	0x3dfd23ef	0.123603694
224	0xbe00814c	-0.12549323
225	0x3c2254e6	0.009907937
226	0xbc018041	-0.007904113
227	0xbe008b7b	-0.12553208
228	0x3e136269	0.14393009
229	0xbdce5a75	-0.10075847
230	0x3cd4fc74	0.025999285
231	0x3e12a5e9	0.14321102
232	0x3e08076d	0.13284083
233	0xbe1f420f	-0.15552543
234	0x3e14ad2d	0.14519186
235	0xbd9b8908	-0.07594496
236	0xbb583710	-0.0032991804
237	0xbdc7933d	-0.0974488
238	0x3c629c48	0.013831206
239	0x3dcc0792	0.099623814
240	0xbe066114	-0.1312297
241	0xbb042962	-0.0020166268
242	0x3e3370ab	0.17523448
243	0x3de31186	0.11087327
244	0xbd3f816e	-0.046754293
245	0xbe156cef	-0.14592336
246	0xb9e59161	-0.000437866
247	0xbd8407f5	-0.0644683
248	0x3dc0c784	0.094130546
249	0x3ded42d9	0.11585016
250	0xbdecf6a9	-0.11570484
251	0xba4ffeb4	-0.0007934377
252	0x3dfff82c	0.12498507
253	0x3d9e438e	0.07727729
254	0xbe139176	-0.14410958
255	0xbe16b3b9	-0.14716996

conv_col_to_row.feature_module_left.0.bias f4 [32]
0	0x3ddd63ec	0.10810074
1	0x3e0473d0	0.12934804
2	0xbddea943	-0.10872128
3	0x3d890438	0.06690258
4	0xbc9eed00	-0.01940012
5	0x3de6fb06	0.11278348
6	0xbdb425cc	-0.08796272
7	0x3e32b3af	0.17451356
8	0xbd721437	-0.05910131
9	0xbe155ddc	-0.14586586
10	0xbddd15c7	-0.10795169
11	0xbe1b2624	-0.15151268
12	0x3d170222	0.03686727
13	0x3d910953	0.070818566
14	0xbe2767a1	-0.16348125
15	0xbe1abb43	-0.15110497
16	0x3db28d06	0.08718304
17	0x3e056077	0.1302508
18	0x3cd245c9	0.025668042
19	0x3d15310c	0.036423728
20	0x3d3697aa	0.044578232
21	0x3db090d9	0.086213775
22	0x3e25a5c2	0.16176513
23	0xbdb37b6e	-0.08763777
24	0x3db56c76	0.08858578
25	0xbd567b44	-0.05236365
26	0x3dfe07f2	0.12403859
27	0xbe2e1e1b	-0.17003672
28	0xbdcfc677	-0.10145276
29	0xbd887a97	-0.06664007
30	0xbd67703d	-0.056503523
31	0xbe2b7859	-0.16745128

conv_col_to_row.feature_module_edge.0.weight f4 [32, 1]
0	0x3f0be70e	0.54649436
1	0x3f1c3d8f	0.6103143
2	0x3dc22779	0.09480185
3	0x3eabbc4c	0.33542097
4	0x3db0b830	0.08628881
5	0x3ee90b55	0.45516458
6	0xbf3b9774	-0.73277974
7	0xbea8be22	-0.3295756
8	0xbf02149e	-0.5081271
9	0x3e5401f4	0.2070387
10	0xbf695d85	-0.91158324
11	0xbf56c2b3	-0.8389084
12	0xbf53d1e4	-0.8274214
13	0x3e08a2be	0.13343331
14	0xbf080d70	-0.53145504
15	0x3db794e2	0.08963944
16	0xbd81df91	-0.0634147
17	0xbe148de4	-0.14507252
18	0x3f31636f	0.6929235
19	0x3f279d25	0.6547416
20	0xbf3b7f74	-0.73241353
21	0x3c1c272c	0.009530824
22	0xbf50eb79	-0.816093
23	0xbf30092a	-0.68763983
24	0x3f2e5d25	0.6811088
25	0x3ed139c7	0.40864393
26	0xbf29f042	-0.6638223
27	0x3f27366b	0.6531741
28	0xbe1cf6f3	-0.15328579
29	0x3e18143c	0.14851469
30	0xbe870c09	-0.2637637
31	0x3f6c11a5	0.92214423

conv_col_to_row.feature_module_right.0.weight f4 [32, 32]
0	0xbd76136d	-0.06007712
1	0x3da53579	0.0806684
2	0xbdca557c	-0.09879586
3	0x3df4d617	0.11954897
4	0xbdabbdea	-0.083858326
5	0xbdecc932	-0.115618125
6	0xbc6b0a45	-0.01434571
7	0x3cf7e5aa	0.03026088
8	0x3b896858	0.004193347
9	0xbddaf306	-0.10690884
10	0xbdbb2d84	-0.09139541
11	0x3d7fa6f8	0.062415093
12	0xbdd51356	-0.10404079
13	0x3a9aa997	0.0011799809
14	0x3d9b9624	0.075969964
15	0x3c721463	0.014775368
16	0x3e32b493	0.17451696
17	0x3e28c168	0.16480029
18	0x3cbceee8	0.023063138
19	0x3e09799e	0.134253
20	0xbe2a183c	-0.16610807
21	0x3d20fc6a	0.03930322
22	0x3e315eb0	0.17321277
23	0xbd6d397e	-0.057916157
24	0x3d8f7878	0.070053995
25	0x3d21fb0a	0.03954605
26	0x3e0de990	0.13858628
27	0xbdcf5783	-0.101241134
28	0xbdebe1cd	-0.115176775
29	0x3bd2787d	0.0064230547
30	0xbdea8549	-0.114512034
31	0x3e196df9	0.14983357
32	0x3e203dbe	0.15648553
33	0x3dbe9a28	0.09306747
34	0xbc8fb02c	-0.01754006
35	0x3e354178	0.17700756
36	0xbe1d59e9	-0.15366329
37	0x3e341487	0.17585956
38	0xbd9d1abf	-0.07671117
39	0x3e17e286	0.14832506
40	0xbddc200c	-0.107483
41	0xbdc1a04a	-0.09454401
42	0xbdd964c9	-0.10614926
43	0x3db881ed	0.090091564
44	0x3d0f569e	0.034994714
45	0x3dd28d3c	0.102808446
46	0x3bb8309f	0.0056210305
47	0xbd6b6bd3	-0.057475876
48	0x3e0dd6ee	0.1385152
49	0xbe0f6402	-0.14002994
50	0x3d9b972e	0.075971946
51	0xbe1ac1d9	-0.1511301
52	0x3e29a9f3	0.16568737
53	0x3c4acbef	0.012377723
54	0xbd714ce0	-0.058911204
55	0x3e0d80d6	0.13818678
56	0xbe1838ab	-0.14865367
57	0xbdc9b2f5	-0.098485865
58	0xbe10e036	-0.1414803
59	0xbd661491	-0.056171957
60	0xbd997ad0	-0.07494128
61	0x3dc6c759	0.09705991
62	0xbe17717c	-0.14789385
63	0x3ba3c884	0.0049982686
64	0x3e0e65bc	0.13905996
65	0xbd1b79e9	-0.03795806
66	0xbd74cf11	-0.059767786
67	0xbda1b7b8	-0.0789637
68	0x3db7e16a	0.08978541
69	0x3de952bc	0.113927335
70	0xbe07bb3d	-0.1325502
71	0xbcc6ab80	-0.0242517
72	0xbe1a11bf	-0.15045832
73	0xbd593123	-0.053025376
74	0x3cac3465	0.021021077
75	0x3ccc66c4	0.024951346
76	0x3e026b6d	0.12736292
77	0x3df5ffc7	0.12011676
78	0x3d53bb8c	0.05169253
79	0xbe255163	-0.16144328
80	0xbd3c3857	-0.045952167
81	0x3e34852e	0.17628929
82	0xbd654804	-0.055976883
83	0x3d368ad2	0.044565983
84	0x3ce18b9d	0.027532393
85	0x3dc92d92	0.09823145
86	0xbdb844eb	-0.0899752
87	0xbdcb6b91	-0.09932626
88	0xbd377e63	-0.044798266
89	0x3dee2204	0.11627582
90	0xbe2503d2	-0.16114739
91	0xbcd78ccb	-0.026312253
92	0x3dd4b9f6	0.10387032
93	0x3e0d2c3d	0.13786407
94	0x3d136986	0.035989307
95	0xbdb19554	-0.0867106
96	0x3d275d90	0.040860713
97	0xbe078aed	-0.1323659
98	0xbe2f8dc7	-0.17143928
99	0x3e0a5a7f	0.13511084
100	0xbe334cb8	-0.17509735
101	0xbe05ae13	-0.13054685
102	0x3e291ecc	0.16515654
103	0x3d830bd3	0.0639874
104	0xbdd9715e	-0.10617326
105	0xbe016aa0	-0.1263833
106	0xbe19a64c	-0.15004843
107	0xbd02158e	-0.031758837
108	0xbdda0616	-0.10645692
109	0x3daa3468	0.08310777
110	0xbdf8b854	-0.12144533
111	0xbd8b0aa1	-0.06789137
112	0xbd543dfb	-0.05181692
113	0x3d631370	0.05543846
114	0xbc94047a	-0.01806854
115	0xbd014ffd	-0.031570423
116	0xbda1590e	-0.07878314
117	0xbe2d03f8	-0.16896045
118	0x3e2eb4b2	0.17061117
119	0x3e132cd4	0.1437257
120	0x3d7e1536	0.062031947
121	0xbc42b203	-0.011883262
122	0x3e0320ae	0.12805435
123	0xbd3d68a1	-0.04624236
124	0x3bcf036e	0.0063175475
125	0x3de1db74	0.110281855
126	0xbdddd122	-0.108309045
127	0x3dea5a9c	0.114430636
128	0xbdad96a1	-0.08475996
129	0xbe08de1e	-0.13365981
130	0x3e308a12	0.1724017
131	0xbd9313b0	-0.071814895
132	0xbd958745	-0.07301191
133	0xbd6ca8bc	-0.057778105
134	0x3cff8dc1	0.031195523
135	0xbc801b5e	-0.01563805
136	0xbe184afa	-0.14872351
137	0xbe25bf7f	-0.16186331
138	0x3dd85ee5	0.10564975
139	0x3d98ef4d	0.07467518
140	0x3e0a403d	0.13501067
141	0xbe26c8a8	-0.16287482
142	0x3c9a5334	0.018838502
143	0x3e113833	0.14181595
144	0xbda3096b	-0.07960781
145	0x3c08f317	0.008358738
146	0x3b110a40	0.0022131354
147	0x3e214624	0.15749413
148	0xbe0ce9e1	-0.13761093
149	0xbd09eec2	-0.033674963
150	0x3d84471b	0.06458875
151	0x3ba37a38	0.004988935
152	0x3d1d3dff	0.038389202
153	0xbddf8f55	-0.1091601
154	0xbe1753ba	-0.14778033
155	0x3e20f9ef	0.15720342
156	0x3c59a110	0.013283029
157	0xbd938b2d	-0.0720428
158	0xbb6d48b9	-0.0036206676
159	0x3d4d782b	0.05016343
160	0x3da3eae1	0.08003784
161	0x3e1d753d	0.15376754
162	0xbe2b1a62	-0.16709283
163	0xbe0fbd2e	-0.1403701
164	0x3d7ab6d0	0.0612095
165	0xbdbdcde9	-0.0926779
166	0x3d5b6256	0.053560577
167	0x3e2ffbaf	0.17185853
168	0xbd8f5abe	-0.069997296
169	0x3e1eafd5	0.15496762
170	0x3d89170f	0.06693851
171	0x3dcf4c61	0.1012199
172	0x3e297301	0.16547777
173	0x3e32abb0	0.17448306
174	0x3de2a30f	0.11066257
175	0x3dbc2185	0.09186081
176	0x3d83a09c	0.06427118
177	0x3e134fc9	0.14385904
178	0x3e2cdadf	0.16880368
179	0xbe163475	-0.14668448
180	0x3e016c31	0.12638928
181	0x3de09e0a	0.109676436
182	0x3dbcbdd1	0.09215892
183	0x3dabd5f4	0.08390418
184	0xbdb59453	-0.08866181
185	0x3db9f711	0.09080327
186	0x3de4d59c	0.11173555
187	0x3d397824	0.04528059
188	0x3d1b345d	0.037891734
189	0xbdfc1a5a	-0.12309714
190	0xbe20d896	-0.15707621
191	0xbd70111f	-0.058610078
192	0x3e1cba38	0.15305412
193	0x3bddf82e	0.00677397
194	0x3d67b9c3	0.05657364
195	0x3d7b96e5	0.0614232
196	0xbb0e763f	-0.002173796
197	0xbb327ca7	-0.0027234943
198	0xbc7f1e68	-0.015571214
199	0xbde96948	-0.11397034
200	0x3dab4a36	0.08363764
201	0xbdc57880	-0.09642124
202	0x3d53c8f8	0.05170533
203	0xbd9e6e45	-0.07735876
204	0xbd540e1c	-0.05177127
205	0x3974b83f	0.0002333829
206	0xbda383df	-0.07984137
207	0xbdeae1b3	-0.1146883
208	0xbe09a269	-0.13440861
209	0x3d6e7ae6	0.058222674
210	0xbe0107cd	-0.12600632
211	0xbe2d5619	-0.16927375
212	0xbdd890f1	-0.105745204
213	0x3be60a5a	0.007020277
214	0x3c097e00	0.008391857
215	0x3c006e44	0.007838789
216	0x3d4a4546	0.04938247
217	0xbdaad55c	-0.08341476
218	0x3dc8321e	0.09775184
219	0x3c1dc336	0.009629061
220	0x3e0bb30b	0.13642518
221	0x3ce565d4	0.028002657
222	0x3d77fbdc	0.060542926
223	0xbe009e29	-0.12560333
224	0x3e0cd53e	0.1375322
225	0xbca55378	-0.020181403
226	0xbd973ed3	-0.0738503
227	0x3e16fb7c	0.14744371
228	0xbd59c7c9	-0.053169046
229	0x3de210b9	0.11038346
230	0x3c18ba9f	0.009321838
231	0x3b5aab34	0.0033366205
232	0x3e191106	0.149479
233	0xbdcb140c	-0.09915933
234	0x3ce0cccc	0.027441405
235	0xbda17c54	-0.07885042
236	0x3ddffe87	0.10937219
237	0x3d084293	0.033266615
238	0x3dc25352	0.09488548
239	0x3ddaf60f	0.10691463
240	0xbd6839bf	-0.056695696
241	0xbdd06af4	-0.1017665
242	0xbd3b3207	-0.045702007
243	0x3cadb9dd	0.02120679
244	0xbdcba8bd	-0.09944294
245	0x3dd9f5be	0.10642575
246	0xbdc20a26	-0.09474592
247	0x3daf488d	0.0855876
248	0xbe191ffa	-0.14953604
249	0xbdb553bd	-0.088538624
250	0x3cd99060	0.026558101
251	0xbe330645	-0.1748286
252	0x3e173e4d	0.1476986
253	0x3e1c647e	0.1527271
254	0x3da1abab	0.07894071
255	0xbcd70202	-0.026246075

conv_col_to_row.feature_module_final.0.weight f4 [32]
0	0x3f7fcdf0	0.9992361
1	0x3f7ffe1c	0.99997115
2	0x3f800000	1.0
3	0x3f8008b9	1.0002662
4	0x3f800000	1.0
5	0x3f800824	1.0002484
6	0x3f8008fe	1.0002744
7	0x3f7feaaf	0.99967474
8	0x3f7fe3ce	0.9995698
9	0x3f8027ef	1.0012187
10	0x3f7feba0	0.9996891
11	0x3f7fe9ed	0.9996632
12	0x3f800f42	1.0004656
13	0x3f7fd717	0.99937576
14	0x3f800258	1.0000715
15	0x3f7fdf2a	0.99949896
16	0x3f7fe924	0.9996512
17	0x3f800071	1.0000135
18	0x3f7ffffb	0.9999997
19	0x3f800949	1.0002834
20	0x3f80044a	1.0001309
21	0x3f800452	1.0001318
22	0x3f800473	1.0001358
23	0x3f7ff342	0.99980557
24	0x3f800b24	1.00034
25	0x3f800ee1	1.0004541
26	0x3f801737	1.0007085
27	0x3f800000	1.0
28	0x3f800000	1.0
29	0x3f7feac4	0.999676
30	0x3f800000	1.0
31	0x3f800000	1.0

conv_col_to_row.feature_module_final.0.bias f4 [32]
0	0xba13419f	-0.0005617383
1	0x3907e0c3	0.00012958334
2	0x00000000	0.0
3	0x398dc05e	0.0002703694
4	0x00000000	0.0
5	0x398b98fd	0.0002662613
6	0xb88df84f	-6.769655e-05
7	0xb993c5cd	-0.00028185398
8	0xb9c0c1ce	-0.0003676549
9	0x3a947d79	0.0011328898
10	0xb9916a1c	-0.00027735613
11	0xb9a6d098	-0.00031817402
12	0x39e8dba5	0.00044414136
13	0xba2eb7cc	-0.0006664961
14	0x39248aba	0.00015691938
15	0xb97f3f60	-0.00024342304
16	0xba0b92b7	-0.00053242914
17	0x3814879e	3.5412253e-05
18	0x38d12303	9.972418e-05
19	0x3a0857cd	0.00052010716
20	0x389494c4	7.0849e-05
21	0x38a5f62a	7.913665e-05
22	0x398e427e	0.0002713389
23	0xb9666e1a	-0.00021975525
24	0x3a4a9f00	0.00077293813
25	0x39d41ff3	0.00040459595
26	0x3a3669e7	0.00069585297
27	0x00000000	0.0
28	0x00000000	0.0
29	0xb9bcc8fb	-0.00036007896
30	0x00000000	0.0
31	0x00000000	0.0
