GNN_method/ResultsGCNN/actor_64.pt (torch, 83520 bytes, 43 tensors)

row_embedding.0.weight f4 [7]
0	0x3f808887	1.0041665
1	0x3f80365f	1.0016593
2	0x3f7fdca6	0.9994606
3	0x3f802e74	1.0014176
4	0x3f7fa2c9	0.99857765
5	0x3f806bde	1.0032918
6	0x3f8008a9	1.0002643

row_embedding.0.bias f4 [7]
0	0xbb2c8185	-0.0026322317
1	0xba8ab92c	-0.001058375
2	0xba54d6a2	-0.0008119141
3	0xbae542bc	-0.0017491202
4	0x3ac2e9bd	0.0014870685
5	0xbb366358	-0.002783021
6	0x3a21dba4	0.00061743916

row_embedding.1.weight f4 [32, 7]
0	0x3d52b8ad	0.05144565
1	0x3d4adb92	0.049525805
2	0x3e0d0bf6	0.13774094
3	0xbeb67cd9	-0.35642126
4	0xbe3a981f	-0.18222092
5	0x3e7761b8	0.2415837
6	0xbdacec8f	-0.084435575
7	0xbe8a2856	-0.269839
8	0xbd85315a	-0.06503554
9	0xbd25a8bf	-0.040444132
10	0xbddaeeef	-0.10690104
11	0x3e471309	0.19440855
12	0x3a8ae3e4	0.0010596481
13	0xbdabb8f1	-0.08384884
14	0xbe00b92a	-0.12570634
15	0xbe95ab43	-0.29232225
16	0xbe90ba0d	-0.28266945
17	0x3e85ab79	0.26107386
18	0x3ea233ef	0.31680247
19	0x3ca30712	0.019900832
20	0xbe4e8e60	-0.20171499
21	0xbe55bf99	-0.2087387
22	0x3e090447	0.13380538
23	0x3ea2b235	0.31776586
24	0xbeb6bc4b	-0.3569053
25	0x3ce010e1	0.027351798
26	0x3bb6cd9a	0.005578709
27	0x3e4609fd	0.19339748
28	0xbe0e60e4	-0.13904148
29	0xbd07a3e2	-0.033115275
30	0xbe9d184f	-0.30682608
31	0x3e55c885	0.20877273
32	0xbe4f36f7	-0.20235811
33	0xbe4e3245	-0.20136364
34	0xbe481e6b	-0.19542854
35	0xbddb0a1d	-0.10695288
36	0x3d63ca9b	0.05561314
37	0xbc2c97c6	-0.0105342325
38	0xbeb68d87	-0.35654852
39	0x3dc3f2ad	0.09567771
40	0xbe52f307	-0.2060052
41	0x3ea08abb	0.31355843
42	0xbe89d1cf	-0.26917884
43	0xbeabb667	-0.335376
44	0x3e8bad44	0.2728063
45	0xbe6699c6	-0.22519597
46	0xbea09880	-0.31366348
47	0xbd6b6710	-0.057471335
48	0x3c8d61cb	0.017258545
49	0xbe7921fa	-0.24329367
50	0x3e89350a	0.26798278
51	0x3e6a188b	0.22860925
52	0x3e85f81d	0.26165858
53	0x3e5a0669	0.21291508
54	0x3d076c1e	0.033062093
55	0x3d111eba	0.035429694
56	0xbe0c514d	-0.13702889
57	0xbd96a177	-0.07355016
58	0x3cd8d960	0.02647084
59	0x3c379c38	0.011206679
60	0xbe0f5708	-0.13998044
61	0xbe568864	-0.20950466
62	0x3e8bdbfe	0.27316278
63	0x3d48b85b	0.04900394
64	0xbeaf46f4	-0.3423382
65	0xbe486c3b	-0.19572537
66	0x3eba3bf9	0.3637388
67	0xbe41f2ee	-0.18940327
68	0x3e836666	0.2566406
69	0xbeb2f54b	-0.3495277
70	0xbe8a5d11	-0.2702413
71	0x3eacce4a	0.33751136
72	0xbdc34d74	-0.095362574
73	0xbbbeb01b	-0.0058193333
74	0xbd1ffa5d	-0.039057124
75	0xbe8083b1	-0.25100473
76	0x3e819544	0.25309193
77	0xbe3a08d4	-0.1816743
78	0x3c4c0ce0	0.0124542415
79	0xbeb68005	-0.35644546
80	0xbd9a2e1b	-0.07528325
81	0xbc7d37fe	-0.015455244
82	0x3e84346a	0.2582124
83	0x3e0b5d63	0.13609843
84	0x3e93c7de	0.28863424
85	0xbd93f487	-0.07224374
86	0xbe9e60b0	-0.30933142
87	0xbdd9588d	-0.10612593
88	0xbd8d1b89	-0.068900175
89	0x3ea25861	0.31708053
90	0xbe69b9a2	-0.2282472
91	0x3e80a87d	0.25128546
92	0x3e5bc35f	0.21461247
93	0xbe5f0f4c	-0.21783179
94	0xbe7d194f	-0.24716686
95	0xbe1f741c	-0.15571636
96	0xbe193842	-0.14962867
97	0xbe8b0484	-0.27151883
98	0xbeba9e61	-0.3644896
99	0x3db450fa	0.088045076
100	0x3dccc3dc	0.09998295
101	0xbe8f2410	-0.279572
102	0x3e8c14bd	0.27359572
103	0xbe1246c4	-0.14284807
104	0xbdee00a7	-0.11621218
105	0x3d8bf3ca	0.068336084
106	0x3e949c0e	0.2902531
107	0xbea56e56	-0.32310742
108	0xbd9cccef	-0.076562755
109	0x3de7ef59	0.11324949
110	0xbea0eaf2	-0.3142925
111	0x3e97abd3	0.2962328
112	0x3e148603	0.14504246
113	0x3ea6aded	0.3255457
114	0xbcf1f6e2	-0.029536668
115	0x3e3403ca	0.1757957
116	0xbe80dcf9	-0.2516859
117	0x3eb4b3a1	0.35293296
118	0x3dc17523	0.0944617
119	0x3e499c76	0.19688591
120	0xbe5cfaaf	-0.21580003
121	0xbe874d49	-0.2642615
122	0xbea53d3a	-0.32273275
123	0xbeb06f8d	-0.34460106
124	0x3b8ec575	0.004357035
125	0xbcc38997	-0.023869319
126	0xbeb3b926	-0.35102195
127	0x3eb07c31	0.3446975
128	0xbe300cab	-0.17192332
129	0xbe9b6af6	-0.30355042
130	0xbe28fa29	-0.16501679
131	0x3ea11af2	0.3146587
132	0x3dac4dc9	0.08413274
133	0xbe4b0cd6	-0.19829115
134	0xbe2d06f2	-0.1689718
135	0xbe79b202	-0.24384311
136	0x3dfaa329	0.122381516
137	0x3e7cd488	0.24690449
138	0xbe47df99	-0.1951889
139	0x3eb957b8	0.36199737
140	0x3ea78fe6	0.32726973
141	0x3e009691	0.12557437
142	0xbc24a9e1	-0.010050268
143	0x3e8d4685	0.27592865
144	0x3dd7fce8	0.10546285
145	0xbeaa7175	-0.33289686
146	0xbe82fac4	-0.25581944
147	0x3e490864	0.19632107
148	0x3cf305bd	0.029665822
149	0x3eb48815	0.35260072
150	0xbe8a322b	-0.269914
151	0xbe9198c2	-0.28436857
152	0xbdd72c0b	-0.105064474
153	0xbe69b082	-0.22821239
154	0x3e92a370	0.28640318
155	0x3d0700d2	0.032959767
156	0xbe0676f0	-0.13131309
157	0xbd539159	-0.051652286
158	0x3d001d8a	0.03127817
159	0xbe8dc52c	-0.27689493
160	0x3d260718	0.04053411
161	0xbe7c32a9	-0.246287
162	0x3d71afa6	0.059005402
163	0x3e0b1359	0.135816
164	0xbe6ca373	-0.23109226
165	0xbe54f4ba	-0.20796481
166	0xbc2b7d6b	-0.010466914
167	0x3e98dc0f	0.2985539
168	0x3e401894	0.18759376
169	0xbdb822c0	-0.08991003
170	0x3ea93214	0.3304602
171	0x3dc815f2	0.09769811
172	0x3ebb1a66	0.36543578
173	0x3e8865b3	0.2664009
174	0xbe85dd3e	-0.26145357
175	0x3cbd6ddc	0.023123674
176	0x3e6ccc60	0.23124838
177	0x3d9cd0a6	0.07656984
178	0x3df48b00	0.11940575
179	0x3e9fbc28	0.3119824
180	0xbe8e6bfb	-0.27816758
181	0x3e00466e	0.12526867
182	0xbdf5f546	-0.12009673
183	0xbe202a53	-0.15641145
184	0x3eadb96c	0.33930528
185	0x3e8a39d4	0.26997244
186	0x3e7d039a	0.24708405
187	0x3d15bfb2	0.036559768
188	0xbe965eb7	-0.29369137
189	0x3eae54ed	0.34049168
190	0x3dd37b14	0.1032621
191	0xbd1ef279	-0.03880546
192	0xbe9387a4	-0.28814423
193	0xbddc4ca0	-0.107568026
194	0xbea84b83	-0.3287011
195	0x3e97d901	0.29657748
196	0x3ea51f9e	0.32250684
197	0x3d947b4f	0.07250082
198	0x3ea20e13	0.31651363
199	0xbe75ad8c	-0.23991984
200	0xbe5a4e7b	-0.21319
201	0x3e3852c8	0.18000329
202	0x3ebe42ac	0.37160242
203	0xbe741e7d	-0.23839755
204	0xbe9d2981	-0.30695727
205	0x3e03ad58	0.12859094
206	0x3debf2fa	0.115209535
207	0x3e882a63	0.26594839
208	0x3d680d4e	0.056653313
209	0xbec1b4bc	-0.37833202
210	0x3e1a6395	0.1507705
211	0xbe3ba004	-0.1832276
212	0x3e47d6ab	0.19515483
213	0xbe8f791c	-0.28022087
214	0xbe95c152	-0.29249054
215	0x3d0a79a5	0.033807416
216	0xbd80d04e	-0.06289731
217	0xbeb354af	-0.35025546
218	0xbe3ebc8f	-0.18626617
219	0xbe9eb8ea	-0.31000453
220	0x3ddb7849	0.10716302
221	0x3dcd4ba8	0.10024196
222	0xbdf337df	-0.11875891
223	0xbea1baac	-0.31587732

row_embedding.1.bias f4 [32]
0	0xbd523b13	-0.05132587
1	0x3e836a13	0.25666866
2	0x3de13bc2	0.10997726
3	0xbebccf15	-0.3687674
4	0x3da501c3	0.08056977
5	0xbdf478e4	-0.119371206
6	0x3c9b59a2	0.018963639
7	0xbddb644c	-0.107124895
8	0x3e1cce31	0.15313031
9	0xbe56ad51	-0.20964552
10	0xbeb31f62	-0.3498488
11	0xbcd370fc	-0.025810711
12	0x3ea2cfed	0.3179926
13	0x3e1aea07	0.15128337
14	0x3eb162cf	0.34645697
15	0x3dd5be41	0.10436679
16	0xbe2419e8	-0.16025507
17	0x3c819e75	0.015822629
18	0xbdf51dd5	-0.11968581
19	0x3e9ef286	0.31044406
20	0x3e8f97e3	0.28045568
21	0xbce00154	-0.027344383
22	0x3e5a6ef8	0.21331394
23	0xbdcd8b65	-0.10036353
24	0x3ea4b128	0.3216641
25	0x3e5428e3	0.20718722
26	0xbe173a60	-0.14768362
27	0x3e0074ba	0.12544528
28	0xbe972098	-0.29517055
29	0xbe48833d	-0.19581313
30	0x3cb12073	0.021621918
31	0xbe5d7ddf	-0.21630047

row_embedding.3.weight f4 [32, 32]
0	0xbdfcca79	-0.12343306
1	0xbd240430	-0.040043056
2	0x3d91b1d2	0.07113995
3	0x3c41e166	0.011833524
4	0x3dce718c	0.10080251
5	0x3b852ca0	0.0040641576
6	0x3e2798bc	0.16366857
7	0x3e15362b	0.14571445
8	0x3dd0314e	0.10165654
9	0xbe15dbde	-0.14634654
10	0x3d129247	0.035784032
11	0x3cfe1d00	0.031019688
12	0x3dcd5c27	0.10027342
13	0xb9f0bb78	-0.00045916042
14	0x3e0ce2fa	0.1375846
15	0x3e1fca7f	0.1560459
16	0x3e1d5806	0.1536561
17	0x3d1a488f	0.037666854
18	0xbdf49c26	-0.119438455
19	0x3dd8c925	0.1058524
20	0x3d1eb46b	0.03874628
21	0x3d5d0a9f	0.053965207
22	0x3d36cb42	0.044627436
23	0x3deac8d3	0.114640854
24	0xbe26dc04	-0.16294867
25	0x3dda5517	0.10660761
26	0x3e02d3c1	0.1277609
27	0x3e1a687b	0.15078919
28	0x3c92ee09	0.01793577
29	0xbe1d4e6c	-0.15361947
30	0x3e16be76	0.14721093
31	0xbced9c44	-0.029005177
32	0x3d0c99d7	0.0343264
33	0x3ce8e3fd	0.028429026
34	0xbe3651e6	-0.1780468
35	0x3c018b00	0.007906675
36	0xbc8f4683	-0.017489677
37	0xbd49f87e	-0.049309246
38	0x3d9f8c4b	0.07790431
39	0x3d3121ac	0.043245003
40	0xbdbff170	-0.093722224
41	0xbd210caa	-0.039318718
42	0xbdd6425f	-0.10461878
43	0xbe243bdb	-0.16038458
44	0x3db14773	0.08656206
45	0x3dcd6039	0.10028119
46	0x3e20bced	0.1569707
47	0xbe29c094	-0.16577369
48	0xbd42dd23	-0.047574174
49	0x3e05d162	0.13068154
50	0x3d9aa116	0.07550256
51	0xbe0ab2d2	-0.13544777
52	0x3e01f037	0.12689291
53	0x3dfa3968	0.122179806
54	0x3e05b54a	0.13057438
55	0x3df9d2f1	0.12198437
56	0x3e0f48a2	0.13992551
57	0xbd912823	-0.070877336
58	0x3e0eec6e	0.13957378
59	0x3de16df7	0.11007302
60	0xbe092e92	-0.13396671
61	0x3d6cf243	0.057848226
62	0xbe0bfe38	-0.13671196
63	0xbdbe6301	-0.09296227
64	0x3c6f9482	0.014622809
65	0x3e261ffc	0.16223139
66	0xbdd8720d	-0.105686285
67	0xbe173d48	-0.1476947
68	0x3e2e7e43	0.17040353
69	0xbdad1076	-0.08450405
70	0xbe27dc95	-0.16392739
71	0xbd9138a1	-0.07090879
72	0x3df2fe3d	0.11864898
73	0x3d049302	0.03236676
74	0x3e246193	0.16052847
75	0x3dd325ac	0.1030992
76	0x3c2f53dd	0.010701147
77	0x3e265d69	0.1624657
78	0xbda5881d	-0.08082602
79	0x3daf2240	0.085514545
80	0xbd16efd9	-0.03684983
81	0xbc9d044a	-0.019167084
82	0x3d321890	0.043480456
83	0x3e006372	0.12537935
84	0x3e1bac4d	0.15202446
85	0x3d4e097b	0.05030201
86	0xbd62b8b2	-0.05535192
87	0x3e2e4cae	0.17021438
88	0x3d058fd4	0.03260787
89	0x3d692242	0.056917436
90	0x3d6329b6	0.0554597
91	0xbe28e153	-0.16492204
92	0x3e29aa10	0.1656878
93	0x3e2823c9	0.16419901
94	0x3e040487	0.12892352
95	0x3e1e3858	0.15451181
96	0xbda42134	-0.080141455
97	0xbd1c6877	-0.038185563
98	0xbe1da075	-0.15393241
99	0x3d672e47	0.056440618
100	0x3d435422	0.047687657
101	0x3d72583f	0.05916619
102	0x3e2d8066	0.16943511
103	0xbcbec53d	-0.02328741
104	0x3db482e5	0.08814029
105	0x3dee88e7	0.11647206
106	0xbdde3f4b	-0.10851916
107	0xbd021931	-0.031762306
108	0x3e02df56	0.12780508
109	0xbdd294fa	-0.10282321
110	0x3d7ac95e	0.061227195
111	0x3db51d1c	0.08843443
112	0xbc98c9ba	-0.018650878
113	0x3e2cc906	0.1687356
114	0xbd8d6db5	-0.069056906
115	0x3d931077	0.07180875
116	0xbd2181c3	-0.03943039
117	0xbe22a360	-0.15882635
118	0x3d950f26	0.0727828
119	0xbd8aa230	-0.06769216
120	0xbb2acae2	-0.002606087
121	0x3e1d7d1a	0.15379754
122	0xbda19e14	-0.07891479
123	0xbd86df4b	-0.065855585
124	0xbe33b1cd	-0.17548294
125	0xbe017a6b	-0.12644355
126	0xbdef8e65	-0.116970815
127	0x3d391fc6	0.045196317
128	0x3db7d8c4	0.08976892
129	0xbcec456c	-0.028841697
130	0xbdea43a6	-0.11438684
131	0x3c113b91	0.008864299
132	0x3dac53b8	0.084144056
133	0xbd857c27	-0.06517821
134	0xbde4299f	-0.11140751
135	0x3dbe8df3	0.093044184
136	0xbe2ff990	-0.17185044
137	0x3d94f98a	0.07274158
138	0x3e0d68db	0.1380953
139	0xbe316059	-0.1732191
140	0xbd49bd9f	-0.049253102
141	0xbd2f0948	-0.04273346
142	0x3c2b960f	0.0104727885
143	0xbe3a75b2	-0.1820896
144	0xbde25f97	-0.110533886
145	0xbdd2cc69	-0.102928944
146	0x3d8b0bf3	0.067893885
147	0x3d7e5db5	0.062101085
148	0xbe0e3970	-0.13889098
149	0x3d373244	0.04472567
150	0x3b5c8819	0.0033650456
151	0x3d82bb64	0.06383398
152	0xbd8ac100	-0.06775093
153	0x3df0c02e	0.11755405
154	0xbda6ef63	-0.08151128
155	0xbe0c664c	-0.13710898
156	0x3dd4da6f	0.103932254
157	0xbe324673	-0.17409687
158	0x3df23310	0.11826146
159	0xbd4d4c54	-0.05012162
160	0xbdb2b80a	-0.08726509
161	0xbe234067	-0.15942536
162	0xbd07c690	-0.03314835
163	0x3d7ada7d	0.061243523
164	0xbd666213	-0.056245875
165	0x3e27185d	0.16317888
166	0x3dbdcf9b	0.09268113
167	0x3d780f50	0.06056148
168	0xbe28bb38	-0.16477668
169	0x3b7bed71	0.0038441087
170	0xbe01be7d	-0.12670322
171	0x3d3d2509	0.046177898
172	0xbd211fba	-0.039336897
173	0x3de01a12	0.109424725
174	0xbb21fc47	-0.002471702
175	0xbe278ad5	-0.16361554
176	0xbdc6bdb1	-0.097041495
177	0xbe33d467	-0.17561494
178	0xbd370fa8	-0.044692665
179	0x3dae2a9b	0.0850422
180	0xbe13f315	-0.14448197
181	0x3df0aa6f	0.11751258
182	0xbe328c8b	-0.17436425
183	0xbc584566	-0.01320014
184	0x3a1bef01	0.0005948395
185	0xbdb54fbd	-0.088530995
186	0xbe1c7012	-0.15277126
187	0xbdc63b49	-0.096792765
188	0xbe1317ba	-0.1436452
189	0xbca437f9	-0.020046221
190	0x3cdbe4dc	0.026842527
191	0xbe27d085	-0.16388138
192	0x3da8d8f5	0.08244506
193	0x3e0385e1	0.1284404
194	0x3df901f0	0.12158573
195	0xbd2e4a2f	-0.042551216
196	0x3e0f9819	0.14022864
197	0x3d73e156	0.05954107
198	0xbe00db78	-0.1258372
199	0xbdaaf5e6	-0.08347683
200	0xbe1c1266	-0.15241393
201	0x3da5f4f2	0.0810336
202	0x3e04ecde	0.12980983
203	0x3d8c4514	0.06849113
204	0xbcfab0c5	-0.030601868
205	0xbe145410	-0.14485192
206	0xbe2c4e00	-0.1682663
207	0x3cb2a40e	0.021806743
208	0xbccf101b	-0.025276234
209	0x3e0c8b99	0.13725127
210	0xbd975cb9	-0.07390732
211	0x3e0e2492	0.13881138
212	0x3dbbedf4	0.09176245
213	0x3ddef9c1	0.108874805
214	0x3d260d20	0.04053986
215	0x3e0a9a79	0.13535489
216	0xbdbccef9	-0.092191644
217	0xbd40a970	-0.04703659
218	0xbdb5cf5e	-0.08877443
219	0x3c63e538	0.0139096305
220	0x3e29867e	0.16555211
221	0xbd462682	-0.048376568
222	0xbd1b724e	-0.037950806
223	0x3ddaa2aa	0.10675557
224	0xbd6f46d2	-0.05841715
225	0xbd2e13cd	-0.042499352
226	0xbdf15eb0	-0.11785638
227	0xbe0328f1	-0.12808587
228	0x3d1600fa	0.036622025
229	0x3e0df483	0.13862805
230	0x3e0f1e79	0.13976468
231	0xbdcce2e8	-0.100042164
232	0x3db5ad1e	0.0887091
233	0xbddb3134	-0.10702744
234	0xbe31d081	-0.17364694
235	0xbb0166c8	-0.00197451
236	0x3e1c559b	0.15267031
237	0xbc9e03d7	-0.01928894
238	0xbe15fba9	-0.14646782
239	0xbd72a834	-0.059242442
240	0x3d8c3c1a	0.06847401
241	0x3e097de0	0.13426924
242	0xbe32d49a	-0.17463914
243	0x3d384152	0.04498417
244	0x3d7bae5a	0.06144557
245	0x3d223ebd	0.039610613
246	0xbe30cd51	-0.17265822
247	0xbd7bd61c	-0.061483487
248	0xbcda6c99	-0.026663112
249	0xbdc69677	-0.09696668
250	0xbe01968f	-0.1265509
251	0x3d04b9ae	0.03240364
252	0xbc83221b	-0.016007474
253	0xbba12dda	-0.004918796
254	0xbdfcc530	-0.12342298
255	0x3e1152f0	0.14191794

row_embedding.3.bias f4 [32]
0	0x3dde5f7d	0.10858057
1	0xbd57373b	-0.052542906
2	0xbd7774d8	-0.060414165
3	0xbd2e1478	-0.04249999
4	0x3c639ce2	0.013892384
5	0xbe04ea03	-0.12979893
6	0x3dd9703b	0.106171094
7	0x3e11c641	0.14235784
8	0xbd8248be	-0.06361531
9	0x3dd257d0	0.10270655
10	0x3e082405	0.1329499
11	0x3dca151d	0.09867308
12	0xbc9f7965	-0.019467065
13	0x3d3202b6	0.043459617
14	0x3dd649c1	0.10463286
15	0x3dd8817b	0.105715714
16	0x3dc54a31	0.096332915
17	0xbd96e1cb	-0.07367285
18	0x3d48d24a	0.049028672
19	0x3dc0bd43	0.09411099
20	0xbc01e7d9	-0.007928812
21	0x3d079549	0.033101354
22	0x3d5f738a	0.054553546
23	0x3d85995d	0.06523392
24	0x3dd73e8f	0.10509979
25	0x3d2a98bc	0.041649565
26	0x3e28ada7	0.16472493
27	0xbd62817d	-0.05529927
28	0x3bbf0f85	0.0058307075
29	0xbc04f200	-0.008114338
30	0xbe1886e3	-0.14895205
31	0x3df5fe38	0.12011379

col_embedding.0.weight f4 [7]
0	0x3f7fadcb	0.9987456
1	0x3f8002ab	1.0000814
2	0x3f7ff578	0.9998393
3	0x3f800662	1.0001948
4	0x3f7fa663	0.9986326
5	0x3f7fd2ab	0.9993083
6	0x3f8010ba	1.0005105

col_embedding.0.bias f4 [7]
0	0xbab651c7	-0.001390987
1	0xb87ccd90	-6.0272927e-05
2	0xb911be5a	-0.00013899189
3	0xb985695a	-0.0002544623
4	0x3a4a488c	0.0007716499
5	0x3a4d34a3	0.0007827973
6	0x3a181f0d	0.0005802967

col_embedding.1.weight f4 [32, 7]
0	0x3eb4b037	0.3529069
1	0x3babbad0	0.0052407756
2	0xb93f8d08	-0.00018267718
3	0xbe32a460	-0.17445517
4	0x3e8cf4c5	0.27530494
5	0xbeba55be	-0.3639354
6	0xbdceb842	-0.10093738
7	0xbdee0b36	-0.11623232
8	0xbe84749e	-0.25870222
9	0xbe28104c	-0.16412467
10	0x3e3e3aff	0.18577193
11	0xbe5a8833	-0.21341018
12	0x3ba7aa06	0.005116704
13	0xbe71f89f	-0.23629998
14	0xbe49f3b0	-0.19721866
15	0x3c557b59	0.013029897
16	0x3e8aaebe	0.27086443
17	0xbe3530d8	-0.17694414
18	0x3cfecde7	0.031104041
19	0x3db88a21	0.09010721
20	0x3e5771cd	0.21039505
21	0x3e917ed5	0.28417078
22	0x3e9071ad	0.28211728
23	0xbdd4765c	-0.10374138
24	0x3d766691	0.06015641
25	0xbe9e1690	-0.3087659
26	0xbc95afa8	-0.018272236
27	0x3e35016b	0.17676322
28	0x3e174b48	0.14774811
29	0x3ea483fe	0.32131952
30	0x3e9728a3	0.2952319
31	0xbe370b54	-0.17875415
32	0xbd87a91a	-0.066240504
33	0xbe809472	-0.25113255
34	0xbebabb0a	-0.36470824
35	0xbec0fee6	-0.37694472
36	0x3d1a947f	0.037739273
37	0xbd923740	-0.07139444
38	0x3e7785a2	0.2417207
39	0xbe69fc42	-0.22850135
40	0x3e2cabf3	0.16862468
41	0xbdf78d03	-0.12087443
42	0xbd09e967	-0.033669855
43	0x3eb9dc2d	0.36300793
44	0x3ebf179a	0.37322694
45	0x3e512856	0.20425543
46	0x3e6bd34d	0.23029824
47	0x3d142c85	0.03617527
48	0x3e3011c7	0.17194282
49	0x3d9ef10b	0.07760819
50	0xbdfc9ac5	-0.123342074
51	0x3e3d99a5	0.18515642
52	0xbeb5d61c	-0.35514915
53	0x3d905e8e	0.07049285
54	0x3d945ffe	0.072448716
55	0x3e05b6ac	0.13057965
56	0xbde0bc72	-0.10973443
57	0xbe389051	-0.18023802
58	0xbdbf14d2	-0.09330143
59	0xbc55b5a0	-0.013043791
60	0xbe64f550	-0.22359204
61	0xbe1dd97c	-0.15414995
62	0x3e364bba	0.17802325
63	0x3d9b7d11	0.07592214
64	0xbea6c382	-0.32571036
65	0xbd5e40af	-0.054260906
66	0xbcce10be	-0.025154468
67	0x3e26fcc8	0.16307366
68	0x3e99fdcf	0.30076453
69	0xbec1827f	-0.37794873
70	0x3eba86b1	0.36430886
71	0x3c94e5ab	0.01817592
72	0x3eb9a9a9	0.36262253
73	0xbe035e0b	-0.12828843
74	0xbe923dd2	-0.2856279
75	0xbe73ec55	-0.23820622
76	0xbe7001d6	-0.234382
77	0x3eb761a0	0.3581667
78	0x3e07a897	0.13247906
79	0xbe8905bf	-0.26762196
80	0xbd8609cd	-0.06544838
81	0xbe31cef0	-0.17364097
82	0xbe6cdf0d	-0.23131962
83	0x3e623c7e	0.22093388
84	0x3e962018	0.2932136
85	0xbe991a9e	-0.2990312
86	0x3cc540d3	0.024078762
87	0x3e7d8c5a	0.24760571
88	0x3e261878	0.16220272
89	0xbd9563f1	-0.07294453
90	0xbe698115	-0.22803147
91	0xbea65d47	-0.3249304
92	0xbe5513d4	-0.20808345
93	0x3c5e0f6c	0.013553482
94	0xbd0d2013	-0.034454416
95	0x3e4c9a39	0.19980706
96	0x3e2ad0a7	0.16681157
97	0xbc0c3554	-0.008557636
98	0xbc7e35a4	-0.015515719
99	0x3e3fd883	0.18734936
100	0xbe3f2125	-0.18664987
101	0x3e5ce4dc	0.21571678
102	0x3ea3292d	0.31867352
103	0x3e6417b7	0.22274671
104	0x3daf9b71	0.0857457
105	0x3d3d475b	0.046210628
106	0xbcdef4a9	-0.027216272
107	0x3e4ab6b9	0.19796266
108	0x3e8422e3	0.25807866
109	0xbcda13db	-0.026620796
110	0x3e0284e9	0.12746014
111	0xbe9126a5	-0.28349796
112	0x3e415610	0.18880486
113	0x3e8c237e	0.27370828
114	0xba419de9	-0.0007385896
115	0xbe1d62e7	-0.1536976
116	0xbdbf2230	-0.093326926
117	0xbdfb5ab2	-0.12273158
118	0xbeaf3722	-0.3422175
119	0x3ea761ae	0.3269171
120	0xbc444c3f	-0.011981069
121	0xbea37d80	-0.31931686
122	0x3e83fa95	0.25777116
123	0x3ea307b2	0.3184181
124	0x3e9ffb7c	0.31246555
125	0xbe6b5bf3	-0.22984295
126	0xbe83a4cd	-0.2571167
127	0x3d9ddf1a	0.07708569
128	0x3d8fc10c	0.07019243
129	0xbe625650	-0.22103238
130	0x3d88ad95	0.06673733
131	0x3e81651b	0.2527245
132	0xbe8dd549	-0.27701786
133	0x3ebe0b5a	0.37118036
134	0xbeb2db06	-0.34932727
135	0xbdad0dfb	-0.08449932
136	0xbd650bac	-0.055919334
137	0x3db28116	0.087160274
138	0xbc40c9af	-0.011766835
139	0x3e80f7bc	0.25189006
140	0x3d8bf241	0.06833316
141	0xbe244a03	-0.16043858
142	0xbebe80e6	-0.37207717
143	0xbe958389	-0.29201916
144	0x3e52cfd2	0.2058709
145	0x3e2173ae	0.15766785
146	0x3e4ff5d5	0.20308621
147	0xbd30086b	-0.042976778
148	0x3dddd039	0.10830731
149	0xbea48146	-0.32129878
150	0x3c320572	0.010865556
151	0xbe1fcc25	-0.15605219
152	0xbe81813e	-0.25293916
153	0xbdb861b1	-0.09003008
154	0x3e672cb9	0.22575654
155	0x3e6c4259	0.23072185
156	0x3d69da27	0.057092812
157	0xbd82a6ef	-0.06379496
158	0xbe31f8f7	-0.17380129
159	0xbc7448ac	-0.014909904
160	0xbd3d1fee	-0.04617303
161	0x3e673bc1	0.22581388
162	0x3dea241c	0.114326686
163	0xbe92ea9c	-0.28694618
164	0xbea4404a	-0.320803
165	0x3dff2b57	0.12459438
166	0x3ce3f539	0.027826892
167	0x3e0c391b	0.13693659
168	0xbe2c622d	-0.16834326
169	0x3e25024a	0.16114154
170	0xbe9ce4d5	-0.30643335
171	0x3db063e3	0.08612802
172	0xbe835923	-0.25653943
173	0xbe9894e1	-0.29801086
174	0xbda1b9a3	-0.078967355
175	0x3e8b8c86	0.27255648
176	0xbe84dd57	-0.2595012
177	0xbe88e977	-0.2674062
178	0x3e3e4b65	0.18583448
179	0xbeb4c2d3	-0.3530489
180	0xbc1131e9	-0.008861997
181	0xbe878724	-0.26470292
182	0x3e89e45c	0.26932037
183	0xbd689858	-0.05678591
184	0xbdcb2f2f	-0.09921109
185	0xbe6a56b1	-0.22884633
186	0x3cc52367	0.024064733
187	0x3e131175	0.14362128
188	0x3dc9120a	0.09817894
189	0x3e493f44	0.1965304
190	0x3ebe1ecf	0.3713288
191	0x3e3d0be9	0.18461575
192	0x3ea03754	0.31292212
193	0x3d9d4ee3	0.07681062
194	0xbe6e0a78	-0.23246181
195	0xbe97088b	-0.29498705
196	0x3eb79e08	0.35862756
197	0xbe0c1e22	-0.1368337
198	0x3ea740bd	0.3266658
199	0x3d54c668	0.051947027
200	0xbe064095	-0.13110574
201	0xbe642a71	-0.22281815
202	0xbeb256a9	-0.3483174
203	0x3c900eb3	0.017585134
204	0x3dcdb4f1	0.100442775
205	0xbbbbc13c	-0.0057298224
206	0xbe9bc6ee	-0.3042521
207	0x3e904451	0.2817712
208	0x3e878a77	0.26472828
209	0x3eb719fb	0.3576201
210	0x3eb2e1a1	0.34937766
211	0xbdd44ef7	-0.10366624
212	0xbe44ee35	-0.19231494
213	0x3e35c3c0	0.17750454
214	0x3c231f62	0.009956213
215	0x3e1059fd	0.14096828
216	0xbd5f6b4a	-0.05454568
217	0x3e330869	0.17483677
218	0xbebb40e9	-0.3657296
219	0x3eb09c5c	0.34494293
220	0x3e22a747	0.15884124
221	0x3eb99e8b	0.3625377
222	0x3bae634a	0.005321895
223	0x3e749663	0.23885493

col_embedding.1.bias f4 [32]
0	0xbe87d270	-0.2652774
1	0xbe308887	-0.17239581
2	0xbd9f2ec2	-0.0777259
3	0xbe92ca44	-0.2866994
4	0xbe9a1b5a	-0.30098993
5	0x3e8b081d	0.27154627
6	0xbe489604	-0.19588476
7	0xbe2492cf	-0.16071628
8	0xbd249826	-0.040184163
9	0xbd13b998	-0.036065668
10	0x3dc65ebe	0.096860394
11	0x3e8a9b5c	0.27071655
12	0x3d6cacf7	0.05778214
13	0xbe2db592	-0.16963795
14	0x3e006335	0.12537844
15	0xbec0d2e5	-0.376609
16	0x3eb53d28	0.3539822
17	0x3bad389e	0.0052862903
18	0xbe539b40	-0.20664692
19	0xbd2596ee	-0.04042714
20	0xbcd0927a	-0.02546047
21	0xbea934a7	-0.33047983
22	0x3e8e70cf	0.2782044
23	0x3d9df11b	0.07712003
24	0xbeb50725	-0.35357013
25	0x3e9c4f46	0.3052923
26	0xbe8f17cc	-0.27947843
27	0xbda7b82d	-0.081894256
28	0x3de84bca	0.113425806
29	0x3eb56b10	0.35433245
30	0xbd5009f2	-0.050790735
31	0x3eabb8c5	0.33539405

col_embedding.3.weight f4 [32, 32]
0	0x3e0b7bf0	0.13621497
1	0x3e02decf	0.12780307
2	0xbbe49fdc	-0.0069770645
3	0xbe0ff2c0	-0.14057446
4	0x3d9dcdd7	0.077052765
5	0xbd02738a	-0.031848468
6	0xbe2b44f9	-0.1672553
7	0x3e0bb484	0.1364308
8	0x3e0cf6d2	0.1376603
9	0x3e19181d	0.14950605
10	0x3dc1b857	0.09458988
11	0x3de1d74b	0.11027392
12	0xbe14e036	-0.14538655
13	0xbbd59227	-0.006517667
14	0x3d6e9055	0.058243115
15	0x3d94bc63	0.072624944
16	0xbd62a548	-0.055333406
17	0xbd16558b	-0.036702674
18	0xbe068bfc	-0.13139337
19	0xbe214596	-0.15749201
20	0x3bf1ec7f	0.007382929
21	0x3e30718e	0.17230818
22	0xbdf48e69	-0.11941225
23	0x3e2866df	0.16445492
24	0xbe230fdb	-0.15924017
25	0xbdf6626d	-0.12030492
26	0xbe0f6c26	-0.14006099
27	0xbe0197dd	-0.12655587
28	0x3e14f139	0.14545144
29	0x3b30dbaa	0.0026986399
30	0xbd43eb45	-0.047831792
31	0x3e2ecedd	0.170711
32	0x3db277d2	0.0871426
33	0xbe0ced8f	-0.13762496
34	0x3e1af9ac	0.15134305
35	0xbdb572b7	-0.08859771
36	0x3dc238e8	0.0948351
37	0x3d4cf654	0.050039604
38	0x3d6a0c56	0.05714067
39	0xbd4841a9	-0.048890743
40	0x3e266103	0.16247945
41	0xbb90c209	-0.004417662
42	0x3dd84612	0.1056024
43	0x3df5f331	0.12009276
44	0xbe1d7793	-0.15377645
45	0xbcf8480f	-0.030307798
46	0xbdcf9e8b	-0.101376615
47	0xbc987845	-0.018612036
48	0xbe189e99	-0.1490425
49	0xbc9196d2	-0.017772112
50	0xbdeb96ee	-0.11503397
51	0xbd8b02d9	-0.067876525
52	0x3dc5a6cc	0.096509546
53	0xbc70d734	-0.014699746
54	0x3e27bb7e	0.16380116
55	0x3d751931	0.059838478
56	0x3d6aa83c	0.057289347
57	0x3d3bcfbc	0.045852408
58	0xbe349c6a	-0.17637792
59	0x3e2e09d8	0.16995943
60	0xbbe18fb8	-0.0068835877
61	0xbe2fbcb4	-0.17161828
62	0xbbcc9e17	-0.0062444317
63	0xbdb533bf	-0.088477604
64	0xbd73f806	-0.059562705
65	0xbd37dd3a	-0.044888712
66	0xbcbd84e3	-0.023134654
67	0xbdd88b51	-0.105734475
68	0xbdd32d44	-0.10311368
69	0x3d7e8117	0.06213483
70	0x3e203722	0.15646031
71	0x3e3370d1	0.17523505
72	0xbda53507	-0.08066755
73	0xbe222aef	-0.1583669
74	0xbd1018cd	-0.035179902
75	0xbc6851f5	-0.014179696
76	0xbe1f1bdd	-0.15537973
77	0xbe06e339	-0.13172616
78	0xbc3917ef	-0.01129721
79	0x3d8fc2d1	0.0701958
80	0x3a775ce1	0.0009436142
81	0xbd57b274	-0.05266042
82	0xbcc65f72	-0.024215434
83	0x3e25c017	0.16186558
84	0x3d9938a9	0.0748151
85	0xbdcb7483	-0.09934332
86	0x3dd6c7b3	0.10487308
87	0x3df4cf84	0.11953643
88	0xbdc64bfe	-0.09682463
89	0xbd0c28f1	-0.034218732
90	0x3de08992	0.109637395
91	0x3b93334f	0.0044922004
92	0x3ce68fb8	0.028144702
93	0xbd21cf05	-0.03950407
94	0xbd2b6b94	-0.04185064
95	0x3dabefc4	0.08395341
96	0x3dda1ec0	0.10650396
97	0xbd35a25e	-0.0443443
98	0xbcb2b583	-0.021815067
99	0x3cd62d82	0.026144747
100	0x3da11744	0.07865766
101	0xbe2f9e0c	-0.17150134
102	0xbd90dc45	-0.07073263
103	0x3dd6d9b0	0.10490739
104	0x3e1f0ba6	0.15531787
105	0xbe2d92f4	-0.1695059
106	0x3d2773ef	0.040882047
107	0xbd40777f	-0.04698896
108	0x3d841aa4	0.06450394
109	0xbc17fcc3	-0.009276572
110	0xbd9aa84c	-0.07551631
111	0xbe151829	-0.14559998
112	0xbd5009fa	-0.050790764
113	0x3d156b48	0.036479264
114	0xbd4dc022	-0.05023206
115	0x3bf7eae1	0.0075658415
116	0x3d7a70e3	0.061142813
117	0x3debd68e	0.115155324
118	0x3df6375b	0.12022277
119	0x3d81fb2e	0.06346737
120	0x3de77c3e	0.11302994
121	0xbe1bc11e	-0.15210387
122	0x3df47cac	0.11937842
123	0xbcc46d48	-0.02397789
124	0x3df633b3	0.120215796
125	0x3e0bb709	0.13644041
126	0x3e100cc0	0.14067364
127	0x3d878772	0.06617631
128	0x3dd8fb0c	0.105947584
129	0x3d76bc75	0.06023832
130	0x3d00efd6	0.031478725
131	0xbdb654d6	-0.089029
132	0x3c14c488	0.00908006
133	0x3e10b8d9	0.14133014
134	0xbd14a8e1	-0.036293868
135	0xbcec043d	-0.028810615
136	0x3e0929cb	0.13394849
137	0x3dcaded4	0.09905782
138	0xbda82dcb	-0.08211859
139	0xbe245125	-0.16046579
140	0x3c95d780	0.018291235
141	0xbe099814	-0.1343692
142	0xbe0686a1	-0.13137294
143	0x3e12c0eb	0.14331405
144	0x3dd21eb3	0.10259762
145	0xbe288b2f	-0.16459344
146	0xbdbbd1ff	-0.09170913
147	0x3dc6fcdf	0.097162
148	0xbe05d732	-0.13070372
149	0x3d9648af	0.07338082
150	0x3cfab82f	0.030605404
151	0xbdfa63a9	-0.1222604
152	0x3bd789d7	0.006577711
153	0x3d718bb1	0.05897111
154	0x3e2de773	0.16982822
155	0x3dd7894a	0.10524233
156	0x3cced45e	0.025247749
157	0xbd8e3090	-0.06942856
158	0xbe23da1c	-0.16001171
159	0x3cba8f45	0.022773394
160	0x3cd81cc9	0.026380913
161	0x3d8d32d3	0.068944596
162	0xbd67639e	-0.056491487
163	0xbe07d461	-0.1326461
164	0x3de596a0	0.1121037
165	0x3dbc2b84	0.091879874
166	0xbd5ef227	-0.054430153
167	0x3e07c2af	0.1325786
168	0x3e1c7f38	0.15282905
169	0x3dd5ef14	0.10445991
170	0xbdba658d	-0.091014005
171	0xbdedb85d	-0.1160743
172	0xbdccba56	-0.09996478
173	0x3e13405d	0.14380021
174	0xbdec435a	-0.11536284
175	0x3d4d9ec3	0.050200235
176	0xbd3dcec5	-0.04633977
177	0xbdd09cba	-0.10186143
178	0x3e0da37b	0.13831894
179	0x3d3551b5	0.044267375
180	0xbd9a84f2	-0.075448886
181	0xbd42c6df	-0.04755294
182	0x3e006870	0.1253984
183	0xbc9783ae	-0.018495407
184	0x3d4af744	0.049552217
185	0xbe0d4acb	-0.13798063
186	0xbd8ac6e1	-0.067762144
187	0xbd4293ec	-0.04750435
188	0x3e15f7a5	0.1464525
189	0xbe21d19c	-0.15802616
190	0x3db35789	0.087569304
191	0x3c360b7a	0.011111135
192	0x3d3e78f4	0.04650207
193	0xbd7b5d0f	-0.061368044
194	0x3def8b5b	0.11696502
195	0xba3d95cd	-0.00072321
196	0xbde6ca11	-0.1126901
197	0xbc8238af	-0.01589617
198	0x3da265ab	0.07929548
199	0x3df86dc2	0.1213031
200	0x3e31686a	0.17324987
201	0x3e24fe2f	0.16112588
202	0xbceb9b2e	-0.028760519
203	0xbdc243d1	-0.09485591
204	0x3ca8f18d	0.020622993
205	0xbe23061e	-0.15920302
206	0x3e0195fc	0.12654871
207	0x3badbd36	0.0053020967
208	0x3e305c51	0.17222716
209	0xbd94e331	-0.07269896
210	0x3dcc649f	0.099801295
211	0x3e2018f6	0.15634522
212	0xbce49392	-0.027902398
213	0x3dcf9bd6	0.10137145
214	0xbdec65a3	-0.11542823
215	0x3e225b91	0.15855242
216	0x3d2e5692	0.04256303
217	0x3e10efeb	0.14154021
218	0x3cb653c2	0.022256736
219	0xbc6a8bb9	-0.014315539
220	0x3d44d36a	0.048053183
221	0x3df85705	0.12125973
222	0x3dec6cd4	0.11544195
223	0xbdf82cdd	-0.12117932
224	0xbdf80458	-0.121102035
225	0x3daf039f	0.085456125
226	0x3e2b3285	0.1671849
227	0x3e15f5dc	0.14644569
228	0xbdd14858	-0.102188766
229	0x3cc56752	0.024097119
230	0xbc7c94a7	-0.015416301
231	0xbe1a8635	-0.15090258
232	0x3e1105c3	0.14162354
233	0x3e270a42	0.16312507
234	0x3d3b9fcc	0.04580669
235	0xbde4e5e0	-0.11176658
236	0xbc91a2f0	-0.01777789
237	0x3dfacfd3	0.122466706
238	0xbdcade9b	-0.0990574
239	0xbd3db82c	-0.046318218
240	0xbdb14947	-0.08656555
241	0x3c0bf054	0.008541185
242	0xbd9cec93	-0.076623105
243	0xbcf5f7c5	-0.030025372
244	0xbd4d1a91	-0.050074164
245	0x3dd8a8b7	0.10579055
246	0xbdb04144	-0.086061984
247	0x3d42ec86	0.047588848
248	0x3e0f1029	0.13971008
249	0x3e127607	0.14302836
250	0xbe1cda40	-0.15317631
251	0xbd5d8289	-0.054079566
252	0xbdbf6ffa	-0.0934753
253	0xbe0cd52b	-0.13753192
254	0x3d65bbdc	0.05608736
255	0x3df8bc24	0.1214526

col_embedding.3.bias f4 [32]
0	0xbd3cc62a	-0.04608742
1	0x3e1a7a9c	0.15085834
2	0xbdc7cdd8	-0.097560585
3	0x3df54180	0.11975384
4	0xbcc39623	-0.023875302
5	0x3e1cc833	0.15310745
6	0x3dd6782f	0.10472142
7	0x3cfe73da	0.031061102
8	0x3e125ac8	0.14292443
9	0x3e11a35d	0.14222474
10	0x3e073488	0.13203633
11	0x3e07c4c0	0.13258648
12	0xbda9e2bc	-0.08295199
13	0x3e212243	0.15735726
14	0x3d8a75b7	0.067607336
15	0xbca77b00	-0.020444393
16	0xbdbff2ce	-0.09372483
17	0xbdabe7f9	-0.08393855
18	0x3decadb0	0.11556566
19	0x3e128e10	0.14312005
20	0x3dbaffd2	0.09130825
21	0x3dc9ef2f	0.09860074
22	0xbdfcafca	-0.123382166
23	0x3e1b1bc8	0.15147316
24	0x3e0deb73	0.13859348
25	0xbd863328	-0.06552726
26	0x3e0af52a	0.13570085
27	0x3dbef827	0.09324675
28	0x3dbca812	0.09211744
29	0x3cf3cc02	0.029760364
30	0xbdb7b73c	-0.08970496
31	0x3d9ab390	0.0755378

conv_col_to_row.feature_module_left.0.weight f4 [32, 32]
0	0x3cc7af80	0.024375677
1	0xbe1e3ec9	-0.15453638
2	0xbb59aff8	-0.0033216458
3	0x3d2b39ed	0.04180329
4	0xbd057e70	-0.032591283
5	0xbdef7908	-0.11693007
6	0x3c87bb9f	0.016568957
7	0xbd621595	-0.055196363
8	0x3e21bd44	0.15794855
9	0x3c135552	0.00899251
10	0xbc9f8c01	-0.019475939
11	0x3e04d159	0.12970485
12	0xba8e38e7	-0.0010850698
13	0xbd507b13	-0.050898623
14	0xbc9784f6	-0.018496018
15	0xbc37cbc3	-0.011218014
16	0xbc34c8ec	-0.011034232
17	0xbe0f2e91	-0.13982607
18	0x3e0475e8	0.12935603
19	0x3cfbad3b	0.030722251
20	0xbdbd592f	-0.09245526
21	0xbdd9d31a	-0.106359676
22	0x3da4c16a	0.08044703
23	0x3d9cf3a0	0.07663655
24	0x3dc23cd0	0.09484255
25	0xbdd9a342	-0.10626842
26	0xbe25beac	-0.16186017
27	0xbe077b02	-0.13230518
28	0x3e004cd2	0.12529305
29	0xbd443b1e	-0.04790794
30	0xbd621249	-0.05519322
31	0xbdcfeb51	-0.10152305
32	0x3e057462	0.13032678
33	0x3d92fa08	0.07176596
34	0x3dd39af2	0.10332288
35	0xbdcdb56d	-0.1004437
36	0xbd038789	-0.03211168
37	0x3e23c9d1	0.15994956
38	0xbcc6f78b	-0.02428796
39	0xbe32abd7	-0.17448364
40	0xbdb864dc	-0.090036124
41	0x3b999325	0.0046867304
42	0x3def0698	0.116711795
43	0x3cfcef35	0.030875782
44	0x3d1f8e30	0.03895396
45	0xbdff4e92	-0.12466158
46	0x3cfd91af	0.030953256
47	0x3c77c3ef	0.015122398
48	0x3e01a170	0.1265924
49	0xbe074f89	-0.13213934
50	0x3cda9056	0.026680153
51	0xbdd86845	-0.10566763
52	0xbd1dec86	-0.038555644
53	0x3db0cfaa	0.08633359
54	0xbe3543ec	-0.17701691
55	0x3ddd0660	0.107922316
56	0xbe2786e3	-0.16360049
57	0x3d1aa9db	0.037759643
58	0x3da354c7	0.07975154
59	0x3dd39df2	0.1033286
60	0xbdc40feb	-0.095733486
61	0xbdde5a68	-0.108570874
62	0x3db9b5c0	0.09067869
63	0xbc833a7e	-0.016019102
64	0x3de90dac	0.11379561
65	0xbddd3978	-0.10801977
66	0x3cdc78cd	0.026913071
67	0x3d8a8b2d	0.06764827
68	0x3cba5ec6	0.02275027
69	0x3e0310d7	0.12799393
70	0xbe04fe92	-0.12987736
71	0x3e2b0fac	0.16705197
72	0xbded6a60	-0.11592555
73	0xbdda4b5d	-0.10658906
74	0x3e041106	0.12897119
75	0x3cae2878	0.021259531
76	0xbe2c7e78	-0.16845119
77	0xbe2a64c0	-0.16639996
78	0xbda6ac83	-0.08138373
79	0x3e2a0a7c	0.16605562
80	0x3d26405e	0.04058873
81	0xbe064c73	-0.131151
82	0x3e2e863d	0.17043395
83	0x3d8d4b73	0.068991564
84	0xbd9c5a32	-0.07634391
85	0xbce677ad	-0.028133238
86	0xbd49b627	-0.04924598
87	0x3e33cde6	0.17559013
88	0x3baffad9	0.0053704795
89	0x3d571032	0.05250568
90	0xbe0fdae7	-0.14048348
91	0x3cb8927c	0.022530787
92	0xbd8bb198	-0.06820983
93	0x3d8c6179	0.06854529
94	0x3ccf29d1	0.025288494
95	0xbc32d064	-0.010913942
96	0xbd4eaccd	-0.050457764
97	0xbd7b5ff1	-0.061370794
98	0x3c4d3541	0.012524904
99	0x3c09dc38	0.008414321
100	0xbc681d0d	-0.0141670825
101	0x3d51a94b	0.05118684
102	0xbc8ff78c	-0.017574094
103	0xbd8f4b64	-0.069968015
104	0x3e0fd551	0.14046218
105	0xbdc2ad80	-0.09505749
106	0xbdfde66b	-0.12397464
107	0x3e1aff1c	0.15136379
108	0x3cdfec66	0.027334403
109	0xbd074f7f	-0.033034798
110	0xbdc41a13	-0.09575286
111	0xbd07ce11	-0.033155505
112	0xbe087a5e	-0.1332793
113	0x3d20d724	0.039267674
114	0x3c9f5327	0.01944883
115	0x3d9a0591	0.07520593
116	0xbd1068fc	-0.03525637
117	0xbe2bd766	-0.16781387
118	0x3e0ae2ba	0.13563052
119	0xbe25ac13	-0.16178922
120	0xbdea705d	-0.11447213
121	0xbbb9a59c	-0.005665494
122	0xbdcfeee8	-0.101529896
123	0xbdc065e1	-0.09394432
124	0x3dfac36e	0.122443065
125	0xbe2e2b4d	-0.17008705
126	0xbcb8beb3	-0.02255187
127	0x3db8184f	0.089890115
128	0xbe19c0b5	-0.15014918
129	0x3da04b8f	0.07826912
130	0x3e24d945	0.16098507
131	0x3afc3bf1	0.0019243938
132	0x3dbeed80	0.09322643
133	0xbde537a4	-0.11192253
134	0x3e07765f	0.13228749
135	0xbe2162c9	-0.1576034
136	0x3d819666	0.06327514
137	0x3dd09126	0.10183935
138	0xbdaba9f7	-0.083820276
139	0xbdd13a95	-0.10216252
140	0x3d281caf	0.04104298
141	0x3e270aa4	0.16312653
142	0xbda1e69a	-0.07905312
143	0x3e054d40	0.1301775
144	0xbda62083	-0.0811167
145	0xbbe70c61	-0.007051036
146	0x3e074078	0.13208187
147	0xbe150593	-0.14552908
148	0xbe36ced8	-0.17852342
149	0xbd013d61	-0.031552676
150	0x3d0702cc	0.03296165
151	0x3cb979dd	0.022641117
152	0xbe344ca0	-0.17607355
153	0xbda4ca5f	-0.08046412
154	0x3d28dbb1	0.04122514
155	0xbce211d3	-0.02759639
156	0xbe1eec22	-0.15519765
157	0x3d672262	0.056429274
158	0x3d396551	0.04526264
159	0xbdc6152b	-0.09672006
160	0x3bdea6fa	0.0067948075
161	0xbe0c4ad8	-0.13700426
162	0x3e22f49b	0.15913622
163	0x3da30b73	0.07961168
164	0x3c6b3aed	0.014357311
165	0x3da79877	0.08183377
166	0x3d5a0536	0.053227626
167	0x3decc532	0.115610495
168	0xbe128998	-0.143103
169	0xbd07dbeb	-0.033168714
170	0x3d89ba64	0.06725004
171	0xbe172539	-0.14760293
172	0xbd0e1a21	-0.034692887
173	0xbd7fec41	-0.06248117
174	0x3ca8797a	0.020565737
175	0xbe00ead4	-0.1258958
176	0x3e2ab716	0.16671404
177	0xbe028ea6	-0.12749729
178	0xbd83d372	-0.06436814
179	0xbdd1e5cd	-0.10248909
180	0x3df36d1b	0.118860446
181	0x3df67f74	0.120360285
182	0x3d5bc09d	0.053650487
183	0x3df97203	0.12179949
184	0x3e279680	0.16366005
185	0xbc052c18	-0.008128189
186	0xbdc9f85a	-0.098618224
187	0x3e116977	0.14200388
188	0x3d85dad2	0.06535877
189	0xbe0c599c	-0.13706058
190	0x3bdde76b	0.006771972
191	0x3e319184	0.17340666
192	0xbd4def73	-0.050277185
193	0xbe1ef889	-0.15524496
194	0x3e276bbf	0.16349696
195	0x3cdec53c	0.027193658
196	0x3d92f3b2	0.071753874
197	0xbe276c7a	-0.16349974
198	0x3e1751ad	0.1477725
199	0xbde7cf44	-0.1131883
200	0x3ce103fe	0.027467724
201	0x3daad4a5	0.0834134
202	0x3c68a710	0.014199987
203	0xbe31bc35	-0.17356952
204	0x3cd6813e	0.026184674
205	0xbda0de7d	-0.07854936
206	0x3d3a9659	0.04555354
207	0x3d9e52c5	0.07730631
208	0x3cbfa65c	0.023394756
209	0xbccdb96e	-0.025112834
210	0xbd5f48b4	-0.054512694
211	0x3df87c4f	0.12133085
212	0xbd9aa906	-0.0755177
213	0x3d6be59f	0.05759203
214	0xbdd15b20	-0.10222459
215	0xbd90f4de	-0.07077955
216	0x3cdcc027	0.026947094
217	0xbe0d5721	-0.13802768
218	0x3d47cf1a	0.04878149
219	0xbd4dd7e1	-0.050254706
220	0x3e2c242f	0.16810678
221	0x3bad3fe2	0.0052871564
222	0xbe15bb3f	-0.1462221
223	0x3dff6ac6	0.12471537
224	0xbe00ac00	-0.12565613
225	0x3c187267	0.009304619
226	0xbc0f9b48	-0.008765049
227	0xbdfd4d30	-0.12368238
228	0x3e13158b	0.14363687
229	0xbdce5a75	-0.10075847
230	0x3cd8b594	0.02645377
231	0x3e14ef22	0.14544347
232	0x3e0a027d	0.13477512
233	0xbe2033c6	-0.1564475
234	0x3e15aa47	0.14615737
235	0xbd9c7cb0	-0.0764097
236	0xbb8e7a3e	-0.0043480685
237	0xbdc72387	-0.09723573
238	0x3c822bca	0.01589002
239	0x3dcc2f63	0.09969976
240	0xbe061943	-0.13095574
241	0xbb477f18	-0.0030440744
242	0x3e2fd648	0.17171586
243	0x3de7c184	0.11316207
244	0xbd272da7	-0.04081502
245	0xbe177e2a	-0.14794222
246	0x3b1465b0	0.0022643618
247	0xbd8518d9	-0.0649888
248	0x3db81e42	0.08990146
249	0x3df03cb0	0.11730325
250	0xbdedba70	-0.11607826
251	0xbae5742d	-0.0017505937
252	0x3dfe9539	0.12430806
253	0x3da53cdc	0.08068249
254	0xbe17a8ca	-0.14810482
255	0xbe17b26d	-0.14814158

conv_col_to_row.feature_module_left.0.bias f4 [32]
0	0x3ddaf1da	0.10690661
1	0x3e03d711	0.1287501
2	0xbddf71bc	-0.10910365
3	0x3d87ad3f	0.06624841
4	0xbca322e6	-0.019914102
5	0x3de6a3dc	0.112617224
6	0xbdb25575	-0.08707706
7	0x3e325661	0.17415763
8	0xbd745142	-0.059647806
9	0xbe14f7c6	-0.14547643
10	0xbddc5923	-0.10759189
11	0xbe1b4919	-0.15164603
12	0x3d1780e4	0.036988154
13	0x3d8fc80c	0.07020578
14	0xbe27f857	-0.16403328
15	0xbe1b66f4	-0.15175992
16	0x3db3d8c2	0.08781578
17	0x3e05468d	0.13015194
18	0x3cd25a8d	0.025677944
19	0x3d184824	0.037178174
20	0x3d3ce541	0.04611707
21	0x3db0b687	0.08628564
22	0x3e25c9d3	0.16190271
23	0xbdb3e9b9	-0.087848134
24	0x3db9d055	0.09072939
25	0xbd57a2f1	-0.052645627
26	0x3e000402	0.12501529
27	0xbe2ebc78	-0.17064083
28	0xbdd0f15a	-0.10202284
29	0xbd8b7b88	-0.06810671
30	0xbd69d8a4	-0.05709137
31	0xbe2be6b3	-0.16787224

conv_col_to_row.feature_module_edge.0.weight f4 [32, 1]
0	0x3f0b608f	0.5444421
1	0x3f1c1f16	0.60984933
2	0x3dc08a1f	0.094013445
3	0x3eab1ab8	0.33418822
4	0x3daeba7b	0.08531662
5	0x3ee8c133	0.454599
6	0xbf3b1885	-0.7308429
7	0xbea8d58f	-0.32975432
8	0xbf025953	-0.5091755
9	0x3e54a072	0.2076433
10	0xbf69166a	-0.91049826
11	0xbf56c965	-0.83901054
12	0xbf53befe	-0.82713306
13	0x3e07d152	0.13263443
14	0xbf084f89	-0.5324636
15	0x3db50d61	0.088404424
16	0xbd8004f0	-0.06250942
17	0xbe1503dd	-0.14552255
18	0x3f317ba3	0.6932928
19	0x3f27de89	0.65573937
20	0xbf3ae026	-0.72998273
21	0x3c1b4b9a	0.009478474
22	0xbf50f1ce	-0.81618965
23	0xbf30041d	-0.68756276
24	0x3f2f06ba	0.6836964
25	0x3ed124e3	0.40848455
26	0xbf29aaf7	-0.66276497
27	0x3f26efec	0.6520984
28	0xbe1e0b42	-0.15433982
29	0x3e16375a	0.14669552
30	0xbe879a13	-0.26484737
31	0x3f6bd9ba	0.921291

conv_col_to_row.feature_module_right.0.weight f4 [32, 32]
0	0xbd7e26b8	-0.062048644
1	0x3da247b8	0.079238355
2	0xbdce5d8f	-0.10076439
3	0x3df30357	0.118658714
4	0xbdb017f3	-0.08598318
5	0xbdf12aee	-0.11775766
6	0xbc5e1fdf	-0.013557403
7	0x3cf69e78	0.03010486
8	0x3bd05de4	0.006358849
9	0xbdd5416b	-0.10412868
10	0xbdbf4dfc	-0.09341046
11	0x3d774905	0.06037237
12	0xbdd04ca0	-0.10170865
13	0x3b8e1ff6	0.004337306
14	0x3d9b9611	0.07596982
15	0x3c8dc752	0.017306957
16	0x3e35ec4a	0.17765918
17	0x3e26e59a	0.16298524
18	0x3cb0368c	0.021510385
19	0x3e09867b	0.13430206
20	0xbe2ab5c4	-0.166709
21	0x3d18d1cf	0.037309464
22	0x3e31a707	0.17348872
23	0xbd75df2d	-0.06002729
24	0x3d8c1bef	0.068412654
25	0x3d21fb0a	0.03954605
26	0x3e0d0869	0.1377274
27	0xbdcaa52c	-0.09894785
28	0xbdee802e	-0.11645542
29	0x3bc9d543	0.006159456
30	0xbde73aac	-0.11290488
31	0x3e17c99e	0.14823005
32	0x3e1fd1f7	0.15607439
33	0x3dbd44ee	0.09241663
34	0xbc932857	-0.017963571
35	0x3e349f4e	0.17638895
36	0xbe1ea1df	-0.15491436
37	0x3e339764	0.1753822
38	0xbd9f3113	-0.07773032
39	0x3e17175c	0.14755005
40	0xbddea9ae	-0.108722076
41	0xbdc39ae4	-0.095510274
42	0xbdda4a0a	-0.10658653
43	0x3db7aece	0.08968888
44	0x3d0c8051	0.03430206
45	0x3dcfea3c	0.101520985
46	0x3bb83118	0.005621087
47	0xbd700761	-0.058600787
48	0x3e0c78d8	0.13717973
49	0xbe0ff300	-0.14057541
50	0x3d9aede2	0.07564904
51	0xbe19efed	-0.1503293
52	0x3e28ef88	0.16497624
53	0x3c449543	0.011998477
54	0xbd73785a	-0.059440948
55	0x3e0afe85	0.13573654
56	0xbe18cab1	-0.1492107
57	0xbdc9b2f5	-0.098485865
58	0xbe118d4d	-0.14214058
59	0xbd6bb18f	-0.05754238
60	0xbd9a9828	-0.07548553
61	0x3dc8dd39	0.0980782
62	0xbe18b933	-0.14914398
63	0x3b93ca97	0.0045102346
64	0x3e0ddb0f	0.13853095
65	0xbd1cf2a8	-0.038317353
66	0xbd7654d0	-0.060139477
67	0xbda26a88	-0.079304755
68	0x3db6fb42	0.089346424
69	0x3de81384	0.11331847
70	0xbe07bed8	-0.13256395
71	0xbcc12a01	-0.0235796
72	0xbe19efec	-0.15032929
73	0xbd584e42	-0.052809007
74	0x3ca6f38c	0.020379804
75	0x3cc64200	0.024201393
76	0x3e02c743	0.12771325
77	0x3df5cadd	0.12001584
78	0x3d53bba1	0.05169261
79	0xbe24ea67	-0.16105042
80	0xbd3ced0d	-0.046124507
81	0x3e33df42	0.17565635
82	0xbd66e203	-0.056367885
83	0x3d3370de	0.04380881
84	0x3cdf57f6	0.027263623
85	0x3dc80b18	0.09767741
86	0xbdb8ba2c	-0.090198845
87	0xbdca5449	-0.09879357
88	0xbd39975f	-0.045310374
89	0x3dee2204	0.11627582
90	0xbe25624f	-0.16150783
91	0xbcd3e9b0	-0.025868267
92	0x3dd3e184	0.10345748
93	0x3e0f305f	0.13983296
94	0x3d142892	0.036171503
95	0xbdb26a53	-0.08711686
96	0x3d24e566	0.040257834
97	0xbe082d03	-0.1329842
98	0xbe301758	-0.17196405
99	0x3e09aac8	0.13444054
100	0xbe33b5a2	-0.17549756
101	0xbe065b76	-0.13120827
102	0x3e2866c0	0.16445446
103	0x3d822e76	0.06356518
104	0xbddafde9	-0.10692961
105	0xbe0222af	-0.12708543
106	0xbe1a59cc	-0.15073317
107	0xbd0551e4	-0.0325488
108	0xbddad8e9	-0.106859036
109	0x3da8255d	0.082102515
110	0xbdf8b84b	-0.12144526
111	0xbd8c0a2c	-0.06837878
112	0xbd58b543	-0.05290724
113	0x3d6001fa	0.054689385
114	0xbc989d00	-0.018629551
115	0xbcfaa7e5	-0.030597636
116	0xbda2af4b	-0.07943591
117	0xbe2da488	-0.16957295
118	0x3e2de46f	0.16981672
119	0x3e13c317	0.1442989
120	0x3d7b50d7	0.06135639
121	0xbc42b203	-0.011883262
122	0x3e026398	0.12733305
123	0xbd3f4bbe	-0.046703093
124	0x3bbb588f	0.005717344
125	0x3de4f992	0.11180414
126	0xbddeed71	-0.10885132
127	0x3de92057	0.113831215
128	0xbdaed898	-0.08537406
129	0xbe095df6	-0.1341475
130	0x3e30195e	0.17197177
131	0xbd9410a6	-0.07229738
132	0xbd96d421	-0.07364679
133	0xbd6f9d87	-0.05849984
134	0x3cfd7be0	0.030942857
135	0xbc73e231	-0.014885471
136	0xbe188cc1	-0.14897443
137	0xbe25f660	-0.16207266
138	0x3dd6c9bb	0.10487696
139	0x3d971e83	0.073788665
140	0x3e0a3c42	0.13499549
141	0xbe2753b8	-0.1634053
142	0x3c9a535c	0.018838577
143	0x3e112c4c	0.14177054
144	0xbda44afe	-0.08022116
145	0x3bf7db3b	0.007563976
146	0x3aea44f1	0.0017873329
147	0x3e20444f	0.15651058
148	0xbe0d594d	-0.13803597
149	0xbd0c8b87	-0.03431275
150	0x3d836a9d	0.06416819
151	0x3badd9c8	0.0053055026
152	0x3d1a993a	0.037743784
153	0xbddf8f55	-0.1091601
154	0xbe17dcce	-0.14830324
155	0x3e20f565	0.1571861
156	0x3c513fb8	0.012771539
157	0xbd9005c6	-0.07032351
158	0xbb797cc8	-0.003806876
159	0x3d4b6abc	0.049662337
160	0x3da3d980	0.08000469
161	0x3e1d6685	0.1537114
162	0xbe2b0917	-0.16702686
163	0xbe0ffb24	-0.14060646
164	0x3d7c9cd6	0.061673008
165	0xbdbdde9b	-0.09270974
166	0x3d595403	0.053058635
167	0x3e30dc8f	0.17271636
168	0xbd919d7a	-0.071101144
169	0x3e1d2cfb	0.1534919
170	0x3d88c700	0.06678581
171	0x3dcee4b8	0.101022184
172	0x3e28586b	0.16439979
173	0x3e30b15d	0.17255159
174	0x3de2a327	0.11066275
175	0x3db9eef9	0.090787835
176	0x3d7ee9a2	0.06223453
177	0x3e1323a6	0.14369068
178	0x3e2cd4b9	0.16878022
179	0xbe1643d5	-0.14674313
180	0x3e012fba	0.12615862
181	0x3de07c42	0.109612
182	0x3dbb8224	0.09155682
183	0x3daefd8a	0.085444525
184	0xbdb5d0e5	-0.08877734
185	0x3db9f711	0.09080327
186	0x3de44487	0.11145883
187	0x3d35a617	0.04434785
188	0x3d1ae7d1	0.037818734
189	0xbdf8cbd4	-0.12148252
190	0xbe21ac91	-0.15788485
191	0xbd70554a	-0.058675088
192	0x3e1db909	0.15402617
193	0x3bf5f154	0.007505575
194	0x3d6b1237	0.057390418
195	0x3d7f3ed3	0.062315773
196	0xbad85231	-0.0016503987
197	0xbae8f572	-0.0017773344
198	0xbc75aea6	-0.014995253
199	0xbde9bbc5	-0.11412767
200	0x3da99b1c	0.08281538
201	0xbdc920bc	-0.09820697
202	0x3d57cfdb	0.05268846
203	0xbd9c1d16	-0.07622735
204	0xbd59ac64	-0.05314292
205	0xbae61cd4	-0.0017556199
206	0xbda383ec	-0.079841465
207	0xbdef5ca7	-0.11687594
208	0xbe0bb446	-0.13642988
209	0x3d71ef21	0.05906594
210	0xbdff84d2	-0.12476505
211	0xbe2e972b	-0.17049854
212	0xbdd71751	-0.10502494
213	0x3c046da7	0.008082784
214	0x3c0f7270	0.008755311
215	0x3bf531fb	0.007482765
216	0x3d4e010c	0.050293967
217	0xbdaad55c	-0.08341476
218	0x3dc9d3a6	0.09854822
219	0x3bf8e0cb	0.007595157
220	0x3e0cc704	0.13747793
221	0x3ce5f947	0.028072966
222	0x3d76489b	0.060127836
223	0xbdff5494	-0.12467304
224	0x3e0c7350	0.13715863
225	0xbca93b20	-0.020658076
226	0xbd982c05	-0.07430271
227	0x3e16abe2	0.14714006
228	0xbd5e0f41	-0.054213766
229	0x3de12f58	0.10995358
230	0x3c15dbd9	0.009146654
231	0x3b32d524	0.0027287686
232	0x3e19178e	0.14950392
233	0xbdca7c72	-0.09887017
234	0x3cddcf04	0.027076252
235	0xbda20fc1	-0.07913161
236	0x3de03c6f	0.10949027
237	0x3d0a7b16	0.03380879
238	0x3dc25337	0.09488528
239	0x3ddac3eb	0.106819
240	0xbd65b95c	-0.056084976
241	0xbdd13f9f	-0.10217213
242	0xbd3c3520	-0.0459491
243	0x3ca5b8a9	0.020229654
244	0xbdcc48ae	-0.099748
245	0x3dd945c4	0.1060901
246	0xbdc21748	-0.09477097
247	0x3daaf658	0.083477676
248	0xbe1987c1	-0.14993192
249	0xbdb553bd	-0.088538624
250	0x3cd6d895	0.026226321
251	0xbe3360d4	-0.17517406
252	0x3e16ee82	0.14739421
253	0x3e1b141b	0.15144388
254	0x3da12cc9	0.0786987
255	0xbcda1e5c	-0.026625805

conv_col_to_row.feature_module_final.0.weight f4 [32]
0	0x3f7f9b98	0.9984679
1	0x3f7ff0c1	0.99976736
2	0x3f800000	1.0
3	0x3f7fef7c	0.999748
4	0x3f800000	1.0
5	0x3f7ffb82	0.99993145
6	0x3f809bd7	1.0047559
7	0x3f7fd7d9	0.9993873
8	0x3f7fc190	0.9990473
9	0x3f8041d0	1.0020084
10	0x3f8001c1	1.0000535
11	0x3f7ff671	0.99985415
12	0x3f8011b9	1.0005409
13	0x3f7ff174	0.99977803
14	0x3f7ff123	0.9997732
15	0x3f7f8f6f	0.9982824
16	0x3f80489f	1.0022162
17	0x3f7ffa1a	0.99991
18	0x3f80112a	1.0005238
19	0x3f800b27	1.0003403
20	0x3f804877	1.0022115
21	0x3f8016ce	1.000696
22	0x3f7fdc24	0.9994528
23	0x3f7fff84	0.9999926
24	0x3f80658d	1.0030991
25	0x3f801364	1.0005918
26	0x3f805459	1.0025741
27	0x3f800000	1.0
28	0x3f800000	1.0
29	0x3f7fad3c	0.9987371
30	0x3f800000	1.0
31	0x3f800000	1.0

conv_col_to_row.feature_module_final.0.bias f4 [32]
0	0xba64a7a9	-0.0008722493
1	0xb9e01f6e	-0.00042748026
2	0x00000000	0.0
3	0xb980f0d8	-0.00024593505
4	0x00000000	0.0
5	0xb88fdbbb	-6.859699e-05
6	0x3a8aff60	0.0010604672
7	0xb9e39920	-0.000434109
8	0xba1ee96d	-0.0006062005
9	0x3ad54689	0.0016271631
10	0x39bfebde	0.00036606094
11	0xb90003a7	-0.00012208392
12	0x3a39b738	0.00070844917
13	0xba81c3f9	-0.0009900323
14	0x3a45a273	0.00075391604
15	0xba57911f	-0.0008223224
16	0x39da3f60	0.00041627418
17	0xb8f80b99	-0.00011827722
18	0x394c321d	0.00019473625
19	0x3aac6f5b	0.0013155745
20	0x3acb67c4	0.0015518595
21	0x3906207b	0.00012791336
22	0x3943ae0e	0.0001866149
23	0xb9ab868b	-0.00032715904
24	0x3b3a64af	0.002844136
25	0x39a1f447	0.00030890314
26	0x3add6884	0.001689211
27	0x00000000	0.0
28	0x00000000	0.0
29	0xbaba25e9	-0.0014201972
30	0x00000000	0.0
31	0x00000000	0.0
