GNN_method/ResultsGCNN/actor_43.pt (torch, 83520 bytes, 43 tensors)

row_embedding.0.weight f4 [7]
000000 49 53 80 3f 46 20 80 3f 09 d9 7f 3f 58 1d 80 3f
       1.0025417 1.0009849 0.99940544 1.0008955
000010 0c e5 7f 3f 84 30 80 3f 97 fd 7f 3f
       0.9995887 1.0014806 0.9999632

row_embedding.0.bias f4 [7]
000000 fa ae f4 ba ba e4 73 ba e9 75 29 ba 9c 23 94 ba
       -0.001866787 -0.0009303797 -0.00064644084 -0.0011302116
000010 d3 84 0b 3a 8d f2 c8 ba 94 d8 05 3a
       0.00053222216 -0.0015331075 0.000510582

row_embedding.1.weight f4 [32, 7]
000000 ed 62 59 3d 9b 47 59 3d f5 f0 0c 3e 59 d0 b6 be
       0.05307286 0.053046804 0.13763793 -0.35705832
000010 38 3f 3b be 95 ba 76 3e 2f 3b ae bd 3d a0 8a be
       -0.18285835 0.24094613 -0.08507382 -0.27075377
000020 a2 76 81 bd cb 9e 22 bd 13 78 db bd 3a cc 46 3e
       -0.063214555 -0.039702218 -0.10716262 0.19413844
000030 a3 4c 52 3a d6 7b af bd 3e f1 00 be 10 b8 95 be
       0.0008022284 -0.08568542 -0.12592027 -0.2924199
000040 a6 ff 90 be 9a c8 85 3e 11 47 a2 3e da 49 a1 3c
       -0.28320044 0.2612961 0.31694844 0.019688535
000050 a6 c5 4e be 25 0d 57 be e3 b8 05 3e f9 9c a2 3e
       -0.20192584 -0.21001108 0.1305881 0.31760386
000060 80 59 b6 be eb 3d e6 3c 6b 86 cf 3b 08 f3 47 3e
       -0.35615158 0.028105697 0.0063331625 0.19526303
000070 01 cb 0e be 74 fc 05 bd 3e 4d 9d be 5e 32 56 3e
       -0.13944627 -0.03271146 -0.30722994 0.20917651
000080 b1 a0 4f be 73 9c 4e be 33 88 48 be e1 d2 da bd
       -0.20276143 -0.20176868 -0.19583206 -0.10684753
000090 6a 9c 5c 3d a7 58 44 bc c7 5c b5 be f3 98 c8 3d
       0.053860106 -0.011984027 -0.35422346 0.09794798
0000a0 66 90 50 be 03 d1 a0 3e 00 b5 89 be 65 4a ac be
       -0.20367584 0.31409463 -0.26895905 -0.3365051
0000b0 0e 68 8b 3e 85 20 66 be 55 4f a0 be ee 80 69 bd
       0.27227825 -0.22473343 -0.31310526 -0.057007723
0000c0 93 b1 9b 3c a7 50 79 be 9e 45 8a 3e a7 e1 69 3e
       0.019005572 -0.24347173 0.2700624 0.22839986
0000d0 10 ca 85 3e f1 a9 59 3e 0d f4 05 3d 70 a6 0f 3d
       0.26130724 0.21256234 0.032703448 0.035070837
0000e0 3f 99 0c be ca 7c 9a bd a5 84 cc 3c 7e 58 51 3c
       -0.13730334 -0.07543333 0.024965594 0.012777446
0000f0 d2 bd 0d be 1e f0 54 be 62 91 8d 3e 4a e1 49 3d
       -0.13841942 -0.20794722 0.2764998 0.049287118
000100 5c f9 ae be 7d 9e 4b be bd 0c ba 3e b8 1a 42 be
       -0.3417462 -0.19884677 0.36337844 -0.18955505
000110 34 9c 83 3e 99 c2 b2 be 88 5a 89 be a2 bc ac 3e
       0.2570511 -0.3491409 -0.26826882 0.33737665
000120 fa 7f c3 bd 77 3c bf bb b2 11 20 bd 80 86 80 be
       -0.09545894 -0.0058360654 -0.039079376 -0.25102615
000130 c8 4a 81 3e a8 32 3a be ad 1f 4d 3c d4 76 b6 be
       0.25252366 -0.18183386 0.012519759 -0.35637534
000140 64 09 9a bd b9 42 7c bc a5 3d 84 3e 23 51 0b 3e
       -0.07521322 -0.015396767 0.2582828 0.1360517
000150 d2 f6 93 3e 25 86 93 bd f9 31 9e be c4 a0 d9 bd
       0.28899246 -0.072033204 -0.308975 -0.10626367
000160 7f a9 8d bd 6a 87 a2 3e 76 5c 69 be d4 17 80 3e
       -0.069170944 0.31743938 -0.22789177 0.2501818
000170 03 52 5b 3e 97 a7 5f be 5b 65 7c be 3e bf 1e be
       0.21418004 -0.21841274 -0.24648039 -0.1550264
000180 26 86 18 be b8 ab 8a be a5 c6 b9 be 8b f7 b5 3d
       -0.14894924 -0.27084136 -0.36284366 0.08885106
000190 ec d1 cb 3d bd 3d 8f be 2a 02 8c 3e 15 7a 12 be
       0.09952149 -0.2797679 0.273454 -0.14304383
0001a0 c1 68 ec bd 69 0e 8c 3d 19 1d 93 3e 39 f0 a6 be
       -0.11543418 0.06838686 0.28733137 -0.3260515
0001b0 5b ac 94 bd 25 04 f0 3d f3 db 9e be f4 7a 97 3e
       -0.07259437 0.117195405 -0.31027183 0.29585993
0001c0 93 f2 16 3e 1c 43 a7 3e 2e d5 e8 bc 07 cb 32 3e
       0.14740972 0.32668388 -0.028421964 0.17460261
0001d0 20 7c 81 be 80 13 b4 3e 40 f7 be 3d 8a 4a 49 3e
       -0.25290012 0.35171127 0.09324503 0.1965734
0001e0 74 23 5e be 71 e1 87 be a3 d1 a5 be 4a 03 b1 be
       -0.21693212 -0.26539186 -0.32386503 -0.34572822
0001f0 d9 1a 53 3b c1 0c bb bc 16 2a b4 be aa 85 af 3e
       0.0032212047 -0.02283323 -0.3518836 0.34281665
000200 a5 c7 31 be b2 ca 9a be 96 ba 27 be 86 bb a1 3e
       -0.17361315 -0.3023277 -0.1637977 0.31588382
000210 57 62 b2 3d e3 b4 49 be 12 95 2c be d0 57 77 be
       0.08710163 -0.19697909 -0.16853741 -0.24154592
000220 3f 2f ff 3d f1 30 7e 3e 4c a0 45 be 19 3a b8 3e
       0.12460183 0.24823357 -0.1929943 0.35981825
000230 52 11 a8 3e 8e ad 01 3e 08 94 1e bc d9 e2 8c 3e
       0.32825714 0.12663862 -0.009678848 0.2751682
000240 08 94 d6 3d 71 d4 aa be 6f 5d 83 be f5 da 4a 3e
       0.104774535 -0.33365205 -0.25657222 0.19810088
000250 a7 43 03 3d 6d c1 b4 3e 05 ca 8a be 68 30 92 be
       0.03204694 0.35303822 -0.27107254 -0.28552556
000260 6f 8c d9 bd 38 e0 6a be 05 f3 90 3e 29 2a 05 3d
       -0.10622489 -0.22937095 0.2831041 0.03251091
000270 50 2d 08 be d4 d4 4c bd 79 9c 06 3d 29 eb 8c be
       -0.13298535 -0.050007656 0.032864068 -0.27523163
000280 b0 35 2b 3d 0e 6a 7b be 21 86 72 3d e6 a8 0b 3e
       0.041799247 -0.24552175 0.059209947 0.13638648
000290 0b 85 6d be e9 d5 55 be 8e 9d 39 bc 30 8d 98 3e
       -0.23195283 -0.20882381 -0.011329068 0.29795218
0002a0 89 ac 41 3e 22 e9 b4 bd ff 0b a9 3e 4a b5 c7 3d
       0.18913473 -0.08833529 0.33016965 0.09751375
0002b0 5e f9 ba 3e 99 4d 88 3e 96 f5 85 be e3 f1 b9 3c
       0.36518377 0.26621702 -0.2616393 0.022698348
0002c0 a0 f7 6b 3e 79 4e 9c 3d 29 1d f5 3d 93 e5 9f 3e
       0.2304368 0.07632155 0.119684525 0.3122984
0002d0 60 47 8e be d1 f1 01 3e d5 b5 f1 bd b9 97 20 be
       -0.2778883 0.12689902 -0.1180226 -0.15682878
0002e0 c6 73 ad 3e 3a 64 8a 3e 27 69 7d 3e d3 0e 17 3d
       0.3387739 0.27029592 0.24747144 0.03687937
0002f0 2a 35 96 be b4 ff ae 3e 14 96 d8 3d 64 08 20 bd
       -0.29337436 0.3417946 0.105755 -0.039070502
000300 c5 b9 93 be 6e 15 dd bd a5 7d a8 be 10 9f 97 3e
       -0.28852668 -0.10795103 -0.3290836 0.29613543
000310 c4 3f a4 3e 96 a1 96 3d b9 80 a2 3e d4 d9 75 be
       0.320799 0.07355039 0.31738833 -0.24008876
000320 82 7a 5a be 40 26 38 3e 2d 69 bd 3e 8c 5c 72 be
       -0.21335796 0.17983341 0.36994305 -0.23668116
000330 1e f1 9c be 74 16 03 3e cd b6 ec 3d 59 5d 88 3e
       -0.30652708 0.12801534 0.11558304 0.2663372
000340 61 96 69 3d f7 83 c1 be b6 fa 1a 3e 94 ec 3a be
       0.057028178 -0.37795994 0.15134701 -0.1825431
000350 f4 9d 47 3e fe 72 8f be 41 bb 95 be f3 aa 0a 3d
       0.19493848 -0.2801742 -0.29244426 0.033854436
000360 ab 6b 81 bd a5 b8 b3 be f0 fd 3e be 12 1d 9f be
       -0.06319364 -0.3510181 -0.18651557 -0.31076866
000370 1c 0b dc 3d db db cd 3d fb ca f4 bd 6d 1f a2 be
       0.107443064 0.100517 -0.11952778 -0.316646

row_embedding.1.bias f4 [32]
000000 93 c7 51 bd d6 7b 83 3e c4 80 e1 3d 93 eb bc be
       -0.05121572 0.25680417 0.11010888 -0.3689848
000010 70 d5 a5 3d c4 1c f9 bd 6e 40 99 3c 6e 46 db bd
       0.080973506 -0.1216369 0.01870748 -0.10706793
000020 25 a9 1b 3e f1 47 57 be 4e 42 b3 be 7b d9 d3 bc
       0.15201242 -0.21023537 -0.35011524 -0.025860539
000030 ac a9 a2 3e a7 54 1a 3e 56 51 b1 3e f7 7d cd 3d
       0.31770074 0.15071355 0.34632367 0.100337915
000040 c7 e7 22 be 80 25 8a 3c 83 ec f6 bd 59 1f 9e 3e
       -0.15908729 0.016863585 -0.1205683 0.3088329
000050 90 da 8f 3e fc 8a da bc 94 c7 58 3e ed 3c cc bd
       0.28096437 -0.026677601 0.21169883 -0.09972558
000060 f6 96 a4 3e c6 1c 54 3e 52 c4 17 be ce 63 00 3e
       0.32146424 0.20714101 -0.14820984 0.12538072
000070 e9 f8 96 be 6a 15 49 be 41 8b af 3c 9a 2e 5d be
       -0.29486778 -0.19637075 0.021428706 -0.21599808

row_embedding.3.weight f4 [32, 32]
000000 06 52 fc bd 02 5f 25 bd be f4 92 3d 35 e1 3f 3c
       -0.12320332 -0.04037381 0.07175587 0.011711408
000010 e7 01 d0 3d 9f 92 57 3b 7d 1d 27 3e 5d 18 15 3e
       0.10156613 0.003289379 0.16319843 0.14560075
000020 4d b9 ce 3d 0c 1b 15 be ed fb 0f 3d 51 97 f6 3c
       0.10093937 -0.14561099 0.035152365 0.03010145
000030 de 94 ce 3d cf 1a 5f 3a 9e ef 0c 3e d0 e9 1e 3e
       0.10086988 0.00085107697 0.13763282 0.1551888
000040 95 79 1e 3e 77 4a 16 3d 09 70 f4 bd 4f 70 d7 3d
       0.15476067 0.03669211 -0.119354315 0.10519468
000050 17 2e 22 3d 67 b1 5d 3d 77 df 38 3d dc ed e9 3d
       0.039594736 0.054124262 0.045134988 0.11422321
000060 3b 0e 27 be 26 e9 da 3d 1b 30 02 3e b3 93 1a 3e
       -0.16314022 0.10689001 0.12713663 0.15095405
000070 38 f0 90 3c 90 c3 1d be 20 a8 16 3e c0 6d e8 bc
       0.01769267 -0.15406632 0.14712572 -0.028372645
000080 a2 9c 0d 3d f2 a7 e3 3c 81 8b 36 be 3a 8b fe 3b
       0.034573205 0.027790044 -0.17826654 0.007768062
000090 83 46 8f bc 74 98 3f bd 7d a3 9e 3d 33 39 30 3d
       -0.017489677 -0.04677625 0.07746027 0.0430233
0000a0 71 e7 c0 bd 55 5c 22 bd ee f3 d1 bd 2f 90 24 be
       -0.09419144 -0.039638836 -0.10251604 -0.16070627
0000b0 2b da b0 3d 2f 09 d2 3d d8 ae 20 3e 2b b6 2a be
       0.08635362 0.10255658 0.15691698 -0.16671054
0000c0 32 e3 44 bd 62 d1 05 3e e5 92 9f 3d 6a ee 0a be
       -0.048068233 0.13068154 0.0779169 -0.1356751
0000d0 82 4d 03 3e ba 7d fa 3d da b6 07 3e 02 77 f9 3d
       0.12822536 0.12231012 0.13253346 0.12180902
0000e0 0f e2 0e 3e 6a a1 8f bd ae 28 0e 3e f3 76 e6 3d
       0.13953422 -0.07013209 0.13882706 0.112531565
0000f0 a6 1e 09 be 7d c5 68 3d f6 21 0c be 38 d3 be bd
       -0.13390598 0.056828965 -0.1368483 -0.093176305
000100 ca 95 72 3c 6c 8b 25 3e be 67 d9 bd 75 76 17 be
       0.01480622 0.16166466 -0.106154904 -0.14791282
000110 6d e7 2d 3e 83 e4 ab bd 02 e8 27 be 7e 01 93 bd
       0.16982813 -0.083931945 -0.16397098 -0.07178019
000120 b9 2f f3 3d 11 f8 01 3d 96 75 23 3e c3 b1 d4 3d
       0.11874337 0.031730715 0.15962824 0.10385468
000130 86 45 28 3c d6 35 27 3e f0 f0 a5 bd 85 db b0 3d
       0.010270482 0.1632913 -0.08102596 0.0863562
000140 b8 f2 15 bd 94 f3 95 bc 4e 1a 2e 3d 67 1f 01 3e
       -0.036608428 -0.018304624 0.042505555 0.12609635
000150 9d 7e 1c 3e 3a db 4e 3d 9c dc 58 bd 35 28 2e 3e
       0.15282674 0.05050204 -0.052944764 0.17007525
000160 47 b9 05 3d 5f 1b 69 3d e9 6c 62 3d 71 12 27 be
       0.032647397 0.05691087 0.055279646 -0.16315629
000170 e0 7a 2a 3e 51 d2 27 3e 4a 45 04 3e 0b b8 1d 3e
       0.16648436 0.16388823 0.12917057 0.15402238
000180 34 21 a4 bd 31 4e 1a bd 7d 29 1e be 8a 22 69 3d
       -0.080141455 -0.037672225 -0.15445514 0.056917705
000190 eb 3f 41 3d cd bc 75 3d 29 4d 2e 3e 89 02 c3 bc
       0.047180098 0.059994508 0.17021622 -0.02380492
0001a0 11 2f b6 3d 62 80 ed 3d d5 c3 dc bd 53 cd fd bc
       0.08895696 0.11596753 -0.107795395 -0.030981695
0001b0 30 58 02 3e 52 a9 d3 bd cf 7e 7c 3d 45 dc b6 3d
       0.12728953 -0.1033503 0.06164437 0.08928732
0001c0 c5 ed 9c bc 2d c9 2d 3e 08 66 8c bd 64 be 94 3d
       -0.019156346 0.16971274 -0.068553984 0.07262877
0001d0 90 9f 23 bd 60 a3 22 be 78 04 97 3d 54 01 89 bd
       -0.039947093 -0.15882635 0.07373899 -0.066897064
0001e0 51 d2 4d bb ec 46 1e 3e 1b b1 a2 bd 97 05 85 bd
       -0.0031405876 0.15456742 -0.079439364 -0.06495207
0001f0 df bd 32 be e4 06 02 be 42 20 ec bd 57 fc 36 3d
       -0.17455243 -0.12697941 -0.1152959 0.044674244
000200 74 14 bb 3d 56 42 e8 bc a6 43 ea bd e1 46 24 3c
       0.091347605 -0.028351944 -0.11438684 0.0100266645
000210 b8 53 ac 3d 6e 38 83 bd 01 08 e2 bd c6 14 c0 3d
       0.084144056 -0.064072475 -0.11036683 0.09378962
000220 7c f7 2e be 8a f9 94 3d aa 69 0d 3e 59 60 31 be
       -0.17086595 0.07274158 0.13809839 -0.1732191
000230 9f bd 49 bd ac 85 26 bd 82 5a 40 3c ac 4d 36 be
       -0.049253102 -0.040654823 0.011740329 -0.17803067
000240 9b 18 e0 bd 69 cc d2 bd b2 b5 8c 3d b5 5d 7e 3d
       -0.10942193 -0.102928944 0.06870593 0.062101085
000250 76 3e 0c be 4b b9 3d 3d ef 49 c4 3b a7 ee 84 3d
       -0.13695702 0.046319287 0.005990259 0.06490832
000260 74 19 88 bd 0b d2 f3 3d 43 b8 a6 bd ed 40 0a be
       -0.0664548 0.11905297 -0.08140614 -0.1350133
000270 1c ce d8 3d 6a 47 32 be 31 82 f5 3d 54 4c 4d bd
       0.10586187 -0.17410055 0.11987723 -0.05012162
000280 0a b8 b2 bd 67 40 23 be 90 c6 07 bd 7d da 7a 3d
       -0.08726509 -0.15942536 -0.03314835 0.061243523
000290 13 62 66 bd 5d 18 27 3e 9b cf bd 3d 50 0f 78 3d
       -0.056245875 0.16317888 0.09268113 0.06056148
0002a0 38 bb 28 be 71 ed 7b 3b 7d be 01 be 09 25 3d 3d
       -0.16477668 0.0038441087 -0.12670322 0.046177898
0002b0 ba 1f 21 bd 12 1a e0 3d 47 fc 21 bb d5 8a 27 be
       -0.039336897 0.109424725 -0.002471702 -0.16361554
0002c0 b1 bd c6 bd 67 d4 33 be a8 0f 37 bd 9b 2a ae 3d
       -0.097041495 -0.17561494 -0.044692665 0.0850422
0002d0 15 f3 13 be 6f aa f0 3d 8b 8c 32 be 66 45 58 bc
       -0.14448197 0.11751258 -0.17436425 -0.01320014
0002e0 01 ef 1b 3a bd 4f b5 bd 12 70 1c be 49 3b c6 bd
       0.0005948395 -0.088530995 -0.15277126 -0.096792765
0002f0 ba 17 13 be f9 37 a4 bc dc e4 db 3c 85 d0 27 be
       -0.1436452 -0.020046221 0.026842527 -0.16388138
000300 4e 84 ae 3d b3 f9 03 3e 93 19 f9 3d ff c3 24 bd
       0.08521329 0.12888221 0.12163081 -0.04022598
000310 9e ae 0f 3e e7 9b 6c 3d f1 4f ff bd a5 0b a6 bd
       0.14031455 0.057765868 -0.124664195 -0.0810769
000320 08 7e 1d be 4f 1a a6 3d 7e 73 03 3e 52 4e 88 3d
       -0.15380108 0.08110487 0.12837026 0.066555634
000330 75 5a fa bc a8 70 11 be 98 d4 29 be c3 ab a2 3c
       -0.030560711 -0.14203131 -0.16585004 0.019857293
000340 81 da c2 bc 33 46 0a 3e 44 fa 95 bd fb 25 0c 3e
       -0.023785831 0.13503341 -0.07323125 0.13686363
000350 65 a5 c1 3d 14 b3 e4 3d 83 12 27 3d 63 39 0a 3e
       0.09455375 0.11166969 0.04078914 0.13498454
000360 6c 90 b7 bd b2 c6 3a bd 99 0c b3 bd 3a 9d 64 3c
       -0.08963093 -0.045599647 -0.08742637 0.013953501
000370 03 b8 29 3e 03 f9 45 bd f2 bd 10 bd 06 bc da 3d
       0.16574101 -0.04833318 -0.035337396 0.10680394
000380 85 23 7d bd 3f b2 2d bd 98 ad f2 bd 3d f5 02 be
       -0.061801452 -0.042406317 -0.11849517 -0.12788863
000390 22 d5 17 3d ac 28 0e 3e da 2a 0f 3e 00 f9 cb bd
       0.037068494 0.13882703 0.1398119 -0.09959602
0003a0 34 0b b6 3d 5f 74 db bd 2d 9a 31 be 08 34 e8 ba
       0.088888556 -0.107155554 -0.1734397 -0.0017715702
0003b0 96 c8 1c 3e 0b 5a 9a bc 38 e9 15 be 71 d7 71 bd
       0.15310892 -0.018841764 -0.14639747 -0.05904335
0003c0 58 25 8d 3d 1d ae 09 3e e5 9f 32 be 8d 0e 39 3d
       0.068918884 0.13445325 -0.17443807 0.045179892
0003d0 da c8 7c 3d 5b 2c 15 3d 89 9b 30 be 1d 08 7b bd
       0.061714984 0.036419254 -0.17246832 -0.061287034
0003e0 9c 0b f4 bc 59 2b c6 bd ed b6 04 be 42 85 05 3d
       -0.029790692 -0.09676237 -0.12960406 0.032597788
0003f0 3f b5 81 bc ed d1 03 bc 78 c7 fd bd 7c c8 11 3e
       -0.015833495 -0.008045656 -0.12391561 0.14236635

row_embedding.3.bias f4 [32]
000000 c1 34 de 3d dc 4f 57 bd 0e 0d 77 bd 88 b5 2a bd
       0.10849906 -0.052566394 -0.060315184 -0.041677028
000010 7c a7 7b 3c 03 ea 04 be 12 8f db 3d 79 ec 11 3e
       0.015359756 -0.12979893 0.10720648 0.14250363
000020 4a e9 84 bd 3b 31 d2 3d b9 47 08 3e 52 04 ca 3d
       -0.06489809 0.10263296 0.1330861 0.09864105
000030 fe f5 9f bc d0 f8 31 3d 0b 3e d6 3d 6f 77 d8 3d
       -0.019526478 0.043450177 0.104610525 0.10569655
000040 06 f8 c4 3d 8b 1c 96 bd d7 da 49 3d dd 3f bd 3d
       0.09617619 -0.07329663 0.049280968 0.092406966
000050 f9 4c 22 bc b3 0f 07 3d 23 c5 5f 3d bc a4 85 3d
       -0.009906047 0.032973956 0.054631364 0.06525561
000060 5a 9f d4 3d 51 bd 29 3d 4c 80 28 3e 97 a4 62 bd
       0.103819564 0.04144031 0.16455191 -0.055332746
000070 79 3c 9c 3b 80 c2 08 bc 4d a8 18 be 64 5b f6 3d
       0.004767951 -0.008347154 -0.14907952 0.1202915

col_embedding.0.weight f4 [7]
000000 df 8f 7f 3f 54 08 80 3f 82 03 80 3f fe 0a 80 3f
       0.99828905 1.0002542 1.000107 1.0003355
000010 a7 b6 7f 3f f9 cd 7f 3f 5c 09 80 3f
       0.9988808 0.99923664 1.0002856

col_embedding.0.bias f4 [7]
000000 dc cd 8f ba 78 0b 56 b9 c9 c0 90 38 f7 df b4 b9
       -0.0010971385 -0.00020412903 6.902364e-05 -0.00034499142
000010 1c 63 51 3a 3a 3c 51 3a 72 b8 21 3a
       0.0007987486 0.0007981692 0.0006169147

col_embedding.1.weight f4 [32, 7]
000000 ba c1 b4 3e 37 ab a4 3b ed ce d0 b9 e0 dc 32 be
       0.35304052 0.005025293 -0.00039827023 -0.1746707
000010 36 1e 8d 3e fc 71 ba be 48 2b cf bd 36 0b ee bd
       0.27562112 -0.36415088 -0.10115677 -0.11623232
000020 9e 74 84 be 4c 10 28 be ff 3a 3e 3e 33 88 5a be
       -0.25870222 -0.16412467 0.18577193 -0.21341018
000030 06 aa a7 3b 9f f8 71 be 79 1a 4a be d4 0b 53 3c
       0.005116704 -0.23629998 -0.19736661 0.012881238
000040 26 bd 8a 3e 9b 57 35 be 18 2e 00 3d 71 3c b8 3d
       0.27097434 -0.177092 0.03129396 0.08995903
000050 56 1b 57 3e 18 9f 91 3e d6 56 90 3e c3 e1 d4 bd
       0.21006522 0.2844169 0.2819125 -0.10394623
000060 d1 8f 75 3d 89 54 9e be 2d 5c 97 bc 01 ca 34 3e
       0.059951607 -0.3092387 -0.01847657 0.17655183
000070 c4 85 16 3e 10 57 a4 3e 7b 5e 97 3e 33 65 37 be
       0.14699465 0.32097673 0.2956427 -0.17909698
000080 4e 28 88 bd 50 c1 80 be 16 df ba be 8a 04 c1 be
       -0.066483125 -0.25147486 -0.36498326 -0.37698776
000090 5b 67 1a 3d eb 42 92 bd 58 7a 77 3e a5 af 69 be
       0.037696224 -0.0714167 0.24167764 -0.2282091
0000a0 c0 a0 2c 3e 81 9a f7 bd 6e 85 08 bd a0 08 ba 3e
       0.16858196 -0.12090016 -0.033330373 0.36334705
0000b0 d2 e5 be 3e 33 81 51 3e 6f 22 6c 3e 54 8f 15 3d
       0.37284714 0.20459442 0.2306001 0.03651364
0000c0 2d 4e 30 3e ef b5 9e 3d 59 ce fc bd a6 ae 3d 3e
       0.17217322 0.07749545 -0.12344045 0.18523654
0000d0 ef e2 b5 be 94 b0 90 3d 99 2c 94 3d fa 6f 05 3e
       -0.355247 0.070649296 0.07235069 0.13030997
0000e0 37 b0 e0 bd 31 8a 38 be 31 97 be bd 97 53 55 bc
       -0.1097111 -0.18021466 -0.09306181 -0.013020418
0000f0 25 f9 64 be 4a d3 1d be c6 b3 35 3e 63 53 9b 3d
       -0.22360666 -0.15412632 0.1774436 0.07584264
000100 18 bc a6 be 4b 05 5e bd ed 99 cd bc 59 33 27 3e
       -0.3256538 -0.054204267 -0.025097812 0.16328181
000110 31 05 9a 3e f6 7a c1 be a9 90 ba 3e 21 50 95 3c
       0.30082086 -0.37789124 0.36438492 0.018226685
000120 d2 a5 b9 3e c3 50 03 be 8b 59 92 be 10 df 73 be
       0.36259323 -0.12823777 -0.2858394 -0.2381556
000130 b9 c7 6f be 9b 51 b7 3e 40 ca 07 3e 0f 17 89 be
       -0.23416032 0.35804448 0.13260746 -0.26775405
000140 8a c4 85 bd 3c 9e 31 be 7f bd 6c be 36 17 62 3e
       -0.065316275 -0.17345518 -0.23119162 0.22079167
000150 a2 2d 96 3e a3 02 99 be 4c e5 c3 3c 5b bc 7d 3e
       0.2933169 -0.29884824 0.023913048 0.24778883
000160 b3 26 26 3e 28 04 95 bd 69 67 69 be a7 5e a6 be
       0.162257 -0.07276183 -0.22793354 -0.3249409
000170 16 11 55 be a2 e3 5d 3c 06 2b 0d bd f9 9c 4c 3e
       -0.20807299 0.013543041 -0.03446486 0.19981755
000180 63 d3 2a 3e 86 09 0c bc ec cb 82 bc 8c 4e 40 3e
       0.166822 -0.008547192 -0.015966378 0.18779963
000190 32 97 3f be c6 6e 5c 3e 37 64 a3 3e c4 8d 64 3e
       -0.1871002 0.21526632 0.31912395 0.22319704
0001a0 af 87 b0 3d 1c eb 3c 3d b3 ac df bc 6a e1 4a 3e
       0.086196296 0.046122655 -0.02730403 0.19812551
0001b0 63 17 84 3e 62 d4 dd bc ca 6d 02 3e 73 38 91 be
       0.25799093 -0.027078811 0.12737194 -0.2836338
0001c0 42 56 41 3e c8 22 8c 3e ae 79 44 ba 94 64 1d be
       0.18880561 0.27370286 -0.00074949383 -0.15370399
0001d0 51 d2 be bd 6d 5d fb bd 25 4c af be 50 90 a7 3e
       -0.093174584 -0.12273679 -0.3423778 0.3272729
0001e0 c0 0e 4a bc 68 ad a3 be b5 ca 83 3e e3 db a2 3e
       -0.012332618 -0.31968236 0.2574059 0.31808385
0001f0 72 cd 9f 3e 53 bb 6b be 25 7d 83 be ee 7d 9e 3d
       0.3121143 -0.23020677 -0.25681415 0.07738863
000200 a3 58 8f 3d ff 06 62 be ff 67 88 3d bd 8c 81 3e
       0.06999328 -0.22072981 0.06660461 0.25302687
000210 ac c3 8d be ab 03 be 3e 3f e9 b2 be 06 d5 ac bd
       -0.27688348 0.37112173 -0.34943578 -0.084390685
000220 7f 7d 65 bd 7b 46 b2 3d f8 8f 42 bc 12 05 81 3e
       -0.056027886 0.08704849 -0.011875145 0.2519918
000230 72 b4 8c 3d 7b b5 24 be 7e b8 be be 27 bb 95 be
       0.06870355 -0.16084854 -0.3725013 -0.29244348
000240 33 b0 52 3e 6f 08 21 3e 84 85 4f 3e 6b 08 30 bd
       0.20575027 0.15725873 0.20265776 -0.042976778
000250 39 d0 dd 3d 46 81 a4 be 72 05 32 3c 25 cc 1f be
       0.10830731 -0.32129878 0.010865556 -0.15605219
000260 3e 81 81 be b1 61 b8 bd 80 f2 66 3e f3 2f 6c 3e
       -0.25293916 -0.09003008 0.22553444 0.23065166
000270 dd 10 6a 3d 47 cb 82 bd 35 3a 32 be 3c 71 75 bc
       0.05714499 -0.06386428 -0.17405017 -0.01498061
000280 5b e2 3a bd 30 48 67 3e 2e f2 e9 3d ff f4 92 be
       -0.045626026 0.22586131 0.11423145 -0.28702542
000290 ae 4a a4 be da 83 ff 3d 95 2d e3 3c 9c 1f 0c 3e
       -0.32088226 0.124763206 0.027731696 0.13683933
0002a0 2d 62 2c be 4a 02 25 3e d5 e4 9c be e3 63 b0 3d
       -0.16834326 0.16114154 -0.30643335 0.08612802
0002b0 23 59 83 be e1 94 98 be a3 b9 a1 bd e7 96 8b 3e
       -0.25653943 -0.29801086 -0.078967355 0.27263567
0002c0 fb e9 84 be 17 f6 88 be 21 32 3e 3e 1a c2 b4 be
       -0.25959763 -0.26750252 0.1857381 -0.35304338
0002d0 92 c5 12 bc f9 93 87 be 00 d5 89 3e 11 2f 68 bd
       -0.008958237 -0.26480082 0.2692032 -0.05668551
0002e0 8b fa ca bd 5c 3c 6a be e4 c2 c6 3c b0 2b 13 3e
       -0.099110685 -0.22874588 0.024262853 0.14372134
0002f0 fe 49 c9 3d e7 4e 49 3e d7 35 be 3e 0f f4 3c 3e
       0.09828566 0.19659005 0.37150452 0.18452476
000300 5b 4e a0 3e 08 fa 9c 3d 8a dc 6d be eb f8 96 be
       0.3130978 0.07664877 -0.2322866 -0.29486784
000310 cb 77 b7 3e 85 54 0c be 07 5d a7 3e d5 ec 53 3d
       0.35833582 -0.13704117 0.32688162 0.051739533
000320 d6 3f 06 be af 60 64 be 36 77 b2 be 8f 0c 8f 3c
       -0.13110289 -0.22302507 -0.34856576 0.017462043
000330 a8 74 cd 3d 64 0b b9 bb f4 d6 9b be 39 60 90 3e
       0.10032016 -0.00564711 -0.30437434 0.28198412
000340 7b 7a 87 3e 9d f5 b6 3e a2 bc b2 3e 2e b3 d3 bd
       0.26460633 0.35734263 0.3490954 -0.1033691
000350 4f a0 44 be a6 11 36 3e 6e 3b 26 3c c3 a7 10 3e
       -0.19201778 0.1778017 0.010146005 0.14126496
000360 2c 22 5e bd 22 d1 32 3e 1d 56 bb be 7a b6 b0 3e
       -0.054231808 0.1746259 -0.36589137 0.3451422
000370 de 7c 22 3e 86 97 b9 3e a6 19 a9 3b f3 27 74 3e
       0.15867946 0.36248416 0.0051605282 0.23843364

col_embedding.1.bias f4 [32]
000000 67 c0 87 be 87 88 30 be 92 fa 9e bd 5c aa 92 be
       -0.2651398 -0.17239581 -0.07762636 -0.286456
000010 70 f0 99 be 33 04 8b 3e a7 f4 48 be b4 81 24 be
       -0.30066252 0.2715164 -0.19624577 -0.16065103
000020 42 00 24 bd 0f 0c 14 bd a9 58 c6 3d 1f 89 8a 3e
       -0.04003931 -0.036144312 0.09684879 0.2705774
000030 e5 10 6c 3d d6 b2 2d be 43 d9 00 3e 59 bd c0 be
       0.0576333 -0.16962752 0.12582879 -0.3764446
000040 df 3a b5 3e a4 0a b9 3b 3b cf 53 be c9 23 25 bd
       0.35396478 0.0056470204 -0.20684521 -0.04031733
000050 92 7b cd bc a7 34 a9 be 4a 75 8e 3e 6b 08 9e 3d
       -0.025083337 -0.33047983 0.2782386 0.07716449
000060 25 07 b5 be ad 59 9c 3e 33 27 8f be d8 ef a7 bd
       -0.35357013 0.30537167 -0.27959594 -0.082000434
000070 d4 ac e8 3d a4 74 b5 3e 0c 33 51 bd 15 cf ab 3e
       0.11361089 0.35440552 -0.051074073 0.3355643

col_embedding.3.weight f4 [32, 32]
000000 7d d4 0c 3e cf de 02 3e 4f 4a e2 bb 0e c0 0e be
       0.13752933 0.12780307 -0.006905831 -0.1394045
000010 9a 49 9e 3d 8a 1c 02 bd 97 1f 2b be 1f ca 0b 3e
       0.07728882 -0.0317655 -0.1671127 0.13651322
000020 b8 a5 0c 3e 24 82 1a 3e 06 ff c1 3d 3e 22 e3 3d
       0.13735092 0.15088707 0.0947247 0.110905156
000030 6e 32 14 be 80 ff e6 bb 60 5f 6c 3d a1 7f 94 3d
       -0.14472362 -0.007049501 0.057708144 0.07250906
000040 d4 9d 61 bd a6 da 10 bd 99 3e 06 be 61 e7 20 be
       -0.055082157 -0.03536477 -0.13109817 -0.15713264
000050 8a 45 0d 3c 8e 71 30 3e cb 53 f4 bd f1 b6 29 3e
       0.008622536 0.17230818 -0.11930045 0.16573693
000060 db 0f 23 be 26 bf f3 bd c2 19 0e be b3 6d 01 be
       -0.15924017 -0.11901693 -0.13877013 -0.12639503
000070 06 1e 15 3e 36 f7 2b 3b 8c a6 3e bd b8 ec 2e 3e
       0.14562234 0.0026239878 -0.04654555 0.17082489
000080 aa af b2 3d 8f ed 0c be f1 11 1b 3e 92 42 b5 bd
       0.087249115 -0.13762496 0.15143563 -0.08850588
000090 f3 38 c2 3d a2 b2 4d 3d 9b 32 6a 3d 1c f6 47 bd
       0.094835185 0.050219186 0.057177167 -0.048818693
0000a0 a3 b9 26 3e 3d 0a 8d bb f4 79 d8 3d bf 25 f6 3d
       0.16281752 -0.004304199 0.10570136 0.12018918
0000b0 18 6f 1d be 0f 48 f8 bc 8b 9e cf bd e8 4a 94 bc
       -0.1537441 -0.030307798 -0.101376615 -0.018102124
0000c0 2f 8f 18 be ee b3 90 bc 2e d0 eb bd 3e d2 8a bd
       -0.1489837 -0.017663922 -0.115143165 -0.06778382
0000d0 76 e0 c5 3d 34 d7 70 bc 41 e6 27 3e 06 87 75 3d
       0.09661953 -0.014699746 0.16396429 0.05994322
0000e0 3c a8 6a 3d e7 39 3c 3d 71 81 34 be 7f 31 2e 3e
       0.057289347 0.045953657 -0.17627503 0.17011069
0000f0 06 35 df bb 0a a3 2f be 47 45 c9 bb 33 13 b5 bd
       -0.006811741 -0.17152038 -0.0061422917 -0.088415526
000100 06 f8 73 bd 3a dd 37 bd 02 a8 bc bc 51 8b d8 bd
       -0.059562705 -0.044888712 -0.023029331 -0.105734475
000110 20 eb d2 bd c9 a9 7e 3d 14 5a 20 3e 21 90 33 3e
       -0.10298753 0.06217364 0.15659362 0.1753545
000120 0d a6 a5 bd ef 2a 22 be d7 af 0f bd 45 ed 68 bc
       -0.08088312 -0.1583669 -0.035079803 -0.014216726
000130 76 48 1f be 39 e3 06 be ef 17 39 bc 0a c0 8e 3d
       -0.15554985 -0.13172616 -0.01129721 0.06970222
000140 00 ae 88 3a 74 b2 57 bd 81 73 c7 bc 57 b5 25 3e
       0.0010427833 -0.05266042 -0.024347069 0.16182457
000150 a9 38 99 3d 83 74 cb bd 09 ea d6 3d 84 cf f4 3d
       0.0748151 -0.09934332 0.104938574 0.11953643
000160 fe 4b c6 bd f1 28 0c bd 92 89 e0 3d ce 4b 8c 3b
       -0.09682463 -0.034218732 0.109637395 0.0042814976
000170 55 78 e7 3c 2b 86 21 bd 94 6b 2b bd e8 2c ac 3d
       0.028255621 -0.039434593 -0.04185064 0.08407003
000180 64 f1 d9 3d 5e a2 35 bd 6b c7 b0 bc c4 6c d5 3c
       0.10641745 -0.0443443 -0.021579465 0.02605284
000190 b5 6d a1 3d 33 87 2f be 7a 65 90 bd 13 61 d7 3d
       0.07882253 -0.17141418 -0.07050605 0.10516562
0001a0 62 49 1f 3e c9 a9 2d be da 20 28 3d c8 c8 40 bd
       0.15555337 -0.16959299 0.041046955 -0.04706648
0001b0 e6 55 84 3d ec ec 21 bc ca e7 9b bd a6 2e 15 be
       0.06461696 -0.009883147 -0.0761257 -0.14568576
0001c0 36 89 4f bd db 0c 15 3d b5 a2 4c bd 76 e1 f5 3b
       -0.050667964 0.036389213 -0.049959857 0.0075036837
0001d0 1f 11 7a 3d 8e d6 eb 3d 58 71 f6 3d ca cb 81 3d
       0.061051484 0.115155324 0.12033337 0.06337698
0001e0 3e 7c e7 3d c2 d8 1b be 2b 4f f4 3d 75 8b c3 bc
       0.11302994 -0.15219405 0.119291626 -0.02387021
0001f0 e0 8a f6 3d 8a 33 0c 3e 72 f5 0f 3e 86 05 88 3d
       0.12038207 0.13691536 0.14058474 0.066416785
000200 0c fb d8 3d 75 bc 76 3d 1a 9c 01 3d d6 54 b6 bd
       0.105947584 0.06023832 0.03164301 -0.089029
000210 93 09 16 3c 5c df 10 3e 88 2a 14 bd 24 b8 ea bc
       0.009157556 0.14147705 -0.036173373 -0.028652258
000220 fd 9b 09 3e d4 de ca 3d bb ea a7 bd 2e bc 23 be
       0.13438411 0.09905782 -0.08199068 -0.15989754
000230 d8 4d 93 3c 14 98 09 be a1 86 06 be 18 a2 12 3e
       0.017981455 -0.1343692 -0.13137294 0.14319646
000240 c8 45 d2 3d 2f 8b 28 be 88 1e bc bd 8b 8b c7 3d
       0.10267216 -0.16459344 -0.09185511 0.097434126
000250 32 d7 05 be af 48 96 3d 59 ef fb 3c a9 63 fa bd
       -0.13070372 0.07338082 0.030753778 -0.1222604
000260 d7 89 d7 3b b1 8b 71 3d 73 e7 2d 3e 5f 6a d7 3d
       0.006577711 0.05897111 0.16982822 0.105183356
000270 e5 b5 cf 3c 9f 6d 8d bd 1c da 23 be 0e a8 bb 3c
       0.025355289 -0.06905674 -0.16001171 0.022907283
000280 c9 1c d8 3c d3 32 8d 3d d6 00 68 bd 61 d4 07 be
       0.026380913 0.068944596 -0.056641422 -0.1326461
000290 37 65 e5 3d b0 3f bc 3d c9 98 5f bd 6c 91 07 3e
       0.11200946 0.09191835 -0.054589067 0.13239068
0002a0 66 49 1c 3e 14 ef d5 3d a2 92 ba bd aa ad ed bd
       0.15262374 0.10445991 -0.09109999 -0.116053894
0002b0 ab b9 cd bd 5d 40 13 3e 5a 43 ec bd a4 55 4e 3d
       -0.10045179 0.14380021 -0.11536284 0.050374642
0002c0 91 16 3e bd ba 9c d0 bd c8 57 0d 3e 14 62 35 3d
       -0.04640824 -0.10186143 0.13803017 0.044282988
0002d0 f2 84 9a bd df c6 42 bd 46 64 00 3e ae 83 97 bc
       -0.075448886 -0.04755294 0.12538251 -0.018495407
0002e0 44 f7 4a 3d cb 4a 0d be e1 c6 8a bd cd d7 42 bd
       0.049552217 -0.13798063 -0.067762144 -0.047569085
0002f0 7a dd 15 3e 44 91 22 be 89 57 b3 3d c5 22 33 3c
       0.14635268 -0.15875727 0.087569304 0.010933583
000300 06 77 3f 3d 0f 5d 7b bd 47 a0 ef 3d 98 4f 24 ba
       0.04674437 -0.061368044 0.11700492 -0.0006267964
000310 2a 85 e6 bd d9 6f 82 bc 72 97 a2 3d 39 8f f8 3d
       -0.11255868 -0.015922474 0.07939042 0.121366926
000320 0b 10 31 3e 46 4a 25 3e 63 08 eb bc 19 e4 c1 bd
       0.17291276 0.16141614 -0.028690523 -0.09467334
000330 a9 bc ab 3c 9b 8c 23 be d0 0e 01 3e 3f 76 a6 3b
       0.020963984 -0.15971605 0.12603307 0.005080014
000340 79 82 30 3e bb 64 94 bd 59 eb cc 3d 39 4c 20 3e
       0.17237271 -0.07245775 0.100058265 0.15654077
000350 85 42 e2 bc d6 9b cf 3d 31 4f ec bd cf 94 22 3e
       -0.02761961 0.10137145 -0.11538542 0.15877078
000360 92 56 2e 3d b9 1f 11 3e 3c 03 b8 3c 7c 09 69 bc
       0.04256303 0.14172257 0.02246248 -0.014223453
000370 a9 3c 45 3d d1 65 f8 3d 0d d4 ec 3d 6c fe f7 bd
       0.048153553 0.12128795 0.11563883 -0.12109074
000380 58 04 f8 bd 9f 03 af 3d 74 41 2a 3e dc f5 15 3e
       -0.121102035 0.085456125 0.16626531 0.14644569
000390 4e 5f d2 bd 0d f4 be 3c f0 4f 85 bc c8 78 1b be
       -0.10272084 0.023309732 -0.016273469 -0.15182793
0003a0 48 2c 10 3e 42 0a 27 3e 85 3e 38 3d c9 12 e5 bd
       0.14079392 0.16312507 0.0449815 -0.111852236
0003b0 f8 b4 90 bc d3 cf fa 3d 9b de ca bd ec e7 3e bd
       -0.017664418 0.122466706 -0.0990574 -0.046607897
0003c0 cf 50 b2 bd 54 f0 0b 3c 61 88 9d bd 62 e4 f6 bc
       -0.08706819 0.008541185 -0.07692028 -0.030138198
0003d0 91 1a 4d bd b7 a8 d8 3d ff f0 b1 bd 86 ec 42 3d
       -0.050074164 0.10579055 -0.086885445 0.047588848
0003e0 29 10 0f 3e 07 76 12 3e 40 da 1c be fd f7 5e bd
       0.13971008 0.14302836 -0.15317631 -0.05443572
0003f0 56 02 c1 bd 31 bf 0d be dc bb 65 3d 9a e8 f6 3d
       -0.09424274 -0.13842465 0.05608736 0.12056084

col_embedding.3.bias f4 [32]
000000 30 55 3c bd cb 94 1a 3e d7 9c c7 bd 6b a9 f5 3d
       -0.04597968 0.15095823 -0.09746712 0.119952045
000010 f9 73 c2 bc ef a7 1c 3e 03 9c d6 3d d8 49 f7 3c
       -0.02373694 0.15298437 0.104789756 0.030186579
000020 b3 56 12 3e 88 81 11 3e 54 54 07 3e 55 dd 07 3e
       0.14290886 0.14209569 0.13215762 0.13268025
000030 b7 2e a9 bd ea 80 22 3e b7 75 8a 3d bb 09 a7 bc
       -0.08260863 0.1586949 0.067607336 -0.020390382
000040 f5 62 c0 bd 74 10 ac bd 3e e2 ec 3d 1d 31 13 3e
       -0.093938746 -0.08401576 0.1156659 0.14374204
000050 ff 2e bb 3d bb 2c ca 3d 4c a8 fc bd 2b 16 1b 3e
       0.09139823 0.09871813 -0.123367876 0.15145175
000060 29 28 0e 3e 28 33 86 bd 4b 15 0b 3e 93 22 be 3d
       0.13882507 -0.06552726 0.13582341 0.09283938
000070 3f a7 bc 3d fb 61 f6 3c 9f e8 b7 bd 50 e9 9a 3d
       0.09211587 0.030076018 -0.08979916 0.07564032

conv_col_to_row.feature_module_left.0.weight f4 [32, 32]
000000 aa 41 c8 3c e0 8b 1c be 59 41 6a bb 74 04 23 3d
       0.024445374 -0.15287733 -0.0035744517 0.03979917
000010 1c e4 05 bd 08 79 ef bd e7 ce 74 3c ab 3a 6b bd
       -0.032688245 -0.11693007 0.0149419075 -0.057428997
000020 07 91 1f 3e 7b 94 17 3c 07 ae b0 bc 39 4a 06 3e
       0.15582667 0.009251709 -0.021567358 0.13114251
000030 95 1d 02 3a 04 58 55 bd 48 0b 9c bc 90 e2 22 bc
       0.00049635145 -0.05208589 -0.019048348 -0.009941712
000040 2a 79 2d bc 18 fc 0e be dd c4 05 3e cb 7b e8 3c
       -0.01058797 -0.13963354 0.13063379 0.028379342
000050 39 b2 b9 bd e2 e3 da bd 08 69 a0 3d d8 a2 9f 3d
       -0.090671964 -0.106879964 0.07832533 0.07794732
000060 2a 0b c5 3d e5 1a d8 bd 91 1c 25 be 46 5e 07 be
       0.0962127 -0.10552005 -0.16124178 -0.13219556
000070 c4 76 01 3e c5 05 42 bd b8 ca 5d bd 47 91 cd bd
       0.12642962 -0.047368784 -0.054148406 -0.10037475
000080 84 e2 05 3e 8e d5 92 3d a1 54 d6 3d d2 c7 c9 bd
       0.1307469 0.071696386 0.104653604 -0.09852566
000090 e5 07 01 bd d1 c9 23 3e e9 59 b3 bc bd 78 30 be
       -0.03150167 0.15994956 -0.021893458 -0.17233558
0000a0 f7 37 b4 bd bd 10 91 3b a8 c1 f1 3d fe 14 fc 3c
       -0.08799737 0.004427044 0.11804515 0.030771729
0000b0 30 f4 1f 3d 38 d9 fa bd af 73 f6 3c 1f 71 72 3c
       0.039051235 -0.122484624 0.03008446 0.014797478
0000c0 3d 5f 01 3e cd a1 07 be 1f 61 e9 3c 6b c6 d3 bd
       0.12633987 -0.13245316 0.028488694 -0.103405796
0000d0 67 32 26 bd 33 e8 b7 3d 81 30 33 be d3 49 dd 3d
       -0.04057541 0.08979835 -0.17498972 0.108050965
0000e0 79 b0 24 be bb 12 16 3d 30 89 a3 3d 58 f6 d2 3d
       -0.16082944 0.036638957 0.07985151 0.103008926
0000f0 1b 83 c1 bd 38 7b e2 bd c0 1d c0 3d 67 26 7f bc
       -0.094488345 -0.11058658 0.09380674 -0.015573121
000100 ba 4d e9 3d 19 ce dd bd 16 f4 de 3c 65 4b 8d 3d
       0.11391778 -0.10830326 0.027215999 0.06899146
000110 7d 37 c0 3c d7 10 03 3e be 76 03 be 2e b5 2c 3e
       0.023463959 0.12799393 -0.12838265 0.1686599
000120 b0 77 ea bd be b4 d9 bd dd b2 04 3e ec fc ab 3c
       -0.1144861 -0.10630177 0.12958856 0.020994626
000130 c1 1b 2d be f5 84 29 be 8d d3 a4 bd 6f f4 29 3e
       -0.16905119 -0.16554625 -0.080481626 0.1659715
000140 7d fb 25 3d 1f df 05 be 5f 5e 2d 3e 4a c4 90 3d
       0.04052304 -0.13073395 0.16930531 0.07068689
000150 dd 72 93 bd c9 b4 df bc 64 b1 42 bd 8e b1 33 3e
       -0.07199643 -0.027307885 -0.047532454 0.175482
000160 9e 8f a9 3b da cd 57 3d 3a 21 10 be 36 65 bb 3c
       0.005174591 0.05268655 -0.14075175 0.02287541
000170 42 99 88 bd 44 5f 8e 3d d8 dd ce 3c 9f c5 35 bc
       -0.066698566 0.06951764 0.025252268 -0.01109448
000180 9e 64 4d bd a9 3e 7b bd 81 1e 55 3c 12 fb 20 3c
       -0.050144784 -0.061339054 0.013007761 0.009825485
000190 10 cb 63 bc 4b a9 51 3d d7 5a 83 bc 27 dc 8b bd
       -0.013903394 0.05118684 -0.016034527 -0.068291
0001a0 39 61 11 3e c1 a3 c2 bd 3f 41 fc bd f4 03 1b 3e
       0.14197244 -0.0950389 -0.12317132 0.15138227
0001b0 75 51 de 3c 2f 00 03 bd a9 02 c3 bd ad 49 07 bd
       0.027138451 -0.031982597 -0.09521992 -0.033029247
0001c0 de 53 08 be 7c a6 21 3d 57 4b 9d 3c 4b a5 9d 3d
       -0.13313243 0.039465412 0.019200964 0.07697543
0001d0 1a 2c fd bc d0 e3 2a be 15 b0 0c 3e 11 82 25 be
       -0.030904818 -0.16688466 0.13739045 -0.16162898
0001e0 64 12 ea bd d8 a1 b2 bb 1f dd cf bd 4b 12 c0 bd
       -0.11429289 -0.005451422 -0.101495974 -0.09378489
0001f0 ab 0c fc 3d 4a fe 2c be 3f bd b6 bc ae 5e b8 3d
       0.12307104 -0.16893879 -0.022307036 0.09002434
000200 32 92 19 be ab a1 9f 3d 82 3c 25 3e 31 b4 53 3b
       -0.14997175 0.077945076 0.16136363 0.0032303447
000210 36 7f c0 3d a4 37 e5 bd 9a f2 08 3e 49 c7 1f be
       0.093992636 -0.11192253 0.13373795 -0.15603365
000220 24 73 84 3d 1b c9 d0 3d 44 3a aa bd ac d4 d1 bd
       0.06467274 0.10194608 -0.083118945 -0.10245642
000230 9f 5d 25 3d 78 fd 27 3e 34 fc 9f bd 9a 32 05 3e
       0.040372487 0.16405284 -0.07811776 0.13007584
000240 29 40 a6 bd cf 8f dd bb 76 06 06 3e 5a 54 13 be
       -0.08117706 -0.006761528 0.13088402 -0.14387646
000250 e4 1d 32 be 9e 24 fb bc c0 f9 0d 3d a1 91 b8 3c
       -0.17394215 -0.030657109 0.03466201 0.022530379
000260 b5 6c 34 be 0c 72 a4 bd f3 c7 27 3d c1 27 e0 bc
       -0.17619593 -0.08029565 0.04096217 -0.027362706
000270 74 6e 1d be 3f 15 6b 3d 6a ce 39 3d ba 70 c6 bd
       -0.15374166 0.05739331 0.045362867 -0.0968947
000280 22 39 ea 3b 15 61 0c be 68 3a 23 3e f3 0c a7 3d
       0.007147924 -0.13708909 0.15940249 0.08156767
000290 ef 83 67 3c 77 98 a7 3d 94 39 61 3d 44 69 f1 3d
       0.0141305765 0.08183377 0.05498655 0.11787656
0002a0 b0 6b 10 be ac eb 08 bd b7 05 8c 3d 9b 16 17 be
       -0.1410358 -0.03342788 0.068370275 -0.14754717
0002b0 4d 67 0f bd 99 c3 7b bd d6 41 b3 3c 64 a3 00 be
       -0.035010625 -0.061465833 0.021881979 -0.12562329
0002c0 f8 20 2b 3e 36 cc 02 be 32 4a 87 bd c7 13 cd bd
       0.16711795 -0.12773213 -0.066059485 -0.10013538
0002d0 be 35 fb 3d c0 65 f6 3d 88 a6 65 3d 31 72 f9 3d
       0.1226611 0.12031126 0.05606702 0.121799834
0002e0 4b 34 25 3e 75 bf f0 bb 0d c5 c9 bd be 2e 11 3e
       0.1613323 -0.007347042 -0.098520376 0.14177987
0002f0 e0 36 84 3d 59 11 09 be 03 bc 9d 3b b4 52 31 3e
       0.06455779 -0.13385524 0.0048136725 0.17316705
000300 fb bc 51 bd aa cd 1e be f9 80 26 3e e1 11 cf 3c
       -0.051205616 -0.15508142 0.16260137 0.02527708
000310 7d 05 90 3d 7a 6c 27 be 05 34 15 3e 0b 6c ec bd
       0.07032297 -0.16349974 0.14570625 -0.11544045
000320 f3 70 d0 3c b0 df ab 3d 63 8b 50 3c ca 42 31 be
       0.025444483 0.083922744 0.012728545 -0.17310634
000330 5d 0a e0 3c f8 2b a4 bd 14 a3 32 3d 3b 07 9e 3d
       0.027348692 -0.08016199 0.043612555 0.07716223
000340 4a ae be 3c 5e 54 cc bc 0d 18 5e bd b2 b3 f3 3d
       0.023276467 -0.024942573 -0.054222155 0.118995085
000350 70 ff 91 bd ee 87 65 3d e9 78 d6 bd 90 fc 91 bd
       -0.07128799 0.056037836 -0.104722805 -0.071282506
000360 29 b2 d6 3c 0b 5c 0e be c2 37 48 3d 13 f1 4c bd
       0.026208 -0.13902299 0.0488813 -0.050034594
000370 46 6b 2a 3e b0 86 d6 3b 80 aa 16 be 1f 40 fe 3d
       0.16642484 0.0065468177 -0.14713478 0.12414574
000380 41 ab 00 be 9d 0b 1c 3c 69 9b 0a bc f0 7e ff bd
       -0.12565328 0.009524253 -0.008459904 -0.12475383
000390 f9 05 13 3e 75 5a ce bd 04 a7 d4 3c 06 9a 13 3e
       0.14357747 -0.10075847 0.025958546 0.14414224
0003a0 cc d4 08 3e c1 2a 20 be d1 09 15 3e 60 3b 9c bd
       0.13362426 -0.1564131 0.14554526 -0.076285124
0003b0 65 0b 81 bb 7d 70 c7 bd 7e af 71 3c 28 ef cb 3d
       -0.003938126 -0.09738252 0.014751313 0.09957725
0003c0 4a 56 06 be 7d 4b 45 bb cf 74 31 3e 0b ef e4 3d
       -0.13118854 -0.003010481 0.17329715 0.11178406
0003d0 ef 06 35 bd e0 85 16 be 40 de 60 3a 08 aa 84 bd
       -0.044196066 -0.14699507 0.00085780397 -0.064777434
0003e0 7b 45 bc 3d a3 80 ee 3d c4 8a ed bd 4d b0 e1 ba
       0.0919294 0.11645629 -0.11598733 -0.001721868
0003f0 c0 99 ff 3d 7c f3 9f 3d 91 b3 15 be ef 45 17 be
       0.12480497 0.07810113 -0.1461928 -0.14772771

conv_col_to_row.feature_module_left.0.bias f4 [32]
000000 3d 50 dc 3d be 11 04 3e 24 7a df bd fd 18 88 3d
       0.10757492 0.12897393 -0.10911968 0.06645391
000010 90 0d a3 bc b2 03 e7 3d 9b 81 b3 bd cc 6d 32 3e
       -0.019903928 0.11280002 -0.08764955 0.17424697
000020 c4 00 73 bd b2 e6 14 be db 77 dd bd 4c b7 1b be
       -0.059326902 -0.14541128 -0.10813876 -0.15206641
000030 38 4c 17 3d 40 6a 90 3d c6 f3 27 be 50 45 1b be
       0.036937922 0.070515156 -0.16401586 -0.1516316
000040 46 c8 b2 3d 70 60 05 3e 45 39 d1 3c d6 1c 18 3d
       0.087296054 0.13025069 0.025540004 0.037136875
000050 b1 a2 3a 3d 66 7c b0 3d fd bb 25 3e 90 eb b3 bd
       0.04556531 0.08617477 0.16184993 -0.08785164
000060 70 6c b8 3d d5 c6 56 bd ac cf ff 3d 92 b2 2e be
       0.09005058 -0.052435715 0.12490782 -0.17060307
000070 13 f1 d0 bd 43 ce 8b bd fe c0 69 bd d3 e5 2b be
       -0.10202231 -0.06826451 -0.057068817 -0.1678689

conv_col_to_row.feature_module_edge.0.weight f4 [32, 1]
000000 c3 c0 0b 3f dd 2b 1c 3f fc 0b c1 3d 81 62 ab 3e
       0.54591006 0.6100443 0.09426114 0.3347359
000010 d6 49 af 3d af fe e8 3e 87 63 3b bf d0 db a8 be
       0.08559005 0.45506808 -0.7319874 -0.32980204
000020 df 34 02 bf 70 97 54 3e d4 78 69 bf 13 06 57 bf
       -0.50861925 0.20760894 -0.91199994 -0.83993644
000030 7a c1 53 bf 5f 96 08 3e 23 3d 08 bf 55 fd b5 3d
       -0.82717097 0.13338612 -0.5321829 0.0888621
000040 5d 08 82 bd 1a b2 14 be 69 69 31 3f c3 bf 27 3f
       -0.063492514 -0.14521065 0.6930147 0.6552698
000050 7b 1d 3b bf 8a 22 18 3c 65 ec 50 bf 85 0c 30 bf
       -0.7309186 0.0092855785 -0.8161071 -0.68769103
000060 33 be 2e 3f fe 3b d1 3e c2 aa 29 bf 4e 04 27 3f
       0.6825897 0.40866083 -0.6627618 0.65240943
000070 bb c8 1d be 6f 01 16 3e 5b 72 87 be 53 eb 6b 3f
       -0.15408604 0.14648984 -0.26454434 0.9215595

conv_col_to_row.feature_module_right.0.weight f4 [32, 32]
000000 ae 1f 7a bd 3a de a3 3d 49 58 cc bd a9 19 f4 3d
       -0.06106537 0.08001371 -0.099777766 0.11918957
000010 ee f9 ad bd df ff ee bd 0b 49 61 bc b5 b6 f7 3c
       -0.08494936 -0.11669897 -0.013750325 0.030238489
000020 43 4d b8 3b f7 44 d7 bd 7f 3a bd bd b2 66 7b 3d
       0.0056244447 -0.10511201 -0.09239673 0.061377235
000030 21 d2 d1 bd 65 f3 4c 3b 11 96 9b 3d f0 ba 86 3c
       -0.10245157 0.0031273004 0.07596982 0.01644656
000040 20 af 34 3e 25 d6 27 3e cd cd b6 3c e7 08 0a 3e
       0.1764493 0.16390283 0.02231493 0.13479958
000050 94 52 2a be da e3 1c 3d 2c a1 31 3e 71 ed 71 bd
       -0.16633064 0.038303234 0.17346638 -0.059064332
000060 df db 8d 3d 0a fb 21 3d 1f 92 0d 3e 84 13 cc bd
       0.06926703 0.03954605 0.13825272 -0.0996466
000070 7e 1f ed bd 3d 3b e2 3b 26 30 e8 bd b1 a7 18 3e
       -0.11578272 0.0069040344 -0.113373086 0.14907719
000080 ac f6 1f 3e 54 cd bd 3d 31 f4 91 bc c9 da 34 3e
       0.15621442 0.09267679 -0.017816635 0.17661585
000090 ab fe 1d be 86 c6 33 3e 00 55 9e bd dc 72 17 3e
       -0.1542918 0.175562 -0.07731056 0.14789909
0000a0 42 7a dd bd 82 aa c2 bd 86 f9 d9 bd 99 f5 b7 3d
       -0.108143345 -0.09505178 -0.10643296 0.08982391
0000b0 63 c2 0d 3d 22 31 d1 3d 18 31 b8 3b 30 ad 6d bd
       0.03460921 0.102144495 0.005621087 -0.058026493
0000c0 11 1d 0d 3e 8c bb 0f be 09 18 9b 3d 7f 02 1a be
       0.13780619 -0.14036387 0.07572944 -0.15040015
0000d0 4b 37 29 3e e0 90 46 3c bc e1 72 bd ac 50 0c 3e
       0.16524999 0.012119502 -0.05929731 0.13702649
0000e0 8d 92 18 be f5 b2 c9 bd 4a 4b 11 be 67 dd 68 bd
       -0.14899655 -0.098485865 -0.14188877 -0.05685177
0000f0 e6 32 9a bd df e2 c7 3d d2 1e 18 be 47 87 99 3b
       -0.07529239 0.09760069 -0.14855507 0.004685316
000100 c8 ca 0d 3e 96 2c 1d bd ea d6 76 bd e5 67 a2 bd
       0.13846886 -0.0383726 -0.06026355 -0.079299726
000110 02 87 b6 3d af f9 e7 3d 2d a7 07 be ee 0c c5 bc
       0.089124694 0.1132692 -0.13247366 -0.024054017
000120 2f a8 19 be ca c6 56 bd 06 ef a6 3c c8 7c c6 3c
       -0.15005563 -0.052435674 0.020377647 0.024229422
000130 2b 05 03 3e c2 dd f6 3d a1 bb 53 3d 1f a7 24 be
       0.1279494 0.12054016 0.05169261 -0.16079377
000140 c3 ab 3a bd 1d e3 33 3e 56 3e 67 bd fe 81 32 3d
       -0.04557396 0.17567106 -0.056455933 0.043581
000150 db 52 df 3c 26 f0 c7 3d 6c 77 b8 bd ed b9 cb bd
       0.027261188 0.097626016 -0.09007153 -0.09947572
000160 cf ae 39 bd 04 22 ee 3d 43 5a 25 be 46 4b d2 bc
       -0.045332726 0.11627582 -0.16147713 -0.025670659
000170 8a c0 d3 3d 4b ad 0e 3e 2c ff 14 3d 53 88 b2 bd
       0.10339458 0.13933294 0.036376163 -0.08717408
000180 10 73 25 3d 28 06 08 be 0a f8 2f be 2a e8 09 3e
       0.040392935 -0.13283598 -0.17184463 0.1346747
000190 ef f7 33 be 20 44 06 be 5f c2 28 3e 0f 8e 82 3d
       -0.17575048 -0.13111925 0.16480397 0.06374752
0001a0 dd e7 d9 bd fc 83 01 be 09 53 1a be 23 b5 04 bd
       -0.106399275 -0.12648004 -0.15070738 -0.032399308
0001b0 f0 04 da bd b3 b2 a9 3d 4b b8 f8 bd a5 0f 8b bd
       -0.10645473 0.08286037 -0.12144526 -0.06790093
0001c0 d9 77 55 bd fa 49 60 3d 8e 10 97 bc 96 27 fa bc
       -0.05211625 0.05475805 -0.018440511 -0.030536454
0001d0 5b 2a a2 bd cb 7f 2d be 36 47 2e 3e bd 0b 13 3e
       -0.07918235 -0.1694328 0.17019352 0.14359947
0001e0 c0 fc 7b 3d 03 b2 42 bc 85 a1 02 3e 18 86 3d bd
       0.061520338 -0.011883262 0.12756927 -0.04627046
0001f0 cf 1c c2 3b b1 d9 e3 3d c4 20 de bd 35 79 e9 3d
       0.0059238444 0.11125506 -0.10846093 0.114000715
000200 5f fb ae bd ba 67 09 be 8d f5 2f 3e 93 fb 93 bd
       -0.08544039 -0.13418475 0.17183514 -0.07225718
000210 79 45 97 bd 42 d0 6f bd 32 d5 fe 3c de 5c 7c bc
       -0.07386298 -0.05854822 0.031107519 -0.015403001
000220 90 2e 18 be dc 7f 25 be 4a ce d6 3d f9 34 97 3d
       -0.14861512 -0.16162056 0.10488565 0.073831506
000230 bf 89 0a 3e 68 b3 26 be 5c 53 9a 3c 27 86 11 3e
       0.13529108 -0.16279376 0.018838577 0.14211331
000240 de f8 a2 bd d3 1c f9 3b 8d 26 dd 3a 9c 09 20 3e
       -0.07957624 0.007602313 0.0016872451 0.15628666
000250 2b 4e 0d be 2c c5 0c bd 43 d0 83 3d e5 ce 96 3b
       -0.1379935 -0.034367725 0.06436207 0.0046023005
000260 a0 94 1a 3d 55 8f df bd 31 ca 17 be c7 42 21 3e
       0.037739396 -0.1091601 -0.14823224 0.1574813
000270 5c 75 50 3c d0 23 91 bd b4 f2 66 bb 3b 35 4b 3d
       0.012723293 -0.07086909 -0.0035239877 0.04961131
000280 2f 17 a4 3d 6d 87 1d 3e a2 f7 2a be fb c1 0f be
       0.080122344 0.15383692 -0.16696027 -0.14038841
000290 11 fd 7b 3d 7a 9f bd bd bd c0 5a 3d 7f 66 30 3e
       0.06152064 -0.09258933 0.053406466 0.17226599
0002a0 ee 45 90 bd 21 0d 1e 3e ce 26 89 3d de 51 cf 3d
       -0.07044588 0.15434696 0.066968545 0.10123037
0002b0 ad f7 28 3e 8d d4 31 3e 27 a3 e2 3d 7f 38 bb 3d
       0.16500731 0.17366238 0.11066275 0.09141635
0002c0 31 d5 81 3d cc 55 13 3e e8 f0 2c 3e 29 83 16 be
       0.06339491 0.14388198 0.16888773 -0.14698471
0002d0 57 67 01 3e 62 c3 e0 3d 33 5e bc 3d d7 82 ad 3d
       0.12637077 0.10974766 0.091976546 0.08472221
0002e0 e7 7c b5 bd 11 f7 b9 3d ff c1 e4 3d 24 fd 37 3d
       -0.08861714 0.09080327 0.11169814 0.044919148
0002f0 58 71 1b 3d 36 92 fa bd 7e 2a 21 be db cb 6f bd
       0.03794989 -0.12234919 -0.15738866 -0.05854402
000300 d8 07 1d 3e 2f dc e5 3b d6 96 68 3d 82 ec 7c 3d
       0.15335023 0.0070147733 0.056784473 0.06174899
000310 9d ca 01 bb 54 d2 1e bb ed 01 79 bc c9 9e e9 bd
       -0.0019804605 -0.0024234252 -0.015198213 -0.11407239
000320 87 93 ab 3d 8f bf c5 bd 01 20 55 3d 77 a0 9d bd
       0.08377748 -0.096556775 0.052032474 -0.07696622
000330 bf 3c 54 bd 3f d6 9a b8 ec 83 a3 bd 8c 8b eb bd
       -0.051815744 -7.383199e-05 -0.079841465 -0.11501226
000340 7a 00 0a be 35 9d 6f 3d 30 9e 00 be a2 c9 2e be
       -0.13476744 0.058499534 -0.12560344 -0.17069104
000350 35 10 d8 bd f4 1a f1 3b 26 1e 0a 3c d7 2d fc 3b
       -0.10549966 0.0073579494 0.0084300395 0.007695894
000360 3c 8a 4b 3d 5c d5 aa bd c7 ce c8 3d 3e be 16 3c
       0.049692377 -0.08341476 0.09805065 0.009200631
000370 46 0d 0c 3e cc 5a ed 3c 2d b0 78 3d db 4d 00 be
       0.13676938 0.02897396 0.06071489 -0.125297
000380 9a 91 0c 3e dd 04 a8 bc 1c db 97 bd c2 bb 16 3e
       0.13727418 -0.020510131 -0.07414839 0.14720061
000390 1e 48 5c bd dd 77 e1 3d 8f 5c 15 3c 4b 4c 48 3b
       -0.053779714 0.1100919 0.009116306 0.0030563052
0003a0 f4 e5 18 3e 93 35 cb bd 12 a1 de 3c f2 ed a1 bd
       0.1493147 -0.09922328 0.027176414 -0.079067126
0003b0 ce c1 df 3d af 89 08 3d 37 53 c2 3d 2d 79 da 3d
       0.10925637 0.03333443 0.09488528 0.10667644
0003c0 92 ca 67 bd 7c 03 d1 bd c8 f4 3b bd b5 25 a7 3c
       -0.05658967 -0.10205743 -0.04588774 0.020403722
0003d0 3d 26 cc bd 40 78 d9 3d 97 4a c2 bd ee e9 ac 3d
       -0.09968231 0.10618639 -0.09486883 0.08443056
0003e0 f5 69 19 be bd 53 b5 bd 83 64 d7 3c da 6a 33 be
       -0.14981826 -0.088538624 0.026293045 -0.1752123
0003f0 fe 04 17 3e 24 80 1b 3e 0a 0f a1 3d c0 37 d9 bc
       0.14747998 0.151856 0.078641966 -0.026515841

conv_col_to_row.feature_module_final.0.weight f4 [32]
000000 4e b2 7f 3f 0c f3 7f 3f 00 00 80 3f 09 00 80 3f
       0.99881446 0.99980235 1.0 1.0000011
000010 00 00 80 3f 9f 06 80 3f 9a 44 80 3f 59 da 7f 3f
       1.0 1.0002021 1.0020936 0.9994255
000020 e1 d1 7f 3f 12 48 80 3f ed e4 7f 3f 73 da 7f 3f
       0.99929625 1.0021994 0.9995869 0.999427
000030 32 22 80 3f 38 ef 7f 3f ee e3 7f 3f d8 b0 7f 3f
       1.0010436 0.99974394 0.9995717 0.9987922
000040 9e 0b 80 3f 00 00 80 3f 78 03 80 3f ae 17 80 3f
       1.0003545 1.0 1.0001059 1.0007226
000050 aa 2d 80 3f 57 00 80 3f b0 f0 7f 3f 0c f2 7f 3f
       1.0013936 1.0000104 0.99976635 0.9997871
000060 97 44 80 3f a4 15 80 3f 4e 46 80 3f 00 00 80 3f
       1.0020932 1.0006604 1.0021455 1.0
000070 00 00 80 3f 40 a6 7f 3f 00 00 80 3f 00 00 80 3f
       1.0 0.9986305 1.0 1.0

conv_col_to_row.feature_module_final.0.bias f4 [32]
000000 b9 29 25 ba 47 9b 59 b9 00 00 00 00 88 69 21 35
       -0.00063004676 -0.00020752578 0.0 6.013074e-07
000010 00 00 00 00 e0 75 6e 39 92 f9 ed 39 af 8f e5 b9
       0.0 0.0002274136 0.00045390107 -0.00043785336
000020 54 24 df b9 0d e4 dc 3a eb ab 87 b9 04 8f 1c ba
       -0.0004256094 0.0016852632 -0.00025877295 -0.0005972239
000030 49 4d 31 3a be 8c 31 ba 64 06 0a 3a 92 91 cc b9
       0.00067635305 -0.00067729864 0.00052652345 -0.0003901837
000040 2f 06 8e b9 d4 e7 8a 37 24 40 9e 38 2e 4a a8 3a
       -0.00027088958 1.6558835e-05 7.545974e-05 0.001283949
000050 46 77 8a 3a 5c a8 93 b7 07 79 7f 39 71 c2 bc b9
       0.0010564111 -1.7602164e-05 0.00024363781 -0.00036003024
000060 f2 46 10 3b 47 76 00 3a e4 a7 d9 3a 00 00 00 00
       0.0022014943 0.0004900437 0.0016605821 0.0
000070 00 00 00 00 7b 85 e2 ba 00 00 00 00 00 00 00 00
       0.0 -0.0017282212 0.0 0.0
