GNN_method/ResultsGCNN/actor_85.pt (torch, 83520 bytes, 43 tensors)

row_embedding.0.weight f4 [7]
0	0x3f80bca8	1.0057573
1	0x3f805be6	1.0028045
2	0x3f7fe101	0.99952704
3	0x3f802fd2	1.0014594
4	0x3f7f70b4	0.99781346
5	0x3f809a4b	1.0047086
6	0x3f800e49	1.000436

row_embedding.0.bias f4 [7]
0	0xbb579eca	-0.0032901042
1	0xba9eaa84	-0.0012105261
2	0xba6dc1aa	-0.0009069691
3	0xbb070f24	-0.002060839
4	0x3b15f985	0.002288432
5	0xbb808462	-0.0039220313
6	0x3a237d54	0.0006236632

row_embedding.1.weight f4 [32, 7]
0	0x3d4dbb3b	0.050227385
1	0x3d3fbaa5	0.046808857
2	0x3e0d2140	0.13782215
3	0xbeb63bb7	-0.35592434
4	0xbe3a15d3	-0.18172388
5	0x3e77e40f	0.24208091
6	0xbdabe78a	-0.08393772
7	0xbe89ca4f	-0.26912162
8	0xbd873fe7	-0.06603985
9	0xbd274d5a	-0.040845253
10	0xbddb07f3	-0.106948756
11	0x3e46fbd4	0.19432002
12	0x3a82fd5a	0.0009993718
13	0xbda967d0	-0.08271754
14	0xbe00fbcb	-0.12596051
15	0xbe95c090	-0.29248476
16	0xbe90dfc3	-0.28295717
17	0x3e85bf14	0.26122344
18	0x3ea24d5f	0.31699654
19	0x3ca0f086	0.01964594
20	0xbe4ed0a9	-0.20196785
21	0xbe54d832	-0.20785597
22	0x3e0b6bd6	0.13615355
23	0x3ea2ba1c	0.31782615
24	0xbeb6ff17	-0.35741493
25	0x3cdbe3a8	0.026841953
26	0x3ba618c8	0.005068872
27	0x3e44d870	0.1922319
28	0xbe0ecfed	-0.13946505
29	0xbd05e943	-0.03269316
30	0xbe9d4fa1	-0.30724815
31	0x3e56371e	0.20919463
32	0xbe4fa538	-0.2027787
33	0xbe4ea174	-0.20178777
34	0xbe488cf1	-0.19585015
35	0xbddc413e	-0.107546315
36	0x3d6a7249	0.057237897
37	0xbc1350e4	-0.008991454
38	0xbeb78e0a	-0.35850555
39	0x3dbfcf3b	0.09365698
40	0xbe54f576	-0.20796761
41	0x3ea01655	0.31267038
42	0xbe8a053f	-0.26957127
43	0xbeabb567	-0.33536837
44	0x3e8bcdd5	0.27305475
45	0xbe66ae85	-0.22527511
46	0xbea09295	-0.31361833
47	0xbd6bba4f	-0.057550725
48	0x3c87f88e	0.016598012
49	0xbe7840a4	-0.24243408
50	0x3e88c2a4	0.26711
51	0x3e6a10a5	0.22857912
52	0x3e860a59	0.2617977
53	0x3e5a2df5	0.21306594
54	0x3d07f9c4	0.03319718
55	0x3d11ab48	0.035563737
56	0xbe0cb2c6	-0.13740072
57	0xbd94745d	-0.07248757
58	0x3ce1a66e	0.02754518
59	0x3c256c49	0.010096618
60	0xbe106306	-0.14100274
61	0xbe57b3b1	-0.2106464
62	0x3e8ac40f	0.27102706
63	0x3d4d4680	0.050116062
64	0xbeaf590c	-0.34247625
65	0xbe45e8e3	-0.1932712
66	0x3eb9866f	0.36235377
67	0xbe4225c5	-0.1895972
68	0x3e83eb08	0.25765252
69	0xbeb26ba0	-0.34847736
70	0xbe8b1be5	-0.2716972
71	0x3eacf0cc	0.33777463
72	0xbdc2d30d	-0.09512911
73	0xbbc21305	-0.0059226775
74	0xbd2069f0	-0.03916353
75	0xbe8091ea	-0.25111324
76	0x3e81a7cd	0.25323334
77	0xbe399d60	-0.1812644
78	0x3c4c59ce	0.012472583
79	0xbeb67f59	-0.35644034
80	0xbd9a2b30	-0.075277686
81	0xbc7c9748	-0.015416928
82	0x3e843528	0.25821805
83	0x3e0b4fd7	0.13604675
84	0x3e943d40	0.2895298
85	0xbd91a8f8	-0.07112306
86	0xbe9decb7	-0.30844662
87	0xbdda1e5a	-0.1065032
88	0xbd8f7bf7	-0.07006066
89	0x3ea2ce46	0.31798
90	0xbe68d370	-0.22736907
91	0x3e815be4	0.2526542
92	0x3e5bdf5a	0.2147192
93	0xbe5ead3e	-0.21745774
94	0xbe7d8e61	-0.24761344
95	0xbe1fe380	-0.15614128
96	0xbe19abb1	-0.15006901
97	0xbe8b3df3	-0.271957
98	0xbebb4ca0	-0.36581898
99	0x3db176da	0.08665247
100	0x3dcd8b16	0.10036294
101	0xbe8f10ed	-0.279426
102	0x3e8c3060	0.27380657
103	0xbe1220b4	-0.14270288
104	0xbdeee2ca	-0.1166435
105	0x3d91e914	0.07124534
106	0x3e95334a	0.29140693
107	0xbea4d0a8	-0.32190442
108	0xbda127c8	-0.07868916
109	0x3de39d1f	0.11113953
110	0xbea1ff42	-0.3164006
111	0x3e97d71a	0.29656297
112	0x3e138a56	0.1440824
113	0x3ea66d61	0.32505324
114	0xbcf61b72	-0.030042384
115	0x3e34a163	0.17639689
116	0xbe8099d0	-0.2511735
117	0x3eb4f75a	0.35344964
118	0x3dc2827d	0.09497545
119	0x3e49f7d5	0.19723447
120	0xbe5c34c3	-0.21504502
121	0xbe86ea77	-0.26350757
122	0xbea4da2a	-0.32197696
123	0xbeb00d27	-0.34385034
124	0x3ba7a4a9	0.0051160646
125	0xbcc957b0	-0.024577945
126	0xbeb36b47	-0.35042784
127	0x3eb13d26	0.34616965
128	0xbe2ea8e7	-0.17056619
129	0xbe9be9e3	-0.3045188
130	0xbe29f6c6	-0.16598043
131	0x3ea09b98	0.3136871
132	0x3da7f11d	0.082002856
133	0xbe4c4fb7	-0.19952284
134	0xbe2e5e67	-0.17028199
135	0xbe7b768d	-0.24556942
136	0x3df73e97	0.12072485
137	0x3e7cc804	0.24685675
138	0xbe4998c6	-0.19687185
139	0x3eba2445	0.36355796
140	0x3ea6fed0	0.32616282
141	0x3dffe219	0.124942966
142	0xbc22f842	-0.009946885
143	0x3e8d5f6f	0.27611873
144	0x3dd8c40c	0.10584268
145	0xbeaa5828	-0.33270383
146	0xbe82e167	-0.25562593
147	0x3e479ab5	0.1949261
148	0x3ce60efc	0.028083317
149	0x3eb46ea3	0.3524066
150	0xbe89d204	-0.26918042
151	0xbe9138c6	-0.28363627
152	0xbdd5aadc	-0.104329795
153	0xbe68f037	-0.22747885
154	0x3e93c578	0.28861594
155	0x3d08478c	0.033271357
156	0xbe052ff7	-0.13006578
157	0xbd58ea65	-0.05295791
158	0x3cf4dce8	0.029890493
159	0xbe8e6c6b	-0.2781709
160	0x3d23ab3d	0.039958227
161	0xbe7d069e	-0.24709556
162	0x3d701079	0.05860946
163	0x3e0a8120	0.1352582
164	0xbe6b8465	-0.22999723
165	0xbe53d687	-0.20687304
166	0xbc198154	-0.009369213
167	0x3e993263	0.29921255
168	0x3e3f0c9b	0.18657152
169	0xbdbac82a	-0.091202095
170	0x3ea94619	0.33061293
171	0x3dc89a56	0.09795062
172	0x3ebb31a4	0.3656131
173	0x3e8886be	0.266653
174	0xbe85bc05	-0.2612001
175	0x3cbc8426	0.023012232
176	0x3e6d37d1	0.23165824
177	0x3d9d5c34	0.07683602
178	0x3df3f4dc	0.119119376
179	0x3e9fa07b	0.31177124
180	0xbe8e9121	-0.278451
181	0x3dfe9dd4	0.12432447
182	0xbdf90c00	-0.12160492
183	0xbe207db2	-0.15672949
184	0x3eade642	0.33964735
185	0x3e8a2a77	0.26985523
186	0x3e7cf5a4	0.2470308
187	0x3d153f78	0.03643748
188	0xbe966e56	-0.29381055
189	0x3eae0a66	0.33992308
190	0x3dcfb43e	0.101418
191	0xbd1f3f31	-0.038878623
192	0xbe933e92	-0.28758675
193	0xbddb2935	-0.10701219
194	0xbea80247	-0.32814237
195	0x3e981cad	0.29709378
196	0x3ea5d158	0.3238628
197	0x3d945280	0.07242298
198	0x3ea1bda2	0.3158999
199	0xbe75aca3	-0.23991637
200	0xbe5a4de2	-0.21318772
201	0x3e3853fd	0.18000789
202	0x3ebec947	0.37262937
203	0xbe75a1b1	-0.23987462
204	0xbe9d6e0b	-0.3074802
205	0x3e0440eb	0.12915389
206	0x3deb2825	0.11482266
207	0x3e87fb8c	0.26559103
208	0x3d66751f	0.05626404
209	0xbec1e736	-0.37871712
210	0x3e198be4	0.1499477
211	0xbe3ce8c1	-0.18448164
212	0x3e481a3a	0.19541255
213	0xbe8f7a1f	-0.28022859
214	0xbe95c21f	-0.29249665
215	0x3d0a70ff	0.033799168
216	0xbd7fa611	-0.062414233
217	0xbeb359a9	-0.35029343
218	0xbe3f1335	-0.1865967
219	0xbe9ebc36	-0.3100297
220	0x3ddae273	0.10687723
221	0x3dcdf00f	0.10055553
222	0xbdf34dd5	-0.1188008
223	0xbea1bc6f	-0.31589076

row_embedding.1.bias f4 [32]
0	0xbd529616	-0.051412664
1	0x3e8374c4	0.25675023
2	0x3de19ee9	0.11016638
3	0xbebcbfcb	-0.36865076
4	0x3da5deed	0.0809916
5	0xbdf07cee	-0.117425784
6	0x3c9c8a72	0.019108985
7	0xbddbaa7e	-0.10725878
8	0x3e1dc1d6	0.15405974
9	0xbe56a6f9	-0.20962133
10	0xbeb2f9f6	-0.3495633
11	0xbcd3cafd	-0.025853628
12	0x3ea233f0	0.3168025
13	0x3e1b3f54	0.15160877
14	0x3eb17b54	0.34664404
15	0x3dda124f	0.10648023
16	0xbe249a24	-0.16074425
17	0x3c779790	0.015111819
18	0xbdf3a6d2	-0.11897053
19	0x3e9fd231	0.3121505
20	0x3e8f9e59	0.28050497
21	0xbce30383	-0.027711635
22	0x3e5bb39f	0.21455239
23	0xbdcf1ba5	-0.10112695
24	0x3ea4b54e	0.32169574
25	0x3e5458af	0.20736955
26	0xbe16ddbb	-0.14733021
27	0x3e003785	0.12521179
28	0xbe973b9e	-0.29537672
29	0xbe47f1a3	-0.19525771
30	0x3cb320b6	0.021866184
31	0xbe5d2c97	-0.21599041

row_embedding.3.weight f4 [32, 32]
0	0xbdfd70d6	-0.12375037
1	0xbd218a37	-0.039438453
2	0x3d92dadb	0.071706496
3	0x3c41b78a	0.011823544
4	0x3dcfc8ac	0.10145697
5	0x3b98a2b4	0.0046580676
6	0x3e27e50a	0.16395965
7	0x3e15453e	0.14577195
8	0x3dd141e0	0.10217643
9	0xbe15447c	-0.14576906
10	0x3d14cb03	0.03632642
11	0x3d01fb21	0.031733636
12	0x3dce7f1c	0.10082838
13	0xbae06bc0	-0.0017121956
14	0x3e0cdd83	0.13756375
15	0x3e207a38	0.15671623
16	0x3e1d0bf8	0.15336597
17	0x3d1d5a19	0.038416002
18	0xbdf4ece7	-0.11959248
19	0x3dda9ea4	0.106747895
20	0x3d1bb263	0.03801192
21	0x3d5bf72f	0.05370253
22	0x3d353117	0.04423627
23	0x3deb5944	0.114916354
24	0xbe269484	-0.16267592
25	0x3dd9f861	0.10643078
26	0x3e0372a0	0.12836695
27	0x3e1a2729	0.15054001
28	0x3c93a2cb	0.018021962
29	0xbe1c7d64	-0.15282208
30	0x3e16afb4	0.14715463
31	0xbce8aad4	-0.02840177
32	0x3d0bb95a	0.034112312
33	0x3ceb26fc	0.028705113
34	0xbe36bb35	-0.17844851
35	0x3c01d7a1	0.007924945
36	0xbc8f4683	-0.017489677
37	0xbd549d01	-0.051907543
38	0x3da032b0	0.07822168
39	0x3d30eca5	0.04319443
40	0xbdbf5576	-0.09342472
41	0xbd22444a	-0.039615907
42	0xbdda8e62	-0.106716886
43	0xbe24fdba	-0.16112414
44	0x3db075b6	0.086162016
45	0x3dc9daba	0.09856172
46	0x3e20a63d	0.15688415
47	0xbe2a3554	-0.16621906
48	0xbd41ccba	-0.047314383
49	0x3e05d162	0.13068154
50	0x3d95f488	0.07322031
51	0xbe0b1c20	-0.13584948
52	0x3e00e0d4	0.12585765
53	0x3df9fac0	0.1220603
54	0x3e0444ee	0.1291692
55	0x3df9e8f1	0.12202633
56	0x3e0f8688	0.14016163
57	0xbd92cedb	-0.07168361
58	0x3e0f74e9	0.14009441
59	0x3ddde7d0	0.1083523
60	0xbe092ed7	-0.13396774
61	0x3d6fa782	0.058509357
62	0xbe0be194	-0.1366027
63	0xbdbf3f14	-0.09338203
64	0x3c6fd490	0.014638081
65	0x3e26c1cd	0.16284867
66	0xbdd962e3	-0.10614564
67	0xbe16e1c3	-0.14734559
68	0x3e2d84cc	0.16945189
69	0xbdad992b	-0.0847648
70	0xbe2793f9	-0.16365041
71	0xbd8f9537	-0.07010882
72	0x3df38585	0.11890701
73	0x3d0177de	0.031608455
74	0x3e253b3e	0.1613588
75	0x3dd23cac	0.102654785
76	0x3c287ade	0.0102832
77	0x3e25a716	0.1617702
78	0xbda4e87f	-0.080521576
79	0x3daded5f	0.084925406
80	0xbd1958a2	-0.037438042
81	0xbca0b3a2	-0.019616906
82	0x3d34ed21	0.044171456
83	0x3dffbbca	0.1248699
84	0x3e1b1a44	0.15146738
85	0x3d4e1829	0.05031601
86	0xbd6a9e0d	-0.057279635
87	0x3e2ea831	0.17056347
88	0x3d0645cd	0.03278141
89	0x3d69771b	0.056998353
90	0x3d64be9e	0.05584585
91	0xbe2a23ab	-0.16615169
92	0x3e294767	0.16531144
93	0x3e289ac6	0.16465291
94	0x3e0408fd	0.12894054
95	0x3e1da28d	0.1539404
96	0xbda42134	-0.080141455
97	0xbd1d1bac	-0.038356468
98	0xbe1e89e7	-0.15482293
99	0x3d66f125	0.056382317
100	0x3d3f5fbb	0.046722155
101	0x3d716e27	0.05894294
102	0x3e2d4cf0	0.1692388
103	0xbcc64999	-0.024205016
104	0x3db410a9	0.0879224
105	0x3dec92d7	0.11551445
106	0xbdde9bea	-0.10869582
107	0xbd02e8ce	-0.0319603
108	0x3e020661	0.12697746
109	0xbdd45cd7	-0.1036927
110	0x3d7a3514	0.061085775
111	0x3db49d31	0.088190444
112	0xbca0ab79	-0.019613015
113	0x3e2c7d81	0.16844751
114	0xbd8d93b2	-0.06912936
115	0x3d929917	0.07158106
116	0xbd254d21	-0.04035676
117	0xbe22a360	-0.15882635
118	0x3d94734e	0.07248555
119	0xbd8b0cca	-0.06789549
120	0xbb6027cf	-0.0034203415
121	0x3e1d3992	0.15353993
122	0xbda37c2f	-0.079826705
123	0xbd87642e	-0.06610905
124	0xbe33f795	-0.17574914
125	0xbe0250b4	-0.12726098
126	0xbdf0c1c5	-0.117557086
127	0x3d356c03	0.04429246
128	0x3db5c05a	0.08874579
129	0xbcefe23f	-0.029282687
130	0xbdea43a6	-0.11438684
131	0x3c0346f1	0.008012519
132	0x3dac53b8	0.084144056
133	0xbd87891b	-0.06617948
134	0xbde5b91c	-0.112169474
135	0x3dbd48d4	0.092424065
136	0xbe30ca0d	-0.17264576
137	0x3d94f98a	0.07274158
138	0x3e0d4b17	0.13798176
139	0xbe316059	-0.1732191
140	0xbd49bd9f	-0.049253102
141	0xbd342da4	-0.04398884
142	0x3c1d19e9	0.009588697
143	0xbe3ce2d7	-0.18445908
144	0xbde26137	-0.110536985
145	0xbdd2cc69	-0.102928944
146	0x3d89b2c6	0.067235515
147	0x3d7e5db5	0.062101085
148	0xbe0f702d	-0.14007635
149	0x3d32f3d1	0.043689553
150	0x3af28a43	0.001850434
151	0x3d812367	0.063055806
152	0xbd8c8cf3	-0.068628214
153	0x3deeb175	0.11654941
154	0xbda71a7a	-0.08159347
155	0xbe0daf38	-0.13836372
156	0x3dd26ef3	0.10275068
157	0xbe324643	-0.17409615
158	0x3df00d74	0.11721316
159	0xbd4d4c54	-0.05012162
160	0xbdb2b80a	-0.08726509
161	0xbe234067	-0.15942536
162	0xbd07c690	-0.03314835
163	0x3d7ada7d	0.061243523
164	0xbd666213	-0.056245875
165	0x3e27185d	0.16317888
166	0x3dbdcf9b	0.09268113
167	0x3d780f50	0.06056148
168	0xbe28bb38	-0.16477668
169	0x3b7bed71	0.0038441087
170	0xbe01be7d	-0.12670322
171	0x3d3d2509	0.046177898
172	0xbd211fba	-0.039336897
173	0x3de01a12	0.109424725
174	0xbb21fc47	-0.002471702
175	0xbe278ad5	-0.16361554
176	0xbdc6bdb1	-0.097041495
177	0xbe33d467	-0.17561494
178	0xbd370fa8	-0.044692665
179	0x3dae2a9b	0.0850422
180	0xbe13f315	-0.14448197
181	0x3df0aa6f	0.11751258
182	0xbe328c8b	-0.17436425
183	0xbc584566	-0.01320014
184	0x3a1bef01	0.0005948395
185	0xbdb54fbd	-0.088530995
186	0xbe1c7012	-0.15277126
187	0xbdc63b49	-0.096792765
188	0xbe1317ba	-0.1436452
189	0xbca437f9	-0.020046221
190	0x3cdbe4dc	0.026842527
191	0xbe27d085	-0.16388138
192	0x3da4ebd4	0.08052793
193	0x3e03766c	0.12838143
194	0x3df93908	0.12169081
195	0xbd34f42e	-0.04417818
196	0x3e0fe1f6	0.14051041
197	0x3d789aa1	0.06069434
198	0xbe01cfee	-0.12676975
199	0xbdadf0b6	-0.084931776
200	0xbe1b3045	-0.15155132
201	0x3da650fc	0.08120915
202	0x3e0604dd	0.13087793
203	0x3d8eda1a	0.06975193
204	0xbcf9df07	-0.030501856
205	0xbe164e62	-0.14678338
206	0xbe2df624	-0.16988426
207	0x3cbcd9c7	0.023053063
208	0xbcd42743	-0.025897628
209	0x3e0e044e	0.1386883
210	0xbd9804a2	-0.07422759
211	0x3e0f78da	0.14010945
212	0x3db7fd0d	0.089838125
213	0x3ddaf8dc	0.106919974
214	0x3d24da07	0.04024699
215	0x3e0adc8d	0.13560696
216	0xbdc0657b	-0.09394356
217	0xbd44a3be	-0.04800772
218	0xbdb7dd46	-0.089777514
219	0x3c624efd	0.013812778
220	0x3e29431d	0.16529508
221	0xbd45bd76	-0.048276387
222	0xbd232e47	-0.039839055
223	0x3ddade22	0.106869
224	0xbd65c77d	-0.05609845
225	0xbd30bba2	-0.04314769
226	0xbdeec0af	-0.11657845
227	0xbe03dc01	-0.12876894
228	0x3d1998f0	0.03749937
229	0x3e0d27de	0.1378474
230	0x3e0e7ab5	0.13913997
231	0xbdcb176e	-0.09916578
232	0x3db424d0	0.08796084
233	0xbdd8eee9	-0.105924435
234	0xbe329954	-0.17441303
235	0xbb34208d	-0.0027485222
236	0x3e1d30f0	0.153507
237	0xbc96d9f3	-0.018414473
238	0xbe169849	-0.1470653
239	0xbd75d9df	-0.06002223
240	0x3d8e0774	0.06935015
241	0x3e08b486	0.13350114
242	0xbe338a8e	-0.17533323
243	0x3d3516ba	0.044211127
244	0x3d7f88ec	0.06238644
245	0x3d2b393f	0.04180264
246	0xbe31984d	-0.17343254
247	0xbd7efed1	-0.06225473
248	0xbcc8b68d	-0.02450111
249	0xbdc81611	-0.09769834
250	0xbdfe6635	-0.12421838
251	0x3d0182fe	0.031619065
252	0xbc8974ec	-0.016779386
253	0xbb349a28	-0.0027557705
254	0xbdfd3709	-0.12364013
255	0x3e123888	0.14279377

row_embedding.3.bias f4 [32]
0	0x3dde8a8b	0.10866269
1	0xbd578206	-0.052614234
2	0xbd77068c	-0.060308978
3	0xbd2f165b	-0.04274593
4	0x3c539ee3	0.0129162995
5	0xbe04ea03	-0.12979893
6	0x3dd7ef9e	0.1054375
7	0x3e110dfc	0.14165491
8	0xbd814007	-0.0631104
9	0x3dd1c706	0.10243039
10	0x3e080fe4	0.13287312
11	0x3dca3f2e	0.09875332
12	0xbc9e4108	-0.019318119
13	0x3d32725c	0.043566093
14	0x3dd652af	0.104649894
15	0x3dd87a51	0.10570205
16	0x3dc57d9b	0.09643098
17	0xbd9618e9	-0.0732897
18	0x3d47d69e	0.04878866
19	0x3dc34b88	0.09535891
20	0xbc0791f3	-0.008274543
21	0x3d05c4d7	0.032658424
22	0x3d6070ee	0.0547952
23	0x3d85928b	0.065220915
24	0x3dda25b8	0.106517255
25	0x3d2c4485	0.042057533
26	0x3e28dbf5	0.16490157
27	0xbd649e6e	-0.055815153
28	0x3bddcb4d	0.00676862
29	0xbc060cc7	-0.008181757
30	0xbe180b97	-0.14848171
31	0x3df5a40f	0.11994182

col_embedding.0.weight f4 [7]
0	0x3f7f85e4	0.99813676
1	0x3f8001f5	1.0000597
2	0x3f7fe3b0	0.999568
3	0x3f80030d	1.0000931
4	0x3f7f949a	0.99836123
5	0x3f7fd1a5	0.9992927
6	0x3f801726	1.0007064

col_embedding.0.bias f4 [7]
0	0xbafeeb95	-0.0019448871
1	0xb87913d1	-5.938468e-05
2	0xb9b2f1d0	-0.0003413097
3	0xb93f19c9	-0.00018224785
4	0x3a60e449	0.0008578939
5	0x3a581b10	0.0008243779
6	0x3a20735f	0.0006120707

col_embedding.1.weight f4 [32, 7]
0	0x3eb4583b	0.35223565
1	0x3bc2a3d8	0.005939942
2	0x3a077e7e	0.000516869
3	0xbe31ed0e	-0.17375585
4	0x3e8d34ad	0.2757925
5	0xbeb9fa28	-0.36323667
6	0xbdcd3e21	-0.10021616
7	0xbdee0b36	-0.11623232
8	0xbe84749e	-0.25870222
9	0xbe28104c	-0.16412467
10	0x3e3e3aff	0.18577193
11	0xbe5a8833	-0.21341018
12	0x3ba7aa06	0.005116704
13	0xbe71f89f	-0.23629998
14	0xbe49f2d5	-0.1972154
15	0x3c55893e	0.013033209
16	0x3e8aaf6a	0.27086955
17	0xbe353000	-0.17694092
18	0x3cfd0a0d	0.030888582
19	0x3db88bb1	0.09011019
20	0x3e57b3f1	0.21064736
21	0x3e914365	0.2837173
22	0x3e90adcf	0.28257605
23	0xbdd385c3	-0.103282474
24	0x3d78479f	0.06061518
25	0xbe9ddfee	-0.30834907
26	0xbc91ef35	-0.017814258
27	0x3e357947	0.17722045
28	0x3e173706	0.14767084
29	0x3ea4c487	0.32181188
30	0x3e96f8e7	0.29486772
31	0xbe368a41	-0.17826177
32	0xbd86d4cd	-0.06583557
33	0xbe8053f5	-0.25064054
34	0xbeba9ab0	-0.36446142
35	0xbec11da4	-0.37717927
36	0x3d19a057	0.037506428
37	0xbd91b7e1	-0.0711515
38	0x3e77484f	0.24148677
39	0xbe6a7a90	-0.22898316
40	0x3e2c6ed0	0.16839147
41	0xbdf75d3f	-0.12078332
42	0xbd08ad2b	-0.03336827
43	0x3eba0398	0.36330867
44	0x3ebeec38	0.37289596
45	0x3e51772a	0.20455614
46	0x3e6c21be	0.23059747
47	0x3d1567a9	0.03647581
48	0x3e303bb8	0.17210281
49	0x3d9ee48d	0.07758436
50	0xbdfc818c	-0.123293966
51	0x3e3d8dcd	0.18511124
52	0xbeb5cfd8	-0.35510135
53	0x3d901808	0.070358336
54	0x3d947903	0.07249644
55	0x3e0617d1	0.13095023
56	0xbde1850a	-0.11011703
57	0xbe38f480	-0.1806202
58	0xbdbe7fd4	-0.09301725
59	0xbc5bf888	-0.013425954
60	0xbe6550a9	-0.2239405
61	0xbe1e3dac	-0.15453213
62	0x3e36d829	0.17855896
63	0x3d9a9325	0.07547597
64	0xbea68410	-0.3252263
65	0xbd5c453c	-0.053776965
66	0xbcca1971	-0.024670335
67	0x3e27329e	0.16327903
68	0x3e9a3d1d	0.3012475
69	0xbec13faa	-0.37743884
70	0x3eba814a	0.36426765
71	0x3c958f83	0.018256908
72	0x3eb9a252	0.36256653
73	0xbe0348d0	-0.12820745
74	0xbe921c37	-0.2853715
75	0xbe73d703	-0.23812489
76	0xbe7042d9	-0.23463
77	0x3eb7189f	0.35760972
78	0x3e07ae9a	0.13250199
79	0xbe88c2e5	-0.26711193
80	0xbd85fba8	-0.0654214
81	0xbe31dbf1	-0.17369057
82	0xbe6cd921	-0.23129703
83	0x3e62d194	0.2215026
84	0x3e963455	0.293368
85	0xbe9925d4	-0.29911673
86	0x3cc56d83	0.02410007
87	0x3e7d75ef	0.2475202
88	0x3e261c17	0.16221653
89	0xbd9590a8	-0.073029816
90	0xbe699a35	-0.22812732
91	0xbea5dfba	-0.32397252
92	0xbe560eb9	-0.20904054
93	0x3c6dbe5c	0.014510717
94	0xbd093444	-0.03349711
95	0x3e4b9f65	0.19885023
96	0x3e29d5bf	0.16585444
97	0xbc1be522	-0.009515079
98	0xbc74a2f2	-0.014931427
99	0x3e3f3f76	0.18676552
100	0xbe3e8815	-0.18606599
101	0x3e5d7dec	0.21630067
102	0x3ea2dcaa	0.31808978
103	0x3e637ea7	0.22216283
104	0x3dae6937	0.08516162
105	0x3d3d3400	0.04619217
106	0xbcdf1bab	-0.027234873
107	0x3e4aad90	0.19792771
108	0x3e84207a	0.25806028
109	0xbcd84fd8	-0.02640526
110	0x3e028019	0.12744178
111	0xbe911fce	-0.28344578
112	0x3e416735	0.18887027
113	0x3e8bd736	0.2731263
114	0xb973206e	-0.00023186367
115	0xbe1dfb23	-0.15427832
116	0xbdc083b7	-0.094001226
117	0xbdfc8bb0	-0.12331331
118	0xbeaf6b19	-0.34261397
119	0x3ea7b0ae	0.32751983
120	0xbc4ea2d1	-0.012612061
121	0xbea3ceb2	-0.31993634
122	0x3e83a971	0.2571521
123	0x3ea2cc61	0.31796554
124	0x3e9fa8d9	0.31183508
125	0xbe6c07b8	-0.2304982
126	0xbe839e76	-0.25706834
127	0x3d9df8c7	0.07713466
128	0x3d8f8429	0.070076294
129	0xbe6249b1	-0.22098424
130	0x3d895311	0.06705297
131	0x3e816b95	0.2527739
132	0xbe8dbe1a	-0.27684098
133	0x3ebe6385	0.37185302
134	0xbeb2c19a	-0.3491333
135	0xbdadbb81	-0.08483029
136	0xbd644019	-0.05572519
137	0x3db2e055	0.08734194
138	0xbc3d9c6b	-0.0115729375
139	0x3e80ccde	0.251563
140	0x3d8ae6d3	0.067823075
141	0xbe23bf52	-0.15990952
142	0xbebe3a61	-0.37153915
143	0xbe953d03	-0.2914811
144	0x3e532f9e	0.20623633
145	0x3e21fe20	0.15819597
146	0x3e5087b9	0.20364274
147	0xbd30086b	-0.042976778
148	0x3dddd039	0.10830731
149	0xbea48146	-0.32129878
150	0x3c320572	0.010865556
151	0xbe1fcc25	-0.15605219
152	0xbe81813e	-0.25293916
153	0xbdb861b1	-0.09003008
154	0x3e66f9a6	0.22556171
155	0x3e6c83d8	0.2309717
156	0x3d694867	0.056953814
157	0xbd822361	-0.06354404
158	0xbe3196df	-0.17342709
159	0xbc702f93	-0.01465978
160	0xbd3e1ded	-0.04641526
161	0x3e66b162	0.22528604
162	0x3deb4a62	0.11488797
163	0xbe92a0f4	-0.28638422
164	0xbea3f6a2	-0.32024103
165	0x3dffda58	0.12492818
166	0x3ce88bc3	0.028386956
167	0x3e0cd13b	0.1375169
168	0xbe2c622d	-0.16834326
169	0x3e25024a	0.16114154
170	0xbe9ce4d5	-0.30643335
171	0x3db063e3	0.08612802
172	0xbe835923	-0.25653943
173	0xbe9894e1	-0.29801086
174	0xbda1b9a3	-0.078967355
175	0x3e8b4383	0.27199945
176	0xbe848f21	-0.2589045
177	0xbe889b46	-0.26680964
178	0x3e3ee7d9	0.1864313
179	0xbeb4959c	-0.35270393
180	0xbc07707b	-0.0082665635
181	0xbe873649	-0.26408604
182	0x3e896f3a	0.26842672
183	0xbd64cee2	-0.05586136
184	0xbdc94a6c	-0.09828648
185	0xbe696445	-0.22792156
186	0x3ccadc29	0.024763184
187	0x3e14036e	0.14454433
188	0x3dcb079b	0.0991356
189	0x3e49409c	0.19653553
190	0x3ebe09c7	0.37116835
191	0x3e3d2084	0.18469435
192	0x3ea0224c	0.31276166
193	0x3d9d75dc	0.076884955
194	0xbe6e346a	-0.23262182
195	0xbe970fee	-0.2950434
196	0x3eb79b08	0.35860467
197	0xbe0bda7b	-0.13657562
198	0x3ea724a8	0.32645154
199	0x3d55d51a	0.052205183
200	0xbe06293e	-0.1310167
201	0xbe63e6e2	-0.22256044
202	0xbeb22884	-0.34796536
203	0x3c8eea21	0.017445626
204	0x3dcdb9e9	0.10045225
205	0xbbbae084	-0.005703034
206	0xbe9bc5b7	-0.30424282
207	0x3e90281e	0.28155607
208	0x3e878ba8	0.26473737
209	0x3eb738da	0.35785562
210	0x3eb29fcc	0.3488754
211	0xbdd3491b	-0.10316678
212	0xbe446b2d	-0.1918151
213	0x3e3646b2	0.17800406
214	0x3c2b4552	0.010453539
215	0x3e10dcc4	0.14146715
216	0xbd5d4bfc	-0.054027542
217	0x3e333af0	0.17502952
218	0xbebb5b22	-0.36592966
219	0x3eb0a6ab	0.34502158
220	0x3e2272cf	0.15864109
221	0x3eb97d22	0.3622828
222	0x3ba7d1d2	0.005121448
223	0x3e74edb0	0.23918796

col_embedding.1.bias f4 [32]
0	0xbe882abf	-0.26595113
1	0xbe308887	-0.17239581
2	0xbd9f25ba	-0.07770868
3	0xbe9305b7	-0.28715298
4	0xbe9a5760	-0.30144787
5	0x3e8b2a08	0.27180505
6	0xbe48eceb	-0.19621627
7	0xbe249d74	-0.16075689
8	0xbd234f50	-0.03987056
9	0xbd158fbc	-0.03651403
10	0x3dc62dbe	0.096766934
11	0x3e8a8ee5	0.27062145
12	0x3d6cf5b3	0.057851505
13	0xbe2eb07c	-0.17059511
14	0x3dff9442	0.1247945
15	0xbec0d793	-0.3766447
16	0x3eb58bc4	0.35458195
17	0x3bc0e45a	0.0058865966
18	0xbe53b9c8	-0.20676339
19	0xbd262cba	-0.04057
20	0xbcd4c8ec	-0.025974713
21	0xbea934a7	-0.33047983
22	0x3e8e5228	0.27797055
23	0x3d9cdb3a	0.07659002
24	0xbeb50725	-0.35357013
25	0x3e9c0601	0.3047333
26	0xbe8f8d2a	-0.28037387
27	0xbda781ad	-0.081790306
28	0x3de7ca9c	0.113179415
29	0x3eb56cdd	0.3543462
30	0xbd5218a9	-0.05129305
31	0x3eabd025	0.3355724

col_embedding.3.weight f4 [32, 32]
0	0x3e0b2ba4	0.13590866
1	0x3e02decf	0.12780307
2	0xbbe16954	-0.006879011
3	0xbe103a72	-0.14084795
4	0x3d9da485	0.07697395
5	0xbd023588	-0.031789333
6	0xbe2b3e44	-0.16722971
7	0x3e0bcca9	0.1365229
8	0x3e0d7b9c	0.13816684
9	0x3e18c414	0.14918548
10	0x3dc1c8ca	0.094621256
11	0x3de18f3e	0.110136494
12	0xbe150a9a	-0.14554825
13	0xbbd66f92	-0.006544062
14	0x3d6e746a	0.05821649
15	0x3d9548d9	0.07289285
16	0xbd62f4a2	-0.05540908
17	0xbd179d11	-0.037015025
18	0xbe06a0b8	-0.13147247
19	0xbe214cfb	-0.15752022
20	0x3be7dc5f	0.007075831
21	0x3e30718e	0.17230818
22	0xbdf47156	-0.119356796
23	0x3e281698	0.16414869
24	0xbe230fdb	-0.15924017
25	0xbdf7000e	-0.12060557
26	0xbe0fbb09	-0.14036192
27	0xbe01929c	-0.12653583
28	0x3e14f07b	0.14544861
29	0x3b429a0f	0.0029693877
30	0xbd45269d	-0.048132528
31	0x3e2edf28	0.17077315
32	0x3db20426	0.086921975
33	0xbe0ced8f	-0.13762496
34	0x3e1a9f81	0.15099908
35	0xbdb5e977	-0.088824205
36	0x3dc1b7cd	0.09458885
37	0x3d4b6eac	0.04966609
38	0x3d68d47f	0.056843277
39	0xbd499e80	-0.049223423
40	0x3e25d827	0.16195737
41	0xbb9848aa	-0.004647334
42	0x3dd7911b	0.105257235
43	0x3df581a9	0.11987621
44	0xbe1dc3d4	-0.15406734
45	0xbcf8480f	-0.030307798
46	0xbdcf9e8b	-0.101376615
47	0xbc9e0b9a	-0.019292641
48	0xbe18f11d	-0.14935727
49	0xbc93744d	-0.017999792
50	0xbdec282a	-0.11531098
51	0xbd8b7200	-0.06808853
52	0x3dc539bb	0.09630152
53	0xbc70d734	-0.014699746
54	0x3e275379	0.16340436
55	0x3d742f9e	0.059615724
56	0x3d6aa83c	0.057289347
57	0x3d3ae177	0.045625176
58	0xbe34d6a4	-0.17660004
59	0x3e2d9834	0.16952592
60	0xbbec32b7	-0.007208194
61	0xbe301809	-0.17196669
62	0xbbd3f801	-0.0064687734
63	0xbdb5dfaa	-0.08880551
64	0xbd73f806	-0.059562705
65	0xbd37dd3a	-0.044888712
66	0xbcbb48a8	-0.022861794
67	0xbdd88b51	-0.105734475
68	0xbdd303fb	-0.103034936
69	0x3d7f6135	0.062348563
70	0x3e20694e	0.1566517
71	0x3e33b75c	0.17550415
72	0xbda3bead	-0.07995353
73	0xbe222aef	-0.1583669
74	0xbd0f4e2d	-0.034986664
75	0xbc656556	-0.014001211
76	0xbe1ed220	-0.15509844
77	0xbe06e339	-0.13172616
78	0xbc3917ef	-0.01129721
79	0x3d90b2d3	0.07065358
80	0x3a87f5bf	0.0010372921
81	0xbd57b274	-0.05266042
82	0xbcc44e85	-0.023963222
83	0x3e260160	0.16211462
84	0x3d9938a9	0.0748151
85	0xbdcb7483	-0.09934332
86	0x3dd738fa	0.10508914
87	0x3df4cf84	0.11953643
88	0xbdc64bfe	-0.09682463
89	0xbd0c28f1	-0.034218732
90	0x3de08992	0.109637395
91	0x3b9d157e	0.004793822
92	0x3ce7db21	0.028302731
93	0xbd1fd4ef	-0.03902143
94	0xbd2b6b94	-0.04185064
95	0x3dac6e3c	0.08419463
96	0x3dd9cfa3	0.10635307
97	0xbd35a25e	-0.0443443
98	0xbcb3e4d9	-0.021959709
99	0x3cd57025	0.026054451
100	0x3da0e6d2	0.078565255
101	0xbe2fac0b	-0.17155473
102	0xbd9120a3	-0.07086303
103	0x3dd6853a	0.1047463
104	0x3e1eda03	0.15512852
105	0xbe2dbedd	-0.1696734
106	0x3d26fc30	0.04076785
107	0xbd410dbe	-0.047132246
108	0x3d83bc5b	0.0643241
109	0xbc14e7e7	-0.009088493
110	0xbd9a4589	-0.07532794
111	0xbe14eddf	-0.14543866
112	0xbd5078a5	-0.050896306
113	0x3d14ce27	0.036329415
114	0xbd4e22cd	-0.050326157
115	0x3bf291ac	0.0074026193
116	0x3d79bea5	0.06097283
117	0x3debd68e	0.115155324
118	0x3df5ffde	0.120116934
119	0x3d81b120	0.06332612
120	0x3de77c3e	0.11302994
121	0xbe1be1f4	-0.15222913
122	0x3df43567	0.11924248
123	0xbcc4c479	-0.024019467
124	0x3df5f814	0.12010208
125	0x3e0b5342	0.13605979
126	0x3e0fea39	0.14054193
127	0x3d873749	0.06602342
128	0x3dd8fb0c	0.105947584
129	0x3d76bc75	0.06023832
130	0x3d023b4b	0.031794827
131	0xbdb654d6	-0.089029
132	0x3c19eb2b	0.009394447
133	0x3e110109	0.14160551
134	0xbd13562a	-0.035970844
135	0xbce959b4	-0.028485157
136	0x3e0940e4	0.1340366
137	0x3dcaded4	0.09905782
138	0xbda78e40	-0.08181429
139	0xbe243e0a	-0.16039291
140	0x3c99d1c5	0.018776784
141	0xbe099814	-0.1343692
142	0xbe0686a1	-0.13137294
143	0x3e130b8f	0.14359878
144	0x3dd2c2bf	0.10291051
145	0xbe288b2f	-0.16459344
146	0xbdbaf33b	-0.09128424
147	0x3dc74f25	0.097318925
148	0xbe05d732	-0.13070372
149	0x3d9648af	0.07338082
150	0x3cfd0be1	0.030889453
151	0xbdfa63a9	-0.1222604
152	0x3bd789d7	0.006577711
153	0x3d718bb1	0.05897111
154	0x3e2de773	0.16982822
155	0x3dd8421c	0.10559484
156	0x3cd15e6d	0.025557721
157	0xbd8d6183	-0.069033645
158	0xbe23da1c	-0.16001171
159	0x3cbd3e50	0.023101002
160	0x3cd81cc9	0.026380913
161	0x3d8d32d3	0.068944596
162	0xbd677059	-0.056503627
163	0xbe07d461	-0.1326461
164	0x3de58d56	0.11208598
165	0x3dbbf1dc	0.091769904
166	0xbd5eec92	-0.05442483
167	0x3e07c55b	0.13258879
168	0x3e1c1485	0.15242203
169	0x3dd5ef14	0.10445991
170	0xbdba78a9	-0.09105045
171	0xbdee087a	-0.116227105
172	0xbdcc6b1b	-0.09981366
173	0x3e13405d	0.14380021
174	0xbdec435a	-0.11536284
175	0x3d4c9b96	0.049953066
176	0xbd3df256	-0.046373688
177	0xbdd09cba	-0.10186143
178	0x3e0db85d	0.1383986
179	0x3d34b0e7	0.04411402
180	0xbd9a84f2	-0.075448886
181	0xbd42c6df	-0.04755294
182	0x3e005374	0.12531835
183	0xbc9783ae	-0.018495407
184	0x3d4af744	0.049552217
185	0xbe0d4acb	-0.13798063
186	0xbd8ac6e1	-0.067762144
187	0xbd42ccd0	-0.047558606
188	0x3e15f168	0.1464287
189	0xbe219471	-0.15779282
190	0x3db35789	0.087569304
191	0x3c36339c	0.011120703
192	0x3d3ce74f	0.04611903
193	0xbd7b5d0f	-0.061368044
194	0x3def620b	0.11688622
195	0xba76074b	-0.0009385242
196	0xbde7251d	-0.11286376
197	0xbc82a7a1	-0.015949072
198	0x3da222f3	0.07916822
199	0x3df83acf	0.12120592
200	0x3e31d11b	0.17364924
201	0x3e248c78	0.1606921
202	0xbcecabbf	-0.028890489
203	0xbdc2eaf8	-0.09517473
204	0x3ca59efa	0.020217407
205	0xbe22fee0	-0.1591754
206	0x3e019d3a	0.12657633
207	0x3bb24b2f	0.0054410915
208	0x3e30239f	0.17201088
209	0xbd95ac68	-0.073082745
210	0x3dcc00c0	0.099610806
211	0x3e1fc26c	0.1560151
212	0xbce82564	-0.028338142
213	0x3dcf9bd6	0.10137145
214	0xbdeca9ac	-0.115558
215	0x3e21fdaf	0.15819429
216	0x3d2e5692	0.04256303
217	0x3e109d5f	0.14122532
218	0x3cb38a30	0.021916479
219	0xbc6c7ee2	-0.014434548
220	0x3d442f62	0.04789675
221	0x3df84dfb	0.121242486
222	0x3debbf1b	0.1151106
223	0xbdf86edb	-0.12130519
224	0xbdf80458	-0.121102035
225	0x3daf039f	0.085456125
226	0x3e2bc0b4	0.16772729
227	0x3e15f5dc	0.14644569
228	0xbdd15d87	-0.10222917
229	0x3cc76cb2	0.024343822
230	0xbc767238	-0.01504188
231	0xbe19f452	-0.15034607
232	0x3e11f0a4	0.14251953
233	0x3e270a42	0.16312507
234	0x3d3ced4d	0.046124745
235	0xbde4aa32	-0.11165275
236	0xbc96f13d	-0.018425578
237	0x3dfacfd3	0.122466706
238	0xbdcade9b	-0.0990574
239	0xbd405bbb	-0.04696248
240	0xbdb1737c	-0.08664605
241	0x3c0bf054	0.008541185
242	0xbd9db1ae	-0.07699905
243	0xbcf49c4a	-0.02985968
244	0xbd4d1a91	-0.050074164
245	0x3dd8a8b7	0.10579055
246	0xbdaf9c03	-0.08574679
247	0x3d42ec86	0.047588848
248	0x3e0f1029	0.13971008
249	0x3e127607	0.14302836
250	0xbe1cda40	-0.15317631
251	0xbd5eccad	-0.054394413
252	0xbdbefaaa	-0.09325154
253	0xbe0bfb6a	-0.13670126
254	0x3d65bbdc	0.05608736
255	0x3df9b41c	0.12192556

col_embedding.3.bias f4 [32]
0	0xbd3c8183	-0.04602195
1	0x3e1a1d32	0.150502
2	0xbdc74e41	-0.097317226
3	0x3df4fa12	0.119617596
4	0xbcc1018f	-0.023560314
5	0x3e1cc26d	0.15308543
6	0x3dd6386f	0.104599826
7	0x3d0100d7	0.03149494
8	0x3e125dde	0.1429362
9	0x3e119aab	0.14219157
10	0x3e06f637	0.13179861
11	0x3e07aedd	0.13250299
12	0xbdac5b48	-0.08415848
13	0x3e218e1f	0.15776871
14	0x3d8a75b7	0.067607336
15	0xbca61daf	-0.020277826
16	0xbdc007a2	-0.09376456
17	0xbdabfe65	-0.08398131
18	0x3dec60f6	0.11541931
19	0x3e12b306	0.14326105
20	0x3dbb9514	0.09159294
21	0x3dc995ca	0.09843023
22	0xbdfcd3db	-0.12345096
23	0x3e1af4a4	0.15132385
24	0x3e0dfdd3	0.13866358
25	0xbd863328	-0.06552726
26	0x3e0adcc2	0.13560775
27	0x3dbefd54	0.09325662
28	0x3dbcf99b	0.09227296
29	0x3cf54b9c	0.02994328
30	0xbdb7f2d6	-0.08981864
31	0x3d9a68a1	0.07539488

conv_col_to_row.feature_module_left.0.weight f4 [32, 32]
0	0x3cc35500	0.023844242
1	0xbe1fd927	-0.15610181
2	0xbb5a8b4e	-0.0033347192
3	0x3d2fb834	0.04290028
4	0xbd04e5e4	-0.032445803
5	0xbdef7908	-0.11693007
6	0x3c90300c	0.017601036
7	0xbd5d16c6	-0.053976797
8	0x3e22f833	0.15914993
9	0x3c2376f5	0.009977092
10	0xbc97315c	-0.018456154
11	0x3e035e6d	0.1282899
12	0xbb24ee8b	-0.0025166597
13	0xbd4ea49d	-0.050449956
14	0xbc9748c4	-0.018467315
15	0xbc4e8325	-0.0126045095
16	0xbc43429e	-0.011917738
17	0xbe0ecccc	-0.13945311
18	0x3e03996c	0.12851495
19	0x3d037a78	0.032099217
20	0xbdc12a86	-0.09431939
21	0xbdd97bc8	-0.106193125
22	0x3da76fd5	0.08175627
23	0x3d9a3a33	0.07530632
24	0x3dc0250f	0.09382068
25	0xbddb69e4	-0.107135564
26	0xbe26b52a	-0.16280046
27	0xbe072d73	-0.13200931
28	0x3dfefcfb	0.12450596
29	0xbd498d4a	-0.04920701
30	0xbd651bfb	-0.055934887
31	0xbdd249c1	-0.10267974
32	0x3e04d366	0.12971267
33	0x3d92629f	0.07147717
34	0x3dd1509a	0.10220452
35	0xbdd00882	-0.10157873
36	0xbd066225	-0.03280844
37	0x3e23c9d1	0.15994956
38	0xbcd26a88	-0.025685564
39	0xbe33f518	-0.17573965
40	0xbdbafa1b	-0.09129735
41	0x3b9736fa	0.004614708
42	0x3decf262	0.11569668
43	0x3cfb19d4	0.030651964
44	0x3d1e12dd	0.03859221
45	0xbe017a43	-0.12644295
46	0x3cfeb44a	0.031091828
47	0x3c7641a8	0.015030302
48	0x3e01873e	0.12649247
49	0xbe071585	-0.13191803
50	0x3cce8f83	0.025214916
51	0xbddb63cf	-0.10712396
52	0xbd1bd636	-0.038046084
53	0x3dab838e	0.083747014
54	0xbe3683ba	-0.17823687
55	0x3ddc0999	0.10744018
56	0xbe29d471	-0.16584946
57	0x3d1c9542	0.03822828
58	0x3da29ada	0.07939692
59	0x3dd40671	0.10352791
60	0xbdc761a8	-0.09735423
61	0xbddc7ebe	-0.10766362
62	0x3db4fa37	0.08836787
63	0xbc88ecd3	-0.01671449
64	0x3de8a915	0.11360375
65	0xbddd4ffa	-0.1080627
66	0x3cdb84d6	0.02679674
67	0x3d891643	0.06693699
68	0x3cb6fa40	0.022336125
69	0x3e0310d7	0.12799393
70	0xbe05bb75	-0.1305979
71	0x3e2a2ce1	0.16618682
72	0xbdef0932	-0.11671676
73	0xbdd9f93f	-0.10643243
74	0x3e03968d	0.128504
75	0x3cadba16	0.021206897
76	0xbe2c4fcc	-0.16827315
77	0xbe2aeadf	-0.16691159
78	0xbda828b0	-0.082108855
79	0x3e29dc52	0.16587952
80	0x3d259a7b	0.040430527
81	0xbe05d3ed	-0.13069125
82	0x3e2fa230	0.17151713
83	0x3d8b4f8c	0.06802282
84	0xbda1ceb4	-0.079007536
85	0xbce65255	-0.02811543
86	0xbd4df50d	-0.050282527
87	0x3e33b6f9	0.17550267
88	0x3bd1adf5	0.006398911
89	0x3d5572bb	0.05211137
90	0xbe0fe211	-0.14051081
91	0x3cbc5333	0.022988891
92	0xbd8cc9ad	-0.06874404
93	0x3d899d19	0.06719417
94	0x3cd63630	0.026148885
95	0xbc3270cc	-0.010891151
96	0xbd512fe6	-0.05107107
97	0xbd7d4d24	-0.061841145
98	0x3c455159	0.012043321
99	0x3bf86ef5	0.0075815865
100	0xbc6f20ea	-0.01459525
101	0x3d51a94b	0.05118684
102	0xbc975253	-0.018471872
103	0xbd915364	-0.070959836
104	0x3e0ee1ef	0.13953374
105	0xbdc2d7c0	-0.09513807
106	0xbdff78c6	-0.124742076
107	0x3e1a85b5	0.15090068
108	0x3cdda918	0.02705817
109	0xbd0ae962	-0.033913977
110	0xbdc5de6f	-0.096615665
111	0xbd0a1921	-0.03371537
112	0xbe09086d	-0.1338212
113	0x3d21b577	0.0394797
114	0x3ca02155	0.019547144
115	0x3d97b9dd	0.074084975
116	0xbd1b4349	-0.037905965
117	0xbe2c8582	-0.16847804
118	0x3e09ba50	0.13449979
119	0xbe26345d	-0.16230913
120	0xbdeb2444	-0.114815265
121	0xbbd12b7e	-0.0063833585
122	0xbdd0d5be	-0.10197018
123	0xbdbfe6d1	-0.093701966
124	0x3df8e56e	0.12153135
125	0xbe2fb30e	-0.17158148
126	0xbcba9a77	-0.022778733
127	0x3db7195c	0.08940384
128	0xbe19eb7d	-0.15031238
129	0x3da05fe5	0.078307904
130	0x3e24b3c5	0.16084202
131	0x3a9f0e8a	0.001213507
132	0x3dbe0bfa	0.09279628
133	0xbde537a4	-0.11192253
134	0x3e06af0d	0.13152714
135	0xbe2245f7	-0.15847002
136	0x3d7fee17	0.06248292
137	0x3dd08e23	0.101833604
138	0xbdac9fd7	-0.084289245
139	0xbdd13077	-0.10214322
140	0x3d2935dd	0.041311134
141	0x3e268201	0.1626053
142	0xbda34dc9	-0.07973821
143	0x3e053163	0.13007121
144	0xbda65654	-0.081219345
145	0xbbdcece9	-0.006742109
146	0x3e085ccf	0.13316654
147	0xbe1603b8	-0.14649856
148	0xbe398c45	-0.18119915
149	0xbd01b19d	-0.031663526
150	0x3d02b61a	0.031911947
151	0x3cb9445c	0.022615604
152	0xbe337199	-0.17523803
153	0xbda5787b	-0.080796205
154	0x3d28fa46	0.041254304
155	0xbcdf69d8	-0.02727215
156	0xbe1f8186	-0.15576753
157	0x3d61c422	0.055118687
158	0x3d3c1bf7	0.045925107
159	0xbdc5ed84	-0.09664443
160	0x3bd7a1c4	0.0065805633
161	0xbe0c43ff	-0.13697813
162	0x3e22bda8	0.1589266
163	0x3da0b5b0	0.07847154
164	0x3c6ddd1c	0.014518049
165	0x3da79877	0.08183377
166	0x3d551f5a	0.052031852
167	0x3dea199c	0.11430666
168	0xbe13cfc9	-0.14434732
169	0xbd0a6c40	-0.03379464
170	0x3d884c98	0.06655234
171	0xbe173cf1	-0.14769341
172	0xbd0d5331	-0.034503166
173	0xbd812392	-0.063056126
174	0x3ca14ebe	0.019690868
175	0xbe012568	-0.12611926
176	0x3e2a6812	0.16641262
177	0xbe030bf7	-0.12797533
178	0xbd817df9	-0.063228555
179	0xbdd4dd09	-0.103937216
180	0x3dee8629	0.11646683
181	0x3df7444f	0.12073576
182	0x3d559e5d	0.05215298
183	0x3df97bbb	0.12181803
184	0x3e294c8b	0.16533105
185	0xbc0f72a9	-0.008755364
186	0xbdca1e69	-0.098690815
187	0x3e10faca	0.14158168
188	0x3d875e41	0.066097744
189	0xbe0ef162	-0.13959268
190	0x3c05bc93	0.008162635
191	0x3e31c414	0.17359954
192	0xbd4c16fc	-0.049826607
193	0xbe1f236d	-0.15540858
194	0x3e27d9c9	0.16391672
195	0x3ce71bf0	0.028211564
196	0x3d94f7b6	0.072738096
197	0xbe276c7a	-0.16349974
198	0x3e18848f	0.14894317
199	0xbde54b39	-0.11195988
200	0x3cea0605	0.028567323
201	0x3dabb1eb	0.083835445
202	0x3c74f385	0.014950638
203	0xbe3228ac	-0.17398328
204	0x3ccfd42a	0.025369722
205	0xbd9f344a	-0.07773645
206	0x3d3f6c48	0.046734124
207	0x3d9e4490	0.07727921
208	0x3cbece01	0.02329159
209	0xbccc3a30	-0.02493009
210	0xbd5fd781	-0.05464888
211	0x3dfb2e51	0.122646935
212	0xbda01511	-0.07816518
213	0x3d6f84ab	0.05847613
214	0xbdcddc40	-0.10051775
215	0xbd90623a	-0.07049985
216	0x3ce12b3b	0.027486434
217	0xbe0ca34a	-0.13734165
218	0x3d471bc8	0.04861048
219	0xbd4c9457	-0.049946155
220	0x3e2d4eb8	0.1692456
221	0x3b6eef27	0.0036458464
222	0xbe1529e4	-0.14566761
223	0x3e000ddf	0.12505291
224	0xbe00aa0d	-0.12564869
225	0x3c17270d	0.009225619
226	0xbc131b3a	-0.008978659
227	0xbdfc5fad	-0.12322936
228	0x3e1349a7	0.14383565
229	0xbdce5a75	-0.10075847
230	0x3cdaefe3	0.026725715
231	0x3e1585f6	0.14601883
232	0x3e0a87eb	0.13528411
233	0xbe1fc510	-0.15602517
234	0x3e160f03	0.14654164
235	0xbd9c7aea	-0.076406315
236	0xbb95e99b	-0.004574967
237	0xbdc7426f	-0.09729468
238	0x3c897ff3	0.016784644
239	0x3dcc8c40	0.09987688
240	0xbe05db38	-0.13071907
241	0xbb2f2e59	-0.0026730506
242	0x3e2eb2a9	0.17060341
243	0x3de91aef	0.1138209
244	0xbd1e6fcc	-0.038680837
245	0xbe18815e	-0.148931
246	0x3b440afa	0.002991377
247	0xbd855bcb	-0.06511649
248	0x3db4fb72	0.08837022
249	0x3df1d8aa	0.118089035
250	0xbdedc5d7	-0.116100006
251	0xbabef962	-0.0014570171
252	0x3dfda8ee	0.123857364
253	0x3da9a374	0.08283129
254	0xbe19212b	-0.14954059
255	0xbe17fb06	-0.14841852

conv_col_to_row.feature_module_left.0.bias f4 [32]
0	0x3dd90eb3	0.10598507
1	0x3e035932	0.12826994
2	0xbddfad07	-0.10921674
3	0x3d868f60	0.06570315
4	0xbca3ba8a	-0.01998641
5	0x3de66037	0.1124882
6	0xbdb1cc4e	-0.08681546
7	0x3e324fd4	0.17413265
8	0xbd7464c3	-0.059666406
9	0xbe14cb86	-0.14530763
10	0xbddbb89e	-0.10728572
11	0xbe1b33f0	-0.15156531
12	0x3d16f115	0.036851007
13	0x3d90e430	0.07074773
14	0xbe281c52	-0.16417053
15	0xbe1b89e1	-0.15189315
16	0x3db49913	0.08818259
17	0x3e0531ec	0.13007325
18	0x3cd02393	0.025407588
19	0x3d1b6b98	0.037944406
20	0x3d3fbec1	0.046812776
21	0x3db0cb06	0.08632474
22	0x3e25cb5a	0.16190854
23	0xbdb4019a	-0.08789368
24	0x3dba95cd	0.091106035
25	0xbd5838e2	-0.052788623
26	0x3e004054	0.12524539
27	0xbe2ed6e0	-0.17074156
28	0xbdd0ea36	-0.10200922
29	0xbd8c6811	-0.068557866
30	0xbd69ca49	-0.05707768
31	0xbe2bfe05	-0.1679612

conv_col_to_row.feature_module_edge.0.weight f4 [32, 1]
0	0x3f0af521	0.5428029
1	0x3f1bfe85	0.6093524
2	0x3dc01609	0.09379203
3	0x3eaaafd2	0.33337265
4	0x3dae5dc0	0.08513975
5	0x3ee89b42	0.45430952
6	0xbf3af4d2	-0.73029816
7	0xbea8c954	-0.329661
8	0xbf025a6d	-0.5091923
9	0x3e54ccdd	0.20781274
10	0xbf68ed82	-0.9098741
11	0xbf56bebd	-0.83884794
12	0xbf53cfa0	-0.82738686
13	0x3e08726b	0.13324897
14	0xbf085ff6	-0.53271425
15	0x3db4899b	0.08815309
16	0xbd7d9d18	-0.061917394
17	0xbe153e01	-0.14574434
18	0x3f316528	0.6929498
19	0x3f2822a4	0.6567786
20	0xbf3a9c6e	-0.7289494
21	0x3c1bf807	0.009519584
22	0xbf50f936	-0.81630266
23	0xbf30005c	-0.6875055
24	0x3f2f2863	0.68421
25	0x3ed122d9	0.408469
26	0xbf299d8f	-0.6625604
27	0x3f26e21f	0.65188783
28	0xbe1e2077	-0.15442072
29	0x3e159666	0.14608154
30	0xbe87a4df	-0.26492974
31	0x3f6bccea	0.9210955

conv_col_to_row.feature_module_right.0.weight f4 [32, 32]
0	0xbd8190f1	-0.063264735
1	0x3da04140	0.078249454
2	0xbdd0edd8	-0.10201615
3	0x3df15c59	0.11785192
4	0xbdb20660	-0.08692622
5	0xbdf3b450	-0.11899626
6	0xbc5fbc54	-0.013655741
7	0x3cf34387	0.029695285
8	0x3bdefe3b	0.006805209
9	0xbdd3e6f4	-0.10346785
10	0xbdc1bf97	-0.09460371
11	0x3d726511	0.059178416
12	0xbdcf47e5	-0.10121135
13	0x3ba81b63	0.005130218
14	0x3d9b9611	0.07596982
15	0x3c9288be	0.01788747
16	0x3e36bbc8	0.1784507
17	0x3e25c432	0.16188124
18	0x3ca75a75	0.020428875
19	0x3e0a46fc	0.13503641
20	0xbe2b6d30	-0.1674087
21	0x3d13cc34	0.036083415
22	0x3e31274e	0.1730015
23	0xbd79172b	-0.06081311
24	0x3d89eaf8	0.0673427
25	0x3d21fb0a	0.03954605
26	0x3e0c3c1e	0.13694808
27	0xbdc9dba0	-0.09856343
28	0xbdf07926	-0.11741857
29	0x3bbce255	0.0057642856
30	0xbde6b22c	-0.11264452
31	0x3e16ac71	0.14714219
32	0x3e1f5aa6	0.15561923
33	0x3dbc41bf	0.091922276
34	0xbc970a3c	-0.018437497
35	0x3e34231e	0.17591521
36	0xbe1f5f38	-0.15563667
37	0x3e331e64	0.17492062
38	0xbda03dcc	-0.07824287
39	0x3e163720	0.14669466
40	0xbddf0eca	-0.10891493
41	0xbdc36b57	-0.09541958
42	0xbddb207c	-0.10699555
43	0x3db6d3c2	0.08927108
44	0x3d0cf252	0.034410782
45	0x3dcff4e9	0.10154135
46	0x3bb83118	0.005621087
47	0xbd703332	-0.058642574
48	0x3e0c7cb9	0.13719453
49	0xbe106328	-0.14100325
50	0x3d99efeb	0.07516464
51	0xbe19f185	-0.15033539
52	0x3e286893	0.16446142
53	0x3c3d3d09	0.011550196
54	0xbd74d52d	-0.059773613
55	0x3e09d450	0.13459897
56	0xbe1946bb	-0.14968388
57	0xbdc9b2f5	-0.098485865
58	0xbe120419	-0.14259376
59	0xbd6cb74b	-0.05779199
60	0xbd9bafc8	-0.07601887
61	0x3dc9a845	0.09846548
62	0xbe190063	-0.14941554
63	0x3b844a00	0.004037142
64	0x3e0db028	0.1383673
65	0xbd1d5247	-0.038408544
66	0xbd76da64	-0.060266867
67	0xbda2a2ef	-0.07941233
68	0x3db704be	0.089364514
69	0x3de7badc	0.113149375
70	0xbe07b7ec	-0.13253754
71	0xbcbe712c	-0.023247324
72	0xbe19c6f9	-0.15017308
73	0xbd575954	-0.052575424
74	0x3ca56c1c	0.020193152
75	0x3cc478e2	0.023983423
76	0x3e030b29	0.12797226
77	0x3df5eda3	0.12008216
78	0x3d53bba1	0.05169261
79	0xbe249567	-0.16072617
80	0xbd3cb8bb	-0.04607461
81	0x3e33b273	0.17548542
82	0xbd6781d0	-0.056520283
83	0x3d327e41	0.043577436
84	0x3cde9e4d	0.027175093
85	0x3dc7aeb2	0.09750117
86	0xbdb901c9	-0.090335436
87	0xbdc96429	-0.09833557
88	0xbd3a2ae1	-0.04545105
89	0x3dee2204	0.11627582
90	0xbe257dad	-0.16161223
91	0xbcd1c1c7	-0.025605096
92	0x3dd398f3	0.10331907
93	0x3e101bee	0.14073154
94	0x3d14dd1c	0.03634368
95	0xbdb2ac48	-0.08724266
96	0x3d22c65d	0.039739955
97	0xbe08a70d	-0.13344975
98	0xbe309e2c	-0.17247838
99	0x3e0916e2	0.13387635
100	0xbe33a9fd	-0.17545314
101	0xbe06cced	-0.1316411
102	0x3e27c374	0.16383153
103	0x3d811be4	0.06304148
104	0xbddbe6a5	-0.10737351
105	0xbe027fc8	-0.12744057
106	0xbe1a8db7	-0.15093122
107	0xbd073dd6	-0.033017956
108	0xbddb35ce	-0.10703622
109	0x3da73504	0.08164409
110	0xbdf8b84b	-0.12144526
111	0xbd8c7bc6	-0.068595454
112	0xbd5aa911	-0.05338389
113	0x3d5f139b	0.054462057
114	0xbc9d5780	-0.019206762
115	0xbcf92456	-0.030412834
116	0xbda3e62d	-0.08002887
117	0xbe2e2ce9	-0.1700932
118	0x3e2d3b68	0.16917193
119	0x3e1442ae	0.14478561
120	0x3d793d14	0.060849264
121	0xbc42b203	-0.011883262
122	0x3e01ddd7	0.12682281
123	0xbd404b6a	-0.04694692
124	0x3ba85d63	0.0051380857
125	0x3de61303	0.11234095
126	0xbddf6aa5	-0.10909013
127	0x3de804a8	0.11329013
128	0xbdaf01d4	-0.085452706
129	0xbe096967	-0.13419114
130	0x3e300ff5	0.17193587
131	0xbd943a0d	-0.07237635
132	0xbd96ab24	-0.07356861
133	0xbd6ffcbc	-0.058590636
134	0x3cfd251c	0.030901484
135	0xbc6cae80	-0.014445901
136	0xbe189af8	-0.14902866
137	0xbe260301	-0.16212083
138	0x3dd689c1	0.10475493
139	0x3d96cf2c	0.07363734
140	0x3e0a447d	0.13502689
141	0xbe27896d	-0.16361018
142	0x3c9a535c	0.018838577
143	0x3e1136d5	0.14181073
144	0xbda4bfc9	-0.080443926
145	0x3bf3e3c9	0.0074429256
146	0x3ae2d1ab	0.0017304918
147	0x3e1ffe78	0.15624416
148	0xbe0d6aef	-0.13810323
149	0xbd0ceba5	-0.034404416
150	0x3d831d62	0.06402089
151	0x3bbeceb6	0.0058229817
152	0x3d1a3fe6	0.037658595
153	0xbddf8f55	-0.1091601
154	0xbe17f3bc	-0.14839071
155	0x3e20fa63	0.15720515
156	0x3c502443	0.012703958
157	0xbd8e9ad3	-0.06963124
158	0xbb7a5bcf	-0.0038201695
159	0x3d4b2ca8	0.049603134
160	0x3da3b133	0.079927824
161	0x3e1d4cf1	0.15361382
162	0xbe2b1123	-0.16705756
163	0xbe10222b	-0.14075534
164	0x3d7ce1b5	0.06173869
165	0xbdbe1367	-0.092810445
166	0x3d586c88	0.05283788
167	0x3e31824f	0.17334865
168	0xbd92a3bb	-0.07160135
169	0x3e1c8024	0.15283257
170	0x3d88709a	0.06662102
171	0x3dce8b8b	0.100852095
172	0x3e27dc84	0.16392714
173	0x3e2fd927	0.17172681
174	0x3de2a327	0.11066275
175	0x3db8eb69	0.09029276
176	0x3d7b70f0	0.061387002
177	0x3e12f5f2	0.14351633
178	0x3e2cce9e	0.16875693
179	0xbe16b3c6	-0.14717016
180	0x3e010f44	0.1260348
181	0x3de04c7e	0.1095209
182	0x3dbaf44e	0.09128629
183	0x3daffc8e	0.08593093
184	0xbdb61160	-0.08890033
185	0x3db9f711	0.09080327
186	0x3de3e496	0.11127584
187	0x3d33b33a	0.043872096
188	0x3d1ab639	0.037771437
189	0xbdf7f288	-0.12106806
190	0xbe2219ff	-0.15830229
191	0xbd70aedb	-0.058760505
192	0x3e1e1869	0.15438999
193	0x3bfd0dc4	0.0077225883
194	0x3d6c4b22	0.05768884
195	0x3d801d25	0.06255559
196	0xbaba0d06	-0.0014194555
197	0xbaba5ff4	-0.001421927
198	0xbc7790b5	-0.015110184
199	0xbdea23b7	-0.11432593
200	0x3da78c66	0.08181076
201	0xbdccb2c8	-0.09995037
202	0x3d593b42	0.05303503
203	0xbd9b4332	-0.07581176
204	0xbd5f5f16	-0.05453404
205	0xbb611b6d	-0.0034348622
206	0xbda383ec	-0.079841465
207	0xbdf30975	-0.11867038
208	0xbe0d6dcf	-0.1381142
209	0x3d7317e6	0.059348963
210	0xbdfe89ac	-0.124286026
211	0xbe2eccc3	-0.17070298
212	0xbdd6be11	-0.10485471
213	0x3c0aec32	0.008479165
214	0x3c0d7817	0.008634589
215	0x3bf1eb29	0.0073827696
216	0x3d4f432a	0.050601162
217	0xbdaad55c	-0.08341476
218	0x3dca36b1	0.09873713
219	0x3bcc50fd	0.0062352405
220	0x3e0d2e42	0.13787177
221	0x3cdb2389	0.026750343
222	0x3d737939	0.05944178
223	0xbdfeaf9a	-0.12435837
224	0x3e0c68bf	0.13711832
225	0xbca9c4a7	-0.020723654
226	0xbd984de1	-0.07436729
227	0x3e16aa35	0.14713366
228	0xbd5f3a20	-0.05449879
229	0x3de11384	0.109900504
230	0x3c16878c	0.00918759
231	0x3b1c3627	0.0023835988
232	0x3e1940a4	0.14966065
233	0xbdc9ed0c	-0.09859666
234	0x3cdda636	0.027056795
235	0xbda20edd	-0.07912991
236	0x3de09d42	0.109674945
237	0x3d0be27c	0.03415154
238	0x3dc25337	0.09488528
239	0x3ddafb03	0.10692408
240	0xbd644371	-0.05572838
241	0xbdd14f74	-0.102202326
242	0xbd3c4638	-0.045965403
243	0x3ca842f7	0.020539744
244	0xbdcc519a	-0.09976502
245	0x3dd937e3	0.10606363
246	0xbdc1d94e	-0.09465276
247	0x3da99064	0.082794935
248	0xbe199209	-0.14997114
249	0xbdb553bd	-0.088538624
250	0x3cd6cee7	0.026221706
251	0xbe335046	-0.1751109
252	0x3e16e47c	0.14735597
253	0x3e1af018	0.15130651
254	0x3da156f7	0.07877915
255	0xbcda7023	-0.0266648

conv_col_to_row.feature_module_final.0.weight f4 [32]
0	0x3f7f7f0c	0.99803233
1	0x3f7fdf59	0.99950176
2	0x3f800000	1.0
3	0x3f7fd4e7	0.9993424
4	0x3f800000	1.0
5	0x3f7ff2bb	0.9997975
6	0x3f80d325	1.0064436
7	0x3f7fdb11	0.99943644
8	0x3f7fc123	0.9990408
9	0x3f804e2a	1.0023854
10	0x3f800f58	1.0004683
11	0x3f800471	1.0001355
12	0x3f801265	1.0005614
13	0x3f802408	1.0010996
14	0x3f7ff643	0.9998514
15	0x3f7f818b	0.9980704
16	0x3f806942	1.0032122
17	0x3f7ff915	0.99989444
18	0x3f801177	1.000533
19	0x3f801bd3	1.0008491
20	0x3f806998	1.0032225
21	0x3f801f23	1.0009502
22	0x3f7fcf8a	0.99926054
23	0x3f800718	1.0002165
24	0x3f807ff5	1.0039049
25	0x3f80168b	1.000688
26	0x3f8069dc	1.0032306
27	0x3f800000	1.0
28	0x3f800000	1.0
29	0x3f7f9895	0.99842197
30	0x3f800000	1.0
31	0x3f800000	1.0

conv_col_to_row.feature_module_final.0.bias f4 [32]
0	0xbaaaa687	-0.00130196
1	0xba4d67c5	-0.0007835592
2	0x00000000	0.0
3	0xba4e9cf6	-0.00078816654
4	0x00000000	0.0
5	0xb97df3d3	-0.00024218792
6	0x3ab6f91a	0.0013959736
7	0xb9ca5a0c	-0.00038595533
8	0xba05d0a3	-0.00051046367
9	0x3af07beb	0.0018347477
10	0x3a58c6b7	0.0008269357
11	0x38b1e14e	8.481984e-05
12	0x3a2b3dfa	0.00065323676
13	0xb912c76e	-0.00013997938
14	0x3a835163	0.0010018762
15	0xba95b6ed	-0.0011422314
16	0x3a68d23d	0.00088814256
17	0xb95d3d20	-0.00021098973
18	0xb67373f6	-3.627732e-06
19	0x3b061416	0.002045875
20	0x3b134124	0.0022469247
21	0x394b812b	0.00019407707
22	0x3905f589	0.00012775337
23	0xb9a63ea3	-0.00031708655
24	0x3b540046	0.0032348796
25	0x398e89b8	0.0002718696
26	0x3af841c7	0.0018940502
27	0x00000000	0.0
28	0x00000000	0.0
29	0xbb0a0ddd	-0.0021065392
30	0x00000000	0.0
31	0x00000000	0.0
