GNN_method/ResultsGCNN/actor_91.pt (torch, 83520 bytes, 43 tensors)

row_embedding.0.weight f4 [7]
1.0063058 1.0031115 0.9993173 1.0009496 0.9977472 1.0054134 1.0002198
00000000: a1ce 803f f565 803f 42d3 7f3f 1e1f 803f
00000010: 5c6c 7f3f 63b1 803f 3407 803f

row_embedding.0.bias f4 [7]
-0.003173294 -0.0010929281 -0.001176558 -0.0017441125 0.0023200235 -0.004568298 0.00086012535
00000000: 0af7 4fbb 9540 8fba bc36 9aba b49a e4ba
00000010: 890b 183b a9b1 95bb 097a 613a

row_embedding.1.weight f4 [32, 7]
0.049779315 0.04607938 0.13765718 -0.35557202 -0.18137255 0.24243383 -0.08358539 -0.26878622
-0.06584786 -0.040868305 -0.10710812 0.19415767 0.0008342857 -0.08266247 -0.1258169 -0.29232773
-0.2827756 0.260992 0.3168461 0.019791048 -0.20182686 -0.20745806 0.13692729 0.31791836
-0.3576941 0.026563235 0.004789538 0.19185235 -0.13934642 -0.032811243 -0.3071301 0.20907673
-0.20266134 -0.2016689 -0.19573228 -0.10722382 0.0578086 -0.008555299 -0.35916042 0.092986956
-0.20862429 0.3123106 -0.26995853 -0.3355742 0.27320316 -0.22530939 -0.31361076 -0.057586025
0.016450182 -0.2425533 0.26718527 0.22867073 0.2617007 0.21297322 0.033085775 0.035452817
-0.13771135 -0.0721626 0.02780745 0.009726357 -0.14133906 -0.21103024 0.27069867 0.05057033
-0.34213233 -0.192545 0.36212108 -0.19003715 0.2580881 -0.3480629 -0.27191886 0.33753386
-0.095355436 -0.0056493636 -0.038884405 -0.250833 0.25355983 -0.18135692 0.012212608 -0.3567028
-0.07554011 -0.015671013 0.25795382 0.13629238 0.28972796 -0.070696615 -0.30825248 -0.10638973
-0.070486456 0.3181807 -0.22717832 0.25289026 0.21486247 -0.21730372 -0.24778917 -0.15632646
-0.15026611 -0.27215275 -0.36631665 0.086181924 0.100269206 -0.27911678 0.2741357 -0.14239348
-0.116523944 0.0721748 0.29219675 -0.32110462 -0.079617485 0.11020783 -0.31733015 0.29610613
0.1439349 0.3249868 -0.03011583 0.1764969 -0.251106 0.35351804 0.09504322 0.19724718
-0.21506938 -0.2635319 -0.3220013 -0.34387457 0.0050914697 -0.024557855 -0.3501097 0.34647375
-0.17028454 -0.30472374 -0.16618428 0.31348115 0.08153633 -0.19954489 -0.17055677 -0.2457435
0.12056579 0.24703732 -0.19702226 0.3636725 0.32644945 0.124659576 -0.010047604 0.27624086
0.10598904 -0.33257002 -0.25549352 0.19469027 0.027535444 0.3519756 -0.2686183 -0.28307658
-0.10376561 -0.22691743 0.28933573 0.033662207 -0.12937011 -0.05362139 0.02923832 -0.27883148
0.039309394 -0.24717331 0.058105737 0.13482817 -0.22912556 -0.20600417 -0.008494287 0.29970685
0.18627769 -0.091578096 0.33039397 0.09833532 0.36591813 0.2670389 -0.26081565 0.02278354
0.2316801 0.07710423 0.11882022 0.3116046 -0.27875423 0.12393554 -0.12211633 -0.15679534
0.339607 0.26999316 0.24722065 0.03657333 -0.29367402 0.33951664 0.100913666 -0.03889993
-0.28740516 -0.1068311 -0.3279603 0.29731515 0.32433203 0.07261456 0.31600004 -0.24026227
-0.21353275 0.17966141 0.37260047 -0.24029602 -0.30735695 0.1291367 0.114910215 0.2656348
0.05635127 -0.37862942 0.14959022 -0.18497306 0.1954503 -0.2801157 -0.29238364 0.033911895
-0.06229493 -0.3496937 -0.1862614 -0.30943888 0.10695901 0.10019699 -0.11818916 -0.31530902
00000000: 65e5 4b3d bbbd 3c3d 01f6 0c3e 890d b6be
00000010: bab9 39be 9340 783e d12e abbd 599e 89be
00000020: 3edb 86bd 8665 27bd 815b dbbd 45d1 463e
00000030: f7b3 5a3a f14a a9bd 25d6 00be fbab 95be
00000040: f7c7 90be bea0 853e a739 a23e d620 a23c
00000050: b3ab 4ebe e36f 54be ab36 0c3e 32c6 a23e
00000060: ae23 b7be 249b d93c 8ff1 9c3b f174 443e
00000070: d4b0 0ebe 1565 06bd 2840 9dbe 3618 563e
00000080: 7486 4fbe 4b82 4ebe 0b6e 48be 2a98 dbbd
00000090: b6c8 6c3d 862b 0cbc e0e3 b7be f26f be3d
000000a0: 9ba1 55be 2de7 9f3e 0138 8abe 62d0 abbe
000000b0: 49e1 8b3e 81b7 66be 9791 a0be 53df 6bbd
000000c0: 88c2 863c e45f 78be 82cc 883e a928 6a3e
000000d0: a2fd 853e a715 5a3e f384 073d f936 113d
000000e0: 3404 0dbe fcc9 93bd 73cc e33c 4c5b 1f3c
000000f0: 30bb 10be 5018 58be 0499 8a3e d622 4f3d
00000100: f82b afbe 842a 45be ef67 b93e 1999 42be
00000110: 2024 843e 4d35 b2be f338 8bbe 3dd1 ac3e
00000120: b649 c3bd 4c1e b9bb 4145 1fbd 2f6d 80be
00000130: 98d2 813e a1b5 39be 6417 483c c0a1 b6be
00000140: c6b4 9abd 7f60 80bc 8612 843e 3b90 0b3e
00000150: 3957 943e 63c9 90bd 45d3 9dbe dce2 d9bd
00000160: 345b 90bd 95e8 a23e 6fa1 68be d57a 813e
00000170: e804 5c3e de84 5ebe 72bc 7dbe 0b14 20be
00000180: 5cdf 19be 9b57 8bbe db8d bbbe 2680 b03d
00000190: f159 cd3d 65e8 8ebe 845b 8c3e 99cf 11be
000001a0: 1ba4 eebd 62d0 933d d09a 953e d367 a4be
000001b0: 7e0e a3bd a5b4 e13d 1979 a2be 399b 973e
000001c0: ac63 133e ab64 a63e 79b5 f6bc 9abb 343e
000001d0: f790 80be 5100 b53e 05a6 c23d 2afb 493e
000001e0: 263b 5cbe a7ed 86be 5bdd a4be 5410 b0be
000001f0: 58d6 a63b 8e2d c9bc 9441 b3be 0265 b13e
00000200: 125f 2ebe c004 9cbe 362c 2abe 9a80 a03e
00000210: 85fc a63d 7f55 4cbe 6fa6 2ebe 2fa4 7bbe
00000220: 32eb f63d 5af7 7c3e 34c0 49be 4833 ba3e
00000230: 6224 a73e 854d ff3d b59e 24bc 716f 8d3e
00000240: c810 d93d 9e46 aabe 0cd0 82be e35c 473e
00000250: 0392 e13c 2536 b43e 5688 89be 6aef 90be
00000260: 1083 d4bd 0b5d 68be d023 943e 62e1 093d
00000270: 9979 04be 1aa2 5bbd 3485 ef3c 00c3 8ebe
00000280: e302 213d 001b 7dbe 4800 6e3d 6510 0a3e
00000290: e49f 6abe c2f2 52be 9f2b 0bbc 2d73 993e
000002a0: 94bf 3e3e 4c8d bbbd 6629 a93e 0764 c93d
000002b0: 9f59 bb3e 53b9 883e a189 85be 8ca4 ba3c
000002c0: 8c3d 6d3e d3e8 9d3d 0458 f33d a38a 9f3e
000002d0: e0b8 8ebe ebd1 fd3d 2018 fabd f58e 20be
000002e0: f8e0 ad3e 8b3c 8a3e 6927 7d3e ebcd 153d
000002f0: 715c 96be 20d5 ad3e d3ab ce3d 8855 1fbd
00000300: c526 93be 44ca dabd 6aea a7be b139 983e
00000310: d90e a63e f1b6 943d c2ca a13e 5007 76be
00000320: 54a8 5abe 29f9 373e 7dc5 be3e 2910 76be
00000330: e45d 9dbe 693c 043e 0c56 eb3d 4901 883e
00000340: 97d0 663d b7db c1be 2e2e 193e 9469 3dbe
00000350: 2024 483e 536b 8fbe 4fb3 95be 33e7 0a3d
00000360: f828 7fbd 0d0b b3be 4fbb 3ebe c66e 9ebe
00000370: 530d db3d 1434 cd3d 290d f2bd 2f70 a1be

row_embedding.1.bias f4 [32]
-0.05163122 0.25682342 0.11001308 -0.36851513 0.08087369 -0.116834335 0.019228984 -0.107155226
0.15439615 -0.20998177 -0.34977913 -0.025605896 0.31640735 0.15177625 0.3464805 0.1073607
-0.16080734 0.015132126 -0.11883631 0.31236142 0.28037876 -0.028187366 0.21519388 -0.1018096
0.3214147 0.20765431 -0.14736375 0.12515037 -0.29516134 -0.19528918 0.021862514 -0.21636856
00000000: 427b 53bd 5c7e 833e 8a4e e13d 04ae bcbe
00000010: 1ba1 a53d d746 efbd 1a86 9d3c 3374 dbbd
00000020: 061a 1e3e 7605 57be 4016 b3be 75c3 d1bc
00000030: 2500 a23e 3c6b 1b3e e465 b13e eddf db3d
00000040: aeaa 24be bdec 773c 7460 f3bd d6ed 9f3e
00000050: ce8d 8f3e 31e9 e6bc c95b 5c3e 8d81 d0bd
00000060: 7890 a43e 55a3 543e 86e6 16be 6b27 003e
00000070: 631f 97be e3f9 47be 0419 b33c b88f 5dbe

row_embedding.3.weight f4 [32, 32]
-0.12404866 -0.03922342 0.072048575 0.011683146 0.10156506 0.004683189 0.1639168 0.1457599
0.102197625 -0.1455086 0.036395308 0.031810902 0.10116547 -0.0023662369 0.1374373 0.15676011
0.15324047 0.03852765 -0.11976436 0.106975965 0.037525915 0.053418174 0.043803558 0.114873745
-0.16269119 0.10621914 0.12851901 0.15017973 0.017818125 -0.15251091 0.14693986 -0.028057517
0.03386833 0.028683351 -0.17878303 0.007826477 -0.017489677 -0.05253587 0.07816038 0.043277763
-0.093472034 -0.039916903 -0.10701455 -0.16122325 0.085834116 0.09788042 0.15672818 -0.1671041
-0.047335126 0.13068154 0.072741896 -0.13618557 0.12526935 0.12183607 0.12824082 0.1219598
0.14003155 -0.07205588 0.14008784 0.10753113 -0.1342154 0.058510393 -0.13677375 -0.093721725
0.014173963 0.1626017 -0.10671403 -0.14768845 0.1692232 -0.08493983 -0.16398764 -0.07028299
0.11855497 0.031252485 0.16132013 0.10262198 0.009709325 0.1611243 -0.0808953 0.08478785
-0.037750404 -0.019627713 0.043969598 0.124725506 0.15079987 0.04985427 -0.05820343 0.17023887
0.032391272 0.05652927 0.05556747 -0.16688909 0.16474846 0.1643721 0.12849572 0.15339151
-0.080141455 -0.038506392 -0.15506317 0.056287266 0.04650963 0.05879023 0.16909572 -0.024435079
0.087773554 0.1153057 -0.10883558 -0.03210491 0.12673926 -0.10393876 0.060951985 0.08803102
-0.019824136 0.16828166 -0.06922828 0.07142549 -0.040585462 -0.15882635 0.07231332 -0.068041645
-0.0036827696 0.1533792 -0.080066286 -0.06626966 -0.17591397 -0.12752485 -0.11781685 0.044056173
0.08829254 -0.029413402 -0.11438684 0.0076582287 0.084144056 -0.066594176 -0.112484924 0.092198856
-0.17296702 0.07274158 0.13798544 -0.1732191 -0.049253102 -0.044563115 0.009216415 -0.18556248
-0.110536985 -0.102928944 0.066982284 0.062101085 -0.14062177 0.043227244 0.001105078 0.06274251
-0.06901453 0.11611475 -0.081543155 -0.13894759 0.102187894 -0.17409746 0.116737865 -0.05012162
-0.08726509 -0.15942536 -0.03314835 0.061243523 -0.056245875 0.16317888 0.09268113 0.06056148
-0.16477668 0.0038441087 -0.12670322 0.046177898 -0.039336897 0.109424725 -0.002471702 -0.16361554
-0.097041495 -0.17561494 -0.044692665 0.0850422 -0.14448197 0.11751258 -0.17436425 -0.01320014
0.0005948395 -0.088530995 -0.15277126 -0.096792765 -0.1436452 -0.020046221 0.026842527 -0.16388138
0.0800049 0.12810676 0.12147449 -0.044649664 0.14032477 0.060794815 -0.1270428 -0.08540362
-0.15149565 0.08100815 0.1309742 0.0698996 -0.030713951 -0.14737616 -0.17040996 0.023180012
-0.026186408 0.13889304 -0.07452508 0.1402096 0.0892576 0.10639434 0.03995981 0.13551724
-0.09446557 -0.048437215 -0.09001496 0.0136229545 0.16511977 -0.048493225 -0.040319882 0.10665226
-0.055200085 -0.042763177 -0.116044015 -0.12848783 0.037915614 0.13819256 0.13952328 -0.0987504
0.08830903 -0.10544142 -0.17407261 -0.0024105958 0.15387833 -0.018000862 -0.14671549 -0.059669256
0.06976481 0.13384949 -0.17505082 0.04456489 0.06282583 0.042613856 -0.17307332 -0.061913405
-0.023725538 -0.09734327 -0.12335541 0.031970456 -0.016417991 -0.0019844286 -0.123069376 0.14320883
00000000: 390d febd bda8 20bd 348e 933d aa6a 3f3c
00000010: 5801 d03d 7075 993b ced9 273e 1542 153e
00000020: fd4c d13d 3500 15be 3f13 153d 264c 023d
00000030: d82f cf3d de12 1bbb 5dbc 0c3e b985 203e
00000040: 12eb 1c3e 2bcf 1d3d 0447 f5bd 3716 db3d
00000050: c6b4 193d 04cd 5a3d 5c6b 333d ed42 eb3d
00000060: 8598 26be 6c89 d93d 7d9a 033e b7c8 193e
00000070: 51f7 913c d22b 1cbe 6777 163e e1d8 e5bc
00000080: 85b9 0a3d 59f9 ea3c e612 37be a03a 003c
00000090: 8346 8fbc da2f 57bd 8d12 a03d 0644 313d
000000a0: 446e bfbd e87f 23bd 722a dbbd b517 25be
000000b0: ccc9 af3d 8875 c83d 5a7d 203e 561d 2bbe
000000c0: 7ae2 41bd 62d1 053e b4f9 943d 3b74 0bbe
000000d0: 9c46 003e 3185 f93d 9051 033e 0fc6 f93d
000000e0: 6e64 0f3e 0992 93bd 3073 0f3e 4839 dc3d
000000f0: c36f 09be 98a8 6f3d 6b0e 0cbe 2df1 bfbd
00000100: e939 683c 0f81 263e e38c dabd a43b 17be
00000110: d948 2d3e eff4 adbd 60ec 27be 87f0 8fbd
00000120: f3cc f23d 9b02 003d 1b31 253e 792b d23d
00000130: dc13 1f3c c5fd 243e 6fac a5bd 41a5 ad3d
00000140: 2ba0 1abd 4cca a0bc 7719 343d 1670 ff3d
00000150: 486b 1a3e fe33 4c3d b866 6ebd 1953 2e3e
00000160: b6ac 043d 3c8b 673d b79a 633d f9e4 2abe
00000170: d2b3 283e 2951 283e 6294 033e aa12 1d3e
00000180: 3421 a4bd e1b8 1dbd e1c8 1ebe 7a8d 663d
00000190: e280 3e3d 06ce 703d 6e27 2d3e 132c c8bc
000001a0: 9fc2 b33d 6525 ec3d 30e5 debd 7080 03bd
000001b0: f0c7 013e d8dd d4bd caa8 793d 9b49 b43d
000001c0: 3a66 a2bc 0752 2c3e 8ec7 8dbd 8747 923d
000001d0: f13c 26bd 60a3 22be 0219 943d 6b59 8bbd
000001e0: 9f5a 71bb 700f 1d3e cbf9 a3bd 63b8 87bd
000001f0: cb22 34be e095 02be f649 f1bd 3f74 343d
00000200: b8d2 b43d 60f4 f0bc a643 eabd e1f1 fa3b
00000210: b853 ac3d 8762 88bd 7f5e e6bd c1d2 bc3d
00000220: 441e 31be 8af9 943d 0e4c 0d3e 5960 31be
00000230: 9fbd 49bd d087 36bd 7200 173c 1704 3ebe
00000240: 3761 e2bd 69cc d2bd 022e 893d b55d 7e3d
00000250: 27ff 0fbe 0d0f 313d 44d8 903a 257f 803d
00000260: 7d57 8dbd 92cd ed3d 1900 a7bd 4748 0ebe
00000270: e347 d13d 9b46 32be 4314 ef3d 544c 4dbd
00000280: 0ab8 b2bd 6740 23be 90c6 07bd 7dda 7a3d
00000290: 1362 66bd 5d18 273e 9bcf bd3d 500f 783d
000002a0: 38bb 28be 71ed 7b3b 7dbe 01be 0925 3d3d
000002b0: ba1f 21bd 121a e03d 47fc 21bb d58a 27be
000002c0: b1bd c6bd 67d4 33be a80f 37bd 9b2a ae3d
000002d0: 15f3 13be 6faa f03d 8b8c 32be 6645 58bc
000002e0: 01ef 1b3a bd4f b5bd 1270 1cbe 493b c6bd
000002f0: ba17 13be f937 a4bc dce4 db3c 85d0 27be
00000300: 9cd9 a33d 6b2e 033e 9ec7 f83d 91e2 36bd
00000310: 4cb1 0f3e fc03 793d 8217 02be 18e8 aebd
00000320: ad21 1bbe 9ae7 a53d 1a1e 063e 8627 8f3d
00000330: d39b fbbc c7e9 16be f37f 2ebe 02e4 bd3c
00000340: e184 d6bc fa39 0e3e 9ba0 98bd 1b93 0f3e
00000350: b0cc b63d 47e5 d93d e6ac 233d 08c5 0a3e
00000360: 2a77 c1bd 1a66 46bd c359 b8bd d032 5f3c
00000370: 2815 293e d5a0 46bd 7626 25bd 806c da3d
00000380: 7c19 62bd 7128 2fbd 7ca8 edbd 5092 03be
00000390: 674d 1b3d 5a82 0d3e 31df 0e3e a63d cabd
000003a0: 5ddb b43d acf1 d7bd 1740 32be 16fb 1dbb
000003b0: 4892 1d3e 8b76 93bc 963c 16be c067 74bd
000003c0: dae0 8e3d d70f 093e 8640 33be ad89 363d
000003d0: d4aa 803d de8b 2e3d 223a 31be e998 7dbd
000003e0: 0f5c c2bc e95b c7bd c3a1 fcbd 74f3 023d
000003f0: 067f 86bc 300d 02bb cc0b fcbd 56a5 123e

row_embedding.3.bias f4 [32]
0.108533 -0.052816715 -0.06075029 -0.0429038 0.012489242 -0.12979893 0.10509115 0.14202733
-0.06288644 0.10259983 0.13259235 0.09868801 -0.019497463 0.043876473 0.10467373 0.10550218
0.09634799 -0.07283166 0.048565462 0.09540991 -0.008165557 0.032667123 0.054612223 0.0652732
0.10702856 0.041954953 0.16481873 -0.056258086 0.007035954 -0.008699883 -0.14833596 0.11999049
00000000: 8d46 de3d 5756 58bd 4cd5 78bd e5bb 2fbd
00000010: ad9f 4c3c 03ea 04be 073a d73d 9d6f 113e
00000020: 9bca 80bd dc1f d23d 4ac6 073e f01c ca3d
00000030: 25b9 9fbc d1b7 333d 2e5f d63d 8711 d83d
00000040: 1852 c53d c428 95bd 94ec 463d 4566 c33d
00000050: d4c8 05bc f6cd 053d 11b1 5f3d f5ad 853d
00000060: ca31 db3d f5d8 2b3d 3ec6 283e e16e 66bd
00000070: dc8d e63b f489 0ebc 62e5 17be 93bd f53d

col_embedding.0.weight f4 [7]
0.998139 1.0001607 0.99965537 1.0002453 0.9981598 0.9991152 1.0005047
00000000: 0a86 7f3f 4405 803f 6ae9 7f3f 0a08 803f
00000010: 6787 7f3f 04c6 7f3f 8a10 803f

col_embedding.0.bias f4 [7]
-0.0023002296 -0.00017572098 -0.00024292574 -0.0003520852 0.0010130245 0.0010233806 0.00081123813
00000000: 73bf 16bb be41 38b9 e2b9 7eb9 1398 b8b9
00000010: 76c7 843a f422 863a 45a9 543a

col_embedding.1.weight f4 [32, 7]
0.35218704 0.0059954724 0.0005724307 -0.17370035 0.27580258 -0.36318117 -0.10016027 -0.11623232
-0.25870222 -0.16412467 0.18577193 -0.21341018 0.005116704 -0.23629998 -0.19739938 0.01284988
0.27107364 -0.17712441 0.030625502 0.08992671 0.21043319 0.28342113 0.2828573 -0.10300115
0.060896542 -0.30798277 -0.01753348 0.17751086 0.14748673 0.3218172 0.2948833 -0.17825653
-0.06585078 -0.25063547 -0.36431834 -0.3774305 0.037255876 -0.070848405 0.24123628 -0.22936387
0.16814078 -0.12117662 -0.033399455 0.3632776 0.3729551 0.2045251 0.23056722 0.03644491
0.17198217 0.07747168 -0.12344773 0.18528117 -0.3552552 0.07012876 0.07234253 0.13080376
-0.110096015 -0.1805994 -0.09313231 -0.013405163 -0.22389948 -0.15451168 0.17876476 0.075447
-0.32518318 -0.053733885 -0.02462724 0.1632285 0.30129048 -0.37739572 0.36435845 0.018467521
0.3623411 -0.1279968 -0.28508556 -0.23791434 -0.23436548 0.35770765 0.13249609 -0.26718625
-0.0654282 -0.17371872 -0.23130293 0.22142145 0.2932902 -0.29904425 0.024037344 0.24759273
0.1623567 -0.072957166 -0.22801709 -0.3239203 -0.20909268 0.014562878 -0.033444934 0.1987981
0.1658023 -0.009567263 -0.014891779 0.18672596 -0.18602642 0.21634024 0.31805018 0.22212325
0.085122004 0.046473768 -0.026953893 0.19763358 0.2583412 -0.026061425 0.12772271 -0.28315482
0.18909359 0.27310076 -0.00025402906 -0.15430397 -0.09409258 -0.12333892 -0.34284252 0.3275979
-0.012699421 -0.3200194 0.25706905 0.317929 0.3117478 -0.23058796 -0.2568806 0.07732191
0.069862224 -0.22079694 0.067348704 0.25296122 -0.27660754 0.372019 -0.34915176 -0.08485965
-0.05574362 0.08732781 -0.011591252 0.25153682 0.06752781 -0.1596123 -0.37124285 -0.29118472
0.20651175 0.15849254 0.20395197 -0.042976778 0.10830731 -0.32129878 0.010865556 -0.15605219
-0.25293916 -0.09003008 0.22539109 0.23096174 0.056998566 -0.06355418 -0.17341334 -0.014669431
-0.04646979 0.22532834 0.11485681 -0.28641903 -0.3202758 0.12484046 0.028355882 0.13748062
-0.16834326 0.16114154 -0.30643335 0.08612802 -0.25653943 -0.29801086 -0.078967355 0.2720509
-0.2589447 -0.26684982 0.18639112 -0.3528068 -0.008306661 -0.26413047 0.26827988 -0.055701677
-0.098126814 -0.22776186 0.024839513 0.14470378 0.09929865 0.19668202 0.3713068 0.18452981
0.3129001 0.07710454 -0.2324831 -0.29486227 0.3584228 -0.13671845 0.3266249 0.052062348
-0.13123123 -0.22270337 -0.34808016 0.01727906 0.10028766 -0.0055200625 -0.30440745 0.28131872
0.26457268 0.35769504 0.3485453 -0.102837496 -0.19148573 0.17833333 0.010778055 0.14179598
-0.05368782 0.17508295 -0.36594948 0.3450326 0.1586213 0.36221135 0.0051013846 0.23921035
00000000: dc51 b43e ab75 c43b 2d0f 163a 81de 31be
00000010: ff35 8d3e e2f2 b9be d420 cdbd 360b eebd
00000020: 9e74 84be 4c10 28be ff3a 3e3e 3388 5abe
00000030: 06aa a73b 9ff8 71be 1023 4abe 4e88 523c
00000040: 2aca 8a3e 1a60 35be 55e2 fa3c 7f2b b83d
00000050: cc7b 573e 931c 913e acd2 903e 44f2 d2bd
00000060: a76e 793d ebaf 9dbe 5fa2 8fbc 68c5 353e
00000070: c306 173e 39c5 a43e f2fa 963e e188 36be
00000080: c6dc 86bd 4b53 80be ef87 babe 923e c1be
00000090: 9e99 183d f818 91bd a506 773e 5dde 6abe
000000a0: 192d 2c3e 732b f8bd decd 08bd 86ff b93e
000000b0: f9f3 be3e 076f 513e d019 6c3e 4247 153d
000000c0: 181c 303e 79a9 9e3d 2ad2 fcbd 59ba 3d3e
000000d0: 02e4 b5be ab9f 8f3d 5228 943d 6cf1 053e
000000e0: 057a e1bd 0def 38be 27bc bebd 54a1 5bbc
000000f0: e845 65be 4f38 1ebe 1c0e 373e f583 9a3d
00000100: 697e a6be 1018 5cbd 11bf c9bc 5f25 273e
00000110: bf42 9a3e 033a c1be 318d ba3e 3349 973c
00000120: c684 b93e 9811 03be bcf6 91be d19f 73be
00000130: 81fd 6fbe 7525 b73e 0ead 073e a3cc 88be
00000140: 38ff 85bd 52e3 31be adda 6cbe 4ebc 623e
00000150: 222a 963e 541c 99be f7e9 c43c f388 7d3e
00000160: d640 263e 916a 95bd 507d 69be e2d8 a5be
00000170: 641c 56be 2399 6e3c 8efd 08bd bb91 4b3e
00000180: 14c8 293e 02c0 1cbc a6fc 73bc 1735 3f3e
00000190: b67d 3ebe 4c88 5d3e 79d7 a23e 4774 633e
000001a0: 7254 ae3d 475b 3e3d 69ce dcbc 7560 4a3e
000001b0: 4c45 843e c57e d5bc bec9 023e abf9 90be
000001c0: c0a1 413e ddd3 8b3e 342f 85b9 dc01 1ebe
000001d0: 9cb3 c0bd 1e99 fcbd 0e89 afbe e9ba a73e
000001e0: 3b11 50bc 95d9 a3be 8e9e 833e 97c7 a23e
000001f0: 689d 9f3e 401f 6cbe db85 83be f35a 9e3d
00000200: ed13 8f3d 9818 62be 1eee 893d 2284 813e
00000210: 819f 8dbe 4679 be3e 05c4 b2be e5ca adbd
00000220: 6c53 64bd ecd8 b23d 3ce9 3dbc 6fc9 803e
00000230: 054c 8a3d 6871 23be 8b13 bebe 2a16 95be
00000240: d177 533e de4b 223e c9d8 503e 6b08 30bd
00000250: 39d0 dd3d 4681 a4be 7205 323c 25cc 1fbe
00000260: 3e81 81be b161 b8bd eccc 663e 3c81 6c3e
00000270: 5477 693d b228 82bd 4493 31be 0e58 70bc
00000280: 1b57 3ebd 79bc 663e 0c3a eb3d 84a5 92be
00000290: 31fb a3be 5bac ff3d 984a e83c b8c7 0c3e
000002a0: 2d62 2cbe 4a02 253e d5e4 9cbe e363 b03d
000002b0: 2359 83be e194 98be a3b9 a1bd 414a 8b3e
000002c0: 6694 84be 8aa0 88be 50dd 3e3e 18a3 b4be
000002d0: a918 08bc 1c3c 87be fb5b 893e 7127 64bd
000002e0: b6f6 c8bd 683a 69be 3c7c cb3c 3a2d 143e
000002f0: 175d cb3d 0367 493e ed1b be3e 62f5 3c3e
00000300: 7134 a03e fce8 9d3d 0d10 6ebe 30f8 96be
00000310: 3183 b73e ecff 0bbe 613b a73e 543f 553d
00000320: 7b61 06be 5a0c 64be 9037 b2be d18c 8d3c
00000330: 9e63 cd3d a4e1 b4bb 4bdb 9bbe 0209 903e
00000340: 1276 873e ce23 b73e 8874 b23e 779c d2bd
00000350: d614 44be 039d 363e 7096 303c f732 113e
00000360: c2e7 5bbd f248 333e bb5d bbbe 1da8 b03e
00000370: 9f6d 223e c473 b93e 8429 a73b 8ff3 743e

col_embedding.1.bias f4 [32]
-0.26600012 -0.17239581 -0.077504694 -0.2874488 -0.30146462 0.2721039 -0.1961662 -0.16058144
-0.039953236 -0.036543608 0.09652797 0.27064493 0.057761673 -0.17064725 0.12475489 -0.37693918
0.35464126 0.0059637213 -0.20697771 -0.040537026 -0.026270209 -0.33047983 0.2779806 0.07663299
-0.35357013 0.30478442 -0.28052133 -0.081949435 0.113343656 0.35452783 -0.05162346 0.335602
00000000: 2b31 88be 8788 30be c8ba 9ebd 7d2c 93be
00000010: 9259 9abe 3451 8b3e cbdf 48be 766f 24be
00000020: 01a6 23bd c0ae 15bd 75b0 c53d f991 8a3e
00000030: 8197 6c3d 27be 2ebe 7e7f ff3d 2cfe c0be
00000040: 8a93 b53e 526b c33b f7f1 53be 270a 26bd
00000050: 9f34 d7bc a734 a9be 7953 8e3e c2f1 9c3d
00000060: 2507 b5be b40c 9c3e 7ea0 8fbe 1bd5 a7bd
00000070: b820 e83d ac84 b53e 1f73 53bd 06d4 ab3e

col_embedding.3.weight f4 [32, 32]
0.1358993 0.12780307 -0.0068143317 -0.14085604 0.07703794 -0.031692784 -0.16716951 0.13658135
0.13824485 0.14917588 0.094694115 0.11013322 -0.14547837 -0.006457256 0.058304515 0.07312526
-0.055336826 -0.037024334 -0.1313663 -0.15751939 0.0070795794 0.17230818 -0.11927073 0.16414441
-0.15924017 -0.12061465 -0.14037098 -0.12638536 0.14551763 0.0029984382 -0.04814163 0.1708334
0.086797655 -0.13762496 0.15084907 -0.08895394 0.09442203 0.049472705 0.05669192 -0.049367197
0.16187261 -0.004775311 0.10507794 0.11975143 -0.15424432 -0.030307798 -0.101376615 -0.019607505
-0.14955895 -0.018128969 -0.11551817 -0.06820831 0.09618599 -0.014699746 0.16320136 0.05948961
0.057289347 0.04549571 -0.1767252 0.16925791 -0.007387644 -0.17204058 -0.0065960395 -0.08895961
-0.059562705 -0.044888712 -0.022736035 -0.105734475 -0.10287254 0.062545426 0.15678515 0.17561932
-0.07990728 -0.1583669 -0.034831773 -0.013986242 -0.15482502 -0.13172616 -0.01129721 0.071046256
0.0012172834 -0.05266042 -0.023687566 0.16214032 0.0748151 -0.09934332 0.10526359 0.11953643
-0.09682463 -0.034218732 0.109637395 0.0051148217 0.028458614 -0.03901101 -0.04185064 0.08432157
0.10631862 -0.0443443 -0.02177496 0.026052784 0.07872745 -0.1713699 -0.07068868 0.104928784
0.15530677 -0.16971515 0.040940844 -0.047152303 0.064369105 -0.008979441 -0.07521742 -0.14524724
-0.05074061 0.03629642 -0.050177187 0.0073803416 0.06092618 0.115155324 0.12028576 0.06329707
0.11302994 -0.15224922 0.11921618 -0.02385977 0.120269835 0.13624248 0.14051807 0.06620033
0.105947584 0.06023832 0.031669315 -0.089029 0.009307639 0.14150636 -0.036079235 -0.028612625
0.13371363 0.09905782 -0.081918746 -0.16061284 0.018759977 -0.1343692 -0.13137294 0.1435674
0.10282475 -0.16459344 -0.09132929 0.097107165 -0.13070372 0.07338082 0.030786067 -0.1222604
0.006577711 0.05897111 0.16982822 0.10554374 0.02545984 -0.06930494 -0.16001171 0.022982918
0.026380913 0.068944596 -0.056657154 -0.1326461 0.11191968 0.091579005 -0.054578908 0.13244273
0.15251832 0.10445991 -0.09121816 -0.11615258 -0.09992162 0.14380021 -0.11536284 0.049732793
-0.046546794 -0.10186143 0.13826002 0.04420313 -0.075448886 -0.04755294 0.12513854 -0.018495407
0.049552217 -0.13798063 -0.067762144 -0.04773662 0.14626305 -0.15779772 0.087569304 0.010971239
0.046161756 -0.061368044 0.11705753 -0.000851368 -0.112666115 -0.015723493 0.07934663 0.12136778
0.17365983 0.16072609 -0.028697163 -0.095120296 0.020337554 -0.15902402 0.12672955 0.0057677375
0.17221339 -0.07303625 0.09983305 0.1560571 -0.028315455 0.10137145 -0.11535614 0.15824443
0.04256303 0.1412885 0.021970015 -0.0141737005 0.048090015 0.12126978 0.115168124 -0.12113623
-0.121102035 0.085456125 0.1680367 0.14644569 -0.10188781 0.024711521 -0.014700744 -0.15004171
0.14257193 0.16312507 0.046474617 -0.11173761 -0.018217765 0.122466706 -0.0990574 -0.046658047
-0.08629937 0.008541185 -0.07670407 -0.029920816 -0.050074164 0.10579055 -0.085394435 0.047588848
0.13971008 0.14302836 -0.15317631 -0.05406863 -0.09289712 -0.13656186 0.05608736 0.12224511
00000000: 3029 0b3e cfde 023e c24a dfbb 913c 10be
00000010: 11c6 9d3d 4bd0 01bd 7c2e 2bbe fbdb 0b3e
00000020: 0f90 0d3e 90c1 183e fdee c13d 878d e13d
00000030: 48f8 14be 6497 d3bb b7d0 6e3d b2c2 953d
00000040: dea8 62bd d4a6 17bd e384 06be c34c 21be
00000050: d1fb e73b 8e71 303e 3644 f4bd 7915 283e
00000060: db0f 23be d004 f7bd 69bd 0fbe 2a6b 01be
00000070: 9302 153e 7281 443b 2830 45bd f3ee 2e3e
00000080: f8c2 b13d 8fed 0cbe 2e78 1a3e 7c2d b6bd
00000090: 5660 c13d e4a3 4a3d c935 683d 4235 4abd
000000a0: efc1 253e 367a 9cbb 1a33 d73d 3d40 f53d
000000b0: 39f2 1dbe 0f48 f8bc 8b9e cfbd eb9f a0bc
000000c0: fb25 19be 3483 94bc ca94 ecbd ccb0 8bbd
000000d0: 29fd c43d 34d7 70bc 421e 273e 61ab 733d
000000e0: 3ca8 6a3d b659 3a3d 73f7 34be f251 2d3e
000000f0: 0d14 f2bb 682b 30be 9723 d8bb 7530 b6bd
00000100: 06f8 73bd 3add 37bd ec40 babc 518b d8bd
00000110: d7ae d2bd d117 803d 498c 203e 8dd5 333e
00000120: 6ea6 a3bd ef2a 22be c3ab 0ebd 8d26 65bc
00000130: 738a 1ebe 39e3 06be ef17 39bc b380 913d
00000140: 418d 9f3a 74b2 57bd 6d0c c2bc 1d08 263e
00000150: a938 993d 8374 cbbd 7094 d73d 84cf f43d
00000160: fe4b c6bd f128 0cbd 9289 e03d 3c9a a73b
00000170: 0a22 e93c 02ca 1fbd 946b 2bbd cab0 ac3d
00000180: 94bd d93d 5ea2 35bd 6761 b2bc a66c d53c
00000190: db3b a13d 977b 2fbe 3ac5 90bd e7e4 d63d
000001a0: bd08 1f3e cfc9 2dbe 96b1 273d c622 41bd
000001b0: f3d3 833d 811e 13bc 970b 9abd b1bb 14be
000001c0: 63d5 4fbd 8eab 143d 9886 4dbd cbd6 f13b
000001d0: bb8d 793d 8ed6 eb3d 6158 f63d e5a1 813d
000001e0: 3e7c e73d 38e7 1bbe 9d27 f43d 9075 c3bc
000001f0: 0850 f63d 2683 0b3e f8e3 0f3e 0a94 873d
00000200: 0cfb d83d 75bc 763d afb7 013d d654 b6bd
00000210: 117f 183c 0be7 103e d2c7 13bd 0665 eabc
00000220: 3aec 083e d4de ca3d 04c5 a7bd b177 24be
00000230: 86ae 993c 1498 09be a186 06be 5503 133e
00000240: c895 d23d 2f8b 28be da0a bbbd 1fe0 c63d
00000250: 32d7 05be af48 963d 1033 fc3c a963 fabd
00000260: d789 d73b b18b 713d 73e7 2d3e 5127 d83d
00000270: 2891 d03c c0ef 8dbd 1cda 23be ac46 bc3c
00000280: c91c d83c d332 8d3d 5511 68bd 61d4 07be
00000290: 2536 e53d c68d bb3d 228e 5fbd 119f 073e
000002a0: c32d 1c3e 14ef d53d 96d0 babd 67e1 edbd
000002b0: b5a3 ccbd 5d40 133e 5a43 ecbd 9db4 4b3d
000002c0: daa7 3ebd ba9c d0bd 0994 0d3e 570e 353d
000002d0: f284 9abd dfc6 42bd 5124 003e ae83 97bc
000002e0: 44f7 4a3d cb4a 0dbe e1c6 8abd 7987 43bd
000002f0: fbc5 153e ba95 21be 8957 b33d b6c0 333c
00000300: 1c14 3d3d 0f5d 7bbd dcbb ef3d 572e 5fba
00000310: 7ebd e6bd 8ece 80bc 7c80 a23d ac8f f83d
00000320: e2d3 313e 6195 243e 5016 ebbc 6ece c2bd
00000330: f19a a63c 31d7 22be 64c5 013e 4aff bc3b
00000340: b558 303e 0894 95bd 4575 cc3d 6fcd 1f3e
00000350: d0f5 e7bc d69b cf3d d73f ecbd d40a 223e
00000360: 9256 2e3d efad 103e 76fa b33c cf38 68bc
00000370: 09fa 443d 4a5c f83d 44dd eb3d 4616 f8bd
00000380: 5804 f8bd 9f03 af3d d011 2c3e dcf5 153e
00000390: 8eaa d0bd d16f ca3c 64db 70bc 89a4 19be
000003a0: 60fe 113e 420a 273e 2b5c 3e3d b0d6 e4bd
000003b0: 6c3d 95bc d3cf fa3d 9bde cabd 821c 3fbd
000003c0: b9bd b0bd 54f0 0b3c 0617 9dbd 801c f5bc
000003d0: 911a 4dbd b7a8 d83d 47e3 aebd 86ec 423d
000003e0: 2910 0f3e 0776 123e 40da 1cbe 1177 5dbd
000003f0: d840 bebd dfd6 0bbe dcbb 653d a55b fa3d

col_embedding.3.bias f4 [32]
-0.04595233 0.15033038 -0.09717251 0.11979403 -0.02367416 0.15292548 0.10478143 0.03182336
0.1428215 0.14209661 0.13186587 0.13236207 -0.084720515 0.15785982 0.067607336 -0.01992634
-0.093520515 -0.084166154 0.11563452 0.1431831 0.09141841 0.09859553 -0.12322465 0.15109055
0.13883601 -0.06552726 0.13573186 0.0937643 0.09202757 0.030183433 -0.089948036 0.07559505
00000000: 8338 3cbd 35f0 193e 6202 c7bd 9356 f53d
00000010: 50f0 c1bc 7f98 1c3e a597 d63d 3659 023d
00000020: cd3f 123e c681 113e d907 073e ec89 073e
00000030: f381 adbd 01a6 213e b775 8a3d 903c a3bc
00000040: af87 bfbd 4e5f acbd cbd1 ec3d 979e 123e
00000050: 9339 bb3d 74ec c93d 355d fcbd 7bb7 1a3e
00000060: 072b 0e3e 2833 86bd 4bfd 0a3e 7f07 c03d
00000070: f378 bc3d 3f43 f73c ad36 b8bd 94d1 9a3d

conv_col_to_row.feature_module_left.0.weight f4 [32, 32]
0.024011662 -0.15608524 -0.0030565117 0.04303678 -0.032360747 -0.11693007 0.017799426 -0.053813025
0.15930016 0.010651725 -0.01815803 0.1284399 -0.0023570894 -0.050343513 -0.01825886 -0.012475336
-0.011580816 -0.13880274 0.12859547 0.032289207 -0.094542645 -0.106163986 0.0820036 0.075278066
0.09363247 -0.106825955 -0.1625535 -0.13147454 0.12445389 -0.049310148 -0.056059044 -0.102675036
0.129458 0.07125079 0.101767756 -0.10163796 -0.032911267 0.15994956 -0.025797246 -0.1758224
-0.09136148 0.00476387 0.115569375 0.030462226 0.03833233 -0.12695992 0.03132071 0.014903889
0.12638706 -0.13174903 0.024551025 -0.107210115 -0.037951354 0.082935385 -0.17838761 0.10717156
-0.16678032 0.038376503 0.07918764 0.103686176 -0.09800701 -0.10756635 0.08743533 -0.017061025
0.113761276 -0.1078733 0.02701878 0.06687985 0.022289878 0.12799393 -0.13063887 0.16609651
-0.11677563 -0.10628135 0.12857527 0.02139017 -0.16801792 -0.16680065 -0.082192704 0.16601588
0.040573254 -0.13057269 0.17209277 0.06792946 -0.079868875 -0.027839147 -0.050473608 0.17568152
0.007096118 0.052140493 -0.14031608 0.023100175 -0.06855881 0.066742435 0.026782637 -0.010665279
-0.05094018 -0.061687708 0.012233468 0.0075087734 -0.014594352 0.05118684 -0.018531352 -0.07106589
0.13945648 -0.09499821 -0.12468889 0.15106432 0.027280282 -0.033824746 -0.096618615 -0.033591915
-0.13368417 0.039616015 0.019896077 0.07397269 -0.038763445 -0.16828799 0.13429624 -0.16217847
-0.114525735 -0.0063311695 -0.10179718 -0.09357381 0.12162296 -0.17207062 -0.022453858 0.089561164
-0.15017065 0.0784945 0.16103813 0.0011452555 0.0927127 -0.11192253 0.13147065 -0.15857181
0.06241097 0.101977386 -0.084242664 -0.10196096 0.041564852 0.16268283 -0.079827495 0.13020629
-0.08108007 -0.0066116555 0.13370727 -0.14660603 -0.18207206 -0.031466752 0.031708304 0.022785524
-0.17465429 -0.08076822 0.04144028 -0.027149584 -0.1556633 0.05467132 0.04644788 -0.09643433
0.0066726515 -0.13684088 0.15907785 0.078347035 0.014520487 0.08183377 0.051891703 0.11415128
-0.14448343 -0.033940017 0.06654021 -0.1475816 -0.0342938 -0.06299183 0.019452857 -0.12606558
0.16646428 -0.12814556 -0.06269475 -0.1041103 0.11569291 0.1211135 0.05190809 0.121947564
0.16603616 -0.008881119 -0.09855471 0.14142582 0.06650396 -0.14031152 0.008840622 0.1737974
-0.0498389 -0.15552098 0.1638717 0.028295474 0.07281513 -0.16349974 0.14905617 -0.11181428
0.028652597 0.083507575 0.015034182 -0.17408398 0.025243822 -0.077719726 0.046813834 0.07720621
0.023261102 -0.024792753 -0.054793302 0.12278084 -0.0790177 0.058488052 -0.10012428 -0.0705656
0.027296564 -0.13722032 0.048567463 -0.049849596 0.16926132 0.0031156593 -0.14579155 0.12498352
-0.12586991 0.008959983 -0.009288987 -0.123056814 0.14383274 -0.10075847 0.026819719 0.14623496
0.13548072 -0.15607387 0.1464823 -0.076652706 -0.004901708 -0.097527355 0.01692481 0.09969252
-0.13089338 -0.0027530475 0.17003 0.1140803 -0.037997324 -0.14941444 0.0032835915 -0.065377824
0.0876784 0.11809952 -0.11634935 -0.0015302132 0.12344535 0.08342793 -0.15020272 -0.1487319
00000000: 1bb4 c43c cfd4 1fbe c24f 48bb 5647 303d
00000010: b48c 04bd 0879 efbd 1ad0 913c 0c6b 5cbd
00000020: 951f 233e 9384 2e3c 26c0 94bc c085 033e
00000030: 6679 1abb 0035 4ebd 9b93 95bc 5a65 4cbc
00000040: 76bd 3dbc 4e22 0ebe 88ae 033e b041 043d
00000050: 939f c1bd 816c d9bd 81f1 a73d 632b 9a3d
00000060: 61c2 bf3d 91c7 dabd 6d74 26be 43a1 06be
00000070: aee1 fe3d 70f9 49bd 2b9e 65bd 4a47 d2bd
00000080: a390 043e efeb 913d 9d6b d03d 9027 d0bd
00000090: f7cd 06bd d1c9 233e bf54 d3bc ca0a 34be
000000a0: ba1b bbbd 3d1a 9c3b a3af ec3d eb8b f93c
000000b0: 5c02 1d3d c801 02be 254a 003d 712f 743c
000000c0: 9c6b 013e 38e9 06be 3b1f c93c fa90 dbbd
000000d0: e172 1bbd 07da a93d 3eab 36be c37c db3d
000000e0: 76c8 2abe ae30 1d3d 212d a23d 6b59 d43d
000000f0: e6b7 c8bd bf4b dcbd 4b11 b33d 90c3 8bbc
00000100: acfb e83d adec dcbd 7d56 dd3c 4ef8 883d
00000110: 4399 b63c d710 033e 32c6 05be 3415 2a3e
00000120: 1028 efbd 09aa d9bd 3ca9 033e 703a af3c
00000130: e40c 2cbe cacd 2abe a654 a8bd 1100 2a3e
00000140: 2430 263d d9b4 05be 1639 303e 9a1e 8b3d
00000150: 4b92 a3bd ec0e e4bc 6abd 4ebd dbe5 333e
00000160: 8d86 e83b 4591 553d 05af 0fbe 943c bd3c
00000170: 9068 8cbd 42b0 883d 4367 db3c 6cbd 2ebc
00000180: a6a6 50bd 40ac 7cbd e26e 483c 280c f63b
00000190: 261d 6fbc 4ba9 513d 10cf 97bc fe8a 91bd
000001a0: aecd 0e3e 6c8e c2bd e45c ffbd 9bb0 1a3e
000001b0: e67a df3c d18b 0abd fbdf c5bd ad97 09bd
000001c0: 81e4 08be 6744 223d 19fd a23c fe7e 973d
000001d0: 6bc6 1ebd b053 2cbe f484 093e 1d12 26be
000001e0: 788c eabd b375 cfbb 0a7b d0bd a0a3 bfbd
000001f0: 7515 f93d 4833 30be 27f1 b7bc d86b b73d
00000200: 56c6 19be b9c1 a03d 2ee7 243e 661c 963a
00000210: 28e0 bd3d a437 e5bd 3ea0 063e a660 22be
00000220: a5a2 7f3d 85d9 d03d 6b87 acbd e8d0 d0bd
00000230: e83f 2a3d 5496 263e 997c a3bd cc54 053e
00000240: 4f0d a6bd 96a6 d8bb 8fea 083e e41f 16be
00000250: 1971 3abe 48e3 00bd 91e0 013d b5a8 ba3c
00000260: 93d8 32be cf69 a5bd 48bd 293d ce68 debc
00000270: 3366 1fbe 09ef 5f3d 2240 3e3d 5d7f c5bd
00000280: 42a6 da3b 0420 0cbe 4ee5 223e 6974 a03d
00000290: 56e7 6d3c 7798 a73d 658c 543d 25c8 e93d
000002a0: 77f3 13be b004 0bbd 3c46 883d a21f 17be
000002b0: a877 0cbd dc01 81bd 995b 9f3c 5617 01be
000002c0: 9d75 2a3e 9738 03be 1b66 80bd c837 d5bd
000002d0: 68f0 ec3d 5b0a f83d 949d 543d a5bf f93d
000002e0: 6205 2a3e 1d82 11bc 0dd7 c9bd eed1 103e
000002f0: 3a33 883d d3ad 0fbe 42d8 103c f2f7 313e
00000300: e023 4cbd e440 1fbe fccd 273e e9cb e73c
00000310: 1920 953d 7a6c 27be 2ea2 183e e3fe e4bd
00000320: dab8 ea3c 0506 ab3d ee51 763c 1243 32be
00000330: 22cc ce3c 852b 9fbd ddbf 3f3d 4a1e 9e3d
00000340: 118e be3c 2c1a cbbc f16e 60bd 8574 fb3d
00000350: 08d4 a1bd 2b91 6f3d f50d cdbd b384 90bd
00000360: 0b9d df3c 7c83 0cbe adee 463d 172f 4cbd
00000370: d752 2d3e 1730 4c3b 614a 15be 5cf7 ff3d
00000380: 0be4 00be e4cc 123c d630 18bc 3605 fcbd
00000390: e448 133e 755a cebd 07b5 db3c 9ebe 153e
000003a0: 75bb 0a3e d4d1 1fbe 75ff 153e 18fc 9cbd
000003b0: 829e a0bb 6cbc c7bd e6a5 8a3c 982b cc3d
000003c0: ea08 06be 796c 34bb 581c 2e3e efa2 e93d
000003d0: 15a3 1bbd 1900 19be 8631 573b cfe4 85bd
000003e0: bc90 b33d 29de f13d 9148 eebd 6f91 c8ba
000003f0: ead0 fc3d 43dc aa3d bece 19be 2d4d 18be

conv_col_to_row.feature_module_left.0.bias f4 [32]
0.10618425 0.12802176 -0.10903916 0.06585131 -0.01981964 0.112600684 -0.08685497 0.17388698
-0.059842624 -0.14513591 -0.107342355 -0.15167713 0.037036598 0.07069828 -0.16400336 -0.15174982
0.08791769 0.13025413 0.025417892 0.03780802 0.047188375 0.08633075 0.16205917 -0.0881054
0.091225974 -0.053224407 0.12563394 -0.1705762 -0.10185709 -0.06862582 -0.05691231 -0.1677859
00000000: 2177 d93d 2318 033e ec4f dfbd 0ddd 863d
00000010: cc5c a2bc 309b e63d 05e1 b1bd 6e0f 323e
00000020: 8a1d 75bd 829e 14be 4fd6 dbbd 4051 1bbe
00000030: b0b3 173d 43ca 903d 7ff0 27be 4e64 1bbe
00000040: 310e b43d 5761 053e 2f39 d03c 95dc 1a3d
00000050: 9948 413d 2dce b03d d7f2 253e 9b70 b4bd
00000060: afd4 ba3d d601 5abd 2fa6 003e 87ab 2ebe
00000070: 739a d0bd b28b 8cbd e21c 69bd 11d0 2bbe

conv_col_to_row.feature_module_edge.0.weight f4 [32, 1]
0.54318005 0.60907626 0.093958 0.33356693 0.085287206 0.4543905 -0.73028916 -0.3299465
-0.5095576 0.20809862 -0.9100559 -0.83909714 -0.8270416 0.13313353 -0.53256327 0.088277176
-0.06227913 -0.14557232 0.6930481 0.65660995 -0.7283657 0.009457359 -0.8161574 -0.68772954
0.68444467 0.4079388 -0.66205615 0.65203404 -0.15429801 0.14590837 -0.26479185 0.92125785
00000000: d90d 0b3f 6cec 1b3f 0d6d c03d 49c9 aa3e
00000010: 0fab ae3d dfa5 e83e 3bf4 3abf bfee a8be
00000020: 5e72 02bf ce17 553e 6cf9 68bf 12cf 56bf
00000030: 00b9 53bf 2854 083e 1156 08bf aaca b43d
00000040: 6718 7fbd e910 15be 9a6b 313f 9717 283f
00000050: 2d76 3abf 0af3 1a3c b1ef 50bf 0b0f 30bf
00000060: c437 2f3f 5bdd d03e 837c 29bf b4eb 263f
00000070: 4c00 1ebe 0169 153e cc92 87be 8ed7 6b3f

conv_col_to_row.feature_module_right.0.weight f4 [32, 32]
-0.06318956 0.078423776 -0.10192772 0.11807889 -0.086849354 -0.11892695 -0.013299435 0.029801684
0.007185081 -0.1030865 -0.094519146 0.05926428 -0.1008919 0.005511202 0.07596982 0.018266203
0.17883001 0.16200641 0.020517029 0.13539213 -0.16715962 0.036156893 0.17330611 -0.060757272
0.06748776 0.03954605 0.13719313 -0.09814903 -0.11728403 0.006063791 -0.112257615 0.14727612
0.15537412 0.091654256 -0.018678583 0.17568113 -0.15606818 0.17464817 -0.07841187 0.14664376
-0.10893775 -0.095269725 -0.10726388 0.089010924 0.034535073 0.10166574 0.005621087 -0.058567986
0.13731481 -0.14128372 0.07496596 -0.15015303 0.16423471 0.011309873 -0.05989496 0.13407004
-0.14994857 -0.098485865 -0.14284118 -0.05787107 -0.07625242 0.09869831 -0.14954376 0.0037932522
0.13852802 -0.038218714 -0.06009952 -0.07923832 0.08961646 0.11332001 -0.13235418 -0.023144675
-0.1499734 -0.052404176 0.020363959 0.024141436 0.12811875 0.1202205 0.05169261 -0.16051495
-0.04594059 0.17566904 -0.05639052 0.043479152 0.027351255 0.09765572 -0.09018433 -0.09795634
-0.045275178 0.11627582 -0.16142577 -0.025350772 0.10346943 0.14102595 0.036580645 -0.0870751
0.039886322 -0.13327876 -0.17233562 0.1340156 -0.17519373 -0.13146809 0.16394353 0.06309984
-0.107259996 -0.12736751 -0.15075648 -0.032856196 -0.10696586 0.08167795 -0.12144526 -0.06849098
-0.053356107 0.05464543 -0.019112349 -0.030169904 -0.07990684 -0.16995092 0.16929041 0.14516972
0.061012346 -0.011883262 0.12698689 -0.046801817 0.0052422793 0.11258399 -0.10894443 0.1134307
-0.08529716 -0.13401091 0.17209806 -0.07221495 -0.073326744 -0.058425702 0.031056779 -0.0143431965
-0.14887884 -0.16199778 0.10491927 0.07378837 0.13513684 -0.1635218 0.018838577 0.14196663
-0.08036077 0.007617898 0.0018557236 0.15608038 -0.13794191 -0.034255058 0.064152874 0.0061914055
0.037825767 -0.1091601 -0.1482185 0.15739866 0.012845965 -0.06936365 -0.0036330903 0.04976348
0.080049075 0.15374552 -0.1669347 -0.14065519 0.0619915 -0.092672385 0.05289077 0.17339899
-0.07160141 0.15274046 0.06675275 0.100973755 0.16386698 0.1716038 0.11066275 0.09026998
0.061258595 0.14365299 0.16884525 -0.14736949 0.12612781 0.10963694 0.0913118 0.086306766
-0.08877447 0.09080327 0.11138314 0.04391315 0.037876092 -0.1209806 -0.1582462 -0.058644183
0.15439077 0.007672213 0.05766979 0.06250705 -0.0014406672 -0.0014247607 -0.015280361 -0.114357874
0.0813775 -0.10057208 0.05302424 -0.07579845 -0.05504878 -0.0040252544 -0.079841465 -0.1192914
-0.13869628 0.059317246 -0.12424256 -0.17097384 -0.10492216 0.008489461 0.00845748 0.0072934865
0.050580338 -0.08341476 0.098669864 0.005716257 0.13788709 0.026142672 0.05908958 -0.124375336
0.13686782 -0.020985432 -0.074625716 0.14689974 -0.05485986 0.10963607 0.008998747 0.0022489827
0.14953738 -0.09858762 0.026798699 -0.07937913 0.1096688 0.03419048 0.09488528 0.106845856
-0.05568336 -0.10246844 -0.04618102 0.02045781 -0.099996336 0.1058191 -0.094826154 0.08235601
-0.15022774 -0.088538624 0.02597824 -0.17531563 0.14712219 0.15116785 0.07858388 -0.026911775
00000000: 8769 81bd a59c a03d 7bbf d0bd 58d3 f13d
00000010: 13de b1bd f98f f3bd e0e5 59bc a922 f43c
00000020: d470 eb3b 041f d3bd 4193 c1bd 1abf 723d
00000030: 6aa0 cebd 5097 b43b 1196 9b3d 01a3 953c
00000040: 371f 373e 02e5 253e 5413 a83c 3ca4 0a3e
00000050: e42b 2bbe 4019 143d 2877 313e 9edc 78bd
00000060: 0637 8a3d 0afb 213d 5b7c 0c3e 5c02 c9bd
00000070: 9c32 f0bd c4b2 c63b 52e7 e5bd 8dcf 163e
00000080: 651a 1f3e 3ab5 bb3d d403 99bc c1e5 333e
00000090: 56d0 1fbe f8d6 323e 6796 a0bd c829 163e
000000a0: c11a dfbd c61c c3bd 2aad dbbd 5c4b b63d
000000b0: a674 0d3d 2136 d03d 1831 b83b fce4 6fbd
000000c0: 419c 0c3e aeac 10be c187 993d b7c1 19be
000000d0: 252d 283e 0c4d 393c 6b54 75bd a849 093e
000000e0: 1e8c 19be f5b2 c9bd f544 12be 370a 6dbd
000000f0: 3b2a 9cbd 5722 ca3d 0022 19be 3698 783b
00000100: 4ada 0d3e 3a8b 1cbd ea2a 76bd b347 a2bd
00000110: d688 b73d 5214 e83d db87 07be e799 bdbc
00000120: a192 19be c3a5 56bd 51d2 a63c 43c4 c53c
00000130: 9031 033e 2a36 f63d a1bb 533d 085e 24be
00000140: 332c 3cbd 96e2 333e bff9 66bd 3217 323d
00000150: bd0f e03c b9ff c73d 90b2 b8bd 559d c8bd
00000160: 7772 39bd 0422 ee3d cc4c 25be 6cac cfbc
00000170: c8e7 d33d 1b69 103e 96d5 153d 6e54 b2bd
00000180: d75f 233d 3a7a 08be c078 30be 633b 093e
00000190: fc65 33be 929f 06be d0e0 273e 7d3a 813d
000001a0: 21ab dbbd a16c 02be e85f 1abe 3894 06bd
000001b0: eb10 dbbd c546 a73d 4bb8 f8bd 0045 8cbd
000001c0: ef8b 5abd e3d3 5f3d 8091 9cbc e026 f7bc
000001d0: 33a6 a3bd 9d07 2ebe 775a 2d3e 5fa7 143e
000001e0: 15e8 793d 03b2 42bc da08 023e 43b3 3fbd
000001f0: 6dc7 ab3b 6f92 e63d 421e dfbd 5b4e e83d
00000200: 47b0 aebd 283a 09be 793a 303e 6fe5 93bd
00000210: 552c 96bd ca4f 6fbd c96a fe3c baff 6abc
00000220: b273 18be bfe2 25be eadf d63d 5b1e 973d
00000230: 5061 0a3e 4272 27be 5c53 9a3c b35f 113e
00000240: 3094 a4bd 8f9f f93b c03b f33a 89d3 1f3e
00000250: a540 0dbe 084f 0cbd 9562 833d 46e1 ca3b
00000260: 31ef 1a3d 558f dfbd 97c6 17be 1d2d 213e
00000270: e277 523c 880e 8ebd 2419 6ebb cad4 4b3d
00000280: c5f0 a33d 776f 1d3e eef0 2abe ea07 10be
00000290: cdea 7d3d 05cb bdbd fea3 583d 818f 313e
000002a0: c3a3 92bd ff67 1c3e aab5 883d 54cb ce3d
000002b0: bfcc 273e e8b8 2f3e 27a3 e23d 78df b83d
000002c0: 4bea 7a3d c519 133e c5e5 2c3e 07e8 16be
000002d0: a627 013e 5589 e03d ae01 bb3d 9ac1 b03d
000002e0: 64cf b5bd 11f7 b93d d81c e43d 46de 333d
000002f0: f623 1b3d adc4 f7bd 4b0b 22be e234 70bd
00000300: 9d18 1e3e 3067 fb3b 2837 6c3d b203 803d
00000310: c5d4 bcba 09bf baba 7b5a 7abc 7634 eabd
00000320: 3fa9 a63d bcf8 cdbd f22f 593d 383c 9bbd
00000330: d47a 61bd 48e6 83bb ec83 a3bd 0d4f f4bd
00000340: 6606 0ebe a4f6 723d e272 febd c413 2fbe
00000350: 6ee1 d6bd 6117 0b3c 3e91 0a3c 33fe ee3b
00000360: 542d 4f3d 5cd5 aabd 6d13 ca3d 704f bb3b
00000370: 4632 0d3e 2829 d63c ea07 723d 7fb8 febd
00000380: 1427 0c3e a4e9 abbc 5ed5 98bd e36c 163e
00000390: bcb4 60bd e088 e03d 7b6f 133c ab63 133b
000003a0: 5420 193e 4ee8 c9bd f288 db3c 8691 a2bd
000003b0: 099a e03d 510b 0c3d 3753 c23d 00d2 da3d
000003c0: 3c14 64bd f9da d1bd 4f28 3dbd 2397 a73c
000003d0: e1ca ccbd afb7 d83d 3734 c2bd 45aa a83d
000003e0: 4dd5 19be bd53 b5bd 51d0 d43c f185 33be
000003f0: 33a7 163e bfcb 1a3e 96f0 a03d 1576 dcbc

conv_col_to_row.feature_module_final.0.weight f4 [32]
0.9980762 0.9992903 1.0 0.99937075 1.0 0.99990237 1.0066648 0.99924654
0.99885887 1.0025398 1.0003417 1.000052 1.0007836 1.0011231 1.0000385 0.99805105
1.0030873 1.0000813 1.0005713 1.000612 1.0035471 1.0010093 0.99931014 1.0000526
1.0042893 1.0003445 1.003729 1.0 1.0 0.99837035 1.0 1.0
00000000: ec81 7f3f 7dd1 7f3f 0000 803f c3d6 7f3f
00000010: 0000 803f 9af9 7f3f 64da 803f 9fce 7f3f
00000020: 37b5 7f3f 3953 803f 320b 803f b401 803f
00000030: ad19 803f cd24 803f 4301 803f 4680 7f3f
00000040: 2a65 803f aa02 803f b812 803f 0e14 803f
00000050: 3b74 803f 1321 803f cad2 7f3f b901 803f
00000060: 8d8c 803f 4a0b 803f 317a 803f 0000 803f
00000070: 0000 803f 3395 7f3f 0000 803f 0000 803f

conv_col_to_row.feature_module_final.0.bias f4 [32]
-0.0011561336 -0.0010212752 0.0 -0.00075036247 0.0 -0.00015930264 0.0013215791 -0.00060588034
-0.00068140915 0.0019813818 0.00071274076 -6.186313e-05 0.0008039069 -0.0002446947 0.001314964 -0.0011786378
0.000632827 -5.387526e-05 1.0789236e-06 0.0018754114 0.0024764135 0.00014664784 0.00024117285 -0.00051214895
0.0033452353 -0.00011839404 0.0022824355 0.0 0.0 -0.0023766828 0.0 0.0
00000000: 6889 97ba 4fdc 85ba 0000 0000 f9b3 44ba
00000010: 0000 0000 7a0a 27b9 d638 ad3a f1d3 1eba
00000020: 98a0 32ba 12da 013b 39d7 3a3a 84bc 81b8
00000030: 47bd 523a 5e4a 80b9 df5a ac3a 867c 9aba
00000040: 4de4 253a 1ff8 61b8 88cf 9035 5dd0 f53a
00000050: 534b 223b 7bc5 1939 58e3 7c39 bc41 06ba
00000060: bc3b 5b3b 514a f8b8 ea94 153b 0000 0000
00000070: 0000 0000 1fc2 1bbb 0000 0000 0000 0000

conv_col_to_row.feature_module_final.2.weight f4 [32, 32]
-0.01613743 0.046537075 -0.11127706 0.059834868 -0.06373465 0.073587894 0.020043505 0.07306029
-0.14902797 -0.16020554 -0.07397526 -0.080623694 0.12749842 0.1302686 -0.039649177 0.061627798
-0.1608409 -0.0145011395 0.10740531 -0.089954406 0.16790761 -0.050441414 0.1276956 0.09653083
0.06151881 -0.10150262 0.10020452 -0.101569265 0.03590351 -0.13512096 -0.020012967 0.044545975
-0.14140749 -0.17048635 -0.015672306 0.027005522 0.07167183 0.12967521 -0.016080644 -0.09005775
-0.061373215 0.11117922 -0.12075598 -0.028212512 -0.049438875 0.033024978 0.09480313 0.16775905
-0.053357054 0.14825071 -0.052354254 0.16738576 -0.16579106 0.1336858 0.11931238 -0.073909305
0.1390907 -0.07824362 0.10625797 0.035133295 -0.06753847 -0.11827678 0.019978976 0.0917013
-0.1721824 -0.08527499 -0.121474676 0.06442374 -0.023455016 -0.061106008 0.13962415 0.036220197
0.12245823 -0.13238755 0.12554604 -0.048532307 0.015529008 -0.05147417 -0.16027856 -0.12597124
0.09712325 0.0073679406 -0.17298535 -0.059784867 -0.104547456 0.061759803 0.13043842 0.09547577
-0.16958824 0.045003913 0.016026363 0.10203353 -0.03152778 0.13270894 -0.043918703 0.00791168
0.11618739 0.015449225 -0.14947978 -0.038860526 -0.09781843 -0.0220892 -0.06355983 0.0920526
0.16865048 0.11053051 0.13138838 -0.038456246 -0.14017281 -0.013936813 -0.0247409 0.11069083
0.14167805 0.15154485 -0.07708929 -0.06539807 0.06636399 -0.01103035 0.08631042 -0.15562081
0.118003234 0.067469254 -0.01693899 0.00476487 0.08255697 -0.16011648 0.0367138 0.0066200052
0.031854585 -0.10544952 0.15925448 0.13558061 0.04933952 -0.16326489 -0.06469046 -0.040116176
-0.071751714 0.15485235 0.1501028 0.14367786 0.101696394 0.07510413 0.11108522 -0.09354398
-0.02388794 0.089573815 0.024049114 0.10307483 0.07147454 -0.0990557 -0.13810918 -0.0814724
0.11327909 -0.09059693 -0.0516004 -0.11170071 0.022027038 0.10303897 -0.03889861 -0.084650576
0.101664826 -0.054523837 0.0033183477 -0.1024827 0.05207694 -0.11860592 0.16204046 -0.0097863795
0.041072916 -0.13877468 0.024154145 0.15984519 -0.14691459 0.12340789 -0.08656322 -0.08778542
0.043574538 0.17548923 -0.12646882 0.05261902 0.1661882 -0.010790907 -0.113528505 -0.0749533
0.011949355 -0.06154569 -0.08957851 -0.14715016 0.16183513 -0.16033617 0.1507432 0.036157697
-0.118465304 0.06118877 0.08522481 0.13681595 -0.04886063 0.08195323 -0.092208266 -0.029686874
-0.14479433 0.00042740843 -0.1760244 -0.15127611 -0.13415892 -0.13639008 0.11801104 -0.01379767
-0.051188845 -0.16483438 0.173079 -0.12000851 0.00015029307 0.06607282 -0.15878022 0.0065354956
0.017105939 0.09090913 0.07023406 0.13408554 -0.15047811 -0.05087739 0.057341672 -0.12612367
-0.07874994 0.14884871 0.019418191 0.0226453 0.052995216 -0.13100167 -0.1740861 0.12877785
0.13599914 0.11026837 0.15956552 0.115667365 -0.07468525 -0.12122726 0.035061646 0.12787129
0.14215478 0.08883945 0.027404202 0.10047004 -0.052512452 0.1010572 0.028461792 0.027196947
-0.11147194 -0.13300803 0.18041594 0.12593839 0.06632287 -0.022212293 -0.15697339 0.16508745
00000000: a532 84bc a99d 3e3d 3ae5 e3bd 6815 753d
00000010: 5087 82bd 40b5 963d 4732 a43c a2a0 953d
00000020: ca9a 18be ec0c 24be 5780 97bd 091e a5bd
00000030: f28e 023e 2265 053e 2d67 22bd 6e6d 7c3d
00000040: 7ab3 24be 3096 6dbc 51f7 db3d 043a b8bd
00000050: f9ef 2b3e a89b 4ebd a3c2 023e f5b1 c53d
00000060: 26fb 7b3d 9be0 cfbd 0738 cd3d 8c03 d0bd
00000070: 8f0f 133d 265d 0abe 3cf2 a3bc d775 363d
00000080: 20cd 10be f993 2ebe 3563 80bc af3a dd3c
00000090: aec8 923d 94c9 043e 8ebb 83bc 3370 b8bd
000000a0: 7b62 7bbd eeb1 e33d e94e f7bd ed1d e7bc
000000b0: 6b80 4abd 3345 073d 2528 c23d 07c9 2b3e
000000c0: ed8c 5abd 09cf 173e 6a71 56bd 2c67 2b3e
000000d0: 22c5 29be eee4 083e 0d5a f43d c35d 97bd
000000e0: cb6d 0e3e 313e a0bd c79d d93d eee7 0f3d
000000f0: 9c51 8abd 193b f2bd f3aa a33c e4cd bb3d
00000100: 9550 30be a7a4 aebd b7c7 f8bd 98f0 833d
00000110: bc24 c0bc 4b4a 7abd a2f9 0e3e a15b 143d
00000120: 61cb fa3d 9a90 07be 248f 003e d0c9 46bd
00000130: 616d 7e3c 94d6 52bd 1020 24be 9bfe 00be
00000140: 8ee8 c63d c46e f13b 1223 31be fae0 74bd
00000150: fa1c d6bd d9f7 7c3d a691 053e cd88 c33d
00000160: 8aa8 2dbe 0656 383d b849 833c f5f6 d03d
00000170: 4623 01bd dae4 073e 19e4 33bd fe9f 013c
00000180: a8f3 ed3d bf1e 7d3c 3a11 19be 372c 1fbd
00000190: 0755 c8bd 69f4 b4bc a82b 82bd 1386 bc3d
000001a0: b6b2 2c3e d25d e23d ad8a 063e 4c84 1dbd
000001b0: 7689 0fbe 3b57 64bc 6ead cabc e0b1 e23d
000001c0: 0d14 113e 932e 1b3e fde0 9dbd 6cef 85bd
000001d0: d8e9 873d a4b8 34bc 84c3 b03d 105b 1fbe
000001e0: aeab f13d 522d 8a3d a3c3 8abc a022 9c3b
000001f0: a113 a93d 93f5 23be 3661 163d a1ec d83b
00000200: f479 023d ebf5 d7bd 9b13 233e a5d5 0a3e
00000210: 3d18 4a3d e92e 27be 6f7c 84bd dc50 24bd
00000220: 90f2 92bd 9d91 1e3e 8cb4 193e 4a20 133e
00000230: 3346 d03d 32d0 993d a680 e33d fc93 bfbd
00000240: a4b0 c3bc 7a72 b73d a602 c53c e518 d33d
00000250: 3e61 923d b7dd cabd 7e6c 0dbe 00db a6bd
00000260: defe e73d e28a b9bd f15a 53bd 58c3 e4bd
00000270: 0c72 b43c 1806 d33d 2654 1fbd 485d adbd
00000280: a635 d03d 6354 5fbd a378 593b 73e2 d1bd
00000290: a14e 553d a9e7 f2bd efed 253e 0d57 20bc
000002a0: 133c 283d f31a 0ebe eade c53c 75ae 233e
000002b0: c770 16be 47bd fc3d 0f48 b1bd d8c8 b3bd
000002c0: 377b 323d 73b3 333e 0b81 01be 0b87 573d
000002d0: 3d2d 2a3e 58cc 30bc a281 e8bd 1e81 99bd
000002e0: 3ac7 433c 5517 7cbd f074 b7bd 88ae 16be
000002f0: 1cb8 253e 2a2f 24be 6d5c 1a3e 181a 143d
00000300: f09d f2bd 13a1 7a3d 588a ae3d 7b19 0c3e
00000310: 1522 48bd 18d7 a73d b0d7 bcbd e331 f3bc
00000320: f744 14be ca15 e039 be3f 34be 20e8 1abe
00000330: f560 09be d7a9 0bbe c6af f13d 9f0f 62bc
00000340: 65ab 51bd 58ca 28be 9f3b 313e 06c7 f5bd
00000350: fd97 1d39 3051 873d 4897 22be b627 d63b
00000360: c121 8c3c 912e ba3d e0d6 8f3d b84d 093e
00000370: ef16 1abe cf64 50bd 1adf 6a3d 9026 01be
00000380: a647 a1bd cc6b 183e e612 9f3c a382 b93c
00000390: 8311 593d 4d25 06be a043 32be 57de 033e
000003a0: 5c43 0b3e 62d4 e13d 2565 233e 03e3 ec3d
000003b0: 95f4 98bd ff45 f8bd cd9c 0f3d b1f0 023e
000003c0: 0691 113e 75f1 b53d c77e e03c 3dc3 cd3d
000003d0: 4c17 57bd 14f7 ce3d b428 e93c 22cc de3c
000003e0: 674b e4bd 4233 08be f5be 383e fef5 003e
000003f0: 49d4 873d 8ef6 b5bc a2bd 20be af0c 293e

conv_col_to_row.feature_module_final.2.bias f4 [32]
0.045754105 -0.09978222 -0.028948141 -0.018364534 -0.16377999 -0.15416606 0.1440726 0.045310345
0.16346578 -0.010992259 -0.065695785 0.16100326 0.14191107 0.16569608 0.1674083 0.051112004
-0.1057994 -0.15308116 -0.06337827 0.032821838 0.10568389 -0.038407825 0.11485929 0.05692662
-0.11568174 0.063470446 -0.00079454144 0.003531894 0.09512208 -0.06148197 0.1590109 -0.08980502
00000000: a868 3b3d 9f5a ccbd a724 edbc 3871 96bc
00000010: f1b5 27be b5dd 1dbe c587 133e 5797 393d
00000020: 9363 273e e018 34bc 838b 86bd 0ade 243e
00000030: 2351 113e 3cac 293e 156d 2b3e d25a 513d
00000040: 5bad d8bd 4fc1 1cbe 77cc 81bd 3170 063d
00000050: cc70 d83d 8651 1dbd 593b eb3d e32b 693d
00000060: 8cea ecbd cbfc 813d c648 50ba 5977 673b
00000070: 5dcf c23d 85d4 7bbd c1d3 223e b2eb b7bd
