GNN_method/ResultsGCNN/actor_78.pt (torch, 83520 bytes, 43 tensors)

row_embedding.0.weight f4 [7]
000000 08 a4 80 3f d7 46 80 3f 9d d8 7f 3f 09 2c 80 3f
       1.0050058 1.0021619 0.999399 1.0013438
000010 ba 92 7f 3f fd 88 80 3f b5 08 80 3f
       0.9983326 1.0041806 1.0002657

row_embedding.0.bias f4 [7]
000000 c5 ea 44 bb 96 69 8d ba 94 da 77 ba af c8 ea ba
       -0.003004716 -0.0010788913 -0.0009454873 -0.0017912592
000010 46 2b e7 3a 0f 0d 6b bb 51 49 48 3a
       0.0017636798 -0.0035865938 0.00076403195

row_embedding.1.weight f4 [32, 7]
000000 21 61 50 3d c0 57 45 3d 5a f5 0c 3e 29 4b b6 be
       0.05087388 0.048179388 0.13765469 -0.35604218
000010 e4 34 3a be 40 c5 77 3e b3 25 ac bd e3 e7 89 be
       -0.18184239 0.24196339 -0.08405628 -0.26934728
000020 b5 27 86 bd 79 a5 26 bd dc 04 db bd 89 fe 46 3e
       -0.06550542 -0.04068515 -0.10694286 0.19433035
000030 cb 81 84 3a 66 72 aa bd d1 cc 00 be 46 ad 95 be
       0.0010109482 -0.08322601 -0.12578131 -0.2923376
000040 aa b0 90 be d6 aa 85 3e 13 37 a2 3e 0f 67 a2 3c
       -0.28259784 0.261069 0.31682643 0.019824533
000050 7e a2 4e be 43 43 55 be 1e 54 0a 3e 27 be a2 3e
       -0.20179173 -0.2082644 0.1350865 0.317857
000060 32 e6 b6 be 66 72 dd 3c 0d 52 ac 3b a7 38 45 3e
       -0.357225 0.027032088 0.0052588047 0.19259892
000070 89 bc 0e be 8a 36 06 bd f9 45 9d be d4 23 56 3e
       -0.13939108 -0.032766856 -0.30717447 0.20912105
000080 fa 91 4f be 07 8e 4e be aa 79 48 be ca 81 db bd
       -0.2027053 -0.20171367 -0.19577661 -0.10718115
000090 62 3a 67 3d 6a 79 1f bc eb 13 b7 be 67 bc c1 3d
       0.056452163 -0.009733537 -0.35757384 0.09459763
0000a0 67 00 54 be 95 4e a0 3e 27 04 8a be 63 c7 ab be
       -0.20703278 0.31309953 -0.26956293 -0.33550557
0000b0 3a d1 8b 3e 7f c8 66 be 1c a1 a0 be a4 22 6c bd
       0.27308065 -0.2253742 -0.31372917 -0.057650223
0000c0 70 b3 89 3c 08 e8 78 be 4b e3 88 3e b7 34 6a 3e
       0.016809195 -0.24307263 0.2673591 0.22871672
0000d0 98 fc 85 3e 63 11 5a 3e fb 85 07 3d d2 38 11 3d
       0.26169276 0.21295695 0.033086758 0.03545458
0000e0 55 97 0c be ac 66 95 bd 4c 2b de 3c 4c 13 2c 3c
       -0.13729604 -0.07294974 0.027120255 0.010502648
0000f0 c3 f7 0f be ea 47 57 be 3b 48 8b 3e 7b 71 4c 3d
       -0.14059357 -0.21023527 0.27203545 0.04991291
000100 a5 31 af be 85 21 47 be 04 bd b9 3e 42 49 42 be
       -0.34217563 -0.1944638 0.3627702 -0.18973258
000110 ac d7 83 3e 4d 83 b2 be 65 bd 8a be 20 d9 ac 3e
       0.25750482 -0.348658 -0.27097622 0.33759403
000120 f5 2e c3 bd a9 e6 be bb c5 00 20 bd 99 84 80 be
       -0.09530441 -0.0058258367 -0.039063234 -0.25101164
000130 d6 aa 81 3e aa dc 39 be 03 80 4a 3c b0 8d b6 be
       0.2532565 -0.18150583 0.012359622 -0.35654974
000140 af 64 9a bd eb 83 7e bc b7 26 84 3e 80 70 0b 3e
       -0.07538735 -0.015534381 0.25810787 0.13617134
000150 be 1a 94 3e 77 07 92 bd f5 0e 9e be 9d a8 d9 bd
       0.28926653 -0.0713033 -0.30870786 -0.106278636
000160 fc 10 8f bd a1 ab a2 3e a6 17 69 be d9 02 81 3e
       -0.069856614 0.31771567 -0.22762927 0.25197485
000170 78 f2 5b 3e ec c1 5e be 64 71 7d be 4a cc 1f be
       0.21479213 -0.21753663 -0.24750286 -0.15605274
000180 b9 94 19 be 81 32 8b be 26 f6 ba be 81 f2 b2 3d
       -0.1499814 -0.2718697 -0.3651592 0.0873766
000190 bf 04 cd 3d 63 0e 8f be b7 31 8c 3e 6d 1b 12 be
       0.10010671 -0.27940664 0.2738168 -0.14268275
0001a0 42 5c ee bd 92 2b 90 3d f6 f4 94 3e ff 10 a5 be
       -0.116386905 0.070395604 0.2909314 -0.3223953
0001b0 72 23 9f bd d5 9d e5 3d eb 7d a1 be 36 ae 97 3e
       -0.077704325 0.11211745 -0.3154138 0.296251
0001c0 fb 9d 13 3e 5e 71 a6 3e 2f d1 f5 bc c8 93 34 3e
       0.14415734 0.32508367 -0.030006973 0.17634499
0001d0 d9 9d 80 be 4b f3 b4 3e 55 72 c2 3d 5b d7 49 3e
       -0.25120428 0.35341868 0.09494463 0.19711058
0001e0 66 6c 5c be 3b 06 87 be fe f5 a4 be c7 28 b0 be
       -0.21525726 -0.2637194 -0.32218927 -0.3440611
0001f0 f5 a5 a0 3b b1 af c7 bc 5f 74 b3 be ef ed b0 3e
       0.004902596 -0.024375768 -0.35049722 0.3455653
000200 f0 3d 2f be 34 bf 9b be ce a1 29 be 73 c6 a0 3e
       -0.17113471 -0.30419314 -0.1656563 0.31401405
000210 11 f5 a9 3d 85 b3 4b be dc fc 2d be 8e a7 7a be
       0.08298696 -0.198927 -0.1699099 -0.2447798
000220 71 c2 f8 3d 37 0b 7d 3e e4 d2 48 be f4 c4 b9 3e
       0.12146462 0.2471131 -0.19611698 0.36283076
000230 0b 52 a7 3e b5 26 00 3e 15 87 25 bc 37 5f 8d 3e
       0.3267978 0.12514766 -0.010103007 0.27611706
000240 b0 ae d8 3d e6 57 aa be 43 e1 82 be 35 81 48 3e
       0.10580194 -0.33270186 -0.25562486 0.19580539
000250 b5 d1 eb 3c 43 5e b4 3e 31 e7 89 be 01 4e 91 be
       0.02878652 0.35228166 -0.26934198 -0.28379825
000260 86 ff d5 bd b4 1a 69 be 6a 4b 93 3e 2d fb 07 3d
       -0.10449128 -0.22764093 0.28768474 0.033198524
000270 96 a9 05 be 61 d5 56 bd f3 4e f9 3c b1 2a 8e be
       -0.13052973 -0.052449588 0.030433154 -0.27766946
000280 4f 2b 24 3d c1 7c 7c be 9e f1 70 3d ba b2 0a 3e
       0.040080365 -0.24656965 0.058824174 0.13544741
000290 4d 00 6c be 1e 52 54 be 37 45 21 bc 8b 0e 99 3e
       -0.2304699 -0.2073445 -0.009843162 0.29893908
0002a0 9a b8 3f 3e bd 09 b9 bd 54 23 a9 3e 8e b1 c8 3d
       0.18722764 -0.090350606 0.33034766 0.09799491
0002b0 5b 35 bb 3e ab 8c 88 3e 5a b6 85 be 33 db ba 3c
       0.36564144 0.2666982 -0.26115686 0.0228096
0002c0 99 e4 6c 3e 60 8c 9d 3d c6 cb f3 3d dc 9e 9f 3e
       0.23134078 0.0769279 0.11904101 0.31175888
0002d0 91 9b 8e be 00 3d ff 3d 04 99 f7 bd 23 5d 20 be
       -0.27853063 0.12462807 -0.12089732 -0.15660529
0002e0 11 c8 ad 3e 4f 3c 8a 3e 57 1b 7d 3e b7 cf 15 3d
       0.339417 0.26999137 0.2471746 0.036575045
0002f0 8a 5c 96 be 02 21 ae 3e 7a 34 d1 3d 97 5e 1f bd
       -0.29367477 0.34009558 0.10215087 -0.038908567
000300 59 53 93 be 1f 7c db bd 1e 17 a8 be e3 0f 98 3e
       -0.28774527 -0.107170336 -0.32830137 0.2969962
000310 cd 70 a5 3e f8 b5 93 3d 60 f3 a1 3e 88 d0 75 be
       0.32312623 0.07212442 0.31630993 -0.2400533
000320 5d 71 5a be c8 2f 38 3e 47 87 be 3e e8 d9 74 be
       -0.21332307 0.17986977 0.37212583 -0.2391125
000330 cb 3c 9d be b9 dd 03 3e 68 c6 eb 3d 06 20 88 3e
       -0.30710444 0.12877549 0.11512452 0.26586932
000340 71 b3 67 3d c5 bf c1 be 5e d5 19 3e f8 51 3c be
       0.056567613 -0.3784162 0.150228 -0.18390644
000350 a1 01 48 3e 27 7d 8f be 3a c5 95 be ee 58 0a 3d
       0.19531871 -0.2802517 -0.29252034 0.033776216
000360 2d 27 80 bd d2 5c b3 be ef da 3e be b5 c0 9e be
       -0.06257472 -0.35031754 -0.18638204 -0.310064
000370 7b 76 db 3d 80 82 cd 3d 23 59 f3 bd 09 c2 a1 be
       0.10715958 0.100346565 -0.11882236 -0.3159335

row_embedding.1.bias f4 [32]
000000 02 eb 52 bd 03 6e 83 3e 41 4d e1 3d 0a c2 bc be
       -0.051493652 0.2566987 0.11001063 -0.3686679
000010 55 b8 a5 3d 83 6a f2 bd f4 40 9d 3c 21 53 db bd
       0.08091799 -0.11836722 0.019196011 -0.10709215
000020 c2 73 1d 3e 94 eb 56 be 70 11 b3 be f7 ca d2 bc
       0.1537619 -0.20988303 -0.3497424 -0.025731547
000030 cc 52 a2 3e 01 36 1b 3e 71 65 b1 3e c2 ee d7 3d
       0.31703794 0.1515732 0.34647706 0.10543586
000040 c1 92 24 be b5 e9 7a 3c d9 18 f4 bd c2 79 9f 3e
       -0.16071607 0.015314509 -0.11918802 0.3114758
000050 cc 8f 8f 3e 70 45 e3 bc 1f 32 5b 3e c3 83 ce bd
       0.28039396 -0.027743071 0.21405838 -0.10083725
000060 26 9a a4 3e 27 80 54 3e 1d 19 17 be d1 42 00 3e
       0.32148856 0.20752011 -0.14755674 0.12525488
000070 50 1a 97 be 8e 54 48 be e5 86 b2 3c 67 60 5d be
       -0.29512262 -0.19563505 0.021792838 -0.21618806

row_embedding.3.weight f4 [32, 32]
000000 e9 40 fd bd 2e 1e 22 bd 7f e2 92 3d 2c 87 41 3c
       -0.12365896 -0.039579563 0.07172107 0.011812013
000010 86 aa cf 3d 8f 59 8c 3b e6 c2 27 3e da 43 15 3e
       0.10139947 0.004283137 0.16382942 0.14576665
000020 4e ac d0 3d ef 3a 15 be f4 84 13 3d 77 37 00 3d
       0.101891145 -0.14573263 0.036015466 0.031302895
000030 41 86 ce 3d a0 c5 aa ba 87 e2 0c 3e 59 0a 20 3e
       0.10084201 -0.0013028868 0.13758288 0.15628947
000040 2c 1d 1d 3e cd 84 1b 3d 3c dc f4 bd ad d1 d9 3d
       0.1534316 0.037968446 -0.11956069 0.106356956
000050 ea b6 1c 3d fc 42 5c 3d ec 40 35 3d 3d ff ea 3d
       0.038260378 0.05377482 0.044251367 0.11474464
000060 c8 a3 26 be bc 10 da 3d 5d 43 03 3e ed 18 1a 3e
       -0.16273415 0.10647723 0.12818666 0.15048571
000070 22 a5 92 3c 34 a6 1c be 3e ae 16 3e 72 a6 e8 bc
       0.017901007 -0.15297776 0.14714906 -0.02839968
000080 dd 9d 0b 3d 49 8d e8 3c 0a c7 36 be 25 0a ff 3b
       0.034086097 0.028387683 -0.17849365 0.0077831917
000090 83 46 8f bc a7 82 4f bd bc 99 9f 3d 12 8a 30 3d
       -0.017489677 -0.05066171 0.077929944 0.043100424
0000a0 59 ea bf bd d4 b4 22 bd aa 82 d8 bd 85 b9 24 be
       -0.0937087 -0.039723232 -0.10571797 -0.16086395
0000b0 0b 60 b0 3d a8 a3 cb 3d 4d 8a 20 3e de 64 29 be
       0.08612069 0.09943324 0.15677758 -0.16542384
0000c0 35 b4 41 bd 62 d1 05 3e dc 2f 98 3d 75 28 0b be
       -0.047291 0.13068154 0.074310035 -0.13589652
0000d0 10 46 01 3e 52 d4 f9 3d 97 f2 04 3e 07 9a f9 3d
       0.12624383 0.121987 0.12983166 0.121875815
0000e0 57 3e 0f 3e 52 4b 92 bd 68 0b 0f 3e 16 83 df 3d
       0.13988625 -0.071432725 0.13969195 0.109136745
0000f0 2e 52 09 be 52 a0 6d 3d 36 13 0c be 5f 53 bf bd
       -0.13410255 0.05801422 -0.13679203 -0.09342074
000100 d2 97 6c 3c 5f 2e 26 3e 1e 5c d9 bd e4 46 17 be
       0.014440494 0.16228627 -0.10613273 -0.14773136
000110 5d d6 2d 3e 88 64 ad bd ea fb 27 be 91 c3 90 bd
       0.16976304 -0.084664404 -0.16404691 -0.07068551
000120 61 ae f2 3d 7b 1c 02 3d 0c c8 24 3e 7e a6 d2 3d
       0.118496664 0.031765442 0.16091937 0.10285662
000130 d4 88 28 3c 58 09 26 3e 83 a3 a5 bd d5 86 ae 3d
       0.010286529 0.16214502 -0.08087828 0.08521811
000140 b1 bc 17 bd 3b 1e 9f bc 73 7a 33 3d 80 12 00 3e
       -0.037045185 -0.019423595 0.04381795 0.12507057
000150 30 46 1b 3e 9d 3d 4d 3d 15 92 66 bd d7 3f 2e 3e
       0.15163493 0.050107587 -0.05629166 0.1701654
000160 2c de 04 3d 70 b6 68 3d 35 ce 62 3d df 8a 29 be
       0.032438442 0.05681461 0.055372436 -0.16556881
000170 83 39 29 3e eb 10 28 3e 62 c9 03 3e 69 b3 1d 3e
       0.16525845 0.16412704 0.1286979 0.15400471
000180 34 21 a4 bd 12 45 1d bd 97 51 1e be 9b b6 66 3d
       -0.080141455 -0.03839595 -0.15460812 0.05632649
000190 34 42 40 3d 72 4e 71 3d e0 43 2d 3e 43 86 c4 bc
       0.046938136 0.058912702 0.16920424 -0.023989802
0001a0 d7 00 b4 3d a0 02 ed 3d a6 b0 de bd 6c 0d 03 bd
       0.08789223 0.11572766 -0.10873537 -0.031995222
0001b0 ef 3b 02 3e b4 ec d3 bd e0 0c 7a 3d 6e 8f b4 3d
       0.12718175 -0.10347882 0.061047435 0.088164195
0001c0 c6 e8 9e bc 7d 79 2c 3e 77 af 8d bd 67 89 92 3d
       -0.019398104 0.16843219 -0.06918233 0.07155114
0001d0 aa 6a 24 bd 60 a3 22 be b6 6b 94 3d 90 1e 8b bd
       -0.040140785 -0.15882635 0.07247107 -0.06792939
0001e0 04 4c 52 bb 7a 34 1d 3e 06 0a a3 bd 0a 71 87 bd
       -0.0032088766 0.1535205 -0.07960896 -0.06613357
0001f0 7d fd 33 be 01 19 02 be 90 af f0 bd 17 4e 36 3d
       -0.17577167 -0.1270485 -0.11752236 0.044508066
000200 10 ad b6 3d 57 01 ee bc a6 43 ea bd be b3 09 3c
       0.08919728 -0.029053373 -0.11438684 0.00840467
000210 b8 53 ac 3d 29 85 86 bd 3e 04 e5 bd 67 e9 bd 3d
       0.084144056 -0.06568367 -0.1118245 0.092730336
000220 5c 67 30 be 8a f9 94 3d bd 72 0d 3e 59 60 31 be
       -0.17226928 0.07274158 0.138133 -0.1732191
000230 9f bd 49 bd 72 f0 31 bd 77 bb 23 3c 71 d2 3b be
       -0.049253102 -0.043442197 0.009993426 -0.18341996
000240 37 61 e2 bd 69 cc d2 bd 07 6b 8a 3d b5 5d 7e 3d
       -0.110536985 -0.102928944 0.06758695 0.062101085
000250 56 e9 0e be 41 d2 34 3d 48 06 23 3b c2 e0 81 3d
       -0.13956198 0.044145826 0.002487557 0.06341697
000260 23 c2 8b bd d7 9f ef 3d 16 04 a7 bd 27 22 0d be
       -0.06824138 0.11700409 -0.08155076 -0.1378256
000270 02 72 d3 3d 9c 46 32 be d2 fb f0 3d 54 4c 4d bd
       0.1032448 -0.17409748 0.11766781 -0.05012162
000280 0a b8 b2 bd 67 40 23 be 90 c6 07 bd 7d da 7a 3d
       -0.08726509 -0.15942536 -0.03314835 0.061243523
000290 13 62 66 bd 5d 18 27 3e 9b cf bd 3d 50 0f 78 3d
       -0.056245875 0.16317888 0.09268113 0.06056148
0002a0 38 bb 28 be 71 ed 7b 3b 7d be 01 be 09 25 3d 3d
       -0.16477668 0.0038441087 -0.12670322 0.046177898
0002b0 ba 1f 21 bd 12 1a e0 3d 47 fc 21 bb d5 8a 27 be
       -0.039336897 0.109424725 -0.002471702 -0.16361554
0002c0 b1 bd c6 bd 67 d4 33 be a8 0f 37 bd 9b 2a ae 3d
       -0.097041495 -0.17561494 -0.044692665 0.0850422
0002d0 15 f3 13 be 6f aa f0 3d 8b 8c 32 be 66 45 58 bc
       -0.14448197 0.11751258 -0.17436425 -0.01320014
0002e0 01 ef 1b 3a bd 4f b5 bd 12 70 1c be 49 3b c6 bd
       0.0005948395 -0.088530995 -0.15277126 -0.096792765
0002f0 ba 17 13 be f9 37 a4 bc dc e4 db 3c 85 d0 27 be
       -0.1436452 -0.020046221 0.026842527 -0.16388138
000300 22 8e a6 3d 58 5a 03 3e 16 eb f8 3d 1d 3a 32 bd
       0.081325784 0.12827432 0.12154214 -0.043512452
000310 6d ab 0f 3e fd 52 76 3d f3 76 01 be 04 af ac bd
       0.14030237 0.060137738 -0.12643032 -0.08431819
000320 fd a1 1b be 25 f6 a5 3d e3 79 05 3e 3a 9b 8d 3d
       -0.15198512 0.08103589 0.13034777 0.06914373
000330 be 0d fb bc 86 79 15 be 7d 4d 2d be b2 f5 b7 3c
       -0.030646201 -0.14597139 -0.1692409 0.022456024
000340 af 7c d2 bc 68 55 0d 3e f9 d3 97 bd 61 cf 0e 3e
       -0.02569422 0.13802111 -0.074134775 0.13946296
000350 fe 9b b9 3d 19 a3 dc 3d d3 1e 25 3d 31 af 0a 3e
       0.09062956 0.10773296 0.0403126 0.13543393
000360 29 0c bf bd 12 2d 43 bd 79 48 b7 bd e8 10 62 3c
       -0.09328491 -0.047650404 -0.0894937 0.013797976
000370 f6 4f 29 3e 8e 57 46 bd 07 01 20 bd 49 8e da 3d
       0.16534409 -0.048423342 -0.03906348 0.1067167
000380 0a 48 6a bd b4 02 2f bd d2 23 ef bd c6 6f 03 be
       -0.057197608 -0.042727187 -0.11676754 -0.12835607
000390 99 8d 19 3d a4 a5 0d 3e 94 e3 0e 3e 1c 1d cb bd
       0.037488554 0.13832718 0.13954002 -0.099176615
0003a0 66 18 b5 3d 47 2a d9 bd 07 1d 32 be aa 04 15 bb
       0.08842544 -0.10603767 -0.17393886 -0.0022738376
0003b0 91 2d 1d 3e 33 f1 96 bc 51 35 16 be e7 de 73 bd
       0.15349413 -0.01842556 -0.14668776 -0.059538748
0003c0 c0 01 8e 3d a9 30 09 3e 69 1c 33 be 96 0e 37 3d
       0.069339275 0.13397469 -0.17491306 0.044691645
0003d0 2c 60 7f 3d b9 f8 26 3d 9c 19 31 be 0a 0e 7d bd
       0.062347576 0.040764544 -0.17294925 -0.061780967
0003e0 74 1b d1 bc 88 1f c7 bd 9d 37 00 be b9 7d 03 3d
       -0.025525786 -0.09722811 -0.12521215 0.03210232
0003f0 12 8a 85 bc 5a d7 77 bb 2a c7 fc bd b2 35 12 3e
       -0.016301189 -0.0037817569 -0.12342675 0.14278296

row_embedding.3.bias f4 [32]
000000 ab 6d de 3d a3 f9 57 bd e7 23 78 bd dc 2f 2f bd
       0.10860761 -0.052728307 -0.060581114 -0.04277025
000010 a7 ca 5a 3c 03 ea 04 be 58 71 d8 3d 5e 84 11 3e
       0.01335398 -0.12979893 0.105684936 0.1421065
000020 1f 98 81 bd 99 24 d2 3d 3c fc 07 3e c4 25 ca 3d
       -0.06327843 0.10260887 0.13279814 0.098704845
000030 a4 42 9f bc 73 e8 32 3d 6f 92 d6 3d 35 50 d8 3d
       -0.019440956 0.043678712 0.10477149 0.10562173
000040 fd b4 c5 3d 46 eb 95 bd 49 c8 47 3d 26 08 c2 3d
       0.096536614 -0.073202655 0.04877499 0.094742104
000050 d9 d2 0d bc bc 83 06 3d b9 2c 5f 3d 46 a2 85 3d
       -0.008656227 0.032840475 0.05448601 0.06525092
000060 36 e5 d8 3d 90 fe 2a 3d 2d b8 28 3e 2b ab 64 bd
       0.105905935 0.041746676 0.16476507 -0.0558273
000070 90 b2 d3 3b 79 67 04 bc da 43 18 be a3 00 f6 3d
       0.0064604953 -0.00808131 -0.14869633 0.1201184

col_embedding.0.weight f4 [7]
000000 ff 91 7f 3f 19 06 80 3f f6 f0 7f 3f 78 08 80 3f
       0.9983215 1.0001861 0.9997705 1.0002584
000010 db 94 7f 3f ce c9 7f 3f 1b 10 80 3f
       0.9983651 0.99917305 1.0004915

col_embedding.0.bias f4 [7]
000000 ab 73 f3 ba f0 7f 38 b9 37 3f 3f b9 05 dd af b9
       -0.00185739 -0.00017595268 -0.00018238729 -0.00033543273
000010 ab f9 75 3a 15 e2 74 3a 0b 50 3e 3a
       0.0009383212 0.000934155 0.0007259852

col_embedding.1.weight f4 [32, 7]
000000 8e 64 b4 3e 64 33 bf 3b b1 ef d7 39 94 08 32 be
       0.35232967 0.0058349837 0.0004118658 -0.17386085
000010 ed 30 8d 3e e8 07 ba be a0 77 cd bd 36 0b ee bd
       0.2757639 -0.36334157 -0.10032582 -0.11623232
000020 9e 74 84 be 4c 10 28 be ff 3a 3e 3e 33 88 5a be
       -0.25870222 -0.16412467 0.18577193 -0.21341018
000030 06 aa a7 3b 9f f8 71 be 9f 11 4a be 48 9e 53 3c
       0.005116704 -0.23629998 -0.19733284 0.012916155
000040 59 be 8a 3e c0 4e 35 be 8d de fc 3c 68 4e b8 3d
       0.2709835 -0.17705822 0.03086784 0.0899933
000050 2a 7a 57 3e cc 6c 91 3e 72 83 90 3e 39 2f d4 bd
       0.21042696 0.28403318 0.28225285 -0.103605695
000060 bd f4 76 3d b3 02 9e be dc 93 94 bc ae 23 35 3e
       0.060291994 -0.30861434 -0.018136911 0.17689392
000070 42 0c 17 3e d0 a0 a4 3e f2 17 97 3e ab d1 36 be
       0.1475077 0.3215394 0.29510456 -0.1785342
000080 97 54 87 bd a6 77 80 be 7e a6 ba be 61 11 c1 be
       -0.06607931 -0.25091285 -0.36455148 -0.37708572
000090 1a 02 1a 3d fe e7 91 bd c8 60 77 3e bf 48 6a be
       0.03759966 -0.07124327 0.24158013 -0.22879313
0000a0 4f 87 2c 3e e4 81 f7 bd 03 75 09 bd b1 ea b9 3e
       0.16848491 -0.120853215 -0.033558857 0.36311868
0000b0 91 09 bf 3e 5b 45 51 3e 34 f6 6b 3e a1 a0 14 3d
       0.37311986 0.20436613 0.23043138 0.036286
0000c0 0d 0a 30 3e 97 cb 9e 3d 4e c7 fc bd 4e af 3d 3e
       0.17191334 0.077536754 -0.12342702 0.18523905
0000d0 4a e1 b5 be a1 fa 8f 3d 5d 33 94 3d 6a d5 05 3e
       -0.35523444 0.070302255 0.07236359 0.13069692
0000e0 88 63 e1 bd bf e3 38 be e3 7c be bd 75 ec 5a bc
       -0.11005312 -0.18055628 -0.09301164 -0.01336204
0000f0 20 44 65 be e5 2c 1e be 96 9f 36 3e 4f 16 9b 3d
       -0.22389269 -0.15446813 0.17834315 0.075726144
000100 da a6 a6 be 70 5b 5d bd ff 45 cc bc c5 0a 27 3e
       -0.32549173 -0.05404228 -0.02493572 0.16312702
000110 6a 1a 9a 3e 04 64 c1 be ce 88 ba 3e 76 81 96 3c
       0.30098277 -0.37771618 0.364325 0.018372279
000120 6c 93 b9 3e 8e 2a 03 be 94 17 92 be d2 b8 73 be
       0.36245286 -0.12809202 -0.28533614 -0.23800972
000130 db 04 70 be a3 41 b7 3e ea a3 07 3e d3 e2 88 be
       -0.23439352 0.35792264 0.13246122 -0.26735553
000140 d9 11 86 bd 56 dd 31 be c7 e3 6c be 73 89 62 3e
       -0.06546373 -0.17369589 -0.23133765 0.22122745
000150 53 18 96 3e 7b 26 99 be 15 e5 c5 3c a4 74 7d 3e
       0.29315433 -0.2991217 0.024157086 0.24751526
000160 e9 12 26 3e 57 93 95 bd 96 94 69 be 4b e6 a5 be
       0.16218151 -0.073034935 -0.22810587 -0.32402262
000170 9f 01 56 be 86 ec 6c 3c bc 68 09 bd 7f ac 4b 3e
       -0.20899056 0.014460688 -0.033547148 0.19890021
000180 d9 e2 29 3e 3e 13 1b bc 22 70 73 bc 4c 2c 3f 3e
       0.16590442 -0.009465037 -0.0148582775 0.18669242
000190 eb 74 3e be 17 91 5d 3e 16 d3 a2 3e 7c 6b 63 3e
       -0.18599288 0.21637379 0.3180167 0.22208971
0001a0 dd 42 ae 3d 68 2b 3e 3d 80 2d dd bc 97 77 4a 3e
       0.08508847 0.046428114 -0.026999235 0.19772182
0001b0 5b 3f 84 3e ad 5b d7 bc d8 bd 02 3e df 07 91 be
       0.25829586 -0.026288832 0.12767732 -0.28326318
0001c0 3f a0 41 3e 2a 0a 8c 3e 62 38 2f ba 31 95 1d be
       0.18908785 0.27351505 -0.0006684122 -0.15388943
0001d0 16 aa bf bd e3 bf fb bd 10 45 af be 32 95 a7 3e
       -0.09358613 -0.12292459 -0.34232378 0.32731014
0001e0 36 18 4b bc ff b1 a3 be 20 c6 83 3e 96 e1 a2 3e
       -0.012395909 -0.31971738 0.25737095 0.31812733
0001f0 26 c5 9f 3e 36 cd 6b be 77 a0 83 be b7 f0 9d 3d
       0.312051 -0.230275 -0.25708362 0.07711928
000200 56 98 8f 3d a9 4d 62 be 05 15 89 3d 8a 69 81 3e
       0.07011478 -0.22099937 0.06693462 0.25275832
000210 02 c4 8d be fb 50 be 3e b6 ce b2 be 34 7d ad bd
       -0.27688605 0.37171158 -0.34923333 -0.08471146
000220 13 a9 64 bd 53 b2 b2 3d a0 3f 3f bc ce db 80 3e
       -0.055825304 0.08725419 -0.011672884 0.25167698
000230 d8 17 8b 3d 01 db 23 be 63 47 be be 03 4a 95 be
       0.06791657 -0.16001512 -0.3716384 -0.2915803
000240 f4 25 53 3e 7e e2 21 3e 0e 6a 50 3e 6b 08 30 bd
       0.20619947 0.15809056 0.20352957 -0.042976778
000250 39 d0 dd 3d 46 81 a4 be 72 05 32 3c 25 cc 1f be
       0.10830731 -0.32129878 0.010865556 -0.15605219
000260 3e 81 81 be b1 61 b8 bd c0 e2 66 3e 28 6b 6c 3e
       -0.25293916 -0.09003008 0.22547436 0.23087752
000270 85 9d 69 3d e3 54 82 bd 6d bc 31 be 31 bb 71 bc
       0.057034988 -0.06363847 -0.17357035 -0.014754103
000280 94 97 3d bd e2 fd 66 3e ea a8 ea 3d 6f c9 92 be
       -0.046287134 0.22557786 0.11457999 -0.28669307
000290 1d 1f a4 be c0 72 ff 3d 3a 07 e6 3c 30 7e 0c 3e
       -0.32054988 0.12473059 0.028079618 0.13720012
0002a0 2d 62 2c be 4a 02 25 3e d5 e4 9c be e3 63 b0 3d
       -0.16834326 0.16114154 -0.30643335 0.08612802
0002b0 23 59 83 be e1 94 98 be a3 b9 a1 bd bd 74 8b 3e
       -0.25653943 -0.29801086 -0.078967355 0.27237502
0002c0 eb c2 84 be 10 cf 88 be 39 80 3e 3e d0 b8 b4 be
       -0.2592996 -0.26720476 0.186036 -0.3529725
0002d0 df e6 0d bc a4 6b 87 be 99 9d 89 3e 61 4f 66 bd
       -0.008661001 -0.2644931 0.2687805 -0.056228045
0002e0 b3 0a ca bd 67 c4 69 be 1e 9c c8 3c 75 a3 13 3e
       -0.09865322 -0.22828828 0.024488505 0.14417823
0002f0 d9 41 ca 3d 6b 4d 49 3e 78 23 be 3e 24 f9 3c 3e
       0.09875841 0.19658439 0.37136436 0.18454415
000300 fe 3b a0 3e 0f a8 9d 3d 13 01 6e be c6 fd 96 be
       0.3129577 0.0769807 -0.23242597 -0.2949049
000310 0a 8b b7 3e b1 1e 0c be b5 44 a7 3e 39 c4 54 3d
       0.35848266 -0.13683583 0.32669607 0.051944945
000320 76 5a 06 be 0b 2b 64 be 16 48 b2 be e6 cc 8e 3c
       -0.13120446 -0.22282045 -0.34820622 0.017431688
000330 a8 78 cd 3d 04 78 b7 bb 0a d6 9b be d1 24 90 3e
       0.10032779 -0.005599024 -0.30436736 0.2815309
000340 5f 7b 87 3e 7f 1c b7 3e 5e a1 b2 3e 23 4f d3 bd
       0.26461312 0.35763928 0.34888738 -0.103178285
000350 39 6e 44 be b0 43 36 3e 70 15 2b 3c c0 d9 10 3e
       -0.19182672 0.17799258 0.010442123 0.14145565
000360 6e 5b 5d bd ed 1e 33 3e f8 4c bb be 03 a0 b0 3e
       -0.054042272 0.17492266 -0.3658216 0.3449708
000370 26 8f 22 3e 5b 8c b9 3e b4 5d ab 3b 0d da 74 3e
       0.1587492 0.36239895 0.005229676 0.23911305

col_embedding.1.bias f4 [32]
000000 52 1e 88 be 87 88 30 be a2 ec 9e bd 42 dc 92 be
       -0.26585633 -0.17239581 -0.07759978 -0.28683668
000010 80 36 9a be 2d 1d 8b 3e 5b b3 48 be 9c 7a 24 be
       -0.30119705 0.27170697 -0.19599669 -0.16062397
000020 65 60 23 bd 57 88 14 bd af f2 c5 3d 35 99 8a 3e
       -0.03988685 -0.036262836 0.09665429 0.27070013
000030 b0 fc 6c 3d 62 a3 2e be ed 6d ff 3d 87 f2 c0 be
       0.05785817 -0.17054513 0.124721386 -0.37685034
000040 14 58 b5 3e 32 fb b9 3b a0 af 53 be a6 cd 25 bd
       0.3541876 0.005675697 -0.20672464 -0.040479325
000050 b4 07 d4 bc a7 34 a9 be 2a 5d 8e 3e e9 74 9d 3d
       -0.02588258 -0.33047983 0.27805454 0.076883145
000060 25 07 b5 be 61 37 9c 3e b4 5e 8f be 0f db a7 bd
       -0.35357013 0.30511 -0.2800194 -0.08196079
000070 87 51 e8 3d 04 7c b5 3e 2a 0c 52 bd d6 c2 ab 3e
       0.11343675 0.3544618 -0.05128113 0.33547086

col_embedding.3.weight f4 [32, 32]
000000 b9 2f 0b 3e cf de 02 3e 6e 64 e1 bb e0 36 10 be
       0.13592423 0.12780307 -0.006878427 -0.14083433
000010 72 c8 9d 3d 2b 24 02 bd 8b 36 2b be 5a cd 0b 3e
       0.077042475 -0.031772774 -0.16720025 0.13652554
000020 5b 4a 0d 3e 4a c8 18 3e 73 d6 c1 3d 52 90 e1 3d
       0.13797896 0.14920154 0.09464731 0.11013855
000030 49 fc 14 be fa 21 d2 bb e7 ff 6e 3d f6 18 95 3d
       -0.14549364 -0.0064127417 0.058349516 0.072801515
000040 31 b0 62 bd 1a 8c 17 bd 60 93 06 be a1 50 21 be
       -0.05534381 -0.036998846 -0.13142157 -0.15753414
000050 8e 04 e9 3b 8e 71 30 3e 03 69 f4 bd 9e 1c 28 3e
       0.0071111387 0.17230818 -0.11934092 0.16417167
000060 db 0f 23 be 16 f8 f6 bd 02 b7 0f be 21 8f 01 be
       -0.15924017 -0.120590374 -0.14034656 -0.12652256
000070 bf fa 14 3e 46 80 3d 3b ab 16 45 bd d1 e2 2e 3e
       0.14548777 0.0028915568 -0.04811732 0.17078711
000080 bf f4 b1 3d 8f ed 0c be d4 b1 1a 3e 56 f7 b5 bd
       0.0868926 -0.13762496 0.15106899 -0.08885066
000090 df c5 c1 3d 4c c4 4b 3d bc 08 69 3d a6 5b 49 bd
       0.09461569 0.04974775 0.056893095 -0.04915967
0000a0 ee 0a 26 3e 7b 47 99 bb 5c ad d7 3d 52 72 f5 3d
       0.16215107 -0.0046777106 0.105311126 0.119846955
0000b0 9b c4 1d be 0f 48 f8 bc 8b 9e cf bd 57 0e 9c bc
       -0.1540703 -0.030307798 -0.101376615 -0.019049807
0000c0 fe ea 18 be d2 b2 93 bc d7 03 ec bd 7d 80 8b bd
       -0.14933392 -0.018029604 -0.1152417 -0.068116166
0000d0 d9 29 c5 3d 34 d7 70 bc bf 62 27 3e ce 10 74 3d
       0.096271224 -0.014699746 0.16346262 0.05958634
0000e0 3c a8 6a 3d 9e c3 3a 3d 30 de 34 be 06 b3 2d 3e
       0.057289347 0.04559671 -0.17662883 0.16962823
0000f0 e9 c3 ea bb b5 02 30 be fb e6 d4 bb 44 c2 b5 bd
       -0.0071644676 -0.17188533 -0.0064972616 -0.08874944
000100 06 f8 73 bd 3a dd 37 bd c9 7e bc bc 51 8b d8 bd
       -0.059562705 -0.044888712 -0.023009675 -0.105734475
000110 fa 26 d3 bd 1e e2 7e 3d 18 4b 20 3e e4 90 33 3e
       -0.103101686 0.06222736 0.15653646 0.1753574
000120 26 5a a4 bd ef 2a 22 be 66 c6 0f bd 67 13 67 bc
       -0.08025007 -0.1583669 -0.035101317 -0.014103747
000130 af f7 1e be 39 e3 06 be ef 17 39 bc 0a 54 90 3d
       -0.15524171 -0.13172616 -0.01129721 0.07047279
000140 81 f6 7c 3a 74 b2 57 bd 99 77 c5 bc 63 e3 25 3e
       0.0009649769 -0.05266042 -0.02410488 0.16200022
000150 a9 38 99 3d 83 74 cb bd 9f f8 d6 3d 84 cf f4 3d
       0.0748151 -0.09934332 0.104966395 0.11953643
000160 fe 4b c6 bd f1 28 0c bd 92 89 e0 3d ae f0 97 3b
       -0.09682463 -0.034218732 0.109637395 0.0046368456
000170 fe 08 e7 3c 35 c0 20 bd 94 6b 2b bd 3b 27 ac 3d
       0.02820253 -0.039245803 -0.04185064 0.0840592
000180 a6 28 da 3d 5e a2 35 bd 0e 00 b2 bc 26 a3 d6 3c
       0.10652284 -0.0443443 -0.021728542 0.026200842
000190 4f 58 a1 3d ec 79 2f be 00 a8 90 bd 31 03 d7 3d
       0.07878172 -0.17136353 -0.070632935 0.104986556
0001a0 ed e6 1e 3e 29 90 2d be 62 ed 27 3d 5d 5e 40 bd
       0.15517779 -0.16949524 0.04099787 -0.04696499
0001b0 33 3e 84 3d 34 a6 12 bc 6e fc 99 bd 73 e0 14 be
       0.06457176 -0.008950759 -0.0751885 -0.14538746
0001c0 6f 7e 4f bd 66 82 15 3d 96 49 4d bd 12 42 f8 3b
       -0.050657686 0.03650131 -0.050119005 0.0075762356
0001d0 69 78 7a 3d 8e d6 eb 3d cc 79 f6 3d 05 09 82 3d
       0.06114999 0.115155324 0.1203495 0.063493766
0001e0 3e 7c e7 3d af b7 1b be 3d 8b f4 3d 26 37 c3 bc
       0.11302994 -0.15206788 0.1194062 -0.023830008
0001f0 bc 71 f6 3d 60 a1 0b 3e f2 14 10 3e 07 b6 87 3d
       0.12033412 0.13635778 0.1407049 0.06626516
000200 0c fb d8 3d 75 bc 76 3d 51 c2 00 3d d6 54 b6 bd
       0.105947584 0.06023832 0.031435315 -0.089029
000210 3e fb 13 3c 53 a7 10 3e 23 d6 14 bd 04 55 ec bc
       0.009032069 0.14126329 -0.03633703 -0.028849132
000220 88 48 09 3e d4 de ca 3d ed 48 a8 bd 9f 3c 24 be
       0.13406575 0.09905782 -0.082170345 -0.1603875
000230 49 17 96 3c 14 98 09 be a1 86 06 be 0d b7 12 3e
       0.01832165 -0.1343692 -0.13137294 0.14327641
000240 58 04 d2 3d 2f 8b 28 be 80 d2 bb bd d5 3d c7 3d
       0.10254735 -0.16459344 -0.09171009 0.097285904
000250 32 d7 05 be af 48 96 3d d8 37 fa 3c a9 63 fa bd
       -0.13070372 0.07338082 0.030544207 -0.1222604
000260 d7 89 d7 3b b1 8b 71 3d 73 e7 2d 3e f6 77 d7 3d
       0.006577711 0.05897111 0.16982822 0.105209276
000270 e4 6b ce 3c 32 1b 8e bd 1c da 23 be 9f 3d ba 3c
       0.02519793 -0.06938781 -0.16001171 0.022734461
000280 c9 1c d8 3c d3 32 8d 3d 4d c8 67 bd 61 d4 07 be
       0.026380913 0.068944596 -0.056587506 -0.1326461
000290 85 5c e5 3d 77 d8 bb 3d 87 52 5f bd f1 ac 07 3e
       0.11199287 0.09172147 -0.054522064 0.13249566
0002a0 6a 6b 1c 3e 14 ef d5 3d 45 a2 ba bd b1 d6 ed bd
       0.1527535 0.10445991 -0.09112982 -0.11613215
0002b0 ff cb cc bd 5d 40 13 3e 5a 43 ec bd 1d a1 4c 3d
       -0.09999847 0.14380021 -0.11536284 0.049958337
0002c0 c1 4d 3e bd ba 9c d0 bd 98 90 0d 3e b3 15 35 3d
       -0.04646087 -0.10186143 0.1382469 0.044210147
0002d0 f2 84 9a bd df c6 42 bd bc 43 00 3e ae 83 97 bc
       -0.075448886 -0.04755294 0.12525839 -0.018495407
0002e0 44 f7 4a 3d cb 4a 0d be e1 c6 8a bd d9 29 43 bd
       0.049552217 -0.13798063 -0.067762144 -0.04764733
0002f0 a6 da 15 3e 54 b7 21 be 89 57 b3 3d 0f a1 34 3c
       0.14634189 -0.1579259 0.087569304 0.0110247275
000300 a9 3a 3e 3d 0f 5d 7b bd ed c1 ef 3d ab 17 33 ba
       0.04644266 -0.061368044 0.1170691 -0.0006831835
000310 f0 b0 e6 bd a5 48 81 bc 3e 8e a2 3d bd 9f f8 3d
       -0.11264217 -0.01578171 0.07937287 0.12139843
000320 a4 b2 31 3e 99 e7 24 3e ec ea ea bc 18 50 c2 bd
       0.17353302 0.16103972 -0.028676473 -0.09487933
000330 67 9c a8 3c e7 d2 22 be be c9 01 3e 7b 80 b4 3b
       0.020582391 -0.15900765 0.12674615 0.00550848
000340 30 68 30 3e 83 00 95 bd 71 74 cc 3d d3 0f 20 3e
       0.17227244 -0.07275488 0.09983147 0.15631036
000350 6c 59 e5 bc d6 9b cf 3d 66 34 ec bd 3a 50 22 3e
       -0.027996741 0.10137145 -0.11533432 0.15850917
000360 92 56 2e 3d 87 eb 10 3e d2 0b b6 3c 88 2d 69 bc
       0.04256303 0.14152347 0.022222433 -0.014232047
000370 bb 1c 45 3d 8c 96 f8 3d 48 5e ec 3d 8b 01 f8 bd
       0.048123103 0.121380895 0.1154142 -0.12109669
000380 58 04 f8 bd 9f 03 af 3d 27 bd 2b 3e dc f5 15 3e
       -0.121102035 0.085456125 0.16771375 0.14644569
000390 08 af d0 bd b5 f4 c8 3c cb c0 74 bc c4 fa 19 be
       -0.101896346 0.024530748 -0.014938544 -0.15037066
0003a0 0f 88 11 3e 42 0a 27 3e 20 7e 3d 3d ab b8 e4 bd
       0.14212058 0.16312507 0.04626286 -0.11168035
0003b0 3d 7c 8f bc d3 cf fa 3d 9b de ca bd 1e 9e 3c bd
       -0.017515296 0.122466706 -0.0990574 -0.04604923
0003c0 1e b5 b0 bd 54 f0 0b 3c c6 4b 9c bd b7 f2 f4 bc
       -0.08628295 0.008541185 -0.0763164 -0.029900892
0003d0 91 1a 4d bd b7 a8 d8 3d db 51 af bd 86 ec 42 3d
       -0.050074164 0.10579055 -0.085605346 0.047588848
0003e0 29 10 0f 3e 07 76 12 3e 40 da 1c be 20 37 5c bd
       0.13971008 0.14302836 -0.15317631 -0.05376351
0003f0 81 94 be bd 74 47 0c be dc bb 65 3d 7a c7 f9 3d
       -0.093056686 -0.13699132 0.05608736 0.1219625

col_embedding.3.bias f4 [32]
000000 62 74 3c bd ed 2c 1a 3e 50 95 c7 bd dc 76 f5 3d
       -0.04600943 0.150562 -0.09745276 0.11985561
000010 e0 f5 c3 bc 96 ac 1c 3e fa a6 d6 3d 03 46 01 3d
       -0.023920953 0.15300211 0.10481067 0.03156091
000020 b3 4d 12 3e b6 91 11 3e 01 1e 07 3e a2 9e 07 3e
       0.14287452 0.1421574 0.1319504 0.13244107
000030 7f 99 ab bd 0a 96 21 3e b7 75 8a 3d 97 e7 a5 bc
       -0.083788864 0.15779892 0.067607336 -0.020252032
000040 7d 7d c0 bd 79 40 ac bd 4d db ec 3d a9 89 12 3e
       -0.09398935 -0.08410735 0.11565266 0.14310326
000050 3e ec ba 3d 36 07 ca 3d 65 74 fc bd e1 f3 1a 3e
       0.09127091 0.098646566 -0.12326888 0.15132095
000060 57 13 0e 3e 28 33 86 bd 6d fa 0a 3e 53 8c bf 3d
       0.13874565 -0.06552726 0.13572092 0.093529366
000070 75 82 bc 3d 10 a5 f6 3c 5a e6 b7 bd 01 d4 9a 3d
       0.0920457 0.030108005 -0.08979483 0.07559968

conv_col_to_row.feature_module_left.0.weight f4 [32, 32]
000000 c8 43 c6 3c 69 f8 1e be c2 ff 56 bb 39 72 2d 3d
       0.024202242 -0.15524448 -0.0032806252 0.04234526
000010 57 13 05 bd 08 79 ef bd ed d9 8b 3c 48 8a 5f bd
       -0.032489147 -0.11693007 0.017071689 -0.054575235
000020 cc 57 22 3e 01 23 22 3c bb 78 9a bc 50 40 04 3e
       0.15853804 0.009896041 -0.018856397 0.12915158
000030 59 be da ba 66 a8 4f bd b1 0d 96 bc 9e 34 40 bc
       -0.0016688808 -0.050697707 -0.018317075 -0.011731295
000040 8e 33 37 bc 0d b4 0e be 8b f3 03 3e 3d 9f 00 3d
       -0.011181725 -0.13935871 0.12885873 0.03140186
000050 e8 e5 bd bd 08 d2 d9 bd f9 32 a6 3d d2 a5 9b 3d
       -0.09272367 -0.106357634 0.08115191 0.07599987
000060 b1 d1 c0 3d 4a d7 d9 bd 42 08 26 be 24 16 07 be
       0.094149955 -0.10636766 -0.16214088 -0.1319204
000070 fb 73 ff 3d 1a f4 44 bd 5a 4b 64 bd e1 18 d1 bd
       0.124732934 -0.048084356 -0.055735923 -0.102098234
000080 50 0a 05 3e 54 80 92 3d 62 38 d2 3d 6c de ce bd
       0.12992215 0.07153383 0.102646604 -0.10101017
000090 10 f0 04 bd d1 c9 23 3e c2 ce cc bc 38 53 33 be
       -0.032455504 0.15994956 -0.025000934 -0.17512214
0000a0 28 ac b9 bd c5 80 99 3b 02 c1 ed 3d aa 38 fb 3c
       -0.09066039 0.00468454 0.11609079 0.030666668
0000b0 20 5e 1e 3d 1b ae 00 be 6e 62 fe 3c ba af 75 3c
       0.038663983 -0.12566416 0.031052794 0.01499551
0000c0 fc 7b 01 3e de 26 07 be 4c 76 d3 3c 7b e0 d9 bd
       0.12644953 -0.1319842 0.025813244 -0.106385194
0000d0 db ac 1c bd 7f e1 ad 3d 55 eb 35 be 65 5d dc 3d
       -0.038250785 0.084902756 -0.17765553 0.10760001
0000e0 61 ca 28 be 4f 74 1b 3d 2b c1 a2 3d 9b e6 d3 3d
       -0.16483451 0.037952717 0.07947 0.10346719
0000f0 3e 9d c5 bd 0a 39 dd bd a7 19 b7 3d 43 cc 86 bc
       -0.09649132 -0.10801895 0.0894044 -0.016454821
000100 ed 0c e9 3d 95 0e dd bd ee f0 dc 3c cf cf 89 3d
       0.113794185 -0.10793797 0.026970353 0.067290895
000110 bf da b8 3c d7 10 03 3e eb 51 05 be bd 99 2a 3e
       0.022565244 0.12799393 -0.1301953 0.16660209
000120 40 37 ee bd 3d bf d9 bd b5 e2 03 3e 73 da ae 3c
       -0.11631632 -0.10632179 0.1287945 0.0213444
000130 52 47 2c be 55 99 2a be da 43 a7 bd c9 0d 2a 3e
       -0.16824082 -0.16660054 -0.081672385 0.16606821
000140 36 5b 26 3d ac d1 05 be 43 4b 2f 3e 6d 4f 8c 3d
       0.04061433 -0.13068265 0.17118554 0.06851087
000150 c3 37 9f bd 9c c9 e5 bc b8 14 4c bd 4f dc 33 3e
       -0.077743076 -0.028050236 -0.049824446 0.1756451
000160 6f 6c c7 3b ac af 56 3d a3 c3 0f be 48 57 bc 3c
       0.0060859243 0.052413628 -0.14039473 0.022990838
000170 a9 36 8c bd db 11 8b 3d 65 f2 d3 3c 8c e1 30 bc
       -0.06846363 0.06790515 0.025872419 -0.010795962
000180 b9 d0 4f bd 8c 32 7c bd 16 52 4a 3c 74 ab 02 3c
       -0.050736163 -0.061571643 0.012348672 0.007975448
000190 5e 0c 6c bc 4b a9 51 3d fe 98 93 bc ae 64 90 bd
       -0.014407245 0.05118684 -0.018017288 -0.07050453
0001a0 a2 56 0f 3e 2c 88 c2 bd b6 a5 fe bd 88 cf 1a 3e
       0.13997892 -0.09498629 -0.124339506 0.1511823
0001b0 eb 45 df 3c b1 0c 09 bd 34 fb c4 bd 21 cc 08 bd
       0.02725502 -0.03345937 -0.09618226 -0.033397797
0001c0 ce b3 08 be 85 fb 21 3d fa 2f a0 3c bd d3 98 3d
       -0.1334984 0.03954651 0.019554127 0.07462261
0001d0 f4 1c 16 bd f1 30 2c be 9b 39 0a 3e 02 eb 25 be
       -0.036648706 -0.16815545 0.13498537 -0.1620293
0001e0 c9 c2 ea bd e0 3b c4 bb 94 49 d0 bd 3d cb bf bd
       -0.114629336 -0.005988583 -0.10170284 -0.093649365
0001f0 b4 c2 f9 3d b2 e7 2e be bb 8a b9 bc 7a a4 b7 3d
       0.1219534 -0.17080572 -0.02264916 0.08966918
000200 8f c0 19 be 13 8a a0 3d 73 df 24 3e d2 8d cb 3a
       -0.15014862 0.078388356 0.16100864 0.0015529937
000210 1e 7a be 3d a4 37 e5 bd a6 16 07 3e 43 dd 21 be
       0.09300636 -0.11192253 0.13192233 -0.15807061
000220 83 c0 80 3d 2f d7 d0 3d cb 10 ac bd e5 fc d0 bd
       0.06286719 0.10197293 -0.084016405 -0.10204486
000230 10 29 29 3d 04 cf 26 3e ca 7d a2 bd 79 58 05 3e
       0.041298926 0.16289908 -0.079341486 0.13022031
000240 7c 07 a6 bd ee 77 db bb 3f 03 08 3e d7 88 15 be
       -0.08106896 -0.0066976463 0.13282488 -0.14602982
000250 c8 3d 38 be e3 4e 01 bd 0c 8a 04 3d a5 20 ba 3c
       -0.17992318 -0.031569373 0.032358214 0.022720644
000260 8f b9 33 be a6 ee a4 bd ec 50 29 3d 82 22 df bc
       -0.17551254 -0.08053331 0.04133694 -0.027238134
000270 4e 40 1f be c2 9b 64 3d ad 31 3b 3d 69 ce c5 bd
       -0.15551874 0.055812605 0.04570167 -0.0965851
000280 90 e4 dd 3b d0 28 0c be 9f eb 22 3e 6e bc a1 3d
       0.0067716315 -0.13687444 0.15910195 0.07897268
000290 fb 69 6d 3c 77 98 a7 3d 0f 53 57 3d f1 3e eb 3d
       0.0144906 0.08183377 0.052569445 0.114866145
0002a0 13 3f 13 be 46 86 09 bd 58 0f 89 3d 8d 14 17 be
       -0.1437953 -0.03357532 0.0669238 -0.14753933
0002b0 8b 31 0d bd 31 7c 80 bd ea 1a a5 3c 97 ee 00 be
       -0.034471076 -0.06273688 0.020154435 -0.12591015
0002c0 54 a6 2a 3e db e0 02 be 67 53 82 bd 92 8b d3 bd
       0.16665012 -0.12781088 -0.06363564 -0.10329355
0002d0 8a ef f0 3d 8b 07 f7 3d 29 1f 58 3d 92 ae f9 3d
       0.117644385 0.120619856 0.05276409 0.121915
0002e0 45 a1 28 3e 41 12 09 bc 20 d6 c9 bd a3 20 11 3e
       0.1646777 -0.0083661685 -0.09855294 0.14172606
0002f0 dc cd 86 3d 67 a5 0d be ea cd f9 3b 67 c9 31 3e
       0.06582233 -0.13832627 0.007623424 0.17361985
000300 77 fa 4c bd 6c 01 1f be 2b 9f 27 3e b9 9b e2 3c
       -0.05004355 -0.15527886 0.16369312 0.027662145
000310 bf 04 94 3d 7a 6c 27 be 03 e2 17 3e ab 97 e6 bd
       0.07227468 -0.16349974 0.1483231 -0.11259397
000320 92 1e e5 3c ba 41 ab 3d d9 5d 6e 3c 30 e6 31 be
       0.027968679 0.08362146 0.014548742 -0.17372966
000330 fc 83 d3 3c ff 14 a0 bd 8c 14 3d 3d 45 64 9e 3d
       0.025819771 -0.07816505 0.046162173 0.07733969
000340 49 75 bf 3c 16 a1 cb bc 8f 78 5f bd 38 bd f9 3d
       0.023371356 -0.024857085 -0.054558333 0.12194294
000350 59 83 9d bd 25 ba 6d 3d c6 7f cf bd df 96 90 bd
       -0.07691068 0.05803885 -0.10131793 -0.070600264
000360 c5 1f df 3c 10 e9 0c be b9 86 47 3d 1e 7a 4c bd
       0.027236829 -0.13760781 0.048712466 -0.049921148
000370 23 c3 2c 3e 03 47 93 3b 54 6f 15 be 52 d0 ff 3d
       0.16871314 0.0044945492 -0.1459325 0.12490906
000380 56 d0 00 be 76 2a 15 3c 8b b3 13 bc bf c2 fc bd
       -0.12579474 0.009104362 -0.009014974 -0.12341832
000390 89 2e 13 3e 75 5a ce bd 10 ae d9 3c 3e 48 15 3e
       0.1437322 -0.10075847 0.026572257 0.1457834
0003a0 ab 4f 0a 3e d9 f8 1f be af c3 15 3e b0 d3 9c bd
       0.13506953 -0.15622272 0.14625429 -0.07657564
0003b0 a0 07 98 bb bb 6f c7 bd 08 63 85 3c 6f 0e cc 3d
       -0.004639581 -0.09738108 0.016282573 0.099636905
0003c0 3d 22 06 be 16 26 3d bb 97 17 2f 3e ec 86 e8 3d
       -0.13098998 -0.0028861812 0.17098843 0.11353859
0003d0 9b ca 22 bd 3c 1f 18 be 0c 5e 31 3b d7 87 85 bd
       -0.039744 -0.14855665 0.0027064113 -0.0652005
0003e0 9c 36 b6 3d df c9 f0 3d 50 13 ee bd e4 7e d6 ba
       0.08897135 0.11757254 -0.11624777 -0.0016364721
0003f0 3d 08 fe 3d 9e 65 a7 3d c6 8c 18 be a1 fd 17 be
       0.12403915 0.08173679 -0.14897451 -0.14842845

conv_col_to_row.feature_module_left.0.bias f4 [32]
000000 bc 42 da 3d 95 7f 03 3e 30 58 df bd 90 31 87 3d
       0.1065726 0.12841637 -0.10905492 0.0660125
000010 0b a6 a2 bc 3c b3 e6 3d e9 05 b2 bd fd 2b 32 3e
       -0.019854566 0.11264655 -0.086925335 0.17399593
000020 e7 9d 74 bd 25 c1 14 be 74 41 dc bd 29 5c 1b be
       -0.0597209 -0.14526804 -0.10754672 -0.15171875
000030 c6 db 17 3d 66 f2 8f 3d e6 f1 27 be 1c 62 1b be
       0.037074827 0.07028656 -0.1640087 -0.15174145
000040 21 d3 b3 3d a6 55 05 3e 01 91 d1 3c 9f af 19 3d
       0.08780504 0.13020954 0.025581839 0.037521
000050 d0 d2 3e 3d 9b b0 b0 3d 72 df 25 3e de 3c b4 bd
       0.046587765 0.08627435 0.16198519 -0.08800672
000060 76 45 ba 3d d4 50 58 bd d0 2d 00 3e 71 b1 2e be
       0.0909528 -0.05281146 0.12517476 -0.17059876
000070 eb bc d0 bd cf 2e 8c bd d4 68 69 bd 46 d8 2b be
       -0.10192283 -0.068448655 -0.056984738 -0.1678172

conv_col_to_row.feature_module_edge.0.weight f4 [32, 1]
000000 d7 3c 0b 3f 1c 09 1c 3f 90 94 c0 3d a6 f1 aa 3e
       0.5438971 0.609514 0.09403336 0.33387488
000010 07 c9 ae 3d 5b bc e8 3e 97 01 3b bf 6c e7 a8 be
       0.08534437 0.45456204 -0.730493 -0.3298906
000020 21 62 02 bf a9 d2 54 3e 04 0f 69 bf 07 d0 56 bf
       -0.5093098 0.20783485 -0.9103854 -0.83911175
000030 cb bc 53 bf d7 db 07 3e 1e 50 08 bf c3 04 b5 3d
       -0.8270995 0.13267456 -0.5324725 0.08838799
000040 ad a5 7f bd a0 02 15 be 8f 74 31 3f f6 f8 27 3f
       -0.06241386 -0.14551783 0.6931848 0.6561426
000050 97 b2 3a bf 74 48 1b 3c 4c ef 50 bf 9a 0e 30 bf
       -0.72928756 0.009477723 -0.8161514 -0.6877228
000060 42 19 2f 3f 32 18 d1 3e 92 a1 29 bf 6c f0 26 3f
       0.68397915 0.40838772 -0.6626216 0.65210605
000070 72 f9 1d be 25 c9 15 3e 71 90 87 be 5c db 6b 3f
       -0.15427187 0.14627512 -0.26477388 0.9213159

conv_col_to_row.feature_module_right.0.weight f4 [32, 32]
000000 19 0e 80 bd 64 83 a1 3d 5a 60 cf bd e2 71 f2 3d
       -0.06252689 0.07886389 -0.101257995 0.11838128
000010 a3 e9 b0 bd 51 2d f2 bd ec 89 5d bc dc 6e f5 3c
       -0.08638313 -0.1182505 -0.013521653 0.029960088
000020 34 45 d9 3b 9a 82 d4 bd 91 42 c0 bd 8d 61 75 3d
       0.006630564 -0.10376473 -0.093876965 0.059907485
000030 a7 ba cf bd 90 53 9c 3b 11 96 9b 3d 8a 65 90 3c
       -0.10143023 0.0047707036 0.07596982 0.017626543
000040 b0 5d 36 3e 5d 76 26 3e e3 d1 ac 3c 42 23 0a 3e
       0.17809176 0.1625609 0.021096176 0.13490012
000050 ed f0 2a be 91 d9 16 3d 54 8b 31 3e 46 55 77 bd
       -0.16693468 0.03682858 0.17338306 -0.060384057
000060 7b 46 8b 3d 0a fb 21 3d 4e c2 0c 3e 3c 29 ca bd
       0.068005525 0.03954605 0.13745996 -0.09871146
000070 5f 38 ef bd 21 27 c1 3b ce de e6 bd 59 5c 17 3e
       -0.11680674 0.005894557 -0.11272965 0.14781322
000080 90 7a 1f 3e 31 8f bc 3d 15 f3 95 bc 6a 4a 34 3e
       0.15574098 0.09206999 -0.018304387 0.17606512
000090 e3 23 1f be 73 3d 33 3e ee c4 9f bd d6 9a 16 3e
       -0.15541033 0.1750391 -0.07801233 0.14707503
0000a0 f9 a7 de bd 8e 2d c3 bd 6b ee da bd 28 08 b7 3d
       -0.10871882 -0.09530173 -0.10690006 0.089371026
0000b0 14 4b 0d 3d c8 38 d0 3d 18 31 b8 3b c6 81 6f bd
       0.03449543 0.1016708 0.005621087 -0.05847337
0000c0 d7 9e 0c 3e 2c 47 10 be 9d 3b 9a 3d 91 d4 19 be
       0.13732468 -0.1408965 0.075309016 -0.15022494
0000d0 94 96 28 3e e9 29 3f 3c 60 5c 74 bd 96 3c 0a 3e
       0.16463691 0.011667707 -0.05965841 0.13499674
0000e0 ce 23 19 be f5 b2 c9 bd 2f df 11 be 4d cb 6b bd
       -0.14955065 -0.098485865 -0.14245294 -0.05756693
0000f0 6b 58 9b bd ae b3 c9 3d c9 cc 18 be e8 c5 88 3b
       -0.07585224 0.09848724 -0.1492187 0.004173983
000100 03 d9 0d 3e fd b6 1c bd db 48 76 bd ba 4c a2 bd
       0.13852315 -0.03826045 -0.060128074 -0.07924791
000110 a7 38 b7 3d bb 0f e8 3d e1 90 07 be 92 5c bf bc
       0.089463525 0.11331125 -0.1323886 -0.02335957
000120 19 a3 19 be af ef 56 bd 0a db a6 3c 4e 00 c6 3c
       -0.15003623 -0.052474674 0.020368118 0.024170067
000130 51 1a 03 3e a8 3b f6 3d a1 bb 53 3d 32 85 24 be
       0.12803008 0.12023097 0.05169261 -0.16066435
000140 6a 13 3c bd 1b e0 33 3e 2c e3 66 bd 7c 1b 33 3d
       -0.045916952 0.17565958 -0.05636899 0.043727383
000150 79 e2 df 3c ea 03 c8 3d 9a a4 b8 bd d0 99 c9 bd
       0.02732967 0.097663715 -0.0901577 -0.098437905
000160 9d 7e 39 bd 04 22 ee 3d 5b 51 25 be 9e ca d0 bc
       -0.045286763 0.11627582 -0.16144316 -0.02548724
000170 07 ea d3 3d 24 f4 0f 3e e8 6e 15 3d ba 5b b2 bd
       0.103473715 0.14057976 0.03648272 -0.08708902
000180 31 ec 23 3d 95 5d 08 be d5 56 30 be 3b 6a 09 3e
       0.04002017 -0.13316949 -0.17220624 0.1341943
000190 db 93 33 be 74 89 06 be 4b 1f 28 3e a0 98 81 3d
       -0.17536871 -0.13138372 0.16418187 0.06327939
0001a0 6e 32 db bd f6 2f 02 be 5d 60 1a be 27 19 06 bd
       -0.10702978 -0.12713608 -0.15075822 -0.03273883
0001b0 40 cc da bd 61 e2 a7 3d 4b b8 f8 bd b3 fb 8b bd
       -0.10683489 0.08197475 -0.12144526 -0.06835117
0001c0 6d 4a 59 bd 39 dc 5f 3d ce fd 9a bc e1 78 f8 bc
       -0.053049494 0.05465338 -0.018919852 -0.030331077
0001d0 e9 3f a3 bd 11 e3 2d be ae 98 2d 3e cf 23 14 3e
       -0.07971174 -0.1698115 0.16952774 0.14466785
0001e0 e0 72 7a 3d 03 b2 42 bc 13 30 02 3e 09 27 3f bd
       0.06114471 -0.011883262 0.12713651 -0.046668086
0001f0 f7 fa b1 3b 4b 04 e6 3d ce de de bd 3f 9f e8 3d
       0.0054315287 0.112312876 -0.1088234 0.11358499
000200 4f ca ae bd 1d 4b 09 be a3 26 30 3e df f0 93 bd
       -0.08534681 -0.1340756 0.17202239 -0.07223677
000210 8a 8c 96 bd a1 84 6f bd 42 75 fe 3c 33 68 6f bc
       -0.073510244 -0.058476094 0.031061772 -0.014612245
000220 6d 67 18 be fb cf 25 be 0b d0 d6 3d e4 1a 97 3d
       -0.14883204 -0.1619262 0.104889 0.07378176
000230 0f 67 0a 3e f6 49 27 be 5c 53 9a 3c cf 5f 11 3e
       0.13515876 -0.16336808 0.018838577 0.14196704
000240 7c 3d a4 bd b2 79 f8 3b f9 7f ef 3a f4 22 20 3e
       -0.0801954 0.0075828666 0.0018272392 0.15638334
000250 1f 48 0d be 7f 75 0c bd 4c 76 83 3d 26 1f ba 3b
       -0.13797043 -0.03429174 0.06419048 0.0056799827
000260 bc c5 1a 3d 55 8f df bd a2 cc 17 be 8d 2b 21 3e
       0.03778623 -0.1091601 -0.14824155 0.1573927
000270 33 f3 51 3c 7d c5 8e bd f5 01 6e bb 93 a2 4b 3d
       0.012814331 -0.06971262 -0.0036317084 0.04971559
000280 98 f7 a3 3d fd 72 1d 3e 88 f3 2a be df f6 0f be
       0.08006209 0.15375896 -0.16694462 -0.14059018
000290 5c 36 7d 3d 88 c5 bd bd 15 32 59 3d 99 41 31 3e
       0.06181942 -0.09266192 0.053026278 0.1731018
0002a0 cd 05 92 bd 5f da 1c 3e 78 cd 88 3d 8a e9 ce 3d
       -0.07130013 0.15317677 0.06679815 0.10103138
0002b0 6a 1f 28 3e a5 43 30 3e 27 a3 e2 3d 84 7e b9 3d
       0.16418234 0.17213304 0.11066275 0.09057334
0002c0 c5 1d 7d 3d 6c 25 13 3e 6d ea 2c 3e db 8f 16 be
       0.06179597 0.14369744 0.16886301 -0.14703314
0002d0 7a 36 01 3e b5 96 e0 3d f3 5e bb 3d ed c4 af 3d
       0.12618437 0.10966245 0.091489695 0.085824825
0002e0 e0 be b5 bd 11 f7 b9 3d f7 43 e4 3d be f7 34 3d
       -0.08874297 0.09080327 0.11145776 0.044181578
0002f0 2b 31 1b 3d 58 0e f8 bd a3 d0 21 be b7 1d 70 bd
       0.037888687 -0.12112111 -0.15802245 -0.05862209
000300 84 f0 1d 3e 7a 3c fa 3b 2e c6 6b 3d 25 ce 7f 3d
       0.1542378 0.007636604 0.057562046 0.062452454
000310 f0 87 c3 ba 93 01 cd ba 53 23 77 bc 3a 1b ea bd
       -0.0014917832 -0.0015640728 -0.015084106 -0.11430974
000320 f4 5a a8 3d f1 43 cb bd 46 ad 58 3d c3 9b 9b bd
       0.08220473 -0.09925068 0.05289962 -0.075980686
000330 24 23 5d bd bc 45 33 bb ec 83 a3 bd e2 88 f1 bd
       -0.05398859 -0.0027354797 -0.079841465 -0.117936864
000340 89 ba 0c be 42 a7 72 3d eb fa fe bd 16 ba 2e be
       -0.13743033 0.05924154 -0.124502026 -0.17063174
000350 16 e8 d6 bd 5a 33 08 3c 35 e6 0d 3c d2 38 f4 3b
       -0.10493486 0.008313024 0.008660843 0.0074530626
000360 1f c1 4e 3d 5c d5 aa bd 2b 0e ca 3d 3f 92 de 3b
       0.050477143 -0.08341476 0.098659836 0.0067923362
000370 23 00 0d 3e 5f 5f df 3c 64 9f 74 3d 3d f5 fe bd
       0.13769583 0.027267156 0.05972232 -0.12449119
000380 f1 46 0c 3e 20 bd aa bc da 8b 98 bd b2 84 16 3e
       0.13698937 -0.020842135 -0.074485496 0.14699057
000390 0a 4e 5f bd 1b d1 e0 3d 51 0b 14 3c 11 0b 23 3b
       -0.054517783 0.10977384 0.009035901 0.0024878422
0003a0 69 10 19 3e 95 4e ca bd 70 7b dc 3c 56 5e a2 bd
       0.14947666 -0.098782696 0.026914328 -0.079281494
0003b0 fa 55 e0 3d 4e 09 0b 3d 37 53 c2 3d be ba da 3d
       0.10953899 0.03394442 0.09488528 0.106801495
0003c0 08 1e 65 bd a7 97 d1 bd fc d2 3c bd 31 cd a6 3c
       -0.055936843 -0.102340035 -0.046099648 0.020361515
0003d0 c3 97 cc bd 67 f0 d8 3d a6 3c c2 bd 4e e5 a9 3d
       -0.09989884 0.10592728 -0.09484224 0.082956895
0003e0 a5 b4 19 be bd 53 b5 bd 00 9c d5 3c 5b 7d 33 be
       -0.15010317 -0.088538624 0.026075363 -0.17528288
0003f0 c1 c3 16 3e b9 e5 1a 3e d3 fc a0 3d ca 7f db bc
       0.14723112 0.15126695 0.078607224 -0.026794333

conv_col_to_row.feature_module_final.0.weight f4 [32]
000000 61 8e 7f 3f a4 e0 7f 3f 00 00 80 3f 91 df 7f 3f
       0.9982663 0.9995215 1.0 0.9995051
000010 00 00 80 3f 48 fc 7f 3f 55 b8 80 3f 8e d1 7f 3f
       1.0 0.99994326 1.0056254 0.9992913
000020 43 bd 7f 3f 59 4d 80 3f 86 02 80 3f 8f f9 7f 3f
       0.99898165 1.0023605 1.000077 0.9999017
000030 a0 17 80 3f f6 03 80 3f dd ef 7f 3f eb 86 7f 3f
       1.000721 1.0001209 0.9997538 0.99815243
000040 3a 55 80 3f 96 ff 7f 3f d3 11 80 3f 7b 0f 80 3f
       1.0026009 0.9999937 1.000544 1.0004724
000050 fa 5b 80 3f d4 18 80 3f 2e d9 7f 3f 4f fd 7f 3f
       1.0028069 1.0007577 0.99940765 0.99995893
000060 2b 77 80 3f 40 12 80 3f f3 60 80 3f 00 00 80 3f
       1.0036367 1.000557 1.0029587 1.0
000070 00 00 80 3f 1c 9a 7f 3f 00 00 80 3f 00 00 80 3f
       1.0 0.9984453 1.0 1.0

conv_col_to_row.feature_module_final.0.bias f4 [32]
000000 f8 64 84 ba e5 ad 39 ba 00 00 00 00 85 33 10 ba
       -0.0010100892 -0.0007083102 0.0 -0.0005500841
000010 00 00 00 00 a8 bb 94 b8 6b a6 9e 3a f6 ba 10 ba
       0.0 -7.092144e-05 0.001210404 -0.00055210234
000020 a7 e7 21 ba 79 04 f2 3a 0c e5 f3 39 59 24 14 b9
       -0.00061761815 0.0018464468 0.00046519225 -0.0001412792
000030 c3 f5 54 3a 29 e3 5f ba 8d fc 69 3a 5c d9 7e ba
       0.00081237796 -0.00085406244 0.00089258776 -0.000972172
000040 38 bc f1 39 cd 8c a0 b8 ac f6 01 39 ff 1d d3 3a
       0.00046107336 -7.655621e-05 0.00012394291 0.0016106962
000050 cd 42 00 3b 0d b9 d5 38 8b 8e 68 39 d4 11 f0 b9
       0.0019571066 0.000101911 0.00022178346 -0.0004578965
000060 2b 1b 49 3b 3d c7 4e 39 5b db ed 3a 00 00 00 00
       0.003068636 0.00019719913 0.0018147038 0.0
000070 00 00 00 00 61 83 05 bb 00 00 00 00 00 00 00 00
       0.0 -0.0020372497 0.0 0.0
