GNN_method/ResultsGCNN/actor_39.pt (torch, 83520 bytes, 43 tensors)

row_embedding.0.weight f4 [7]
00000000: 434e 803f 431e 803f bae2 7f3f 3828 803f
00000010: f4e8 7f3f 662c 803f 8100 803f
1.0023884 1.0009235 0.9995533 1.0012274 0.99964833 1.0013549 1.0000154

row_embedding.0.bias f4 [7]
00000000: 837a f7ba 1141 8cba 181b fab9 d57b b1ba
00000010: 4a0e 023a 6b4a b9ba e088 d339
-0.0018881116 -0.0010700544 -0.00047703902 -0.0013540933 0.00049612357 -0.0014136558 0.00040347036

row_embedding.1.weight f4 [32, 7]
00000000: 67cf 593d 10dd 5a3d df08 0d3e 42e7 b6be
00000010: f16c 3bbe c08c 763e b696 aebd 60b0 8abe
00000020: 22c6 81bd cf06 23bd 6801 dbbd ff0b 473e
00000030: a668 863a b97a afbd 240e 01be 45cb 95be
00000040: 1616 91be 45d9 853e d959 a23e c063 a03c
00000050: 0ce2 4ebe a021 57be ce84 053e 1390 a23e
00000060: ff46 b6be 9465 e73c 1928 d43b 6b3a 483e
00000070: 73dd 0ebe d2b2 05bd 7256 9dbe c544 563e
00000080: 16b3 4fbe e4ae 4ebe 969a 48be e8c7 dabd
00000090: 5ae9 5b3d d651 46bc 3243 b5be d60a c93d
000000a0: 325d 50be 37d9 a03e 65ae 89be ad41 acbe
000000b0: 3571 8b3e d840 66be 1f66 a0be 7602 6abd
000000c0: d661 9b3c 8554 79be a554 8a3e 5ad1 693e
000000d0: facd 853e 5eb2 593e 2a20 063d 55d2 0f3d
000000e0: a899 0cbe ff1c 9bbd 4a67 cb3c a9df 543c
000000f0: a195 0dbe f8b5 54be f7bf 8d3e 68d5 483d
00000100: e016 afbe 0c04 4cbe 001e ba3e 66d2 41be
00000110: 557c 833e 9ae1 b2be ea44 89be e1cd ac3e
00000120: 1c3a c3bd 5586 c4bb 33bf 20bd 3c9c 80be
00000130: f833 813e 603e 3abe 3e72 4d3c b474 b6be
00000140: df00 9abd f6d7 7bbc c33f 843e b54d 0b3e
00000150: 21ee 933e 7202 94bd 6a3a 9ebe 44f0 d9bd
00000160: 852e 8dbd cd7e a23e 156d 69be 4307 803e
00000170: a80a 5b3e 01e9 5fbe 901a 7cbe 8672 1ebe
00000180: 0337 18be 4084 8abe 68b7 b9be aa15 b63d
00000190: 85f8 cb3d c852 8fbe 30ea 8b3e 34a4 12be
000001a0: 1c7a ecbd aa88 8b3d eaa4 923e e569 a7be
000001b0: 21d2 92bd 82dd f13d e167 9ebe d892 973e
000001c0: a9fb 163e ff45 a73e 03a6 e8bc 9ac4 323e
000001d0: 1a7f 81be 8210 b43e 4deb be3d 9257 493e
000001e0: e92d 5ebe aae6 87be dfd6 a5be 7f08 b1be
000001f0: 637c 503b 4ccf babc de36 b4be 485f af3e
00000200: 970e 32be c8ac 9abe ee7e 27be 74d9 a13e
00000210: 6234 b33d 6191 49be 4342 2cbe ca15 77be
00000220: 6aae ff3d c006 7e3e 7361 45be 471f b83e
00000230: 601f a83e d300 023e 960e 1dbc bdcc 8c3e
00000240: 832d d63d 41eb aabe 3574 83be c2fa 4a3e
00000250: 1022 053d 15d1 b43e ffe6 8abe 554d 92be
00000260: 6200 dabd 1a1a 6bbe 93c5 903e 6372 043d
00000270: 5a88 08be 3a6c 4bbd f2e9 073d 2ebe 8cbe
00000280: 446c 2c3d bc39 7bbe bf8f 733d 24b4 0b3e
00000290: 14bd 6dbe e40d 56be 7b1e 3dbc 0d7e 983e
000002a0: 74c0 413e 4ee6 b4bd f80f a93e d991 c73d
000002b0: 0af8 ba3e bd44 883e 6cfe 85be 565b ba3c
000002c0: 1127 6c3e 446d 9c3d bdea f43d a5ca 9f3e
000002d0: c653 8ebe c8df 013e 2454 f1bd cbb5 20be
000002e0: 807b ad3e 6659 8a3e cf44 7d3e 55bb 163d
000002f0: 963f 96be f109 af3e 752f d93d e29f 1fbd
00000300: 90d0 93be 5a70 ddbd 7294 a8be 3784 973e
00000310: b62f a43e c7dd 963d d87d a23e 62bb 75be
00000320: 215c 5abe b944 383e ae5f bd3e ad3d 72be
00000330: cdfd 9cbe f525 033e 9688 ec3d b053 883e
00000340: d539 693d 838f c1be 7c16 1b3e 2c84 3abe
00000350: 95cb 473e 3893 8fbe 71db 95be d4a8 093d
00000360: 1844 82bd ccbb b3be 5f1c 3fbe dd1f 9fbe
00000370: 218f db3d c417 ce3d 37d7 f4bd df21 a2be
0.05317631 0.053433478 0.13772915 -0.3572331 -0.18303277 0.2407713 -0.085248396 -0.27087688
-0.06336619 -0.039801415 -0.106936276 0.1943817 0.0010254576 -0.08568329 -0.1260305 -0.29256645
-0.28337163 0.26142326 0.31709173 0.019578815 -0.20203418 -0.2100892 0.13038942 0.31750545
-0.3560104 0.028246678 0.0064745066 0.19553535 -0.13951664 -0.03264124 -0.30730015 0.20924671
-0.2028316 -0.20183903 -0.1959022 -0.1068266 0.05368934 -0.012104472 -0.35402828 0.0981652
-0.20348051 0.31415722 -0.26890865 -0.33643857 0.27234808 -0.22485673 -0.31327912 -0.057131253
0.01896755 -0.24348648 0.27017704 0.22833768 0.2613371 0.21259448 0.032745518 0.035112698
-0.1373049 -0.0757389 0.024829526 0.012992778 -0.1382661 -0.2077254 0.2768552 0.049031645
-0.3419714 -0.19923419 0.36351013 -0.18927917 0.25680795 -0.34937745 -0.2681039 0.33750823
-0.09532568 -0.005997459 -0.03924484 -0.25119197 0.25234962 -0.18187857 0.0125394445 -0.35635912
-0.075196974 -0.015371313 0.25829896 0.13603862 0.28892615 -0.07227029 -0.3090394 -0.1064153
-0.068936385 0.31737366 -0.22795518 0.2500554 0.21390784 -0.21866228 -0.24619508 -0.15473375
-0.14864735 -0.27054024 -0.3627274 0.08890851 0.09959511 -0.27992845 0.27327108 -0.14320451
-0.11546728 0.06813176 0.28641444 -0.3269798 -0.07168985 0.118098274 -0.30938628 0.2960422
0.14744438 0.3267059 -0.028399473 0.1745781 -0.25292283 0.35168844 0.09322224 0.19662312
-0.21697201 -0.2654317 -0.32390496 -0.34576795 0.0031812422 -0.022803925 -0.3519811 0.3425238
-0.17388378 -0.30209947 -0.16357014 0.31611216 0.087502256 -0.19684364 -0.16822152 -0.24129406
0.12484439 0.24807262 -0.19275455 0.35961363 0.32836437 0.12695627 -0.009585997 0.27499953
0.104578994 -0.3338261 -0.25674596 0.19822219 0.032503188 0.35315767 -0.2712936 -0.28574625
-0.10644604 -0.22959176 0.28275737 0.03233565 -0.13333264 -0.04966376 0.033182092 -0.27488846
0.042095438 -0.24533743 0.05946326 0.13642937 -0.23216659 -0.20903736 -0.011542912 0.2978367
0.18921071 -0.0883299 0.33019996 0.09744615 0.36517364 0.26614943 -0.2617067 0.02274863
0.23061778 0.07638028 0.11958835 0.31209293 -0.2779829 0.12683022 -0.11783627 -0.15694349
0.33883286 0.2702133 0.2473328 0.036799747 -0.29345387 0.34187272 0.10604755 -0.038970836
-0.28870058 -0.10812445 -0.32925755 0.2959306 0.3206765 0.073665194 0.31736636 -0.23997262
-0.21324207 0.17994966 0.3698706 -0.2365634 -0.30662385 0.12807448 0.11549489 0.26626348
0.05693992 -0.37804803 0.15145296 -0.18214482 0.19511254 -0.28042006 -0.29268983 0.033608273
-0.06360644 -0.35104215 -0.18663166 -0.31078997 0.10720659 0.10063127 -0.119551115 -0.31666467

row_embedding.1.bias f4 [32]
00000000: bc4f 51bd 5d65 833e 60c8 e13d eaf7 bcbe
00000010: 3efa a53d 6d7a f9bd 9ae6 993c 2363 dbbd
00000020: 447d 1b3e c80a 57be 9c32 b3be aaf1 d3bc
00000030: 17c5 a23e d70c 1a3e 755f b13e 6600 cc3d
00000040: fae1 22be 1864 8a3c d54d f7bd 68f7 9d3e
00000050: 87e9 8f3e e147 d9bc 946e 583e 6e0a ccbd
00000060: 9e9d a43e 4827 543e cdb9 17be 4f82 003e
00000070: 5e04 97be 9504 49be 98ee b03c 6e12 5dbe
-0.05110143 0.25663272 0.110245466 -0.36907893 0.081043705 -0.12181554 0.018786717 -0.10712268
0.15184504 -0.21000206 -0.3499955 -0.02587207 0.31790993 0.1504396 0.3464314 0.099610135
-0.15906516 0.016893432 -0.12075392 0.30852818 0.28107855 -0.026523532 0.21135932 -0.09962927
0.32151502 0.2071811 -0.14816971 0.12549709 -0.2949552 -0.19630654 0.021598145 -0.21589062

row_embedding.3.weight f4 [32, 32]
00000000: 4ffa fbbd 7de0 25bd 7c1d 923d d64f 413c
00000010: 7b6b cf3d e25e 513b 9d24 273e 5e27 153e
00000020: f49e ce3d c87d 15be 55af 0f3d 1b8f f53c
00000030: a9bf cd3d 4904 9e3a 4a03 0d3e dec9 1e3e
00000040: 4aa2 1e3e b7be 153d 6049 f4bd 82ec d63d
00000050: 3d29 233d e854 5e3d 0a65 393d eef6 e93d
00000060: bc0e 27be 111a db3d 461a 023e 56b8 1a3e
00000070: a692 913c b6fe 1dbe 65c6 163e 54ca ebbc
00000080: c9e1 0d3d da57 e43c 3b46 36be 620c 003c
00000090: 8346 8fbc 73c0 3ebd 28b9 9e3d ad57 303d
000000a0: 9cd2 c0bd 4a5f 21bd 6871 d1bd fa87 24be
000000b0: 2263 b13d ec1c d23d 5ac1 203e e82e 2bbe
000000c0: 7c7b 45bd 62d1 053e cc05 a03d c2a8 0abe
000000d0: 6c6f 033e 659e fa3d 0ec6 073e 6d8e f93d
000000e0: b4f4 0e3e 9f65 8fbd 8834 0e3e 98c0 e63d
000000f0: bb0d 09be 7c07 693d a213 0cbe 8347 bebd
00000100: 93a6 723c dc7e 253e b1fb d8bd f77e 17be
00000110: 2a15 2e3e 71cb abbd baea 27be c532 93bd
00000120: 7431 f33d f1bb 023d aa63 233e 4fd2 d43d
00000130: e887 2b3c 0a46 273e 24ff a5bd 1101 b13d
00000140: d59f 15bd 904a 95bc dab1 2d3d 3d35 013e
00000150: 4690 1c3e 38e2 4e3d 65f9 57bd 2422 2e3e
00000160: f5bb 053d 2711 693d 0c5d 623d 2eeb 26be
00000170: 5e8b 2a3e 36ce 273e 0b49 043e eef1 1d3e
00000180: 3421 a4bd f32d 1abd fd09 1ebe b435 693d
00000190: a0ac 413d 07fc 753d 5c5b 2e3e 6412 c2bc
000001a0: 244e b63d 8eb6 ed3d 61ab dcbd 605c fdbc
000001b0: 8279 023e 0a68 d3bd 4298 7c3d 0dfe b63d
000001c0: 0d15 9cbc 35de 2d3e b35a 8cbd c5dd 943d
000001d0: ca28 23bd 60a3 22be 052e 973d 30e4 88bd
000001e0: 49f9 44bb 1457 1e3e 9d72 a2bd 28e1 84bd
000001f0: ccaa 32be 68e3 01be 7fc7 ebbd 3278 373d
00000200: 2ec1 bb3d e154 e7bc a643 eabd 402c 283c
00000210: b853 ac3d e1ca 82bd ef92 e1bd 4a65 c03d
00000220: 36c2 2ebe 8af9 943d d17c 0d3e 5960 31be
00000230: 9fbd 49bd ddb6 24bd 54a0 443c e579 35be
00000240: 4a6b dfbd 69cc d2bd 2516 8d3d b55d 7e3d
00000250: 12d3 0bbe 1616 3f3d ddb7 d63b a463 853d
00000260: c488 87bd 3c73 f43d 7091 a6bd 5bcb 09be
00000270: e8a5 d93d 5845 32be ec34 f63d 544c 4dbd
00000280: 0ab8 b2bd 6740 23be 90c6 07bd 7dda 7a3d
00000290: 1362 66bd 5d18 273e 9bcf bd3d 500f 783d
000002a0: 38bb 28be 71ed 7b3b 7dbe 01be 0925 3d3d
000002b0: ba1f 21bd 121a e03d 47fc 21bb d58a 27be
000002c0: b1bd c6bd 67d4 33be a80f 37bd 9b2a ae3d
000002d0: 15f3 13be 6faa f03d 8b8c 32be 6645 58bc
000002e0: 01ef 1b3a bd4f b5bd 1270 1cbe 493b c6bd
000002f0: ba17 13be f937 a4bc dce4 db3c 85d0 27be
00000300: f469 af3d bf44 043e 7290 f93d 6834 23bd
00000310: f0e1 0f3e fd20 6c3d 55cd febd e943 a5bd
00000320: 0390 1dbe 0788 a63d 1460 033e 8f05 883d
00000330: a782 f8bc 13fa 10be c563 29be 007f a13c
00000340: bd78 c0bc 8017 0a3e 059d 95bd 710c 0c3e
00000350: 0499 c23d 039a e53d 16c5 273d 084b 0a3e
00000360: 448a b6bd 1777 39bd 5345 b2bd caa3 663c
00000370: 63dc 293e 180a 45bd c502 0fbd 3732 db3d
00000380: 7dae 7ebd 74c3 2dbd 0c94 f3bd 1cf5 02be
00000390: b37b 163d 1d22 0e3e 4421 0f3e 86a5 ccbd
000003a0: 11fd b53d 1c41 dcbd d79e 31be 3ffb eaba
000003b0: cd74 1c3e b10a 9dbc d9eb 15be 84f4 71bd
000003c0: 6079 8c3d 7ca4 093e 56a0 32be 80f3 383d
000003d0: 855b 7b3d 07ae 133d 0da5 30be 0520 7bbd
000003e0: 6304 f7bc 8839 c6bd 4b20 05be 3865 053d
000003f0: 4bfd 81bc d3c8 09bc ef0d febd ce71 113e
-0.12303602 -0.04049729 0.0713453 0.0117988195 0.10127922 0.0031947424 0.1632256 0.14565799
0.10088912 -0.14598763 0.03507932 0.029975465 0.10046322 0.001205572 0.13770786 0.15506694
0.15491596 0.036558833 -0.11928058 0.10494329 0.03983425 0.05428019 0.045262374 0.11424051
-0.16314214 0.10698331 0.12705335 0.15109381 0.017770123 -0.15429196 0.14724119 -0.028783001
0.034639154 0.027873922 -0.17800228 0.007815452 -0.017489677 -0.046570253 0.077501595 0.043052364
-0.094151706 -0.039397515 -0.10226709 -0.16067496 0.08661486 0.10259423 0.15698758 -0.16717112
-0.048213467 0.13068154 0.07813606 -0.13540938 0.12835473 0.122372426 0.13259146 0.12185369
0.13960534 -0.070018046 0.13887227 0.11267203 -0.13384144 0.056891903 -0.13679364 -0.092909835
0.014810222 0.16161674 -0.10594881 -0.14794527 0.17000261 -0.08388413 -0.16398135 -0.07187418
0.11874667 0.031917516 0.15955988 0.10391676 0.010469414 0.16335312 -0.08105305 0.086427815
-0.03652938 -0.01822403 0.04240594 0.12617965 0.15289411 0.050508708 -0.052728076 0.17005211
0.032649953 0.056901123 0.055264518 -0.16300651 0.16654727 0.16387257 0.12918489 0.1542432
-0.080141455 -0.037641477 -0.15433498 0.05693598 0.04728377 0.060054805 0.17027038 -0.02369041
0.08901623 0.11607085 -0.107748754 -0.030927837 0.12741664 -0.10322578 0.061668642 0.08935175
-0.019053007 0.16979297 -0.06853237 0.07268862 -0.03983382 -0.15882635 0.073818244 -0.06684148
-0.0030055812 0.15462905 -0.07932017 -0.06488258 -0.17447966 -0.12684405 -0.1151266 0.04479236
0.091677055 -0.028238716 -0.11438684 0.010264456 0.084144056 -0.06386352 -0.110143535 0.09394319
-0.17066273 0.07274158 0.13817145 -0.1732191 -0.049253102 -0.040213455 0.012001116 -0.1772228
-0.10909136 -0.102928944 0.06888989 0.062101085 -0.13654736 0.046651922 0.00655268 0.065131456
-0.06617883 0.11936042 -0.08133209 -0.1345648 0.10627347 -0.17409265 0.12021813 -0.05012162
-0.08726509 -0.15942536 -0.03314835 0.061243523 -0.056245875 0.16317888 0.09268113 0.06056148
-0.16477668 0.0038441087 -0.12670322 0.046177898 -0.039336897 0.109424725 -0.002471702 -0.16361554
-0.097041495 -0.17561494 -0.044692665 0.0850422 -0.14448197 0.11751258 -0.17436425 -0.01320014
0.0005948395 -0.088530995 -0.15277126 -0.096792765 -0.1436452 -0.020046221 0.026842527 -0.16388138
0.08565131 0.1291685 0.12185754 -0.0398449 0.14051032 0.057648648 -0.12441508 -0.080695935
-0.15386967 0.08131414 0.1282962 0.06641685 -0.030335737 -0.14157896 -0.16541965 0.019713879
-0.023495072 0.13485527 -0.0730534 0.13676621 0.09501842 0.11211016 0.04095944 0.13505185
-0.08913091 -0.04527959 -0.08704629 0.014077136 0.16587977 -0.04810533 -0.03491475 0.10702937
-0.062178124 -0.042422727 -0.11893472 -0.12788814 0.036739063 0.138802 0.13977534 -0.099925086
0.08886159 -0.10754606 -0.17345749 -0.001792766 0.15278931 -0.019170137 -0.1464075 -0.05907108
0.06859088 0.13441652 -0.17443976 0.045154095 0.061366577 0.036054637 -0.17250462 -0.061309833
-0.030153459 -0.09678942 -0.130006 0.032567233 -0.01586785 -0.008409697 -0.12405001 0.1420357

row_embedding.3.bias f4 [32]
00000000: 2250 de3d cb00 57bd b709 77bd 8273 2abd
00000010: a652 803c 03ea 04be db1b dc3d a6e3 113e
00000020: c10d 85bd 9edc d13d 5463 083e a546 ca3d
00000030: 6f74 9ebc 338a 313d fb22 d63d c8b6 d83d
00000040: de23 c53d 14ca 96bd df44 4a3d 042d bd3d
00000050: b392 27bc befb 073d 97de 5f3d 9a5a 853d
00000060: 22ab d43d b44e 2a3d 999e 283e 2b00 62bd
00000070: ba20 913b 6007 09bc 85d6 18be 2234 f63d
0.10855128 -0.05249099 -0.060312 -0.041614063 0.01566441 -0.12979893 0.107475005 0.14246997
-0.06496764 0.102471575 0.1331914 0.098767556 -0.01934263 0.043344688 0.10455891 0.10581738
0.09625982 -0.07362762 0.049382087 0.09237102 -0.010227847 0.033199064 0.054655638 0.065114215
0.103842035 0.041578963 0.1646675 -0.05517594 0.00442895 -0.008363575 -0.14925583 0.12021662

col_embedding.0.weight f4 [7]
00000000: a59a 7f3f 6c05 803f e600 803f ec07 803f
00000010: fcbc 7f3f 7fd3 7f3f 6c0a 803f
0.99845344 1.0001655 1.0000274 1.0002418 0.9989774 0.9993209 1.000318

col_embedding.0.bias f4 [7]
00000000: 9b3c 6aba 26aa efb8 6020 4fb7 d086 81b9
00000010: 0b41 3f3a 2c2a 3b3a 9b6e 083a
-0.00089354225 -0.00011428101 -1.2345699e-05 -0.0002470524 0.0007295764 0.0007139768 0.000520447

col_embedding.1.weight f4 [32, 7]
00000000: 9ddc b43e 79cb 9d3b 186f 1fba e113 33be
00000010: 5f07 8d3e 7a8d babe fd9a cfbd 360b eebd
00000020: 9e74 84be 4c10 28be ff3a 3e3e 3388 5abe
00000030: 06aa a73b 9ff8 71be a701 4abe 4398 543c
00000040: d9b0 8a3e d23e 35be 79b5 003d 026e b83d
00000050: c920 573e c1a1 913e 1c55 903e aae8 d4bd
00000060: 0382 753d 4f5c 9ebe a477 97bc fcc5 343e
00000070: 12bb 163e 6e5a a43e 4455 973e 735e 37be
00000080: 7307 88bd f3bd 80be 72d6 babe a0f6 c0be
00000090: 99d6 1a3d a67e 92bd 2696 773e 4189 69be
000000a0: 8fbc 2c3e 9174 f7bd dce9 08bd 17fc b93e
000000b0: edf3 be3e 1f68 513e f002 6c3e 1e2b 153d
000000c0: 2346 303e 2bd0 9e3d fc9f fcbd ae98 3d3e
000000d0: 58d7 b5be abeb 903d f55a 943d b26f 053e
000000e0: 7f9c e0bd 5280 38be 6c92 bebd c4b5 54bc
000000f0: 17f1 64be 6cc9 1dbe 9a93 353e 9541 9b3d
00000100: 1bb8 a6be 76e5 5dbd 365a cdbc 5141 273e
00000110: 2809 9a3e d376 c1be 8e97 ba3e 6cc4 943c
00000120: 27ab b93e 3862 03be 3764 92be 86f0 73be
00000130: 53c0 6fbe 414a b73e 09d3 073e 8418 89be
00000140: 04b3 85bd cd93 31be bdb4 6cbe e114 623e
00000150: 8026 963e 271b 99be f06e c53c 558b 7d3e
00000160: 82ea 253e 2766 95bd b195 69be c068 a6be
00000170: e6fc 54be 95a0 5c3c c77b 0dbd 28b1 4c3e
00000180: 93e7 2a3e 72c6 0abc 2bed 82bc b052 403e
00000190: 569b 3fbe a16a 5c3e 4d66 a33e e891 643e
000001a0: ff8f b03d f75f 3c3d acc2 e0bc 2507 4b3e
000001b0: 0606 843e 285e dfbc 0c4b 023e df4a 91be
000001c0: 043d 413e 7e33 8c3e e59a 56ba 1d43 1dbe
000001d0: 3d89 bebd 961a fbbd 8345 afbe dd89 a73e
000001e0: 553a 49bc d2a6 a3be 46d1 833e 5de1 a23e
000001f0: 17d4 9f3e 02ae 6bbe e588 83be 054f 9e3d
00000200: 758d 8f3d 761e 62be 8b1d 883d 0481 813e
00000210: 00d1 8dbe e8fa bd3e f9ea b2be c9c6 acbd
00000220: 498b 65bd 823e b23d 0ac7 42bc a808 813e
00000230: a40f 8d3d a0e3 24be 69cf bebe 14d2 95be
00000240: 4b86 523e 63da 203e 8455 4f3e 6b08 30bd
00000250: 39d0 dd3d 4681 a4be 7205 323c 25cc 1fbe
00000260: 3e81 81be b161 b8bd 0b07 673e 7c09 6c3e
00000270: 657c 6a3d 3518 83bd ba67 32be 6dd8 77bc
00000280: 56f0 3abd 8154 673e 4bd7 e93d 9bfb 92be
00000290: 4951 a4be 4476 ff3d 37c2 e23c e011 0c3e
000002a0: 2d62 2cbe 4a02 253e d5e4 9cbe e363 b03d
000002b0: 2359 83be e194 98be a3b9 a1bd a595 8b3e
000002c0: 25e9 84be 42f5 88be cd33 3e3e ffbe b4be
000002d0: eeaa 12bc ef92 87be 32df 893e 3783 68bd
000002e0: a024 cbbd 6751 6abe cc3d c63c ad16 133e
000002f0: fc1e c93d 3a45 493e 372b be3e ef09 3d3e
00000300: bc43 a03e b2bb 9c3d cef1 6dbe 1803 97be
00000310: 4883 b73e cb3e 0cbe fb50 a73e be43 543d
00000320: 7423 06be f84a 64be e275 b2be cf95 8f3c
00000330: 2ea1 cd3d bec7 bbbb d1cb 9bbe ac6f 903e
00000340: 9d85 873e e5f6 b63e 6ed3 b23e ec0c d4bd
00000350: 34cd 44be c2e4 353e d031 233c ee7a 103e
00000360: 35d9 5ebd 6de3 323e 8348 bbbe b3a9 b03e
00000370: 1698 223e 83a7 b93e 7380 ac3b e326 743e
0.35324565 0.0048155156 -0.0006081923 -0.17488052 0.27544686 -0.36436063 -0.101369835 -0.11623232
-0.25870222 -0.16412467 0.18577193 -0.21341018 0.005116704 -0.23629998 -0.19727193 0.012975755
0.2708805 -0.17699745 0.031423066 0.09005357 0.210086 0.2844372 0.28189933 -0.1039594
0.059938442 -0.309298 -0.018489666 0.1765365 0.14719799 0.32100242 0.2955724 -0.17907123
-0.06642046 -0.2514492 -0.36491734 -0.3768816 0.037802313 -0.071530625 0.24178371 -0.22806264
0.16868804 -0.1208278 -0.03342615 0.36325142 0.37295476 0.20449875 0.23047996 0.036418073
0.17214255 0.07754549 -0.12335202 0.18515274 -0.35515857 0.070762 0.07243911 0.1303089
-0.10967349 -0.180177 -0.093052715 -0.012982789 -0.22357593 -0.15408868 0.17732087 0.07580868
-0.32562336 -0.05417391 -0.02506743 0.1633351 0.3008511 -0.37785968 0.36443752 0.018160067
0.3626339 -0.12830436 -0.28592083 -0.23822221 -0.2341321 0.3579884 0.13264097 -0.26776516
-0.06528285 -0.17341538 -0.23115821 0.22078277 0.29326248 -0.29903528 0.02410075 0.24760182
0.16202739 -0.07294875 -0.22811009 -0.32501793 -0.20799598 0.01346602 -0.03454187 0.19989455
0.16689901 -0.008470165 -0.015982231 0.18781543 -0.187116 0.2152505 0.31913987 0.22321284
0.08621215 0.045989957 -0.027436577 0.19826944 0.25785846 -0.027266577 0.1272394 -0.28377435
0.18870932 0.27383035 -0.0008186533 -0.15357633 -0.0930352 -0.1226093 -0.3423272 0.3272237
-0.012281974 -0.3196321 0.257456 0.31812564 0.312165 -0.23015597 -0.2569038 0.077299155
0.07009403 -0.22081932 0.0664626 0.25293744 -0.27698517 0.3710549 -0.34944895 -0.08436353
-0.056041036 0.08703329 -0.011888275 0.25201917 0.06887749 -0.16102457 -0.37267616 -0.2926184
0.20559041 0.15708308 0.20247465 -0.042976778 0.10830731 -0.32129878 0.010865556 -0.15605219
-0.25293916 -0.09003008 0.2256128 0.23050493 0.057247538 -0.064011015 -0.17422381 -0.0151272835
-0.04563936 0.2259083 0.11418017 -0.28707585 -0.32093266 0.12473729 0.0276805 0.13678694
-0.16834326 0.16114154 -0.30643335 0.08612802 -0.25653943 -0.29801086 -0.078967355 0.27262607
-0.25959125 -0.26749617 0.18574448 -0.35301968 -0.008951886 -0.2647929 0.26928097 -0.05676576
-0.09919095 -0.22882615 0.024199389 0.14364119 0.09820363 0.19655314 0.37142345 0.1846082
0.31301677 0.076529875 -0.23236772 -0.29494548 0.35842347 -0.13695829 0.3267897 0.051822416
-0.13099462 -0.22294223 -0.34855562 0.017527489 0.10040508 -0.0057305982 -0.30428937 0.282102
0.26469126 0.3573524 0.34926933 -0.10354027 -0.19218904 0.17763045 0.009960607 0.14109394
-0.054406364 0.17469569 -0.3657876 0.3450447 0.15878329 0.36260614 0.005264336 0.23842959

col_embedding.1.bias f4 [32]
00000000: 71a5 87be 8788 30be ad2c 9fbd bca7 92be
00000010: 48f5 99be 22f5 8a3e e0d8 48be 5c99 24be
00000020: 7f07 24bd 932f 14bd 687a c63d 2784 8a3e
00000030: b9db 6c3d a69e 2dbe 67dd 003e 74aa c0be
00000040: 512a b53e d36f b73b c6b4 53be b01a 25bd
00000050: eb0e ccbc a734 a9be 4f88 8e3e 0521 9e3d
00000060: 2507 b5be 6b58 9c3e fe1c 8fbe d7c1 a7bd
00000070: 477e e83d 4a69 b53e 857c 50bd 5ac1 ab3e
-0.2649341 -0.17239581 -0.07772193 -0.28643596 -0.30069947 0.27140146 -0.19613981 -0.16074127
-0.04004621 -0.036178183 0.09691316 0.2705395 0.05782673 -0.16955051 0.12584458 -0.37630045
0.35383847 0.0055980473 -0.20674428 -0.040308654 -0.024909457 -0.33047983 0.2783837 0.07721142
-0.35357013 0.30536208 -0.27951807 -0.08191269 0.113522105 0.35431892 -0.0509 0.33545953

col_embedding.3.weight f4 [32, 32]
00000000: 1ef7 0c3e cfde 023e d83a e6bb 65a1 0ebe
00000010: c414 9e3d ed9f 02bd 1a3e 2bbe 1eab 0b3e
00000020: 578d 0c3e 8ca6 1a3e b5c1 c13d 6741 e33d
00000030: 7437 14be 5f50 e7bb 0855 6c3d b03a 943d
00000040: 9b04 62bd 244d 10bd 6955 06be 2adf 20be
00000050: 0966 0f3c 8e71 303e 8692 f4bd 20d9 293e
00000060: db0f 23be 6f7b f3bd e2f7 0dbe 5389 01be
00000070: 7700 153e e8a9 253b 451f 3ebd 52ce 2e3e
00000080: bfe8 b23d 8fed 0cbe 7032 1b3e cd08 b5bd
00000090: 2671 c23d eb38 4e3d e4ae 6a3d 7274 47bd
000000a0: 05d3 263e 0c5b 89bb 63c2 d83d e55d f63d
000000b0: 1051 1dbe 0f48 f8bc 8b9e cfbd 194d 93bc
000000c0: 446a 18be d5c9 8fbc f4a9 ebbd 879c 8abd
000000d0: d717 c63d 34d7 70bc c70e 283e 2efa 753d
000000e0: 3ca8 6a3d 30ae 3c3d c564 34be 5554 2e3e
000000f0: 73bc dabb e786 2fbe b1ae c5bb 99d0 b4bd
00000100: 06f8 73bd 3add 37bd fab9 bcbc 518b d8bd
00000110: 4ae1 d2bd ecb5 7e3d 5d5a 203e 6d8d 333e
00000120: 4ac7 a5bd ef2a 22be 6aaa 0fbd e309 69bc
00000130: 1743 1fbe 39e3 06be ef17 39bc 40d3 8e3d
00000140: 455a 8b3a 74b2 57bd 4657 c7bc cfb2 253e
00000150: a938 993d 8374 cbbd aaed d63d 84cf f43d
00000160: fe4b c6bd f128 0cbd 9289 e03d d7e8 8c3b
00000170: f98a e73c 13bc 21bd 946b 2bbd 1e2a ac3d
00000180: 56d6 d93d 5ea2 35bd 8246 b0bc edfb d43c
00000190: ca8c a13d f776 2fbe d244 90bd c080 d73d
000001a0: 8d4f 1f3e cfb7 2dbe 1857 283d 69fe 40bd
000001b0: 1d4b 843d 4d5c 22bc e1f5 9bbd a01b 15be
000001c0: 5f60 4fbd f0d4 143d 0c5a 4cbd ce4a f43b
000001d0: abdd 793d 8ed6 eb3d 3b85 f63d 67b0 813d
000001e0: 3e7c e73d c3e6 1bbe f633 f43d b01d c3bc
000001f0: 96a5 f63d 3a3c 0c3e abe7 0f3e 8623 883d
00000200: 0cfb d83d 75bc 763d c72c 023d d654 b6bd
00000210: b74b 183c 2308 113e 039c 13bd 1f9f e9bc
00000220: 8a98 093e d4de ca3d 05a0 a7bd bacb 23be
00000230: 27f1 933c 1498 09be a186 06be 72c9 123e
00000240: 578f d23d 2f8b 28be 4ae8 bbbd 0872 c73d
00000250: 32d7 05be af48 963d ee29 fd3c a963 fabd
00000260: d789 d73b b18b 713d 73e7 2d3e 06ae d73d
00000270: 26dc d03c 5a4f 8dbd 1cda 23be 8ac0 bc3c
00000280: c91c d83c d332 8d3d a1cf 67bd 61d4 07be
00000290: 287f e53d d460 bc3d 0069 5fbd d29c 073e
000002a0: fa41 1c3e 14ef d53d 8377 babd 20af edbd
000002b0: 03c2 cdbd 5d40 133e 5a43 ecbd 2f8b 4e3d
000002c0: b9e0 3dbd ba9c d0bd 4a5c 0d3e cb57 353d
000002d0: f284 9abd dfc6 42bd 8a73 003e ae83 97bc
000002e0: 44f7 4a3d cb4a 0dbe e1c6 8abd 5aad 42bd
000002f0: 97ea 153e d893 22be 8957 b33d dfd8 333c
00000300: b633 3f3d 0f5d 7bbd 887b ef3d 4038 3aba
00000310: 4d9c e6bd d6f2 82bc d677 a23d a96a f83d
00000320: 5bf8 303e 123a 253e 8f93 ebbc 4e08 c2bd
00000330: 3848 ab3c 349c 23be 17ff 003e ee43 a53b
00000340: 8a73 303e b787 94bd b0e3 cc3d e03b 203e
00000350: 55b6 e2bc d69b cf3d a776 ecbd 0683 223e
00000360: 9256 2e3d 6e0c 113e 0a72 b73c 34bf 69bc
00000370: 9bfb 443d 033b f83d 12af ec3d 3721 f8bd
00000380: 5804 f8bd 9f03 af3d e714 2a3e dcf5 153e
00000390: 5c93 d2bd 53c0 bd3c 80aa 86bc b2a5 1bbe
000003a0: 6b07 103e 420a 273e e298 373d e90c e5bd
000003b0: aa17 8fbc d3cf fa3d 9bde cabd 1931 3ebd
000003c0: 667f b2bd 54f0 0b3c 417b 9dbd 44cf f6bc
000003d0: 911a 4dbd b7a8 d83d b342 b2bd 86ec 423d
000003e0: 2910 0f3e 0776 123e 40da 1cbe 46ee 5ebd
000003f0: 5450 c1bd 2ee7 0dbe dcbb 653d 9691 f63d
0.13766143 0.12780307 -0.0070260577 -0.13928755 0.077188045 -0.0318908 -0.16722909 0.13639495
0.13725792 0.15102595 0.09460775 0.11096459 -0.14474279 -0.0070591415 0.05769828 0.07237756
-0.055180173 -0.035229817 -0.13118519 -0.1571013 0.008752354 0.17230818 -0.1194201 0.16586733
-0.15924017 -0.118887775 -0.13864091 -0.12650041 0.14550959 0.0025278274 -0.04641654 0.17070892
0.08735799 -0.13762496 0.15155959 -0.08839569 0.094942376 0.05034725 0.057295695 -0.048695035
0.16291435 -0.004191762 0.10583951 0.12029628 -0.15362954 -0.030307798 -0.101376615 -0.017981099
-0.14884287 -0.017552296 -0.11507025 -0.067681365 0.09672516 -0.014699746 0.16411887 0.060053043
0.057289347 0.046064556 -0.17616566 0.17024358 -0.006675297 -0.17141305 -0.0060327877 -0.08828849
-0.059562705 -0.044888712 -0.0230379 -0.105734475 -0.10296877 0.062185213 0.15659471 0.17534418
-0.08094652 -0.1583669 -0.03507463 -0.014223549 -0.15552936 -0.13172616 -0.01129721 0.069738865
0.0010631761 -0.05266042 -0.024333607 0.16181491 0.0748151 -0.09934332 0.104945496 0.11953643
-0.09682463 -0.034218732 0.109637395 0.0043002176 0.02826451 -0.039486002 -0.04185064 0.08406471
0.106365845 -0.0443443 -0.021517996 0.025999034 0.078881815 -0.17135225 -0.070443764 0.10522604
0.1555769 -0.16964649 0.041098684 -0.047117624 0.06459639 -0.0099097015 -0.07615257 -0.1456132
-0.050629016 0.036335886 -0.049890563 0.0074552065 0.061002415 0.115155324 0.120371304 0.06332474
0.11302994 -0.15224747 0.11923973 -0.023817867 0.12043302 0.1369485 0.14053218 0.066474006
0.105947584 0.06023832 0.031780984 -0.089029 0.009295396 0.1416326 -0.036037456 -0.028518258
0.13437095 0.09905782 -0.08184818 -0.15995684 0.018059326 -0.1343692 -0.13137294 0.14334658
0.10281246 -0.16459344 -0.09175165 0.097385466 -0.13070372 0.07338082 0.030903783 -0.1222604
0.006577711 0.05897111 0.16982822 0.10531239 0.0254956 -0.06899901 -0.16001171 0.023041029
0.026380913 0.068944596 -0.056594495 -0.1326461 0.11205894 0.09198156 -0.054543495 0.13243416
0.15259543 0.10445991 -0.09104826 -0.11605668 -0.100467704 0.14380021 -0.11536284 0.050425705
-0.04635689 -0.10186143 0.13804737 0.04427318 -0.075448886 -0.04755294 0.12544075 -0.018495407
0.049552217 -0.13798063 -0.067762144 -0.047528602 0.1464027 -0.1587671 0.087569304 0.010976999
0.046680175 -0.061368044 0.116934836 -0.0007103719 -0.11260281 -0.015984934 0.07933013 0.12129719
0.1728224 0.16135433 -0.028756885 -0.0947424 0.02090846 -0.15977556 0.12597309 0.0050434982
0.17231575 -0.07252448 0.100043654 0.1564784 -0.027674833 0.10137145 -0.11546069 0.15870294
0.04256303 0.14164898 0.022393245 -0.014266778 0.048091512 0.121206306 0.115568295 -0.1211571
-0.121102035 0.085456125 0.16609536 0.14644569 -0.10282013 0.023162996 -0.016438723 -0.15199926
0.1406533 0.16312507 0.044823535 -0.11184103 -0.017467339 0.122466706 -0.0990574 -0.046433542
-0.087157056 0.008541185 -0.076895244 -0.030128129 -0.050074164 0.10579055 -0.08704128 0.047588848
0.13971008 0.14302836 -0.15317631 -0.054426454 -0.094391495 -0.1385772 0.05608736 0.12039487

col_embedding.3.bias f4 [32]
00000000: 4ed0 3cbd 93b8 1a3e e19d c7bd bec4 f53d
00000010: 1c50 c1bc 92b4 1c3e bc77 d63d a1f5 f53c
00000020: f476 123e 5b8e 113e 5364 073e 9dd9 073e
00000030: 176f a8bd cf38 223e b775 8a3d bc87 a7bc
00000040: c5fd bfbd 5fea abbd 5dc0 ec3d f92f 133e
00000050: de40 bb3d 6c02 ca3d aadb fcbd 4733 1b3e
00000060: e817 0e3e 2833 86bd f0f6 0a3e edc6 bd3d
00000070: 50da bc3d 464c f43c a3d1 b7bd 7dc2 9a3d
-0.046097092 0.15109472 -0.0974691 0.12000416 -0.02359777 0.15303257 0.10472056 0.030024352
0.1430319 0.1421446 0.13221864 0.13266607 -0.08224314 0.15841983 0.067607336 -0.020450465
-0.093745746 -0.08394312 0.11560128 0.14373769 0.09143232 0.09863743 -0.12346585 0.1515628
0.13876307 -0.06552726 0.13570762 0.09266458 0.09221327 0.029821526 -0.08975532 0.07556627

conv_col_to_row.feature_module_left.0.weight f4 [32, 32]
00000000: 9d2b c83c be6b 1cbe 471d 6fbb a951 223d
00000010: 91ae 05bd 0879 efbd 2f47 723c 6f0c 6cbd
00000020: a162 1f3e 34a6 113c 6864 b2bc 235a 063e
00000030: 6211 163a 1fb1 55bd 18bd 9cbc 7a0a 22bc
00000040: e3c5 2ebc 2255 0fbe 98de 053e c6d4 e63c
00000050: e926 b9bd 40eb dabd 73f5 9f3d d8de 9f3d
00000060: 1a61 c53d e745 d8bd 511d 25be 53a2 07be
00000070: 8b97 013e 74d5 41bd e739 5dbd cb5a cdbd
00000080: b100 063e 37f8 923d 58bf d63d a46f c9bd
00000090: 3b7d 00bd d1c9 233e 6290 b1bc 6f46 30be
000000a0: 3ddc b3bd 4e25 8c3b 7f2a f23d 80a1 fc3c
000000b0: 854d 203d 334c fabd 2945 f63c 002b 733c
000000c0: 056e 013e c3d9 07be 906e eb3c 2b60 d3bd
000000d0: 44e4 26bd 89b2 b83d f0fd 32be ad70 dd3d
000000e0: 9753 24be 1af9 153d 84b7 a33d 4ea7 d23d
000000f0: dc1c c1bd 63c4 e2bd 88ee c03d 2b4e 7dbc
00000100: c123 e93d 530e debd 3a16 de3c 3678 8d3d
00000110: 5484 c03c d710 033e 0e69 03be 0fd2 2c3e
00000120: 164a eabd e94a dabd d5ac 043e e9d6 aa3c
00000130: 4a4b 2dbe 737e 29be 23d3 a4bd 34d7 293e
00000140: 7b76 253d 1032 06be c80c 2d3e bdfc 903d
00000150: b079 92bd 077b dfbc 8219 42bd dc99 333e
00000160: 7511 a93b db4f 573d 9344 10be a82e b93c
00000170: ab57 88bd a276 8e3d c7c1 ce3c 018f 37bc
00000180: 7f5e 4dbd 794a 7bbd 39ab 543c f49e 223c
00000190: d8ea 62bc 4ba9 513d 5fba 82bc 6e9a 8bbd
000001a0: 277c 113e fe13 c3bd 5e32 fcbd 6efb 1a3e
000001b0: ccd4 dd3c 55ba 02bd 4ee9 c2bd 6a55 07bd
000001c0: e05c 08be 947f 203d 93db 9c3c 20e6 9d3d
000001d0: dc4d f9bc d4cb 2abe 66d9 0c3e 3080 25be
000001e0: f9fc e9bd 2aaf b2bb 02f0 cfbd 5992 c0bd
000001f0: ff48 fc3d 1df0 2cbe 9e53 b6bc a061 b83d
00000200: b5a1 19be d066 9f3d a929 253e a321 593b
00000210: e5a9 c03d a437 e5bd 8803 093e 27ab 1fbe
00000220: 749f 843d e34a d03d a23d aabd a31a d2bd
00000230: c1a2 243d b809 283e 13f9 9fbd f016 053e
00000240: ec7f a6bd 4e5b e7bb c6c1 053e f838 13be
00000250: 59a6 31be 5d91 fabc 1f92 0e3d a8f9 b73c
00000260: 5a48 34be c7b5 a4bd 1b45 273d 7643 e2bc
00000270: 0a3e 1dbe 653b 6b3d 7b45 3a3d db9c c6bd
00000280: fdfb e73b b87e 0cbe 2825 233e cc4c a73d
00000290: a5c9 653c 7798 a73d fd95 613d e8b9 f13d
000002a0: a34a 10be aaf5 08bd ea08 8c3d e231 17be
000002b0: 6ffe 0fbd f8bd 7bbd 439e b33c d2b7 00be
000002c0: 880e 2b3e 0ddc 02be 66d9 87bd 08c5 ccbd
000002d0: a6e6 fb3d 0d37 f63d 1f76 663d db40 f93d
000002e0: 01e8 243e 4bda f1bb 8afa c9bd 6122 113e
000002f0: 2dd8 833d e3db 08be 4ff5 943b de31 313e
00000300: d365 52bd c3ed 1ebe 485b 263e b0ee cd3c
00000310: eead 8f3d 7a6c 27be c00a 153e e1c3 ecbd
00000320: eb43 cf3c 96d5 ab3d 7023 4e3c fe5f 31be
00000330: d389 df3c b27d a4bd 65d2 313d a9bc 9d3d
00000340: 6994 bd3c 5794 cebc a187 5ebd 155b f33d
00000350: e904 91bd 1cd9 643d dade d6bd 024d 92bd
00000360: c88c d53c 5c8e 0ebe 5ec0 473d a2ef 4dbd
00000370: 9e36 2a3e 12ae d83b 65d1 16be 6cf1 fd3d
00000380: 2b8d 00be f077 1e3c 70da 07bc 89a8 ffbd
00000390: e01f 133e 755a cebd 290d d53c 227f 133e
000003a0: 63bf 083e 0600 20be 2511 153e 6cf0 9bbd
000003b0: 3b61 76bb 5b43 c7bd 18fa 703c cb26 cc3d
000003c0: 063d 06be 9943 39bb a7cb 313e 58ba e43d
000003d0: ad91 36bd 744a 16be dba4 3c3a d562 84bd
000003e0: 410a bd3d a58c ee3d 2345 edbd 8a59 ccba
000003f0: cbf6 ff3d 9487 9f3d 4155 15be f419 17be
0.024434859 -0.15275475 -0.0036485957 0.03962866 -0.032637183 -0.11693007 0.014787479 -0.057629045
0.15564968 0.008889724 -0.021776393 0.13120322 0.0005724636 -0.05217087 -0.019133136 -0.009890193
-0.010667297 -0.1399732 0.13073194 0.02817763 -0.09040625 -0.106894016 0.078104876 0.07806176
0.09637661 -0.10560208 -0.16124465 -0.13245516 0.12655465 -0.047322705 -0.054010298 -0.10027083
0.13086201 0.071762495 0.10485715 -0.09835747 -0.03136943 0.15994956 -0.021675292 -0.17214368
-0.087822415 0.004276908 0.11824512 0.030838728 0.03913643 -0.12221565 0.030062275 0.014841795
0.12639625 -0.13266663 0.028739244 -0.10321077 -0.040745035 0.09018428 -0.17479682 0.10812507
-0.16047512 0.036614515 0.07993987 0.10285817 -0.094293326 -0.11072614 0.09420496 -0.015460531
0.11383773 -0.10842576 0.027110208 0.06907694 0.023500599 0.12799393 -0.12833044 0.16877006
-0.11439912 -0.10658819 0.12956555 0.02085443 -0.16923252 -0.16552143 -0.08048084 0.16586
0.040396195 -0.13105035 0.16899407 0.07079456 -0.07152116 -0.027280344 -0.047387607 0.17539161
0.0051595517 0.05256639 -0.14088659 0.022605255 -0.06657346 0.06956221 0.025238885 -0.011203528
-0.050138947 -0.06135032 0.012980276 0.009925593 -0.013849936 0.05118684 -0.01595801 -0.068165645
0.14207517 -0.095252976 -0.12314294 0.15134975 0.027079009 -0.03191598 -0.095171556 -0.03304044
-0.13316679 0.039184168 0.01914767 0.077099085 -0.030432634 -0.16679317 0.13754806 -0.16162181
-0.11425204 -0.00545301 -0.101532 -0.094029136 0.123186104 -0.16888471 -0.022256669 0.090029955
-0.15003093 0.07783282 0.16129173 0.0033131621 0.09407405 -0.11192253 0.13380253 -0.15592633
0.06475726 0.101705335 -0.08312537 -0.10258987 0.040194277 0.16409957 -0.07811179 0.12997031
-0.08129868 -0.007060445 0.130622 -0.143772 -0.17348613 -0.030586893 0.03480732 0.022457913
-0.17605725 -0.08042484 0.04083739 -0.027620059 -0.15355697 0.05742969 0.045476418 -0.096978866
0.0070796 -0.13720214 0.15932143 0.08168945 0.014025127 0.08183377 0.05507468 0.11803037
-0.14090972 -0.03343741 0.06837638 -0.14765123 -0.035154756 -0.061460465 0.021926051 -0.12570122
0.16704762 -0.12779255 -0.06633262 -0.09998518 0.12299852 0.12022219 0.056264993 0.12170573
0.16104127 -0.007380759 -0.0986224 0.14173271 0.06437717 -0.1336513 0.0045458446 0.17304179
-0.05136664 -0.15520386 0.16245759 0.02513823 0.07015596 -0.16349974 0.14554882 -0.115607984
0.02530094 0.08390348 0.012581691 -0.17321774 0.0272874 -0.08031787 0.04341354 0.07702
0.023142057 -0.025217218 -0.054328565 0.11882607 -0.07081015 0.055871114 -0.10491724 -0.07143594
0.026068106 -0.13921493 0.04876744 -0.05027736 0.16622397 0.0066125477 -0.14728315 0.12399563
-0.12553851 0.00967215 -0.008291826 -0.124833174 0.14367628 -0.10075847 0.026007252 0.14403966
0.13354258 -0.15625009 0.14557321 -0.07614216 -0.0037594575 -0.09729644 0.0147080645 0.09968337
-0.13109216 -0.002826905 0.17362843 0.11168355 -0.04457252 -0.14676839 0.0007196196 -0.06464163
0.092304714 0.116479196 -0.115854524 -0.001559065 0.12498244 0.07789531 -0.14583303 -0.14755994

conv_col_to_row.feature_module_left.0.bias f4 [32]
00000000: 2656 dc3d ed2a 043e 63b4 dfbd 4114 883d
00000010: 19d2 a3bc d5d5 e63d 04d2 b3bd 7290 323e
00000020: 077d 72bd f5d4 14be 9068 ddbd 229c 1bbe
00000030: 9c9b 173d 5b50 903d 090b 28be 3e56 1bbe
00000040: 3ec6 b23d d143 053e ede1 d13c 90ef 173d
00000050: 75f4 393d 6043 b03d 0ea1 253e b0c1 b3bd
00000060: fb81 b83d 9041 56bd 104e ff3d d4c8 2ebe
00000070: 291a d1bd d386 8bbd 311c 6abd 5501 2cbe
0.10758619 0.12907 -0.10923078 0.06644488 -0.019997643 0.11271254 -0.08780292 0.17437914
-0.059201267 -0.14534362 -0.10810959 -0.15196279 0.037013635 0.070465766 -0.1641046 -0.15169618
0.08729218 0.13014151 0.025620425 0.0370937 0.045399148 0.08606601 0.16174719 -0.08777177
0.09009167 -0.05230862 0.12466061 -0.17068797 -0.10210068 -0.06812825 -0.05715579 -0.16797383

conv_col_to_row.feature_module_edge.0.weight f4 [32, 1]
00000000: 40c1 0b3f db36 1c3f c69c c03d 805b ab3e
00000010: 6eec ae3d e1ea e83e 697a 3bbf 2dbc a8be
00000020: 6120 02bf e1b9 543e 6271 69bf 02f2 56bf
00000030: 77b7 53bf 9c79 083e 4f48 08bf a8b7 b53d
00000040: be18 82bd 87e3 14be 7073 313f 1dba 273f
00000050: 6c39 3bbf 2c55 143c 98f8 50bf 5f03 30bf
00000060: 91c3 2e3f db57 d13e 6cc6 29bf c4f9 263f
00000070: baee 1dbe 3751 163e 0487 87be f9dd 6b3f
0.5459175 0.610212 0.09404902 0.33468246 0.08541189 0.45491698 -0.7323366 -0.32956067
-0.50830656 0.20774032 -0.91188633 -0.83963025 -0.8270182 0.1332764 -0.53235334 0.0887292
-0.063523754 -0.1453992 0.6931677 0.6551836 -0.73134494 0.00905351 -0.81629324 -0.68755144
0.6826716 0.4088734 -0.6631839 0.6522486 -0.15423098 0.14679419 -0.26470196 0.9213558

conv_col_to_row.feature_module_right.0.weight f4 [32, 32]
00000000: 94de 79bd 6bea a33d 9d37 ccbd 0317 f43d
00000010: fbd5 adbd aadc eebd 9ae2 62bc 13c9 f73c
00000020: eca1 b23b 2aaf d7bd 331d bdbd 35a5 7b3d
00000030: f229 d2bd 29d8 3d3b 1196 9b3d ed2a 853c
00000040: b579 343e 0ee1 273e d139 b73c 530f 0a3e
00000050: 5957 2abe 8f26 1d3d 258f 313e 13a5 71bd
00000060: dfee 8d3d 0afb 213d b98e 0d3e 2777 ccbd
00000070: 760e edbd 0374 df3b 2f80 e8bd dab1 183e
00000080: 9f0e 203e 1301 be3d dc26 91bc 14f4 343e
00000090: b1de 1dbe d1de 333e 6722 9ebd 7d8e 173e
000000a0: 0261 ddbd 45a6 c2bd b7cb d9bd ec22 b83d
000000b0: 27bd 0d3d 0442 d13d 1831 b83b 719a 6dbd
000000c0: f026 0d3e 63a3 0fbe ab46 9b3d af40 1abe
000000d0: 9352 293e 6409 483c 297b 72bd 3381 0c3e
000000e0: ab79 18be f5b2 c9bd 4232 11be 74aa 68bd
000000f0: cbfe 99bd 7095 c73d 7e0f 18be 4c92 9c3b
00000100: cfb3 0d3e 2aa3 1dbd 6c3e 77bd d8a3 a2bd
00000110: af54 b63d c8cc e73d 71cb 07be 0cbd c5bc
00000120: 23d0 19be 8664 57bd 5c38 a63c b3d9 c53c
00000130: dce0 023e a49a f63d a1bb 533d a2d1 24be
00000140: 861d 3bbd b0ca 333e fd97 67bd 02d9 323d
00000150: ef5f de3c 21c3 c73d 5eba b8bd 590f ccbd
00000160: 3818 3abd 0422 ee3d fd79 25be 51d4 d3bc
00000170: 5b91 d33d 5b5c 0e3e b648 143d c0bd b2bd
00000180: 1c6e 253d d20c 08be 71f8 2fbe 7ee6 093e
00000190: 6811 34be 724b 06be f1c2 283e 209f 823d
000001a0: 5001 dabd 8891 01be 7368 1abe 14d0 04bd
000001b0: 8823 dabd eea1 a93d 4bb8 f8bd ea32 8bbd
000001c0: c78b 55bd c4f5 5f3d 4be6 96bc cd32 fcbc
000001d0: c626 a2bd ff80 2dbe a143 2e3e 14e0 123e
000001e0: b0e9 7b3d 03b2 42bc cd99 023e 07de 3dbd
000001f0: 41b6 c23b b566 e33d 334c debd f577 e93d
00000200: ea23 afbd da80 09be cedd 2f3e 7e2d 94bd
00000210: b16a 97bd 021c 70bd fef6 fd3c e1de 7dbc
00000220: 7049 18be 749a 25be aea8 d63d f413 973d
00000230: 7770 0a3e 29c8 26be 5c53 9a3c 1f69 113e
00000240: d519 a3bd 18a6 f63b 56ac d23a 4d2e 203e
00000250: 7c67 0dbe 6814 0dbd b799 833d eb81 923b
00000260: e33b 1a3d 558f dfbd 0ce4 17be 6121 213e
00000270: f72a 4f3c 8aaa 91bd 3ac4 6ebb 9ed7 4a3d
00000280: e4e5 a33d 306f 1d3e 4a13 2bbe 1cd8 0fbe
00000290: a191 7b3d 65cf bdbd eb78 5a3d b847 303e
000002a0: da51 90bd 1e10 1e3e 78fb 883d b427 cf3d
000002b0: 97f6 283e 90df 313e 27a3 e23d 3b31 bb3d
000002c0: 2eee 813d 6640 133e a9d7 2c3e 7285 16be
000002d0: d150 013e e792 e03d 5637 bc3d b42f ad3d
000002e0: 3dab b5bd 11f7 b93d 6797 e43d 28d0 373d
000002f0: 5e10 1b3d d1ef fabd 2136 21be 552d 70bd
00000300: 4fe3 1c3e e71a e13b 800e 683d 8d47 7c3d
00000310: 45d6 0abb 754e 28bb 8143 7cbc 4697 e9bd
00000320: f038 ab3d 85d5 c5bd 4d81 543d daf1 9dbd
00000330: 9e6d 54bd d8f3 beb8 ec83 a3bd 529f ebbd
00000340: 1802 0abe 3202 6f3d 48c3 00be ab93 2ebe
00000350: e45c d8bd 9d5a ec3b 61df 073c 5f6d f83b
00000360: 11ed 4a3d 5cd5 aabd b47b c83d 625e 153c
00000370: 17e8 0b3e 97a3 eb3c cff4 773d 0a74 00be
00000380: 0eb4 0c3e 13df a6bc e791 97bd 77dd 163e
00000390: 2897 5bbd 3fbf e13d 253d 173c ad86 4d3b
000003a0: 80ff 183e eb15 cbbd e8b6 df3c b5ab a1bd
000003b0: f2e0 df3d deb6 083d 3753 c23d 79a8 da3d
000003c0: 6dab 67bd 4ebc d0bd 3079 3bbd 9d5a a83c
000003d0: ebe3 cbbd 2abc d93d 120f c2bd f465 ad3d
000003e0: 8646 19be bd53 b5bd cf7a d83c a046 33be
000003f0: ff24 173e acb2 1b3e bb51 a13d 2922 d8bc
-0.061003283 0.08003696 -0.09971545 0.11918452 -0.08488079 -0.11663182 -0.013847971 0.030247247
0.0054514315 -0.10531457 -0.09234085 0.06143685 -0.10261907 0.0028967953 0.07596982 0.01625582
0.17624553 0.16394445 0.022366436 0.13482408 -0.16634883 0.03836685 0.17339762 -0.058995318
0.06930327 0.03954605 0.13823976 -0.09983664 -0.11575024 0.0068192496 -0.11352574 0.14911595
0.15630578 0.09277549 -0.017718725 0.17671233 -0.15416981 0.17565466 -0.077214055 0.14800449
-0.108095184 -0.0950437 -0.10634559 0.08991036 0.034604218 0.102176696 0.005621087 -0.058008615
0.13784385 -0.14027171 0.07581838 -0.15063737 0.16535406 0.01220927 -0.059199486 0.1372116
-0.14890163 -0.098485865 -0.14179328 -0.05680318 -0.07519301 0.097453 -0.1484966 0.004778182
0.13838123 -0.038485684 -0.060362265 -0.07941407 0.08902871 0.11318356 -0.132612 -0.024137996
-0.15020804 -0.0525861 0.020290546 0.024151659 0.1278109 0.12041214 0.05169261 -0.16095594
-0.045682453 0.17557788 -0.05654143 0.043663986 0.027145354 0.09754015 -0.09019922 -0.09963865
-0.045433253 0.11627582 -0.16159816 -0.025858076 0.10330459 0.13902418 0.036202155 -0.08727598
0.04038821 -0.1328614 -0.17184617 0.13466832 -0.17584765 -0.13114718 0.16480614 0.06378007
-0.106447816 -0.12653172 -0.15078907 -0.032425 -0.10651308 0.08282839 -0.12144526 -0.067968205
-0.052135255 0.05467774 -0.01842036 -0.030785942 -0.07917552 -0.1694374 0.17017986 0.14343292
0.06150216 -0.011883262 0.12753983 -0.04635432 0.0059421365 0.11103574 -0.108543776 0.11399833
-0.08551772 -0.13428059 0.17174456 -0.072352394 -0.07393397 -0.05862046 0.031001564 -0.015495033
-0.14871764 -0.161722 0.10481392 0.07376853 0.13519464 -0.16287293 0.018838577 0.14200257
-0.079639114 0.007527124 0.0016073089 0.15642662 -0.13809007 -0.03444329 0.06425803 0.004471054
0.03765477 -0.1091601 -0.14833087 0.1573539 0.012644521 -0.07112606 -0.0036432878 0.049522035
0.080028325 0.15374446 -0.16706577 -0.14047283 0.06141818 -0.09268073 0.053337973 0.17214859
-0.07046862 0.15435836 0.06688589 0.10114995 0.16500317 0.17370439 0.11066275 0.09140249
0.06344257 0.14380035 0.16879143 -0.14699343 0.12628485 0.109655194 0.09190242 0.08456364
-0.08870552 0.09080327 0.1116169 0.044876248 0.037857406 -0.122527726 -0.15743305 -0.058636982
0.15321086 0.006869662 0.056654453 0.061591674 -0.0021184843 -0.002568153 -0.015396954 -0.11405806
0.08360469 -0.09659866 0.051881123 -0.07712145 -0.05186235 -9.1053254e-05 -0.079841465 -0.11504997
-0.13477361 0.058351703 -0.12574494 -0.17048518 -0.105645925 0.0072129504 0.008293004 0.0075813974
0.04954249 -0.08341476 0.097892195 0.009116741 0.13662754 0.02876453 0.060536202 -0.12544265
0.1374056 -0.020370042 -0.074008755 0.1473292 -0.05361095 0.110228054 0.009230887 0.003136079
0.14941216 -0.0991629 0.027308896 -0.07894079 0.10931577 0.03337752 0.09488528 0.10676665
-0.05655997 -0.10192166 -0.04576987 0.02055102 -0.09955581 0.106315926 -0.09475531 0.08466712
-0.14968309 -0.088538624 0.026425747 -0.1750741 0.14760207 0.15204877 0.07876917 -0.026383476

conv_col_to_row.feature_module_final.0.weight f4 [32]
00000000: edb4 7f3f 92f9 7f3f 0000 803f 7301 803f
00000010: 0000 803f 3404 803f 243e 803f 69e2 7f3f
00000020: b7d9 7f3f 3348 803f afe8 7f3f 3adf 7f3f
00000030: 0a21 803f e7ea 7f3f 3efb 7f3f 7fb6 7f3f
00000040: 4c0a 803f 40f9 7f3f e805 803f 7419 803f
00000050: db28 803f c6fb 7f3f a0ed 7f3f a7f6 7f3f
00000060: f140 803f 0819 803f 0d3b 803f 0000 803f
00000070: 0000 803f c8ab 7f3f 0000 803f 0000 803f
0.99885446 0.9999019 1.0 1.0000442 1.0 1.0001283 1.0018964 0.9995485
0.9994158 1.0022033 0.9996442 0.9994999 1.0010083 0.9996781 0.9999274 0.9988784
1.0003142 0.999897 1.0001802 1.0007768 1.0012468 0.9999355 0.9997196 0.99985737
1.0019819 1.0007639 1.0018021 1.0 1.0 0.9987149 1.0 1.0

conv_col_to_row.feature_module_final.0.bias f4 [32]
00000000: 7d94 23ba b654 bab8 0000 0000 a88e 4438
00000010: 0000 0000 0f9f 2039 6934 b539 1122 a6b9
00000020: 380a a8b9 26e6 e43a 2c35 64b9 2ea7 02ba
00000030: 29d7 433a 451e 39ba 2076 4f3a 1dcb bcb9
00000040: 95b9 8ab9 4d05 b2b8 717d 2839 905e a73a
00000050: a407 783a f509 e2b8 796d 2939 c16c 90b9
00000060: a3a7 123b 5f7d 1f3a 4ab3 b93a 0000 0000
00000070: 0000 0000 69d5 c9ba 0000 0000 0000 0000
-0.0006240083 -8.88495e-05 0.0 4.68629e-05 0.0 0.00015318043 0.0003456206 -0.0003168737
-0.0003205107 0.0017463609 -0.00021763582 -0.0004984018 0.0007470721 -0.00070617005 0.00079140253 -0.00036009485
-0.0002645968 -8.488689e-05 0.00016068459 0.0012769271 0.0009461588 -0.000107783744 0.00016157878 -0.00027546848
0.0022377751 0.00060840504 0.0014167812 0.0 0.0 -0.0015398684 0.0 0.0

conv_col_to_row.feature_module_final.2.weight f4 [32, 32]
00000000: 6e16 83bc b6b3 3d3d 3ae5 e3bd a075 753d
00000010: 5087 82bd 9f40 973d afac bf3c 8d40 963d
00000020: 3f90 18be f1d9 22be e90c 95bd cc11 a3bd
00000030: 5df8 023e e040 063e 20d1 26bd fc12 7e3d
00000040: ef49 23be 8e3a 6cbc d2c6 db3d d23f b9bd
00000050: 6619 2e3e ec01 4abd 8716 033e 991b c53d
00000060: 6ed7 813d fe7b cfbd 8eff cd3d 8c03 d0bd
00000070: 8f0f 133d f2df 0abe 3cf2 a3bc d775 363d
00000080: c22c 11be 4bcf 2ebe 3563 80bc 2f79 d83c
00000090: aec8 923d 2aa6 043e 8f32 43bc 4561 b8bd
000000a0: 9efa 7ebd 5252 e83d b6c6 f2bd 92c0 d3bc
000000b0: ef05 48bd a571 093d 25ce c13d 44ce 2d3e
000000c0: 51d5 50bd 2a88 173e 757b 56bd 7744 2b3e
000000d0: 5531 26be 7afd 083e f393 f53d 0856 97bd
000000e0: 0768 123e 29d3 9fbd f720 cf3d eee7 0f3d
000000f0: 9c51 8abd 4811 f2bd f3aa a33c e4cd bb3d
00000100: 0ebf 30be 524c afbd b7c7 f8bd bd41 853d
00000110: bc24 c0bc 20ee 7dbd f1d1 0b3e bcbd 103d
00000120: 4b0b fa3d 1189 09be 2c4b fe3d 96e9 4bbd
00000130: ef49 663c 981c 58bd d4bc 23be 90fd 01be
00000140: 8c9c c23d f1fa de3b 1089 31be ae5a 76bd
00000150: de8c dabd 561e 783d b7c4 043e c8f6 c23d
00000160: b206 30be 1f6c 343d 78d9 913c f5f6 d03d
00000170: 4623 01bd b95b 073e 19e4 33bd fe9f 013c
00000180: 3270 ec3d 4ab4 7d3c 3a11 19be cae0 1fbd
00000190: 0755 c8bd 5a46 bcbc 1054 8abd 9810 bb3d
000001a0: b761 2c3e e036 de3d 88f9 053e 2415 23bd
000001b0: 8c42 10be 12f1 82bc 8689 cabc 9397 e03d
000001c0: 674c 0e3e d1c2 1a3e 1260 9dbd e454 85bd
000001d0: 6d2c 823d 15fe 4dbc 51d8 ae3d a801 1fbe
000001e0: 794f ee3d 99e3 883d 8056 6cbc a022 9c3b
000001f0: a113 a93d 302d 24be 3661 163d a1ec d83b
00000200: a95e 003d 9f2c d8bd 9b13 233e bb71 0b3e
00000210: 3d18 4a3d 5baf 27be bab1 8bbd 68a4 25bd
00000220: dedc 92bd 2212 1d3e 4aaa 193e 94dd 113e
00000230: 5bdb cf3d 2cf3 963d eac0 e33d 3b13 c0bd
00000240: 3743 d4bc 62dd b63d 594b c33c f90c d33d
00000250: 70de 8c3d 4cd3 cdbd fb12 0ebe ed79 a7bd
00000260: 99d4 e33d 968d babd 704a 48bd 58c3 e4bd
00000270: 0c72 b43c eec4 d23d 2654 1fbd 485d adbd
00000280: 7deb cd3d e2ec 5fbd a378 593b 1674 d3bd
00000290: a14e 553d 7648 f5bd c5b5 213e 239f 2dbc
000002a0: 9fae 233d e645 10be e871 bf3c 7330 223e
000002b0: ce7d 17be ae5c f83d 586c b0bd 8301 b3bd
000002c0: b4e1 273d 6e00 333e 314f 01be 3290 583d
000002d0: bff1 263e 0c4a 51bc 2fe9 e9bd ffcf 98bd
000002e0: 604d 293c 05d2 7ebd ba7f b7bd 88ae 16be
000002f0: 1cb8 253e 860c 24be 6d5c 1a3e 181a 143d
00000300: 70ed f2bd 816a 793d 588a ae3d f025 0c3e
00000310: 1522 48bd 44c0 a73d b49f b5bd 3b40 f3bc
00000320: 36bd 14be 19f8 ce3a 1c28 34be 255f 1abe
00000330: 0866 09be d4f2 0abe a4ba f03d a01c 53bc
00000340: 0a18 4bbd 40f9 28be 7419 313e 7a8e f6bd
00000350: dd0f 033b b72c 883d 9d20 22be 8c06 cf3b
00000360: 1db5 973c 1645 ba3d 885d 883d b84d 093e
00000370: ef16 1abe f4f4 50bd 1adf 6a3d 9026 01be
00000380: b53a a2bd 373a 183e e612 9f3c abbc b63c
00000390: 8311 593d 3751 06be 5d96 2ebe 55db 033e
000003a0: 0a6f 0a3e 0e6f e53d a55a 243e 5713 ef3d
000003b0: 6ae6 97bd a468 f7bd 7f80 103d 51ce 043e
000003c0: 4fcb 133e 6c5b b53d 2d0f e03c 5ad0 cd3d
000003d0: 8709 4ebd 575c ce3d 4224 ed3c e559 de3c
000003e0: a5ea debd 000b 08be 6c4a 343e fef5 003e
000003f0: 49d4 873d b1fb b2bc a2bd 20be af0c 293e
-0.016001906 0.046313964 -0.11127706 0.05992663 -0.06373465 0.07385372 0.023397772 0.07336531
-0.14898776 -0.1590345 -0.07277853 -0.07962379 0.12790056 0.13110685 -0.04072678 0.062029824
-0.15946172 -0.014418257 0.10731281 -0.09045376 0.17001876 -0.04931824 0.12801562 0.096244045
0.06339918 -0.101310715 0.10058509 -0.101569265 0.03590351 -0.13561991 -0.020012967 0.044545975
-0.1417723 -0.17071263 -0.015672306 0.026424972 0.07167183 0.12954012 -0.01191391 -0.09002928
-0.062250726 0.11343826 -0.11854307 -0.02584866 -0.048833784 0.033555645 0.09463147 0.16973215
-0.050984684 0.14798036 -0.05236383 0.16725336 -0.16229756 0.13377944 0.1199111 -0.07389456
0.14297496 -0.078039475 0.101137094 0.035133295 -0.06753847 -0.118197024 0.019978976 0.0917013
-0.17260382 -0.08559479 -0.121474676 0.06506679 -0.023455016 -0.06199467 0.13654305 0.035337195
0.12209185 -0.13431193 0.12416682 -0.04978331 0.014055713 -0.052761644 -0.15990001 -0.12694383
0.09502515 0.006804817 -0.17337441 -0.060145073 -0.106713995 0.060575806 0.12965666 0.09519726
-0.17190054 0.044048425 0.017803892 0.10203353 -0.03152778 0.13218583 -0.043918703 0.00791168
0.11544837 0.015484879 -0.14947978 -0.039032735 -0.09781843 -0.022982765 -0.06754315 0.091340244
0.1683415 0.1085031 0.1308347 -0.039815083 -0.14087886 -0.015984092 -0.02472378 0.109664105
0.13896333 0.15113379 -0.076843396 -0.06510332 0.0635613 -0.012572785 0.08537353 -0.15527976
0.11636252 0.06684036 -0.01442492 0.00476487 0.08255697 -0.16032863 0.0367138 0.0066200052
0.031340275 -0.10555386 0.15925448 0.13617603 0.04933952 -0.16375487 -0.06821008 -0.040439993
-0.07171033 0.15338948 0.15006366 0.14244682 0.101492606 0.073706 0.1112078 -0.09378668
-0.025910957 0.08928944 0.02383964 0.10305209 0.06878364 -0.10050067 -0.13874428 -0.08177552
0.11124534 -0.091090366 -0.048899114 -0.11170071 0.022027038 0.102914676 -0.03889861 -0.084650576
0.100546815 -0.05466927 0.0033183477 -0.10324876 0.05207694 -0.119767115 0.15791996 -0.010597023
0.039961454 -0.14089164 0.023369744 0.15838794 -0.14794084 0.12127052 -0.08614415 -0.08740523
0.04098673 0.17480633 -0.12627865 0.05287189 0.16303156 -0.012774002 -0.11421429 -0.07461547
0.010333389 -0.06221201 -0.08959909 -0.14715016 0.16183513 -0.16020402 0.1507432 0.036157697
-0.11861694 0.060892586 0.08522481 0.13686347 -0.04886063 0.08190969 -0.088683516 -0.029693713
-0.14525303 0.0015790492 -0.17593426 -0.15075357 -0.13417828 -0.13569194 0.11754349 -0.012885243
-0.049583472 -0.16501331 0.17294866 -0.12038894 0.001999847 0.06649154 -0.15832753 0.006317919
0.018518979 0.09095208 0.06658465 0.13408554 -0.15047811 -0.051014856 0.057341672 -0.12612367
-0.07921354 0.14865957 0.019418191 0.02230676 0.052995216 -0.13116919 -0.17049547 0.12876637
0.1351892 0.112028226 0.16050203 0.11673611 -0.07416995 -0.120805055 0.035278793 0.12969328
0.14433025 0.08855328 0.027350986 0.100495055 -0.050302055 0.10076206 0.028947953 0.027142474
-0.10884599 -0.13285446 0.17606515 0.12593839 0.06632287 -0.021848531 -0.15697339 0.16508745

conv_col_to_row.feature_module_final.2.bias f4 [32]
00000000: 6313 3c3d 3a3f ccbd a4cd f3bc 7a4c 9cbc
00000010: da29 28be afbe 1ebe 8786 133e 38a8 393d
00000020: 1532 273e 0eb1 34bc b824 86bd 874d 253e
00000030: b208 113e 3289 293e c406 2c3e 6456 543d
00000040: 6867 d8bd 8352 1dbe 65c2 81bd b6a9 063d
00000050: 9248 d83d 1566 1fbd 9139 eb3d fe2f 693d
00000060: 9ccb ecbd fd73 813d 31fc b3b9 5b04 693b
00000070: f893 c33d f82f 7abd 4c0e 233e c4bb b7bd
0.045916926 -0.09972997 -0.029761143 -0.019079436 -0.16422215 -0.15502428 0.14406787 0.04532644
0.16327699 -0.011028541 -0.06549972 0.16142856 0.14163473 0.16556242 0.16799456 0.0518402
-0.10566598 -0.15363507 -0.06335906 0.032876693 0.10560717 -0.038915712 0.11485589 0.056930535
-0.11562273 0.06320951 -0.00034329438 0.0035555575 0.09549707 -0.061080903 0.15923423 -0.0897136
