GNN_method/ResultsGCNN/actor_109.pt (torch, 83569 bytes, 43 tensors)

row_embedding.0.weight f4 [7]
0	0x3f80feef	1.00778
1	0x3f8075e4	1.0035977
2	0x3f7fd601	0.9993592
3	0x3f8023c6	1.0010917
4	0x3f7f6003	0.9975588
5	0x3f80c118	1.0058928
6	0x3f8008b0	1.0002651

row_embedding.0.bias f4 [7]
0	0xbb656fed	-0.003500934
1	0xba9c1712	-0.0011908731
2	0xba9d60b8	-0.0012006974
3	0xbb0441ca	-0.0020180815
4	0x3b2a6465	0.0025999781
5	0xbba15c60	-0.004924342
6	0x3a58dca4	0.0008272624

row_embedding.1.weight f4 [32, 7]
0	0x3d48050e	0.048832946
1	0x3d3985c0	0.04529357
2	0x3e0d0cac	0.13774365
3	0xbeb5f6e0	-0.35539913
4	0xbe398c47	-0.18119918
5	0x3e786dd5	0.24260648
6	0xbdaad3d2	-0.08341183
7	0xbe896563	-0.26835164
8	0xbd884714	-0.06654182
9	0xbd272a2a	-0.040811695
10	0xbddbbbd8	-0.10729188
11	0x3e469a58	0.19394815
12	0x3a2b4eb6	0.0006534861
13	0xbda89e3d	-0.082333066
14	0xbe00de37	-0.12584768
15	0xbe95b25d	-0.29237643
16	0xbe90eded	-0.28306523
17	0x3e859930	0.26093435
18	0x3ea24307	0.31691763
19	0x3ca1e224	0.019761153
20	0xbe4eb311	-0.20185496
21	0xbe539ace	-0.20664522
22	0x3e0d0631	0.13771893
23	0x3ea2bd8c	0.31785238
24	0xbeb7391f	-0.35785767
25	0x3cd84227	0.026398731
26	0x3b979566	0.004625964
27	0x3e4420ce	0.19153139
28	0xbe0ec04b	-0.13940541
29	0xbd062793	-0.032752585
30	0xbe9d47da	-0.3071888
31	0x3e56278e	0.20913526
32	0xbe4f95c6	-0.20271978
33	0xbe4e91cf	-0.20172809
34	0xbe487d69	-0.1957909
35	0xbddbeaa4	-0.107381135
36	0x3d6f39dd	0.058404792
37	0xbc044f35	-0.008075525
38	0xbeb83f0a	-0.35985595
39	0x3dbd06b3	0.092297934
40	0xbe5658cf	-0.20932315
41	0x3e9fc9f0	0.31208754
42	0xbe8a7be0	-0.27047634
43	0xbeabcad0	-0.3355317
44	0x3e8bec42	0.27328688
45	0xbe669a17	-0.22519718
46	0xbea08314	-0.31350005
47	0xbd6b69ba	-0.057473876
48	0x3c8482f9	0.016175734
49	0xbe773fc8	-0.24145424
50	0x3e885193	0.26624736
51	0x3e69b92a	0.2282454
52	0x3e8646c9	0.2622588
53	0x3e5aa924	0.21353585
54	0x3d09d7dc	0.033653125
55	0x3d138564	0.036015883
56	0xbe0de051	-0.13855101
57	0xbd92e2af	-0.07172143
58	0x3ce8184b	0.028331896
59	0x3c17a12c	0.009254735
60	0xbe1127c6	-0.14175329
61	0xbe5893cb	-0.21150129
62	0x3e8a2838	0.2698381
63	0x3d4dba2d	0.05022638
64	0xbeaf82fc	-0.3427962
65	0xbe433055	-0.19061406
66	0x3eb97fbb	0.36230263
67	0xbe422d90	-0.18962693
68	0x3e83ebca	0.2576583
69	0xbeb266f7	-0.3484418
70	0xbe8be547	-0.27323362
71	0x3ead230a	0.33815795
72	0xbdc213e0	-0.09476447
73	0xbbcc490b	-0.0062342933
74	0xbd21aa5a	-0.0394691
75	0xbe80ba97	-0.25142357
76	0x3e81c794	0.2534758
77	0xbe39ef26	-0.18157634
78	0x3c404852	0.0117359925
79	0xbeb6dee7	-0.35716936
80	0xbd9ba950	-0.07600653
81	0xbc8463bc	-0.016160838
82	0x3e83d500	0.25748444
83	0x3e0c06a6	0.13674411
84	0x3e94556e	0.28971428
85	0xbd9085c9	-0.070567675
86	0xbe9dd523	-0.30826673
87	0xbdd9d5bc	-0.1063647
88	0xbd908f64	-0.070585996
89	0x3ea2e6f2	0.31816822
90	0xbe68a585	-0.2271939
91	0x3e82334f	0.2542977
92	0x3e5b834b	0.21436803
93	0xbe5eb58b	-0.2174894
94	0xbe7d8eba	-0.24761477
95	0xbe1fe703	-0.15615468
96	0xbe19b0bd	-0.15008827
97	0xbe8b409c	-0.2719773
98	0xbebc24b9	-0.36746767
99	0x3dafea49	0.08589608
100	0x3dcdbf9a	0.10046311
101	0xbe8edfb1	-0.27905038
102	0x3e8c625a	0.27418786
103	0xbe11be6f	-0.14232801
104	0xbdeef731	-0.11668242
105	0x3d98041c	0.07422659
106	0x3e959d44	0.29221547
107	0xbea462eb	-0.32106718
108	0xbda3cb35	-0.07997743
109	0x3de0faae	0.10985313
110	0xbea2a7e2	-0.3176871
111	0x3e97b4a9	0.2963002
112	0x3e133270	0.14374709
113	0x3ea653a6	0.32485694
114	0xbcf7b20e	-0.03023627
115	0x3e34d8d6	0.17660841
116	0xbe807f08	-0.25096917
117	0x3eb51280	0.35365677
118	0x3dc2ee11	0.09518064
119	0x3e49cd2e	0.19707176
120	0xbe5c658f	-0.21523117
121	0xbe8702cf	-0.2636933
122	0xbea4f28c	-0.322163
123	0xbeb02556	-0.34403485
124	0x3ba17d10	0.0049282387
125	0xbcc7d701	-0.024394514
126	0xbeb33f3a	-0.35009176
127	0x3eb1d51b	0.347329
128	0xbe2d96f4	-0.16952115
129	0xbe9c4925	-0.30524555
130	0xbe2ab43d	-0.16670318
131	0x3ea03bc1	0.3129559
132	0x3da4c136	0.080446646
133	0xbe4c37b2	-0.19943121
134	0xbe2ea1af	-0.17053865
135	0xbe7c28b4	-0.24624902
136	0x3df61fd5	0.1201779
137	0x3e7ca0cf	0.24670719
138	0xbe4a283b	-0.19741909
139	0x3eba62d5	0.36403528
140	0x3ea75edd	0.32689562
141	0x3dfe7829	0.124252625
142	0xbc26f73e	-0.010190783
143	0x3e8d86ad	0.27641812
144	0x3dd98f09	0.10622985
145	0xbeaa3056	-0.33240002
146	0xbe82ba03	-0.2553254
147	0x3e4692d4	0.19391948
148	0x3cdf7f43	0.027282363
149	0x3eb42fd7	0.3519275
150	0xbe896dc9	-0.26841572
151	0xbe90d4e6	-0.2828743
152	0xbdd418a7	-0.103562646
153	0xbe6827e5	-0.22671469
154	0x3e95288d	0.291325
155	0x3d08a338	0.033358783
156	0xbe03dd11	-0.12877299
157	0xbd5d7813	-0.05406959
158	0x3cec0c76	0.028814536
159	0xbe8efe4c	-0.27928388
160	0x3d1f471d	0.03888618
161	0xbe7cf9f9	-0.24704732
162	0x3d6ec67c	0.05829476
163	0x3e09933c	0.13435072
164	0xbe6a58a5	-0.22885378
165	0xbe52ac08	-0.20573437
166	0xbc06af76	-0.008220544
167	0x3e99b5a2	0.30021387
168	0x3e3e10a9	0.18561043
169	0xbdbc40a4	-0.09192017
170	0x3ea92b63	0.33040914
171	0x3dc9b21a	0.09848423
172	0x3ebb72ca	0.36611015
173	0x3e88ccdc	0.26718795
174	0xbe85760c	-0.26066625
175	0x3cb8cd0b	0.02255871
176	0x3e6d5969	0.23178639
177	0x3d9e43a4	0.07727745
178	0x3df33582	0.1187544
179	0x3e9f855a	0.31156427
180	0xbe8ec15d	-0.278819
181	0x3dfc7924	0.12327793
182	0xbdfc9162	-0.12332417
183	0xbe1fdd78	-0.15611827
184	0x3eadf729	0.3397763
185	0x3e8a3542	0.26993757
186	0x3e7d13c5	0.24714573
187	0x3d1593b2	0.036517806
188	0xbe966372	-0.29372746
189	0x3eadbd56	0.33933514
190	0x3dcd3c27	0.10021239
191	0xbd1fab76	-0.038981877
192	0xbe930365	-0.28713527
193	0xbdda3d55	-0.106562294
194	0xbea7c6d9	-0.32768896
195	0x3e985b0d	0.29756966
196	0x3ea68c2c	0.32528818
197	0x3d93f7f2	0.07225026
198	0x3ea1b500	0.31583405
199	0xbe7619da	-0.24033299
200	0xbe5abb04	-0.21360403
201	0x3e37e6bd	0.17959113
202	0x3ebeeb75	0.37289014
203	0xbe77307b	-0.24139588
204	0xbe9d783e	-0.307558
205	0x3e0488c1	0.12942792
206	0x3deb04d7	0.114755325
207	0x3e87eff6	0.26550263
208	0x3d662c1b	0.056194406
209	0xbec1efe7	-0.37878343
210	0x3e187ec4	0.14892107
211	0xbe3e3d81	-0.1857815
212	0x3e484979	0.19559278
213	0xbe8f5b82	-0.27999502
214	0xbe95a365	-0.29226223
215	0x3d0b654b	0.034032147
216	0xbd7ecb08	-0.062205344
217	0xbeb30fcf	-0.34972998
218	0xbe3ec126	-0.18628368
219	0xbe9e737d	-0.30947486
220	0x3ddb465c	0.10706779
221	0x3dcd3b49	0.10021073
222	0xbdf220ef	-0.11822688
223	0xbea174c3	-0.31534395

row_embedding.1.bias f4 [32]
0	0xbd53658b	-0.05161051
1	0x3e83973d	0.25701323
2	0x3de16456	0.11005466
3	0xbebcb1b5	-0.3685433
4	0x3da5bfd3	0.08093228
5	0xbdedd520	-0.11612916
6	0x3c9d8180	0.01922679
7	0xbddc8916	-0.107683346
8	0x3e1e94d6	0.15486464
9	0xbe5659e6	-0.20932731
10	0xbeb2b9c8	-0.34907365
11	0xbcce18a7	-0.02515824
12	0x3ea1f467	0.31631777
13	0x3e1b264c	0.15151328
14	0x3eb17581	0.3465996
15	0x3ddc780a	0.10765083
16	0xbe24ce0e	-0.16094229
17	0x3c7a991f	0.015295296
18	0xbdf28e4d	-0.11843548
19	0x3ea00b2f	0.31258532
20	0x3e8f77b2	0.28021008
21	0xbce79b7b	-0.028272381
22	0x3e5cd282	0.21564677
23	0xbdd1466a	-0.102185085
24	0x3ea48f95	0.32140794
25	0x3e54b586	0.2077237
26	0xbe16b65d	-0.14718004
27	0x3e0001ea	0.1250073
28	0xbe97258c	-0.29520833
29	0xbe47aeac	-0.19500226
30	0x3cb3a6ad	0.021930063
31	0xbe5d88a6	-0.21634158

row_embedding.3.weight f4 [32, 32]
0	0xbdff1d0c	-0.12456712
1	0xbd223942	-0.039605387
2	0x3d932c5f	0.071861975
3	0x3c3794c9	0.011204907
4	0x3dcf7909	0.101305075
5	0x3b9db400	0.0048127174
6	0x3e2773f6	0.1635283
7	0x3e14d162	0.14532998
8	0x3dd1022a	0.10205491
9	0xbe154d25	-0.1458021
10	0x3d15a4ec	0.036534235
11	0x3d02fd89	0.03198007
12	0x3dced53b	0.10099264
13	0xbb454926	-0.0030103414
14	0x3e0c38aa	0.1369349
15	0x3e20b0d4	0.15692455
16	0x3e1cb376	0.15302834
17	0x3d1ef543	0.03880812
18	0xbdf587f8	-0.119888246
19	0x3ddb4327	0.10706168
20	0x3d176180	0.036958218
21	0x3d58ae9b	0.05290089
22	0x3d31f192	0.04344327
23	0x3deac290	0.11462891
24	0xbe271561	-0.16316749
25	0x3dd89e36	0.10577051
26	0x3e032f5a	0.12811032
27	0x3e1992e2	0.14997438
28	0x3c8f965c	0.017527752
29	0xbe1c9443	-0.15290932
30	0x3e15fae4	0.14646488
31	0xbce75893	-0.028240478
32	0x3d0abbff	0.033870693
33	0x3cedd21a	0.029030848
34	0xbe36fcc9	-0.17869867
35	0x3c02ca55	0.00798281
36	0xbc8f4683	-0.017489677
37	0xbd5d050e	-0.0539599
38	0x3da09991	0.078417905
39	0x3d323c7e	0.04351472
40	0xbdbee4b0	-0.093209624
41	0xbd22bf78	-0.03973338
42	0xbdde802d	-0.10864291
43	0xbe24dbae	-0.16099426
44	0x3daff13a	0.08590932
45	0x3dc704f2	0.0971774
46	0x3e209c47	0.15684615
47	0xbe2b7a29	-0.16745819
48	0xbd415059	-0.047195766
49	0x3e05d162	0.13068154
50	0x3d91f325	0.07126454
51	0xbe0b5cb0	-0.13609576
52	0x3dffa471	0.124825366
53	0x3df99977	0.12187474
54	0x3e02e397	0.12782131
55	0x3dfa23db	0.1221387
56	0x3e0fa0f9	0.1402625
57	0xbd940258	-0.072270095
58	0x3e0fd6d1	0.1404679
59	0x3dda7944	0.10667661
60	0xbe096045	-0.1341563
61	0x3d71b1e9	0.05900756
62	0xbe0beadd	-0.13663812
63	0xbdbfc857	-0.09364384
64	0x3c68973e	0.014196215
65	0x3e26df14	0.16296035
66	0xbdd9c86e	-0.10633932
67	0xbe1707ec	-0.14749116
68	0x3e2d8989	0.16946997
69	0xbdacc77d	-0.08436487
70	0xbe27d4d1	-0.16389777
71	0xbd8ee9f9	-0.069782205
72	0x3df36162	0.11883809
73	0x3d018146	0.031617425
74	0x3e263d8d	0.16234417
75	0x3dd2e478	0.10297483
76	0x3c24fd9d	0.010070232
77	0x3e24e04b	0.16101186
78	0xbda54400	-0.080696106
79	0x3dae44e3	0.08509233
80	0xbd1addc0	-0.037809134
81	0xbc9e0327	-0.019288613
82	0x3d36e0b3	0.044647884
83	0x3e002cca	0.12517086
84	0x3e1a3ea1	0.15062954
85	0x3d4c365e	0.049856536
86	0xbd701d72	-0.05862183
87	0x3e2ea5ee	0.17055485
88	0x3d04cdec	0.032422945
89	0x3d688cd6	0.056774937
90	0x3d63fbaf	0.055659946
91	0xbe2b1cc1	-0.16710187
92	0x3e288889	0.16458334
93	0x3e287a38	0.16452873
94	0x3e0388c6	0.12845144
95	0x3e1d6f12	0.15374401
96	0xbda42134	-0.080141455
97	0xbd1dc643	-0.038519155
98	0xbe1ec4ff	-0.15504836
99	0x3d66919e	0.056291215
100	0x3d3edad1	0.0465954
101	0x3d7092a2	0.05873359
102	0x3e2d1af2	0.1690481
103	0xbcc7d824	-0.024395056
104	0x3db3a622	0.08771922
105	0x3dec5131	0.115389235
106	0xbddef8d6	-0.108873054
107	0xbd03b244	-0.03215243
108	0x3e01c0fe	0.12671277
109	0xbdd4e013	-0.10394301
110	0x3d79a980	0.060952663
111	0x3db42949	0.08796937
112	0xbca1b371	-0.019738885
113	0x3e2c3c90	0.16819978
114	0xbd8dc857	-0.069229774
115	0x3d922a91	0.07137025
116	0xbd260cee	-0.040539674
117	0xbe22a360	-0.15882635
118	0x3d93eeb2	0.07223262
119	0xbd8b73c7	-0.06809192
120	0xbb74a38c	-0.0037328927
121	0x3e1d022f	0.15332864
122	0xbda3ecc4	-0.08004144
123	0xbd87dc8f	-0.06633865
124	0xbe343627	-0.17598782
125	0xbe02a316	-0.12757525
126	0xbdf1acf3	-0.118005656
127	0x3d348e84	0.044081226
128	0x3db41ca3	0.087945245
129	0xbcf1c8db	-0.02951472
130	0xbdea43a6	-0.11438684
131	0x3bf1f722	0.007384197
132	0x3dac53b8	0.084144056
133	0xbd890a10	-0.066913724
134	0xbde6e208	-0.11273581
135	0x3dbc7a7d	0.0920305
136	0xbe3161f6	-0.17322525
137	0x3d94f98a	0.07274158
138	0x3e0d4f50	0.13799787
139	0xbe316059	-0.1732191
140	0xbd49bd9f	-0.049253102
141	0xbd385053	-0.04499848
142	0x3c12560f	0.008931651
143	0xbe3ec012	-0.18627957
144	0xbde26137	-0.110536985
145	0xbdd2cc69	-0.102928944
146	0x3d88d0bd	0.06680439
147	0x3d7e5db5	0.062101085
148	0xbe106c5a	-0.14103833
149	0x3d2f99d0	0.042871296
150	0x3a0a8a94	0.0005284932
151	0x3d800344	0.06250623
152	0xbd8df67e	-0.0693178
153	0x3ded1f74	0.11578265
154	0xbda6ee83	-0.08150961
155	0xbe0ebd34	-0.13939363
156	0x3dd06025	0.10174588
157	0xbe32470e	-0.17409918
158	0x3dee51f2	0.116367236
159	0xbd4d4c54	-0.05012162
160	0xbdb2b80a	-0.08726509
161	0xbe234067	-0.15942536
162	0xbd07c690	-0.03314835
163	0x3d7ada7d	0.061243523
164	0xbd666213	-0.056245875
165	0x3e27185d	0.16317888
166	0x3dbdcf9b	0.09268113
167	0x3d780f50	0.06056148
168	0xbe28bb38	-0.16477668
169	0x3b7bed71	0.0038441087
170	0xbe01be7d	-0.12670322
171	0x3d3d2509	0.046177898
172	0xbd211fba	-0.039336897
173	0x3de01a12	0.109424725
174	0xbb21fc47	-0.002471702
175	0xbe278ad5	-0.16361554
176	0xbdc6bdb1	-0.097041495
177	0xbe33d467	-0.17561494
178	0xbd370fa8	-0.044692665
179	0x3dae2a9b	0.0850422
180	0xbe13f315	-0.14448197
181	0x3df0aa6f	0.11751258
182	0xbe328c8b	-0.17436425
183	0xbc584566	-0.01320014
184	0x3a1bef01	0.0005948395
185	0xbdb54fbd	-0.088530995
186	0xbe1c7012	-0.15277126
187	0xbdc63b49	-0.096792765
188	0xbe1317ba	-0.1436452
189	0xbca437f9	-0.020046221
190	0x3cdbe4dc	0.026842527
191	0xbe27d085	-0.16388138
192	0x3da2ec09	0.079551764
193	0x3e034acc	0.12821501
194	0x3df8cc89	0.12148387
195	0xbd383319	-0.044970606
196	0x3e0fb289	0.1403295
197	0x3d7b12b1	0.061297122
198	0xbe02144a	-0.12703052
199	0xbdaf661c	-0.08564398
200	0xbe1aab40	-0.15104389
201	0x3da5e7d6	0.0810086
202	0x3e0693f8	0.13142383
203	0x3d9037a5	0.07041863
204	0xbcfb84eb	-0.030703029
205	0xbe177d61	-0.14793922
206	0xbe2ede54	-0.17076999
207	0x3cc22291	0.023698123
208	0xbcd94825	-0.026523659
209	0x3e0eea2e	0.1395652
210	0xbd98bd6a	-0.07458003
211	0x3e101f79	0.14074506
212	0x3db5bb36	0.08873598
213	0x3dd8f486	0.10593514
214	0x3d23d88a	0.04000143
215	0x3e0b0e77	0.13579737
216	0xbdc21fdc	-0.09478733
217	0xbd471a9d	-0.048609365
218	0xbdb85576	-0.090006754
219	0x3c6186f0	0.013765082
220	0x3e293fca	0.1652824
221	0xbd4695ee	-0.048482828
222	0xbd26a6a1	-0.040686253
223	0x3dda6f76	0.10665791
224	0xbd58c3ad	-0.052920986
225	0xbd2e8214	-0.04260452
226	0xbdece4f2	-0.11567105
227	0xbe038609	-0.12844099
228	0x3d1b799b	0.03795777
229	0x3e0d8524	0.1382032
230	0x3e0f0686	0.13967332
231	0xbdca27bc	-0.0987086
232	0x3db4e993	0.08833613
233	0xbdd76fa4	-0.10519341
234	0xbe323afc	-0.17405313
235	0xbb1d2af6	-0.0023981906
236	0x3e1d99d0	0.15390706
237	0xbc9322ce	-0.017960932
238	0xbe160caf	-0.14653276
239	0xbd745dfa	-0.059659936
240	0x3d8ef6c1	0.06980658
241	0x3e090eeb	0.13384597
242	0xbe333790	-0.17501664
243	0x3d369c7c	0.04458283
244	0x3d80e226	0.062931344
245	0x3d3712b5	0.044695575
246	0xbe313a1d	-0.17307325
247	0xbd7d87b2	-0.061896987
248	0xbcb1fc57	-0.02172677
249	0xbdc7547d	-0.09732912
250	0xbdf8a33c	-0.121405095
251	0x3d02f89a	0.031975366
252	0xbc8653e1	-0.016397418
253	0x36c8a2f4	5.9794347e-06
254	0xbdfb12ea	-0.12259467
255	0x3e12b046	0.14325055

row_embedding.3.bias f4 [32]
0	0x3ddd739e	0.10813068
1	0xbd57f8ca	-0.052727498
2	0xbd78543e	-0.060627215
3	0xbd2ff749	-0.04296044
4	0x3c473f82	0.012161138
5	0xbe04ea03	-0.12979893
6	0x3dd72099	0.105042644
7	0x3e117f68	0.14208758
8	0xbd807bfc	-0.06273648
9	0x3dd228c2	0.1026168
10	0x3e07b50f	0.13252662
11	0x3dca49b1	0.09877337
12	0xbc9f265b	-0.019427469
13	0x3d33aa52	0.043863602
14	0x3dd6944e	0.104775056
15	0x3dd8242d	0.10553775
16	0x3dc5933a	0.09647222
17	0xbd95d2d2	-0.073156014
18	0x3d464dd7	0.048414078
19	0x3dc3e549	0.09565217
20	0xbbf43a9d	-0.0074532763
21	0x3d066317	0.032809343
22	0x3d5e9c9b	0.05434857
23	0x3d8591e6	0.065219685
24	0x3ddc027c	0.10742661
25	0x3d2d0b2d	0.042246986
26	0x3e28f20f	0.16498588
27	0xbd661f94	-0.05618246
28	0x3bedd8f4	0.007258529
29	0xbc0afa3e	-0.008482514
30	0xbe176058	-0.14782846
31	0x3df560fb	0.11981388

col_embedding.0.weight f4 [7]
0	0x3f7f8a82	0.9982072
1	0x3f80048c	1.0001388
2	0x3f7fdffc	0.9995115
3	0x3f8005c8	1.0001764
4	0x3f7f88a2	0.9981786
5	0x3f7fca5b	0.99918145
6	0x3f801486	1.0006263

col_embedding.0.bias f4 [7]
0	0xbb11534c	-0.0022174893
1	0xb9302197	-0.00016797181
2	0xb9cac1a7	-0.00038672725
3	0xb99f017f	-0.00030327958
4	0x3a6de603	0.0009075107
5	0x3a80827f	0.0009804516
6	0x3a3decdb	0.0007245072

col_embedding.1.weight f4 [32, 7]
0	0x3eb46337	0.35231945
1	0x3bc0d687	0.0058849487
2	0x39f2198e	0.00046176877
3	0xbe31fb7e	-0.17381093
4	0x3e8d154b	0.27555308
5	0xbeba0159	-0.36329153
6	0xbdcd5a97	-0.10027044
7	0xbdee0b36	-0.11623232
8	0xbe84749e	-0.25870222
9	0xbe28104c	-0.16412467
10	0x3e3e3aff	0.18577193
11	0xbe5a8833	-0.21341018
12	0x3ba7aa06	0.005116704
13	0xbe71f89f	-0.23629998
14	0xbe4a0153	-0.19727068
15	0x3c54a490	0.012978688
16	0x3e8abb65	0.27096096
17	0xbe353e69	-0.17699589
18	0x3cfaf3de	0.030633863
19	0x3db86ee1	0.090055235
20	0x3e57a87e	0.21060368
21	0x3e911a2a	0.28340274
22	0x3e90d498	0.28287196
23	0xbdd2ea8f	-0.10298645
24	0x3d797e07	0.060911205
25	0xbe9dac72	-0.30795628
26	0xbc8f83c1	-0.01751888
27	0x3e35cc2b	0.17753665
28	0x3e178e22	0.14800313
29	0x3ea4cc49	0.32187107
30	0x3e96e87c	0.29474247
31	0xbe367ac4	-0.17820269
32	0xbd86d0b3	-0.06582775
33	0xbe804c45	-0.2505819
34	0xbeba81c1	-0.3642712
35	0xbec14262	-0.3774596
36	0x3d187bff	0.037227627
37	0xbd90f367	-0.07077675
38	0x3e76ff1a	0.24120751
39	0xbe6b1214	-0.22956115
40	0x3e2c25aa	0.16811243
41	0xbdf85fcb	-0.12127646
42	0xbd07a81b	-0.033119302
43	0x3eba2422	0.36355692
44	0x3ebecb7a	0.37264615
45	0x3e51b83a	0.20480433
46	0x3e6c480f	0.23074363
47	0x3d166ba4	0.036723748
48	0x3e30619b	0.17224734
49	0x3d9ef47e	0.07761477
50	0xbdfcafdb	-0.12338229
51	0x3e3da940	0.18521595
52	0xbeb5db7f	-0.35519025
53	0x3d8f9075	0.07009975
54	0x3d944a7e	0.07240771
55	0x3e060708	0.1308862
56	0xbde1746f	-0.11008536
57	0xbe38ec48	-0.18058884
58	0xbdbeccc2	-0.09316398
59	0xbc5b7496	-0.0133944955
60	0xbe653f28	-0.22387373
61	0xbe1e3586	-0.15450105
62	0x3e3717a8	0.17880118
63	0x3d9b7ed5	0.07592551
64	0xbea6b7a5	-0.32561985
65	0xbd5de22a	-0.054170765
66	0xbccd530b	-0.025064012
67	0x3e266a67	0.16251527
68	0x3e9a09a2	0.30085474
69	0xbec1731e	-0.3778314
70	0x3eba8d1c	0.36435783
71	0x3c972528	0.018450335
72	0x3eb98413	0.36233577
73	0xbe031615	-0.12801392
74	0xbe91ed7d	-0.28501502
75	0xbe73a44f	-0.23793148
76	0xbe6ffb55	-0.2343572
77	0x3eb7284b	0.3577293
78	0x3e07b309	0.1325189
79	0xbe88d157	-0.26722214
80	0xbd85f31c	-0.0654051
81	0xbe31f11d	-0.17377134
82	0xbe6cd4b5	-0.23128016
83	0x3e62b375	0.2213877
84	0x3e961ed2	0.2932039
85	0xbe99151d	-0.2989892
86	0x3cc492a8	0.023995712
87	0x3e7d9766	0.24764785
88	0x3e265fe1	0.16247512
89	0xbd954da9	-0.07290203
90	0xbe696a11	-0.22794367
91	0xbea59bbf	-0.32345387
92	0xbe569699	-0.20955886
93	0x3c763cc7	0.015029139
94	0xbd0714a1	-0.032978658
95	0x3e4b1790	0.19833207
96	0x3e294ddb	0.16533606
97	0xbc246445	-0.010033672
98	0xbc6c7c78	-0.014433973
99	0x3e3ebd23	0.18626837
100	0xbe3e05c0	-0.18556881
101	0x3e5e0043	0.21679787
102	0x3ea29b7e	0.31759256
103	0x3e62fc4c	0.22166556
104	0x3dad646f	0.08466422
105	0x3d3d9574	0.046285108
106	0xbcde5985	-0.027142296
107	0x3e4a8a79	0.19779386
108	0x3e842ca1	0.258153
109	0xbcd640bd	-0.026153916
110	0x3e029862	0.12753442
111	0xbe91091f	-0.2832727
112	0x3e417f4e	0.18896219
113	0x3e8bc175	0.27296034
114	0xb867b4e8	-5.5243174e-05
115	0xbe1e2670	-0.1544435
116	0xbdc10c7b	-0.094262086
117	0xbdfce2c1	-0.123479374
118	0xbeafb3e0	-0.3431692
119	0x3ea78f87	0.3272669
120	0xbc4afc11	-0.012389199
121	0xbea3afd5	-0.31970087
122	0x3e83c846	0.25738734
123	0x3ea2feb6	0.31834954
124	0x3e9fc609	0.31205776
125	0xbe6bce9b	-0.23028032
126	0xbe838fd6	-0.25695676
127	0x3d9e333a	0.077246144
128	0x3d8f29c0	0.06990385
129	0xbe622c8a	-0.22087303
130	0x3d8a0f45	0.06741194
131	0x3e817a40	0.25288582
132	0xbe8da185	-0.27662292
133	0x3ebebeeb	0.37255034
134	0xbeb2ccfd	-0.3492202
135	0xbdadf4db	-0.08493968
136	0xbd649b51	-0.055812184
137	0x3db2b67e	0.08726214
138	0xbc3f07a7	-0.011659539
139	0x3e80be07	0.2514498
140	0x3d8a6435	0.06757394
141	0xbe237acf	-0.15964817
142	0xbebe15bc	-0.37125957
143	0xbe951859	-0.29120138
144	0x3e5351b1	0.20636632
145	0x3e224278	0.15845668
146	0x3e50d0bb	0.20392124
147	0xbd30086b	-0.042976778
148	0x3dddd039	0.10830731
149	0xbea48146	-0.32129878
150	0x3c320572	0.010865556
151	0xbe1fcc25	-0.15605219
152	0xbe81813e	-0.25293916
153	0xbdb861b1	-0.09003008
154	0x3e66714e	0.2250416
155	0x3e6c7592	0.23091725
156	0x3d69e6d2	0.057104893
157	0xbd823fd4	-0.063598305
158	0xbe318dd1	-0.17339255
159	0xbc7111be	-0.014713703
160	0xbd3ecc49	-0.04658154
161	0x3e66e5ca	0.22548595
162	0x3deaf24b	0.11471995
163	0xbe92b75a	-0.2865551
164	0xbea40d04	-0.3204118
165	0x3dff1ab1	0.12456263
166	0x3ce72c11	0.028219255
167	0x3e0ca650	0.13735318
168	0xbe2c622d	-0.16834326
169	0x3e25024a	0.16114154
170	0xbe9ce4d5	-0.30643335
171	0x3db063e3	0.08612802
172	0xbe835923	-0.25653943
173	0xbe9894e1	-0.29801086
174	0xbda1b9a3	-0.078967355
175	0x3e8b3c61	0.27194503
176	0xbe848326	-0.25881308
177	0xbe888f50	-0.2667184
178	0x3e3effcc	0.18652266
179	0xbeb4a7d4	-0.35284293
180	0xbc05f28a	-0.008175502
181	0xbe8728d4	-0.26398337
182	0x3e896a47	0.26838896
183	0xbd64806f	-0.055786546
184	0xbdc92349	-0.09821183
185	0xbe6950ad	-0.22784682
186	0x3cc9768f	0.024592666
187	0x3e1416f8	0.14461887
188	0x3dcb36ac	0.09922537
189	0x3e492735	0.19643863
190	0x3ebe150d	0.37125435
191	0x3e3d0615	0.18459351
192	0x3ea02d90	0.3128476
193	0x3d9e0ae1	0.07716919
194	0xbe6e1dba	-0.23253527
195	0xbe96fff0	-0.2949214
196	0x3eb79efc	0.35863483
197	0xbe0bf4ba	-0.13667575
198	0x3ea73322	0.326562
199	0x3d556c35	0.052105147
200	0xbe0668f2	-0.13125971
201	0xbe640133	-0.22266082
202	0xbeb230b8	-0.34802794
203	0x3c8f45da	0.017489363
204	0x3dcd91e2	0.100375906
205	0xbbb7ceb7	-0.005609359
206	0xbe9bcfc0	-0.30431938
207	0x3e9005c0	0.28129387
208	0x3e87819d	0.26466075
209	0x3eb73041	0.35779002
210	0x3eb29883	0.34881982
211	0xbdd32d23	-0.103113435
212	0xbe445d37	-0.19176184
213	0x3e3654ad	0.17805739
214	0x3c2c36eb	0.01051114
215	0x3e10eab9	0.1415204
216	0xbd5d09a1	-0.05396426
217	0x3e332564	0.17494732
218	0xbebb5bd1	-0.36593488
219	0x3eb0aaee	0.3450541
220	0x3e227179	0.15863599
221	0x3eb971d9	0.3621967
222	0x3ba7a359	0.005115908
223	0x3e74f734	0.23922426

col_embedding.1.bias f4 [32]
0	0xbe881ff2	-0.26586872
1	0xbe308887	-0.17239581
2	0xbd9ef449	-0.077614374
3	0xbe932ec8	-0.2874663
4	0xbe9a601b	-0.30151448
5	0x3e8b5a98	0.27217555
6	0xbe492df3	-0.19646434
7	0xbe247c6f	-0.16063093
8	0xbd23b789	-0.039969955
9	0xbd13b9c9	-0.03606585
10	0x3dc5af26	0.096525475
11	0x3e8a9125	0.2706386
12	0x3d6c4f62	0.057692893
13	0xbe2f3862	-0.17111352
14	0x3dfe8f8a	0.12429722
15	0xbec0e927	-0.3767788
16	0x3eb5a93d	0.3548068
17	0x3bb87fb6	0.0056304587
18	0xbe53e71d	-0.20693631
19	0xbd258d26	-0.040417813
20	0xbcd6e16a	-0.026230533
21	0xbea934a7	-0.33047983
22	0x3e8e58b2	0.27802044
23	0x3d9d43f4	0.07678977
24	0xbeb50725	-0.35357013
25	0x3e9bfeb5	0.30467764
26	0xbe8f924b	-0.280413
27	0xbda7c4ab	-0.08191808
28	0x3de80ffe	0.11331175
29	0x3eb57bd1	0.35446027
30	0xbd5252c2	-0.051348455
31	0x3eabd30f	0.33559462

col_embedding.3.weight f4 [32, 32]
0	0x3e0b1a1d	0.1358418
1	0x3e02decf	0.12780307
2	0xbbe0126d	-0.006838134
3	0xbe1049d2	-0.1409066
4	0x3d9db686	0.07700829
5	0xbd01ce03	-0.03169061
6	0xbe2b36ff	-0.16720198
7	0x3e0bd43b	0.13655178
8	0x3e0d9792	0.1382735
9	0x3e18b1ba	0.14911547
10	0x3dc1e43d	0.09467361
11	0x3de17e4d	0.11010418
12	0xbe1519c1	-0.14560606
13	0xbbcdc267	-0.006279278
14	0x3d6f8dad	0.058484722
15	0x3d95ee09	0.07320792
16	0xbd62c1bc	-0.05536054
17	0xbd17e42f	-0.037082847
18	0xbe068f8c	-0.13140696
19	0xbe214d7a	-0.15752211
20	0x3be72160	0.007053539
21	0x3e30718e	0.17230818
22	0xbdf44774	-0.11927691
23	0x3e28097d	0.1640987
24	0xbe230fdb	-0.15924017
25	0xbdf72279	-0.12067122
26	0xbe0fcc1c	-0.14042705
27	0xbe016807	-0.1263734
28	0x3e14fbef	0.1454923
29	0x3b428432	0.0029680845
30	0xbd456b66	-0.048198126
31	0x3e2ee6ef	0.17080282
32	0x3db168e3	0.08662584
33	0xbe0ced8f	-0.13762496
34	0x3e1a5b84	0.15073973
35	0xbdb68735	-0.089125074
36	0x3dc116d8	0.09428185
37	0x3d4a03e8	0.04932013
38	0x3d67bdd9	0.056577537
39	0xbd4aa36c	-0.049472257
40	0x3e25be58	0.16185892
41	0xbba24a46	-0.0049527017
42	0x3dd6e542	0.10492946
43	0x3df4e743	0.11958172
44	0xbe1e22a5	-0.15442903
45	0xbcf8480f	-0.030307798
46	0xbdcf9e8b	-0.101376615
47	0xbca26a2c	-0.019826017
48	0xbe195797	-0.14974819
49	0xbc95f639	-0.018305885
50	0xbdecdefe	-0.1156597
51	0xbd8c0804	-0.06837466
52	0x3dc4a6a6	0.09602098
53	0xbc70d734	-0.014699746
54	0x3e26eeda	0.16302052
55	0x3d72f5ac	0.059316322
56	0x3d6aa83c	0.057289347
57	0x3d39a27c	0.045320973
58	0xbe352451	-0.17689635
59	0x3e2d1a6d	0.16904612
60	0xbbf70edd	-0.0075396136
61	0xbe303678	-0.17208278
62	0xbbddce71	-0.0067689945
63	0xbdb66eff	-0.089078896
64	0xbd73f806	-0.059562705
65	0xbd37dd3a	-0.044888712
66	0xbcb97664	-0.02263946
67	0xbdd88b51	-0.105734475
68	0xbdd26698	-0.102734745
69	0x3d806aba	0.062703565
70	0x3e20a872	0.15689257
71	0x3e33ecaf	0.17570756
72	0xbda3a5f2	-0.07990636
73	0xbe222aef	-0.1583669
74	0xbd0e28cf	-0.034706887
75	0xbc65de26	-0.014030015
76	0xbe1e48f5	-0.15457518
77	0xbe06e339	-0.13172616
78	0xbc3917ef	-0.01129721
79	0x3d921dc5	0.07134584
80	0x3ab3c2b6	0.0013714645
81	0xbd57b274	-0.05266042
82	0xbcbfd1a0	-0.023415387
83	0x3e2608ad	0.16214247
84	0x3d9938a9	0.0748151
85	0xbdcb7483	-0.09934332
86	0x3dd7dde3	0.105403684
87	0x3df4cf84	0.11953643
88	0xbdc64bfe	-0.09682463
89	0xbd0c28f1	-0.034218732
90	0x3de08992	0.109637395
91	0x3bb14f28	0.0054110475
92	0x3cea2f96	0.028587144
93	0xbd1fcf06	-0.039015792
94	0xbd2b6b94	-0.04185064
95	0x3dace5c4	0.08442262
96	0x3dda402d	0.10656772
97	0xbd35a25e	-0.0443443
98	0xbcb37583	-0.02190662
99	0x3cd7c7f1	0.026340457
100	0x3da0f722	0.07859637
101	0xbe2f9c8c	-0.17149562
102	0xbd910dc9	-0.070827074
103	0x3dd6a00a	0.10479744
104	0x3e1f0f2a	0.15533128
105	0xbe2d8aca	-0.16947475
106	0x3d27402b	0.04083268
107	0xbd400947	-0.046883848
108	0x3d840098	0.06445426
109	0xbc0f7ecc	-0.008758258
110	0xbd999678	-0.07499403
111	0xbe14d57f	-0.14534567
112	0xbd502894	-0.05081995
113	0x3d15b55e	0.03654992
114	0xbd4e5535	-0.05037423
115	0x3bfa854d	0.007645285
116	0x3d7a828d	0.06115966
117	0x3debd68e	0.115155324
118	0x3df6340a	0.120216444
119	0x3d822909	0.06355483
120	0x3de77c3e	0.11302994
121	0xbe1ba101	-0.15198137
122	0x3df4aefa	0.11947437
123	0xbcc495e6	-0.023997258
124	0x3df616b7	0.12016051
125	0x3e0b6e73	0.13616352
126	0x3e1028ce	0.14078066
127	0x3d875295	0.06607548
128	0x3dd8fb0c	0.105947584
129	0x3d76bc75	0.06023832
130	0x3d02f0ea	0.031968035
131	0xbdb654d6	-0.089029
132	0x3c1d410f	0.009598031
133	0x3e112e83	0.14177899
134	0xbd128b8c	-0.035777614
135	0xbce7e613	-0.02830795
136	0x3e08d028	0.13360655
137	0x3dcaded4	0.09905782
138	0xbda72da9	-0.08163006
139	0xbe248812	-0.16067532
140	0x3c9c4b42	0.019078854
141	0xbe099814	-0.1343692
142	0xbe0686a1	-0.13137294
143	0x3e132d8d	0.14372845
144	0x3dd32cfd	0.10311315
145	0xbe288b2f	-0.16459344
146	0xbdba62af	-0.09100854
147	0x3dc6d36d	0.09708295
148	0xbe05d732	-0.13070372
149	0x3d9648af	0.07338082
150	0x3cfe771f	0.03106266
151	0xbdfa63a9	-0.1222604
152	0x3bd789d7	0.006577711
153	0x3d718bb1	0.05897111
154	0x3e2de773	0.16982822
155	0x3dd8bbf9	0.10582728
156	0x3cd2f4c7	0.025751485
157	0xbd8d3c50	-0.06896269
158	0xbe23da1c	-0.16001171
159	0x3cbec25d	0.023286039
160	0x3cd81cc9	0.026380913
161	0x3d8d32d3	0.068944596
162	0xbd677e2f	-0.056516822
163	0xbe07d461	-0.1326461
164	0x3de57d19	0.11205501
165	0x3dbbba55	0.091663994
166	0xbd5ef062	-0.054428466
167	0x3e07c731	0.13259579
168	0x3e1bf240	0.1522913
169	0x3dd5ef14	0.10445991
170	0xbdba8ee8	-0.091092885
171	0xbdedfad7	-0.116201095
172	0xbdcc1ab2	-0.09966029
173	0x3e13405d	0.14380021
174	0xbdec435a	-0.11536284
175	0x3d4ba841	0.049721006
176	0xbd3e224d	-0.04641943
177	0xbdd09cba	-0.10186143
178	0x3e0dc8cc	0.13846129
179	0x3d34e904	0.044167534
180	0xbd9a84f2	-0.075448886
181	0xbd42c6df	-0.04755294
182	0x3e003ea0	0.1252389
183	0xbc9783ae	-0.018495407
184	0x3d4af744	0.049552217
185	0xbe0d4acb	-0.13798063
186	0xbd8ac6e1	-0.067762144
187	0xbd4308a3	-0.04761566
188	0x3e15e8b3	0.14639549
189	0xbe214c31	-0.15751721
190	0x3db35789	0.087569304
191	0x3c363fcf	0.011123612
192	0x3d3df6c5	0.046377916
193	0xbd7b5d0f	-0.061368044
194	0x3def7fdc	0.11694309
195	0xba0b0e25	-0.0005304537
196	0xbde6febd	-0.11279056
197	0xbc818cba	-0.015814174
198	0x3da23b4d	0.07921467
199	0x3df85119	0.12124843
200	0x3e31e3a9	0.17372002
201	0x3e24c713	0.16091566
202	0xbcebc955	-0.028782526
203	0xbdc2480a	-0.094863966
204	0x3ca704e8	0.020388082
205	0xbe22a1af	-0.1588199
206	0x3e01fb5e	0.12693545
207	0x3bba832e	0.0056919074
208	0x3e304912	0.17215374
209	0xbd951fc2	-0.07281448
210	0x3dcc0b3c	0.0996308
211	0x3e200c3d	0.15629669
212	0xbce684c8	-0.028139487
213	0x3dcf9bd6	0.10137145
214	0xbdec4fbb	-0.11538645
215	0x3e224884	0.15847975
216	0x3d2e5692	0.04256303
217	0x3e10f2da	0.1415514
218	0x3cb5f872	0.022213195
219	0xbc69bd0d	-0.014266265
220	0x3d4499fd	0.047998417
221	0x3df83acf	0.12120592
222	0x3dec6072	0.11541833
223	0xbdf851f8	-0.12125009
224	0xbdf80458	-0.121102035
225	0x3daf039f	0.085456125
226	0x3e2bf49a	0.16792527
227	0x3e15f5dc	0.14644569
228	0xbdd16084	-0.10223487
229	0x3cc86d10	0.024466068
230	0xbc744edd	-0.014911381
231	0xbe19bfdf	-0.150146
232	0x3e1266ff	0.14297102
233	0x3e270a42	0.16312507
234	0x3d3d6e8f	0.046248015
235	0xbde4a543	-0.11164334
236	0xbc993a76	-0.018704634
237	0x3dfacfd3	0.122466706
238	0xbdcade9b	-0.0990574
239	0xbd3ff1bb	-0.04686139
240	0xbdb176f9	-0.0866527
241	0x3c0bf054	0.008541185
242	0xbd9dda07	-0.07707601
243	0xbcf435a4	-0.029810734
244	0xbd4d1a91	-0.050074164
245	0x3dd8a8b7	0.10579055
246	0xbdaf5776	-0.08561604
247	0x3d42ec86	0.047588848
248	0x3e0f1029	0.13971008
249	0x3e127607	0.14302836
250	0xbe1cda40	-0.15317631
251	0xbd5ed52b	-0.05440251
252	0xbdbecc3f	-0.093163006
253	0xbe0b9b8f	-0.1363356
254	0x3d65bbdc	0.05608736
255	0x3dfa0b31	0.12209166

col_embedding.3.bias f4 [32]
0	0xbd3c4f6f	-0.04597419
1	0x3e19cb9d	0.15019079
2	0xbdc6c59f	-0.09705662
3	0x3df51d46	0.11968474
4	0xbcbf869e	-0.02337962
5	0x3e1cbbc5	0.15306003
6	0x3dd669a5	0.10469369
7	0x3d01a59c	0.031652078
8	0x3e124a3d	0.14286132
9	0x3e11ad74	0.14226323
10	0x3e06f99f	0.1318116
11	0x3e077ef5	0.13232024
12	0xbdac4096	-0.08410756
13	0x3e21a337	0.15784918
14	0x3d8a75b7	0.067607336
15	0xbca3465c	-0.01993101
16	0xbdc0565d	-0.093914725
17	0xbdac385c	-0.08409187
18	0x3deca04f	0.11554014
19	0x3e1278e0	0.14303923
20	0x3dbb2eae	0.09139763
21	0x3dc99c32	0.09844245
22	0xbdfc7789	-0.12327487
23	0x3e1ac0e2	0.15112641
24	0x3e0e1de6	0.13878593
25	0xbd863328	-0.06552726
26	0x3e0afbfd	0.13572688
27	0x3dbfe357	0.093695335
28	0x3dbc9808	0.09208685
29	0x3cf75cfc	0.030195706
30	0xbdb7ffc3	-0.089843296
31	0x3d9aac14	0.075523525

conv_col_to_row.feature_module_left.0.weight f4 [32, 32]
0	0x3cc0273b	0.023456207
1	0xbe20a036	-0.15686116
2	0xbb6226ec	-0.0034508063
3	0x3d313f59	0.043273304
4	0xbd0395a3	-0.032125127
5	0xbdef7908	-0.11693007
6	0x3c934fb3	0.01798234
7	0xbd5b1609	-0.05348781
8	0x3e236267	0.15955506
9	0x3c2a67d3	0.01040073
10	0xbc92d7b3	-0.017925119
11	0x3e02c614	0.12770873
12	0xbb45f057	-0.0030203068
13	0xbd4ee6be	-0.05051302
14	0xbc978046	-0.018493783
15	0xbc57fc1c	-0.013182666
16	0xbc468109	-0.012115725
17	0xbe0e65c4	-0.13906008
18	0x3e03194f	0.12802623
19	0x3d059f76	0.032622777
20	0xbdc51a11	-0.096241124
21	0xbdd9d54d	-0.10636387
22	0x3da92aa3	0.082600854
23	0x3d987e51	0.07445968
24	0x3dbe2513	0.09284415
25	0xbddb7997	-0.10716551
26	0xbe26feed	-0.16308184
27	0xbe06cc79	-0.13163938
28	0x3dfe170a	0.12406738
29	0xbd4f84f2	-0.050663896
30	0xbd681d6e	-0.05666869
31	0xbdd3c5bd	-0.1034045
32	0x3e0477d5	0.12936337
33	0x3d91e1e3	0.071231626
34	0x3dcfa741	0.10139323
35	0xbdd0cdeb	-0.10195526
36	0xbd06a364	-0.032870665
37	0x3e23c9d1	0.15994956
38	0xbcd69c33	-0.026197528
39	0xbe347500	-0.17622757
40	0xbdbbd510	-0.09171498
41	0x3b9e2288	0.004825894
42	0x3dec4da9	0.1153825
43	0x3cf984ed	0.030458892
44	0x3d1c72c3	0.038195383
45	0xbe028a59	-0.12748088
46	0x3d02cd50	0.031934083
47	0x3c75ec5e	0.015009968
48	0x3e017fcb	0.12646405
49	0xbe06cb97	-0.13163601
50	0x3cc39902	0.02387667
51	0xbddc79cf	-0.10765421
52	0xbd1b993e	-0.03798794
53	0x3da7fd4a	0.08202608
54	0xbe373b93	-0.1789382
55	0x3ddb5466	0.10709457
56	0xbe2b9526	-0.16756114
57	0x3d1f128f	0.03883606
58	0x3da1ff49	0.0791002
59	0x3dd49519	0.103800006
60	0xbdc99027	-0.09841948
61	0xbddc8295	-0.10767094
62	0x3db13f0e	0.08654605
63	0xbc8d339e	-0.017236527
64	0x3de8a51d	0.11359618
65	0xbddd482d	-0.10804782
66	0x3cdd532a	0.027017195
67	0x3d88bcd8	0.06676644
68	0x3caf0aea	0.021367509
69	0x3e0310d7	0.12799393
70	0xbe05e6bf	-0.13076304
71	0x3e29de5f	0.16588734
72	0xbdef68a6	-0.11689882
73	0xbdd99694	-0.106244236
74	0x3e037d04	0.12840658
75	0x3cae170c	0.021251224
76	0xbe2bf6f2	-0.16793421
77	0xbe2af999	-0.16696776
78	0xbdaa1b8b	-0.08306035
79	0x3e29b4dd	0.165729
80	0x3d256039	0.04037497
81	0xbe059a73	-0.13047199
82	0x3e310c57	0.17289864
83	0x3d8ab5fa	0.067729905
84	0xbda8329d	-0.08212779
85	0xbce27a4a	-0.027646203
86	0xbd50be27	-0.050962593
87	0x3e33b736	0.17550358
88	0x3bf75758	0.007548254
89	0x3d5312d4	0.051531628
90	0xbe0fb986	-0.14035615
91	0x3cbdfa46	0.023190629
92	0xbd8e6783	-0.06953337
93	0x3d860af6	0.065450594
94	0x3ce09f10	0.027419597
95	0xbc304fa8	-0.010761179
96	0xbd50b09f	-0.05094969
97	0xbd7cac26	-0.06168761
98	0x3c494ae4	0.012285922
99	0x3bf1d22a	0.00737979
100	0xbc707a7e	-0.014677642
101	0x3d51a94b	0.05118684
102	0xbc9904b4	-0.018679
103	0xbd92001b	-0.07128926
104	0x3e0ea8d5	0.13931592
105	0xbdc27c5f	-0.09496378
106	0xbdff9674	-0.124798685
107	0x3e1aaf6e	0.15105984
108	0x3ce0d690	0.027446061
109	0xbd0aec59	-0.033916805
110	0xbdc66803	-0.096878074
111	0xbd09f719	-0.033682916
112	0xbe08f607	-0.13375102
113	0x3d228b89	0.039683852
114	0x3ca7d038	0.020485029
115	0x3d970c83	0.07375433
116	0xbd27fc9d	-0.041012395
117	0xbe2c0d01	-0.16801836
118	0x3e0902de	0.1338
119	0xbe260e03	-0.16216283
120	0xbde9ce5c	-0.11416313
121	0xbbd80053	-0.0065918355
122	0xbdd05a3b	-0.1017346
123	0xbdbf7e6b	-0.09350284
124	0x3df8c749	0.121473856
125	0xbe31a6f4	-0.17348844
126	0xbcb3ed8e	-0.02196386
127	0x3db794f8	0.089639604
128	0xbe19e9e1	-0.15030624
129	0x3da07291	0.07834352
130	0x3e24ed5b	0.16106169
131	0x3a8bcded	0.0010666229
132	0x3dbbd818	0.09172076
133	0xbde537a4	-0.11192253
134	0x3e06886e	0.13137981
135	0xbe228c90	-0.15873933
136	0x3d7f4b7f	0.062327858
137	0x3dd0ecc7	0.10201412
138	0xbdacca03	-0.08436968
139	0xbdd1082e	-0.10206638
140	0x3d2ac094	0.041687563
141	0x3e26755b	0.16255705
142	0xbda53398	-0.08066481
143	0x3e051044	0.12994486
144	0xbda6632d	-0.08124385
145	0xbbd6009b	-0.006530834
146	0x3e09b878	0.13449275
147	0xbe16475a	-0.14675656
148	0xbe3cc3ac	-0.18434018
149	0xbd005cc9	-0.031338487
150	0x3cfffcdc	0.031248502
151	0x3cb95e13	0.022627866
152	0xbe327eb5	-0.17431147
153	0xbda6a7ae	-0.08137451
154	0x3d29b63e	0.041433565
155	0xbcddc2f7	-0.027070506
156	0xbe207129	-0.15668167
157	0x3d5aba56	0.05340036
158	0x3d4064c7	0.04697111
159	0xbdc5abc0	-0.09651899
160	0x3bd526c8	0.006504867
161	0xbe0c4363	-0.13697581
162	0x3e22dff3	0.15905742
163	0x3d9fca81	0.078022964
164	0x3c6623ea	0.0140466485
165	0x3da79877	0.08183377
166	0x3d5336fc	0.05156611
167	0x3de8e5c1	0.11371947
168	0xbe14505d	-0.14483781
169	0xbd0a6f74	-0.033797696
170	0x3d87b97c	0.06627175
171	0xbe174436	-0.14772114
172	0xbd0c2ff6	-0.034225427
173	0xbd8173cd	-0.06320915
174	0x3c98e057	0.018661661
175	0xbe015d22	-0.12633184
176	0x3e2a3c88	0.16624653
177	0xbe030a2c	-0.12796849
178	0xbd7ddd97	-0.061978903
179	0xbdd627f3	-0.104568385
180	0x3de86b79	0.11348624
181	0x3df8aa37	0.12141841
182	0x3d51d4ff	0.05122852
183	0x3df978b1	0.12181223
184	0x3e2abcfc	0.16673654
185	0xbc1b165e	-0.009465782
186	0xbdc9f7c9	-0.098617144
187	0x3e10fb44	0.1415835
188	0x3d8798c9	0.06620938
189	0xbe11cc81	-0.14238168
190	0x3c1cf830	0.009580657
191	0x3e31f233	0.17377548
192	0xbd4ae083	-0.049530517
193	0xbe1f0ee2	-0.15533021
194	0x3e2802ad	0.1640727
195	0x3cea4c5b	0.028600862
196	0x3d96e797	0.07368391
197	0xbe276c7a	-0.16349974
198	0x3e190897	0.14944683
199	0xbde40696	-0.11134069
200	0x3ced5bf3	0.028974509
201	0x3daad9ad	0.083422996
202	0x3c79ac28	0.015238799
203	0xbe3269e7	-0.17423211
204	0x3ccc455f	0.024935422
205	0xbd9e7981	-0.07738019
206	0x3d42fc5d	0.047603954
207	0x3d9e65a8	0.07734233
208	0x3cbdb79a	0.023158837
209	0xbcca913c	-0.024727456
210	0xbd5f1ad7	-0.054468956
211	0x3dfc5fe7	0.123229794
212	0xbda66e51	-0.0812651
213	0x3d72644b	0.059177678
214	0xbdcad054	-0.09903017
215	0xbd8f9484	-0.07010749
216	0x3ce68693	0.028140342
217	0xbe0bdd73	-0.13658695
218	0x3d46b978	0.04851672
219	0xbd4be8ae	-0.049782448
220	0x3e2e7c60	0.17039633
221	0x3ad2a10e	0.0016069727
222	0xbe148b0a	-0.14506164
223	0x3e007de7	0.12548028
224	0xbe00d7f9	-0.12582387
225	0x3c130e2b	0.008975546
226	0xbc1a0663	-0.009400937
227	0xbdfb78a8	-0.12278873
228	0x3e13b257	0.144235
229	0xbdce5a75	-0.10075847
230	0x3cdd76c5	0.027034173
231	0x3e161d7f	0.1465969
232	0x3e0b0bfe	0.13578793
233	0xbe1fc19c	-0.156012
234	0x3e1632fe	0.1466789
235	0xbd9cedee	-0.07662569
236	0xbba5adf3	-0.0050561368
237	0xbdc7b64c	-0.09751567
238	0x3c90a765	0.017657945
239	0x3dcc7eb5	0.09985105
240	0xbe05e56b	-0.13075797
241	0xbb2fa028	-0.0026798341
242	0x3e2d72ba	0.16938296
243	0x3dea7f36	0.11450045
244	0xbd139e0c	-0.036039397
245	0xbe1972d3	-0.14985208
246	0x3b786e5c	0.0037907576
247	0xbd85e727	-0.065382294
248	0x3db23819	0.08702106
249	0x3df2f677	0.11863416
250	0xbdee5804	-0.116378814
251	0xbac4919c	-0.0014997008
252	0x3dfd07f0	0.123550296
253	0x3dae936a	0.08524211
254	0xbe1a8188	-0.15088475
255	0xbe18637e	-0.14881703

conv_col_to_row.feature_module_left.0.bias f4 [32]
0	0x3dd813c2	0.105506435
1	0x3e03032b	0.12794177
2	0xbddfa02f	-0.109192245
3	0x3d86dd48	0.06585175
4	0xbca3673e	-0.01994669
5	0x3de65336	0.1124634
6	0xbdb14e46	-0.086575076
7	0x3e3215a9	0.17391075
8	0xbd75c295	-0.06000002
9	0xbe146649	-0.14492144
10	0xbddc2805	-0.107498206
11	0xbe1b7a84	-0.15183455
12	0x3d1746d0	0.036932766
13	0x3d90bd8f	0.070674054
14	0xbe281364	-0.16413647
15	0xbe1b85fc	-0.1518783
16	0x3db494f1	0.08817471
17	0x3e054813	0.13015775
18	0x3ccfabd9	0.025350498
19	0x3d1ced52	0.038312264
20	0x3d3edf33	0.046599578
21	0x3db10ae7	0.086446576
22	0x3e25eef7	0.16204439
23	0xbdb44af8	-0.08803362
24	0x3dbb6507	0.09150129
25	0xbd5a5dd7	-0.05331215
26	0x3e00c780	0.12576103
27	0xbe2ece44	-0.17070872
28	0xbdd0d647	-0.1019712
29	0xbd8cc657	-0.06873768
30	0xbd69a11d	-0.057038415
31	0xbe2bef45	-0.16790493

conv_col_to_row.feature_module_edge.0.weight f4 [32, 1]
0	0x3f0abd67	0.54195255
1	0x3f1be7c7	0.6090054
2	0x3dbfd872	0.093674555
3	0x3eaac0ae	0.33350128
4	0x3dae2772	0.08503617
5	0x3ee883b2	0.45412976
6	0xbf3ad3d0	-0.7297945
7	0xbea8e1ed	-0.32984868
8	0xbf02879d	-0.5098818
9	0x3e556d29	0.20842423
10	0xbf690e1f	-0.9103717
11	0xbf56dfe4	-0.8393538
12	0xbf53c221	-0.8271809
13	0x3e083df9	0.1330489
14	0xbf0866f8	-0.5328212
15	0x3db442e9	0.088018246
16	0xbd7d70e1	-0.061875228
17	0xbe1543be	-0.14576623
18	0x3f3165b7	0.6929583
19	0x3f284ade	0.6573924
20	0xbf3ab219	-0.72928005
21	0x3c1d85d2	0.009614425
22	0xbf50f4d1	-0.8162356
23	0xbf300463	-0.68756694
24	0x3f2f53b9	0.68487126
25	0x3ed0d22c	0.40785348
26	0xbf29755e	-0.66194713
27	0x3f26dac8	0.65177584
28	0xbe1e3e19	-0.15453376
29	0x3e1525df	0.14565228
30	0xbe87b36d	-0.26504079
31	0x3f6bc7e0	0.9210186

conv_col_to_row.feature_module_right.0.weight f4 [32, 32]
0	0xbd8268fb	-0.0636768
1	0x3d9f4009	0.077758856
2	0xbdd1c7bb	-0.10243174
3	0x3df06abf	0.1173911
4	0xbdb2e92f	-0.087358825
5	0xbdf49b98	-0.1194374
6	0xbc656b29	-0.0140026
7	0x3cf322b6	0.029679637
8	0x3bd69883	0.0065489425
9	0xbdd44e5f	-0.103665106
10	0xbdc2c10c	-0.09509477
11	0x3d709086	0.05873158
12	0xbdcfc79c	-0.10145494
13	0x3ba67b77	0.005080636
14	0x3d9b9611	0.07596982
15	0x3c9084d7	0.017641468
16	0x3e36b42a	0.17842165
17	0x3e25415f	0.16138218
18	0x3ca4a9b7	0.020100458
19	0x3e0a585e	0.13510272
20	0xbe2bd39c	-0.16779941
21	0x3d121ac3	0.035670053
22	0x3e30ca43	0.17264657
23	0xbd7a3b20	-0.061091542
24	0x3d88f17b	0.06686684
25	0x3d21fb0a	0.03954605
26	0x3e0bb7dc	0.13644356
27	0xbdca8d10	-0.09890187
28	0xbdf118b3	-0.11772289
29	0x3b9de056	0.0048180027
30	0xbde7707d	-0.11300752
31	0x3e16335f	0.14668034
32	0x3e1efd8b	0.15526406
33	0x3dbb76f9	0.091535516
34	0xbc99da16	-0.01878075
35	0x3e33d808	0.17562878
36	0xbe20398b	-0.15646951
37	0x3e32af21	0.17449619
38	0xbda055a8	-0.07828838
39	0x3e164ef9	0.14678563
40	0xbdde7331	-0.10861815
41	0xbdc23847	-0.0948339
42	0xbddbf924	-0.10740879
43	0x3db60760	0.088881254
44	0x3d0f02e8	0.03491488
45	0x3dd0f654	0.10203233
46	0x3bb83118	0.005621087
47	0xbd6e7f17	-0.05822667
48	0x3e0cf5bf	0.1376562
49	0xbe10d4fc	-0.14143747
50	0x3d99748f	0.07492935
51	0xbe19bddc	-0.15013832
52	0x3e2824d8	0.16420305
53	0x3c379d69	0.011206963
54	0xbd74cbb9	-0.059764598
55	0x3e08aa18	0.13346136
56	0xbe19ac4c	-0.15007132
57	0xbdc9b2f5	-0.098485865
58	0xbe1256b5	-0.14290889
59	0xbd6c00ea	-0.05761806
60	0xbd9c506f	-0.07632529
61	0x3dcb82ce	0.099370584
62	0xbe18e9ce	-0.1493294
63	0x3b728df6	0.0037010885
64	0x3e0d9c37	0.13829122
65	0xbd1d182d	-0.038353134
66	0xbd771208	-0.06031993
67	0xbda290fb	-0.07937809
68	0x3db76c24	0.08956173
69	0x3de79bdc	0.11309025
70	0xbe07758d	-0.13228436
71	0xbcbc610c	-0.022995494
72	0xbe193375	-0.14961036
73	0xbd5469c4	-0.05185868
74	0x3ca4ee13	0.020133054
75	0x3cc3a01e	0.02388006
76	0x3e03b038	0.12860191
77	0x3df7189b	0.1206524
78	0x3d53bba1	0.05169261
79	0xbe23bcbc	-0.15989965
80	0xbd3a8185	-0.045533676
81	0x3e33aed2	0.17547157
82	0xbd68094e	-0.0566495
83	0x3d324396	0.043521486
84	0x3cdf149e	0.02723151
85	0x3dc77c74	0.097405344
86	0xbdb8f82c	-0.0903171
87	0xbdc7bd9b	-0.09752961
88	0xbd3a3791	-0.04546315
89	0x3dee2204	0.11627582
90	0xbe256bcd	-0.16154404
91	0xbccbff0a	-0.024901886
92	0x3dd3739a	0.103247836
93	0x3e116ce3	0.14201693
94	0x3d1740b0	0.036926925
95	0xbdb2b8c3	-0.08726647
96	0x3d232a32	0.039835162
97	0xbe087dea	-0.13329282
98	0xbe307c23	-0.17234854
99	0x3e093ec1	0.13402845
100	0xbe336d0d	-0.17522068
101	0xbe06bcf3	-0.13158016
102	0x3e280661	0.16408683
103	0x3d819c41	0.06328631
104	0xbddb3334	-0.107031256
105	0xbe021c82	-0.12706187
106	0xbe1a95f2	-0.15096262
107	0xbd073788	-0.033011943
108	0xbdda7597	-0.1066696
109	0x3da79d7d	0.081843354
110	0xbdf8b84b	-0.12144526
111	0xbd8b88c1	-0.06813193
112	0xbd59fd1d	-0.053219903
113	0x3d5f1b97	0.05446967
114	0xbc9c4b10	-0.019078761
115	0xbcf7e872	-0.030262206
116	0xbda38a0d	-0.079853155
117	0xbe2e18e6	-0.17001686
118	0x3e2d576c	0.1692788
119	0x3e151bb6	0.14561352
120	0x3d79b36e	0.060962133
121	0xbc42b203	-0.011883262
122	0x3e02045e	0.12696978
123	0xbd3ea0b7	-0.04653999
124	0x3bacd425	0.005274313
125	0x3de861bd	0.11346767
126	0xbddeaeca	-0.10873182
127	0x3de84d21	0.11342836
128	0xbdaf219f	-0.085513346
129	0xbe09563f	-0.13411807
130	0x3e30062d	0.17189856
131	0xbd942173	-0.072329424
132	0xbd96388e	-0.07335006
133	0xbd70295d	-0.058633197
134	0x3cff1506	0.031137954
135	0xbc68a415	-0.014199276
136	0xbe182343	-0.14857201
137	0xbe2571e9	-0.16156735
138	0x3dd673e3	0.104713224
139	0x3d96a02f	0.07354771
140	0x3e0ac9e0	0.13553572
141	0xbe2720f2	-0.16321161
142	0x3c9a535c	0.018838577
143	0x3e11e195	0.14246209
144	0xbda40010	-0.080078244
145	0x3bf3f5fa	0.007445094
146	0x3ad3a95f	0.0016148499
147	0x3e1fdd9a	0.15611878
148	0xbe0d5ae8	-0.13804209
149	0xbd0d4042	-0.03448511
150	0x3d832528	0.06403571
151	0x3bd9d414	0.006647596
152	0x3d1a43ee	0.03766244
153	0xbddf8f55	-0.1091601
154	0xbe17de50	-0.14830899
155	0x3e21926c	0.15778512
156	0x3c4f17c6	0.012639945
157	0xbd8c2345	-0.06842665
158	0xbb59623b	-0.0033170122
159	0x3d4b269a	0.04959736
160	0x3da39587	0.079875045
161	0x3e1d51f2	0.15363291
162	0xbe2b1abf	-0.16709422
163	0xbe102bf6	-0.1407927
164	0x3d7dde1e	0.061979406
165	0xbdbe2209	-0.092838354
166	0x3d5870d4	0.052841976
167	0x3e31a6be	0.17348763
168	0xbd926b76	-0.07149403
169	0x3e1ca855	0.15298589
170	0x3d885b10	0.06657994
171	0x3dce6336	0.10077517
172	0x3e2815da	0.16414586
173	0x3e2fd24b	0.17170064
174	0x3de2a327	0.11066275
175	0x3db99363	0.09061315
176	0x3d7b3120	0.061326146
177	0x3e12f1ba	0.14350024
178	0x3e2cb172	0.16864565
179	0xbe16d056	-0.14727911
180	0x3e010570	0.1259973
181	0x3de02775	0.10945026
182	0x3dbaa7b9	0.09114022
183	0x3db181dd	0.086673476
184	0xbdb61e13	-0.08892455
185	0x3db9f711	0.09080327
186	0x3de3dc8c	0.1112605
187	0x3d34a30e	0.044100814
188	0x3d1a684a	0.037697114
189	0xbdf5da1c	-0.12004492
190	0xbe21eae8	-0.15812266
191	0xbd70d350	-0.058795273
192	0x3e1e79e0	0.15476179
193	0x3c023e58	0.007949434
194	0x3d6d8748	0.057990342
195	0x3d808411	0.0627519
196	0xba82ecb5	-0.0009988757
197	0xba85ee2e	-0.0010218078
198	0xbc7c7e9a	-0.015411044
199	0xbdeb6369	-0.1149357
200	0x3da51fc4	0.080626994
201	0xbdd0f882	-0.10203649
202	0x3d5adcb7	0.053433146
203	0xbd9a5763	-0.07536199
204	0xbd6652a9	-0.056231175
205	0xbbb2f9b7	-0.0054618972
206	0xbda383ec	-0.079841465
207	0xbdf70d94	-0.12063137
208	0xbe0f7b98	-0.14011991
209	0x3d747574	0.059682325
210	0xbdfdb22c	-0.12387499
211	0xbe2f136a	-0.1709725
212	0xbdd68abc	-0.1047568
213	0x3c118208	0.0088810995
214	0x3c083b8d	0.008314979
215	0x3bf3aa99	0.0074361083
216	0x3d509770	0.050925672
217	0xbdaad55c	-0.08341476
218	0x3dca8d71	0.09890259
219	0x3b9f8b28	0.0048688836
220	0x3e0d8b70	0.13822722
221	0x3ccb7b52	0.024839077
222	0x3d701aa7	0.058619168
223	0xbdfe0fa7	-0.12405329
224	0x3e0c303a	0.13690272
225	0xbcabeb30	-0.02098617
226	0xbd98cca4	-0.07460907
227	0x3e1674b9	0.14692964
228	0xbd61309e	-0.054978006
229	0x3de09733	0.10966339
230	0x3c1375ed	0.009000284
231	0x3b06d99f	0.002057649
232	0x3e1914e4	0.14949375
233	0xbdca11a8	-0.09866649
234	0x3cdbe18f	0.026840953
235	0xbda271ca	-0.0793186
236	0x3de062ec	0.10956368
237	0x3d0c052a	0.034184612
238	0x3dc25337	0.09488528
239	0x3dda6ec5	0.10665659
240	0xbd63ffab	-0.055663746
241	0xbdd1cd3f	-0.10244226
242	0xbd3ce7c2	-0.04611946
243	0x3ca753fb	0.020425787
244	0xbdccc0da	-0.09997721
245	0x3dd8d08c	0.10586652
246	0xbdc20d74	-0.09475222
247	0x3da7d1dd	0.08194325
248	0xbe19ceda	-0.15020314
249	0xbdb553bd	-0.088538624
250	0x3cd4fdaf	0.025999872
251	0xbe33a5e7	-0.17543755
252	0x3e16b1a8	0.14716208
253	0x3e1a62f2	0.15076807
254	0x3da0caa1	0.078511484
255	0xbcdc3f38	-0.026885614

conv_col_to_row.feature_module_final.0.weight f4 [32]
0	0x3f7f6a4c	0.9977157
1	0x3f7fd17a	0.9992901
2	0x3f800000	1.0
3	0x3f7fdcc4	0.99946237
4	0x3f800000	1.0
5	0x3f7ff33e	0.99980533
6	0x3f80fcc2	1.0077136
7	0x3f7fd563	0.9993498
8	0x3f7fa936	0.9986757
9	0x3f805608	1.0026255
10	0x3f8008ef	1.0002726
11	0x3f800379	1.000106
12	0x3f800da0	1.0004158
13	0x3f80296b	1.001264
14	0x3f8000bb	1.0000223
15	0x3f7f7de0	0.99801445
16	0x3f807c42	1.003792
17	0x3f7fffc8	0.99999666
18	0x3f801513	1.0006431
19	0x3f802189	1.0010234
20	0x3f806da5	1.0033461
21	0x3f802bd3	1.0013374
22	0x3f7fc73a	0.9991337
23	0x3f8007b2	1.0002348
24	0x3f809450	1.0045261
25	0x3f800dd9	1.0004226
26	0x3f8081b6	1.0039585
27	0x3f800000	1.0
28	0x3f800000	1.0
29	0x3f7f9401	0.9983521
30	0x3f800000	1.0
31	0x3f800000	1.0

conv_col_to_row.feature_module_final.0.bias f4 [32]
0	0xbad57812	-0.0016286394
1	0xba863bd0	-0.0010241214
2	0x00000000	0.0
3	0xba1df6ce	-0.00060258515
4	0x00000000	0.0
5	0xb9a4ccc7	-0.0003143309
6	0x3acfc57a	0.0015851699
7	0xba0ec6dc	-0.00054465025
8	0xba482c54	-0.0007636
9	0x3b0f760d	0.0021890432
10	0x3a34612c	0.0006880935
11	0xb8e05756	-0.0001069742
12	0x3a3ef264	0.0007284044
13	0xb981daca	-0.00024767808
14	0x3aa982b6	0.0012932632
15	0xbaac1c33	-0.0013130963
16	0x3a7c2d92	0.00096198276
17	0xb930da20	-0.00016865926
18	0xb7b39f43	-2.1412625e-05
19	0x3b1aec0f	0.0023639237
20	0x3b099f5c	0.0020999527
21	0x399ff6fa	0.00030510855
22	0x39552531	0.00020327118
23	0xb9d341c3	-0.00040294052
24	0x3b6d10a7	0.0036173256
25	0xb8f99765	-0.00011901445
26	0x3b1dec93	0.0024097308
27	0x00000000	0.0
28	0x00000000	0.0
29	0xbb1cab54	-0.002390583
30	0x00000000	0.0
31	0x00000000	0.0
