GNN/ResultsGCNN/actor_8.pt (torch, 83151 bytes, 43 tensors)

row_embedding.0.weight f4 [7]
1.0005772 1.0004624 0.9995874 1.0004222 0.99994725 1.0000243 0.999815
00000000: ea12 803f 270f 803f f6e4 7f3f d60d 803f
00000010: 8bfc 7f3f cc00 803f e0f3 7f3f

row_embedding.0.bias f4 [7]
-0.0008115353 -0.00055605354 -0.00035638365 -0.0002273712 0.00011628171 -0.00015588781 0.0002560248
00000000: 36bd 54ba 1fc4 11ba 01d9 bab9 7e6a 6eb9
00000010: 45dc f338 d175 23b9 113b 8639

row_embedding.1.weight f4 [32, 7]
0.05459559 0.05580613 0.13772818 -0.35782665 -0.18362546 0.24017794 -0.08584219 -0.27247298
-0.06330779 -0.039223816 -0.10671903 0.19454932 0.0012308185 -0.08676129 -0.12671608 -0.2933244
-0.28452098 0.2622296 0.31786978 0.018897876 -0.20271327 -0.21129498 0.12835252 0.31754786
-0.3556466 0.028610203 0.006837976 0.19693662 -0.13994458 -0.03221359 -0.30772787 0.2096746
-0.20325914 -0.20226684 -0.19632998 -0.10672191 0.052741222 -0.0128772 -0.3526986 0.09952566
-0.20215143 0.31436753 -0.26801816 -0.33612904 0.27143192 -0.22412658 -0.3127588 -0.056401324
0.020194216 -0.24350682 0.27230957 0.22900105 0.25996655 0.2112522 0.031422522 0.033789955
-0.13732319 -0.07715802 0.023354383 0.014468019 -0.13704939 -0.2062365 0.27939466 0.048217937
-0.34244537 -0.20177816 0.36393937 -0.18844742 0.25608248 -0.3500996 -0.2661211 0.3371611
-0.09564552 -0.005884364 -0.039146688 -0.25109392 0.25218576 -0.18189734 0.01250057 -0.35638702
-0.07522451 -0.015428124 0.25827157 0.13607234 0.2889353 -0.073179245 -0.30902573 -0.10714837
-0.06815136 0.31738535 -0.2279383 0.24900098 0.2129682 -0.21941875 -0.2451922 -0.1536834
-0.14757879 -0.26947284 -0.360841 0.08967411 0.09911199 -0.2800912 0.27309793 -0.14336674
-0.11494403 0.066294916 0.2836611 -0.32984123 -0.06849095 0.12110576 -0.306252 0.2961626
0.14856079 0.32830638 -0.026793575 0.17298996 -0.25452527 0.35008353 0.09161842 0.19653583
-0.2177549 -0.26621404 -0.32468864 -0.3465497 0.002398074 -0.022103092 -0.35280845 0.340771
-0.1755238 -0.30079013 -0.16226375 0.31742066 0.09037277 -0.19560824 -0.16641341 -0.23901343
0.12701282 0.24783929 -0.19055513 0.3576265 0.32958695 0.12843905 -0.009258957 0.2742283
0.103614196 -0.33460274 -0.25752228 0.19983758 0.034587234 0.3537206 -0.27245665 -0.286907
-0.107608505 -0.23075354 0.27971828 0.031890918 -0.13564713 -0.04751747 0.03515577 -0.2727341
0.043801848 -0.24411759 0.058856815 0.13675956 -0.23236868 -0.20923863 -0.011745175 0.29747048
0.19026436 -0.08830092 0.3302241 0.09713216 0.36512092 0.26583603 -0.26202068 0.023025542
0.23129433 0.075969145 0.11993307 0.31187287 -0.27763206 0.12744015 -0.11537468 -0.15714131
0.33826607 0.27056044 0.24738602 0.03715864 -0.2930962 0.34302485 0.10827902 -0.038881443
-0.28933218 -0.10875484 -0.3298885 0.2947265 0.31894383 0.074455075 0.31792775 -0.23986058
-0.21313056 0.18006122 0.36873266 -0.23478052 -0.3064841 0.12764518 0.11568292 0.26655126
0.05712819 -0.377861 0.15292329 -0.18046851 0.19464286 -0.28037342 -0.29264376 0.033655044
-0.064862944 -0.35135126 -0.1873277 -0.3110917 0.10617096 0.1013143 -0.119854756 -0.3169597
00000000: a09f 5f3d f894 643d 9e08 0d3e 0e35 b7be
00000010: 5008 3cbe 35f1 753e 08ce afbd 9481 8bbe
00000020: 84a7 81bd 27a9 20bd 828f dabd f037 473e
00000030: 6a53 a13a e7af b1bd dcc1 01be 9e2e 96be
00000040: bcac 91be f542 863e d4bf a23e b8cf 9a3c
00000050: 1194 4fbe b65d 58be d86e 033e a295 a23e
00000060: 5017 b6be f25f ea3c 1a11 e03b c1a9 493e
00000070: a24d 0fbe 66f2 03bd 828e 9dbe f0b4 563e
00000080: 2a23 50be 0a1f 4fbe ba0a 49be 0491 dabd
00000090: 2e07 583d e4fa 52bc e994 b4be 1cd4 cb3d
000000a0: c900 4fbe c8f4 a03e ad39 89be 1b19 acbe
000000b0: 20f9 8a3e 7081 65be ec21 a0be 1305 67bd
000000c0: 576e a53c da59 79be 296c 8b3e 407f 6a3e
000000d0: 561a 853e 7f52 583e e7b4 003d 5667 0a3d
000000e0: 739e 0cbe 0605 9ebd b151 bf3c 450b 6d3c
000000f0: ad56 0cbe a92f 53be d10c 8f3e 2c80 453d
00000100: 0055 afbe ef9e 4ebe 4356 ba3e 5cf8 40be
00000110: 3e1d 833e 4140 b3be 0641 88be 61a0 ac3e
00000120: cce1 c3bd 9fd1 c0bb 4758 20bd 628f 80be
00000130: 7e1e 813e 4c43 3abe 31cf 4c3c 5c78 b6be
00000140: 4f0f 9abd 3ec6 7cbc 2c3c 843e 8c56 0b3e
00000150: 54ef 933e 00df 95bd 9f38 9ebe 9b70 dbbd
00000160: f192 8bbd 5580 a23e a868 69be 1dfa 7e3e
00000170: 5614 5a3e 4faf 60be aa13 7bbe 2e5f 1dbe
00000180: e51e 17be 58f8 89be 27c0 b8be 0fa7 b73d
00000190: 3afb ca3d 1d68 8fbe 7ed3 8b3e bbce 12be
000001a0: c767 ebbd a1c5 873d 073c 913e f3e0 a8be
000001b0: fc44 8cbd 4c06 f83d 10cd 9cbe a0a2 973e
000001c0: 5220 183e c617 a83e 337e dbbc 4824 313e
000001d0: 2351 82be 263e b33e 70a2 bb3d b040 493e
000001e0: 24fb 5ebe 354d 88be 973d a6be f66e b1be
000001f0: 0129 1d3b 8b11 b5bc 4fa3 b4be 8979 ae3e
00000200: 83bc 33be 2a01 9abe 7828 26be f684 a23e
00000210: 5c15 b93d 874d 48be 4768 2abe f0bf 74be
00000220: a60f 023e 95c9 7d3e e220 43be d21a b73e
00000230: 9fbf a83e 8785 033e e1b2 17bc a767 8c3e
00000240: ae33 d43d 0d51 abbe f6d9 83be 39a2 4c3e
00000250: 58ab 0d3d de1a b53e 707f 8bbe 79e5 92be
00000260: d961 dcbd a84a 6cbe 3c37 8f3e 0da0 023d
00000270: 15e7 0abe aea1 42bd 7fff 0f3d cea3 8bbe
00000280: 9169 333d f6f9 79be d813 713d b30a 0c3e
00000290: 0ef2 6dbe a742 56be d66e 40bc 0d4e 983e
000002a0: a9d4 423e 1dd7 b4bd 2213 a93e 3aed c63d
000002b0: 21f1 ba3e a91b 883e 9327 86be 10a0 bc3c
000002c0: 6cd8 6c3e b695 9b3d 789f f53d cdad 9f3e
000002d0: ca25 8ebe ac7f 023e 8f49 ecbd a7e9 20be
000002e0: 3631 ad3e e686 8a3e c352 7d3e a833 183d
000002f0: b510 96be f4a0 af3e 64c1 dd3d 2642 1fbd
00000300: 5923 94be dcba debd 25e7 a8be 64e6 963e
00000310: 9b4c a33e e77b 983d 6dc7 a23e 039e 75be
00000320: e63e 5abe f861 383e 87ca bc3e 4e6a 70be
00000330: 7ceb 9cbe 6bb5 023e 2beb ec3d 6879 883e
00000340: 40ff 693d ff76 c1be ec97 1c3e bdcc 38be
00000350: 7550 473e 1b8d 8fbe 67d5 95be dfd9 093d
00000360: ddd6 84bd 50e4 b3be d5d2 3fbe 6947 9fbe
00000370: 2970 d93d df7d cf3d 6976 f5bd 8b48 a2be

row_embedding.1.bias f4 [32]
-0.050954137 0.25668633 0.11099381 -0.36904025 0.08147147 -0.12307074 0.018002102 -0.1062027
0.150527 -0.20947865 -0.35036305 -0.025844209 0.31855458 0.14955088 0.3461954 0.09731644
-0.15745877 0.01759853 -0.12174505 0.30625033 0.2814866 -0.025785867 0.2091601 -0.0994905
0.32164058 0.20672612 -0.14882864 0.12567528 -0.29485875 -0.19669618 0.021121211 -0.21523073
00000000: 49b5 50bd 646c 833e b950 e33d d8f2 bcbe
00000010: 84da a63d 830c fcbd 2579 933c cd80 d9bd
00000020: c023 1a3e 9281 56be c962 b3be 3cb7 d3bc
00000030: 9619 a33e de23 193e 8640 b13e d74d c73d
00000040: df3c 21be cb2a 903c 7855 f9bd d8cc 9c3e
00000050: 031f 903e e23c d3bc 112e 563e adc1 cbbd
00000060: 13ae a43e 03b0 533e 8966 18be 05b1 003e
00000070: baf7 96be b96a 49be 6406 ad3c 7265 5cbe

row_embedding.3.weight f4 [32, 32]
-0.12263168 -0.041678734 0.069896355 0.011614482 0.100612774 0.0020049615 0.16256607 0.14535332
0.09978525 -0.14713767 0.034076314 0.028594436 0.09900523 0.0029014929 0.13758859 0.15365072
0.15613557 0.035006847 -0.119341426 0.103189476 0.040960085 0.054595876 0.045565784 0.113633096
-0.16372743 0.10709285 0.12572394 0.15141562 0.017553005 -0.15629771 0.14724544 -0.030204179
0.034921505 0.028000586 -0.17680942 0.007889698 -0.017489677 -0.04489033 0.077514544 0.042966243
-0.09417148 -0.03831319 -0.10004937 -0.16092461 0.08780874 0.10305597 0.15719004 -0.1694525
-0.048982013 0.13068154 0.0799494 -0.13421601 0.12925395 0.12261395 0.13289861 0.121904075
0.13977654 -0.06944827 0.13883525 0.11400877 -0.13357158 0.056817915 -0.13663521 -0.0917076
0.0148205105 0.16126685 -0.10658446 -0.14819245 0.16982977 -0.08291375 -0.1637641 -0.07292414
0.11932639 0.0315087 0.159403 0.10510857 0.009909303 0.16264331 -0.081339605 0.08769626
-0.03665486 -0.016792918 0.041345764 0.1273882 0.15311281 0.050613288 -0.051449053 0.17006753
0.032906145 0.056538746 0.055472504 -0.16171943 0.16751787 0.16393027 0.12953582 0.15363406
-0.080141455 -0.03714263 -0.15429004 0.057396483 0.047247507 0.060826737 0.17099868 -0.0236739
0.089781 0.11603504 -0.107081674 -0.030204467 0.1275115 -0.103158586 0.0621088 0.09015119
-0.01908944 0.17072016 -0.06804976 0.07345305 -0.03982381 -0.15882635 0.07472815 -0.06610279
-0.0028834112 0.15538004 -0.0792835 -0.06403823 -0.17361026 -0.12672138 -0.11349561 0.0448258
0.093031496 -0.028055992 -0.11438684 0.011068581 0.084144056 -0.063521914 -0.109334365 0.0942924
-0.17005609 0.07274158 0.13768652 -0.1732191 -0.049253102 -0.038104273 0.012919038 -0.17335872
-0.10657083 -0.102928944 0.069066904 0.062101085 -0.13464881 0.048032302 0.00991123 0.06585877
-0.065067805 0.12051429 -0.08107687 -0.13234039 0.108268104 -0.17404748 0.12169088 -0.05012162
-0.08726509 -0.15942536 -0.03314835 0.061243523 -0.056245875 0.16317888 0.09268113 0.06056148
-0.16477668 0.0038441087 -0.12670322 0.046177898 -0.039336897 0.109424725 -0.002471702 -0.16361554
-0.097041495 -0.17561494 -0.044692665 0.0850422 -0.14448197 0.11751258 -0.17436425 -0.01320014
0.0005948395 -0.088530995 -0.15277126 -0.096792765 -0.1436452 -0.020046221 0.026842527 -0.16388138
0.087750934 0.12980185 0.12269802 -0.03828228 0.14120066 0.056314137 -0.1236524 -0.079305016
-0.1549572 0.082080774 0.12712616 0.065051086 -0.029494913 -0.13940904 -0.16361186 0.018266104
-0.021681216 0.1331817 -0.07303905 0.13549219 0.09726376 0.114238776 0.041140124 0.13468663
-0.08677295 -0.044226438 -0.08513981 0.0140810395 0.16602573 -0.047259487 -0.032865632 0.107862614
-0.0646892 -0.042676814 -0.121419735 -0.12803194 0.035298686 0.13849 0.1393908 -0.10136517
0.08853966 -0.10957731 -0.17372064 -0.0020794708 0.15135282 -0.0206076 -0.14662142 -0.059399005
0.06715266 0.13403092 -0.17459767 0.044838604 0.05974367 0.03359173 -0.1728858 -0.061607506
-0.032611076 -0.09710278 -0.13261178 0.032219544 -0.016240017 -0.010872692 -0.1250962 0.14059328
00000000: 5126 fbbd 52b7 2abd d225 8f3d ab4a 3e3c
00000010: 120e ce3d ac65 033b b877 263e 80d7 143e
00000020: 365c cc3d 42ab 16be 9b93 0b3d e13e ea3c
00000030: 41c3 ca3d f926 3e3b 06e4 0c3e 9d56 1d3e
00000040: 01e2 1f3e 5763 0f3d 4769 f4bd 0155 d33d
00000050: c3c5 273d ed9f 5f3d 30a3 3a3d 78b8 e83d
00000060: 2aa8 27be 7f53 db3d c7bd 003e b20c 1b3e
00000070: 52cb 8f3c 820c 20be 82c7 163e c16e f7bc
00000080: da09 0f3d 7c61 e53c 870d 35be cb43 013c
00000090: 8346 8fbc ecde 37bd f2bf 9e3d 5ffd 2f3d
000000a0: fadc c0bd 4bee 1cbd afe6 ccbd 6cc9 24be
000000b0: 12d5 b33d 020f d33d 6df6 203e f584 2dbe
000000c0: 5da1 48bd 62d1 053e 83bc a33d ec6f 09be
000000d0: 265b 043e 061d fb3d 9316 083e d8a8 f93d
000000e0: 9521 0f3e e53a 8ebd d42a 0e3e 6e7d e93d
000000f0: fdc6 08be e7b9 683d 1aea 0bbe 32d1 bbbd
00000100: bad1 723c 2323 253e f448 dabd c3bf 17be
00000110: dbe7 2d3e afce a9bd c7b1 27be 4059 95bd
00000120: 6561 f43d 440f 013d 8a3a 233e 2943 d73d
00000130: a15a 223c f88b 263e 6195 a6bd 199a b33d
00000140: 6823 16bd 4d91 89bc 2d5a 293d 0d72 023e
00000150: 9bc9 1c3e e14f 4f3d 3ebc 52bd 2f26 2e3e
00000160: 98c8 063d 2c95 673d 2337 633d c799 25be
00000170: ce89 2b3e 56dd 273e 0aa5 043e 3f52 1d3e
00000180: 3421 a4bd df22 18bd 35fe 1dbe 9318 6b3d
00000190: 9a86 413d 7525 793d 471a 2f3e c4ef c1bc
000001a0: 1adf b73d c7a3 ed3d a34d dbbd 5c6f f7bc
000001b0: 6092 023e cf44 d3bd cc65 7e3d 30a1 b83d
000001c0: 7561 9cbc 44d1 2e3e ac5d 8bbd 8d6e 963d
000001d0: 4b1e 23bd 60a3 22be 130b 993d e660 87bd
000001e0: 9df7 3cbb f21b 1f3e 635f a2bd 7a26 83bd
000001f0: e3c6 31be 40c3 01be 6370 e8bd 429b 373d
00000200: 4c87 be3d aed5 e5bc a643 eabd fe58 353c
00000210: b853 ac3d c717 82bd b2ea dfbd 601c c13d
00000220: 2f23 2ebe 8af9 943d b2fd 0c3e 5960 31be
00000230: 9fbd 49bd 3a13 1cbd 5faa 533c f384 31be
00000240: cf41 dabd 69cc d2bd f372 8d3d b55d 7e3d
00000250: 61e1 09be 85bd 443d b662 223c f6e0 863d
00000260: 4542 85bd 32d0 f63d a10b a6bd 3d84 07be
00000270: abbb dd3d 8139 32be 1139 f93d 544c 4dbd
00000280: 0ab8 b2bd 6740 23be 90c6 07bd 7dda 7a3d
00000290: 1362 66bd 5d18 273e 9bcf bd3d 500f 783d
000002a0: 38bb 28be 71ed 7b3b 7dbe 01be 0925 3d3d
000002b0: ba1f 21bd 121a e03d 47fc 21bb d58a 27be
000002c0: b1bd c6bd 67d4 33be a80f 37bd 9b2a ae3d
000002d0: 15f3 13be 6faa f03d 8b8c 32be 6645 58bc
000002e0: 01ef 1b3a bd4f b5bd 1270 1cbe 493b c6bd
000002f0: ba17 13be f937 a4bc dce4 db3c 85d0 27be
00000300: c3b6 b33d c7ea 043e 1949 fb3d e1cd 1cbd
00000310: e896 103e a7a9 663d 783d fdbd ab6a a2bd
00000320: 1aad 1ebe f719 a83d 5c2d 023e 8139 853d
00000330: 519f f1bc 3ec1 0ebe de89 27be cca2 953c
00000340: ce9c b1bc c960 083e 7f95 95bd 77be 0a3e
00000350: 3932 c73d 05f6 e93d 8c82 283d 4beb 093e
00000360: 04b6 b1bd c826 35bd c85d aebd 29b4 663c
00000370: a602 2a3e 2a93 41bd 1d9e 06bd 13e7 dc3d
00000380: c57b 84bd e2cd 2ebd e9aa f8bd ce1a 03be
00000390: 5b95 103d 53d0 0d3e 76bc 0e3e 8b98 cfbd
000003a0: 4854 b53d 126a e0bd d3e3 31be bb47 08bb
000003b0: 3cfc 1a3e 45d1 a8bc ed23 16be 5f4c 73bd
000003c0: 5587 893d 673f 093e bbc9 32be afa8 373d
000003d0: c7b5 743d 7b97 093d fa08 31be 2758 7cbd
000003e0: 3193 05bd d3dd c6bd 62cb 07be a4f8 033d
000003f0: c909 85bc 6023 32bc 3819 00be aff7 0f3e

row_embedding.3.bias f4 [32]
0.10827766 -0.052237615 -0.060166452 -0.04083353 0.016848302 -0.12979893 0.10824732 0.1421099
-0.06585449 0.101560555 0.13354932 0.09853736 -0.019543404 0.043158792 0.10464506 0.10573758
0.095584966 -0.07469671 0.049822483 0.09124554 -0.013032889 0.033130314 0.055285618 0.06520669
0.103645064 0.041354176 0.16442038 -0.05427203 0.0030070979 -0.0088315895 -0.14919949 0.120375775
00000000: aec0 dd3d 1cf7 55bd 1971 76bd 0f41 27bd
00000010: 7305 8a3c 03ea 04be c5b0 dd3d 4285 113e
00000020: b8de 86bd fbfe cf3d 27c1 083e f5cd c93d
00000030: 7d19 a0bc 46c7 303d 2650 d63d f28c d83d
00000040: 0dc2 c33d 97fa 98bd a912 4c3d f1de ba3d
00000050: e687 55bc a7b3 073d 2c73 623d 168b 853d
00000060: dd43 d43d ff62 293d d15d 283e 594c 5ebd
00000070: bb12 453b 5fb2 10bc c0c7 18be 9387 f63d

col_embedding.0.weight f4 [7]
0.9992033 1.0002245 1.000257 1.0003085 0.9994003 0.99942404 0.99991727
00000000: cacb 7f3f 5b07 803f 6c08 803f 1c0a 803f
00000010: b3d8 7f3f 41da 7f3f 94fa 7f3f

col_embedding.0.bias f4 [7]
-7.4406425e-06 -0.00021476511 0.00016922093 -0.00032310508 0.000556681 0.00059252646 0.00048088373
00000000: a2aa f9b6 9232 61b9 e670 3139 6e66 a9b9
00000010: 3bee 113a c753 1b3a 1f1f fc39

col_embedding.1.weight f4 [32, 7]
0.35414302 0.0038472272 -0.0015770469 -0.17584899 0.2749746 -0.36532936 -0.10236195 -0.11623232
-0.25870222 -0.16412467 0.18577193 -0.21341018 0.005116704 -0.23629998 -0.19729863 0.012947779
0.27093247 -0.1770243 0.031654976 0.09002596 0.20952678 0.2846083 0.2818022 -0.10405659
0.059841223 -0.3098915 -0.01858672 0.17643179 0.1472067 0.32036954 0.29617238 -0.17970441
-0.0668502 -0.25208178 -0.36602873 -0.37680963 0.037873745 -0.07173621 0.24185564 -0.22768953
0.16875991 -0.120304175 -0.033347826 0.36332995 0.3725936 0.20457716 0.23054758 0.03649605
0.17321819 0.077598386 -0.12326321 0.18515673 -0.35506892 0.0710283 0.07252848 0.12955333
-0.1090206 -0.17952418 -0.09334838 -0.012329869 -0.2229836 -0.15343562 0.17607863 0.07566041
-0.3255192 -0.054069802 -0.024963249 0.16372763 0.3009551 -0.3777497 0.36470598 0.01781447
0.3628041 -0.12864996 -0.28639343 -0.23856829 -0.23362769 0.3578196 0.13284199 -0.26799256
-0.06508097 -0.17314842 -0.2309575 0.22055133 0.29359338 -0.29861793 0.023673367 0.24801911
0.1622364 -0.0725315 -0.22785166 -0.32569513 -0.20731875 0.01278865 -0.035219207 0.20057172
0.16757624 -0.0077928347 -0.016891237 0.18872434 -0.18802498 0.21434155 0.3200487 0.22412173
0.0871211 0.045810804 -0.027615467 0.19852991 0.25767946 -0.02787284 0.12706028 -0.28397673
0.18802688 0.2741337 -0.00076857477 -0.15327422 -0.092697926 -0.1223055 -0.34191015 0.326873
-0.011887958 -0.31925446 0.25783366 0.31828582 0.3125593 -0.22975403 -0.25650936 0.07769309
0.06977318 -0.22042489 0.06652936 0.25333124 -0.27669793 0.36988214 -0.35002646 -0.083624214
-0.056618813 0.08642619 -0.012465339 0.25279796 0.069543764 -0.16168767 -0.37336096 -0.29330334
0.20498267 0.15642096 0.20177901 -0.042976778 0.10830731 -0.32129878 0.010865556 -0.15605219
-0.25293916 -0.09003008 0.2263528 0.23033409 0.05718897 -0.06418218 -0.17462853 -0.015298318
-0.045250617 0.22623315 0.113814406 -0.2874294 -0.32128638 0.12460789 0.027315332 0.13640909
-0.16834326 0.16114154 -0.30643335 0.08612802 -0.25653943 -0.29801086 -0.078967355 0.2727611
-0.25974393 -0.26764882 0.18559179 -0.35307047 -0.00910432 -0.26494655 0.26976377 -0.057283893
-0.09970907 -0.22934446 0.02390861 0.14312363 0.09766997 0.1967188 0.37165564 0.18443601
0.31324893 0.07646718 -0.23213583 -0.29477292 0.3585659 -0.13702658 0.3269491 0.051754054
-0.13090327 -0.22301002 -0.34933507 0.017627507 0.100461245 -0.005735722 -0.30423272 0.28242254
0.26474777 0.3566441 0.3501411 -0.104400836 -0.19304982 0.17676973 0.009060861 0.14023373
-0.055297017 0.17442934 -0.36573988 0.34522295 0.15883073 0.36272964 0.0053124777 0.23731652
00000000: 3c52 b53e c321 7c3b eab4 ceba c211 34be
00000010: 79c9 8c3e 730c bbbe 24a3 d1bd 360b eebd
00000020: 9e74 84be 4c10 28be ff3a 3e3e 3388 5abe
00000030: 06aa a73b 9ff8 71be a708 4abe ec22 543c
00000040: a9b7 8a3e dc45 35be a6a8 013d 885f b83d
00000050: 308e 563e 2eb8 913e 6148 903e 9f1b d5bd
00000060: 121c 753d 19aa 9ebe 2d43 98bc 89aa 343e
00000070: 5abd 163e 7a07 a43e e8a3 973e 6f04 38be
00000080: c2e8 88bd dd10 81be 1e68 bbbe 31ed c0be
00000090: 8021 1b3d 6fea 92bd 01a9 773e 7227 69be
000000a0: 66cf 2c3e 0962 f6bd bb97 08bd 6206 ba3e
000000b0: 97c4 be3e ad7c 513e aa14 6c3e e27c 153d
000000c0: 1c60 313e e7eb 9e3d 6c71 fcbd ba99 3d3e
000000d0: 98cb b5be 4977 913d d089 943d a1a9 043e
000000e0: 3146 dfbd 30d5 37be 6f2d bfbd 3803 4abc
000000f0: d055 64be 3a1e 1dbe f54d 343e d8f3 9a3d
00000100: 74aa a6be 4c78 5dbd ba7f ccbc 37a8 273e
00000110: c916 9a3e 6968 c1be beba ba3e a7ef 913c
00000120: 76c1 b93e d1bc 03be 29a2 92be 3f4b 74be
00000130: 193c 6fbe 2134 b73e bb07 083e 5236 89be
00000140: 2c49 85bd d24d 31be 1f80 6cbe 35d8 613e
00000150: df51 963e 73e4 98be a6ee c13c b9f8 7d3e
00000160: 4d21 263e 658b 94bd f251 69be 83c1 a6be
00000170: 5e4b 54be 7c87 513c 0442 10bd ac62 4d3e
00000180: 1b99 2b3e 095b ffbb 7e5f 8abc f440 413e
00000190: 9f89 40be 5a7c 5b3e 6cdd a33e 2b80 653e
000001a0: 8c6c b23d 1ca4 3b3d d539 e2bc 6d4b 4b3e
000001b0: 90ee 833e 9555 e4bc 171c 023e 6665 91be
000001c0: 1e8a 403e 415b 8c3e 2e7a 49ba ebf3 1cbe
000001d0: 69d8 bdbd 4e7b fabd d90e afbe e65b a73e
000001e0: b6c5 42bc 5275 a3be c602 843e 5cf6 a23e
000001f0: c607 a03e a444 6bbe 3255 83be 8e1d 9f3d
00000200: 3ee5 8e3d 10b7 61be 8c40 883d a2b4 813e
00000210: 5aab 8dbe 3161 bd3e ab36 b3be 2c43 abbd
00000220: 21e9 67bd 3700 b13d 6c3b 4cbc bc6e 813e
00000230: f66c 8e3d 7491 25be 2b29 bfbe db2b 96be
00000240: fae6 513e d12c 203e 289f 4e3e 6b08 30bd
00000250: 39d0 dd3d 4681 a4be 7205 323c 25cc 1fbe
00000260: 3e81 81be b161 b8bd 07c9 673e b3dc 6b3e
00000270: fb3e 6a3d f271 83bd d2d1 32be cca5 7abc
00000280: b658 39bd aaa9 673e 8717 e93d f229 93be
00000290: a67f a4be 6c32 ff3d 67c4 df3c d3ae 0b3e
000002a0: 2d62 2cbe 4a02 253e d5e4 9cbe e363 b03d
000002b0: 2359 83be e194 98be a3b9 a1bd 58a7 8b3e
000002c0: 28fd 84be 4409 89be c60b 3e3e a7c5 b4be
000002d0: 492a 15bc 13a7 87be 7a1e 8a3e 84a2 6abd
000002e0: 4534 ccbd 46d9 6abe fddb c33c 008f 123e
000002f0: 3107 c83d a770 493e a649 be3e cbdc 3c3e
00000300: 2a62 a03e d39a 9c3d 04b5 6dbe 7aec 96be
00000310: f395 b73e b250 0cbe df65 a73e 0ffc 533d
00000320: 820b 06be bd5c 64be 0cdc b2be 9067 903c
00000330: a0be cd3d b9f2 bbbb 64c4 9bbe b099 903e
00000340: 058d 873e 0e9a b63e b245 b33e 1bd0 d5bd
00000350: daae 45be 2003 353e 0174 143c 6e99 0f3e
00000360: 207f 62bd 9b9d 323e 4242 bbbe 10c1 b03e
00000370: 86a4 223e b3b7 b93e 4b14 ae3b 1a03 733e

col_embedding.1.bias f4 [32]
-0.26403266 -0.17239581 -0.077693254 -0.28626853 -0.30003008 0.2712189 -0.19639136 -0.16079104
-0.04050149 -0.036324684 0.097233675 0.27033073 0.057467278 -0.16887312 0.12675354 -0.37603825
0.35350615 0.005250956 -0.20706487 -0.03979159 -0.024236036 -0.33047983 0.27854338 0.07753429
-0.35357013 0.30549747 -0.27903396 -0.082084045 0.11365597 0.35428292 -0.050028373 0.33550775
00000000: 4a2f 87be 8788 30be a41d 9fbd ca91 92be
00000010: 8b9d 99be 34dd 8a3e d11a 49be 68a6 24be
00000020: e4e4 25bd 31c9 14bd 7322 c73d ca68 8a3e
00000030: cf62 6b3d 13ed 2cbe aecb 013e 1688 c0be
00000040: c2fe b43e 3610 ac3b d008 54be 82fc 22bd
00000050: a78a c6bc a734 a9be 3d9d 8e3e 4cca 9e3d
00000060: 2507 b5be 2a6a 9c3e 8add 8ebe ae1b a8bd
00000070: 76c4 e83d 9264 b53e 8dea 4cbd acc7 ab3e

col_embedding.3.weight f4 [32, 32]
0.13916133 0.12780307 -0.0071202386 -0.13788714 0.07757186 -0.031763576 -0.16711782 0.1363024
0.13646176 0.15258378 0.0947511 0.11119224 -0.14381117 -0.007832403 0.056925733 0.07251586
-0.054760434 -0.033707816 -0.13076371 -0.15729178 0.010174878 0.17230818 -0.119294085 0.16733727
-0.15924017 -0.11740199 -0.13715592 -0.12618299 0.14575186 0.0019926177 -0.044935208 0.17069966
0.0878684 -0.13762496 0.15187614 -0.08787882 0.09487957 0.050493475 0.05742075 -0.048373386
0.16383246 -0.003665555 0.10607742 0.12083944 -0.15316746 -0.030307798 -0.101376615 -0.017774198
-0.14863645 -0.017032268 -0.115204245 -0.06710625 0.09721817 -0.014699746 0.16450779 0.060566094
0.057289347 0.046583716 -0.17565218 0.17047995 -0.006503996 -0.1707041 -0.0055189915 -0.08799904
-0.059562705 -0.044888712 -0.023292644 -0.105734475 -0.1028965 0.062168088 0.15649141 0.17507586
-0.08200747 -0.1583669 -0.035141986 -0.015112237 -0.15590267 -0.13172616 -0.01129721 0.06953386
0.001134821 -0.05266042 -0.024563182 0.16085584 0.0748151 -0.09934332 0.104879655 0.11953643
-0.09682463 -0.034218732 0.109637395 0.0041465256 0.028254779 -0.040305085 -0.04185064 0.08384996
0.10695502 -0.0443443 -0.021577552 0.026479116 0.07903252 -0.1713172 -0.07040805 0.10517881
0.15508728 -0.16901383 0.04123386 -0.04660364 0.06520426 -0.010713437 -0.07695748 -0.14548105
-0.050308965 0.036928818 -0.049687 0.007935908 0.06161269 0.115155324 0.120594546 0.06389462
0.11302994 -0.1517012 0.1198013 -0.023530612 0.12061603 0.1366824 0.1410875 0.06650371
0.105947584 0.06023832 0.03179288 -0.089029 0.009493064 0.14191467 -0.03594375 -0.028544657
0.13313507 0.09905782 -0.08168321 -0.16234396 0.017560756 -0.1343692 -0.13137294 0.14342956
0.1030183 -0.16459344 -0.0919606 0.095717885 -0.13070372 0.07338082 0.031122094 -0.1222604
0.006577711 0.05897111 0.16982822 0.10533832 0.025675554 -0.07000675 -0.16001171 0.02304852
0.026380913 0.068944596 -0.05682541 -0.1326461 0.1119836 0.09199872 -0.054719985 0.13216414
0.15157089 0.10445991 -0.09115122 -0.11695503 -0.100993715 0.14380021 -0.11536284 0.050448332
-0.04641341 -0.10186143 0.13773213 0.043301124 -0.075448886 -0.04755294 0.12539549 -0.018495407
0.049552217 -0.13798063 -0.067762144 -0.047637813 0.1463075 -0.1599465 0.087569304 0.010739531
0.046841953 -0.061368044 0.11676467 -0.00073045614 -0.11245034 -0.01602591 0.079314955 0.12113649
0.17193173 0.16156721 -0.028763546 -0.094702564 0.021105 -0.16081877 0.12492884 0.0049354844
0.17246932 -0.07236694 0.100208715 0.15647906 -0.027451616 0.10137145 -0.11548928 0.15883483
0.04256303 0.14173293 0.022508502 -0.014207394 0.048151333 0.120674476 0.11567211 -0.121250205
-0.121102035 0.085456125 0.16575062 0.14644569 -0.10400971 0.022306146 -0.01712166 -0.15232849
0.14126217 0.16312507 0.044068113 -0.111040674 -0.017951682 0.122466706 -0.0990574 -0.0472943
-0.08836915 0.008541185 -0.07779491 -0.029238984 -0.050074164 0.10579055 -0.08777675 0.047588848
0.13971008 0.14302836 -0.15317631 -0.055380613 -0.09531991 -0.13824935 0.05608736 0.119959615
00000000: 4f80 0e3e cfde 023e e450 e9bb 4932 0dbe
00000010: ffdd 9e3d 861a 02bd ef20 2bbe db92 0b3e
00000020: a2bc 0b3e ec3e 1c3e dd0c c23d c2b8 e33d
00000030: 3c43 13be 7b53 00bc f52a 693d 3283 943d
00000040: 7a4c 60bd 3511 0abd ece6 05be 1911 21be
00000050: 88b4 263c 8e71 303e 7550 f4bd 765a 2b3e
00000060: db0f 23be 7470 f0bd 9a72 0cbe 1d36 01be
00000070: fa3f 153e 9496 023b fb0d 38bd e4cb 2e3e
00000080: 59f4 b33d 8fed 0cbe 6b85 1b3e d0f9 b3bd
00000090: 3850 c23d 3fd2 4e3d 0532 6b3d 2c23 46bd
000000a0: b2c3 273e cf39 70bb 1e3f d93d ab7a f73d
000000b0: eed7 1cbe 0f48 f8bc 8b9e cfbd 329b 91bc
000000c0: 2734 18be 4187 8bbc 34f0 ebbd 006f 89bd
000000d0: 521a c73d 34d7 70bc bb74 283e 2714 783d
000000e0: 3ca8 6a3d 91ce 3e3d 2ade 33be 4c92 2e3e
000000f0: 791f d5bb 0ecd 2ebe a8d8 b4bb d738 b4bd
00000100: 06f8 73bd 3add 37bd 37d0 bebc 518b d8bd
00000110: 66bb d2bd f7a3 7e3d 493f 203e 1647 333e
00000120: 88f3 a7bd ef2a 22be 0bf1 0fbd 5199 77bc
00000130: f3a4 1fbe 39e3 06be ef17 39bc c567 8e3d
00000140: 46be 943a 74b2 57bd ba38 c9bc 65b7 243e
00000150: a938 993d 8374 cbbd 25cb d63d 84cf f43d
00000160: fe4b c6bd f128 0cbd 9289 e03d 94df 873b
00000170: 9176 e73c f216 25bd 946b 2bbd 87b9 ab3d
00000180: 3c0b db3d 5ea2 35bd 68c3 b0bc bbea d83c
00000190: cddb a13d c76d 2fbe 1932 90bd fd67 d73d
000001a0: 33cf 1e3e f611 2dbe d6e4 283d 75e3 3ebd
000001b0: d089 853d 6987 2fbc e29b 9dbd fcf8 14be
000001c0: c610 4ebd ac42 173d 9984 4bbd 9c05 023c
000001d0: 975d 7c3d 8ed6 eb3d 46fa f63d 2fdb 823d
000001e0: 3e7c e73d 8f57 1bbe 625a f53d 45c3 c0bc
000001f0: 8a05 f73d 79f6 0b3e 3e79 103e 1933 883d
00000200: 0cfb d83d 75bc 763d 4039 023d d654 b6bd
00000210: cc88 1b3c 1452 113e c139 13bd 7cd6 e9bc
00000220: 8f54 083e d4de ca3d 8749 a7bd 7f3d 26be
00000230: 93db 8f3c 1498 09be a186 06be 33df 123e
00000240: 42fb d23d 2f8b 28be d755 bcbd bd07 c43d
00000250: 32d7 05be af48 963d c3f3 fe3c a963 fabd
00000260: d789 d73b b18b 713d 73e7 2d3e 9ebb d73d
00000270: 8a55 d23c b35f 8fbd 1cda 23be 40d0 bc3c
00000280: c91c d83c d332 8d3d c3c1 68bd 61d4 07be
00000290: a857 e53d d369 bc3d 1022 60bd 0956 073e
000002a0: 6635 1b3e 14ef d53d 7ead babd 1e86 efbd
000002b0: cbd5 cebd 5d40 133e 5a43 ecbd e9a2 4e3d
000002c0: fd1b 3ebd ba9c d0bd a709 0d3e 855c 313d
000002d0: f284 9abd dfc6 42bd ad67 003e ae83 97bc
000002e0: 44f7 4a3d cb4a 0dbe e1c6 8abd de1f 43bd
000002f0: a2d1 153e 04c9 23be 8957 b33d dcf4 2f3c
00000300: 59dd 3f3d 0f5d 7bbd 5122 ef3d 157c 3fba
00000310: 5d4c e6bd c548 83bc e16f a23d 6816 f83d
00000320: df0e 303e e071 253e 87a1 ebbc 6bf3 c1bd
00000330: 65e4 ac3c adad 24be b1da ff3d d8b9 a13b
00000340: cc9b 303e 1e35 94bd 3a3a cd3d 0c3c 203e
00000350: 36e2 e0bc d69b cf3d a585 ecbd 99a5 223e
00000360: 9256 2e3d 7022 113e c063 b83c 21c6 68bc
00000370: 553a 453d 2e24 f73d 80e5 ec3d 0752 f8bd
00000380: 5804 f8bd 9f03 af3d 88ba 293e dcf5 153e
00000390: 0b03 d5bd 61bb b63c b942 8cbc 00fc 1bbe
000003a0: 08a7 103e 420a 273e c480 343d 4b69 e3bd
000003b0: 680f 93bc d3cf fa3d 9bde cabd abb7 41bd
000003c0: e3fa b4bd 54f0 0b3c f052 9fbd 9886 efbc
000003d0: 911a 4dbd b7a8 d83d 4cc4 b3bd 86ec 423d
000003e0: 2910 0f3e 0776 123e 40da 1cbe c8d6 62bd
000003f0: 1637 c3bd 3d91 0dbe dcbb 653d 63ad f53d

col_embedding.3.bias f4 [32]
-0.046086114 0.15142842 -0.09765655 0.12008531 -0.023534048 0.1528524 0.104634956 0.029544158
0.14312021 0.14170794 0.13260782 0.1326849 -0.080273435 0.15814617 0.067608684 -0.020679224
-0.092918105 -0.08385119 0.115545124 0.14456557 0.09121266 0.0986774 -0.12348259 0.15146196
0.13864115 -0.06552726 0.13588572 0.09185127 0.09219535 0.029153492 -0.08964086 0.07564856
00000000: cbc4 3cbd 0d10 1b3e 2800 c8bd 49ef f53d
00000010: 7aca c0bc 5785 1c3e da4a d63d 9706 f23c
00000020: 1b8e 123e e31b 113e 58ca 073e 8dde 073e
00000030: 6666 a4bd 12f1 213e 6c76 8a3d 7a67 a9bc
00000040: d94b bebd 2cba abbd eca2 ec3d ff08 143e
00000050: b4cd ba3d 6017 ca3d 71e4 fcbd d818 1b3e
00000060: f2f7 0d3e 2833 86bd a025 0b3e 851c bc3d
00000070: ead0 bc3d 4ed3 ee3c a195 b7bd a2ed 9a3d

conv_col_to_row.feature_module_left.0.weight f4 [32, 32]
0.024739008 -0.15119141 -0.0037723836 0.037717555 -0.03199485 -0.11693007 0.013453535 -0.059747797
0.15371533 0.007697869 -0.023573602 0.13251342 0.0020124754 -0.05295166 -0.019630736 -0.008755423
-0.010469583 -0.14119135 0.13198443 0.026052084 -0.08897558 -0.10707033 0.07562171 0.07937773
0.09784255 -0.10545947 -0.16058074 -0.13353483 0.12724315 -0.047471534 -0.05278098 -0.09909517
0.13133173 0.07176898 0.10606792 -0.096665375 -0.030825676 0.15994956 -0.01965775 -0.17026792
-0.08611423 0.0038897076 0.11974344 0.030897183 0.039338797 -0.12042987 0.029634146 0.014737983
0.12644628 -0.13253571 0.030157786 -0.10134816 -0.04211617 0.09299151 -0.17258264 0.108206674
-0.15869372 0.036094774 0.080203556 0.10317578 -0.09404428 -0.11173713 0.096477814 -0.01512363
0.1144659 -0.10804899 0.027707648 0.07010309 0.024274116 0.12799393 -0.1273812 0.1699789
-0.11337738 -0.10785638 0.13043337 0.021168003 -0.16916814 -0.16439557 -0.079620056 0.1663031
0.040801547 -0.13228427 0.16856793 0.071968205 -0.06792492 -0.026302239 -0.045702122 0.1758912
0.0058754967 0.052987687 -0.14053662 0.021490218 -0.06488229 0.069917165 0.026137933 -0.010735088
-0.04944656 -0.06083379 0.013855954 0.011102687 -0.013465627 0.05118684 -0.014820548 -0.06679564
0.14325346 -0.09625672 -0.122046255 0.15190902 0.0275586 -0.030624492 -0.09460336 -0.032477636
-0.1325186 0.037935942 0.019452216 0.07843881 -0.026864953 -0.16572425 0.13938911 -0.16109182
-0.11383291 -0.004975509 -0.10090531 -0.09517912 0.12370002 -0.16874677 -0.02171035 0.09055063
-0.14931916 0.07825342 0.16201524 0.0043510376 0.09510184 -0.11192253 0.13482343 -0.15470311
0.06579304 0.100595556 -0.08221867 -0.10224595 0.040273335 0.16526382 -0.07725944 0.1304296
-0.08087793 -0.008333143 0.13052559 -0.14258328 -0.170199 -0.029424848 0.036513995 0.023035983
-0.17471507 -0.080074616 0.041239534 -0.028784698 -0.15177903 0.057503067 0.046921045 -0.096388884
0.0072589684 -0.13739838 0.1594151 0.08310352 0.013490091 0.08183377 0.0561672 0.119666286
-0.13949037 -0.033677954 0.06913255 -0.14775886 -0.035596624 -0.060667656 0.022878649 -0.12558308
0.16727193 -0.12815928 -0.06799067 -0.09838317 0.1253082 0.12015954 0.058428552 0.121628225
0.1591786 -0.0068801483 -0.098691 0.14138146 0.064136684 -0.13162875 0.0029659197 0.17273507
-0.05194513 -0.15490499 0.16187206 0.023811528 0.06824583 -0.16349974 0.14411175 -0.11713412
0.023970999 0.083669044 0.011809148 -0.17237495 0.02890803 -0.08147461 0.041503683 0.07712448
0.023578504 -0.026449867 -0.054173954 0.1173236 -0.067133255 0.05438795 -0.106934406 -0.07183796
0.0243249 -0.13991217 0.049468964 -0.051433142 0.16412881 0.0068073766 -0.14891414 0.123442635
-0.12549464 0.0099223945 -0.007876107 -0.125587 0.14395486 -0.10075847 0.026013419 0.1431417
0.1327877 -0.15543702 0.14514707 -0.07593403 -0.0032603373 -0.097474 0.013745413 0.09960592
-0.13125902 -0.0019314514 0.17540471 0.11081119 -0.04710755 -0.14585194 -0.00055630464 -0.06445459
0.09432084 0.11576869 -0.11570154 -0.00071091513 0.124907434 0.0767772 -0.14393443 -0.14713672
00000000: 76a9 ca3c ecd1 1abe 183a 77bb b97d 1a3d
00000010: 080d 03bd 0879 efbd 376c 5c3c 1bba 74bd
00000020: 8d67 1d3e 683e fc3b 6d1d c1bc 99b1 073e
00000030: bce3 033b d7e3 58bd a3d0 a0bc e872 0fbc
00000040: 9d88 2bbc 7794 10be ed26 073e 2e6b d53c
00000050: d438 b6bd b047 dbbd 8edf 9a3d cb90 a23d
00000060: ad61 c83d 22fb d7bd 476f 24be 5bbd 08be
00000070: 074c 023e 8371 42bd de30 58bd 69f2 cabd
00000080: d37b 063e 9dfb 923d 233a d93d 7ff8 c5bd
00000090: 2186 fcbc d1c9 233e 4a09 a1bc b75a 2ebe
000000a0: a85c b0bd 77ea 7e3b 0c3c f53d 171c fd3c
000000b0: b821 213d f0a3 f6bd 4fc3 f23c 9577 713c
000000c0: 227b 013e 71b7 07be 760d f73c a08f cfbd
000000d0: 0182 2cbd 5572 be3d 81b9 30be 769b dd3d
000000e0: 9b80 22be 1dd8 133d c341 a43d d34d d33d
000000f0: 4a9a c0bd 70d6 e4bd 2996 c53d 1ac9 77bc
00000100: 196d ea3d ca48 ddbd 26fb e23c 3592 8f3d
00000110: 83da c63c d710 033e 3870 02be f30e 2e3e
00000120: 6632 e8bd cee3 dcbd 5390 053e 8568 ad3c
00000130: 6a3a 2dbe 5057 28be d70f a3bd 5c4b 2a3e
00000140: 861f 273d 8775 07be 129d 2c3e 1164 933d
00000150: 381c 8bbd cb77 d7bc 2632 3bbd d31c 343e
00000160: 3d87 c03b 9e09 593d d5e8 0fbe 410c b03c
00000170: 02e1 84bd bb30 8f3d 381f d63c 39e2 2fbc
00000180: 7a88 4abd da2c 79bd 1504 633c 0be8 353c
00000190: ef9e 5cbc 4ba9 513d e2d1 72bc 27cc 88bd
000001a0: 09b1 123e 3e22 c5bd 63f3 f9bd 0a8e 1b3e
000001b0: 93c2 e13c 37e0 fabc 68bf c1bd 4507 05bd
000001c0: f5b2 07be b862 1b3d 415a 9f3c 87a4 a03d
000001d0: e413 dcbc 9eb3 29be 05bc 0e3e 41f5 24be
000001e0: 3b21 e9bd 9809 a3bb 71a7 cebd 45ed c2bd
000001f0: 7056 fd3d f4cb 2cbe e7d9 b1bc 9c72 b93d
00000200: 1fe7 18be 5443 a03d 53e7 253e 2693 8e3b
00000210: c1c4 c23d a437 e5bd 270f 0a3e 7e6a 1ebe
00000220: 80be 863d 0b05 ce3d 4362 a8bd 5366 d1bd
00000230: a7f5 243d eb3a 293e 333a 9ebd 568f 053e
00000240: 54a3 a5bd bc87 08bc 80a8 053e 5a01 12be
00000250: a648 2ebe 610c f1bc b38f 153d f5b5 bc3c
00000260: 82e8 32be 29fe a3bd c9ea 283d e3cd ebbc
00000270: f66b 1bbe 5688 6b3d 4830 403d 8967 c5bd
00000280: a4dc ed3b 29b2 0cbe b63d 233e 2e32 aa3d
00000290: 8b05 5d3c 7798 a73d 940f 663d 9913 f53d
000002a0: 90d6 0ebe e5f1 09bd 5e95 8d3d 194e 17be
000002b0: c4cd 11bd a67e 78bd 016c bb3c da98 00be
000002c0: 5549 2b3e 303c 03be b13e 8bbd 1e7d c9bd
000002d0: cb50 003e 3416 f63d c752 6f3d 3818 f93d
000002e0: b7ff 223e de72 e1bb 821e cabd 4dc6 103e
000002f0: 185a 833d b0c9 06be e05f 423b 76e1 303e
00000300: 6bc4 54bd 6a9f 1ebe cac1 253e 6510 c33c
00000310: 78c4 8b3d 7a6c 27be 0892 133e 03e4 efbd
00000320: d45e c43c ad5a ab3d 287b 413c 0f83 30be
00000330: 88d0 ec3c 29dc a6bd c4ff 293d 70f3 9d3d
00000340: b527 c13c 64ad d8bc 82e5 5dbd 5b47 f03d
00000350: 297d 89bd e6c5 5e3d 6d00 dbbd c81f 93bd
00000360: 0345 c73c 2345 0fbe f89f 4a3d 8fab 52bd
00000370: 6211 283e 6a10 df3b f37c 18be 7ecf fc3d
00000380: ab81 00be 8a91 223c c90a 01bc e199 00be
00000390: e768 133e 755a cebd 181a d53c bd93 123e
000003a0: 80f9 073e e22a 1fbe 6fa1 143e 4d83 9bbd
000003b0: 62ab 55bb 73a0 c7bd 7134 613c 30fe cb3d
000003c0: c468 06be c128 fdba 4b9d 333e faf0 e23d
000003d0: d9f3 40bd 365a 15be f9d4 11ba c500 84bd
000003e0: 492b c13d 2318 ed3d eef4 ecbd b55c 3aba
000003f0: 78cf ff3d 5d3d 9d3d 8c63 13be 02ab 16be

conv_col_to_row.feature_module_left.0.bias f4 [32]
0.10824649 0.12936465 -0.10872989 0.067068055 -0.019416595 0.112749025 -0.088085935 0.17451788
-0.05906989 -0.14571837 -0.10799237 -0.15151522 0.036995903 0.070930906 -0.16349185 -0.15109797
0.08704868 0.1302523 0.025716279 0.036380645 0.044584762 0.08614882 0.161749 -0.08758831
0.0884486 -0.052539837 0.123989 -0.17004941 -0.101475626 -0.06673753 -0.056507807 -0.167464
00000000: 56b0 dd3d 2b78 043e c7ad debd fa5a 893d
00000010: 8d0f 9fbc f6e8 e63d 6666 b4bd d1b4 323e
00000020: 45f3 71bd 3237 15be 1b2b ddbd ce26 1bbe
00000030: 0489 173d 3944 913d 686a 27be 6db9 1abe
00000040: 9446 b23d dc60 053e f2aa d23c df03 153d
00000050: 839e 363d cb6e b03d 88a1 253e 8061 b3bd
00000060: 8a24 b53d 0334 57bd f2ed fd3d 6f21 2ebe
00000070: 74d2 cfbd b0ad 88bd bb74 67bd af7b 2bbe

conv_col_to_row.feature_module_edge.0.weight f4 [32, 1]
0.5465962 0.61029464 0.09480629 0.33557937 0.08629441 0.45517138 -0.7328865 -0.32959494
-0.5080833 0.2071476 -0.9116957 -0.83893204 -0.8273671 0.13349923 -0.5314465 0.089672066
-0.06347934 -0.14504196 0.69291806 0.6547391 -0.7324337 0.009510319 -0.8160802 -0.6876428
0.6809913 0.40850225 -0.6638656 0.6531836 -0.1532776 0.14847223 -0.26373944 0.9221487
00000000: bbed 0b3f 453c 1c3f cd29 c23d 0fd1 ab3e
00000010: 20bb b03d 390c e93e 739e 3bbf abc0 a8be
00000020: bf11 02bf 801e 543e e464 69bf 40c4 56bf
00000030: 55ce 53bf 06b4 083e e10c 08bf fda5 b73d
00000040: 7501 82bd e185 14be 1463 313f fb9c 273f
00000050: c680 3bbf 2bd1 1b3c a2ea 50bf 5c09 30bf
00000060: 7255 2e3f 3527 d13e 19f3 29bf 0a37 273f
00000070: cef4 1cbe 1b09 183e db08 87be f011 6c3f

conv_col_to_row.feature_module_right.0.weight f4 [32, 32]
-0.059888583 0.08081512 -0.09858815 0.11968262 -0.08373628 -0.11544476 -0.014293622 0.03042701
0.0040981183 -0.10705879 -0.0912512 0.06257981 -0.10417191 0.0009938206 0.07597082 0.014642339
0.17432503 0.16493133 0.023269484 0.13453263 -0.16597357 0.039494608 0.17329922 -0.05780152
0.070210114 0.03954605 0.13870122 -0.10136108 -0.11499558 0.006517839 -0.114576794 0.15000731
0.1564926 0.09307817 -0.017525405 0.17703013 -0.15366454 0.175856 -0.07664557 0.14849116
-0.107425764 -0.09448602 -0.10616425 0.09008325 0.03503451 0.10289507 0.005620711 -0.057421394
0.1386086 -0.14004132 0.076001965 -0.15136813 0.16573018 0.012383297 -0.05886556 0.13825302
-0.14864835 -0.098485865 -0.14146762 -0.0561168 -0.07490315 0.096944295 -0.14786409 0.0050109304
0.13904317 -0.03796395 -0.059800945 -0.07897149 0.089810416 0.113924265 -0.13255389 -0.024323218
-0.15043202 -0.0529958 0.02103724 0.024957903 0.12738596 0.12015783 0.051692046 -0.16141924
-0.04590761 0.17630902 -0.05601596 0.044311788 0.027516646 0.09821475 -0.089981414 -0.09932799
-0.044801895 0.11627582 -0.16114402 -0.026291456 0.103840694 0.1378297 0.036016125 -0.086728066
0.04103255 -0.1322096 -0.17126752 0.13527566 -0.17507435 -0.13038671 0.16531703 0.06416387
-0.10610971 -0.12635241 -0.14999382 -0.031596404 -0.10644711 0.083148904 -0.121445835 -0.06787782
-0.051771548 0.055500533 -0.017890409 -0.031631038 -0.07861157 -0.16878816 0.17076539 0.14372164
0.062196795 -0.011883262 0.12820327 -0.046231642 0.00649588 0.11018288 -0.10829642 0.11460097
-0.084784344 -0.13367258 0.17235664 -0.0718307 -0.07297107 -0.05778369 0.031182656 -0.015732566
-0.1487095 -0.16184752 0.1056658 0.07468133 0.13501829 -0.16284224 0.018838067 0.14182636
-0.07957176 0.008379981 0.002158724 0.15729941 -0.13763446 -0.033699725 0.06457412 0.0050103334
0.03838049 -0.1091601 -0.14778428 0.15721102 0.013243664 -0.072119646 -0.00360842 0.050136402
0.08000425 0.15373677 -0.1671435 -0.14040627 0.061213136 -0.09269469 0.053509302 0.17170152
-0.070013724 0.15495245 0.0669397 0.10121469 0.1654504 0.17449977 0.11066158 0.09183232
0.064292155 0.14386225 0.16873753 -0.14698997 0.12633999 0.109643444 0.092118785 0.08385218
-0.088684924 0.09080327 0.11171184 0.045248225 0.037834547 -0.12327951 -0.15709114 -0.058650132
0.15293698 0.006658237 0.056470446 0.061298437 -0.0022885862 -0.0028464966 -0.015700797 -0.11395901
0.08360454 -0.096379355 0.05157561 -0.07749477 -0.05174154 0.00029458452 -0.07984073 -0.114632145
-0.13434218 0.058099706 -0.12612201 -0.16938613 -0.10585182 0.006897127 0.008311715 0.0077835065
0.049258456 -0.08341476 0.0976275 0.009692289 0.13631257 0.027920231 0.060481545 -0.12572308
0.13753226 -0.020175835 -0.073840335 0.14744878 -0.05316287 0.110376894 0.009340222 0.003397765
0.14949375 -0.0991396 0.027425066 -0.078867115 0.10939756 0.033270456 0.094886556 0.10694663
-0.056693092 -0.10178088 -0.04569063 0.02131791 -0.0994305 0.1064239 -0.09473962 0.08566157
-0.14953788 -0.088538624 0.026559014 -0.17479162 0.14770944 0.15282618 0.07895589 -0.026240665
00000000: bb4d 75bd 6682 a53d 96e8 c9bd 291c f53d
00000010: ed7d abbd 4d6e ecbd cc2f 6abc 1142 f93c
00000020: 8249 863b a441 dbbd e9e1 babd d829 803d
00000030: 1558 d5bd 1643 823a 9796 9b3d 6ce6 6f3c
00000040: 4382 323e c2e3 283e a59f be3c ecc2 093e
00000050: faf4 29be 19c5 213d 5a75 313e 49c1 6cbd
00000060: 52ca 8f3d 0afb 213d b107 0e3e 6696 cfbd
00000070: cd82 ebbd 9993 d53b 3da7 eabd 849b 193e
00000080: 993f 203e c59f be3d 7091 8fbc 6347 353e
00000090: 3d5a 1dbe 9813 343e 5af8 9cbd 110e 183e
000000a0: 0a02 dcbd e381 c1bd a46c d9bd 917d b83d
000000b0: 5980 0f3d a7ba d23d f12d b83b b232 6bbd
000000c0: 6aef 0d3e fe66 0fbe eba6 9b3d 3f00 1bbe
000000d0: 2cb5 293e 50e3 4a3c 031d 71bd 3392 0d3e
000000e0: 4637 18be f5b2 c9bd e3dc 10be bbda 65bd
000000f0: d366 99bd bb8a c63d af69 17be bb32 a43b
00000100: 5561 0e3e 1680 1bbd d6f1 74bd cebb a1bd
00000110: 86ee b73d 2051 e93d 35bc 07be 7c41 c7bc
00000120: da0a 1abe 2012 59bd 4a56 ac3c 8474 cc3c
00000130: 7771 023e 4f15 f63d 0abb 533d 164b 25be
00000140: 9e09 3cbd 5a8a 343e fe70 65bd 4780 353d
00000150: 976a e13c d124 c93d 2d48 b8bd 796c cbbd
00000160: 3182 37bd 0422 ee3d f002 25be 2e61 d7bc
00000170: 6eaa d43d 3b23 0d3e a585 133d 7c9e b1bd
00000180: bf11 283d f461 07be c160 2fbe b485 0a3e
00000190: b146 33be 1884 05be de48 293e 5968 833d
000001a0: 0c50 d9bd 8762 01be fb97 19be 3b6b 01bd
000001b0: f100 dabd f949 aa3d 98b8 f8bd 8703 8bbd
000001c0: 670e 54bd 8754 633d e88e 92bc 8c8f 01bd
000001d0: 1aff a0bd ced6 2cbe 1fdd 2e3e c42b 133e
000001e0: 11c2 7e3d 03b2 42bc b847 033e 645d 3dbd
000001f0: 64db d43b 90a7 e13d 83ca ddbd eab3 ea3d
00000200: 6aa3 adbd 77e1 08be 427e 303e f91b 93bd
00000210: db71 95bd 97ae 6cbd c572 ff3c 95e1 80bc
00000220: 4e47 18be 5bbb 25be 5067 d83d 86f2 983d
00000230: 3c42 0a3e 1ec0 26be 4a52 9a3c ee3a 113e
00000240: 85f6 a2bd 304c 093c 6179 0d3b 1913 213e
00000250: 0cf0 0cbe b908 0abd 703f 843d b92d a43b
00000260: dc34 1d3d 558f dfbd c354 17be edfb 203e
00000270: f4fb 583c 77b3 93bd 3e7b 6cbb d45b 4d3d
00000280: 45d9 a33d 2c6d 1d3e aa27 2bbe a9c6 0fbe
00000290: a0ba 7a3d b7d6 bdbd 922c 5b3d 86d2 2f3e
000002a0: 5b63 8fbd dbab 1e3e ae17 893d a649 cf3d
000002b0: d46b 293e 11b0 323e 8aa2 e23d 9512 bc3d
000002c0: 9bab 833d a050 133e 88c9 2c3e 8a84 16be
000002d0: 455f 013e be8c e03d c6a8 bc3d b1ba ab3d
000002e0: 71a0 b5bd 11f7 b93d 2dc9 e43d 3456 393d
000002f0: 66f8 1a3d f879 fcbd 80dc 20be 1f3b 70bd
00000300: 839b 1c3e 572d da3b 8e4d 673d 1214 7b3d
00000310: 1bfc 15bb 4a8c 3abb f59e 80bc 5763 e9bd
00000320: db38 ab3d 8a62 c5bd f240 533d 94b5 9ebd
00000330: f0ee 53bd 7772 9a39 8983 a3bd 42c4 eabd
00000340: ff90 09be f5f9 6d3d 2126 01be 8f73 2dbe
00000350: d7c8 d8bd 4b01 e23b dc2d 083c c90c ff3b
00000360: 3cc3 493d 5cd5 aabd edf0 c73d 68cc 1e3c
00000370: 8695 0b3e f8b8 e43c 7fbb 773d 8dbd 00be
00000380: 42d5 0c3e cb47 a5bc 9a39 97bd d0fc 163e
00000390: 4fc1 59bd 480d e23d bb07 193c 0aad 5e3b
000003a0: e414 193e b409 cbbd 88aa e03c 1585 a1bd
000003b0: d40b e03d 9a46 083d e253 c23d d606 db3d
000003c0: 0437 68bd 7e72 d0bd 1926 3bbd e6a2 ae3c
000003d0: 38a2 cbbd c6f4 d93d d906 c2bd 556f af3d
000003e0: 7520 19be bd53 b5bd 4a92 d93c 93fc 32be
000003f0: 2541 173e 777e 1c3e a0b3 a13d aaf6 d6bc

conv_col_to_row.feature_module_final.0.weight f4 [32]
0.9993441 0.9999759 1.0 1.0004687 1.0 1.0002183 1.000023 0.9996891
0.9996032 1.0014035 0.99966794 0.99966085 1.0006742 0.9994123 0.99985677 0.99971265
0.9993919 1.0000205 1.0000203 1.0003111 1.0001001 1.0000616 1.0001603 0.99982315
1.0003772 1.000287 1.0006257 1.0 1.0 0.9995535 1.0 1.0
00000000: 04d5 7f3f 6cfe 7f3f 0000 803f 5c0f 803f
00000010: 0000 803f 2707 803f c100 803f a0eb 7f3f
00000020: ffe5 7f3f fd2d 803f 3dea 7f3f c6e9 7f3f
00000030: 1816 803f 7cd9 7f3f 9df6 7f3f 2bed 7f3f
00000040: 26d8 7f3f ac00 803f aa00 803f 320a 803f
00000050: 4803 803f 0502 803f 4105 803f 69f4 7f3f
00000060: 5c0c 803f 6809 803f 8114 803f 0000 803f
00000070: 0000 803f bde2 7f3f 0000 803f 0000 803f

conv_col_to_row.feature_module_final.0.bias f4 [32]
-0.00046615355 0.00015932498 0.0 0.00046355458 0.0 0.00023633911 -0.00018453086 -0.00028307282
-0.00034764124 0.0012761432 -0.0003225426 -0.00032558443 0.0005661681 -0.0005680734 4.8172795e-05 -0.0001121119
-0.00068325846 3.140646e-05 0.00015395352 0.00048166493 7.316165e-05 1.2405729e-05 0.00026284505 -0.0001697026
0.0006612066 0.00024223364 0.00065342407 0.0 0.0 -0.0004985761 0.0 0.0
00000000: 1266 f4b9 7910 2739 0000 0000 3e09 f339
00000010: 0000 0000 ccd1 7739 a07e 41b9 6469 94b9
00000020: 9e43 b6b9 4344 a73a ef1a a9b9 34b3 aab9
00000030: e66a 143a c3ea 14ba 250d 4a38 9e1d ebb8
00000040: b31c 33ba 6eba 0338 956e 2139 f987 fc39
00000050: 5d6e 9938 3322 5037 77ce 8939 32f2 31b9
00000060: d354 2d3a 1900 7e39 8c4a 2b3a 0000 0000
00000070: 0000 0000 e0b2 02ba 0000 0000 0000 0000

conv_col_to_row.feature_module_final.2.weight f4 [32, 32]
-0.015959388 0.04626887 -0.11127706 0.060014326 -0.06373465 0.073830746 0.024075484 0.07333379
-0.14901538 -0.15906325 -0.07292458 -0.07981917 0.1276394 0.13122696 -0.041882336 0.061645277
-0.1593913 -0.014399493 0.10737478 -0.0905894 0.17010675 -0.04908019 0.12808631 0.09624183
0.06344432 -0.101329416 0.10127375 -0.101569265 0.03590351 -0.13634814 -0.020012967 0.044545975
-0.14174962 -0.17071521 -0.015672306 0.026028547 0.07167183 0.12973541 -0.009680817 -0.08989963
-0.062489267 0.114653826 -0.11769055 -0.024601376 -0.04838307 0.034081552 0.094989 0.17180987
-0.049655892 0.1480668 -0.05219398 0.16728318 -0.16041254 0.13436174 0.12046551 -0.073750876
0.14518112 -0.07777095 0.09897446 0.035133295 -0.06753847 -0.117889225 0.019978976 0.0917013
-0.17215262 -0.08527246 -0.121474676 0.0655987 -0.023455016 -0.06157829 0.13704944 0.035674028
0.12268384 -0.13406551 0.12444186 -0.049778324 0.014416675 -0.052424114 -0.15873377 -0.12663586
0.09531191 0.007192768 -0.17320523 -0.059911024 -0.10632993 0.061007034 0.12972586 0.09532819
-0.17172562 0.044350542 0.019060329 0.10203353 -0.03152778 0.13176909 -0.043918703 0.00791168
0.11514226 0.015459028 -0.14947978 -0.03911821 -0.09781843 -0.023502335 -0.06943159 0.09103759
0.16817945 0.10739165 0.1303893 -0.040443633 -0.14148614 -0.016893342 -0.02471268 0.10833762
0.13758005 0.15089609 -0.076755166 -0.065057814 0.062256794 -0.013331058 0.08482779 -0.15514563
0.11536905 0.06645614 -0.01312898 0.00476487 0.08255697 -0.16042466 0.0367138 0.0066200052
0.03114379 -0.10561791 0.15925448 0.1364602 0.04933952 -0.1640242 -0.06996359 -0.040556196
-0.07168577 0.15258391 0.1499162 0.14204317 0.10127101 0.07308228 0.1116893 -0.095137864
-0.02699686 0.08911613 0.023689095 0.102987796 0.06762343 -0.101177365 -0.13917556 -0.081938684
0.110115185 -0.09137562 -0.046808988 -0.11170071 0.022027038 0.10357994 -0.03889861 -0.084650576
0.10049923 -0.05446345 0.0033183477 -0.10356744 0.05207694 -0.11989001 0.15637966 -0.010505806
0.039936755 -0.14145768 0.02335281 0.15813206 -0.14809652 0.12083435 -0.08550963 -0.08725305
0.04015871 0.17488053 -0.12585793 0.053201534 0.1620359 -0.0130521 -0.11423934 -0.074163735
0.010080287 -0.06215244 -0.08875624 -0.14715016 0.16183513 -0.15968086 0.1507432 0.036157697
-0.11874401 0.06080712 0.08522481 0.1368872 -0.04886063 0.08181265 -0.087357245 -0.029873308
-0.14548406 0.0018461132 -0.17610922 -0.15089622 -0.13434601 -0.13554882 0.11650786 -0.012050962
-0.049036026 -0.1650862 0.1729525 -0.12041126 0.0023909204 0.066468775 -0.15807904 0.0063195303
0.018684186 0.09089843 0.06481216 0.13408554 -0.15047811 -0.051831212 0.057341672 -0.12612367
-0.079328425 0.14858957 0.019418191 0.021988668 0.052995216 -0.1310921 -0.16852269 0.12879643
0.13485312 0.112957366 0.16070056 0.117366806 -0.07391179 -0.12038104 0.034833673 0.1310983
0.14548181 0.08852611 0.027428972 0.10052202 -0.049173683 0.10103924 0.029437494 0.027204009
-0.10762112 -0.13269614 0.174035 0.12593839 0.06632287 -0.020362427 -0.15697339 0.16508745
00000000: 43bd 82bc 6d84 3d3d 3ae5 e3bd 95d1 753d
00000010: 5087 82bd 9334 973d f339 c53c 0730 963d
00000020: 7d97 18be 7ae1 22be 7b59 95bd 3c78 a3bd
00000030: e7b3 023e 5c60 063e d08c 2bbd c27f 7c3d
00000040: 7937 23be daeb 6bbc 4fe7 db3d ef86 b9bd
00000050: 7730 2e3e 4f08 49bd 0f29 033e 701a c53d
00000060: 18ef 813d cc85 cfbd 9d68 cf3d 8c03 d0bd
00000070: 8f0f 133d d99e 0bbe 3cf2 a3bc d775 363d
00000080: d026 11be f8cf 2ebe 3563 80bc d239 d53c
00000090: aec8 923d 5cd9 043e 4a9c 1ebc 4c1d b8bd
000000a0: bff4 7fbd a0cf ea3d be07 f1bd d388 c9bc
000000b0: 532d 46bd 1999 0b3d 9889 c23d edee 2f3e
000000c0: fa63 4bbd d39e 173e 5bc9 55bd 484c 2b3e
000000d0: 2f43 24be 2096 093e 9fb6 f63d b30a 97bd
000000e0: 5caa 143e 6046 9fbd 1fb3 ca3d eee7 0f3d
000000f0: 9c51 8abd e86f f1bd f3aa a33c e4cd bb3d
00000100: c748 30be 54a3 aebd b7c7 f8bd 9c58 863d
00000110: bc24 c0bc 8439 7cbd b056 0c3e ee1e 123d
00000120: aa41 fb3d 7848 09be 60db fe3d 5be4 4bbd
00000130: eb33 6c3c abba 56bd 1b8b 22be d5ac 01be
00000140: e432 c33d 50b1 eb3b b65c 31be 4365 75bd
00000150: 82c3 d9bd 83e2 793d dbd6 043e 6d3b c33d
00000160: d7d8 2fbe eaa8 353d 6824 9c3c f5f6 d03d
00000170: 4623 01bd 7aee 063e 19e4 33bd fe9f 013c
00000180: b5cf eb3d dd47 7d3c 3a11 19be 6b3a 20bd
00000190: 0755 c8bd f887 c0bc 2632 8ebd ea71 ba3d
000001a0: 3c37 2c3e 27f0 db3d c684 053e 39a8 25bd
000001b0: bee1 10be e863 8abc 3f72 cabc 1de0 dd3d
000001c0: c9e1 0c3e 8184 1a3e d031 9dbd 083d 85bd
000001d0: fb00 7f3d 836a 5abc 31ba ad3d 7fde 1ebe
000001e0: 9c46 ec3d 281a 883d ef1a 57bc a022 9c3b
000001f0: a113 a93d 5d46 24be 3661 163d a1ec d83b
00000200: 4321 ff3c 344e d8bd 9b13 233e 39bc 0b3e
00000210: 3d18 4a3d f6f5 27be 1249 8fbd 411e 26bd
00000220: fdcf 92bd f53e 1c3e a283 193e c473 113e
00000230: 2d67 cf3d 2aac 953d 5cbd e43d a4d7 c2bd
00000240: 8528 ddbc 8482 b63d a20f c23c 44eb d23d
00000250: 277e 8a3d 1436 cfbd 0a84 0ebe 78cf a7bd
00000260: 1284 e13d 2423 bbbd c8ba 3fbd 58c3 e4bd
00000270: 0c72 b43c b821 d43d 2654 1fbd 485d adbd
00000280: 8ad2 cd3d 1115 5fbd a378 593b 2a1b d4bd
00000290: a14e 553d e588 f5bd fd21 203e 8b20 2cbc
000002a0: b994 233d 48da 10be 644e bf3c 5fed 213e
000002b0: 9da6 17be 0078 f73d ac1f afbd bab1 b2bd
000002c0: 767d 243d e213 333e e7e0 00be dae9 593d
000002d0: bdec 253e 7ad8 55bc 51f6 e9bd 28e3 97bd
000002e0: ca27 253c 8f93 7ebd d5c5 b5bd 88ae 16be
000002f0: 1cb8 253e 6183 23be 6d5c 1a3e 181a 143d
00000300: 0f30 f3bd e310 793d 588a ae3d 282c 0c3e
00000310: 1522 48bd 648d a73d 5be8 b2bd deb8 f4bc
00000320: c6f9 14be 48f9 f13a fa55 34be 8a84 1abe
00000330: 0092 09be 4fcd 0abe ac9b ee3d 6671 45bc
00000340: 00da 48bd 5b0c 29be 761a 313e 2e9a f6bd
00000350: fdb0 1c3b c820 883d 79df 21be 1014 cf3b
00000360: 940f 993c f528 ba3d 3dbc 843d b84d 093e
00000370: ef16 1abe f74c 54bd 1adf 6a3d 9026 01be
00000380: f176 a2bd dd27 183e e612 9f3c 9421 b43c
00000390: 8311 593d 023d 06be 3691 2cbe 36e3 033e
000003a0: f016 0a3e 3156 e73d b08e 243e 025e f03d
000003b0: 115f 97bd 568a f6bd c1ad 0e3d a23e 063e
000003c0: 2ff9 143e 2d4d b53d b9b2 e03c 7dde cd3d
000003d0: 586a 49bd a9ed ce3d e626 f13c f1da de3c
000003e0: 7668 dcbd 7fe1 07be 3b36 323e fef5 003e
000003f0: 49d4 873d 1bcf a6bc a2bd 20be af0c 293e

conv_col_to_row.feature_module_final.2.bias f4 [32]
0.045891352 -0.0995207 -0.029411646 -0.019490756 -0.16447209 -0.15503418 0.14401682 0.045435768
0.16308019 -0.01093731 -0.06545048 0.1615004 0.14151917 0.16573478 0.16820654 0.05217411
-0.10561557 -0.15431523 -0.06339367 0.032926578 0.10585931 -0.03905012 0.1152759 0.056880575
-0.11579341 0.062900655 -2.4866611e-05 0.0040100305 0.09548863 -0.06109775 0.15911639 -0.089799084
00000000: 92f8 3b3d 82d1 cbbd b1f0 f0bc 14ab 9fbc
00000010: 5f6b 28be 48c1 1ebe 2579 133e db1a 3a3d
00000020: 7efe 263e 6732 33bc e70a 86bd 5c60 253e
00000030: 67ea 103e 61b6 293e 563e 2c3e 85b4 553d
00000040: fa4c d8bd d004 1ebe 8ad4 81bd 05de 063d
00000050: c4cc d83d 05f3 1fbd c515 ec3d 9bfb 683d
00000060: 1825 edbd 0fd2 803d a498 d0b7 9366 833b
00000070: 8b8f c33d a241 7abd 68ef 223e 95e8 b7bd
