GNN/ResultsGCNN/actor_56.pt (torch, 83520 bytes, 43 tensors)

row_embedding.0.weight f4 [7]
1.0037347 1.0016562 0.99938744 1.0010334 0.9989382 1.0027332 1.0001054
00000000: 617a 803f 4536 803f dbd7 7f3f dd21 803f
00000010: 6aba 7f3f 9059 803f 7403 803f

row_embedding.0.bias f4 [7]
-0.0024168177 -0.0010749388 -0.00081984303 -0.0014180646 0.0011013466 -0.0024630174 0.0005822256
00000000: 7963 1ebb f6e4 8cba bcea 56ba 5ade b9ba
00000010: 0f5b 903a 936a 21bb 80a0 183a

row_embedding.1.weight f4 [32, 7]
0.052105263 0.050772253 0.1376494 -0.35660246 -0.18240248 0.24140246 -0.08461736 -0.2700168
-0.06401864 -0.040062632 -0.10717372 0.19412299 0.00078653207 -0.0847135 -0.12575552 -0.29240483
-0.28275976 0.26108566 0.31688425 0.01985166 -0.20176284 -0.20916006 0.13278337 0.3176349
-0.35659763 0.02765935 0.005886776 0.19418122 -0.13917425 -0.032982938 -0.30695847 0.20890503
-0.20249017 -0.20149651 -0.19556077 -0.10695677 0.054979816 -0.011048626 -0.355712 0.0965002
-0.20516676 0.31373626 -0.2692965 -0.33606187 0.2727073 -0.22504166 -0.31347603 -0.057316773
0.017909676 -0.24306145 0.2689694 0.22824563 0.26173836 0.21299642 0.033141803 0.03550803
-0.13734707 -0.074310616 0.026113864 0.011711323 -0.13947415 -0.2090051 0.27425843 0.048959725
-0.342203 -0.19697832 0.3637235 -0.1893507 0.25665125 -0.34952524 -0.26960346 0.33742064
-0.09544113 -0.005810833 -0.03905011 -0.25099742 0.25304076 -0.18169044 0.01238085 -0.35651976
-0.075357616 -0.01552657 0.258138 0.13616675 0.28873965 -0.07206543 -0.30922776 -0.10613876
-0.069076404 0.3171861 -0.22814432 0.2507417 0.21459517 -0.21786034 -0.24707715 -0.15562655
-0.14954111 -0.27143133 -0.3639571 0.08818422 0.09983334 -0.27964288 0.27353743 -0.14291897
-0.115884185 0.06858942 0.28975558 -0.3236154 -0.075632334 0.11417796 -0.31335148 0.29581687
0.14626673 0.32612073 -0.028974453 0.1751836 -0.25230077 0.3523135 0.09384528 0.19648285
-0.2164978 -0.2649583 -0.32343057 -0.34529537 0.003656658 -0.02320557 -0.35140166 0.34394795
-0.17259397 -0.30304292 -0.16451097 0.31516752 0.085227326 -0.19762912 -0.1686701 -0.24285291
0.123342015 0.24740165 -0.19423509 0.36105368 0.32753962 0.12584384 -0.009792542 0.2755854
0.10514829 -0.3332387 -0.2561596 0.19709696 0.030512242 0.3526941 -0.27029213 -0.2847463
-0.105443254 -0.22859068 0.28533736 0.032855738 -0.1318538 -0.051100526 0.031811412 -0.2763373
0.04083846 -0.24594332 0.059078682 0.13587026 -0.23125117 -0.20812364 -0.0106260395 0.2984775
0.18832636 -0.089222945 0.33022556 0.09772648 0.36545005 0.2664298 -0.26142615 0.02273689
0.23071171 0.076614045 0.1194909 0.31207523 -0.27808237 0.12568536 -0.119386405 -0.15661715
0.3391183 0.2700958 0.2472224 0.03668254 -0.2935696 0.34108567 0.10422934 -0.039038785
-0.28816107 -0.10758566 -0.32871756 0.29652908 0.32184955 0.07296102 0.31694153 -0.24008054
-0.21334992 0.17984198 0.37085024 -0.2378705 -0.30685183 0.12843442 0.11530229 0.266042
0.056746386 -0.37823975 0.15075621 -0.1834373 0.19513862 -0.28013018 -0.29239988 0.03389827
-0.062956996 -0.35042065 -0.18628226 -0.31017077 0.10736749 0.100262135 -0.11892541 -0.31604585
00000000: 546c 553d 91f6 4f3d f7f3 0c3e 9994 b6be
00000010: b7c7 3abe 3532 773e de4b adbd a43f 8abe
00000020: 341c 83bd b718 24bd e57d dbbd 2dc8 463e
00000030: 462f 4e3a 467e adbd 0ec6 00be 16b6 95be
00000040: e3c5 90be 05ad 853e a73e a23e f39f a23c
00000050: eb9a 4ebe 0e2e 56be 5df8 073e 0ba1 a23e
00000060: f793 b6be dc95 e23c dbe5 c03b 71d7 463e
00000070: b283 0ebe 1e19 07bd a929 9dbe 33eb 553e
00000080: 9559 4fbe 1a55 4ebe 1541 48be 270c dbbd
00000090: 8432 613d 4c05 35bc e21f b6be e6a1 c53d
000000a0: 3c17 52be 0aa2 a03e 3be1 89be 4d10 acbe
000000b0: 4ba0 8b3e 5271 66be ee7f a0be fec4 6abd
000000c0: 50b7 923c 1ae5 78be 5bb6 893e 39b9 693e
000000d0: 9202 863e bc1b 5a3e b3bf 073d de70 113d
000000e0: b6a4 0cbe 2a30 98bd beec d53c d9e0 3f3c
000000f0: 50d2 0ebe 6f05 56be 9a6b 8c3e fe89 483d
00000100: 3b35 afbe afb4 49be f739 ba3e 26e5 41be
00000110: cb67 833e f9f4 b2be 7709 8abe 66c2 ac3e
00000120: a476 c3bd cd68 bebb 02f3 1fbd bc82 80be
00000130: 8f8e 813e 0f0d 3abe 0cd9 4a3c c289 b6be
00000140: 1855 9abd 2863 7ebc aa2a 843e 4c6f 0b3e
00000150: afd5 933e 0a97 93bd 1a53 9ebe 475f d9bd
00000160: ee77 8dbd 3766 a23e aa9e 69be 3761 803e
00000170: d6be 5b3e c816 5fbe cb01 7dbe 915c 1fbe
00000180: 4e21 19be 0cf9 8abe 9658 babe ee99 b43d
00000190: 6c75 cc3d 5a2d 8fbe 190d 8c3e 5a59 12be
000001a0: b054 edbd 9c78 8c3d d85a 943e ebb0 a5be
000001b0: 20e5 9abd 22d6 e93d 9b6f a0be 4f75 973e
000001c0: f2c6 153e 4cf9 a63e d55b edbc 5463 333e
000001d0: 912d 81be 6f62 b43e f431 c03d cd32 493e
000001e0: 99b1 5dbe 9da8 87be b198 a5be 8eca b0be
000001f0: 8ba4 6f3b 9c19 bebc ebea b3be f219 b03e
00000200: 79bc 30be 7128 9bbe 9075 28be a35d a13e
00000210: aa8b ae3d 4a5f 4abe dbb7 2cbe 6fae 78be
00000220: bd9a fc3d dc56 7d3e 90e5 46be 07dc b83e
00000230: 46b3 a73e 35dd 003e e670 20bc 8819 8d3e
00000240: fd57 d73d 439e aabe 5a27 83be c9d3 493e
00000250: cff4 f93c 5294 b43e bb63 8abe 44ca 91be
00000260: a2f2 d7bd ad13 6abe bd17 923e bd93 063d
00000270: af04 07be c94e 51bd af4c 023d 157c 8dbe
00000280: 3b46 273d 91d8 7bbe 7dfc 713d 9321 0b3e
00000290: 1bcd 6cbe 5d1e 55be d718 2ebc 0bd2 983e
000002a0: a0d8 403e 85ba b6bd 5313 a93e d224 c83d
000002b0: 451c bb3e 7d69 883e a6d9 85be b742 ba3c
000002c0: b13f 6c3e d3e7 9c3d a5b7 f43d 53c8 9f3e
000002d0: d060 8ebe aab3 003e dc80 f4bd 3f60 20be
000002e0: eaa0 ad3e ff49 8a3e de27 7d3e 6e40 163d
000002f0: c14e 96be c8a2 ae3e 3176 d53d 22e7 1fbd
00000300: d989 93be df55 dcbd ab4d a8be a9d2 973e
00000310: 77c9 a43e 966c 953d 2946 a23e acd7 75be
00000320: 6778 5abe 7f28 383e 15e0 bd3e 5394 73be
00000330: af1b 9dbe 5084 033e 9b23 ec3d a836 883e
00000340: e66e 683d a4a8 c1be d65f 1a3e fdd6 3bbe
00000350: 6bd2 473e 396d 8fbe 70b5 95be ead8 0a3d
00000360: 99ef 80bd 566a b3be c7c0 3ebe b4ce 9ebe
00000370: 7de3 db3d 3c56 cd3d 2a8f f3bd c3d0 a1be

row_embedding.1.bias f4 [32]
-0.051337842 0.2568108 0.11005069 -0.36889628 0.08070206 -0.12018839 0.01895122 -0.10737311
0.15284994 -0.20977117 -0.34993416 -0.02574148 0.31782004 0.15124576 0.34643203 0.10332049
-0.1596659 0.016487975 -0.12006294 0.30967808 0.28074262 -0.027159939 0.21275988 -0.10029308
0.32147664 0.20724855 -0.14787352 0.12529156 -0.2949789 -0.19596523 0.021563038 -0.21626902
00000000: a147 52bd b57c 833e 4262 e13d f9df bcbe
00000010: 1f47 a53d 5525 f6bd 973f 9b3c 6fe6 dbbd
00000020: b284 1c3e 41ce 56be 922a b3be ccdf d2bc
00000030: 4fb9 a23e 2be0 1a3e 8a5f b13e b199 d33d
00000040: 757f 23be ca11 873c 8fe3 f5bd 208e 9e3e
00000050: 7fbd 8f3e 857e debc badd 593e 7566 cdbd
00000060: 9698 a43e f738 543e 286c 17be 6e4c 003e
00000070: 7907 97be 1cab 48be f8a4 b03c a075 5dbe

row_embedding.3.weight f4 [32, 32]
-0.12347021 -0.04030235 0.071303986 0.011665863 0.10091101 0.003740551 0.16334613 0.14557336
0.10129117 -0.14617378 0.03552303 0.030652028 0.10043262 -3.5400473e-05 0.13747667 0.15569282
0.15401031 0.03725459 -0.119427875 0.1055592 0.038965836 0.053894963 0.04471794 0.11438667
-0.1631834 0.10661842 0.12735702 0.15077999 0.017720986 -0.15397616 0.14702965 -0.02884251
0.03436668 0.028101172 -0.17812231 0.0077824863 -0.017489677 -0.048372112 0.077666126 0.04306078
-0.0939747 -0.03945503 -0.10389442 -0.16042875 0.08649149 0.101219185 0.15688257 -0.16572125
-0.047773812 0.13068154 0.07638018 -0.13552608 0.1273855 0.122176066 0.13146283 0.12184169
0.13971414 -0.07064148 0.13921532 0.111025095 -0.13398744 0.057396896 -0.13681965 -0.0930342
0.014689448 0.16200133 -0.10579766 -0.14778174 0.17033017 -0.084081896 -0.16396102 -0.07123984
0.11873413 0.032249376 0.16037066 0.103575 0.010599014 0.16278693 -0.08090645 0.086030774
-0.036841165 -0.018654965 0.043224066 0.12584539 0.1523462 0.050371315 -0.05430539 0.17019412
0.03259974 0.0569549 0.055353153 -0.16409253 0.16602404 0.16401656 0.12900276 0.1544014
-0.080141455 -0.03786678 -0.15407994 0.056728188 0.047536593 0.059570592 0.16982342 -0.023436232
0.08853882 0.116321795 -0.10814542 -0.03137285 0.12766261 -0.10297019 0.061506875 0.088846944
-0.018801255 0.16917959 -0.06876224 0.07221225 -0.039579682 -0.15882635 0.07322313 -0.06729856
-0.0027500512 0.15418193 -0.07906413 -0.06542927 -0.17504783 -0.12658796 -0.116312414 0.045047842
0.09022422 -0.028686631 -0.11438684 0.0092135 0.084144056 -0.064786166 -0.11111383 0.093287185
-0.17155263 0.07274158 0.13814607 -0.1732191 -0.049253102 -0.04213382 0.010850676 -0.18101113
-0.11046177 -0.102928944 0.06818938 0.062101085 -0.1383395 0.045183428 0.0040992014 0.06415637
-0.06739109 0.11800109 -0.08155443 -0.1365152 0.104461186 -0.17413135 0.11871502 -0.05012162
-0.08726509 -0.15942536 -0.03314835 0.061243523 -0.056245875 0.16317888 0.09268113 0.06056148
-0.16477668 0.0038441087 -0.12670322 0.046177898 -0.039336897 0.109424725 -0.002471702 -0.16361554
-0.097041495 -0.17561494 -0.044692665 0.0850422 -0.14448197 0.11751258 -0.17436425 -0.01320014
0.0005948395 -0.088530995 -0.15277126 -0.096792765 -0.1436452 -0.020046221 0.026842527 -0.16388138
0.083464935 0.12852943 0.121575184 -0.041702513 0.1402395 0.058814898 -0.12542354 -0.08259906
-0.15298858 0.08103352 0.12918703 0.06769634 -0.030612757 -0.14381625 -0.16738942 0.021024888
-0.024748653 0.13638137 -0.07371304 0.13801022 0.09278871 0.10990672 0.040608503 0.13515534
-0.09124094 -0.046533477 -0.088240355 0.013885699 0.16559057 -0.048387628 -0.03698034 0.10674568
-0.059545062 -0.04240685 -0.117889 -0.12796427 0.036985625 0.13881084 0.13987863 -0.09967902
0.08888291 -0.10687746 -0.17347793 -0.0017981939 0.15302368 -0.01892556 -0.1464009 -0.05905456
0.068836026 0.13446994 -0.17451124 0.045164887 0.06174872 0.038529146 -0.17245641 -0.0613074
-0.02773406 -0.09678447 -0.12756734 0.032596488 -0.015818164 -0.0059900354 -0.12341753 0.14228268
00000000: f3dd fcbd 1414 25bd d307 923d 2d22 3f3c
00000010: 6eaa ce3d 0824 753b 3544 273e 2f11 153e
00000020: bf71 cf3d 94ae 15be 9980 113d f619 fb3c
00000030: 9eaf cd3d f87a 14b8 afc6 0c3e f06d 1f3e
00000040: e1b4 1d3e 4598 183d 9a96 f4bd 6c2f d83d
00000050: a49a 1f3d f7c0 5c3d 292a 373d 8f43 ea3d
00000060: 8d19 27be c25a da3d e169 023e 1266 1a3e
00000070: 9a2b 913c edab 1dbe f18e 163e 2147 ecbc
00000080: 13c4 0c3d 6e34 e63c b265 36be 3a04 ff3b
00000090: 8346 8fbc d621 46bd 6b0f 9f3d 8060 303d
000000a0: cf75 c0bd 999b 21bd 99c6 d4bd 6f47 24be
000000b0: 7322 b13d 014c cf3d d3a5 203e d5b2 29be
000000c0: 79ae 43bd 62d1 053e 366d 9c3d 59c7 0abe
000000d0: 5871 023e 7237 fa3d 319e 063e 2388 f93d
000000e0: 3911 0f3e 7bac 90bd 768e 0e3e 2061 e33d
000000f0: 0134 09be 0219 6b3d 731a 0cbe b788 bebd
00000100: 03ac 703c ade3 253e 72ac d8bd 1954 17be
00000110: 086b 2e3e 2133 acbd 66e5 27be 31e6 91bd
00000120: e12a f33d ec17 043d 3538 243e 211f d43d
00000130: 7da7 2d3c 9eb1 263e 48b2 a5bd e730 b03d
00000140: c3e6 16bd 4cd2 98bc b80b 313d 9ddd 003e
00000150: a400 1c3e 2752 4e3d 546f 5ebd 5e47 2e3e
00000160: 4e87 053d 8b49 693d fdb9 623d df07 28be
00000170: 3502 2a3e f5f3 273e 4d19 043e 671b 1e3e
00000180: 3421 a4bd 321a 1bbd 22c7 1dbe d15b 683d
00000190: bbb5 423d 4b00 743d 31e6 2d3e 57fd bfbc
000001a0: d753 b53d 1f3a ee3d 597b ddbd d180 00bd
000001b0: fdb9 023e 09e2 d2bd a2ee 7b3d 63f5 b53d
000001c0: 1705 9abc 6a3d 2d3e 38d3 8cbd 04e4 933d
000001d0: 4e1e 22bd 60a3 22be 02f6 953d d4d3 89bd
000001e0: 343a 34bb dee1 1d3e 60ec a1bd c8ff 85bd
000001f0: bd3f 33be 46a0 01be 3435 eebd 1684 383d
00000200: 7ac7 b83d 3a00 ebbc a643 eabd 38f4 163c
00000210: b853 ac3d 9cae 84bd a68f e3bd 5a0d bf3d
00000220: 7eab 2fbe 8af9 943d 2a76 0d3e 5960 31be
00000230: 9fbd 49bd 8394 2cbd 09c7 313c fb5a 39be
00000240: c839 e2bd 69cc d2bd e0a6 8b3d b55d 7e3d
00000250: dfa8 0dbe 4212 393d 9852 863b 6a64 833d
00000260: 5704 8abd 8eaa f13d 0206 a7bd a4ca 0bbe
00000270: bfef d53d 7d4f 32be dc20 f33d 544c 4dbd
00000280: 0ab8 b2bd 6740 23be 90c6 07bd 7dda 7a3d
00000290: 1362 66bd 5d18 273e 9bcf bd3d 500f 783d
000002a0: 38bb 28be 71ed 7b3b 7dbe 01be 0925 3d3d
000002b0: ba1f 21bd 121a e03d 47fc 21bb d58a 27be
000002c0: b1bd c6bd 67d4 33be a80f 37bd 9b2a ae3d
000002d0: 15f3 13be 6faa f03d 8b8c 32be 6645 58bc
000002e0: 01ef 1b3a bd4f b5bd 1270 1cbe 493b c6bd
000002f0: ba17 13be f937 a4bc dce4 db3c 85d0 27be
00000300: aaef aa3d 389d 033e 69fc f83d 41d0 2abd
00000310: f29a 0f3e e4e7 703d 076f 00be b229 a9bd
00000320: 0aa9 1cbe e7f4 a53d 9b49 043e 61a4 8a3d
00000330: 9bc7 fabc 9144 13be 2268 2bbe 633c ac3c
00000340: b0bd cabc 8fa7 0b3e ddf6 96bd 8d52 0d3e
00000350: 0208 be3d c616 e13d 1a55 263d 2966 0a3e
00000360: 88dc babd e399 3ebd 5cb7 b4bd d880 633c
00000370: 9390 293e 1b32 46bd b278 17bd 7b9d da3d
00000380: 86e5 73bd ceb2 2dbd ca6f f1bd 1109 03be
00000390: 3d7e 173d 6e24 0e3e 583c 0f3e 8424 ccbd
000003a0: 3e08 b63d 92e2 dabd 33a4 31be 60b1 ebba
000003b0: 3db2 1c3e c709 9bbc 1eea 15be 32e3 71bd
000003c0: e7f9 8c3d 7db2 093e 13b3 32be d1fe 383d
000003d0: 3aec 7c3d bdd0 1d3d 6a98 30be 781d 7bbd
000003e0: 8a32 e3bc f036 c6bd 03a1 02be e583 053d
000003f0: 1895 81bc 0f48 c4bb 54c2 fcbd 8db2 113e

row_embedding.3.bias f4 [32]
0.10842524 -0.05261011 -0.060366772 -0.04209835 0.014319734 -0.12979893 0.10652226 0.14252198
-0.06425043 0.10268696 0.13290903 0.09868875 -0.01945904 0.043529626 0.10467561 0.10566631
0.096350946 -0.073621884 0.04902352 0.093304634 -0.008838302 0.032805756 0.054521892 0.06526499
0.10458084 0.041635387 0.16472128 -0.055341538 0.0055520595 -0.008036173 -0.14877509 0.12019166
00000000: 0d0e de3d b37d 57bd 2643 77bd 526f 2cbd
00000010: 519d 6a3c 03ea 04be 5828 da3d 48f1 113e
00000020: bb95 83bd 8a4d d23d 4e19 083e 541d ca3d
00000030: 9168 9fbc 1f4c 323d 2b60 d63d 9467 d83d
00000040: a553 c53d 12c7 96bd e3cc 483d 8016 bf3d
00000050: 87ce 10bc 545f 063d 5952 5f3d a7a9 853d
00000060: 7b2e d63d de89 2a3d b2ac 283e cfad 62bd
00000070: 0dee b53b 27aa 03bc 7f58 18be 0c27 f63d

col_embedding.0.weight f4 [7]
0.99857485 1.0002266 0.99992657 1.0002799 0.99868834 0.99924654 1.000471
00000000: 9aa2 7f3f 6d07 803f 30fb 7f3f 2c09 803f
00000010: 0aaa 7f3f 9fce 7f3f 6f0f 803f

col_embedding.0.bias f4 [7]
-0.0011990708 -0.00018318885 -8.180691e-05 -0.00031327238 0.0008137201 0.0008128177 0.0006195789
00000000: 242a 9dba 6216 40b9 c08f abb8 b53e a4b9
00000010: d54f 553a 4613 553a 3c6b 223a

col_embedding.1.weight f4 [32, 7]
0.35301632 0.005102028 -0.0003214534 -0.17459393 0.2753617 -0.36407405 -0.10108108 -0.11623232
-0.25870222 -0.16412467 0.18577193 -0.21341018 0.005116704 -0.23629998 -0.19732442 0.012923914
0.27094343 -0.17704983 0.031127902 0.090001404 0.2103191 0.28433907 0.2819491 -0.10390952
0.0599883 -0.3089236 -0.018439995 0.17658767 0.14761081 0.32126442 0.295312 -0.17880942
-0.06628055 -0.25118753 -0.3648266 -0.37703547 0.03764835 -0.07133887 0.24162996 -0.22846717
0.16853385 -0.12086485 -0.03329575 0.36338142 0.37281337 0.20462893 0.23068331 0.03654826
0.17212977 0.07758267 -0.123423256 0.18520543 -0.35523015 0.07050941 0.072367646 0.13056514
-0.1098907 -0.18039416 -0.09301906 -0.013199882 -0.22376187 -0.15430579 0.17786637 0.07601478
-0.32581186 -0.05436233 -0.025256006 0.16303253 0.3006633 -0.37805212 0.36440036 0.018295355
0.36253256 -0.12816904 -0.2856256 -0.23808685 -0.23435527 0.3582385 0.13245772 -0.26765627
-0.06546868 -0.1736459 -0.23134086 0.22089243 0.29306257 -0.2989838 0.024071462 0.24765314
0.16224517 -0.07289725 -0.22798991 -0.32508382 -0.20793013 0.013400159 -0.034607783 0.19996037
0.16696489 -0.0084042875 -0.01580873 0.18764207 -0.1869426 0.21542393 0.3189662 0.22303945
0.086038604 0.046207156 -0.027219724 0.1979919 0.2580752 -0.026748791 0.12745647 -0.28352123
0.18877703 0.27357692 -0.00063444057 -0.15382953 -0.093404196 -0.122862846 -0.34219664 0.32689613
-0.011956077 -0.31929913 0.25778905 0.31843498 0.31249046 -0.22981961 -0.25694716 0.07725508
0.07006429 -0.22086294 0.066747926 0.2528937 -0.2769333 0.37115672 -0.3493526 -0.08447361
-0.055944614 0.08714009 -0.011792069 0.25191635 0.06845692 -0.16057937 -0.37222674 -0.29216877
0.20586579 0.15752733 0.20293283 -0.042976778 0.10830731 -0.32129878 0.010865556 -0.15605219
-0.25293916 -0.09003008 0.22558063 0.23067774 0.057160262 -0.06383899 -0.1739036 -0.014954195
-0.04606699 0.22596228 0.114158995 -0.28710732 -0.32096428 0.12453413 0.027659569 0.13676699
-0.16834326 0.16114154 -0.30643335 0.08612802 -0.25653943 -0.29801086 -0.078967355 0.27272275
-0.25967252 -0.26757744 0.18566312 -0.35319224 -0.009032901 -0.264873 0.26940918 -0.056879915
-0.099304974 -0.22894032 0.024000138 0.14352745 0.09808769 0.19645151 0.37138924 0.18460572
0.31298253 0.07674948 -0.2324015 -0.29496458 0.35856473 -0.13696472 0.32677048 0.051815957
-0.13115458 -0.22294897 -0.34836426 0.017564118 0.10034934 -0.0056745484 -0.30434534 0.28180888
0.26463512 0.35755822 0.34922692 -0.10351325 -0.19216187 0.17765757 0.010097035 0.14112107
-0.05439409 0.17459276 -0.365888 0.3451222 0.15868281 0.36240417 0.005163654 0.23874126
00000000: 8ebe b43e ea2e a73b bf88 a8b9 c0c8 32be
00000010: 35fc 8c3e ea67 babe 9903 cfbd 360b eebd
00000020: 9e74 84be 4c10 28be ff3a 3e3e 3388 5abe
00000030: 06aa a73b 9ff8 71be 6a0f 4abe d3be 533c
00000040: 19b9 8a3e 8d4c 35be f1ff fe3c a852 b83d
00000050: e45d 573e e494 913e a25b 903e 84ce d4bd
00000060: 4bb6 753d 3c2b 9ebe 790f 97bc 66d3 343e
00000070: 4a27 173e c57c a43e 2233 973e d119 37be
00000080: 19be 87bd a79b 80be 8dca babe cb0a c1be
00000090: 2835 1a3d 1d1a 92bd d86d 773e 4cf3 69be
000000a0: 2394 2c3e fe87 f7bd 2061 08bd 210d ba3e
000000b0: 65e1 be3e 3f8a 513e 3f38 6c3e a1b3 153d
000000c0: c942 303e aae3 9e3d 55c5 fcbd 7ea6 3d3e
000000d0: bae0 b5be 3d67 903d 7d35 943d deb2 053e
000000e0: 600e e1bd 3fb9 38be c780 bebd 5144 58bc
000000f0: d521 65be 5602 1ebe 9a22 363e a3ad 9b3d
00000100: d0d0 a6be 09ab 5ebd afe5 cebc 00f2 263e
00000110: 8af0 993e 0c90 c1be af92 ba3e 24e0 953c
00000120: de9d b93e bf3e 03be 853d 92be 0acd 73be
00000130: d4fa 6fbe 096b b73e ffa2 073e 3e0a 89be
00000140: 7114 86bd 3bd0 31be 9ee4 6cbe a031 623e
00000150: 4c0c 963e 6814 99be 8431 c53c c998 7d3e
00000160: 9923 263e 274b 95bd 3076 69be 6371 a6be
00000170: a3eb 54be 578c 5b3c e4c0 0dbd 69c2 4c3e
00000180: d8f8 2a3e 23b2 09bc 4f81 81bc 3e25 403e
00000190: e26d 3fbe 1798 5c3e 8a4f a33e 7464 643e
000001a0: 0235 b03d b743 3d3d e6fb debc 63be 4a3e
000001b0: 6f22 843e 4820 dbbc f383 023e b229 91be
000001c0: c44e 413e 4612 8c3e 9650 26ba 7d85 1dbe
000001d0: b34a bfbd 849f fbbd 6634 afbe ee5e a73e
000001e0: 6ce3 43bc 2d7b a3be edfc 833e e909 a33e
000001f0: c0fe 9f3e d555 6bbe 948e 83be e937 9e3d
00000200: de7d 8f3d e529 62be 23b3 883d 487b 813e
00000210: 34ca 8dbe 4108 be3e 58de b2be 8000 adbd
00000220: 2e26 65bd 8176 b23d 8633 41bc 2efb 803e
00000230: 2433 8c3d eb6e 24be 8194 bebe 2597 95be
00000240: 7bce 523e d84e 213e a0cd 4f3e 6b08 30bd
00000250: 39d0 dd3d 4681 a4be 7205 323c 25cc 1fbe
00000260: 3e81 81be b161 b8bd 9cfe 663e c936 6c3e
00000270: e120 6a3d 04be 82bd c913 32be 7102 75bc
00000280: bdb0 3cbd a862 673e 31cc e93d bbff 92be
00000290: 6e55 a4be c00b ff3d 5296 e23c a50c 0c3e
000002a0: 2d62 2cbe 4a02 253e d5e4 9cbe e363 b03d
000002b0: 2359 83be e194 98be a3b9 a1bd 51a2 8b3e
000002c0: ccf3 84be e9ff 88be 791e 3e3e 9dd5 b4be
000002d0: bcfe 13bc 6f9d 87be 00f0 893e eafa 68bd
000002e0: 6860 cbbd 556f 6abe f09b c43c dcf8 123e
000002f0: 33e2 c83d 962a 493e bb26 be3e 4809 3d3e
00000300: 3f3f a03e d52e 9d3d a9fa 6dbe 9905 97be
00000310: cc95 b73e 7b40 0cbe 764e a73e f83c 543d
00000320: 634d 06be bc4c 64be cd5c b2be a0e2 8f3c
00000330: f483 cd3d 90f1 b9bb 27d3 9bbe 4149 903e
00000340: 417e 873e df11 b73e dfcd b23e c1fe d3bd
00000350: 15c6 44be deeb 353e 096e 253c 0b82 103e
00000360: 56cc 5ebd 72c8 323e ac55 bbbe dbb3 b03e
00000370: bf7d 223e 0a8d b93e df33 a93b 9778 743e

col_embedding.1.bias f4 [32]
-0.2651665 -0.17239581 -0.07764887 -0.28653166 -0.30092746 0.2716015 -0.19628324 -0.16066077
-0.03995349 -0.035972435 0.09677208 0.270742 0.057736177 -0.16948463 0.12567118 -0.37657925
0.35408947 0.0052675363 -0.20677505 -0.040403437 -0.025333114 -0.33047983 0.2782445 0.07726738
-0.35357013 0.30545878 -0.2793896 -0.08192742 0.11353868 0.354397 -0.050941907 0.33554772
00000000: e7c3 87be 8788 30be 5f06 9fbd 47b4 92be
00000010: 2a13 9abe 5a0f 8b3e 79fe 48be 4284 24be
00000020: 45a6 23bd d557 13bd 7130 c63d b29e 8a3e
00000030: c57c 6c3d 618d 2dbe f2af 003e ffce c0be
00000040: 374b b53e 4c9b ac3b d7bc 53be 137e 25bd
00000050: 6487 cfbc a734 a9be 1076 8e3e 5c3e 9e3d
00000060: 2507 b5be 1865 9c3e 270c 8fbe 90c9 a7bd
00000070: f886 e83d 8673 b53e 76a8 50bd e9cc ab3e

col_embedding.3.weight f4 [32, 32]
0.13668257 0.12780307 -0.0068793804 -0.14015634 0.07717098 -0.031766783 -0.16714208 0.13653398
0.1376287 0.14999604 0.09469533 0.110487364 -0.14520563 -0.0067136087 0.058047276 0.07256274
-0.055216014 -0.03622726 -0.13131359 -0.1573778 0.007820791 0.17230818 -0.11931712 0.16491039
-0.15924017 -0.11984615 -0.13960099 -0.12651525 0.14556384 0.0027589262 -0.047373313 0.17081794
0.087133445 -0.13762496 0.15124035 -0.08861938 0.094735466 0.04999496 0.057024475 -0.049004175
0.16250694 -0.004421996 0.10551192 0.12007937 -0.15382174 -0.030307798 -0.101376615 -0.018435521
-0.14912492 -0.017781205 -0.11511498 -0.06788693 0.096502915 -0.014699746 0.16373713 0.05982653
0.057289347 0.04583799 -0.17639092 0.1699601 -0.0069803405 -0.17172101 -0.0062572323 -0.08858903
-0.059562705 -0.044888712 -0.02293757 -0.105734475 -0.10295343 0.062265307 0.1566605 0.17544226
-0.08066207 -0.1583669 -0.035005804 -0.014234005 -0.15546577 -0.13172616 -0.01129721 0.06992775
0.001083649 -0.05266042 -0.024260303 0.16181578 0.0748151 -0.09934332 0.105025694 0.11953643
-0.09682463 -0.034218732 0.109637395 0.0044047236 0.028318224 -0.03930754 -0.04185064 0.084150024
0.10657812 -0.0443443 -0.021686712 0.026219282 0.07877345 -0.17143407 -0.070599265 0.10504878
0.15533154 -0.16943124 0.041007694 -0.046915766 0.06468608 -0.009535332 -0.07577492 -0.1456616
-0.05065583 0.036553696 -0.050094064 0.007636841 0.06121377 0.115155324 0.1203473 0.06354143
0.11302994 -0.15202923 0.11945357 -0.023887958 0.120347254 0.13667291 0.14074744 0.066319734
0.105947584 0.06023832 0.03173438 -0.089029 0.009265045 0.14153053 -0.036065437 -0.028550316
0.13429442 0.09905782 -0.08190215 -0.16006374 0.01830338 -0.1343692 -0.13137294 0.14329152
0.102775306 -0.16459344 -0.09163158 0.09737928 -0.13070372 0.07338082 0.030819457 -0.1222604
0.006577711 0.05897111 0.16982822 0.10532599 0.025453888 -0.06893375 -0.16001171 0.023015337
0.026380913 0.068944596 -0.05651295 -0.1326461 0.112102285 0.09192951 -0.054455373 0.1325428
0.15276231 0.10445991 -0.09101139 -0.11610962 -0.10010461 0.14380021 -0.11536284 0.050312437
-0.046331204 -0.10186143 0.1382456 0.044235043 -0.075448886 -0.04755294 0.12542751 -0.018495407
0.049552217 -0.13798063 -0.067762144 -0.047493335 0.14644991 -0.15827975 0.087569304 0.011079165
0.046764016 -0.061368044 0.11703506 -0.0005159775 -0.11262499 -0.015886541 0.07937271 0.12138777
0.17322485 0.16140857 -0.028683744 -0.09462053 0.020889565 -0.15940386 0.12634806 0.0051539782
0.17233032 -0.072435 0.09987428 0.15657812 -0.027627157 0.10137145 -0.115344614 0.15880702
0.04256303 0.14178132 0.0225061 -0.014278768 0.048137963 0.12140169 0.11568704 -0.12108881
-0.121102035 0.085456125 0.16696103 0.14644569 -0.10234041 0.023894198 -0.01562845 -0.1511276
0.14143656 0.16312507 0.045599535 -0.11174549 -0.01774125 0.122466706 -0.0990574 -0.046504684
-0.086714424 0.008541185 -0.076700225 -0.030012349 -0.050074164 0.10579055 -0.08626839 0.047588848
0.13971008 0.14302836 -0.15317631 -0.0541796 -0.09367181 -0.13774382 0.05608736 0.12123549
00000000: 84f6 0b3e cfde 023e 6d6c e1bb 2585 0fbe
00000010: d20b 9e3d e31d 02bd 4b27 2bbe 90cf 0b3e
00000020: 8aee 0c3e 9098 193e a0ef c13d 3347 e23d
00000030: c9b0 14be d5fd dbbb fbc2 6d3d c69b 943d
00000040: 302a 62bd 0963 14bd 1277 06be a527 21be
00000050: c622 003c 8e71 303e 895c f4bd 45de 283e
00000060: db0f 23be e671 f5bd 90f3 0ebe 378d 01be
00000070: b00e 153e 1acf 343b 850a 42bd e6ea 2e3e
00000080: 0573 b23d 8fed 0cbe c0de 1a3e 147e b5bd
00000090: ab04 c23d 84c7 4c3d 7f92 693d 9ab8 48bd
000000a0: 3868 263e 64e6 90bb a216 d83d 2cec f53d
000000b0: 7283 1dbe 0f48 f8bc 8b9e cfbd 1706 97bc
000000c0: 34b4 18be e4a9 91bc 67c1 ebbd 4e08 8bbd
000000d0: 52a3 c53d 34d7 70bc b5aa 273e aa0c 753d
000000e0: 3ca8 6a3d 9ec0 3b3d d29f 34be 050a 2e3e
000000f0: 57bb e4bb a2d7 2fbe 7809 cdbb 2a6e b5bd
00000100: 06f8 73bd 3add 37bd 92e7 bbbc 518b d8bd
00000110: 3fd9 d2bd e809 7f3d 9c6b 203e 23a7 333e
00000120: 2832 a5bd ef2a 22be 3f62 0fbd be35 69bc
00000130: 6b32 1fbe 39e3 06be ef17 39bc 4836 8f3d
00000140: 3a09 8e3a 74b2 57bd 8bbd c6bc 09b3 253e
00000150: a938 993d 8374 cbbd b617 d73d 84cf f43d
00000160: fe4b c6bd f128 0cbd 9289 e03d 8055 903b
00000170: 9ffb e73c f100 21bd 946b 2bbd d956 ac3d
00000180: a145 da3d 5ea2 35bd 55a8 b1bc d2c9 d63c
00000190: f953 a13d 6a8c 2fbe 5996 90bd d123 d73d
000001a0: 3b0f 1f3e 627f 2dbe aff7 273d bf2a 40bd
000001b0: 237a 843d 153a 1cbc e22f 9bbd 5128 15be
000001c0: 7d7c 4fbd 54b9 153d 6f2f 4dbd 773e fa3b
000001d0: 4abb 7a3d 8ed6 eb3d a578 f63d 0222 823d
000001e0: 3e7c e73d 8dad 1bbe 13a4 f43d aeb0 c3bc
000001f0: 9f78 f63d fcf3 0b3e 1920 103e a4d2 873d
00000200: 0cfb d83d 75bc 763d e9fb 013d d654 b6bd
00000210: 6acc 173c 61ed 103e 5ab9 13bd 5ae2 e9bc
00000220: 7a84 093e d4de ca3d 50bc a7bd c0e7 23be
00000230: f8f0 953c 1498 09be a186 06be 03bb 123e
00000240: dc7b d23d 2f8b 28be 56a9 bbbd ca6e c73d
00000250: 32d7 05be af48 963d 1679 fc3c a963 fabd
00000260: d789 d73b b18b 713d 73e7 2d3e 27b5 d73d
00000270: ac84 d03c 232d 8dbd 1cda 23be a98a bc3c
00000280: c91c d83c d332 8d3d 207a 67bd 61d4 07be
00000290: e295 e53d 8a45 bc3d 990c 5fbd 4db9 073e
000002a0: b96d 1c3e 14ef d53d 2e64 babd e1ca edbd
000002b0: a503 cdbd 5d40 133e 5a43 ecbd 6a14 4e3d
000002c0: cac5 3dbd ba9c d0bd 4190 0d3e ce2f 353d
000002d0: f284 9abd dfc6 42bd 1270 003e ae83 97bc
000002e0: 44f7 4a3d cb4a 0dbe e1c6 8abd 5f88 42bd
000002f0: f7f6 153e 1614 22be 8957 b33d 6385 353c
00000300: a08b 3f3d 0f5d 7bbd 14b0 ef3d aa42 07ba
00000310: eea7 e6bd 7e24 82bc 298e a23d 279a f83d
00000320: db61 313e 4a48 253e 2cfa eabc 69c8 c1bd
00000330: 9820 ab3c c43a 23be 6361 013e b4e2 a83b
00000340: 5c77 303e cd58 94bd e38a cc3d 0456 203e
00000350: 5952 e2bc d69b cf3d cc39 ecbd 4f9e 223e
00000360: 9256 2e3d 1f2f 113e b65e b83c 7ef1 69bc
00000370: 502c 453d 73a1 f83d 54ed ec3d 69fd f7bd
00000380: 5804 f8bd 9f03 af3d d5f7 2a3e dcf5 153e
00000390: d997 d1bd c4bd c33c 3c07 80bc 32c1 1abe
000003a0: bfd4 103e 420a 273e 94c6 3a3d d2da e4bd
000003b0: 1956 91bc d3cf fa3d 9bde cabd b27b 3ebd
000003c0: 5597 b1bd 54f0 0b3c 0215 9dbd 75dc f5bc
000003d0: 911a 4dbd b7a8 d83d 7bad b0bd 86ec 423d
000003e0: 2910 0f3e 0776 123e 40da 1cbe 6eeb 5dbd
000003f0: 02d7 bfbd b70c 0dbe dcbb 653d 504a f83d

col_embedding.3.bias f4 [32]
-0.045986574 0.15076458 -0.097382024 0.119888484 -0.023642898 0.15309596 0.10480596 0.030847432
0.14291875 0.14212017 0.13208668 0.13244423 -0.08271562 0.15791216 0.067607336 -0.020365292
-0.09386618 -0.08406376 0.11562219 0.14332367 0.0913248 0.0986071 -0.12334259 0.15144135
0.13883297 -0.06552726 0.13577512 0.09306637 0.09217517 0.03004551 -0.089747645 0.07560424
00000000: 6b5c 3cbd 0862 1a3e 3a70 c7bd 1888 f53d
00000010: c0ae c1bc 30c5 1c3e 82a4 d63d c1b3 fc3c
00000020: 4b59 123e f387 113e bb41 073e 769f 073e
00000030: cf66 a9bd bab3 213e b775 8a3d 1dd5 a6bc
00000040: e93c c0bd 9f29 acbd 54cb ec3d 71c3 123e
00000050: 7f08 bb3d 85f2 c93d 0a9b fcbd 7113 1b3e
00000060: 3b2a 0e3e 2833 86bd a208 0b3e 9599 be3d
00000070: 56c6 bc3d 0022 f63c 9dcd b7bd 65d6 9a3d

conv_col_to_row.feature_module_left.0.weight f4 [32, 32]
0.02435731 -0.15385453 -0.0034412213 0.040963598 -0.03272988 -0.11693007 0.015874855 -0.056119017
0.15705006 0.009076361 -0.020381693 0.13028868 -0.0004137192 -0.051415756 -0.018875526 -0.010730981
-0.010907551 -0.1397393 0.12994204 0.029732635 -0.09177315 -0.10656516 0.07959535 0.07716793
0.09545852 -0.10605229 -0.16163903 -0.13224012 0.12572068 -0.04765943 -0.054725114 -0.10105287
0.13039029 0.07166723 0.10373654 -0.099763274 -0.031940177 0.15994956 -0.023443578 -0.17372559
-0.08930294 0.004744319 0.11707694 0.03075386 0.038921922 -0.12395958 0.030507458 0.014914354
0.12640183 -0.1320216 0.027326742 -0.10484798 -0.039314516 0.087582074 -0.17630143 0.10790563
-0.16261366 0.037231155 0.07970595 0.10341744 -0.095244035 -0.10942076 0.09178981 -0.015915602
0.11369023 -0.108331785 0.0269018 0.068281054 0.023016822 0.12799393 -0.12918098 0.16779025
-0.11523685 -0.10648842 0.12913828 0.020953227 -0.16885751 -0.16616784 -0.08118293 0.16581093
0.040366415 -0.13105197 0.16994257 0.06979583 -0.07487461 -0.027767122 -0.048525903 0.17537582
0.0051931427 0.052332915 -0.1407557 0.022625556 -0.067776725 0.069062695 0.02521913 -0.011140956
-0.050424207 -0.061481934 0.012623505 0.0090692025 -0.014078809 0.05118684 -0.01685905 -0.06920814
0.14117385 -0.09502159 -0.12370333 0.15122822 0.02712624 -0.032689884 -0.09559902 -0.033240344
-0.1333674 0.03931554 0.019314645 0.07603316 -0.03378468 -0.16740696 0.13636757 -0.1618117
-0.114430115 -0.005718823 -0.10164075 -0.09389583 0.12264217 -0.16948068 -0.022477647 0.08986237
-0.15020975 0.077950634 0.16102962 0.0025468818 0.09349696 -0.11192253 0.13297199 -0.1568756
0.06395189 0.10189693 -0.08358409 -0.10246608 0.040623084 0.16342202 -0.0788053 0.12994064
-0.081315234 -0.006982368 0.13155949 -0.14473732 -0.17697099 -0.031168249 0.0336786 0.0224374
-0.17628315 -0.080621906 0.040974293 -0.027529519 -0.15480393 0.056958318 0.045201108 -0.0969338
0.006959857 -0.13704112 0.15927567 0.080514066 0.014373336 0.08183377 0.054072656 0.11662247
-0.14213878 -0.033230852 0.06775196 -0.14758374 -0.034816604 -0.062038183 0.021134757 -0.12579286
0.16687481 -0.1275636 -0.06499895 -0.10140795 0.12041108 0.1204134 0.05464507 0.121809006
0.16276082 -0.007829724 -0.098568335 0.1419399 0.06507122 -0.13556795 0.006039362 0.17333196
-0.050686322 -0.15520957 0.16309015 0.026392635 0.07132512 -0.16349974 0.1469023 -0.114106625
0.026613176 0.08343769 0.013535499 -0.17348486 0.026546285 -0.07922858 0.044851847 0.077190176
0.023229416 -0.025071204 -0.05435428 0.12035746 -0.07409149 0.057041958 -0.10321048 -0.070978746
0.02680096 -0.1384342 0.048713583 -0.05020796 0.16762936 0.005937281 -0.14645511 0.12451468
-0.12567197 0.00937252 -0.008670814 -0.12413661 0.1435609 -0.10075847 0.026182642 0.1449062
0.13427742 -0.15641162 0.14591192 -0.07637388 -0.004212788 -0.09730273 0.015459082 0.09965006
-0.13104178 -0.0030078862 0.17225023 0.11256766 -0.04207669 -0.14763248 0.0017440513 -0.064928874
0.09059244 0.11700527 -0.11605629 -0.0017168559 0.12449882 0.07954168 -0.14745764 -0.14801282
00000000: fb88 c73c 0b8c 1dbe 1d86 61bb 72c9 273d
00000010: c40f 06bd 0879 efbd fc0b 823c 0edd 65bd
00000020: bbd1 203e 04b5 143c 82f7 a6bc 656a 053e
00000030: 73e8 d8b9 5499 52bd d9a0 9abc ffd0 2fbc
00000040: 96b5 32bc d217 0fbe 870f 053e db91 f33c
00000050: 90f3 bbbd d63e dabd e302 a33d 380a 9e3d
00000060: c27f c33d f131 d9bd b484 25be f469 07be
00000070: ecbc 003e 8936 43bd 7127 60bd cff4 cebd
00000080: 0885 053e 45c6 923d d373 d43d b050 ccbd
00000090: b4d3 02bd d1c9 233e bf0c c0bc 1fe5 31be
000000a0: 76e4 b6bd 3b76 9b3b 09c6 ef3d 85ef fb3c
000000b0: 986c 1f3d 85de fdbd c7ea f93c 565b 743c
000000c0: 7b6f 013e ac30 07be 55dc df3c 8aba d6bd
000000d0: 4208 21bd 3b5e b33d 5d88 34be a0fd dc3d
000000e0: 3284 26be b27f 183d e03c a33d 86cc d33d
000000f0: 4e0f c3bd fe17 e0bd 4cfc bb3d 7061 82bc
00000100: 6cd6 e83d 0edd ddbd 2a61 dc3c f0d6 8b3d
00000110: c68d bc3c d710 033e 0548 04be 35d1 2b3e
00000120: 4c01 ecbd 9a16 dabd d33c 043e 1aa6 ab3c
00000130: fce8 2cbe e727 2abe 3c43 a6bd 57ca 293e
00000140: 4157 253d 7d32 06be 6d05 2e3e 1ef1 8e3d
00000150: dc57 99bd e077 e3bc 19c3 46bd b895 333e
00000160: 3d2b aa3b 0a5b 563d 4322 10be 3b59 b93c
00000170: 86ce 8abd be70 8d3d 5998 ce3c 8e88 36bc
00000180: 9d89 4ebd 7bd4 7bbd d1d2 4e3c fe96 143c
00000190: ceaa 66bc 4ba9 513d fe1b 8abc ffbc 8dbd
000001a0: e18f 103e ae9a c2bd 2c58 fdbd 92db 1a3e
000001b0: d937 de3c d4e5 05bd 6bc9 c3bd 0727 08bd
000001c0: 7791 08be 5509 213d bf39 9e3c 46b7 9b3d
000001d0: ce61 0abd bb6c 2bbe f1a3 0b3e f7b1 25be
000001e0: 565a eabd f764 bbbb 0729 d0bd 754c c0bd
000001f0: d12b fb3d 588c 2dbe 0b23 b8bc c309 b83d
00000200: 96d0 19be 95a4 9f3d f3e4 243e 96e9 263b
00000210: 567b bf3d a437 e5bd cf29 083e ffa3 20be
00000220: 35f9 823d 56af d03d 232e abbd bcd9 d1bd
00000230: 6464 263d 1a58 273e ac64 a1bd 290f 053e
00000240: 9a88 a6bd 59cc e4bb 88b7 063e 0536 14be
00000250: e237 35be 8e54 ffbc 92f2 093d a3ce b73c
00000260: 9283 34be 191d a5bd a9d4 273d 9685 e1bc
00000270: ec84 1ebe 204d 693d cc24 393d 3a85 c6bd
00000280: 830f e43b 8254 0cbe 2919 233e 8fe4 a43d
00000290: 247e 6b3c 7798 a73d 4a7b 5d3d c3d7 ee3d
000002a0: d48c 11be 131d 08bd 8ac1 8a3d 3120 17be
000002b0: db9b 0ebd c01b 7ebd cc22 ad3c d8cf 00be
000002c0: 3be1 2a3e 08a0 02be 2b1e 85bd f9ae cfbd
000002d0: 169a f63d 4d9b f63d 82d3 5f3d 0077 f93d
000002e0: c6aa 263e 3e48 00bc 32de c9bd b158 113e
000002f0: 0f44 853d 53d2 0abe d7e5 c53b ef7d 313e
00000300: 769c 4fbd 42ef 1ebe 1b01 273e 5e35 d83c
00000310: e812 923d 7a6c 27be 8e6d 163e bcb0 e9bd
00000320: e003 da3c 61e1 aa3d ffc3 5d3c 04a6 31be
00000330: 9877 d93c 9842 a2bd 92b6 373d e215 9e3d
00000340: 9e4b be3c 2062 cdbc 98a2 5ebd f97d f63d
00000350: 47bd 97bd d4a4 693d 0460 d3bd 4e5d 91bd
00000360: b08d db3c b2c1 0dbe e587 473d dda6 4dbd
00000370: 08a7 2b3e 868d c23b 54f8 15be 8d01 ff3d
00000380: 27b0 00be 338f 193c 0810 0ebc 563b febd
00000390: a101 133e 755a cebd fb7c d63c 4a62 143e
000003a0: 0580 093e 5e2a 20be ef69 153e e969 9cbd
000003b0: 6d0b 8abb a746 c7bd 1748 7d3c 5515 cc3d
000003c0: d12f 06be f51f 45bb 5d62 303e e089 e63d
000003d0: 9b58 2cbd f82c 17be a798 e43a 6ef9 84bd
000003e0: 8788 b93d 76a0 ef3d ecae edbd 2008 e1ba
000003f0: 3df9 fe3d c0e6 a23d 23ff 16be ac90 17be

conv_col_to_row.feature_module_left.0.bias f4 [32]
0.10715442 0.12875092 -0.10928569 0.06622118 -0.020067515 0.11270315 -0.08734553 0.17417787
-0.05943939 -0.14531015 -0.108019866 -0.15202534 0.036937095 0.07021373 -0.16418837 -0.15185376
0.08772135 0.13020462 0.025504488 0.03750844 0.04566028 0.086296566 0.1618894 -0.08791492
0.09052197 -0.052624844 0.12505929 -0.17078474 -0.102171846 -0.06824439 -0.057256527 -0.16802905
00000000: c773 db3d 48d7 033e 2dd1 dfbd f89e 873d
00000010: a164 a4bc e9d0 e63d 37e2 b2bd af5b 323e
00000020: b876 73bd 2fcc 14be 8539 ddbd 88ac 1bbe
00000030: 5a4b 173d 37cc 8f3d ff20 28be 8d7f 1bbe
00000040: 40a7 b33d 5c54 053e caee d03c 73a2 193d
00000050: 4606 3b3d 41bc b03d 56c6 253e bd0c b4bd
00000060: 9563 b93d 268d 57bd 8b0f 003e 32e2 2ebe
00000070: 793f d1bd b7c3 8bbd d285 6abd cf0f 2cbe

conv_col_to_row.feature_module_edge.0.weight f4 [32, 1]
0.54482937 0.6097887 0.09381881 0.33406413 0.08516705 0.4547612 -0.731257 -0.3297639
-0.5087696 0.20782886 -0.91160196 -0.8398079 -0.82717425 0.13265145 -0.5326204 0.088325135
-0.06269384 -0.14543003 0.6930056 0.6562163 -0.7308754 0.009479773 -0.8161808 -0.68770874
0.6834444 0.40849808 -0.66269684 0.6519603 -0.15447323 0.14649953 -0.26500115 0.9211316
00000000: f079 0b3f 1d1b 1c3f 1424 c03d 740a ab3e
00000010: 106c ae3d 76d6 e83e a933 3bbf d0d6 a8be
00000020: b93e 02bf 17d1 543e bf5e 69bf a7fd 56bf
00000030: b1c1 53bf c8d5 073e cf59 08bf cfe3 b43d
00000040: a165 80bd 9ceb 14be d168 313f cbfd 273f
00000050: a61a 3bbf 0d51 1b3c 3af1 50bf ae0d 30bf
00000060: 36f6 2e3f a926 d13e 80a6 29bf dfe6 263f
00000070: 3b2e 1ebe f903 163e 3bae 87be 48cf 6b3f

conv_col_to_row.feature_module_right.0.weight f4 [32, 32]
-0.061651345 0.079540506 -0.100371115 0.11884129 -0.085531145 -0.11732323 -0.013699665 0.030138116
0.0059922975 -0.10459607 -0.09299875 0.060778808 -0.102071926 0.0037903937 0.07596982 0.016894398
0.17710836 0.16335793 0.021818114 0.1343845 -0.16659082 0.037707504 0.17341685 -0.05957055
0.06874902 0.03954605 0.1379098 -0.09929207 -0.116202496 0.006362535 -0.11315872 0.14856042
0.15604423 0.09243828 -0.018003238 0.17638524 -0.15470764 0.17537846 -0.07767412 0.14752057
-0.10854157 -0.09534729 -0.106594816 0.08967062 0.03442301 0.10172044 0.005621087 -0.058380734
0.1373709 -0.14056088 0.07557926 -0.15030415 0.16497642 0.011960824 -0.05953004 0.13619928
-0.14920565 -0.098485865 -0.14212616 -0.05730471 -0.07551167 0.098084666 -0.14894594 0.004492885
0.13829277 -0.038525544 -0.060396228 -0.079465725 0.08903028 0.11306964 -0.13256915 -0.023714337
-0.1501529 -0.05249735 0.020138163 0.0239811 0.12794705 0.12037182 0.05169261 -0.16079709
-0.045759294 0.17543127 -0.056573328 0.043771774 0.027123526 0.09744073 -0.090277605 -0.09924108
-0.04552342 0.11627582 -0.16166452 -0.02570954 0.1032663 0.13983428 0.036282953 -0.08732926
0.040168386 -0.13305962 -0.17204471 0.13443786 -0.1758299 -0.13136683 0.16458243 0.06363533
-0.10662835 -0.12667459 -0.15095685 -0.032687362 -0.106552094 0.08255285 -0.12144526 -0.068027996
-0.052445292 0.054496475 -0.01862718 -0.030581128 -0.07940194 -0.16966291 0.16989139 0.14384705
0.061272245 -0.011883262 0.12730819 -0.04642117 0.005725731 0.111817576 -0.1086275 0.113784924
-0.0856089 -0.13433364 0.1717192 -0.072422 -0.073972665 -0.05874757 0.031002693 -0.0150114335
-0.14873864 -0.16172136 0.10464213 0.07357485 0.13526003 -0.16300815 0.018838577 0.14206752
-0.0798132 0.007352699 0.0015892118 0.15646233 -0.13813387 -0.03454581 0.064154446 0.004833826
0.037547767 -0.1091601 -0.14842032 0.15740974 0.012598389 -0.07031839 -0.0036319203 0.049465142
0.08004547 0.15376525 -0.16699396 -0.14049776 0.061555862 -0.0926846 0.05328475 0.17270084
-0.07070494 0.15403844 0.06682653 0.101078056 0.16482835 0.17316858 0.11066275 0.09123472
0.06287146 0.1437377 0.1688514 -0.1468245 0.12628132 0.1096592 0.091784425 0.08511552
-0.08871987 0.09080327 0.11156818 0.044735037 0.037895676 -0.12152015 -0.15758109 -0.05861538
0.15370476 0.0072728773 0.057078164 0.06204768 -0.0017787312 -0.0020703992 -0.01511488 -0.11427557
0.08326215 -0.097430564 0.052403472 -0.07654876 -0.052512854 -0.0009936134 -0.079841465 -0.11602515
-0.13565509 0.058819197 -0.1251775 -0.17055042 -0.10527531 0.007743738 0.008514826 0.007561115
0.05001999 -0.08341476 0.09832037 0.008270023 0.13712841 0.028570019 0.060415003 -0.1249707
0.13719864 -0.020612456 -0.07425425 0.14714564 -0.05403491 0.11000944 0.009084018 0.002769486
0.14935394 -0.0991189 0.027122715 -0.07910054 0.10930095 0.033532977 0.09488528 0.10665512
-0.056369424 -0.10212254 -0.045944534 0.020270944 -0.09974882 0.10612364 -0.09484463 0.08383383
-0.14989316 -0.088538624 0.026237102 -0.1752863 0.14740956 0.1514053 0.078610875 -0.026594963
00000000: 1f86 7cbd 22e6 a23d 5f8f cdbd 1063 f33d
00000010: f42a afbd 2947 f0bd 8f74 60bc 36e4 f63c
00000020: 095b c43b 7736 d6bd 2176 bebd 33f3 783d
00000030: 160b d1bd 4168 783b 1196 9b3d 1f66 8a3c
00000040: e55b 353e 4d47 273e e7bb b23c 179c 093e
00000050: c996 2abe 2f73 1a3d 3094 313e 4000 74bd
00000060: 49cc 8c3d 0afb 213d 3a38 0d3e a459 cbbd
00000070: 93fb edbd d07c d03b c2bf e7bd 3920 183e
00000080: 0fca 1f3e 4850 bd3d 877b 93bc 559e 343e
00000090: ae6b 1ebe 6996 333e 9c13 9fbd a20f 173e
000000a0: 0b4b debd 7145 c3bd 624e dabd 3ba5 b73d
000000b0: 24ff 0c3d ce52 d03d 1831 b83b a320 6fbd
000000c0: f5aa 0c3e 31ef 0fbe 4dc9 9a3d 55e9 19be
000000d0: 94ef 283e 55f7 433c c5d5 73bd d377 0b3e
000000e0: 5ec9 18be f5b2 c9bd 8589 11be 58b8 6abd
000000f0: dda5 9abd 9de0 c83d 4985 18be 0d39 933b
00000100: 9f9c 0d3e f6cc 1dbd 0962 77bd edbe a2bd
00000110: 8255 b63d 0e91 e73d 35c0 07be 9244 c2bc
00000120: afc1 19be 7607 57bd caf8 a43c 0374 c43c
00000130: 8d04 033e 8085 f63d a1bb 533d fea7 24be
00000140: 196e 3bbd 41a4 333e 6fb9 67bd 084a 333d
00000150: 2832 de3c 018f c73d 77e3 b8bd e83e cbbd
00000160: c476 3abd 0422 ee3d 628b 25be d09c d2bc
00000170: 487d d33d b830 0f3e 6f9d 143d afd9 b2bd
00000180: 9b87 243d c840 08be 7d2c 30be 14aa 093e
00000190: c10c 34be 0785 06be 4c88 283e 3d53 823d
000001a0: f75f dabd fcb6 01be 6f94 1abe 2fe3 05bd
000001b0: fc37 dabd 7811 a93d 4bb8 f8bd 4352 8bbd
000001c0: e0d0 56bd b237 5f3d 0798 98bc 4685 fabc
000001d0: 7c9d a2bd 1dbc 2dbe 02f8 2d3e a44c 133e
000001e0: 9bf8 7a3d 03b2 42bc 145d 023e 2024 3ebd
000001f0: ea9e bb3b 9d00 e53d 1878 debd 1208 e93d
00000200: b853 afbd c28e 09be 28d7 2f3e fc51 94bd
00000210: fb7e 97bd 4ba1 70bd 5cf9 fd3c 84f2 75bc
00000220: f14e 18be 499a 25be 9d4e d63d 69ae 963d
00000230: 9b81 0a3e 9ceb 26be 5c53 9a3c 267a 113e
00000240: 1a75 a3bd e9ee f03b 194d d03a a937 203e
00000250: f772 0dbe e87f 0dbd 6863 833d 1265 9e3b
00000260: b0cb 193d 558f dfbd 7ffb 17be 0530 213e
00000270: 7969 4e3c 1703 90bd 8305 6ebb f69b 4a3d
00000280: e1ee a33d a374 1d3e 7700 2bbe a5de 0fbe
00000290: 0022 7c3d 6cd1 bdbd 1c41 5a3d 7dd8 303e
000002a0: c0cd 90bd 41bc 1d3e 59dc 883d 0302 cf3d
000002b0: c3c8 283e 1b53 313e 27a3 e23d 45d9 ba3d
000002c0: c1c2 803d fa2f 133e 62e7 2c3e 2959 16be
000002d0: e44f 013e 0195 e03d 79f9 bb3d 0c51 ae3d
000002e0: c3b2 b5bd 11f7 b93d dc7d e43d 163c 373d
000002f0: 7f38 1b3d 8edf f8bd f05c 21be ae16 70bd
00000300: c864 1d3e 5151 ee3b cbca 693d b525 7e3d
00000310: 5124 e9ba 89af 07bb 67a4 77bc 4f09 eabd
00000320: 5985 aa3d ad89 c7bd 06a5 563d 99c5 9cbd
00000330: b817 57bd 223c 82ba ec83 a3bd 989e edbd
00000340: 2be9 0abe 66ec 703d 882e 00be c5a4 2ebe
00000350: 959a d7bd 2fbf fd3b c581 0b3c 3bc3 f73b
00000360: c3e1 4c3d 5cd5 aabd 315c c93d fe7e 073c
00000370: 646b 0c3e ac0b ea3c b975 773d a3f0 ffbd
00000380: cd7d 0c3e 74db a8bc 9d12 98bd 59ad 163e
00000390: b653 5dbd a14c e13d 22d5 143c 4480 353b
000003a0: 3df0 183e dafe cabd 7530 de3c 77ff a1bd
000003b0: 2dd9 df3d e059 093d 3753 c23d 006e da3d
000003c0: a0e3 66bd 9f25 d1bd 5630 3cbd 400f a63c
000003d0: 1c49 ccbd 5a57 d93d e73d c2bd 12b1 ab3d
000003e0: 987d 19be bd53 b5bd 31ef d63c 407e 33be
000003f0: 88f2 163e fe09 1b3e bdfe a03d aedd d9bc

conv_col_to_row.feature_module_final.0.weight f4 [32]
0.9986363 0.9997378 1.0 0.9998291 1.0 1.000082 1.0037463 0.99937826
0.9991699 1.0021768 0.99967104 0.9995585 1.0006799 0.9997057 0.9997615 0.9984039
1.001572 0.9999701 1.0002738 1.0009003 1.0017427 1.0005137 0.9995782 0.9998799
1.0027094 1.0005994 1.0025836 1.0 1.0 0.9987008 1.0 1.0
00000000: a1a6 7f3f d1ee 7f3f 0000 803f cdf4 7f3f
00000010: 0000 803f b002 803f c27a 803f 41d7 7f3f
00000020: 99c9 7f3f 5447 803f 71ea 7f3f 11e3 7f3f
00000030: 4716 803f b6ec 7f3f 5ff0 7f3f 6697 7f3f
00000040: 8333 803f 0afe 7f3f f908 803f 801d 803f
00000050: 1b39 803f d510 803f 5be4 7f3f 21f8 7f3f
00000060: c858 803f a413 803f a954 803f 0000 803f
00000070: 0000 803f dbaa 7f3f 0000 803f 0000 803f

conv_col_to_row.feature_module_final.0.bias f4 [32]
-0.0007616484 -0.00039643253 0.0 -0.00015687401 0.0 8.377175e-05 0.00083469757 -0.0004433753
-0.0004470969 0.0017880772 -1.5983102e-05 -0.00043951787 0.0006920151 -0.0009314119 0.0007701777 -0.00072389067
0.0002698565 -4.247365e-05 7.093851e-05 0.0016710747 0.0012266448 0.00014074566 0.0002266835 -0.00038335868
0.0026580226 0.00036107245 0.0018143576 0.0 0.0 -0.0015287148 0.0 0.0
00000000: 5ca9 47ba 46d8 cfb9 0000 0000 8c7e 24b9
00000010: 0000 0000 9eae af38 9bcf 5a3a d374 e8b9
00000020: 5568 eab9 ea5d ea3a 7313 86b7 176f e6b9
00000030: 5968 353a ff29 74ba c0e5 493a 7bc3 3dba
00000040: 877b 8d39 bc25 32b8 d3c4 9438 f607 db3a
00000050: 5fc7 a03a 2095 1339 e4b1 6d39 88fd c8b9
00000060: 3832 2e3b 534e bd39 bdcf ed3a 0000 0000
00000070: 0000 0000 285f c8ba 0000 0000 0000 0000

conv_col_to_row.feature_module_final.2.weight f4 [32, 32]
-0.016124139 0.046372794 -0.11127706 0.059977505 -0.06373465 0.07366902 0.02201173 0.07320498
-0.14901498 -0.15955572 -0.073141724 -0.07999635 0.127666 0.13066779 -0.040933207 0.06192406
-0.16008957 -0.014489893 0.10732191 -0.090310335 0.16903105 -0.049913943 0.12786488 0.096301176
0.06255424 -0.10145268 0.10027525 -0.101569265 0.03590351 -0.13567056 -0.020012967 0.044545975
-0.14161566 -0.17057814 -0.015672306 0.026690459 0.07167183 0.12961163 -0.0135289095 -0.08994686
-0.061929658 0.11275585 -0.119190544 -0.02650137 -0.048966683 0.03338205 0.095189504 0.16890141
-0.051786814 0.1480963 -0.05231053 0.16736102 -0.16344213 0.13373785 0.11973759 -0.07383703
0.14165275 -0.07805486 0.10293483 0.035133295 -0.06753847 -0.1179319 0.019978976 0.0917013
-0.17254618 -0.08564379 -0.121474676 0.06480651 -0.023455016 -0.061801963 0.1378814 0.03549855
0.122127496 -0.13377234 0.12445215 -0.04943686 0.014387348 -0.052310538 -0.15962462 -0.12664153
0.095701896 0.00687161 -0.17343317 -0.060234357 -0.10591089 0.060963064 0.1297653 0.09509103
-0.171307 0.044210013 0.017452382 0.10203353 -0.03152778 0.13226311 -0.043918703 0.00791168
0.11563337 0.01540438 -0.14947978 -0.039080717 -0.09781843 -0.022773787 -0.06611002 0.09140865
0.16836421 0.109093316 0.13077001 -0.03955016 -0.14079265 -0.015372784 -0.025188541 0.10995337
0.13983881 0.15119249 -0.076998815 -0.065262176 0.064409114 -0.012160125 0.08561147 -0.15544838
0.11676325 0.066944845 -0.015241706 0.00476487 0.08255697 -0.16045445 0.0367138 0.0066200052
0.031420976 -0.1055959 0.15925448 0.1358371 0.04933952 -0.163704 -0.06707252 -0.04048471
-0.07184502 0.15375671 0.14982112 0.14259204 0.10139429 0.07406051 0.11070708 -0.09365068
-0.025293801 0.08929593 0.023851404 0.10301032 0.06947101 -0.100168645 -0.13859975 -0.08170974
0.11181208 -0.09101436 -0.050134435 -0.11170071 0.022027038 0.102735944 -0.03889861 -0.084650576
0.100869514 -0.054668993 0.0033183477 -0.10288822 0.05207694 -0.11943266 0.15951754 -0.010424229
0.040231146 -0.14019205 0.02342157 0.15873224 -0.14768462 0.12197712 -0.08650689 -0.08754558
0.041914355 0.17496462 -0.12642479 0.052733544 0.1641229 -0.0121984705 -0.114009306 -0.07480486
0.010777104 -0.06205117 -0.089971915 -0.14715016 0.16183513 -0.16030665 0.1507432 0.036157697
-0.118539795 0.06101067 0.08522481 0.13692456 -0.04886063 0.08195421 -0.08993728 -0.029625777
-0.14503536 0.0012274345 -0.17579782 -0.15080015 -0.13410234 -0.13592087 0.117721565 -0.013268902
-0.050142646 -0.16492715 0.1729945 -0.120275915 0.0014468321 0.0663892 -0.15850165 0.006371935
0.01810745 0.09096168 0.06797225 0.13408554 -0.15047811 -0.05096487 0.057341672 -0.12612367
-0.07894812 0.14885226 0.019418191 0.02244181 0.052995216 -0.1310074 -0.17183554 0.12891091
0.13555798 0.111599416 0.16037679 0.11649078 -0.07418422 -0.12085658 0.03570992 0.12892589
0.14371713 0.08875523 0.027495807 0.1006281 -0.050936863 0.100956954 0.028873762 0.027303163
-0.10950336 -0.13276571 0.17764358 0.12593839 0.06632287 -0.021898229 -0.15697339 0.16508745
00000000: c516 84bc 66f1 3d3d 3ae5 e3bd f9aa 753d
00000010: 5087 82bd c8df 963d f251 b43c 7eec 953d
00000020: 6297 18be 9362 23be 54cb 95bd 20d5 a3bd
00000030: e0ba 023e c7cd 053e 94a9 27bd 15a4 7d3d
00000040: 85ee 23be 0467 6dbc 97cb db3d a0f4 b8bd
00000050: 7a16 2d3e 9072 4cbd 03ef 023e 8d39 c53d
00000060: 701c 803d 6cc6 cfbd 1c5d cd3d 8c03 d0bd
00000070: 8f0f 133d 39ed 0abe 3cf2 a3bc d775 363d
00000080: b203 11be 09ac 2ebe 3563 80bc f3a5 da3c
00000090: aec8 923d e9b8 043e 5ca8 5dbc 0f36 b8bd
000000a0: f4a9 7dbd 8aec e63d 2c1a f4bd 6719 d9bc
000000b0: 4a91 48bd 9ebb 083d b7f2 c23d 7ef4 2c3e
000000c0: 691e 54bd 8ea6 173e 9143 56bd b060 2b3e
000000d0: 605d 27be 93f2 083e fb38 f53d de37 97bd
000000e0: 6b0d 113e 3adb 9fbd 7fcf d23d eee7 0f3d
000000f0: 9c51 8abd 4886 f1bd f3aa a33c e4cd bb3d
00000100: f2af 30be 0366 afbd b7c7 f8bd 47b9 843d
00000110: bc24 c0bc 0e24 7dbd c830 0d3e ed66 113d
00000120: fb1d fa3d 9efb 08be c5e0 fe3d 4e7e 4abd
00000130: e9b8 6b3c 9343 56bd a374 23be 51ae 01be
00000140: 5bff c33d 3e2b e13b 7798 31be 4db8 76bd
00000150: cfe7 d8bd 68b4 793d 32e1 043e 16bf c23d
00000160: 1a6b 2fbe 8f15 353d 4cf8 8e3c f5f6 d03d
00000170: 4623 01bd fb6f 073e 19e4 33bd fe9f 013c
00000180: 30d1 ec3d a762 7c3c 3a11 19be 1a13 20bd
00000190: 0755 c8bd 1890 babc b164 87bd 7534 bb3d
000001a0: ab67 2c3e 516c df3d 93e8 053e 59ff 21bd
000001b0: f32b 10be 21de 7bbc 3358 cebc 3c2f e13d
000001c0: e831 0f3e 34d2 1a3e 8eb1 9dbd 2da8 85bd
000001d0: ede8 833d 433b 47bc 1155 af3d dc2d 1fbe
000001e0: 9221 ef3d 611a 893d 59b8 79bc a022 9c3b
000001f0: a113 a93d 2c4e 24be 3661 163d a1ec d83b
00000200: 48b3 003d aa42 d8bd 9b13 233e e118 0b3e
00000210: 3d18 4a3d 05a2 27be 515d 89bd 4cd3 25bd
00000220: 7b23 93bd 6672 1d3e b56a 193e a603 123e
00000230: cfa7 cf3d 09ad 973d 65ba e23d edcb bfbd
00000240: f234 cfbc c9e0 b63d 0564 c33c 13f7 d23d
00000250: d146 8e3d 3825 cdbd 18ed 0dbe 7057 a7bd
00000260: bbfd e43d bd65 babd c459 4dbd 58c3 e4bd
00000270: 0c72 b43c 3967 d23d 2654 1fbd 485d adbd
00000280: ad94 ce3d 98ec 5fbd a378 593b 0fb7 d2bd
00000290: a14e 553d 1c99 f4bd 9158 233e 63ca 2abc
000002a0: 6ac9 243d 818e 0fbe 98de bf3c b48a 223e
000002b0: a33a 17be 24cf f93d 862a b1bd 194b b3bd
000002c0: 63ae 2b3d ed29 333e 8075 01be 21ff 573d
000002d0: d50f 283e 18dc 47bc b67d e9bd 4a33 99bd
000002e0: 7392 303c 5e29 7ebd 3243 b8bd 88ae 16be
000002f0: 1cb8 253e 6d27 24be 6d5c 1a3e 181a 143d
00000300: fec4 f2bd 53e6 793d 588a ae3d f435 0c3e
00000310: 1522 48bd 9cd7 a73d 0931 b8bd c2b1 f2bc
00000320: 2684 14be dee1 a03a 5804 34be 5b6b 1abe
00000330: 2052 09be d72e 0bbe 0118 f13d cf65 59bc
00000340: 6062 4dbd aae2 28be 7825 313e 3853 f6bd
00000350: a1a3 bd3a 10f7 873d 424e 22be aacb d03b
00000360: 1356 943c 1e4a ba3d 0935 8b3d b84d 093e
00000370: ef16 1abe 8ac0 50bd 1adf 6a3d 9026 01be
00000380: 8daf a1bd ba6c 183e e612 9f3c e3d7 b73c
00000390: 8311 593d ce26 06be a8f5 2fbe 3901 043e
000003a0: b6cf 0a3e 3c8e e43d d039 243e b892 ee3d
000003b0: e5ed 97bd a883 f7bd 9144 123d 2605 043e
000003c0: 952a 133e 4dc5 b53d e33e e13c 1b16 ce3d
000003d0: 2ca3 50bd 85c2 ce3d ab88 ec3c e2aa df3c
000003e0: 4c43 e0bd bcf3 07be 33e8 353e fef5 003e
000003f0: 49d4 873d ea63 b3bc a2bd 20be af0c 293e

conv_col_to_row.feature_module_final.2.bias f4 [32]
0.0457964 -0.09970233 -0.02963126 -0.01893891 -0.16417204 -0.15479574 0.14409521 0.045445815
0.1633959 -0.011002136 -0.06550614 0.16129917 0.14173846 0.16564229 0.16777349 0.051672783
-0.10573267 -0.15350749 -0.0634296 0.03277659 0.10563128 -0.03872072 0.11493852 0.05689837
-0.11566421 0.06326285 -0.00036547252 0.003616124 0.09521217 -0.061214328 0.15921435 -0.08971308
00000000: 0295 3b3d bc30 ccbd 42bd f2bc c625 9bbc
00000010: b71c 28be c682 1ebe b28d 133e 6425 3a3d
00000020: 4151 273e 4e42 34bc 1528 86bd 9c2b 253e
00000030: e323 113e 229e 293e d0cc 2b3e d7a6 533d
00000040: 5f8a d8bd 1131 1dbe 61e7 81bd bf40 063d
00000050: 3655 d83d 9e99 1ebd e364 eb3d 440e 693d
00000060: 5be1 ecbd f48f 813d e49c bfb9 7efc 6c3b
00000070: 99fe c23d e0bb 7abd 1609 233e 7ebb b7bd
