GNN/ResultsGCNN/actor_21.pt (torch, 83520 bytes, 43 tensors)

row_embedding.0.weight f4 [7]
1.0009804 1.0004737 0.9996066 1.00094 0.99973804 1.000391 0.9999869
00000000: 2020 803f 860f 803f 38e6 7f3f cd1e 803f
00000010: d5ee 7f3f d00c 803f 24ff 7f3f

row_embedding.0.bias f4 [7]
-0.0010420129 -0.0005633809 -0.00039870167 -0.0008099712 0.00037156022 -0.00044589362 0.00026992703
00000000: 2794 88ba daaf 13ba d508 d1b9 3f54 54ba
00000010: f8cd c239 d4c6 e9b9 fe84 8d39

row_embedding.1.weight f4 [32, 7]
0.05393959 0.054877125 0.1378111 -0.35765904 -0.18345788 0.24034558 -0.085674286 -0.2720254
-0.06352423 -0.039341275 -0.10694125 0.19437031 0.0010145248 -0.08620837 -0.12625267 -0.29281288
-0.28392634 0.2616916 0.31735677 0.019359387 -0.20225257 -0.21085359 0.1289626 0.31757012
-0.3558116 0.028445367 0.0066731046 0.19640926 -0.13959645 -0.032561317 -0.30738014 0.20932662
-0.20291147 -0.20191887 -0.19598211 -0.1066878 0.053012613 -0.012654457 -0.35318348 0.09903931
-0.20263606 0.31443518 -0.26787123 -0.33587512 0.2714652 -0.22410896 -0.31266192 -0.0563838
0.019689118 -0.24383004 0.27104893 0.22888502 0.26052582 0.21179466 0.031957775 0.03432546
-0.13697772 -0.07654098 0.023722157 0.014073353 -0.13732235 -0.20663546 0.27813375 0.048630554
-0.34213355 -0.20049983 0.36379075 -0.18894301 0.25644818 -0.34973568 -0.26705134 0.33744946
-0.09536398 -0.0061308653 -0.039382372 -0.25132975 0.25226414 -0.18170114 0.0127918115 -0.35610875
-0.074946165 -0.015116675 0.25854987 0.13579215 0.2887456 -0.07284706 -0.30921644 -0.10667673
-0.06837681 0.31719455 -0.22813031 0.24926512 0.21336377 -0.21912909 -0.24556977 -0.15409191
-0.14799191 -0.26988587 -0.36150327 0.08950346 0.09928774 -0.2799783 0.27319974 -0.14325392
-0.11522239 0.06658339 0.28435498 -0.32908902 -0.070045985 0.119677365 -0.30779284 0.29667553
0.14779162 0.32750273 -0.027598621 0.17379113 -0.2537091 0.35090047 0.0924352 0.19660053
-0.21742716 -0.26588655 -0.32436073 -0.3462223 0.002725676 -0.022399683 -0.3525197 0.3414852
-0.17486021 -0.30130965 -0.1627824 0.3169016 0.08914242 -0.19615717 -0.16726354 -0.24007052
0.12602963 0.24790785 -0.19155289 0.358526 0.32898596 0.12788512 -0.009263574 0.27441874
0.10390903 -0.33441007 -0.2573295 0.19893406 0.033726122 0.35371187 -0.2721547 -0.28660542
-0.10730682 -0.23045167 0.28102693 0.032001045 -0.13471682 -0.048392005 0.034380008 -0.27361923
0.043183114 -0.24489714 0.05929082 0.13692217 -0.232733 -0.2096026 -0.012109295 0.29744238
0.18961681 -0.08836801 0.33039546 0.09709701 0.36495253 0.26580083 -0.26205555 0.023361493
0.23131932 0.075811066 0.12005388 0.31227067 -0.27751547 0.1271177 -0.116385 -0.15707362
0.3384892 0.27042824 0.24740621 0.03702109 -0.29323354 0.34255037 0.10734208 -0.03886973
-0.28908804 -0.108511135 -0.32964468 0.29512337 0.31967217 0.0741076 0.31762347 -0.23987886
-0.21314867 0.18004306 0.3693258 -0.23546323 -0.306522 0.12781496 0.115609385 0.2664125
0.057054713 -0.37793425 0.15262204 -0.18083917 0.19466107 -0.28027734 -0.292548 0.033750925
-0.06450944 -0.3510569 -0.18690306 -0.31080133 0.10673681 0.1008916 -0.11956329 -0.31667107
00000000: c2ef 5c3d d6c6 603d 5a1e 0d3e 161f b7be
00000010: 62dc 3bbe 271d 763e 0076 afbd ea46 8bbe
00000020: fe18 82bd 5124 21bd 0404 dbbd 0309 473e
00000030: cef9 843a 048e b0bd 6148 01be 92eb 95be
00000040: cb5e 91be 71fc 853e 967c a23e 9497 9e3c
00000050: 4c1b 4fbe 01ea 57be c60e 043e 8d98 a23e
00000060: f02c b6be 4206 e93c 0faa da3b 821f 493e
00000070: 5ff2 0ebe 045f 05bd ee60 9dbe b859 563e
00000080: 06c8 4fbe d2c3 4ebe 89af 48be 227f dabd
00000090: c123 593d a454 4fbc 77d4 b4be 1fd5 ca3d
000000a0: d47f 4fbe a6fd a03e 6b26 89be d3f7 abbe
000000b0: 7dfd 8a3e d27c 65be 3915 a0be b3f2 66bd
000000c0: 134b a13c 95ae 79be edc6 8a3e d660 6a3e
000000d0: a463 853e b3e0 583e 28e6 023d db98 0c3d
000000e0: e343 0cbe 84c1 9cbd f854 c23c ec93 663c
000000f0: 3b9e 0cbe 3f98 53be 8c67 8e3e d530 473d
00000100: 212c afbe d44f 4dbe c842 ba3e 477a 41be
00000110: 2d4d 833e 8e10 b3be f4ba 88be 2dc6 ac3e
00000120: 314e c3bd 6de5 c8bb 694f 21bd 4bae 80be
00000130: c428 813e dd0f 3abe bf94 513c e353 b6be
00000140: 607d 99bd eeab 77bc a660 843e 190d 0b3e
00000150: 77d6 933e d730 95bd 9e51 9ebe 5479 dabd
00000160: 2409 8cbd 5367 a23e fe9a 69be 5b3f 7f3e
00000170: 087c 5a3e 6063 60be a476 7bbe 45ca 1dbe
00000180: 318b 17be 7b2e 8abe f516 b9be 974d b73d
00000190: 5f57 cb3d 5159 8fbe d6e0 8b3e 28b1 12be
000001a0: b7f9 ebbd df5c 883d fa96 913e 5b7e a8be
000001b0: 4574 8fbd 6819 f53d 0697 9dbe dbe5 973e
000001c0: b056 173e 70ae a73e 8116 e2bc 4df6 313e
000001d0: 29e6 81be 3aa9 b33e ab4e bd3d a651 493e
000001e0: 3aa5 5ebe 4822 88be 9c12 a6be 0d44 b1be
000001f0: 41a1 323b 8a7f b7bc 767d b4be 26d7 ae3e
00000200: 8e0e 33be 4245 9abe 6eb0 26be ed40 a23e
00000210: 4d90 b63d 6ddd 48be 2247 2bbe 0cd5 75be
00000220: e90d 013e 8edb 7d3e 7126 44be b890 b73e
00000230: d970 a83e 51f4 023e 3fc6 17bc 9d80 8c3e
00000240: 42ce d43d cc37 abbe b1c0 83be 5fb5 4b3e
00000250: 6724 0a3d b919 b53e dc57 8bbe f2bd 92be
00000260: aec3 dbbd 86fb 6bbe c3e2 8f3e 8713 033d
00000270: 35f3 09be b236 46bd 0dd2 0c3d d217 8cbe
00000280: c7e0 303d 51c6 7abe eeda 723d 5335 0c3e
00000290: 8f51 6ebe 10a2 56be 1166 46bc 5e4a 983e
000002a0: e92a 423e 4afa b4bd 9829 a93e ccda c63d
000002b0: 0fdb ba3e 0c17 883e 252c 86be 9a60 bf3c
000002c0: f9de 6c3e d542 9b3d cfde f53d f1e1 9f3e
000002d0: 8216 8ebe 242b 023e 425b eebd e8d7 20be
000002e0: 754e ad3e 9275 8a3e 0e58 7d3e 6da3 173d
000002f0: b522 96be c362 af3e 2ad6 db3d de35 1fbd
00000300: 5903 94be 163b debd 30c7 a8be 691a 973e
00000310: 12ac a33e bac5 973d 8b9f a23e cea2 75be
00000320: a543 5abe 355d 383e 4518 bd3e 461d 71be
00000330: 74f0 9cbe ede1 023e 9dc4 ec3d 3867 883e
00000340: 34b2 693d 9980 c1be f448 1c3e e72d 39be
00000350: 3b55 473e 8380 8fbe dac8 95be 693e 0a3d
00000360: 861d 84bd bbbd b3be 8463 3fbe 5a21 9fbe
00000370: d498 da3d 41a0 ce3d 99dd f4bd b622 a2be

row_embedding.1.bias f4 [32]
-0.050931998 0.2568569 0.11048629 -0.36902052 0.08112364 -0.12260757 0.017945098 -0.10646759
0.15079951 -0.2098108 -0.35000777 -0.02611786 0.31842592 0.14990212 0.34623128 0.098615184
-0.1582696 0.0173003 -0.12135629 0.3072997 0.28145298 -0.025882356 0.21007451 -0.09914404
0.3217604 0.20660505 -0.14855874 0.12562448 -0.29492283 -0.19654743 0.021136533 -0.21564284
00000000: 129e 50bd bf82 833e a346 e23d 42f0 bcbe
00000010: 2724 a63d ad19 fbbd 9901 933c ae0b dabd
00000020: 306b 1a3e a4d8 56be 3834 b3be 1ff5 d5bc
00000030: b908 a33e f17f 193e 3a45 b13e c2f6 c93d
00000040: 6d11 22be 5cb9 8d3c a689 f8bd 6356 9d3e
00000050: 9b1a 903e 3c07 d4bc c61d 573e 080c cbbd
00000060: c7bd a43e 4690 533e c81f 18be b4a3 003e
00000070: 2000 97be bb43 49be 8626 ad3c 7ad1 5cbe

row_embedding.3.weight f4 [32, 32]
-0.12280213 -0.04121758 0.07058348 0.011669287 0.100770414 0.002456922 0.16283762 0.14543281
0.10022135 -0.14668074 0.034425005 0.029128117 0.099703304 0.0022445386 0.13761869 0.15420899
0.15556386 0.035638954 -0.119356796 0.10389309 0.04051676 0.05446251 0.045460578 0.11385151
-0.16347237 0.107032456 0.12631617 0.15128191 0.017648336 -0.15535335 0.14724725 -0.029539643
0.03498992 0.028092984 -0.17744565 0.008042928 -0.017489677 -0.045429643 0.07767754 0.04319751
-0.09398957 -0.038889833 -0.10088166 -0.16059218 0.08716917 0.10298313 0.15728414 -0.16858312
-0.04864767 0.13068154 0.07934027 -0.13485093 0.12904955 0.12269516 0.13282855 0.122069396
0.1398584 -0.06950792 0.13900009 0.113599025 -0.13351807 0.05697384 -0.13652912 -0.092348464
0.015210536 0.16181046 -0.10599548 -0.14769727 0.17013259 -0.08325266 -0.16348836 -0.07209829
0.11943835 0.031980388 0.15962107 0.10463469 0.010428751 0.16322112 -0.08081728 0.08718971
-0.036422346 -0.017382989 0.0419895 0.12692377 0.15341292 0.05095774 -0.05176027 0.17044541
0.033163477 0.05708183 0.055738136 -0.16202329 0.16746452 0.16428004 0.1297579 0.15422258
-0.080141455 -0.037272446 -0.15412253 0.057267096 0.04746798 0.060589924 0.1707766 -0.023487562
0.08954617 0.11625482 -0.10728087 -0.030424474 0.12764347 -0.10300576 0.061997067 0.08990546
-0.01886939 0.17042562 -0.06818744 0.07322033 -0.039633103 -0.15882635 0.07444246 -0.06632832
-0.0027677559 0.15515554 -0.07910917 -0.06430142 -0.17388211 -0.12660567 -0.11404689 0.045001406
0.0925816 -0.028053273 -0.11438684 0.010841589 0.084144056 -0.06350433 -0.10958668 0.094245344
-0.17021196 0.07274158 0.13803948 -0.1732191 -0.049253102 -0.038880166 0.012652072 -0.17501779
-0.10784558 -0.102928944 0.06916066 0.062101085 -0.13533534 0.047568724 0.008460887 0.065663226
-0.0654411 0.12016286 -0.081169054 -0.1331842 0.10751584 -0.17411117 0.12117698 -0.05012162
-0.08726509 -0.15942536 -0.03314835 0.061243523 -0.056245875 0.16317888 0.09268113 0.06056148
-0.16477668 0.0038441087 -0.12670322 0.046177898 -0.039336897 0.109424725 -0.002471702 -0.16361554
-0.097041495 -0.17561494 -0.044692665 0.0850422 -0.14448197 0.11751258 -0.17436425 -0.01320014
0.0005948395 -0.088530995 -0.15277126 -0.096792765 -0.1436452 -0.020046221 0.026842527 -0.16388138
0.08698111 0.12956947 0.12222591 -0.038811907 0.14077345 0.057026036 -0.1238157 -0.07981474
-0.15434068 0.08162824 0.1277542 0.06576953 -0.029967234 -0.14020154 -0.16426775 0.019023897
-0.022486823 0.1340394 -0.07290424 0.13615635 0.09642646 0.11345799 0.041249078 0.13500205
-0.0877159 -0.044534646 -0.086050965 0.014254387 0.16614169 -0.047732934 -0.03360283 0.10739258
-0.063610874 -0.042814307 -0.12018702 -0.12820874 0.035960298 0.13834766 0.13928728 -0.10070373
0.08840322 -0.108577885 -0.17387323 -0.0022277324 0.15201175 -0.019947257 -0.14676505 -0.059537336
0.067813724 0.13390793 -0.17477058 0.044697974 0.06051067 0.034655716 -0.17301027 -0.061752465
-0.031548195 -0.09724181 -0.1314852 0.032085773 -0.016365329 -0.009808055 -0.12494956 0.14125511
00000000: af7f fbbd c4d3 28bd 128e 903d 8a30 3f3c
00000010: b860 ce3d 5004 213b e8be 263e 57ec 143e
00000020: da40 cd3d 7a33 16be 3c01 0d3d 179e ee3c
00000030: 3f31 cc3d 1c19 133b eaeb 0c3e f6e8 1d3e
00000040: 224c 1f3e 27fa 113d 5671 f4bd e6c5 d43d
00000050: e7f4 253d 1514 5f3d df34 3a3d fb2a e93d
00000060: 4d65 27be d533 db3d 0759 013e a5e9 1a3e
00000070: 3e93 903c f314 1fbe fcc7 163e 1ffd f1bc
00000080: 9751 0f3d 4223 e63c 50b4 35be 7cc6 033c
00000090: 8346 8fbc 6f14 3abd 6715 9f3d dfef 303d
000000a0: 9b7d c0bd f24a 1fbd 0b9b cebd 4772 24be
000000b0: c085 b23d d2e8 d23d 180f 213e 0ea1 2cbe
000000c0: c742 47bd 62d1 053e 277d a23d 5d16 0abe
000000d0: 9125 043e 9a47 fb3d 3504 083e 85ff f93d
000000e0: 0a37 0f3e 2b5a 8ebd 0a56 0e3e 9ba6 e83d
000000f0: f6b8 08be 675d 693d 4ace 0bbe 3121 bdbd
00000100: 9d35 793c a4b1 253e 2914 d9bd f43d 17be
00000110: 3d37 2e3e 5f80 aabd 7e69 27be 45a8 93bd
00000120: 189c f43d defd 023d b573 233e b64a d63d
00000130: 5add 2a3c 7023 273e 8883 a5bd 8590 b23d
00000140: 992f 15bd c566 8ebc 2ffd 2b3d 4ef8 013e
00000150: 4718 1d3e 10b9 503d 9402 54bd 3e89 2e3e
00000160: 6dd6 073d a3ce 693d ac4d 643d 6fe9 25be
00000170: d27b 2b3e 0739 283e 41df 043e 86ec 1d3e
00000180: 3421 a4bd feaa 18bd 4cd2 1dbe e790 6a3d
00000190: c96d 423d 242d 783d 10e0 2e3e fd68 c0bc
000001a0: fb63 b73d 0217 ee3d 13b6 dbbd bf3c f9bc
000001b0: f8b4 023e aff4 d2bd a3f0 7d3d 5b20 b83d
000001c0: fb93 9abc 0e84 2e3e dba5 8bbd 8af4 953d
000001d0: 5256 22bd 60a3 22be 4a75 983d 24d7 87bd
000001e0: 3d63 35bb 18e1 1e3e fd03 a2bd 76b0 83bd
000001f0: 270e 32be eba4 01be 6a91 e9bd 6553 383d
00000200: 6c9b bd3d facf e5bc a643 eabd eca0 313c
00000210: b853 ac3d 8f0e 82bd fb6e e0bd b403 c13d
00000220: 0b4c 2ebe 8af9 943d 395a 0d3e 5960 31be
00000230: 9fbd 49bd cf40 1fbd a34a 4f3c dd37 33be
00000240: 25de dcbd 69cc d2bd 1ba4 8d3d b55d 7e3d
00000250: 5995 0abe 6cd7 423d 889f 0a3c 717a 863d
00000260: fc05 86bd f217 f63d f63b a6bd 7061 08be
00000270: 4431 dc3d 334a 32be a32b f83d 544c 4dbd
00000280: 0ab8 b2bd 6740 23be 90c6 07bd 7dda 7a3d
00000290: 1362 66bd 5d18 273e 9bcf bd3d 500f 783d
000002a0: 38bb 28be 71ed 7b3b 7dbe 01be 0925 3d3d
000002b0: ba1f 21bd 121a e03d 47fc 21bb d58a 27be
000002c0: b1bd c6bd 67d4 33be a80f 37bd 9b2a ae3d
000002d0: 15f3 13be 6faa f03d 8b8c 32be 6645 58bc
000002e0: 01ef 1b3a bd4f b5bd 1270 1cbe 493b c6bd
000002f0: ba17 13be f937 a4bc dce4 db3c 85d0 27be
00000300: 2723 b23d dcad 043e 9451 fa3d 3cf9 1ebd
00000310: ea26 103e 2294 693d 1693 fdbd e975 a3bd
00000320: 7c0b 1ebe b52c a73d ffd1 023e 2db2 863d
00000330: d87d f5bc fe90 0fbe ce35 28be 01d8 9b3c
00000340: 4936 b8bc a041 093e d14e 95bd 926c 0b3e
00000350: 3c7b c53d aa5c e83d cbf4 283d fa3d 0a3e
00000360: 65a4 b3bd f669 36bd 7d3b b0bd 3b8b 693c
00000370: 0c21 2a3e 9c83 43bd 1fa3 09bd a4f0 db3d
00000380: 6b46 82bd 0e5e 2fbd 9d24 f6bd 2749 03be
00000390: 1b4b 133d 02ab 0d3e 53a1 0e3e c23d cebd
000003a0: bf0c b53d 155e debd d30b 32be 26ff 11bb
000003b0: f8a8 1b3e 6e68 a3bc 9449 16be 6cdd 73bd
000003c0: ece1 8a3d 291f 093e 0ff7 32be 3915 373d
000003d0: 09da 773d 27f3 0d3d 9b29 31be 27f0 7cbd
000003e0: ae38 01bd b726 c7bd 0ea4 06be 5f6c 033d
000003f0: 9510 86bc f7b1 20bc 8ee5 ffbd 2ea5 103e

row_embedding.3.bias f4 [32]
0.10837725 -0.052170444 -0.059829686 -0.041071482 0.016470846 -0.12979893 0.10806823 0.14198874
-0.06551754 0.10210115 0.13353747 0.09854837 -0.019581513 0.043058123 0.104549155 0.105779506
0.095606096 -0.07416042 0.04972169 0.09181536 -0.011590455 0.033097316 0.055288643 0.0652832
0.10370612 0.041364767 0.1644624 -0.054774016 0.003509078 -0.008445698 -0.14912203 0.12031211
00000000: e4f4 dd3d adb0 55bd f90f 75bd 923a 28bd
00000010: deed 863c 03ea 04be e052 dd3d 7f65 113e
00000020: 0f2e 86bd 681a d13d 0cbe 083e bad3 c93d
00000030: 6969 a0bc b75d 303d de1d d63d eda2 d83d
00000040: 21cd c33d 6be1 97bd f9a8 4b3d b109 bc3d
00000050: e4e5 3dbc 0d91 073d 5876 623d 33b3 853d
00000060: e063 d43d 1a6e 293d d568 283e b85a 60bd
00000070: 8ff8 653b d35f 0abc 72b3 18be 3266 f63d

col_embedding.0.weight f4 [7]
0.9989474 1.0001383 1.0001538 1.0002137 0.9993683 0.9995537 1.0002404
00000000: 04bb 7f3f 8804 803f 0a05 803f 0107 803f
00000010: 9ad6 7f3f c0e2 7f3f e107 803f

col_embedding.0.bias f4 [7]
-0.00015466844 -0.00010269495 9.776236e-05 -0.0002207616 0.00046083974 0.00047202417 0.00034237985
00000000: 7e2e 22b9 ee5d d7b8 c405 cd38 3e7c 67b9
00000010: dd9c f139 037a f739 7281 b339

col_embedding.1.weight f4 [32, 7]
0.35387015 0.0041585155 -0.0012655623 -0.17553766 0.27501658 -0.36501783 -0.102036946 -0.11623232
-0.25870222 -0.16412467 0.18577193 -0.21341018 0.005116704 -0.23629998 -0.19714615 0.013100864
0.27076825 -0.1768719 0.031691242 0.090179026 0.20987622 0.28447515 0.28190354 -0.103955306
0.05994256 -0.30958006 -0.018485568 0.17653993 0.14708793 0.3204452 0.29610118 -0.17962858
-0.066854425 -0.25200626 -0.3656921 -0.37679628 0.03788703 -0.071679346 0.2418689 -0.22780192
0.16877317 -0.120583236 -0.03321465 0.36346298 0.37256548 0.20471029 0.2306829 0.036629304
0.17283829 0.07765205 -0.12323 0.18506645 -0.3550361 0.07098134 0.072561555 0.12995693
-0.10940685 -0.17991039 -0.093055524 -0.012716154 -0.22335279 -0.15382183 0.17659622 0.075769916
-0.325611 -0.0541615 -0.025055032 0.16352525 0.30086344 -0.37784916 0.36447722 0.017741919
0.3629602 -0.12872255 -0.28639898 -0.23864073 -0.23402864 0.35796463 0.13278115 -0.26798958
-0.06514308 -0.17323107 -0.2310183 0.22054404 0.2934963 -0.298662 0.023724938 0.2479752
0.16226934 -0.0725755 -0.22781767 -0.32550585 -0.20750806 0.012978006 -0.035029866 0.20038247
0.16738693 -0.007982189 -0.016447274 0.18828043 -0.18758103 0.21478547 0.3196049 0.22367784
0.08667721 0.0457785 -0.027647777 0.19852756 0.25764728 -0.02771329 0.127028 -0.28401014
0.18823956 0.27399316 -0.0007313958 -0.15341401 -0.09286717 -0.122446015 -0.34219676 0.32680845
-0.011835263 -0.31919333 0.25789464 0.3183881 0.31261182 -0.22969824 -0.25677994 0.07742271
0.0700133 -0.22069532 0.06639264 0.2530608 -0.27692053 0.37026614 -0.3497251 -0.083952524
-0.056317374 0.08673157 -0.012164347 0.25244996 0.06933852 -0.16148658 -0.37314633 -0.29308867
0.2051668 0.1566218 0.20199493 -0.042976778 0.10830731 -0.32129878 0.010865556 -0.15605219
-0.25293916 -0.09003008 0.22630963 0.23057741 0.05700414 -0.06393886 -0.17429423 -0.015054953
-0.04536135 0.22614801 0.11391982 -0.28733274 -0.32118973 0.12460336 0.02742063 0.13651879
-0.16834326 0.16114154 -0.30643335 0.08612802 -0.25653943 -0.29801086 -0.078967355 0.27278486
-0.25976506 -0.2676699 0.18557069 -0.35310283 -0.00912532 -0.2649723 0.26971576 -0.057225715
-0.09965087 -0.22928628 0.02390522 0.14318183 0.097728714 0.19658239 0.37146437 0.18460384
0.31305766 0.07640472 -0.23232716 -0.29494387 0.3586114 -0.13696069 0.326812 0.051819973
-0.13090403 -0.22294426 -0.3489727 0.017712805 0.10055204 -0.005863701 -0.3041422 0.28239447
0.26483846 0.35706204 0.34984592 -0.10411452 -0.19276343 0.1770561 0.009384128 0.14051996
-0.054993592 0.17448172 -0.36578178 0.3451633 0.15878893 0.36265355 0.0052704364 0.23781724
00000000: 782e b53e 2844 883b 39e1 a5ba 25c0 33be
00000010: f9ce 8c3e 9ee3 babe bff8 d0bd 360b eebd
00000020: 9e74 84be 4c10 28be ff3a 3e3e 3388 5abe
00000030: 06aa a73b 9ff8 71be aee0 49be 02a5 563c
00000040: 23a2 8a3e e81d 35be adce 013d c8af b83d
00000050: cbe9 563e baa6 913e a955 903e 85e6 d4bd
00000060: 5486 753d 4781 9ebe 0c6f 97bc e2c6 343e
00000070: 389e 163e 6511 a43e 939a 973e 8ef0 37be
00000080: f9ea 88bd f706 81be ff3b bbbe 71eb c0be
00000090: 6e2f 1b3d 9fcc 92bd 7bac 773e e844 69be
000000a0: e0d2 2c3e 58f4 f6bd 160c 08bd d217 ba3e
000000b0: e7c0 be3e 939f 513e 2338 6c3e 9c08 163d
000000c0: 85fc 303e 0a08 9f3d 0360 fcbd 0f82 3d3e
000000d0: 4bc7 b5be aa5e 913d 279b 943d 6e13 053e
000000e0: b310 e0bd 6e3a 38be e593 bebd 6a57 50bc
000000f0: 98b6 64be 7883 1dbe a4d5 343e 422d 9b3d
00000100: 7cb6 a6be 73d8 5dbd 3640 cdbc 2a73 273e
00000110: c60a 9a3e 7275 c1be c29c ba3e 8057 913c
00000120: ebd5 b93e d8cf 03be e3a2 92be 3c5e 74be
00000130: 34a5 6fbe 2447 b73e c8f7 073e ee35 89be
00000140: bc69 85bd 7c63 31be 1090 6cbe 4cd6 613e
00000150: 2645 963e 3aea 98be cd5a c23c 36ed 7d3e
00000160: ef29 263e 77a2 94bd 0949 69be b4a8 a6be
00000170: fe7c 54be b4a1 543c 7a7b 0fbd 1031 4d3e
00000180: 7b67 2b3e bac7 02bc 6fbc 86bc 96cc 403e
00000190: 3e15 40be b9f0 5b3e 41a3 a33e ce0b 653e
000001a0: d283 b13d 3d82 3b3d 977d e2bc cf4a 4b3e
000001b0: 58ea 833e fb06 e3bc a113 023e c769 91be
000001c0: dfc1 403e d548 8c3e 24bb 3fba 9018 1dbe
000001d0: 2531 bebd fac4 fabd 6a34 afbe 7053 a73e
000001e0: b1e8 41bc 4f6d a3be c40a 843e c403 a33e
000001f0: a80e a03e 0436 6bbe a978 83be cc8f 9e3d
00000200: 2263 8f3d f4fd 61be ddf8 873d 2f91 813e
00000210: 87c8 8dbe 8693 bd3e 2b0f b3be 4def abbd
00000220: 0cad 66bd 52a0 b13d f84c 47bc 1f41 813e
00000230: 5b01 8e3d bd5c 25be 090d bfbe b80f 96be
00000240: 3f17 523e 7761 203e c2d7 4e3e 6b08 30bd
00000250: 39d0 dd3d 4681 a4be 7205 323c 25cc 1fbe
00000260: 3e81 81be b161 b8bd b6bd 673e 7c1c 6c3e
00000270: 2c7d 693d 61f2 82bd 307a 32be 0da9 76bc
00000280: d3cc 39bd 5893 673e cb4e e93d 471d 93be
00000290: fb72 a4be 0c30 ff3d 3ba1 e03c 95cb 0b3e
000002a0: 2d62 2cbe 4a02 253e d5e4 9cbe e363 b03d
000002b0: 2359 83be e194 98be a3b9 a1bd 75aa 8b3e
000002c0: edff 84be 070c 89be 3e06 3e3e e5c9 b4be
000002d0: 5e82 15bc 73aa 87be 2f18 8a3e 8365 6abd
000002e0: c115 ccbd 06ca 6abe e1d4 c33c 429e 123e
000002f0: fe25 c83d e54c 493e 9430 be3e ca08 3d3e
00000300: 1849 a03e 147a 9c3d 2ce7 6dbe e202 97be
00000310: ea9b b73e 6c3f 0cbe e753 a73e 2e41 543d
00000320: b50b 06be 804b 64be 8dac b2be 721a 913c
00000330: 3aee cd3d 4a24 c0bb 87b8 9bbe 0296 903e
00000340: e898 873e d6d0 b63e 011f b33e fe39 d5bd
00000350: c763 45be 324e 353e e3bf 193c 77e4 0f3e
00000360: f640 61bd 56ab 323e c047 bbbe 3eb9 b03e
00000370: 9199 223e baad b93e a0b3 ac3b 5d86 733e

col_embedding.1.bias f4 [32]
-0.26430732 -0.17239581 -0.07784606 -0.28640023 -0.3001246 0.27125967 -0.19646525 -0.1608491
-0.04015545 -0.036215857 0.097324215 0.27040625 0.057487313 -0.16906251 0.1263096 -0.37604132
0.3536699 0.005184021 -0.20682488 -0.04007897 -0.024445454 -0.33047983 0.27829888 0.07745107
-0.35357013 0.30552128 -0.27908212 -0.081918545 0.1135517 0.3541784 -0.050323084 0.3355036
00000000: 4a53 87be 8788 30be c16d 9fbd 0da3 92be
00000010: eea9 99be 8ce2 8a3e 302e 49be a0b5 24be
00000020: 0b7a 24bd 1457 14bd eb51 c73d b072 8a3e
00000030: d177 6b3d b91e 2dbe 4e57 013e 7d88 c0be
00000040: 3914 b53e b8de a93b e7c9 53be d929 24bd
00000050: d541 c8bc a734 a9be 317d 8e3e ab9e 9e3d
00000060: 2507 b5be 496d 9c3e dae3 8ebe e9c4 a7bd
00000070: cb8d e83d df56 b53e 941f 4ebd 21c7 ab3e

col_embedding.3.weight f4 [32, 32]
0.13842441 0.12780307 -0.007040129 -0.1385872 0.077431 -0.03179382 -0.16714065 0.13638176
0.13683651 0.1518212 0.0947111 0.11116016 -0.14421476 -0.0073041753 0.057453196 0.07247851
-0.054917894 -0.03445437 -0.13092183 -0.15711014 0.009489574 0.17230818 -0.11932666 0.1666187
-0.15924017 -0.1181351 -0.13788794 -0.12630466 0.14566296 0.0022738853 -0.04566587 0.17074004
0.087708674 -0.13762496 0.15183689 -0.08803677 0.09504868 0.05055994 0.057497084 -0.048414774
0.16340764 -0.0038322574 0.10611069 0.12065537 -0.1532829 -0.030307798 -0.101376615 -0.01772719
-0.14858519 -0.017194662 -0.1149871 -0.067319416 0.09706447 -0.014699746 0.16446888 0.06040693
0.057289347 0.046422884 -0.17581162 0.17053834 -0.0064305877 -0.17099957 -0.005678791 -0.088014185
-0.059562705 -0.044888712 -0.02341035 -0.105734475 -0.103199005 0.06191556 0.15627511 0.17496514
-0.08150369 -0.1583669 -0.035374776 -0.014520041 -0.15609641 -0.13172616 -0.01129721 0.069328874
0.00083286467 -0.05266042 -0.024792513 0.16147202 0.0748151 -0.09934332 0.104650415 0.11953643
-0.09682463 -0.034218732 0.109637395 0.0039035163 0.027986811 -0.04001094 -0.04185064 0.08370347
0.10672393 -0.0443443 -0.021901874 0.026294239 0.07860651 -0.17168964 -0.07079485 0.10485077
0.15526056 -0.16926296 0.040831774 -0.04679622 0.06486077 -0.0103009 -0.07654436 -0.14585617
-0.05075554 0.036697164 -0.050143562 0.007763411 0.061373636 0.115155324 0.12019914 0.06367248
0.11302994 -0.15191369 0.11958203 -0.023980688 0.12018983 0.13663058 0.14087069 0.06614333
0.105947584 0.06023832 0.03181674 -0.089029 0.009435473 0.14183246 -0.035955977 -0.028506812
0.13364337 0.09905782 -0.08172199 -0.16163376 0.017795198 -0.1343692 -0.13137294 0.1434763
0.102959506 -0.16459344 -0.091847576 0.09631017 -0.13070372 0.07338082 0.031064274 -0.1222604
0.006577711 0.05897111 0.16982822 0.105361745 0.025628777 -0.06962726 -0.16001171 0.023072334
0.026380913 0.068944596 -0.056558874 -0.1326461 0.11216583 0.092141196 -0.054486528 0.13244866
0.15209688 0.10445991 -0.090953015 -0.11637045 -0.10063924 0.14380021 -0.11536284 0.050567016
-0.04623942 -0.10186143 0.13801001 0.043908503 -0.075448886 -0.04755294 0.1255693 -0.018495407
0.049552217 -0.13798063 -0.067762144 -0.04745148 0.14649864 -0.1592461 0.087569304 0.011005929
0.04680278 -0.061368044 0.1166779 -0.00070147385 -0.112705044 -0.016191008 0.07913644 0.1210479
0.17233077 0.16151033 -0.028931571 -0.09468361 0.020982735 -0.16018134 0.12556662 0.004786289
0.1722441 -0.072403595 0.09991384 0.1565265 -0.027514534 0.10137145 -0.11562513 0.15880707
0.04256303 0.14172342 0.022486629 -0.014423927 0.047948368 0.12086506 0.11565489 -0.12137173
-0.121102035 0.085456125 0.16567492 0.14644569 -0.1038259 0.022367625 -0.017115435 -0.15240864
0.1410018 0.16312507 0.044097375 -0.11124428 -0.017433781 0.122466706 -0.0990574 -0.046799865
-0.08817199 0.008541185 -0.077610925 -0.029452797 -0.050074164 0.10579055 -0.08775106 0.047588848
0.13971008 0.14302836 -0.15317631 -0.055194713 -0.09524172 -0.13845946 0.05608736 0.11990755
00000000: 21bf 0d3e cfde 023e e2b0 e6bb cee9 0dbe
00000010: 2594 9e3d 3d3a 02bd eb26 2bbe a9a7 0b3e
00000020: df1e 0c3e 0477 1b3e e5f7 c13d f0a7 e33d
00000030: 09ad 13be dd57 efbb 0b54 6b3d 9d6f 943d
00000040: 96f1 60bd 0720 0dbd 5f10 06be 7be1 20be
00000050: 287a 1b3c 8e71 303e 8961 f4bd 189e 2a3e
00000060: db0f 23be d1f0 f1bd 7f32 0dbe 0256 01be
00000070: ac28 153e 7705 153b 230c 3bbd 7ad6 2e3e
00000080: 9ba0 b33d 8fed 0cbe 217b 1b3e 9f4c b4bd
00000090: e2a8 c23d f117 4f3d 1082 6b3d 924e 46bd
000000a0: 5554 273e 9c26 7bbb 9050 d93d 2a1a f73d
000000b0: 31f6 1cbe 0f48 f8bc 8b9e cfbd 9d38 91bc
000000c0: b726 18be d2db 8cbc 5b7e ebbd c3de 89bd
000000d0: bdc9 c63d 34d7 70bc 886a 283e 426d 773d
000000e0: 3ca8 6a3d ec25 3e3d f607 34be 9aa1 2e3e
000000f0: aeb7 d2bb 831a 2fbe 2715 babb c840 b4bd
00000100: 06f8 73bd 3add 37bd 10c7 bfbc 518b d8bd
00000110: 005a d3bd 2c9b 7d3d 9506 203e 102a 333e
00000120: 68eb a6bd ef2a 22be 24e5 10bd 77e5 6dbc
00000130: bdd7 1fbe 39e3 06be ef17 39bc 4cfc 8d3d
00000140: 9a54 5a3a 74b2 57bd ab19 cbbc ec58 253e
00000150: a938 993d 8374 cbbd f552 d63d 84cf f43d
00000160: fe4b c6bd f128 0cbd 9289 e03d 23d2 7f3b
00000170: 9944 e53c 83e2 23bd 946b 2bbd ba6c ab3d
00000180: 1392 da3d 5ea2 35bd 8f6b b3bc 0467 d73c
00000190: 73fc a03d 69cf 2fbe e4fc 90bd 00bc d63d
000001a0: a0fc 1e3e 4553 2dbe 383f 273d 65ad 3fbd
000001b0: b9d5 843d 1bc5 28bc 4ac3 9cbd 525b 15be
000001c0: 0be5 4fbd c44f 163d 5663 4dbd 3664 fe3b
000001d0: ec62 7b3d 8ed6 eb3d f72a f63d b866 823d
000001e0: 3e7c e73d 438f 1bbe 6ce7 f43d 2673 c4bc
000001f0: 1626 f63d e3e8 0b3e 6840 103e 2776 873d
00000200: 0cfb d83d 75bc 763d 4552 023d d654 b6bd
00000210: 3e97 1a3c 873c 113e 9346 13bd 1e87 e9bc
00000220: cfd9 083e d4de ca3d dc5d a7bd 5283 25be
00000230: 3cc7 913c 1498 09be a186 06be 74eb 123e
00000240: 6fdc d23d 2f8b 28be 951a bcbd 443e c53d
00000250: 32d7 05be af48 963d 817a fe3c a963 fabd
00000260: d789 d73b b18b 713d 73e7 2d3e e6c7 d73d
00000270: 71f3 d13c bd98 8ebd 1cda 23be 3102 bd3c
00000280: c91c d83c d332 8d3d 47aa 67bd 61d4 07be
00000290: 33b7 e53d 86b4 bc3d 442d 5fbd 9fa0 073e
000002a0: 49bf 1b3e 14ef d53d 9345 babd a153 eebd
000002b0: f21b cebd 5d40 133e 5a43 ecbd 5c1f 4f3d
000002c0: 8c65 3dbd ba9c d0bd 7f52 0d3e 67d9 333d
000002d0: f284 9abd dfc6 42bd 3d95 003e ae83 97bc
000002e0: 44f7 4a3d cb4a 0dbe e1c6 8abd 7c5c 42bd
000002f0: bd03 163e 6911 23be 8957 b33d 3652 343c
00000300: 46b4 3f3d 0f5d 7bbd d3f4 ee3d 1de3 37ba
00000310: e7d1 e6bd 01a3 84bc 4912 a23d f6e7 f73d
00000320: 7a77 303e f762 253e e701 edbc 7be9 c1bd
00000330: fce3 ab3c 9406 24be 8994 003e 4dd6 9c3b
00000340: c260 303e 5648 94bd a19f cc3d 7c48 203e
00000350: 2966 e1bc d69b cf3d decc ecbd 529e 223e
00000360: 9256 2e3d f21f 113e e135 b83c 5652 6cbc
00000370: 8265 443d 1a88 f73d 79dc ec3d be91 f8bd
00000380: 5804 f8bd 9f03 af3d b0a6 293e dcf5 153e
00000390: aca2 d4bd 4f3c b73c ab35 8cbc 0311 1cbe
000003a0: c762 103e 420a 273e 739f 343d 0bd4 e3bd
000003b0: 4ad1 8ebc d3cf fa3d 9bde cabd 37b1 3fbd
000003c0: 8493 b4bd 54f0 0b3c 7af2 9ebd fe46 f1bc
000003d0: 911a 4dbd b7a8 d83d d4b6 b3bd 86ec 423d
000003e0: 2910 0f3e 0776 123e 40da 1cbe da13 62bd
000003f0: 170e c3bd 51c8 0dbe dcbb 653d 1792 f53d

col_embedding.3.bias f4 [32]
-0.04605569 0.15139838 -0.09781784 0.119716235 -0.023531191 0.15309228 0.104515284 0.02950505
0.14301611 0.14194018 0.13239732 0.13296516 -0.08104723 0.15790899 0.067607336 -0.020650437
-0.093166515 -0.08366551 0.11543684 0.14398232 0.09140907 0.09856526 -0.12357286 0.15156595
0.13855284 -0.06552726 0.13577193 0.09192691 0.09229397 0.02940806 -0.089756005 0.075512476
00000000: e4a4 3cbd 2d08 1b3e b854 c8bd c92d f53d
00000010: 7cc4 c0bc 39c4 1c3e 1c0c d63d 93b4 f13c
00000020: d172 123e c458 113e 2a93 073e 0528 083e
00000030: 17fc a5bd e5b2 213e b775 8a3d 1b2b a9bc
00000040: 16ce bebd d358 abbd 266a ec3d 1a70 133e
00000050: ae34 bb3d 95dc c93d c513 fdbd 1b34 1b3e
00000060: cce0 0d3e 2833 86bd cc07 0b3e 2d44 bc3d
00000070: 9f04 bd3d 2ce9 f03c ffd1 b7bd 49a6 9a3d

conv_col_to_row.feature_module_left.0.weight f4 [32, 32]
0.024528906 -0.15200597 -0.0037445354 0.0386786 -0.032345444 -0.11693007 0.014109927 -0.05870187
0.15467797 0.008261922 -0.022772968 0.13178508 0.0012062883 -0.052586187 -0.01943661 -0.009393493
-0.010695875 -0.14056922 0.13138175 0.027092244 -0.09005014 -0.10697312 0.07685042 0.07870999
0.09719064 -0.1056457 -0.16103327 -0.13295263 0.12691885 -0.04733354 -0.053330936 -0.099684484
0.13124034 0.071948834 0.10559072 -0.0976919 -0.030881632 0.15994956 -0.020799281 -0.17138484
-0.08714231 0.004240566 0.11899945 0.031039806 0.0394238 -0.12130602 0.029898122 0.014946568
0.12655959 -0.13256751 0.029723646 -0.102448806 -0.04123878 0.09166525 -0.17389534 0.10833786
-0.15921834 0.03648219 0.080231674 0.102954544 -0.09383921 -0.11102087 0.09565645 -0.015099657
0.11435173 -0.10794953 0.027548216 0.06958484 0.023879517 0.12799393 -0.12785749 0.16938294
-0.1138863 -0.10718729 0.1301111 0.021296874 -0.16895144 -0.16483077 -0.07983626 0.16637552
0.040861543 -0.13171293 0.16877885 0.07139739 -0.06930287 -0.026824502 -0.046539508 0.17589714
0.0055260584 0.053102188 -0.14047901 0.02202293 -0.06572205 0.069659315 0.025658237 -0.01076411
-0.049671955 -0.06096724 0.013563592 0.01054325 -0.013659505 0.05118684 -0.01535032 -0.067435496
0.1427023 -0.09569079 -0.122464485 0.15178172 0.027459715 -0.031127013 -0.0948006 -0.03261531
-0.13266873 0.038580135 0.019317102 0.077824265 -0.028233705 -0.16623403 0.13850774 -0.1612556
-0.11403222 -0.0050801667 -0.1010677 -0.09456098 0.1234669 -0.16876654 -0.021980884 0.09037796
-0.14947675 0.07835008 0.16179714 0.0038472423 0.094582 -0.11192253 0.13434127 -0.15528367
0.0652978 0.10120668 -0.08256527 -0.10211827 0.04049837 0.16480847 -0.07748641 0.13050295
-0.08082737 -0.007696719 0.13062365 -0.14313896 -0.17148572 -0.029996624 0.035694353 0.023017995
-0.17530449 -0.07991578 0.04127339 -0.028179117 -0.15264961 0.057495177 0.046239298 -0.096465744
0.0071333055 -0.13733557 0.15931188 0.08239316 0.013667563 0.08183377 0.05562033 0.118863486
-0.14019452 -0.033414498 0.0687228 -0.14773339 -0.035430405 -0.06109331 0.022449525 -0.12565835
0.16713728 -0.12786178 -0.067313954 -0.099160805 0.124143444 0.12005746 0.057363275 0.121636584
0.15992032 -0.0071080043 -0.09870218 0.14168487 0.06407773 -0.1331447 0.0035702842 0.17282799
-0.0516174 -0.15505116 0.16219193 0.024515819 0.06922305 -0.16349974 0.14486128 -0.11634082
0.02466752 0.08364177 0.012231275 -0.1727946 0.028035916 -0.08084666 0.042526267 0.07710848
0.02339302 -0.02580839 -0.05433264 0.11809518 -0.06853324 0.055145897 -0.10587259 -0.07161177
0.025225261 -0.13953263 0.049108148 -0.050830416 0.16516319 0.0067658424 -0.148064 0.123724915
-0.12545903 0.009872514 -0.007995724 -0.12525971 0.14387801 -0.10075847 0.026022092 0.14352322
0.13310988 -0.15593314 0.14537328 -0.07597167 -0.003412174 -0.097336784 0.014149511 0.09968704
-0.1311367 -0.0024577263 0.17471696 0.11117265 -0.045947243 -0.14613779 2.4300562e-07 -0.06448075
0.09354965 0.11609645 -0.115704864 -0.0012249416 0.12508152 0.077385515 -0.14465474 -0.14725289
00000000: d8f0 c83c 74a7 1bbe e166 75bb 746d 1e3d
00000010: a87c 04bd 0879 efbd 532d 673c 5f71 70bd
00000020: e763 1e3e 035d 073c 608e babc abf2 063e
00000030: 521c 9e3a 9d64 57bd 8739 9fbc 2ae7 19bc
00000040: c03d 2fbc 61f1 0fbe f088 063e 8ef0 dd3c
00000050: 356c b8bd b914 dbbd c163 9d3d b432 a13d
00000060: e30b c73d c65c d8bd e8e5 24be bc24 08be
00000070: 04f7 013e d0e0 41bd 8a71 5abd 6127 ccbd
00000080: de63 063e e959 933d f33f d83d b112 c8bd
00000090: 7afb fcbc d1c9 233e 4163 aabc 827f 2fbe
000000a0: ab77 b2bd 72f4 8a3b fcb5 f33d 3147 fe3c
000000b0: da7a 213d 4a6f f8bd e8ec f43c 73e2 743c
000000c0: d698 013e c7bf 07be 017f f33c aed0 d1bd
000000d0: ffe9 28bd feba bb3d 9f11 32be 3de0 dd3d
000000e0: 220a 23be 596e 153d 8150 a43d d5d9 d23d
000000f0: c62e c0bd e95e e3bd 87e7 c33d 8d64 77bc
00000100: 3d31 ea3d a514 ddbd ccac e13c 7f82 8e3d
00000110: fa9e c33c d710 033e 13ed 02be b972 2d3e
00000120: 383d e9bd 0385 dbbd d83b 053e c876 ae3c
00000130: 9b01 2dbe 66c9 28be 3181 a3bd 585e 2a3e
00000140: 6f5e 273d c1df 06be 5dd4 2c3e cb38 923d
00000150: aaee 8dbd 0fbf dbbc 36a0 3ebd 611e 343e
00000160: f013 b53b ae81 593d bbd9 0fbe 6f69 b43c
00000170: 4899 86bd 8ba9 8e3d 3931 d23c f35b 30bc
00000180: d274 4bbd c9b8 79bd d439 5e3c 98bd 2c3c
00000190: 1ecc 5fbc 4ba9 513d e97f 7bbc 9f1b 8abd
000001a0: 8d20 123e 88f9 c3bd a9ce fabd ab6c 1b3e
000001b0: 32f3 e03c 14fe febc d126 c2bd a297 05bd
000001c0: 50da 07be 3406 1e3d e63e 9e3c 5462 9f3d
000001d0: 5f4a e7bc 4139 2abe f9d4 0d3e 3020 25be
000001e0: b989 e9bd 8777 a6bb 95fc cebd 30a9 c1bd
000001f0: 37dc fc3d 23d1 2cbe 4111 b4bc 1418 b93d
00000200: 6f10 19be 0276 a03d 26ae 253e 0422 7c3b
00000210: 35b4 c13d a437 e5bd c290 093e af02 1fbe
00000220: daba 853d 7345 cf3d fb17 a9bd 6223 d1bd
00000230: 9ee1 253d 8dc3 283e 32b1 9ebd 91a2 053e
00000240: d288 a5bd c234 fcbb 35c2 053e 0593 12be
00000250: f499 2fbe 7bbb f5bc 3e34 123d 3c90 bc3c
00000260: 0583 33be e2aa a3bd 490e 293d e4d7 e6bc
00000270: 2e50 1cbe 1080 6b3d 6b65 3d3d d58f c5bd
00000280: 81be e93b b2a1 0cbe a722 233e bfbd a83d
00000290: eaed 5f3c 7798 a73d 25d2 633d b36e f33d
000002a0: 278f 0fbe a4dd 08bd 8abe 8c3d 6c47 17be
000002b0: 791f 11bd fb3c 7abd 11e8 b73c 95ac 00be
000002c0: 0926 2b3e 33ee 02be e6db 89bd d214 cbbd
000002d0: eb3e fe3d b0e0 f53d c1f5 6a3d 9a1c f93d
000002e0: 27c2 233e 43ea e8bb 5e24 cabd d715 113e
000002f0: 2f3b 833d 1657 08be 6efb 693b d2f9 303e
00000300: c46c 53bd bbc5 1ebe a415 263e 66d5 c83c
00000310: d0c4 8d3d 7a6c 27be 8456 143e 1944 eebd
00000320: 8a13 ca3c 604c ab3d b065 483c 11f1 30be
00000330: 94ab e53c ef92 a5bd 0630 2e3d 0deb 9d3d
00000340: b8a2 bf3c 1e6c d3bc e78b 5ebd e3db f13d
00000350: 285b 8cbd aae0 613d bad3 d8bd 31a9 92bd
00000360: 35a5 ce3c a4e1 0ebe a025 493d 8e33 50bd
00000370: 8a20 293e 00b4 dd3b 179e 17be 7d63 fd3d
00000380: 5578 00be 53c0 213c 7f00 03bc 1544 00be
00000390: c254 133e 755a cebd 482c d53c c0f7 123e
000003a0: f54d 083e f0ac 1fbe bcdc 143e 0997 9bbd
000003b0: c89e 5fbb 8258 c7bd 5ad3 673c b828 cc3d
000003c0: b348 06be ce11 21bb 01e9 323e 7cae e33d
000003d0: 2d33 3cbd 25a5 15be 7076 8234 7c0e 84bd
000003e0: f596 bf3d fac3 ed3d acf6 ecbd 388e a0ba
000003f0: 5f15 003e 4c7c 9e3d 5f20 14be 76c9 16be

conv_col_to_row.feature_module_left.0.bias f4 [32]
0.10786363 0.12937768 -0.108751886 0.06688346 -0.019474763 0.1126934 -0.08791852 0.17451346
-0.05920883 -0.14597157 -0.107947074 -0.15162285 0.036681853 0.0707864 -0.16356024 -0.1511538
0.087430134 0.13018513 0.025643777 0.036644205 0.04495754 0.08634012 0.16173986 -0.08760893
0.08897132 -0.052298293 0.12426299 -0.17013013 -0.101549834 -0.067277186 -0.05659417 -0.16749942
00000000: 9be7 dc3d 957b 043e 4fb9 debd 32fa 883d
00000010: 8a89 9fbc cccb e63d a00e b4bd a8b3 323e
00000020: f584 72bd 9279 15be 5b13 ddbd 0543 1bbe
00000030: b63f 163d 76f8 903d 567c 27be 10c8 1abe
00000040: 920e b33d 404f 053e e612 d23c 3c18 163d
00000050: 6625 383d 17d3 b03d 229f 253e 506c b3bd
00000060: 9836 b63d bc36 56bd 987d fe3d 9836 2ebe
00000070: 5cf9 cfbd 9fc8 89bd 4acf 67bd f884 2bbe

conv_col_to_row.feature_module_edge.0.weight f4 [32, 1]
0.5463886 0.6103526 0.094745 0.33544317 0.08619749 0.45508304 -0.73270637 -0.32953832
-0.5082042 0.20695664 -0.91155636 -0.83901036 -0.82750803 0.13341668 -0.5315488 0.089560606
-0.063268095 -0.14514393 0.69293827 0.65481806 -0.73211694 0.00957268 -0.8161473 -0.6876042
0.681358 0.40875703 -0.6637246 0.65306914 -0.15339254 0.148076 -0.26386794 0.9220741
00000000: 20e0 0b3f 1140 1c3f ab09 c23d 35bf ab3e
00000010: 4f88 b03d a500 e93e a592 3bbf 3fb9 a8be
00000020: ac19 02bf 71ec 533e c25b 69bf 62c9 56bf
00000030: 91d7 53bf 629e 083e 9513 08bf 8d6b b73d
00000040: b492 81bd 9ca0 14be 6764 313f 28a2 273f
00000050: 046c 3bbf bbd6 1c3c 08ef 50bf d406 30bf
00000060: 7a6d 2e3f 9a48 d13e dbe9 29bf 8a2f 273f
00000070: ef12 1dbe 3ca1 173e b319 87be 0c0d 6c3f

conv_col_to_row.feature_module_right.0.weight f4 [32, 32]
-0.060506716 0.08037737 -0.09920467 0.119383335 -0.08434922 -0.11609757 -0.014103689 0.030293817
0.004800665 -0.10613553 -0.091847084 0.06193973 -0.103316456 0.0019745042 0.07596982 0.015505974
0.17533362 0.16438664 0.022754084 0.13458815 -0.16621505 0.03886798 0.17331457 -0.058421966
0.06970038 0.03954605 0.13842545 -0.10054137 -0.11544025 0.006787188 -0.11402878 0.14950691
0.15656483 0.0930924 -0.017453833 0.17702585 -0.15372351 0.17592669 -0.0768244 0.14834712
-0.10776316 -0.09483598 -0.10608874 0.09016398 0.03474671 0.1024693 0.005621087 -0.057773102
0.1381499 -0.13999061 0.076070905 -0.15095495 0.16569316 0.012462742 -0.05891525 0.13794212
-0.14860976 -0.098485865 -0.14147751 -0.056485396 -0.07488358 0.09712134 -0.14814451 0.005057329
0.13900869 -0.037983168 -0.05979868 -0.07898981 0.08970825 0.11387 -0.13254124 -0.024247345
-0.15041317 -0.052961554 0.020973673 0.024878416 0.12744482 0.120126806 0.05169261 -0.16136135
-0.045950502 0.17624193 -0.05602787 0.044095583 0.02750517 0.098178536 -0.08997187 -0.09928561
-0.044843204 0.11627582 -0.16116568 -0.026226288 0.10380901 0.13819762 0.036053296 -0.0867444
0.040852245 -0.13238648 -0.17143549 0.13508937 -0.1751669 -0.13056648 0.16513047 0.06399928
-0.10625505 -0.12647009 -0.15010236 -0.031792544 -0.106517166 0.08297043 -0.12144526 -0.067961626
-0.051973592 0.05537265 -0.018068362 -0.03121977 -0.07880014 -0.16896904 0.17057543 0.14377102
0.06201062 -0.011883262 0.12801978 -0.046311617 0.006308787 0.11049399 -0.108383104 0.114422694
-0.08484318 -0.13372947 0.17234212 -0.07188688 -0.073139004 -0.057870623 0.03114914 -0.015639894
-0.14875337 -0.16188005 0.105562724 0.07456449 0.13501728 -0.16294025 0.018838577 0.14181592
-0.07968775 0.008265014 0.0021382852 0.15693076 -0.1376848 -0.03375899 0.06453447 0.004967247
0.038301785 -0.1091601 -0.14785016 0.15720406 0.013186294 -0.071784526 -0.0036359744 0.050093383
0.07997888 0.15369873 -0.16714427 -0.14047548 0.061253384 -0.092726916 0.053394105 0.17185825
-0.07025479 0.15466337 0.06687621 0.10114946 0.16521876 0.1741301 0.11066275 0.09160722
0.06388697 0.14379472 0.1687289 -0.14684594 0.12627822 0.10961312 0.091988884 0.08411395
-0.08873267 0.09080327 0.111629255 0.04504508 0.037807368 -0.123011254 -0.15728578 -0.058681108
0.15310398 0.0067867013 0.05659928 0.061473783 -0.0022182008 -0.0026844058 -0.015524563 -0.11395235
0.08356007 -0.09652365 0.051750317 -0.077286236 -0.051842663 8.229618e-05 -0.079841465 -0.11487757
-0.13457967 0.058243692 -0.12589788 -0.16991952 -0.10571678 0.007085635 0.008381086 0.0076421504
0.049422257 -0.08341476 0.09778242 0.009359508 0.136501 0.028218104 0.06046265 -0.12555489
0.13754012 -0.020201106 -0.07384873 0.14744972 -0.053285714 0.1103775 0.00932532 0.0033277818
0.14946222 -0.09917383 0.027437516 -0.078835845 0.109340854 0.033290602 0.09488528 0.1068566
-0.05666096 -0.10178001 -0.045667842 0.020831225 -0.09943381 0.106439605 -0.094706506 0.08529534
-0.149541 -0.088538624 0.026553502 -0.17491134 0.14772126 0.15249407 0.07889065 -0.02624447
00000000: e4d5 77bd e49c a43d d12b cbbd 407f f43d
00000010: 49bf acbd 90c4 edbd 2913 67bc bd2a f83c
00000020: e64e 9d3b 965d d9bd 531a bcbd 84b4 7d3d
00000030: 9497 d3bd af66 013b 1196 9b3d c50c 7e3c
00000040: a88a 333e f954 283e c666 ba3c 7ad1 093e
00000050: 4734 2abe 0834 1f3d 6079 313e df4b 6fbd
00000060: 13bf 8e3d 0afb 213d 67bf 0d3e a2e8 cdbd
00000070: f06b ecbd 0f67 de3b ec87 e9bd 5718 193e
00000080: 8852 203e 3aa7 be3d 57fb 8ebc 4446 353e
00000090: b269 1dbe 2026 343e 1c56 9dbd 4fe8 173e
000000a0: eeb2 dcbd 5e39 c2bd 0e45 d9bd e5a7 b83d
000000b0: 9152 0e3d 6ddb d13d 1831 b83b 7da3 6cbd
000000c0: 2b77 0d3e b359 0fbe 10cb 9b3d ef93 1abe
000000d0: 78ab 293e 8730 4c3c 1e51 71bd b340 0d3e
000000e0: 282d 18be f5b2 c9bd 7bdf 10be 3b5d 67bd
000000f0: 905c 99bd 8ee7 c63d 32b3 17be f3b7 a53b
00000100: 4b58 0e3e 3d94 1bbd 76ef 74bd 69c5 a1bd
00000110: f5b8 b73d ad34 e93d e4b8 07be 5ea2 c6bc
00000120: e905 1abe 37ee 58bd fbd0 ab3c d2cd cb3c
00000130: e580 023e 0b05 f63d a1bb 533d e93b 25be
00000140: 9836 3cbd c478 343e 7b7d 65bd 929d 343d
00000150: 8652 e13c d411 c93d 2c43 b8bd 4156 cbbd
00000160: 82ad 37bd 0422 ee3d 9e08 25be 83d8 d6bc
00000170: d199 d43d ad83 0d3e 9fac 133d 0ca7 b1bd
00000180: af54 273d 5290 07be c98c 2fbe de54 0a3e
00000190: f45e 33be 38b3 05be f617 293e 0e12 833d
000001a0: 3f9c d9bd 6081 01be 6fb4 19be e638 02bd
000001b0: ac25 dabd 67ec a93d 4bb8 f8bd 772f 8bbd
000001c0: 43e2 54bd 6fce 623d 1a04 94bc 9ac0 ffbc
000001d0: f861 a1bd 3806 2dbe 53ab 2e3e b638 133e
000001e0: d9fe 7d3d 03b2 42bc 9e17 033e 40b1 3dbd
000001f0: f1b9 ce3b ac4a e23d f6f7 ddbd 7256 ea3d
00000200: 43c2 adbd 61f0 08be 747a 303e 6e39 93bd
00000210: e7c9 95bd bf09 6dbd 7b2c ff3c 3c1f 80bc
00000220: ce52 18be e2c3 25be 4531 d83d 44b5 983d
00000230: f841 0a3e cfd9 26be 5c53 9a3c 3138 113e
00000240: 5533 a3bd fb69 073c 7922 0c3b 75b2 203e
00000250: 3ffd 0cbe de46 0abd a62a 843d 4ac4 a23b
00000260: 55e2 1c3d 558f dfbd 0866 17be 1afa 203e
00000270: 530b 583c c403 93bd 8749 6ebb b82e 4d3d
00000280: f8cb a33d 3363 1d3e de27 2bbe ced8 0fbe
00000290: d4e4 7a3d 9ce7 bdbd c7b3 5a3d 9cfb 2f3e
000002a0: bee1 8fbd 1360 1e3e 65f6 883d 7327 cf3d
000002b0: 1b2f 293e 294f 323e 27a3 e23d 919c bb3d
000002c0: 2cd7 823d ec3e 133e 45c7 2c3e c85e 16be
000002d0: 144f 013e d87c e03d ab64 bc3d ef43 ac3d
000002e0: 79b9 b5bd 11f7 b93d e19d e43d 3181 383d
000002f0: e6db 1a3d 53ed fbbd 860f 21be 9a5b 70bd
00000300: 4ac7 1c3e fa62 de3b a6d4 673d efcb 7b3d
00000310: 3c5f 11bb dbec 2fbb bd5a 7ebc da5f e9bd
00000320: 8b21 ab3d 31ae c5bd 24f8 533d 3f48 9ebd
00000330: f958 54bd 6d96 ac38 ec83 a3bd ee44 ebbd
00000340: 41cf 09be f090 6e3d 60eb 00be 62ff 2dbe
00000350: 0a82 d8bd 9d2e e83b d350 093c 016b fa3b
00000360: fe6e 4a3d 5cd5 aabd 2642 c83d 9f58 193c
00000370: ebc6 0b3e a729 e73c afa7 773d 7691 00be
00000380: 51d7 0c3e ca7c a5bc 013e 97bd 0ffd 163e
00000390: 1f42 5abd 990d e23d 3ac9 183c ea16 5a3b
000003a0: a00c 193e a61b cbbd a4c4 e03c b074 a1bd
000003b0: 19ee df3d ba5b 083d 3753 c23d a2d7 da3d
000003c0: 5315 68bd 0a72 d0bd 340e 3bbd 3fa6 aa3c
000003d0: f4a3 cbbd 02fd d93d 7cf5 c1bd 53af ae3d
000003e0: 4721 19be bd53 b5bd bb86 d93c f51b 33be
000003f0: 3e44 173e 6827 1c3e 6c91 a13d a5fe d6bc

conv_col_to_row.feature_module_final.0.weight f4 [32]
0.9990154 1.000067 1.0 1.0002643 1.0 1.000115 1.0009788 0.9996638
0.9994879 1.0013417 0.9997106 0.9996109 1.0004802 0.99954104 1.0000951 0.99934006
1.0002348 0.9999298 1.0000727 1.0003818 1.0005523 1.0002737 0.99994737 0.99987984
1.0007435 1.0005771 1.0010251 1.0 1.0 0.999099 1.0 1.0
00000000: 79bf 7f3f 3202 803f 0000 803f a908 803f
00000010: 0000 803f c503 803f 1320 803f f7e9 7f3f
00000020: 70de 7f3f f72b 803f 09ed 7f3f 80e6 7f3f
00000030: bc0f 803f ece1 7f3f 1e03 803f c0d4 7f3f
00000040: b207 803f 66fb 7f3f 6202 803f 830c 803f
00000050: 1912 803f f808 803f 8dfc 7f3f 20f8 7f3f
00000060: 5d18 803f e912 803f 9721 803f 0000 803f
00000070: 0000 803f f4c4 7f3f 0000 803f 0000 803f

conv_col_to_row.feature_module_final.0.bias f4 [32]
-0.0006428639 0.00014337098 0.0 0.0002810137 0.0 0.00014223756 4.676701e-05 -0.00025529333
-0.00042540947 0.0010661505 -0.00023155696 -0.0003692933 0.00031280928 -0.00061708683 0.0005826385 -0.00010563765
-0.00024044515 -3.8428887e-05 8.997672e-05 0.0007302165 0.00041232642 0.00019317113 0.0002011669 -0.00017488116
0.0011404664 0.0004871108 0.00093282486 0.0 0.0 -0.0009924126 0.0 0.0
00000000: de85 28ba db55 1639 0000 0000 0555 9339
00000010: 0000 0000 9b25 1539 b227 4438 e4d8 85b9
00000020: 7e09 dfb9 13be 8b3a 19ce 72b9 b59d c1b9
00000030: 8d00 a439 ffc3 21ba 35bc 183a c889 ddb8
00000040: 0120 7cb9 b42e 21b8 e2b1 bc38 006c 3f3a
00000050: 842d d839 fb8d 4a39 54f0 5239 4e60 37b9
00000060: b47b 953a e862 ff39 d188 743a 0000 0000
00000070: 0000 0000 d713 82ba 0000 0000 0000 0000

conv_col_to_row.feature_module_final.2.weight f4 [32, 32]
-0.016239794 0.04604159 -0.11127706 0.059957646 -0.06373465 0.073586404 0.023559205 0.073119335
-0.14923048 -0.15928635 -0.072969176 -0.07987771 0.12754709 0.13092068 -0.041427545 0.061910983
-0.15967292 -0.014659968 0.107096 -0.09078579 0.16989431 -0.049474616 0.12782294 0.09597743
0.06325397 -0.10158724 0.10055376 -0.101569265 0.03590351 -0.13601334 -0.020012967 0.044545975
-0.14180459 -0.17075795 -0.015672306 0.026178379 0.07167183 0.12961382 -0.010593958 -0.08998342
-0.0624332 0.1141484 -0.11796555 -0.0250553 -0.048577093 0.03383118 0.09501584 0.17079002
-0.050222564 0.14798371 -0.052312907 0.16721897 -0.16113064 0.13407795 0.12019361 -0.07386008
0.14439026 -0.07792352 0.09975389 0.035133295 -0.06753847 -0.11787741 0.019978976 0.0917013
-0.17227249 -0.08536505 -0.121474676 0.06535952 -0.023455016 -0.06167228 0.13728982 0.035572033
0.12247516 -0.13397764 0.12434111 -0.049705666 0.014340146 -0.05241073 -0.15937269 -0.12687026
0.09545446 0.00708565 -0.17324474 -0.05995301 -0.10619445 0.06095251 0.12978639 0.095318064
-0.17169896 0.04429688 0.018300775 0.10203353 -0.03152778 0.13186352 -0.043918703 0.00791168
0.11509405 0.015208148 -0.14947978 -0.039130345 -0.09781843 -0.023398163 -0.06849983 0.09100786
0.16813105 0.10785136 0.1306231 -0.04010172 -0.1412346 -0.01657453 -0.024805028 0.109022774
0.13817205 0.1508022 -0.07709888 -0.065392464 0.06288468 -0.013051434 0.084849864 -0.15552549
0.115809456 0.066435255 -0.013731155 0.00476487 0.08255697 -0.16045421 0.0367138 0.0066200052
0.03106237 -0.10576918 0.15925448 0.13632764 0.04933952 -0.1640483 -0.06926839 -0.040648047
-0.07180534 0.152805 0.14997679 0.14219481 0.101287946 0.07320647 0.11126997 -0.094584614
-0.026654268 0.08902994 0.02354839 0.10280198 0.0680589 -0.10102831 -0.13916261 -0.082098305
0.11044044 -0.09142564 -0.047766596 -0.11170071 0.022027038 0.10309946 -0.03889861 -0.084650576
0.10080262 -0.05425833 0.0033183477 -0.10345365 0.05207694 -0.11957222 0.15736705 -0.010326496
0.040157333 -0.14094712 0.023426708 0.1583414 -0.14785434 0.1212971 -0.0858621 -0.087062396
0.04082492 0.17512728 -0.12574857 0.05338763 0.16266741 -0.012681082 -0.11389707 -0.07404285
0.010371365 -0.061885502 -0.08910105 -0.14715016 0.16183513 -0.16001561 0.1507432 0.036157697
-0.118762635 0.060782354 0.08522481 0.1368767 -0.04886063 0.08178534 -0.08803181 -0.029843124
-0.14545928 0.0016839136 -0.1760714 -0.1508554 -0.13432597 -0.13567792 0.117101304 -0.012553173
-0.049336836 -0.16512318 0.17290309 -0.12046338 0.0021673108 0.06640137 -0.15823127 0.0062680636
0.018614413 0.090860814 0.06541341 0.13408554 -0.15047811 -0.05132689 0.057341672 -0.12612367
-0.07917324 0.14873852 0.019418191 0.022117512 0.052995216 -0.13103072 -0.16925806 0.1288794
0.13506784 0.1126817 0.16065657 0.11713492 -0.0739452 -0.120470196 0.0351771 0.1304676
0.14510936 0.088641606 0.027523596 0.10064117 -0.04957109 0.10100499 0.02934043 0.027320901
-0.107953966 -0.13264781 0.17490327 0.12593839 0.06632287 -0.021106822 -0.15697339 0.16508745
00000000: 5109 85bc 1b96 3c3d 3ae5 e3bd 2696 753d
00000010: 5087 82bd 78b4 963d 3cff c03c 97bf 953d
00000020: e0cf 18be f61b 23be dd70 95bd ed96 a3bd
00000030: b49b 023e 1210 063e eeaf 29bd 5f96 7d3d
00000040: 4c81 23be 5d30 70bc 2655 db3d e6ed b9bd
00000050: c6f8 2d3e e5a5 4abd 04e4 023e d18f c43d
00000060: 4c8b 813d f90c d0bd 21ef cd3d 8c03 d0bd
00000070: 8f0f 133d 1547 0bbe 3cf2 a3bc d775 363d
00000080: 3935 11be 2cdb 2ebe 3563 80bc 0a74 d63c
00000090: aec8 923d 7cb9 043e 4892 2dbc 3a49 b8bd
000000a0: f5b9 7fbd a3c6 e93d ec97 f1bd c640 cdbc
000000b0: c6f8 46bd 9092 0a3d aa97 c23d 94e3 2e3e
000000c0: 2db6 4dbd 0b89 173e 0f46 56bd 733b 2b3e
000000d0: 6eff 24be bb4b 093e 1128 f63d f443 97bd
000000e0: 0adb 133e 5e96 9fbd c44b cc3d eee7 0f3d
000000f0: 9c51 8abd b669 f1bd f3aa a33c e4cd bb3d
00000100: 3368 30be dfd3 aebd b7c7 f8bd 36db 853d
00000110: bc24 c0bc 139c 7cbd b495 0c3e fbb3 113d
00000120: 42d4 fa3d 6f31 09be 8da6 fe3d 2b98 4bbd
00000130: eff2 6a3c a2ac 56bd 9832 23be 47ea 01be
00000140: a17d c33d be2e e83b 1267 31be 4a91 75bd
00000150: 7a7c d9bd 57a9 793d b9e6 043e 1e36 c33d
00000160: dad1 2fbe a570 353d 82eb 953c f5f6 d03d
00000170: 4623 01bd 3b07 073e 19e4 33bd fe9f 013c
00000180: 6eb6 eb3d 992b 793c 3a11 19be 2447 20bd
00000190: 0755 c8bd 81ad bfbc a449 8cbd 5462 ba3d
000001a0: 8c2a 2c3e 2de1 dc3d 10c2 053e b341 24bd
000001b0: ce9f 10be 4fc7 87bc ea33 cbbc 5547 df3d
000001c0: f97c 0d3e e46b 1a3e 05e6 9dbd 7cec 85bd
000001d0: afc9 803d afd5 55bc c4c5 ad3d 1342 1fbe
000001e0: 822d ed3d 350f 883d a3f8 60bc a022 9c3b
000001f0: a113 a93d 1c4e 24be 3661 163d a1ec d83b
00000200: 8376 fe3c 839d d8bd 9b13 233e 7999 0b3e
00000210: 3d18 4a3d 47fc 27be 96dc 8dbd 917e 26bd
00000220: ae0e 93bd ea78 1c3e 8493 193e 849b 113e
00000230: 0e70 cf3d 46ed 953d 83e1 e33d 94b5 c1bd
00000240: 0d5a dabc 5455 b63d 8ee8 c03c d889 d23d
00000250: 7762 8b3d eee7 cebd a580 0ebe 2823 a8bd
00000260: 992e e23d 5e3d bbbd e8a6 43bd 58c3 e4bd
00000270: 0c72 b43c cf25 d33d 2654 1fbd 485d adbd
00000280: 9b71 ce3d fc3d 5ebd a378 593b 82df d3bd
00000290: a14e 553d 48e2 f4bd d424 213e 7730 29bc
000002a0: 047c 243d 7154 10be 5ee9 bf3c 3f24 223e
000002b0: 2167 17be 9d6a f83d 78d8 afbd c54d b2bd
000002c0: 0838 273d 9154 333e 3cc4 00be fdac 5a3d
000002d0: 4992 263e 50c4 4fbc de42 e9bd c7a3 97bd
000002e0: a8ec 293c a77b 7dbd 9c7a b6bd 88ae 16be
000002f0: 1cb8 253e 22db 23be 6d5c 1a3e 181a 143d
00000300: d339 f3bd ebf6 783d 588a ae3d 6829 0c3e
00000310: 1522 48bd 137f a73d 064a b4bd 9179 f4bc
00000320: 47f3 14be c4b6 dc3a 104c 34be d779 1abe
00000330: bf8c 09be 27ef 0abe cfd2 ef3d d3ab 4dbc
00000340: 6c15 4abd 0d16 29be 820d 313e 81b5 f6bd
00000350: 7109 0e3b 71fd 873d 6107 22be 5464 cd3b
00000360: 417d 983c 3c15 ba3d 77f7 853d b84d 093e
00000370: ef16 1abe 253c 52bd 1adf 6a3d 9026 01be
00000380: 9425 a2bd e94e 183e e612 9f3c c92f b53c
00000390: 8311 593d eb2c 06be fc51 2dbe f6f8 033e
000003a0: 394f 0a3e aac5 e63d 2883 243e 6fe4 ef3d
000003b0: 9570 97bd 14b9 f6bd dd15 103d 4c99 053e
000003c0: 8c97 143e bb89 b53d 2a79 e13c f51c ce3d
000003d0: 0e0b 4bbd b4db ce3d 575b f03c 15d0 df3c
000003e0: f816 ddbd d4d4 07be d819 333e fef5 003e
000003f0: 49d4 873d 37e8 acbc a2bd 20be af0c 293e

conv_col_to_row.feature_module_final.2.bias f4 [32]
0.04564761 -0.09964777 -0.029484037 -0.019491557 -0.16452621 -0.15474279 0.14397596 0.04549806
0.1631452 -0.011100875 -0.06553461 0.16148205 0.14143342 0.16571733 0.168221 0.052108083
-0.105446145 -0.15419872 -0.06312838 0.032976627 0.105614334 -0.038985766 0.11527798 0.057012144
-0.11601654 0.062996715 0.000115948336 0.004181966 0.09525367 -0.061248176 0.15937269 -0.08973571
00000000: fdf8 3a3d 2114 ccbd 8288 f1bc c2ac 9fbc
00000010: 8f79 28be e574 1ebe 6f6e 133e 2c5c 3a3d
00000020: 890f 273e 72e0 35bc 0237 86bd 8d5b 253e
00000030: ecd3 103e ceb1 293e 2042 2c3e 496f 553d
00000040: 26f4 d7bd 45e6 1dbe 7449 81bd 8012 073d
00000050: 544c d83d 8aaf 1fbd dd16 ec3d 9185 693d
00000060: 149a edbd 6c04 813d 4a29 f338 e008 893b
00000070: 5b14 c33d 5edf 7abd 9832 233e 5bc7 b7bd
