GNN/ResultsGCNN/actor_35.pt (torch, 83520 bytes, 43 tensors)

row_embedding.0.weight f4 [7]
0	0x3f8041c4	1.002007
1	0x3f80173d	1.0007092
2	0x3f7fe3b5	0.9995683
3	0x3f802a62	1.0012934
4	0x3f7fec94	0.99970365
5	0x3f802475	1.0011126
6	0x3f80008b	1.0000166

row_embedding.0.bias f4 [7]
0	0xbada3c01	-0.0016649963
1	0xba7b9b43	-0.0009598026
2	0xb9f0a965	-0.00045902576
3	0xbaad7eb1	-0.001323661
4	0x39e9c925	0.00044591087
5	0xba973a27	-0.0011537716
6	0x39c38cb5	0.00037298133

row_embedding.1.weight f4 [32, 7]
0	0x3d5a5dab	0.053311985
1	0x3d5c92a6	0.053850792
2	0x3e0d0fdc	0.13775581
3	0xbeb6f5b2	-0.35734326
4	0xbe3b89c7	-0.18314277
5	0x3e766fd7	0.24066101
6	0xbdaed074	-0.08535853
7	0xbe8adb99	-0.27120665
8	0xbd81ffe0	-0.063476324
9	0xbd229b3b	-0.03969882
10	0xbddafa22	-0.1069224
11	0x3e471094	0.19439918
12	0x3a881120	0.001038108
13	0xbdafa220	-0.08575845
14	0xbe01109b	-0.1260399
15	0xbe95cece	-0.29259342
16	0xbe912590	-0.2834897
17	0x3e85dc7c	0.2614478
18	0x3ea25dd7	0.3171222
19	0x3ca0521f	0.019570408
20	0xbe4ee438	-0.20204246
21	0xbe5746da	-0.21023121
22	0x3e0511cd	0.12995072
23	0x3ea29352	0.3175302
24	0xbeb64138	-0.35596633
25	0x3ce7c222	0.028290812
26	0x3bd599c9	0.0065185768
27	0x3e487273	0.19574909
28	0xbe0ed931	-0.1395004
29	0xbd05c3ca	-0.032657422
30	0xbe9d5453	-0.30728397
31	0x3e564088	0.20923054
32	0xbe4faed5	-0.20281537
33	0xbe4eaaa3	-0.2018228
34	0xbe48965a	-0.19588605
35	0xbdda76b7	-0.10667174
36	0x3d5b0e66	0.05348053
37	0xbc49a243	-0.012306753
38	0xbeb523a6	-0.3537876
39	0x3dc98f60	0.098418
40	0xbe501e18	-0.2032398
41	0x3ea0e9b8	0.31428313
42	0xbe8983de	-0.2685842
43	0xbeac207a	-0.33618528
44	0x3e8b55ad	0.27213803
45	0xbe66159e	-0.22469184
46	0xbea05577	-0.31315205
47	0xbd695593	-0.056966376
48	0x3c9bfabe	0.019040462
49	0xbe7972b8	-0.24360168
50	0x3e8a648b	0.27029833
51	0x3e69d95d	0.22836824
52	0x3e85c747	0.261286
53	0x3e59a532	0.21254423
54	0x3d05f00a	0.032699622
55	0x3d0fa24a	0.03506688
56	0xbe0c75ce	-0.13716814
57	0xbd9b7cb9	-0.07592148
58	0x3cc91dc5	0.024550328
59	0x3c5980a8	0.013275303
60	0xbe0d538f	-0.13801406
61	0xbe546aee	-0.20743915
62	0x3e8dddfa	0.27708417
63	0x3d483fbd	0.04888891
64	0xbeaf1f84	-0.34203732
65	0xbe4c4d6a	-0.19951406
66	0x3eba2cd3	0.36362323
67	0xbe41b6ee	-0.18917438
68	0x3e836ac8	0.25667405
69	0xbeb2f301	-0.34951022
70	0xbe892402	-0.26785284
71	0x3eacd079	0.33752802
72	0xbdc32e71	-0.09530342
73	0xbbc6bfc8	-0.0060653426
74	0xbd210670	-0.03931278
75	0xbe80a528	-0.25126004
76	0x3e812d95	0.2523009
77	0xbe3a30e3	-0.18182711
78	0x3c4f626f	0.012657746
79	0xbeb665b3	-0.35624465
80	0xbd99c4bb	-0.075082265
81	0xbc79d001	-0.015247346
82	0x3e844ecc	0.25841367
83	0x3e0b3065	0.1359268
84	0x3e93e163	0.28882894
85	0xbd944ee5	-0.072416104
86	0xbe9e4705	-0.3091356
87	0xbdd9fd6f	-0.10644042
88	0xbd8cdea3	-0.06878402
89	0x3ea27216	0.31727666
90	0xbe69862d	-0.2280509
91	0x3e7fc964	0.24979168
92	0x3e5ae4bb	0.21376316
93	0xbe600b9e	-0.21879432
94	0xbe7beb9c	-0.24601597
95	0xbe1e4386	-0.15455446
96	0xbe1806a1	-0.14846279
97	0xbe8a6c1a	-0.270356
98	0xbeb99534	-0.36246645
99	0x3db684b3	0.08912029
100	0x3dcbd524	0.09952763
101	0xbe8f545c	-0.2799405
102	0x3e8be6a2	0.27324396
103	0xbe12a75b	-0.14321654
104	0xbdec68e7	-0.11543446
105	0x3d8a991a	0.06767483
106	0x3e92427d	0.28566352
107	0xbea7cdc9	-0.3277419
108	0xbd91cc7a	-0.07119079
109	0x3df2df62	0.11859013
110	0xbe9e2894	-0.30890334
111	0x3e97bcee	0.2963633
112	0x3e170c8a	0.14750877
113	0x3ea74a22	0.32673746
114	0xbce86196	-0.028366845
115	0x3e32bb20	0.17454195
116	0xbe81837a	-0.2529562
117	0x3eb40c1f	0.35165498
118	0x3dbed9c5	0.0931888
119	0x3e496314	0.19666702
120	0xbe5e3f3d	-0.21703811
121	0xbe87ef52	-0.26549774
122	0xbea5df8f	-0.32397124
123	0xbeb11124	-0.3458339
124	0x3b4c24ff	0.003114998
125	0xbcba5fa8	-0.02275069
126	0xbeb449c7	-0.35212538
127	0x3eaf3ff0	0.34228468
128	0xbe324a93	-0.1741126
129	0xbe9a95f7	-0.3019254
130	0xbe27516b	-0.16339652
131	0x3ea1f044	0.3162862
132	0x3db4078b	0.08790501
133	0xbe4960ad	-0.19665785
134	0xbe2c0059	-0.16797008
135	0xbe76cab5	-0.24100764
136	0x3e0021a4	0.12512833
137	0x3e7dfa41	0.24802496
138	0xbe4515cb	-0.19246595
139	0x3eb7fce0	0.35935116
140	0x3ea839a3	0.32856473
141	0x3e0246c3	0.12722306
142	0xbc1c7689	-0.009549745
143	0x3e8cbd0e	0.27487987
144	0x3dd5e373	0.10443773
145	0xbeaafb26	-0.33394736
146	0xbe838419	-0.2568672
147	0x3e4b18bd	0.19833656
148	0x3d06756b	0.032826822
149	0x3eb4e2b1	0.35329202
150	0xbe8b0237	-0.27150127
151	0xbe926879	-0.2859533
152	0xbdda6d41	-0.1066537
153	0xbe6b5073	-0.22979908
154	0x3e9091b9	0.28236178
155	0x3d0410b9	0.03224251
156	0xbe08d843	-0.13363747
157	0xbd4a4371	-0.049380723
158	0x3d090c4a	0.033458985
159	0xbe8c9973	-0.27460822
160	0x3d2d733d	0.042346228
161	0xbe7b0ba8	-0.24516165
162	0x3d73df7b	0.0595393
163	0x3e0bd117	0.1365398
164	0xbe6dec90	-0.23234773
165	0xbe563d43	-0.20921807
166	0xbc40165e	-0.011724083
167	0x3e986ba1	0.29769614
168	0x3e41cb03	0.18925099
169	0xbdb4cd17	-0.0882818
170	0x3ea9165c	0.3302487
171	0x3dc76600	0.09736252
172	0x3ebaf138	0.3651216
173	0x3e8839c7	0.2660658
174	0xbe86095e	-0.26179022
175	0x3cbc7279	0.023003804
176	0x3e6c5c12	0.23081997
177	0x3d9c1a79	0.07622237
178	0x3df5288e	0.11970626
179	0x3e9fd254	0.31215155
180	0xbe8e443f	-0.27786443
181	0x3e01dc69	0.12681736
182	0xbdf0ae5f	-0.11752009
183	0xbe20b039	-0.15692224
184	0x3ead7131	0.3387542
185	0x3e8a5f35	0.27025762
186	0x3e7d47b0	0.24734378
187	0x3d16ebb0	0.036845863
188	0xbe963994	-0.29340804
189	0x3eaf1ce5	0.34201732
190	0x3dd9e8c9	0.10640103
191	0xbd1f8d2a	-0.038952984
192	0xbe93db7b	-0.28878388
193	0xbddd9bf9	-0.10820765
194	0xbea89f5d	-0.32934085
195	0x3e976856	0.2957179
196	0x3ea41304	0.32045758
197	0x3d96eeea	0.07369788
198	0x3ea2864b	0.31743082
199	0xbe75b8a4	-0.23996216
200	0xbe5a5963	-0.21323161
201	0x3e384779	0.17996015
202	0x3ebd51a3	0.36976346
203	0xbe71fa6d	-0.23630686
204	0xbe9cf6d4	-0.30657065
205	0x3e03113e	0.12799546
206	0x3deca168	0.11554223
207	0x3e885a5a	0.26631433
208	0x3d696b85	0.056987304
209	0xbec18956	-0.37800092
210	0x3e1b6e66	0.15178832
211	0xbe3a226d	-0.18177195
212	0x3e47bba0	0.19505167
213	0xbe8f9411	-0.28042653
214	0xbe95dc52	-0.29269654
215	0x3d09a20c	0.033601806
216	0xbd8309cb	-0.06398352
217	0xbeb3b595	-0.35099474
218	0xbe3f20fe	-0.1866493
219	0xbe9f1988	-0.31074166
220	0x3ddb661d	0.10712836
221	0x3dce1f92	0.10064615
222	0xbdf4bde0	-0.11950278
223	0xbea21b6a	-0.3166154

row_embedding.1.bias f4 [32]
0	0xbd511c3d	-0.05105232
1	0x3e836cf9	0.25669077
2	0x3de1d3c9	0.11026723
3	0xbebcf52d	-0.36905804
4	0x3da5f1c0	0.08102751
5	0xbdf9f80a	-0.12205513
6	0x3c982403	0.01857186
7	0xbddb4c9f	-0.10707974
8	0x3e1b32c3	0.15156083
9	0xbe56f6bd	-0.2099256
10	0xbeb32eea	-0.3499673
11	0xbcd4d8d0	-0.02598229
12	0x3ea2d878	0.31805778
13	0x3e19e591	0.15028979
14	0x3eb158cb	0.34638056
15	0x3dcb6d97	0.09933012
16	0xbe22d996	-0.15903315
17	0x3c8ad524	0.016947336
18	0xbdf7907d	-0.12088106
19	0x3e9dcf43	0.3082219
20	0x3e8ff12b	0.28113684
21	0xbcd80040	-0.026367307
22	0x3e582603	0.2110825
23	0xbdcbcce5	-0.0995119
24	0x3ea4a5b4	0.3215767
25	0x3e53fd46	0.20702085
26	0xbe17d0d1	-0.14825751
27	0x3e008771	0.12551667
28	0xbe970154	-0.294932
29	0xbe491868	-0.19638216
30	0x3cb03dd3	0.021513855
31	0xbe5d0f76	-0.21587929

row_embedding.3.weight f4 [32, 32]
0	0xbdfbdfa7	-0.12298518
1	0xbd26b243	-0.040697347
2	0x3d91ac27	0.071129136
3	0x3c4099c1	0.011755408
4	0x3dcf0d02	0.10109903
5	0x3b422345	0.0029623073
6	0x3e270926	0.16312084
7	0x3e1514b8	0.14558685
8	0x3dce3994	0.10069576
9	0xbe15b5ca	-0.14620128
10	0x3d0ecce1	0.034863357
11	0x3cf36c80	0.029714823
12	0x3dcd4feb	0.10025009
13	0x3ac09c36	0.0014694992
14	0x3e0cf9cb	0.13767163
15	0x3e1e859e	0.15480658
16	0x3e1ec9f0	0.1550672
17	0x3d14a377	0.036288705
18	0xbdf46664	-0.11933592
19	0x3dd646b7	0.104627065
20	0x3d23d362	0.039996512
21	0x3d5e7d3c	0.05431865
22	0x3d3978ca	0.04528121
23	0x3de9b6fd	0.11411855
24	0xbe27263f	-0.16323183
25	0x3ddb140f	0.10697185
26	0x3e01eaa2	0.12687162
27	0x3e1abbd8	0.15110719
28	0x3c912bb2	0.01772103
29	0xbe1e41eb	-0.15454833
30	0x3e16c533	0.14723663
31	0xbced943b	-0.029001346
32	0x3d0e1f8d	0.034698058
33	0x3ce4c10d	0.027924085
34	0xbe3626d5	-0.1778825
35	0x3c00d94b	0.007864307
36	0xbc8f4683	-0.017489677
37	0xbd3d5dfd	-0.046232212
38	0x3d9ec34f	0.07752096
39	0x3d30a558	0.043126434
40	0xbdc0c5f7	-0.09412759
41	0xbd20eb56	-0.039286934
42	0xbdd0aec1	-0.10189582
43	0xbe247453	-0.16059999
44	0x3db1a13c	0.08673331
45	0x3dd248a7	0.102677636
46	0x3e20d1a6	0.15704975
47	0xbe2b9af6	-0.16758332
48	0xbd461958	-0.048364013
49	0x3e05d162	0.13068154
50	0x3da0b64b	0.078472696
51	0xbe0a892f	-0.13528894
52	0x3e038da2	0.12846997
53	0x3dfab855	0.1224219
54	0x3e07c0de	0.13257167
55	0x3df9a8bb	0.12190386
56	0x3e0efca2	0.1396356
57	0xbd8f2522	-0.069895044
58	0x3e0e3646	0.13887891
59	0x3de70ec0	0.1128211
60	0xbe09057a	-0.13380995
61	0x3d68ff0f	0.056883868
62	0xbe0c0be9	-0.13676418
63	0xbdbe07f4	-0.09278861
64	0x3c744dd4	0.014911134
65	0x3e258ece	0.16167757
66	0xbdd8a924	-0.10579136
67	0xbe176d23	-0.14787726
68	0x3e2e390d	0.1701395
69	0xbdab7f06	-0.08373837
70	0xbe27cd04	-0.16386801
71	0xbd933f72	-0.071898356
72	0x3df3889e	0.11891292
73	0x3d035ead	0.03207271
74	0x3e236bbc	0.15959066
75	0x3dd52536	0.10407488
76	0x3c2e0363	0.010620925
77	0x3e274e88	0.16338551
78	0xbda5da99	-0.08098335
79	0x3db1591b	0.08659574
80	0xbd156e25	-0.036481995
81	0xbc93cc81	-0.018041851
82	0x3d2d6c29	0.042339478
83	0x3e016351	0.12635542
84	0x3e1cb475	0.15303214
85	0x3d4f546e	0.050617628
86	0xbd56da7b	-0.052454453
87	0x3e2e3d6b	0.17015617
88	0x3d0638e4	0.0327691
89	0x3d695dfb	0.056974392
90	0x3d62cdce	0.055372052
91	0xbe26abc1	-0.16276456
92	0x3e2ac187	0.16675387
93	0x3e27ea12	0.16397884
94	0x3e046b44	0.12931544
95	0x3e1e1e0f	0.15441154
96	0xbda42134	-0.080141455
97	0xbd19cc32	-0.03754825
98	0xbe1deb1d	-0.1542172
99	0x3d69871c	0.057013616
100	0x3d42209f	0.04739439
101	0x3d768c40	0.060192347
102	0x3e2e7d2a	0.17039934
103	0xbcc12022	-0.023574892
104	0x3db69565	0.089152135
105	0x3dedf069	0.1161812
106	0xbddc6d5c	-0.10763046
107	0xbcfc4efd	-0.030799383
108	0x3e029920	0.12753725
109	0xbdd32938	-0.10310596
110	0x3d7cee19	0.061750505
111	0x3db74913	0.08949485
112	0xbc9b2d9d	-0.018942649
113	0x3e2e097e	0.16995808
114	0xbd8c2fc8	-0.06845051
115	0x3d95258e	0.072825536
116	0xbd22b02e	-0.0397188
117	0xbe22a360	-0.15882635
118	0x3d9783b3	0.073981665
119	0xbd889f7f	-0.066710465
120	0xbb3cdb12	-0.00288171
121	0x3e1e7b04	0.15476614
122	0xbda234c4	-0.079202205
123	0xbd849233	-0.06473198
124	0xbe328217	-0.17432438
125	0xbe01c2dd	-0.1267199
126	0xbdeb2dee	-0.1148337
127	0x3d37f30d	0.044909526
128	0x3dbc3ed0	0.09191668
129	0xbce6d0f5	-0.02817581
130	0xbdea43a6	-0.11438684
131	0x3c2ad4e8	0.010426737
132	0x3dac53b8	0.084144056
133	0xbd828da5	-0.06374673
134	0xbde1409b	-0.10998651
135	0x3dc09579	0.0940351
136	0xbe2e9f1c	-0.17052883
137	0x3d94f98a	0.07274158
138	0x3e0d7a01	0.13816072
139	0xbe316059	-0.1732191
140	0xbd49bd9f	-0.049253102
141	0xbd235933	-0.03987999
142	0x3c479226	0.012180841
143	0xbe34e159	-0.17664088
144	0xbddee41c	-0.10883352
145	0xbdd2cc69	-0.102928944
146	0x3d8d461e	0.068981394
147	0x3d7e5db5	0.062101085
148	0xbe0b8239	-0.13623895
149	0x3d4014c2	0.046894796
150	0x3be592da	0.0070060315
151	0x3d85b272	0.06528176
152	0xbd871f96	-0.065978214
153	0x3df4e46c	0.119576305
154	0xbda6751e	-0.08127807
155	0xbe097113	-0.1342204
156	0x3dda4cee	0.106592044
157	0xbe324632	-0.1740959
158	0x3df6b9d9	0.120471664
159	0xbd4d4c54	-0.05012162
160	0xbdb2b80a	-0.08726509
161	0xbe234067	-0.15942536
162	0xbd07c690	-0.03314835
163	0x3d7ada7d	0.061243523
164	0xbd666213	-0.056245875
165	0x3e27185d	0.16317888
166	0x3dbdcf9b	0.09268113
167	0x3d780f50	0.06056148
168	0xbe28bb38	-0.16477668
169	0x3b7bed71	0.0038441087
170	0xbe01be7d	-0.12670322
171	0x3d3d2509	0.046177898
172	0xbd211fba	-0.039336897
173	0x3de01a12	0.109424725
174	0xbb21fc47	-0.002471702
175	0xbe278ad5	-0.16361554
176	0xbdc6bdb1	-0.097041495
177	0xbe33d467	-0.17561494
178	0xbd370fa8	-0.044692665
179	0x3dae2a9b	0.0850422
180	0xbe13f315	-0.14448197
181	0x3df0aa6f	0.11751258
182	0xbe328c8b	-0.17436425
183	0xbc584566	-0.01320014
184	0x3a1bef01	0.0005948395
185	0xbdb54fbd	-0.088530995
186	0xbe1c7012	-0.15277126
187	0xbdc63b49	-0.096792765
188	0xbe1317ba	-0.1436452
189	0xbca437f9	-0.020046221
190	0x3cdbe4dc	0.026842527
191	0xbe27d085	-0.16388138
192	0x3db01f08	0.08599669
193	0x3e04608d	0.12927456
194	0x3df9af74	0.12191668
195	0xbd220f0d	-0.039565135
196	0x3e0feaf6	0.14054474
197	0x3d6ba8d7	0.057534065
198	0xbdfe6e8b	-0.12423428
199	0xbda4c600	-0.08045578
200	0xbe1da3f3	-0.15394573
201	0x3da6a0c0	0.081361294
202	0x3e0346a3	0.12819915
203	0x3d87c468	0.066292584
204	0xbcf806e7	-0.030276729
205	0xbe109be1	-0.14121963
206	0xbe291461	-0.1651168
207	0x3ca06a74	0.01958201
208	0xbcbe95ab	-0.023264727
209	0x3e09ed73	0.13469486
210	0xbd957483	-0.072976135
211	0x3e0bed53	0.13664751
212	0x3dc356b6	0.09538023
213	0x3de6512d	0.11245952
214	0x3d283d3f	0.041074034
215	0x3e0a5256	0.13507971
216	0xbdb5d38e	-0.088782415
217	0xbd3896c0	-0.04506564
218	0xbdb1d64a	-0.086834505
219	0x3c680a37	0.014162592
220	0x3e29f7b9	0.16598405
221	0xbd44cb33	-0.04804535
222	0xbd0d9c47	-0.034572866
223	0x3ddb50d1	0.10708774
224	0xbd8022cc	-0.06256637
225	0xbd2e5214	-0.042558745
226	0xbdf4307d	-0.11923311
227	0xbe0312a4	-0.1280008
228	0x3d15c4ea	0.036564745
229	0x3e0df630	0.13863444
230	0x3e0ef394	0.13960105
231	0xbdcd00db	-0.10009929
232	0x3db5a4f7	0.08869355
233	0xbddcbef9	-0.10778613
234	0xbe31c6a9	-0.17360939
235	0xbafff5ea	-0.0019528244
236	0x3e1c47af	0.1526172
237	0xbc9e7722	-0.019343916
238	0xbe160c01	-0.14653017
239	0xbd72a8b7	-0.05924293
240	0x3d8c1e4b	0.068417154
241	0x3e09730e	0.13422796
242	0xbe32bf05	-0.1745568
243	0x3d384395	0.044986326
244	0x3d7a904b	0.061172765
245	0x3d1222d2	0.03567774
246	0xbe30d621	-0.17269184
247	0xbd7bcaa0	-0.061472535
248	0xbcfa1823	-0.030529087
249	0xbdc69039	-0.09695477
250	0xbe0587f1	-0.13040139
251	0x3d04aa4f	0.03238898
252	0xbc837e65	-0.01605148
253	0xbc0ff60d	-0.00878669
254	0xbdfeb21e	-0.12436317
255	0x3e1143f5	0.1418608

row_embedding.3.bias f4 [32]
0	0x3dde2f4e	0.108488664
1	0xbd56c7f6	-0.05243679
2	0xbd768a36	-0.060190402
3	0xbd29e037	-0.041473594
4	0x3c8219bd	0.015881414
5	0xbe04ea03	-0.12979893
6	0x3ddc7993	0.10765376
7	0x3e11b5d5	0.1422952
8	0xbd8544d4	-0.065072685
9	0x3dd1c42c	0.10242495
10	0x3e08757f	0.13326071
11	0x3dca3346	0.09873061
12	0xbc9ea244	-0.019364484
13	0x3d312cc8	0.043255597
14	0x3dd619b5	0.10454122
15	0x3dd8b376	0.105811045
16	0x3dc4ce37	0.09609645
17	0xbd971846	-0.07377677
18	0x3d4a93bf	0.049457308
19	0x3dbcf7cb	0.0922695
20	0xbc2b9762	-0.010473104
21	0x3d082c13	0.033245157
22	0x3d60ac51	0.054851834
23	0x3d8573ce	0.065162286
24	0x3dd47d69	0.103754826
25	0x3d2a32b1	0.04155225
26	0x3e2899b3	0.16464882
27	0xbd619dde	-0.055082195
28	0x3b893e20	0.004188314
29	0xbc0948e7	-0.008379198
30	0xbe18d93e	-0.14926621
31	0x3df63aed	0.12022958

col_embedding.0.weight f4 [7]
0	0x3f7fa587	0.9986195
1	0x3f8004f7	1.0001515
2	0x3f80029c	1.0000796
3	0x3f8007b7	1.0002354
4	0x3f7fc396	0.99907815
5	0x3f7fd888	0.99939775
6	0x3f800a30	1.0003109

col_embedding.0.bias f4 [7]
0	0xba270304	-0.0006370994
1	0xb8d6af07	-0.000102369166
2	0x3827fb55	4.0049974e-05
3	0xb97ae21c	-0.0002392609
4	0x3a2ab63d	0.0006512141
5	0x3a271afa	0.0006374564
6	0x39f0b78b	0.00045913117

col_embedding.1.weight f4 [32, 7]
0	0x3eb4f8e9	0.35346153
1	0x3b9686e0	0.004593715
2	0xba599d1d	-0.0008301305
3	0xbe334e08	-0.17510235
4	0x3e8cefdd	0.2752675
5	0xbebaaa8d	-0.36458245
6	0xbdd01018	-0.1015932
7	0xbdee0b36	-0.11623232
8	0xbe84749e	-0.25870222
9	0xbe28104c	-0.16412467
10	0x3e3e3aff	0.18577193
11	0xbe5a8833	-0.21341018
12	0x3ba7aa06	0.005116704
13	0xbe71f89f	-0.23629998
14	0xbe49f30d	-0.19721623
15	0x3c5581ee	0.013031466
16	0x3e8aa9f6	0.27082795
17	0xbe353039	-0.17694177
18	0x3d010f08	0.031508476
19	0x3db88b3d	0.090109326
20	0x3e571a50	0.21006131
21	0x3e919e45	0.28441063
22	0x3e9059f6	0.28193635
23	0xbdd4d53f	-0.10392236
24	0x3d75a8d6	0.059975468
25	0xbe9e610c	-0.30933416
26	0xbc972a18	-0.018452689
27	0x3e34d00a	0.17657486
28	0x3e16bb6e	0.14719936
29	0x3ea443b6	0.3208291
30	0x3e976885	0.2957193
31	0xbe378be4	-0.17924458
32	0xbd884f47	-0.06655746
33	0xbe80d4aa	-0.2516225
34	0xbebaec3b	-0.36508355
35	0xbec0f5dc	-0.37687576
36	0x3d1adc96	0.037808023
37	0xbd928059	-0.071533866
38	0x3e7797a9	0.24178948
39	0xbe697e46	-0.22802076
40	0x3e2cbe0e	0.16869375
41	0xbdf79252	-0.12088455
42	0xbd08aa30	-0.03336543
43	0x3eba040c	0.36331213
44	0x3ebee8b5	0.37286916
45	0x3e517806	0.20455942
46	0x3e6c0e9e	0.23052451
47	0x3d156aae	0.03647869
48	0x3e306479	0.17225827
49	0x3d9ed7ea	0.07756026
50	0xbdfc9641	-0.12333346
51	0x3e3d95a5	0.18514116
52	0xbeb5d4e9	-0.35514
53	0x3d9100bf	0.070802204
54	0x3d9464b5	0.07245771
55	0x3e055c6c	0.13023537
56	0xbde07797	-0.1096031
57	0xbe386de0	-0.18010664
58	0xbdbe9ae0	-0.09306884
59	0xbc538e91	-0.012912408
60	0xbe64e12d	-0.22351523
61	0xbe1db6f8	-0.15401828
62	0x3e35690a	0.1771585
63	0x3d9b4b08	0.075826705
64	0xbea6bb59	-0.3256481
65	0xbd5dff59	-0.054198597
66	0xbccd8e01	-0.025092127
67	0x3e274730	0.1633575
68	0x3e9a05ed	0.30082646
69	0xbec17a65	-0.37788692
70	0x3eba9a20	0.36445713
71	0x3c93d7f9	0.01804732
72	0x3eb9b69f	0.3627214
73	0xbe037fc6	-0.1284171
74	0xbe92743d	-0.28604308
75	0xbe740e16	-0.23833498
76	0xbe6fc027	-0.23413144
77	0x3eb74cdb	0.35800824
78	0x3e07db5e	0.13267276
79	0xbe8921cd	-0.267836
80	0xbd85a29b	-0.06525155
81	0xbe318847	-0.17337142
82	0xbe6cac6c	-0.23112649
83	0x3e6200b5	0.22070582
84	0x3e962d74	0.29331553
85	0xbe990ccb	-0.29892573
86	0x3cc49107	0.023994936
87	0x3e7da810	0.24771142
88	0x3e25fce8	0.16209757
89	0xbd952caf	-0.07283913
90	0xbe697b92	-0.22801045
91	0xbea6702d	-0.32507458
92	0xbe54ee08	-0.20793927
93	0x3c5bb2c7	0.013409323
94	0xbd0db739	-0.034598563
95	0x3e4cc006	0.19995126
96	0x3e2af671	0.16695572
97	0xbc09d8a5	-0.0084134685
98	0xbc82e126	-0.0159765
99	0x3e40512f	0.18780969
100	0xbe3f99d5	-0.18711026
101	0x3e5c6c22	0.21525624
102	0x3ea3658d	0.31913415
103	0x3e649067	0.2232071
104	0x3db08cfc	0.08620641
105	0x3d3c1952	0.045922585
106	0xbce14fcb	-0.027503869
107	0x3e4b1b70	0.19834685
108	0x3e83fd34	0.25779116
109	0xbce05adb	-0.027387073
110	0x3e023965	0.12717207
111	0xbe915406	-0.28384417
112	0x3e41142d	0.18855353
113	0x3e8c3612	0.27385002
114	0xba454e79	-0.0007526647
115	0xbe1d3dee	-0.15355656
116	0xbdbe804f	-0.09301817
117	0xbdfb1044	-0.12258962
118	0xbeaf4cfc	-0.34238422
119	0x3ea7725c	0.32704437
120	0xbc462341	-0.012093366
121	0xbea38dfe	-0.3194427
122	0x3e83ea16	0.2576453
123	0x3ea2f1e9	0.31825188
124	0x3e9feccd	0.31235352
125	0xbe6b7b59	-0.22996272
126	0xbe83838f	-0.2568631
127	0x3d9e6452	0.07733978
128	0x3d8f7d96	0.070063755
129	0xbe6213ca	-0.22077861
130	0x3d881b11	0.066457875
131	0x3e818659	0.25297812
132	0xbe8dcdc0	-0.27696037
133	0x3ebde178	0.37086082
134	0xbeb2ef21	-0.34948066
135	0xbdaca0db	-0.08429118
136	0xbd65ac83	-0.056072723
137	0x3db22913	0.086992405
138	0xbc434bd8	-0.011919938
139	0x3e8112c5	0.25209633
140	0x3d8d5596	0.0690109
141	0xbe2506ff	-0.1611595
142	0xbebee0d4	-0.37280905
143	0xbe95e380	-0.2927513
144	0x3e5264d4	0.20546275
145	0x3e20b712	0.15694836
146	0x3e4f3163	0.20233683
147	0xbd30086b	-0.042976778
148	0x3dddd039	0.10830731
149	0xbea48146	-0.32129878
150	0x3c320572	0.010865556
151	0xbe1fcc25	-0.15605219
152	0xbe81813e	-0.25293916
153	0xbdb861b1	-0.09003008
154	0x3e673f63	0.22582774
155	0x3e6c0c05	0.2305146
156	0x3d6a3661	0.057180766
157	0xbd831334	-0.06400147
158	0xbe326d06	-0.17424402
159	0xbc77b00a	-0.015117655
160	0xbd3a8c03	-0.04554368
161	0x3e676e2a	0.22600618
162	0x3de9a1de	0.11407827
163	0xbe93090c	-0.2871784
164	0xbea45ebc	-0.32103527
165	0x3dff4f7a	0.12466331
166	0x3ce1ecef	0.027578799
167	0x3e0bf685	0.13668258
168	0xbe2c622d	-0.16834326
169	0x3e25024a	0.16114154
170	0xbe9ce4d5	-0.30643335
171	0x3db063e3	0.08612802
172	0xbe835923	-0.25653943
173	0xbe9894e1	-0.29801086
174	0xbda1b9a3	-0.078967355
175	0x3e8b9f1d	0.2726983
176	0xbe84f35c	-0.25966918
177	0xbe88ff79	-0.2675741
178	0x3e3e1f5c	0.1856665
179	0xbeb4c4a3	-0.35306272
180	0xbc13f132	-0.009029673
181	0xbe879d7d	-0.26487342
182	0x3e89f5f0	0.26945448
183	0xbd6941f5	-0.056947667
184	0xbdcb8401	-0.09937287
185	0xbe6a811a	-0.22900811
186	0x3cc5358b	0.024073383
187	0x3e12e70d	0.14345951
188	0x3dc8bcc7	0.098016314
189	0x3e494599	0.19655456
190	0x3ebe2b76	0.37142533
191	0x3e3d0baa	0.1846148
192	0x3ea043fb	0.31301865
193	0x3d9ca96f	0.076495044
194	0xbe6df153	-0.23236589
195	0xbe97046b	-0.29495558
196	0x3eb78975	0.3584706
197	0xbe0c4403	-0.1369782
198	0x3ea752b6	0.3268029
199	0x3d542edc	0.0518025
200	0xbe062238	-0.13098991
201	0xbe64502d	-0.2229621
202	0xbeb27df6	-0.34861726
203	0x3c90181e	0.017589625
204	0x3dcdb8a1	0.10044981
205	0xbbbd43ca	-0.0057759034
206	0xbe9bc5f8	-0.30424476
207	0x3e907994	0.28217757
208	0x3e878b79	0.26473597
209	0x3eb6f188	0.3573115
210	0x3eb2ec0a	0.3494571
211	0xbdd46ff9	-0.103729196
212	0xbe44febe	-0.19237801
213	0x3e35b339	0.1774415
214	0x3c203d9b	0.009780313
215	0x3e10496f	0.14090513
216	0xbd5fa0f0	-0.05459684
217	0x3e32cdfc	0.1746139
218	0xbebb4a46	-0.36580104
219	0x3eb0afe9	0.3450921
220	0x3e22948a	0.15876976
221	0x3eb9a720	0.3626032
222	0x3bac0f2d	0.0052508325
223	0x3e73fd33	0.23827057

col_embedding.1.bias f4 [32]
0	0xbe878914	-0.2647177
1	0xbe308887	-0.17239581
2	0xbd9f4968	-0.07777673
3	0xbe92ab4a	-0.28646308
4	0xbe99dee9	-0.3005288
5	0x3e8af445	0.27139488
6	0xbe48ece9	-0.19621624
7	0xbe249d8d	-0.16075726
8	0xbd242b5f	-0.040080424
9	0xbd141c5a	-0.03615985
10	0x3dc6b4fc	0.09702489
11	0x3e8a809c	0.27051246
12	0x3d6c7180	0.05772543
13	0xbe2d8fc8	-0.1694938
14	0x3e00dbe6	0.12583885
15	0xbec0a045	-0.37622276
16	0x3eb5286d	0.35382405
17	0x3bb1897a	0.005418
18	0xbe53bcb7	-0.20677458
19	0xbd25072b	-0.04029004
20	0xbccaf81f	-0.024776516
21	0xbea934a7	-0.33047983
22	0x3e8e8618	0.2783668
23	0x3d9e5499	0.077309795
24	0xbeb50725	-0.35357013
25	0x3e9c61e8	0.30543447
26	0xbe8f062e	-0.27934402
27	0xbda7be8d	-0.081906416
28	0x3de8895a	0.11354323
29	0x3eb5637d	0.35427466
30	0xbd4fb767	-0.050712015
31	0x3eabc4d9	0.3354862

col_embedding.3.weight f4 [32, 32]
0	0x3e0d1a73	0.13779621
1	0x3e02decf	0.12780307
2	0xbbe62206	-0.007023099
3	0xbe0e8235	-0.13916858
4	0x3d9e36a8	0.077252686
5	0xbd02826f	-0.031862672
6	0xbe2b3737	-0.16720282
7	0x3e0babe0	0.13639784
8	0x3e0c73a8	0.13715994
9	0x3e1acba3	0.15116744
10	0x3dc1d104	0.09463695
11	0x3de35bdd	0.11101506
12	0xbe1416ea	-0.14461866
13	0xbbe5e1ea	-0.0070154564
14	0x3d6c8306	0.05774214
15	0x3d944960	0.07240558
16	0xbd61bca4	-0.055111542
17	0xbd0fbd2a	-0.03509251
18	0xbe064225	-0.1311117
19	0xbe20d9fe	-0.15708157
20	0x3c11ab23	0.0088909
21	0x3e30718e	0.17230818
22	0xbdf4849c	-0.11939356
23	0x3e29fc8a	0.16600242
24	0xbe230fdb	-0.15924017
25	0xbdf33676	-0.11875622
26	0xbe0dd54d	-0.13850899
27	0xbe017b16	-0.1264461
28	0x3e150b04	0.14554983
29	0x3b221fef	0.0024738272
30	0xbd3d9556	-0.046284996
31	0x3e2ed1e4	0.17072254
32	0x3db3200d	0.087463476
33	0xbe0ced8f	-0.13762496
34	0x3e1b4603	0.15163426
35	0xbdb4d013	-0.088287495
36	0x3dc287f1	0.09498585
37	0x3d4e7e95	0.050413687
38	0x3d6af045	0.057358045
39	0xbd472516	-0.048619352
40	0x3e26eeb3	0.16301994
41	0xbb85d44a	-0.0040841447
42	0x3dd8ede9	0.10592253
43	0x3df694be	0.12040089
44	0xbe1d34ab	-0.15352122
45	0xbcf8480f	-0.030307798
46	0xbdcf9e8b	-0.101376615
47	0xbc92970a	-0.017894287
48	0xbe1853d5	-0.1487573
49	0xbc8ee83a	-0.017444719
50	0xbdeb9457	-0.11502903
51	0xbd8a67e3	-0.06758096
52	0x3dc64da2	0.09682776
53	0xbc70d734	-0.014699746
54	0x3e282a34	0.16422349
55	0x3d766a16	0.060159765
56	0x3d6aa83c	0.057289347
57	0x3d3d1f48	0.04617241
58	0xbe3448d2	-0.17605904
59	0x3e2e6da3	0.1703401
60	0xbbd82249	-0.006595884
61	0xbe2f6e5a	-0.1713194
62	0xbbc231b4	-0.005926335
63	0xbdb4a81e	-0.08821128
64	0xbd73f806	-0.059562705
65	0xbd37dd3a	-0.044888712
66	0xbcbd62a3	-0.023118323
67	0xbdd88b51	-0.105734475
68	0xbdd2fd56	-0.10302226
69	0x3d7e75b3	0.062123965
70	0x3e204778	0.15652263
71	0x3e3377f2	0.17526224
72	0xbda60477	-0.0810632
73	0xbe222aef	-0.1583669
74	0xbd0ff15b	-0.035142284
75	0xbc698ddc	-0.014255013
76	0xbe1f6d1b	-0.15568964
77	0xbe06e339	-0.13172616
78	0xbc3917ef	-0.01129721
79	0x3d8e9572	0.06962098
80	0x3a844901	0.0010092558
81	0xbd57b274	-0.05266042
82	0xbcc8512e	-0.024452772
83	0x3e25aa1d	0.16178174
84	0x3d9938a9	0.0748151
85	0xbdcb7483	-0.09934332
86	0x3dd6cb15	0.104879536
87	0x3df4cf84	0.11953643
88	0xbdc64bfe	-0.09682463
89	0xbd0c28f1	-0.034218732
90	0x3de08992	0.109637395
91	0x3b898f76	0.00419801
92	0x3ce70425	0.028200218
93	0xbd2229df	-0.039590713
94	0xbd2b6b94	-0.04185064
95	0x3dac008e	0.08398543
96	0x3dda056c	0.106455654
97	0xbd35a25e	-0.0443443
98	0xbcb181d8	-0.02166836
99	0x3cd594bb	0.026071897
100	0x3da140ae	0.07873665
101	0xbe2f9eb5	-0.17150386
102	0xbd9095b3	-0.07059803
103	0x3dd73336	0.105078146
104	0x3e1f47ec	0.1555478
105	0xbe2d9e62	-0.1695495
106	0x3d27cb03	0.04096509
107	0xbd40a64a	-0.047033586
108	0x3d845db8	0.06463188
109	0xbc21b738	-0.009870343
110	0xbd9be121	-0.07611299
111	0xbe153f4f	-0.14574932
112	0xbd4fce67	-0.05073395
113	0x3d153453	0.036426853
114	0xbd4cf9b8	-0.050042838
115	0x3bf71805	0.007540705
116	0x3d7a40ba	0.061096884
117	0x3debd68e	0.115155324
118	0x3df64dff	0.12026595
119	0x3d81de45	0.06341223
120	0x3de77c3e	0.11302994
121	0xbe1bd0e6	-0.15216407
122	0x3df460bd	0.11932514
123	0xbcc41efe	-0.02394056
124	0x3df6606d	0.120301105
125	0x3e0c289c	0.13687366
126	0x3e0ffdd9	0.14061679
127	0x3d87d90f	0.066331975
128	0x3dd8fb0c	0.105947584
129	0x3d76bc75	0.06023832
130	0x3d025189	0.03181604
131	0xbdb654d6	-0.089029
132	0x3c190534	0.009339619
133	0x3e111857	0.14169441
134	0xbd13734c	-0.035998628
135	0xbce95f53	-0.028487837
136	0x3e0975e1	0.13423873
137	0x3dcaded4	0.09905782
138	0xbda78751	-0.081801064
139	0xbe242b46	-0.16032133
140	0x3c936543	0.017992621
141	0xbe099814	-0.1343692
142	0xbe0686a1	-0.13137294
143	0x3e12d13f	0.14337634
144	0x3dd2a733	0.10285797
145	0xbe288b2f	-0.16459344
146	0xbdbbf0c2	-0.0917678
147	0x3dc6fa4e	0.097157106
148	0xbe05d732	-0.13070372
149	0x3d9648af	0.07338082
150	0x3cfd9cd0	0.030958563
151	0xbdfa63a9	-0.1222604
152	0x3bd789d7	0.006577711
153	0x3d718bb1	0.05897111
154	0x3e2de773	0.16982822
155	0x3dd7b71b	0.105329715
156	0x3cd13d66	0.025541972
157	0xbd8d7d0f	-0.06908619
158	0xbe23da1c	-0.16001171
159	0x3cbd0271	0.023072453
160	0x3cd81cc9	0.026380913
161	0x3d8d32d3	0.068944596
162	0xbd67b52d	-0.056569267
163	0xbe07d461	-0.1326461
164	0x3de5931c	0.112096995
165	0x3dbc79b1	0.09202898
166	0xbd5f4b27	-0.05451503
167	0x3e07a271	0.1324556
168	0x3e1c256b	0.15248649
169	0x3dd5ef14	0.10445991
170	0xbdba64f5	-0.09101287
171	0xbdedba61	-0.116078146
172	0xbdcdd035	-0.10049478
173	0x3e13405d	0.14380021
174	0xbdec435a	-0.11536284
175	0x3d4eb1d1	0.050462548
176	0xbd3db679	-0.046316598
177	0xbdd09cba	-0.10186143
178	0x3e0d5e67	0.13805543
179	0x3d353495	0.0442396
180	0xbd9a84f2	-0.075448886
181	0xbd42c6df	-0.04755294
182	0x3e007e70	0.12548232
183	0xbc9783ae	-0.018495407
184	0x3d4af744	0.049552217
185	0xbe0d4acb	-0.13798063
186	0xbd8ac6e1	-0.067762144
187	0xbd428e04	-0.047498718
188	0x3e15f3d8	0.146438
189	0xbe22a616	-0.1588367
190	0x3db35789	0.087569304
191	0x3c343cfc	0.011000868
192	0x3d3f5c11	0.04671866
193	0xbd7b5d0f	-0.061368044
194	0x3def4fec	0.11685166
195	0xba38218c	-0.0007024042
196	0xbde6c059	-0.11267156
197	0xbc83a7e9	-0.016071277
198	0x3da24e23	0.0792506
199	0x3df84074	0.121216685
200	0x3e30e4aa	0.17274728
201	0x3e2546b0	0.16140246
202	0xbcec2f99	-0.02883129
203	0xbdc1fa8c	-0.09471616
204	0x3cab4e3a	0.020911325
205	0xbe239675	-0.15975364
206	0x3e0104d6	0.12599501
207	0x3ba148ad	0.0049219937
208	0x3e3064c7	0.17225944
209	0xbd947391	-0.07248605
210	0x3dccb2db	0.099950515
211	0x3e2043a0	0.15650797
212	0xbce250e6	-0.027626466
213	0x3dcf9bd6	0.10137145
214	0xbdec9a60	-0.11552882
215	0x3e228bd8	0.15873659
216	0x3d2e5692	0.04256303
217	0x3e111330	0.14167476
218	0x3cb7b20c	0.022423767
219	0xbc6b3889	-0.014356741
220	0x3d44b13d	0.04802059
221	0x3df81ba3	0.12114646
222	0x3decbe3d	0.115597226
223	0xbdf84949	-0.12123353
224	0xbdf80458	-0.121102035
225	0x3daf039f	0.085456125
226	0x3e29c755	0.16579945
227	0x3e15f5dc	0.14644569
228	0xbdd3568f	-0.10319244
229	0x3cbac1ac	0.022797428
230	0xbc8989ea	-0.016789395
231	0xbe1bf2a6	-0.15229282
232	0x3e0ff564	0.14058453
233	0x3e270a42	0.16312507
234	0x3d3622b5	0.044466693
235	0xbde4e84e	-0.11177121
236	0xbc8f7a9f	-0.017514525
237	0x3dfacfd3	0.122466706
238	0xbdcade9b	-0.0990574
239	0xbd3f0264	-0.04663314
240	0xbdb34155	-0.087526955
241	0x3c0bf054	0.008541185
242	0xbd9e177e	-0.077193245
243	0xbcf6308a	-0.030052442
244	0xbd4d1a91	-0.050074164
245	0x3dd8a8b7	0.10579055
246	0xbdb2fc25	-0.08739499
247	0x3d42ec86	0.047588848
248	0x3e0f1029	0.13971008
249	0x3e127607	0.14302836
250	0xbe1cda40	-0.15317631
251	0xbd602f9e	-0.05473291
252	0xbdc2150e	-0.09476672
253	0xbe0e0d52	-0.13872269
254	0x3d65bbdc	0.05608736
255	0x3df5eeda	0.12008448

col_embedding.3.bias f4 [32]
0	0xbd3cbf5d	-0.046080936
1	0x3e1acf38	0.1511811
2	0xbdc7c60e	-0.09754573
3	0x3df57f76	0.11987202
4	0xbcc100d0	-0.023559958
5	0x3e1cbc4a	0.15306202
6	0x3dd65076	0.104645655
7	0x3cf35d24	0.029707499
8	0x3e127036	0.14300618
9	0x3e11858b	0.14211099
10	0x3e0762bc	0.13221258
11	0x3e080093	0.13281469
12	0xbda7bcb9	-0.08190293
13	0x3e21e79a	0.15811005
14	0x3d8a75b7	0.067607336
15	0xbca7fa00	-0.020504951
16	0xbdbf8858	-0.093521774
17	0xbdabb21e	-0.083835825
18	0x3decaf41	0.115568645
19	0x3e131dff	0.14366911
20	0x3dbb53b5	0.09146825
21	0x3dc9f56a	0.09861262
22	0xbdfcedbf	-0.12350034
23	0x3e1b32db	0.15156119
24	0x3e0e06fd	0.13869853
25	0xbd863328	-0.06552726
26	0x3e0afe0f	0.13573478
27	0x3dbd5172	0.0924405
28	0x3dbcda17	0.09221285
29	0x3cf2ffb8	0.029662952
30	0xbdb7b7c9	-0.08970601
31	0x3d9aba1a	0.07555027

conv_col_to_row.feature_module_left.0.weight f4 [32, 32]
0	0x3cc88628	0.024478033
1	0xbe1c3d81	-0.15257837
2	0xbb700ea5	-0.0036629823
3	0x3d219a76	0.039453946
4	0xbd0586bb	-0.032599192
5	0xbdef7908	-0.11693007
6	0x3c701207	0.014652736
7	0xbd6ce0d4	-0.0578316
8	0x3e1f33a9	0.1554705
9	0x3c0eae9c	0.008708622
10	0xbcb3d1ba	-0.021950591
11	0x3e068103	0.13135152
12	0x3a3e3e01	0.0007257164
13	0xbd55fa7b	-0.05224083
14	0xbc9cf91a	-0.01916175
15	0xbc1fc6eb	-0.009752016
16	0xbc2e0ded	-0.010623437
17	0xbe0f7b5b	-0.140119
18	0x3e05fd3b	0.13084881
19	0x3ce52bd4	0.027975
20	0xbdb917c1	-0.09037734
21	0xbddafa9b	-0.106923304
22	0x3d9f778a	0.07786472
23	0x3da0302f	0.0782169
24	0x3dc5b08f	0.096528165
25	0xbdd83156	-0.10556285
26	0xbe2508d0	-0.16116643
27	0xbe07bfd1	-0.13256766
28	0x3e01a3b7	0.12660109
29	0xbd41da07	-0.047327068
30	0xbd5cb9c4	-0.053888097
31	0xbdcd15e7	-0.10013943
32	0x3e061af0	0.13096213
33	0x3d9317a4	0.071822435
34	0x3dd711e6	0.10501461
35	0xbdc92ca1	-0.098229654
36	0xbcff4df5	-0.031165102
37	0x3e23c9d1	0.15994956
38	0xbcb02f41	-0.021506907
39	0xbe302125	-0.17200144
40	0xbdb39701	-0.08769036
41	0x3b8cc1d2	0.004295566
42	0x3df278e4	0.11839464
43	0x3cfd15b5	0.03089414
44	0x3d2094c3	0.03920437
45	0xbdf9e3fc	-0.12201688
46	0x3cf68445	0.030092368
47	0x3c73dbc0	0.014883935
48	0x3e0179e7	0.12644158
49	0xbe07cf53	-0.13262682
50	0x3ced360d	0.028956437
51	0xbdd3140d	-0.10306559
52	0xbd26d2d8	-0.04072842
53	0x3db95e87	0.09051233
54	0xbe32d75a	-0.17464963
55	0x3ddd9737	0.108198576
56	0xbe23fc4e	-0.16014215
57	0x3d15f941	0.03661466
58	0x3da3dc06	0.080009505
59	0x3dd2b931	0.10289229
60	0xbdc0a421	-0.09406305
61	0xbde2c4a0	-0.110726595
62	0x3dc1a643	0.0945554
63	0xbc7b8dc3	-0.015353623
64	0x3de93c0f	0.113884084
65	0xbdddfde6	-0.10839443
66	0x3cde4a4a	0.027135033
67	0x3d8da629	0.06916458
68	0x3cc0dbdd	0.023542339
69	0x3e0310d7	0.12799393
70	0xbe035429	-0.12825073
71	0x3e2cef11	0.16888072
72	0xbdea1b59	-0.114309974
73	0xbdda8c1b	-0.10671254
74	0x3e04bcce	0.12962648
75	0x3cab0524	0.020876475
76	0xbe2d5231	-0.16925885
77	0xbe296288	-0.16541493
78	0xbda49ab9	-0.080373235
79	0x3e29e364	0.16590649
80	0x3d25958e	0.04042583
81	0xbe0659c8	-0.13120186
82	0x3e2cde5c	0.16881698
83	0x3d913562	0.0709026
84	0xbd9128b3	-0.07087841
85	0xbcdf1221	-0.027230324
86	0xbd41774a	-0.047232904
87	0x3e33a5fe	0.1754379
88	0x3baab0e4	0.0052090753
89	0x3d57885f	0.052620288
90	0xbe104290	-0.14087892
91	0x3cb81923	0.022472924
92	0xbd8812ad	-0.06644187
93	0x3d8e8fb8	0.06961006
94	0x3ccf183b	0.025280109
95	0xbc3735aa	-0.011182228
96	0xbd4cb351	-0.049975697
97	0xbd7aaf68	-0.061202437
98	0x3c56f4bc	0.013119873
99	0x3c24c0de	0.010055749
100	0xbc60c120	-0.01371792
101	0x3d51a94b	0.05118684
102	0xbc81aadd	-0.015828544
103	0xbd8b4894	-0.068009526
104	0x3e119f40	0.14220905
105	0xbdc3346f	-0.09531485
106	0xbdfbe0b9	-0.12298722
107	0x3e1b21ac	0.15149564
108	0x3cdecf10	0.027198344
109	0xbd01ea3d	-0.031717528
110	0xbdc28bae	-0.09499298
111	0xbd06b0f6	-0.032883607
112	0xbe083519	-0.13301505
113	0x3d200b59	0.039073322
114	0x3c9d8803	0.019229895
115	0x3d9e37f3	0.07725515
116	0xbcf41386	-0.029794466
117	0xbe2a9a01	-0.1666031
118	0x3e0d0c26	0.13774166
119	0xbe255821	-0.161469
120	0xbde9b0e9	-0.11410696
121	0xbbad554d	-0.0052897097
122	0xbdcfa772	-0.101393595
123	0xbdc0c5dc	-0.09412739
124	0x3dfcb251	0.12338699
125	0xbe2ce0d8	-0.16882646
126	0xbcb51a64	-0.02210731
127	0x3db8afac	0.09017882
128	0xbe1992fe	-0.1499748
129	0x3d9f777c	0.07786462
130	0x3e253745	0.16134365
131	0x3b5fb653	0.0034135773
132	0x3dc0c986	0.094134375
133	0xbde537a4	-0.11192253
134	0x3e091f3f	0.13390826
135	0xbe1f8a4e	-0.15580103
136	0x3d84d55a	0.06486006
137	0x3dd01f25	0.1016219
138	0xbdaa17c7	-0.083053164
139	0xbdd20efa	-0.10256763
140	0x3d24843c	0.04016517
141	0x3e28299a	0.1642212
142	0xbd9fc6ae	-0.07801567
143	0x3e052242	0.1300135
144	0xbda671b1	-0.08127154
145	0xbbeb9337	-0.0071891802
146	0x3e05a133	0.13049774
147	0xbe1318ae	-0.14364883
148	0xbe310bf2	-0.17289713
149	0xbcf9c42a	-0.030489046
150	0x3d0f4594	0.034978464
151	0x3cb86670	0.022509784
152	0xbe341b26	-0.17588481
153	0xbda4a3c7	-0.080390505
154	0x3d274f39	0.040847037
155	0xbce32fe6	-0.0277328
156	0xbe1d1602	-0.15340427
157	0x3d6b6200	0.057466507
158	0x3d3ae48a	0.045628108
159	0xbdc68b78	-0.0969457
160	0x3be78dda	0.0070664706
161	0xbe0c8aa3	-0.1372476
162	0x3e232113	0.15930586
163	0x3da78900	0.081804276
164	0x3c638eec	0.013889056
165	0x3da79877	0.08183377
166	0x3d61f8b0	0.055168808
167	0x3df20564	0.118174344
168	0xbe102bd6	-0.14079222
169	0xbd08a758	-0.033362716
170	0x3d8c22ad	0.068425514
171	0xbe1739d7	-0.14768158
172	0xbd10471d	-0.03522407
173	0xbd7b890f	-0.061410006
174	0x3cb42c07	0.02199365
175	0xbe00ba21	-0.12571003
176	0x3e2b0f4c	0.16705054
177	0xbe02cda9	-0.12773766
178	0xbd884a82	-0.06654836
179	0xbdcc7b8a	-0.09984501
180	0x3dfc5295	0.12320439
181	0x3df6121d	0.120151736
182	0x3d67485d	0.056465495
183	0x3df92bcf	0.12166559
184	0x3e24a2e8	0.16077769
185	0xbbf0aef9	-0.007345077
186	0xbdca0bd8	-0.0986554
187	0x3e112fed	0.14178438
188	0x3d83873e	0.0642228
189	0xbe08bcc8	-0.13353264
190	0x3b8d7fbe	0.0043182066
191	0x3e311f1c	0.17297024
192	0xbd52a3b6	-0.05142566
193	0xbe1eeaf0	-0.15519309
194	0x3e264c88	0.16240132
195	0x3cccf782	0.025020365
196	0x3d8f445c	0.069954604
197	0xbe276c7a	-0.16349974
198	0x3e14e85c	0.14541763
199	0xbded0da6	-0.11574869
200	0x3cce4521	0.025179448
201	0x3dabaf9e	0.08383106
202	0x3c4d0426	0.012513196
203	0xbe314d62	-0.17314675
204	0x3ce0a627	0.027422978
205	0xbda4b33b	-0.08041998
206	0x3d310982	0.043221958
207	0x3d9dbd40	0.07702112
208	0x3cbdeb05	0.023183355
209	0xbccf7026	-0.025322031
210	0xbd5e9d02	-0.054348953
211	0x3df31119	0.118684955
212	0xbd8fac31	-0.07015265
213	0x3d643c30	0.05572146
214	0xbdd739e7	-0.10509091
215	0xbd926945	-0.07148985
216	0x3cd41531	0.025889011
217	0xbe0ea5a1	-0.1393037
218	0x3d47fbd1	0.048824135
219	0xbd4e5d83	-0.05038215
220	0x3e29f8db	0.16598837
221	0x3bdb0d9d	0.0066849724
222	0xbe16fc53	-0.14744692
223	0x3dfdcb34	0.123922735
224	0xbe00825f	-0.12549733
225	0x3c1f997a	0.0097411815
226	0xbc0673c0	-0.008206308
227	0xbdffd9b5	-0.12492696
228	0x3e132ccd	0.14372559
229	0xbdce5a75	-0.10075847
230	0x3cd516ab	0.026011785
231	0x3e136058	0.14392221
232	0x3e08a62d	0.13344641
233	0xbe1ff598	-0.1562103
234	0x3e1509b8	0.14554489
235	0xbd9bd00d	-0.07608042
236	0xbb6fb9af	-0.0036579182
237	0xbdc73bf3	-0.09728231
238	0x3c6f277f	0.014596819
239	0x3dcc33d7	0.09970825
240	0xbe063947	-0.13107787
241	0xbb3619fe	-0.0027786489
242	0x3e320fcb	0.17388837
243	0x3de47d26	0.11156683
244	0xbd37dd48	-0.044888765
245	0xbe162007	-0.14660655
246	0x3a12855b	0.00055893295
247	0xbd8442a3	-0.064580224
248	0x3dbda79b	0.09260484
249	0x3dee6a71	0.11641396
250	0xbded26de	-0.11579679
251	0xbac65eea	-0.0015134488
252	0x3e000818	0.12503088
253	0x3d9f35e1	0.077739485
254	0xbe150b0e	-0.14554998
255	0xbe1701a9	-0.14746727

conv_col_to_row.feature_module_left.0.bias f4 [32]
0	0x3ddc801f	0.10766625
1	0x3e0440f0	0.12915397
2	0xbddfa317	-0.10919779
3	0x3d88657d	0.06659982
4	0xbca37beb	-0.01995655
5	0x3de6c927	0.112688355
6	0xbdb3e4a9	-0.08783848
7	0x3e329e5e	0.17443225
8	0xbd7269aa	-0.0591828
9	0xbe150327	-0.14551984
10	0xbddd5952	-0.10808052
11	0xbe1b86c3	-0.15188126
12	0x3d173081	0.03691149
13	0x3d905af6	0.070485994
14	0xbe27fcc4	-0.16405016
15	0xbe1b4329	-0.15162338
16	0x3db30075	0.087403215
17	0x3e054585	0.13014801
18	0x3cd19b35	0.025586704
19	0x3d17b0cc	0.03703384
20	0x3d394f22	0.045241483
21	0x3db072de	0.08615659
22	0x3e259f7e	0.16174123
23	0xbdb3ab78	-0.087729394
24	0x3db818bd	0.089890935
25	0xbd563e8e	-0.05230575
26	0x3dff0950	0.12452948
27	0xbe2ebb57	-0.17063652
28	0xbdd104c7	-0.10205989
29	0xbd8b32af	-0.067967765
30	0xbd69f858	-0.057121605
31	0xbe2bf86b	-0.16793983

conv_col_to_row.feature_module_edge.0.weight f4 [32, 1]
0	0x3f0bc9a1	0.54604536
1	0x3f1c3fb5	0.6103471
2	0x3dc0c47e	0.09412478
3	0x3eab8cf9	0.3350599
4	0x3daf1d64	0.08550528
5	0x3ee8e62a	0.454881
6	0xbf3b7ef6	-0.732406
7	0xbea8b152	-0.32947785
8	0xbf021ec3	-0.5082819
9	0x3e5469cd	0.20743485
10	0xbf696aab	-0.9117839
11	0xbf56e346	-0.8394054
12	0xbf53c189	-0.82717186
13	0x3e0885a4	0.1333223
14	0xbf0840ab	-0.53223675
15	0x3db60986	0.08888535
16	0xbd81c9be	-0.063373074
17	0xbe14dfa4	-0.14538437
18	0x3f317038	0.6931186
19	0x3f27b32b	0.65507764
20	0xbf3b5040	-0.73169327
21	0x3c171698	0.009221695
22	0xbf50f8d9	-0.8162971
23	0xbf2ffea3	-0.6874792
24	0x3f2eaec3	0.68235415
25	0x3ed15837	0.40887615
26	0xbf29d265	-0.6633666
27	0x3f27010b	0.65235966
28	0xbe1dd619	-0.15413703
29	0x3e16a628	0.14711821
30	0xbe877cb6	-0.26462334
31	0x3f6be345	0.9214366

conv_col_to_row.feature_module_right.0.weight f4 [32, 32]
0	0xbd7957d3	-0.06087477
1	0x3da41931	0.080126174
2	0xbdcbeff3	-0.09957876
3	0x3df4393c	0.11924979
4	0xbdada37e	-0.08478449
5	0xbdee99d5	-0.11650435
6	0xbc63640a	-0.013878832
7	0x3cf84096	0.030304234
8	0x3bae8094	0.0053253863
9	0xbdd8040c	-0.10547647
10	0xbdbce0fe	-0.09222601
11	0x3d7c2266	0.061556242
12	0xbdd26fed	-0.102752544
13	0x3b31a2c8	0.0027105082
14	0x3d9b9611	0.07596982
15	0x3c83f292	0.016106877
16	0x3e344a66	0.17606506
17	0x3e27fb55	0.1640447
18	0x3cb833de	0.02248567
19	0x3e09fdfc	0.13475794
20	0xbe2a48dc	-0.16629356
21	0x3d1daf2a	0.038497128
22	0x3e3193f8	0.17341602
23	0xbd71411d	-0.058899987
24	0x3d8e237b	0.06940361
25	0x3d21fb0a	0.03954605
26	0x3e0d9d88	0.13829625
27	0xbdccc0cc	-0.099977106
28	0xbdecdb68	-0.11565286
29	0x3bdfce15	0.006829987
30	0xbde8b47b	-0.11362549
31	0x3e18cdc6	0.14922246
32	0x3e20224b	0.15638082
33	0x3dbe2c13	0.0928575
34	0xbc90790f	-0.01763585
35	0x3e350acf	0.17679904
36	0xbe1dc70d	-0.15407963
37	0x3e33f168	0.17572558
38	0xbd9de8c2	-0.07710411
39	0x3e17b89b	0.14816515
40	0xbddd3db7	-0.10802787
41	0xbdc29330	-0.0950073
42	0xbdd9ab75	-0.10628406
43	0x3db84546	0.08997588
44	0x3d0dd612	0.03462798
45	0x3dd15c7e	0.102227196
46	0x3bb83118	0.005621087
47	0xbd6d6e2b	-0.057966392
48	0x3e0d3488	0.1378957
49	0xbe0f9246	-0.14020643
50	0x3d9b74fb	0.07590672
51	0xbe1a4dbe	-0.15068719
52	0x3e296c76	0.16545281
53	0x3c493fbe	0.012283264
54	0xbd721d4d	-0.059109975
55	0x3e0ca3e9	0.13734402
56	0xbe18656e	-0.14882442
57	0xbdc9b2f5	-0.098485865
58	0xbe111d02	-0.14171222
59	0xbd68679c	-0.056739435
60	0xbd99cc86	-0.07509713
61	0x3dc7731c	0.09738752
62	0xbe17fd3d	-0.14842696
63	0x3b9f3506	0.004858616
64	0x3e0dc5d0	0.1384499
65	0xbd1d7ca4	-0.038448945
66	0xbd770611	-0.06030852
67	0xbda29835	-0.079391874
68	0x3db67b3d	0.089102246
69	0x3de7f696	0.113263294
70	0xbe07d96e	-0.13266537
71	0xbcc64ba1	-0.024205985
72	0xbe19ed15	-0.15031846
73	0xbd57fd09	-0.052731548
74	0x3ca6e1a9	0.020371275
75	0x3cc69388	0.02424027
76	0x3e02be4c	0.12767905
77	0x3df657d2	0.12028469
78	0x3d53bba1	0.05169261
79	0xbe24f98d	-0.16110821
80	0xbd3b9a85	-0.04580166
81	0x3e33dda0	0.17565012
82	0xbd6762ab	-0.05649058
83	0x3d33471c	0.043768987
84	0x3cde6f54	0.027152695
85	0x3dc7e902	0.097612396
86	0xbdb8c61c	-0.09022161
87	0xbdcc1377	-0.0996465
88	0xbd39dd0f	-0.045376834
89	0x3dee2204	0.11627582
90	0xbe25749b	-0.16157763
91	0xbcd50e6e	-0.026007857
92	0x3dd3a8a1	0.10334898
93	0x3e0e1cb7	0.13878141
94	0x3d13da33	0.036096763
95	0xbdb2a52d	-0.08722911
96	0x3d26170f	0.040549334
97	0xbe07e5eb	-0.132713
98	0xbe2fcf82	-0.17169002
99	0x3e0a0eb4	0.13482171
100	0xbe33fc85	-0.17576797
101	0xbe062152	-0.13098648
102	0x3e28e81a	0.1649479
103	0x3d82e78d	0.06391821
104	0xbdd9e4f4	-0.106393725
105	0xbe018e83	-0.1265202
106	0xbe1a5006	-0.15069589
107	0xbd0421de	-0.03225886
108	0xbdda2861	-0.10652233
109	0x3da9ad44	0.08285001
110	0xbdf8b84b	-0.12144526
111	0xbd8b37fc	-0.067977875
112	0xbd557110	-0.052109778
113	0x3d605c84	0.05477573
114	0xbc959bc4	-0.018262751
115	0xbcfcc964	-0.03085775
116	0xbda1d67b	-0.07902237
117	0xbe2d568e	-0.16927549
118	0x3e2e6876	0.17032036
119	0x3e12dc88	0.14341938
120	0x3d7c91c1	0.06166244
121	0xbc42b203	-0.011883262
122	0x3e02bfed	0.12768526
123	0xbd3de2af	-0.04635876
124	0x3bc7e1ae	0.006099901
125	0x3de321d4	0.110904366
126	0xbdde456d	-0.10853086
127	0x3de9ca95	0.114155926
128	0xbdaf006d	-0.08545003
129	0xbe0974e8	-0.13423502
130	0x3e2fea7b	0.17179291
131	0xbd941cdc	-0.07232067
132	0xbd97377b	-0.07383629
133	0xbd6fc346	-0.058535837
134	0x3cfdc5b8	0.030978069
135	0xbc7f65b0	-0.015588209
136	0xbe185588	-0.14876378
137	0xbe25ac66	-0.16179046
138	0x3dd6d7ca	0.10490377
139	0x3d974651	0.07386459
140	0x3e0a5f0b	0.13512819
141	0xbe26d526	-0.16292247
142	0x3c9a535c	0.018838577
143	0x3e115582	0.14192775
144	0xbda330b8	-0.07968277
145	0x3bf9712e	0.007612369
146	0x3ad7fb1d	0.0016478036
147	0x3e204d57	0.15654503
148	0xbe0d630c	-0.13807315
149	0xbd0cc9e3	-0.03437222
150	0x3d8395d7	0.06425064
151	0x3b9348f6	0.0044947816
152	0x3d1a7f21	0.037718896
153	0xbddf8f55	-0.1091601
154	0xbe17dadd	-0.14829583
155	0x3e210f05	0.15728386
156	0x3c4fdc49	0.012686797
157	0xbd920743	-0.07130291
158	0xbb718099	-0.0036850332
159	0x3d4b0af1	0.04957098
160	0x3da3d5b8	0.07999748
161	0x3e1d6867	0.15371858
162	0xbe2b1ebc	-0.16710943
163	0xbe0fddfa	-0.14049521
164	0x3d7b6fbb	0.06138585
165	0xbdbddb2d	-0.0927032
166	0x3d5a665f	0.053320285
167	0x3e302399	0.1720108
168	0xbd904058	-0.070435226
169	0x3e1e1e35	0.1544121
170	0x3d88f75e	0.066878065
171	0x3dcf21e4	0.10113886
172	0x3e28ffd0	0.16503835
173	0x3e31f512	0.17378643
174	0x3de2a327	0.11066275
175	0x3dbb42ae	0.091435775
176	0x3d821a6b	0.06352695
177	0x3e133eb8	0.14379394
178	0x3e2ccad0	0.16874242
179	0xbe1672b5	-0.14692195
180	0x3e0148fb	0.12625496
181	0x3de083b1	0.10962618
182	0x3dbc3185	0.091891326
183	0x3dad0497	0.08448141
184	0xbdb5b691	-0.088727124
185	0x3db9f711	0.09080327
186	0x3de4904b	0.11160334
187	0x3d37e93c	0.044900164
188	0x3d1ae36b	0.03781454
189	0xbdfb3158	-0.12265271
190	0xbe21303a	-0.15741053
191	0xbd704e15	-0.058668215
192	0x3e1cdad9	0.15317859
193	0x3be02cfd	0.0068413005
194	0x3d67f916	0.05663403
195	0x3d7c2125	0.061555047
196	0xbb0cb04b	-0.0021467383
197	0xbb2a964b	-0.0026029523
198	0xbc7cf502	-0.015439274
199	0xbde98886	-0.11402993
200	0x3dab29f9	0.08357615
201	0xbdc5d15e	-0.09659074
202	0x3d54585b	0.051842075
203	0xbd9e09b4	-0.077166945
204	0xbd547139	-0.05186579
205	0xb8804dc4	-6.1180006e-05
206	0xbda383ec	-0.079841465
207	0xbdeb902c	-0.11502108
208	0xbe09f94b	-0.13474004
209	0x3d6edea8	0.05831781
210	0xbe00ce21	-0.12578632
211	0xbe2e72b8	-0.17035949
212	0xbdd86a48	-0.105671465
213	0x3beb23f0	0.007175915
214	0x3c07f13f	0.008297264
215	0x3bf8898a	0.0075847553
216	0x3d4ac783	0.049506675
217	0xbdaad55c	-0.08341476
218	0x3dc86944	0.09785703
219	0x3c1606d6	0.009156903
220	0x3e0bde9d	0.13659139
221	0x3cea8e12	0.028632198
222	0x3d77d45d	0.06050526
223	0xbe007ce9	-0.1254765
224	0x3e0cc266	0.13746032
225	0xbca6609c	-0.020309739
226	0xbd9770ce	-0.07394563
227	0x3e16ea7f	0.1473789
228	0xbd5b370a	-0.053519286
229	0x3de1dcf5	0.11028472
230	0x3c17e6db	0.009271349
231	0x3b51cd70	0.003201332
232	0x3e19049a	0.14943162
233	0xbdcb16f8	-0.0991649
234	0x3ce01fd4	0.027358927
235	0xbda1935e	-0.07889436
236	0x3ddfe462	0.109322324
237	0x3d08a0e2	0.033356555
238	0x3dc25337	0.09488528
239	0x3ddab4a3	0.10678985
240	0xbd67c494	-0.056583956
241	0xbdd0a091	-0.101868756
242	0xbd3b45a6	-0.04572072
243	0x3ca8935e	0.020578083
244	0xbdcbc90a	-0.099504545
245	0x3dd9d785	0.1063681
246	0xbdc1fd2e	-0.09472118
247	0x3dadb622	0.08482005
248	0xbe19381b	-0.14962809
249	0xbdb553bd	-0.088538624
250	0x3cd8e4b1	0.026476236
251	0xbe333a69	-0.1750275
252	0x3e17329d	0.14765401
253	0x3e1bd02c	0.1521613
254	0x3da1669a	0.07880898
255	0xbcd7ae65	-0.026328275

conv_col_to_row.feature_module_final.0.weight f4 [32]
0	0x3f7fb835	0.9989045
1	0x3f7ffd94	0.99996305
2	0x3f800000	1.0
3	0x3f8005c4	1.000176
4	0x3f800000	1.0
5	0x3f800356	1.0001018
6	0x3f8037d2	1.0017035
7	0x3f7fe54e	0.99959266
8	0x3f7fdbca	0.99944746
9	0x3f803f8a	1.001939
10	0x3f7feb51	0.9996844
11	0x3f7fe157	0.99953216
12	0x3f801aea	1.0008214
13	0x3f7fe5e0	0.99960136
14	0x3f800235	1.0000674
15	0x3f7fbe9f	0.9990024
16	0x3f800da7	1.0004166
17	0x3f7ff959	0.9998985
18	0x3f800494	1.0001397
19	0x3f801896	1.0007503
20	0x3f8022db	1.0010637
21	0x3f80028e	1.000078
22	0x3f7ff05c	0.99976134
23	0x3f7ff6f0	0.9998617
24	0x3f803585	1.0016333
25	0x3f8017d1	1.0007268
26	0x3f80332f	1.001562
27	0x3f800000	1.0
28	0x3f800000	1.0
29	0x3f7fb0af	0.9987897
30	0x3f800000	1.0
31	0x3f800000	1.0

conv_col_to_row.feature_module_final.0.bias f4 [32]
0	0xba1d5248	-0.00060013356
1	0xb76b7554	-1.4034409e-05
2	0x00000000	0.0
3	0x394b4fbc	0.00019389292
4	0x00000000	0.0
5	0x3907feb6	0.0001296949
6	0x3996d310	0.00028767483
7	0xb9926aed	-0.00027926956
8	0xb9aa73ab	-0.00032511106
9	0x3acc8189	0.0015602569
10	0xb9624fb5	-0.00021582733
11	0xb9ee672d	-0.0004547177
12	0x3a245a6d	0.0006269578
13	0xba3da508	-0.00072343694
14	0x3a62a376	0.00086455734
15	0xb98b2504	-0.00026539725
16	0xb930b2c1	-0.00016851259
17	0xb89b9ba9	-7.41997e-05
18	0x38e8e6fa	0.00011105645
19	0x3a9e5606	0.001208008
20	0x3a5084bd	0.000795435
21	0x359f59bc	1.1872539e-06
22	0x3931ee11	0.00016968722
23	0xb97be45a	-0.00024022293
24	0x3b0587f2	0.002037522
25	0x3a195c1c	0.0005850212
26	0x3aa7dac9	0.0012806292
27	0x00000000	0.0
28	0x00000000	0.0
29	0xbab856b7	-0.0014063929
30	0x00000000	0.0
31	0x00000000	0.0
