GNN/ResultsGCNN/actor_24.pt (torch, 83520 bytes, 43 tensors)

row_embedding.0.weight f4 [7]
0	0x3f8023de	1.0010946
1	0x3f800cc8	1.00039
2	0x3f7fdcad	0.999461
3	0x3f801b65	1.000836
4	0x3f7ff7ac	0.9998729
5	0x3f801496	1.0006282
6	0x3f7ff846	0.9998821

row_embedding.0.bias f4 [7]
0	0xba84a157	-0.0010118884
1	0xba02d673	-0.0004991062
2	0xba0a8f36	-0.00052856223
3	0xba43d237	-0.0007469984
4	0x3977b8db	0.0002362462
5	0xba31f3e0	-0.00067883544
6	0x39e65935	0.00043935483

row_embedding.1.weight f4 [32, 7]
0	0x3d5cfef8	0.053954095
1	0x3d6043e5	0.05475225
2	0x3e0cf402	0.13764957
3	0xbeb7047b	-0.35745606
4	0xbe3ba74f	-0.18325542
5	0x3e76524d	0.24054833
6	0xbdaf0bb8	-0.08547157
7	0xbe8b39bc	-0.27192485
8	0xbd820273	-0.063481234
9	0xbd20f238	-0.039293498
10	0xbddb3f9c	-0.10705492
11	0x3e46ed8a	0.19426551
12	0x3a6caa8f	0.0009028101
13	0xbdb091b7	-0.08621543
14	0xbe0121ce	-0.12610552
15	0xbe95d9bf	-0.2926769
16	0xbe91495c	-0.2837628
17	0x3e85e673	0.2615238
18	0x3ea26a51	0.31721738
19	0x3c9fcc04	0.019506462
20	0xbe4ef4e1	-0.20210601
21	0xbe57ebb7	-0.21086012
22	0x3e04227a	0.12903777
23	0x3ea2aa7a	0.31770688
24	0xbeb6400b	-0.35595736
25	0x3ce7d542	0.028299931
26	0x3bd5e452	0.006527462
27	0x3e48d8ae	0.19613907
28	0xbe0ed460	-0.13948202
29	0xbd05d6da	-0.0326756
30	0xbe9d51f1	-0.3072658
31	0x3e563bc0	0.2092123
32	0xbe4faa12	-0.2027972
33	0xbe4ea5d2	-0.20180443
34	0xbe489193	-0.19586782
35	0xbdda8ed3	-0.10671773
36	0x3d59f9f0	0.053216875
37	0xbc4d0725	-0.01251391
38	0xbeb4ef7d	-0.35338965
39	0x3dca6800	0.09883118
40	0xbe4fb5d5	-0.20284207
41	0x3ea0ebf0	0.31430006
42	0xbe89365c	-0.26799285
43	0xbeabf130	-0.3358245
44	0x3e8b0392	0.2715116
45	0xbe658eef	-0.22417806
46	0xbea01ad7	-0.31270477
47	0xbd673b15	-0.05645283
48	0x3ca14bad	0.019689405
49	0xbe798e17	-0.24370609
50	0x3e8ac24d	0.27101365
51	0x3e6a1388	0.22859013
52	0x3e858ee9	0.26085594
53	0x3e5935cc	0.21211928
54	0x3d0437ce	0.032279782
55	0x3d0dea39	0.0346472
56	0xbe0c502c	-0.13702458
57	0xbd9c891e	-0.076433405
58	0x3cc342f9	0.023835646
59	0x3c647e40	0.013946116
60	0xbe0cb59a	-0.1374115
61	0xbe53b9e9	-0.20676388
62	0x3e8e55e8	0.27799916
63	0x3d479b36	0.048732005
64	0xbeaf1e4a	-0.34202796
65	0xbe4d31e8	-0.20038569
66	0x3eba3be2	0.36373812
67	0xbe419983	-0.18906216
68	0x3e835a05	0.25654617
69	0xbeb303df	-0.3496389
70	0xbe88c3b2	-0.26711804
71	0x3eacc00a	0.33740264
72	0xbdc36651	-0.09541
73	0xbbc5693f	-0.006024509
74	0xbd20dc84	-0.0392728
75	0xbe809fe9	-0.25122002
76	0x3e812273	0.25221595
77	0xbe39f190	-0.18158555
78	0x3c53f30f	0.012936368
79	0xbeb64157	-0.35596725
80	0xbd993311	-0.07480443
81	0xbc753b2c	-0.014967721
82	0x3e847336	0.2586915
83	0x3e0ae7e5	0.13565023
84	0x3e93cf7e	0.2886924
85	0xbd94eea8	-0.072720826
86	0xbe9e58a8	-0.30927014
87	0xbdda25f9	-0.10651774
88	0xbd8c411c	-0.06848356
89	0x3ea26045	0.31714073
90	0xbe69a92f	-0.22818445
91	0x3e7f5d10	0.24937844
92	0x3e5a8315	0.21339066
93	0xbe6061a5	-0.21912248
94	0xbe7b7c84	-0.24559218
95	0xbe1dd2ee	-0.15412495
96	0xbe17944b	-0.14802663
97	0xbe8a3309	-0.26992062
98	0xbeb91f15	-0.36156526
99	0x3db75e8f	0.089535825
100	0x3dcb223a	0.099186376
101	0xbe8f43a4	-0.27981293
102	0x3e8bf5ef	0.2733607
103	0xbe1285dd	-0.14308877
104	0xbdebd9e7	-0.11516171
105	0x3d88e505	0.06684307
106	0x3e91c51c	0.28470695
107	0xbea84e09	-0.32872036
108	0xbd901140	-0.0703454
109	0x3df48c0c	0.11940774
110	0xbe9dbdac	-0.3080877
111	0x3e97da62	0.296588
112	0x3e175ade	0.14780757
113	0x3ea79c60	0.32736492
114	0xbce338d7	-0.027737064
115	0x3e3217e3	0.17391925
116	0xbe81d4b0	-0.2535758
117	0x3eb3babc	0.35103405
118	0x3dbd94a7	0.09256869
119	0x3e4956f5	0.19662078
120	0xbe5e8ce0	-0.21733427
121	0xbe88161b	-0.26579365
122	0xbea6066c	-0.32426775
123	0xbeb137e2	-0.34612948
124	0x3b38b891	0.0028186182
125	0xbcb8305e	-0.022484
126	0xbeb473c0	-0.3524456
127	0x3eaee784	0.34161007
128	0xbe32efb9	-0.1747426
129	0xbe9a5181	-0.30140308
130	0xbe26c8e1	-0.16287567
131	0x3ea234af	0.3168082
132	0x3db62117	0.0889303
133	0xbe4907b7	-0.19631849
134	0xbe2b8015	-0.16748078
135	0xbe760fb7	-0.24029432
136	0x3e00d272	0.12580279
137	0x3e7deca5	0.24797304
138	0xbe4462cf	-0.19178317
139	0x3eb7ac05	0.35873428
140	0x3ea86c02	0.32894903
141	0x3e02ed5c	0.12785858
142	0xbc189382	-0.009312512
143	0x3e8c8713	0.27446803
144	0x3dd4f56b	0.10398372
145	0xbeab3133	-0.33435974
146	0xbe83ba17	-0.25727913
147	0x3e4ba67f	0.19887732
148	0x3d095bdd	0.033534873
149	0x3eb50b51	0.35360196
150	0xbe8b442d	-0.27200451
151	0xbe92aa4c	-0.2864555
152	0xbddb7504	-0.10715678
153	0xbe6bd436	-0.23030171
154	0x3e8ff4a4	0.28116333
155	0x3d038f88	0.032119304
156	0xbe09af58	-0.13445795
157	0xbd474f03	-0.048659336
158	0x3d0bdd25	0.034146447
159	0xbe8c3b49	-0.2738898
160	0x3d304125	0.043030877
161	0xbe7ad850	-0.24496579
162	0x3d72acb6	0.05924674
163	0x3e0c31f9	0.13690938
164	0xbe6e3c8c	-0.23265284
165	0xbe568d16	-0.20952258
166	0xbc451624	-0.0120292045
167	0x3e9849a8	0.29743695
168	0x3e423967	0.1896721
169	0xbdb4dfc7	-0.08831745
170	0x3ea914a8	0.33023572
171	0x3dc73e44	0.09728673
172	0x3ebaee9f	0.36510178
173	0x3e882fe2	0.26599032
174	0xbe86134f	-0.26186606
175	0x3cbe3b49	0.023221629
176	0x3e6cd51a	0.23128167
177	0x3d9b76e1	0.07591034
178	0x3df59c47	0.11992698
179	0x3e9fddb1	0.31223825
180	0xbe8e2746	-0.27764338
181	0x3e022c15	0.12712128
182	0xbdee940c	-0.116493315
183	0xbe20a82a	-0.1568915
184	0x3ead4302	0.33840185
185	0x3e8a822a	0.27052432
186	0x3e7d7b6e	0.24754116
187	0x3d180649	0.03711537
188	0xbe961659	-0.29313925
189	0x3eaf63fa	0.34255964
190	0x3ddbab66	0.10726051
191	0xbd1feeb1	-0.039045993
192	0xbe93eb2f	-0.28890368
193	0xbddddab0	-0.10832727
194	0xbea8af0e	-0.32946056
195	0x3e973fe2	0.29540926
196	0x3ea3ad8a	0.31968337
197	0x3d978757	0.07398861
198	0x3ea2af80	0.3177452
199	0xbe75df7a	-0.24011031
200	0xbe5a8030	-0.21337962
201	0x3e382094	0.17981178
202	0x3ebd17af	0.36932132
203	0xbe711f69	-0.23547138
204	0xbe9cda80	-0.30635452
205	0x3e02bf1c	0.12768215
206	0x3ded1630	0.115764976
207	0x3e8878ff	0.26654813
208	0x3d6a5525	0.057210106
209	0xbec16c3b	-0.37777886
210	0x3e1c29ac	0.15250272
211	0xbe395951	-0.18100478
212	0x3e474d5a	0.19463101
213	0xbe8f7a3e	-0.2802295
214	0xbe95c297	-0.29250023
215	0x3d0a7087	0.03379872
216	0xbd838d91	-0.06423486
217	0xbeb3b2b7	-0.35097286
218	0xbe3f3ed4	-0.18676311
219	0xbe9f167a	-0.31071836
220	0x3ddafbf6	0.10692589
221	0x3dce57be	0.10075329
222	0xbdf4b1cb	-0.11947974
223	0xbea21807	-0.31658956

row_embedding.1.bias f4 [32]
0	0xbd51526a	-0.051103987
1	0x3e838df8	0.2569425
2	0x3de1fce0	0.1103456
3	0xbebce047	-0.3688986
4	0x3da5e837	0.08100932
5	0xbdfabaea	-0.12242682
6	0x3c93990b	0.018017313
7	0xbddaabf9	-0.106773324
8	0x3e1a8c89	0.15092672
9	0xbe56f504	-0.20991904
10	0xbeb3414a	-0.3501075
11	0xbcd71bba	-0.026258338
12	0x3ea2fe0e	0.31834453
13	0x3e19850c	0.1499216
14	0x3eb133e1	0.34609893
15	0x3dca5c52	0.0988089
16	0xbe223579	-0.1584071
17	0x3c8d079c	0.017215542
18	0xbdf865c1	-0.12128783
19	0x3e9d77e2	0.30755526
20	0x3e90154c	0.28141248
21	0xbcd509a8	-0.026005581
22	0x3e5768d1	0.21036078
23	0xbdcb257c	-0.09919259
24	0x3ea4a6ea	0.32158595
25	0x3e53b532	0.2067459
26	0xbe18324a	-0.14862934
27	0x3e0079f5	0.12546523
28	0xbe96e5e2	-0.29472262
29	0xbe496802	-0.19668582
30	0x3cad1e4d	0.021132613
31	0xbe5cf4eb	-0.21577804

row_embedding.3.weight f4 [32, 32]
0	0xbdfb9f51	-0.122862466
1	0xbd286eab	-0.041121166
2	0x3d90eee5	0.070768155
3	0x3c3f1dad	0.01166479
4	0x3dce8ea7	0.100858025
5	0x3b2ccd63	0.0026367537
6	0x3e26c3ea	0.16285673
7	0x3e14f1f2	0.1454542
8	0x3dcd7f71	0.10034073
9	0xbe160b34	-0.14652711
10	0x3d0da1dc	0.03457819
11	0x3cf043a2	0.029329125
12	0x3dcc92dd	0.099889494
13	0x3b0a8e9a	0.0021142126
14	0x3e0cea8f	0.13761352
15	0x3e1e1f58	0.15441644
16	0x3e1f363b	0.15548031
17	0x3d12e37b	0.035861474
18	0xbdf45bc4	-0.119315654
19	0x3dd5485e	0.104141936
20	0x3d2585fa	0.040410973
21	0x3d5ed733	0.05440445
22	0x3d3a61d6	0.04550346
23	0x3de94d29	0.1139167
24	0xbe2763bf	-0.16346644
25	0x3ddb372a	0.10703881
26	0x3e01677a	0.1263713
27	0x3e1aedd6	0.1512979
28	0x3c90a7a1	0.017658057
29	0xbe1ef363	-0.15522532
30	0x3e16bc42	0.14720252
31	0xbcf08456	-0.029359978
32	0x3d0e55e3	0.034749877
33	0x3ce448a1	0.027866663
34	0xbe35e237	-0.17762075
35	0x3c0043b5	0.007828643
36	0xbc8f4683	-0.017489677
37	0xbd3acedb	-0.04560743
38	0x3d9ea682	0.077466026
39	0x3d303560	0.043019652
40	0xbdc0eb4c	-0.09419879
41	0xbd1ffc8d	-0.03905921
42	0xbdcf0c4f	-0.101097696
43	0xbe245ca8	-0.1605097
44	0x3db22a3e	0.08699463
45	0x3dd2bb67	0.102896504
46	0x3e20d1f3	0.1570509
47	0xbe2c776b	-0.1684243
48	0xbd4726db	-0.04862104
49	0x3e05d162	0.13068154
50	0x3da21b05	0.0791531
51	0xbe0a446b	-0.13502662
52	0x3e03d98e	0.1287596
53	0x3dfacb6d	0.12245832
54	0x3e07e43f	0.13270663
55	0x3df9908b	0.121857725
56	0x3e0ef9ca	0.13962474
57	0xbd8edf11	-0.0697614
58	0x3e0e1f90	0.13879228
59	0x3de8216a	0.11334498
60	0xbe08f7a8	-0.13375723
61	0x3d687d0d	0.056759883
62	0xbe0c0a6e	-0.13675854
63	0xbdbd7cdf	-0.09252333
64	0x3c7890b4	0.015171219
65	0x3e25accb	0.16179197
66	0xbdd8b1f2	-0.105808154
67	0xbe174510	-0.14772439
68	0x3e2e5049	0.17022814
69	0xbdaae9ba	-0.08345361
70	0xbe277650	-0.16353726
71	0xbd93a0fc	-0.0720844
72	0x3df45745	0.11930708
73	0x3d0390ca	0.032120503
74	0x3e234d1c	0.15947384
75	0x3dd5e191	0.10443414
76	0x3c2dbef3	0.010604608
77	0x3e27203d	0.16320892
78	0xbda590af	-0.08084237
79	0x3db220eb	0.08697685
80	0xbd154cd3	-0.03645022
81	0xbc904ffc	-0.017616265
82	0x3d2bdee5	0.041960616
83	0x3e01c4f9	0.12672795
84	0x3e1d09d4	0.1533578
85	0x3d508ce4	0.050915614
86	0xbd54dbf5	-0.05196758
87	0x3e2e7434	0.17036515
88	0x3d07acaf	0.03312367
89	0x3d699c4f	0.057033833
90	0x3d642a1a	0.055704214
91	0xbe261e8d	-0.16222592
92	0x3e2b5cbd	0.16734596
93	0x3e28331a	0.16425744
94	0x3e04d1a3	0.12970595
95	0x3e1e1ed7	0.15441452
96	0xbda42134	-0.080141455
97	0xbd18cc77	-0.037304368
98	0xbe1dc583	-0.15407376
99	0x3d6a6f28	0.057234913
100	0x3d42b171	0.047532503
101	0x3d77edb0	0.06052941
102	0x3e2ed139	0.17072
103	0xbcbff674	-0.023432948
104	0x3db74495	0.08948628
105	0x3dee38b7	0.11631911
106	0xbddbd0af	-0.107331626
107	0xbcf9b257	-0.030480547
108	0x3e02bf6b	0.12768333
109	0xbdd2dd33	-0.10296097
110	0x3d7dd50a	0.061970748
111	0x3db7ff74	0.08984271
112	0xbc9a0cbf	-0.018804906
113	0x3e2e7054	0.17035037
114	0xbd8bb7d4	-0.06822172
115	0x3d95d562	0.0731609
116	0xbd221b9e	-0.03957712
117	0xbe22a360	-0.15882635
118	0x3d984f0d	0.07436953
119	0xbd87f556	-0.06638591
120	0xbb332f44	-0.0027341405
121	0x3e1ed24e	0.15509912
122	0xbda1e915	-0.07905785
123	0xbd83d3cc	-0.064368814
124	0xbe322070	-0.17395186
125	0xbe019c18	-0.12657201
126	0xbde9db9c	-0.1141884
127	0x3d38894e	0.04505282
128	0x3dbd3aec	0.09239754
129	0xbce652fd	-0.028115744
130	0xbdea43a6	-0.11438684
131	0x3c2f912c	0.010715764
132	0x3dac53b8	0.084144056
133	0xbd824ddb	-0.06362506
134	0xbde0a79d	-0.1096947
135	0x3dc0d4d2	0.09415592
136	0xbe2e6587	-0.17030917
137	0x3d94f98a	0.07274158
138	0x3e0d4428	0.13795531
139	0xbe316059	-0.1732191
140	0xbd49bd9f	-0.049253102
141	0xbd206ad8	-0.039164394
142	0x3c4cf363	0.0125092
143	0xbe33a5d0	-0.17543721
144	0xbddd6d0f	-0.10811817
145	0xbdd2cc69	-0.102928944
146	0x3d8d6169	0.06903345
147	0x3d7e5db5	0.062101085
148	0xbe0ad5fe	-0.13558194
149	0x3d4216f6	0.04738518
150	0x3c0492ed	0.00809167
151	0x3d863acd	0.06554184
152	0xbd864e4b	-0.06557902
153	0x3df5bb5f	0.11998629
154	0xbda646e0	-0.08118987
155	0xbe08aad9	-0.13346423
156	0x3ddbbc60	0.10729289
157	0xbe3242c0	-0.17408276
158	0x3df7cd09	0.12099654
159	0xbd4d4c54	-0.05012162
160	0xbdb2b80a	-0.08726509
161	0xbe234067	-0.15942536
162	0xbd07c690	-0.03314835
163	0x3d7ada7d	0.061243523
164	0xbd666213	-0.056245875
165	0x3e27185d	0.16317888
166	0x3dbdcf9b	0.09268113
167	0x3d780f50	0.06056148
168	0xbe28bb38	-0.16477668
169	0x3b7bed71	0.0038441087
170	0xbe01be7d	-0.12670322
171	0x3d3d2509	0.046177898
172	0xbd211fba	-0.039336897
173	0x3de01a12	0.109424725
174	0xbb21fc47	-0.002471702
175	0xbe278ad5	-0.16361554
176	0xbdc6bdb1	-0.097041495
177	0xbe33d467	-0.17561494
178	0xbd370fa8	-0.044692665
179	0x3dae2a9b	0.0850422
180	0xbe13f315	-0.14448197
181	0x3df0aa6f	0.11751258
182	0xbe328c8b	-0.17436425
183	0xbc584566	-0.01320014
184	0x3a1bef01	0.0005948395
185	0xbdb54fbd	-0.088530995
186	0xbe1c7012	-0.15277126
187	0xbdc63b49	-0.096792765
188	0xbe1317ba	-0.1436452
189	0xbca437f9	-0.020046221
190	0x3cdbe4dc	0.026842527
191	0xbe27d085	-0.16388138
192	0x3db1d2f5	0.08682815
193	0x3e04901c	0.12945598
194	0x3dfa011f	0.12207245
195	0xbd1f7470	-0.038929403
196	0x3e0ffffc	0.14062494
197	0x3d69dd49	0.0570958
198	0xbdfdb48c	-0.12387952
199	0xbda3b0c0	-0.07992697
200	0xbe1dfd54	-0.15428668
201	0x3da6df2b	0.08148035
202	0x3e02e1bb	0.12781422
203	0x3d86d8e7	0.065843396
204	0xbcf6bded	-0.03011986
205	0xbe0fbb75	-0.14036353
206	0xbe285cb3	-0.16441612
207	0x3c9c79b5	0.019101003
208	0xbcb97c45	-0.022642264
209	0x3e09593b	0.13412945
210	0xbd955953	-0.07292428
211	0x3e0b79f9	0.13620748
212	0x3dc520dd	0.09625409
213	0x3de80bd0	0.11330378
214	0x3d28c6ab	0.04120509
215	0x3e0a3f5e	0.13500735
216	0xbdb40efa	-0.08791919
217	0xbd36d527	-0.04463687
218	0xbdb0a248	-0.08624703
219	0x3c693081	0.014232756
220	0x3e2a19b1	0.16611363
221	0xbd4424cd	-0.04788666
222	0xbd0a3e98	-0.0337511
223	0x3ddba063	0.10723951
224	0xbd820f60	-0.06350589
225	0xbd2f70d3	-0.042832207
226	0xbdf5b5e3	-0.11997583
227	0xbe034f1e	-0.1282315
228	0x3d140e4c	0.036146447
229	0x3e0dac2c	0.1383521
230	0x3e0ea28c	0.13929194
231	0xbdcddc26	-0.100517556
232	0x3db50f45	0.08840803
233	0xbdddf3c9	-0.10837514
234	0xbe320ceb	-0.1738774
235	0xbb11f950	-0.0022273846
236	0x3e1bd9d0	0.15219808
237	0xbca1e26c	-0.019761287
238	0xbe164fb0	-0.14678836
239	0xbd73d61d	-0.059530366
240	0x3d8b4372	0.067999735
241	0x3e0923ef	0.13392614
242	0xbe32fc60	-0.17479086
243	0x3d37196e	0.044701986
244	0x3d78a373	0.060702752
245	0x3d0e5f1d	0.034758676
246	0xbe312535	-0.1729935
247	0xbd7cee55	-0.06175073
248	0xbd00cd24	-0.031445637
249	0xbdc72499	-0.09723777
250	0xbe068404	-0.13136297
251	0x3d0377ab	0.032096546
252	0xbc85f483	-0.016351944
253	0xbc1f036c	-0.009705406
254	0xbdffbb0e	-0.1248685
255	0x3e10d60a	0.1414415

row_embedding.3.bias f4 [32]
0	0x3dddfebb	0.108396016
1	0xbd56aedc	-0.052412853
2	0xbd7553f4	-0.059894517
3	0xbd2879ef	-0.04113191
4	0x3c858df2	0.016303036
5	0xbe04ea03	-0.12979893
6	0x3ddd285a	0.10798712
7	0x3e11678a	0.14199653
8	0xbd8610ac	-0.06546149
9	0x3dd16f2b	0.10226282
10	0x3e08947f	0.13337897
11	0x3dc9b240	0.098484516
12	0xbca05a7b	-0.019574394
13	0x3d30e66f	0.04318851
14	0x3dd6698d	0.10469351
15	0x3dd854cf	0.10563051
16	0x3dc3e30b	0.095647894
17	0xbd978f5f	-0.07400393
18	0x3d4adf31	0.04952926
19	0x3dbc2b6e	0.09187971
20	0xbc3a42d3	-0.011368471
21	0x3d0738c5	0.033013124
22	0x3d629636	0.055319034
23	0x3d85e71c	0.06538221
24	0x3dd482a8	0.10376483
25	0x3d29313e	0.041306727
26	0x3e2869fc	0.1644668
27	0xbd60deef	-0.054900106
28	0x3b6bcd42	0.0035980497
29	0xbc0a7531	-0.008450792
30	0xbe18b83d	-0.14914031
31	0x3df6aac4	0.1204429

col_embedding.0.weight f4 [7]
0	0x3f7fb5d2	0.9988681
1	0x3f800919	1.0002776
2	0x3f800a26	1.0003097
3	0x3f800ae3	1.0003322
4	0x3f7fccb7	0.99921745
5	0x3f7fda18	0.9994216
6	0x3f800706	1.0002143

col_embedding.0.bias f4 [7]
0	0xb98b0470	-0.00026515452
1	0xb973bfca	-0.00023245733
2	0x39880f2b	0.00025951242
3	0xb9aec8d0	-0.00033337483
4	0x3a1ab005	0.0005900863
5	0x3a1cf609	0.000598759
6	0x39f265a2	0.0004623356

col_embedding.1.weight f4 [32, 7]
0	0x3eb521de	0.353774
1	0x3b8b9cd3	0.0042606383
2	0xba987cc7	-0.0011633866
3	0xbe33a55f	-0.17543553
4	0x3e8cd706	0.275078
5	0xbebad639	-0.36491564
6	0xbdd0c27a	-0.101933435
7	0xbdee0b36	-0.11623232
8	0xbe84749e	-0.25870222
9	0xbe28104c	-0.16412467
10	0x3e3e3aff	0.18577193
11	0xbe5a8833	-0.21341018
12	0x3ba7aa06	0.005116704
13	0xbe71f89f	-0.23629998
14	0xbe49fecf	-0.19726108
15	0x3c54c436	0.012986233
16	0x3e8aafea	0.27087337
17	0xbe353c06	-0.17698678
18	0x3d014555	0.03156026
19	0x3db8739a	0.09006424
20	0x3e56eb54	0.20988208
21	0x3e919ef5	0.28441587
22	0x3e905c91	0.28195623
23	0xbdd4caea	-0.10390265
24	0x3d75bd92	0.05999524
25	0xbe9e7520	-0.30948734
26	0xbc9700c2	-0.018432979
27	0x3e34d5cd	0.17659684
28	0x3e168d1e	0.1470227
29	0x3ea4166f	0.32048365
30	0x3e97977c	0.2960776
31	0xbe37e676	-0.17959008
32	0xbd88e43f	-0.066841595
33	0xbe8101ed	-0.25196782
34	0xbebb325e	-0.36561865
35	0xbec10947	-0.3770239
36	0x3d1a40eb	0.037659567
37	0xbd924d9f	-0.07143711
38	0x3e7770d5	0.24164136
39	0xbe6987b9	-0.2280568
40	0x3e2c972e	0.16854545
41	0xbdf75b4b	-0.120779596
42	0xbd07bdeb	-0.033140104
43	0x3eba2194	0.36353743
44	0x3ebebcbd	0.3725337
45	0x3e51b31f	0.20478486
46	0x3e6c4c9c	0.23076099
47	0x3d1656cf	0.03670388
48	0x3e30cf60	0.17266607
49	0x3d9eaa44	0.07747319
50	0xbdfcb83f	-0.1233983
51	0x3e3dac84	0.1852284
52	0xbeb5dd5f	-0.35520455
53	0x3d9100b2	0.07080211
54	0x3d9442d9	0.07239313
55	0x3e052099	0.13000716
56	0xbde06934	-0.10957566
57	0xbe3866ae	-0.18007919
58	0xbdbe4611	-0.09290708
59	0xbc531b78	-0.012884967
60	0xbe64e187	-0.22351657
61	0xbe1dafba	-0.15399066
62	0x3e350843	0.17678933
63	0x3d9b4182	0.07580854
64	0xbea6bb17	-0.32564613
65	0xbd5dfd3b	-0.054196578
66	0xbccd89c8	-0.025090113
67	0x3e2764f1	0.163471
68	0x3e9a062f	0.30082843
69	0xbec17a98	-0.37788844
70	0x3ebaa325	0.36452594
71	0x3c92a3b1	0.01790032
72	0x3eb9c4e1	0.3628302
73	0xbe03a651	-0.12856413
74	0xbe928e14	-0.28624022
75	0xbe7434af	-0.23848222
76	0xbe6fb889	-0.23410238
77	0x3eb74b75	0.35799757
78	0x3e07ecc3	0.13273911
79	0xbe89301f	-0.26794526
80	0xbd858002	-0.06518556
81	0xbe316f55	-0.17327626
82	0xbe6c9b0f	-0.23106025
83	0x3e61e22b	0.22058932
84	0x3e964bd7	0.29354736
85	0xbe98d982	-0.29853445
86	0x3cc12df2	0.023581479
87	0x3e7e0ea9	0.2481028
88	0x3e2653b0	0.16242862
89	0xbd945f87	-0.07244783
90	0xbe6922be	-0.2276716
91	0xbea69912	-0.32538658
92	0xbe549c46	-0.20762739
93	0x3c56963e	0.013097344
94	0xbd0efe5c	-0.034910545
95	0x3e4d11c8	0.20026314
96	0x3e2b4833	0.1672676
97	0xbc04bc29	-0.0081015015
98	0xbc854125	-0.016266415
99	0x3e409d2d	0.18809958
100	0xbe3fe5d4	-0.18740016
101	0x3e5c2023	0.21496634
102	0x3ea38b8e	0.3194241
103	0x3e64dc65	0.22349699
104	0x3db124ff	0.086496346
105	0x3d3bceb9	0.045851443
106	0xbce1e4b8	-0.027574882
107	0x3e4b361b	0.19844858
108	0x3e83f3e5	0.25772014
109	0xbce22e58	-0.027609989
110	0x3e0226c3	0.12710099
111	0xbe915fd1	-0.28393415
112	0x3e40c4c5	0.18825062
113	0x3e8c2701	0.27373508
114	0xba00f182	-0.00049188
115	0xbe1d5c28	-0.15367186
116	0xbdbebc22	-0.09313227
117	0xbdfb4c4e	-0.12270413
118	0xbeaf474a	-0.34234077
119	0x3ea75a49	0.3268607
120	0xbc42df42	-0.011894049
121	0xbea3748e	-0.31924862
122	0x3e840385	0.25783935
123	0x3ea3003d	0.3183612
124	0x3ea006f0	0.31255293
125	0xbe6b4541	-0.22975637
126	0xbe836a8f	-0.25667235
127	0x3d9ec837	0.07753032
128	0x3d8f27be	0.06990002
129	0xbe61e1c2	-0.22058776
130	0x3d88401c	0.06652853
131	0x3e819f4e	0.25316852
132	0xbe8db9e7	-0.27680895
133	0x3ebda797	0.37041923
134	0xbeb30313	-0.34963283
135	0xbdac297d	-0.08406351
136	0xbd664c41	-0.056225065
137	0x3db1d2a4	0.08682755
138	0xbc45ca3d	-0.012072143
139	0x3e81321a	0.25233537
140	0x3d8dd5bb	0.069255315
141	0xbe2546fa	-0.16140357
142	0xbebf018c	-0.37305868
143	0xbe96043b	-0.29300103
144	0x3e522974	0.20523626
145	0x3e207732	0.1567047
146	0x3e4eef04	0.20208365
147	0xbd30086b	-0.042976778
148	0x3dddd039	0.10830731
149	0xbea48146	-0.32129878
150	0x3c320572	0.010865556
151	0xbe1fcc25	-0.15605219
152	0xbe81813e	-0.25293916
153	0xbdb861b1	-0.09003008
154	0x3e67aac9	0.22623743
155	0x3e6c233a	0.23060313
156	0x3d696fcb	0.05699138
157	0xbd82e4ea	-0.06391318
158	0xbe326c7b	-0.17424195
159	0xbc763d2b	-0.015029232
160	0xbd39ba3c	-0.045343623
161	0x3e678e81	0.22612955
162	0x3de95a54	0.11394182
163	0xbe931ac6	-0.28731364
164	0xbea4707a	-0.32117063
165	0x3dff3432	0.12461127
166	0x3ce0cf46	0.027442586
167	0x3e0bd0f7	0.13653933
168	0xbe2c622d	-0.16834326
169	0x3e25024a	0.16114154
170	0xbe9ce4d5	-0.30643335
171	0x3db063e3	0.08612802
172	0xbe835923	-0.25653943
173	0xbe9894e1	-0.29801086
174	0xbda1b9a3	-0.078967355
175	0x3e8bac27	0.2727978
176	0xbe8501a6	-0.2597782
177	0xbe890dc2	-0.2676831
178	0x3e3e02cc	0.18555754
179	0xbeb4cb08	-0.3531115
180	0xbc15b962	-0.009138437
181	0xbe87acb0	-0.26498938
182	0x3e8a1588	0.26969552
183	0xbd6a4daa	-0.057202972
184	0xbdcc09d6	-0.099628136
185	0xbe6ac40e	-0.22926351
186	0x3cc3e961	0.023914995
187	0x3e12a435	0.14320453
188	0x3dc830d4	0.09774938
189	0x3e495ffd	0.19665523
190	0x3ebe3bf8	0.37155128
191	0x3e3cf016	0.1845096
192	0x3ea0547d	0.3131446
193	0x3d9cb339	0.076513715
194	0xbe6dd058	-0.23224008
195	0xbe96f76b	-0.2948564
196	0x3eb78648	0.35844636
197	0xbe0c60a3	-0.13708739
198	0x3ea7645f	0.32693765
199	0x3d53bc53	0.05169327
200	0xbe062fa6	-0.13104114
201	0xbe646cbb	-0.22307102
202	0xbeb2a0c6	-0.34888285
203	0x3c9013d0	0.017587572
204	0x3dcdb19e	0.100436434
205	0xbbbcac25	-0.005757826
206	0xbe9bc7b4	-0.304258
207	0x3e9084d2	0.28226334
208	0x3e8789be	0.26472276
209	0x3eb6d817	0.35711738
210	0x3eb31084	0.34973538
211	0xbdd4ffab	-0.10400327
212	0xbe45469b	-0.19265215
213	0x3e356b5d	0.17716737
214	0x3c1b6835	0.009485294
215	0x3e10019d	0.14063115
216	0xbd60c617	-0.054876413
217	0x3e3282db	0.1743273
218	0xbebb63f1	-0.36599687
219	0x3eb0d253	0.34535465
220	0x3e226130	0.15857387
221	0x3eb99005	0.3624269
222	0x3ba5a604	0.005055191
223	0x3e739909	0.23788847

col_embedding.1.bias f4 [32]
0	0xbe875ff2	-0.26440388
1	0xbe308887	-0.17239581
2	0xbd9f34f4	-0.07773772
3	0xbe92aac8	-0.2864592
4	0xbe99af04	-0.3001634
5	0x3e8b01dc	0.27149856
6	0xbe493a4d	-0.19651146
7	0xbe248b41	-0.16068746
8	0xbd23d71b	-0.040000062
9	0xbd142ebb	-0.03617738
10	0x3dc70546	0.09717803
11	0x3e8a783b	0.27044854
12	0x3d6ae975	0.05735155
13	0xbe2d3e02	-0.16918185
14	0x3e0127e4	0.12612873
15	0xbec092db	-0.37612042
16	0x3eb53578	0.35392356
17	0x3bab8d7d	0.0052353726
18	0xbe53e7a2	-0.2069383
19	0xbd24834e	-0.040164284
20	0xbcc8f37d	-0.024530167
21	0xbea934a7	-0.33047983
22	0x3e8e78e3	0.27826604
23	0x3d9e9560	0.07743335
24	0xbeb50725	-0.35357013
25	0x3e9c6efc	0.30553424
26	0xbe8ee685	-0.27910247
27	0xbda7f4aa	-0.08200963
28	0x3de8cc5a	0.11367102
29	0x3eb564d5	0.3542849
30	0xbd4e938e	-0.050433688
31	0x3eabe22b	0.3357099

col_embedding.3.weight f4 [32, 32]
0	0x3e0da715	0.13833268
1	0x3e02decf	0.12780307
2	0xbbe0d3be	-0.006861179
3	0xbe0e0015	-0.13867219
4	0x3d9ed7bc	0.07755992
5	0xbd01910a	-0.03163246
6	0xbe2afb48	-0.16697419
7	0x3e0bd678	0.13656032
8	0x3e0c48fb	0.13699715
9	0x3e1b5e1a	0.15172616
10	0x3dc24ce4	0.09487322
11	0x3de3ac59	0.11116857
12	0xbe139fcf	-0.14416431
13	0xbbe9ed57	-0.007138889
14	0x3d6c0192	0.057618685
15	0x3d94b481	0.07260991
16	0xbd607102	-0.054795273
17	0xbd0d8143	-0.0345471
18	0xbe05f533	-0.13081817
19	0xbe20d5f5	-0.15706618
20	0x3c1a33b0	0.009411737
21	0x3e30718e	0.17230818
22	0xbdf40c9f	-0.1191647
23	0x3e2a877c	0.16653246
24	0xbe230fdb	-0.15924017
25	0xbdf2204f	-0.118225686
26	0xbe0d4a4f	-0.13797878
27	0xbe013865	-0.12619169
28	0x3e155089	0.14581503
29	0x3b200d23	0.0024421893
30	0xbd3b6ae7	-0.045756247
31	0x3e2f03b4	0.17091256
32	0x3db37c1a	0.08763905
33	0xbe0ced8f	-0.13762496
34	0x3e1b5161	0.15167762
35	0xbdb46ee9	-0.08810217
36	0x3dc27658	0.094952285
37	0x3d4e9364	0.05043353
38	0x3d6af14a	0.057359017
39	0xbd46f742	-0.048575647
40	0x3e27258c	0.16322917
41	0xbb7ffa2c	-0.0039059026
42	0x3dd906ac	0.10596976
43	0x3df6f50e	0.12058459
44	0xbe1d0a2e	-0.15335914
45	0xbcf8480f	-0.030307798
46	0xbdcf9e8b	-0.101376615
47	0xbc91e778	-0.017810568
48	0xbe18437b	-0.14869492
49	0xbc8d7093	-0.017265594
50	0xbdeb9de1	-0.115047224
51	0xbd8a0616	-0.06739442
52	0x3dc6a5c4	0.09699586
53	0xbc70d734	-0.014699746
54	0x3e2845a6	0.16432819
55	0x3d7724e5	0.06033792
56	0x3d6aa83c	0.057289347
57	0x3d3dddea	0.046354212
58	0xbe3419f2	-0.17588022
59	0x3e2e890e	0.1704447
60	0xbbd7058b	-0.00656194
61	0xbe2f48b2	-0.17117575
62	0xbbbc541d	-0.005747332
63	0xbdb49162	-0.08816792
64	0xbd73f806	-0.059562705
65	0xbd37dd3a	-0.044888712
66	0xbcbe0803	-0.02319718
67	0xbdd88b51	-0.105734475
68	0xbdd317f2	-0.103073016
69	0x3d7e3c0c	0.062068984
70	0x3e2036dd	0.15645929
71	0x3e336307	0.17518245
72	0xbda660a7	-0.08123904
73	0xbe222aef	-0.1583669
74	0xbd1030c8	-0.03520277
75	0xbc6c5546	-0.014424628
76	0xbe1fbaac	-0.15598553
77	0xbe06e339	-0.13172616
78	0xbc3917ef	-0.01129721
79	0x3d8e21b7	0.06940024
80	0x3a79be03	0.000952691
81	0xbd57b274	-0.05266042
82	0xbcca4638	-0.024691686
83	0x3e2576d1	0.16158606
84	0x3d9938a9	0.0748151
85	0xbdcb7483	-0.09934332
86	0x3dd6ab2a	0.10481866
87	0x3df4cf84	0.11953643
88	0xbdc64bfe	-0.09682463
89	0xbd0c28f1	-0.034218732
90	0x3de08992	0.109637395
91	0x3b82cd1e	0.003991737
92	0x3ce69002	0.02814484
93	0xbd22bd64	-0.0397314
94	0xbd2b6b94	-0.04185064
95	0x3dabd72b	0.083906494
96	0x3dda6d60	0.10665393
97	0xbd35a25e	-0.0443443
98	0xbcb3bc25	-0.0219403
99	0x3cd6ea9b	0.026234915
100	0x3da0ce1f	0.078518145
101	0xbe2fe2b6	-0.17176327
102	0xbd911c42	-0.07085468
103	0x3dd6a869	0.104813404
104	0x3e1f190a	0.15536895
105	0xbe2d6699	-0.16933669
106	0x3d26f0f1	0.040757123
107	0xbd3fed0c	-0.046856925
108	0x3d84a8cf	0.0647751
109	0xbc25f041	-0.010128082
110	0xbd9c6879	-0.07637114
111	0xbe157292	-0.14594486
112	0xbd50510a	-0.050858535
113	0x3d16061a	0.036626913
114	0xbd4dbdac	-0.050229713
115	0x3bfc9a9c	0.0077088606
116	0x3d7b1764	0.061301604
117	0x3debd68e	0.115155324
118	0x3df5ffe8	0.12011701
119	0x3d824305	0.06360439
120	0x3de77c3e	0.11302994
121	0xbe1ba081	-0.15197946
122	0x3df4c409	0.11951453
123	0xbcc549de	-0.024083074
124	0x3df5fa7f	0.12010669
125	0x3e0bf69a	0.1366829
126	0x3e102ef3	0.1408041
127	0x3d875b42	0.06609203
128	0x3dd8fb0c	0.105947584
129	0x3d76bc75	0.06023832
130	0x3d0225d9	0.031774376
131	0xbdb654d6	-0.089029
132	0x3c1921a5	0.0093464
133	0x3e112533	0.14174347
134	0xbd1389fa	-0.036020257
135	0xbce9d463	-0.028543657
136	0x3e091538	0.13387
137	0x3dcaded4	0.09905782
138	0xbda784cf	-0.08179628
139	0xbe2519fd	-0.16123195
140	0x3c914aec	0.01773592
141	0xbe099814	-0.1343692
142	0xbe0686a1	-0.13137294
143	0x3e12d047	0.14337264
144	0x3dd2ac79	0.10286803
145	0xbe288b2f	-0.16459344
146	0xbdbc42af	-0.091924064
147	0x3dc5c519	0.09656734
148	0xbe05d732	-0.13070372
149	0x3d9648af	0.07338082
150	0x3cfdd3c9	0.030984776
151	0xbdfa63a9	-0.1222604
152	0x3bd789d7	0.006577711
153	0x3d718bb1	0.05897111
154	0x3e2de773	0.16982822
155	0x3dd796c7	0.10526805
156	0x3cd14af9	0.025548445
157	0xbd8e3ff5	-0.069457926
158	0xbe23da1c	-0.16001171
159	0x3cbc9d4d	0.023024226
160	0x3cd81cc9	0.026380913
161	0x3d8d32d3	0.068944596
162	0xbd67c7e4	-0.056587115
163	0xbe07d461	-0.1326461
164	0x3de597ac	0.1121057
165	0x3dbc9562	0.0920818
166	0xbd5f590c	-0.05452828
167	0x3e079a46	0.13242444
168	0x3e1bf40e	0.15229818
169	0x3dd5ef14	0.10445991
170	0xbdba5f37	-0.09100192
171	0xbdee1d6e	-0.11626707
172	0xbdce2e32	-0.10067405
173	0x3e13405d	0.14380021
174	0xbdec435a	-0.11536284
175	0x3d4eda69	0.05050126
176	0xbd3da6b5	-0.046301562
177	0xbdd09cba	-0.10186143
178	0x3e0d458b	0.1379606
179	0x3d3453c9	0.044025216
180	0xbd9a84f2	-0.075448886
181	0xbd42c6df	-0.04755294
182	0x3e008759	0.12551631
183	0xbc9783ae	-0.018495407
184	0x3d4af744	0.049552217
185	0xbe0d4acb	-0.13798063
186	0xbd8ac6e1	-0.067762144
187	0xbd429d7e	-0.047513478
188	0x3e15f5f6	0.14644608
189	0xbe22ebe8	-0.15910304
190	0x3db35789	0.087569304
191	0x3c33cc9d	0.010974077
192	0x3d3fb70c	0.046805426
193	0xbd7b5d0f	-0.061368044
194	0x3def1c9f	0.11675381
195	0xba347f56	-0.00068854296
196	0xbde6ce0d	-0.1126977
197	0xbc845c1b	-0.0161572
198	0x3da22c8a	0.079186514
199	0x3df8109d	0.12112544
200	0x3e30a4dd	0.1725039
201	0x3e25635f	0.16151188
202	0xbcecaaa9	-0.02888997
203	0xbdc1e341	-0.09467173
204	0x3cabdd7d	0.020979637
205	0xbe23cdb7	-0.15996443
206	0x3e00cd84	0.12578398
207	0x3b9c6d6c	0.0047737863
208	0x3e306212	0.17224911
209	0xbd94466f	-0.07239997
210	0x3dcc95dd	0.09989522
211	0x3e204d20	0.15654421
212	0xbce16abb	-0.027516713
213	0x3dcf9bd6	0.10137145
214	0xbdecb878	-0.11558622
215	0x3e229f6f	0.15881132
216	0x3d2e5692	0.04256303
217	0x3e1121e9	0.14173092
218	0x3cb84079	0.02249168
219	0xbc6c7f83	-0.014434698
220	0x3d448588	0.047978908
221	0x3df7d1c2	0.12100555
222	0x3decdfb5	0.11566106
223	0xbdf87066	-0.12130813
224	0xbdf80458	-0.121102035
225	0x3daf039f	0.085456125
226	0x3e296ae0	0.16544676
227	0x3e15f5dc	0.14644569
228	0xbdd4ecb5	-0.10396711
229	0x3cb5a7cf	0.022174744
230	0xbc8de8c0	-0.017322898
231	0xbe1c4cef	-0.15263723
232	0x3e1028fc	0.14078134
233	0x3e270a42	0.16312507
234	0x3d33cc56	0.04389604
235	0xbde43fe3	-0.11144998
236	0xbc8f2bcf	-0.017476944
237	0x3dfacfd3	0.122466706
238	0xbdcade9b	-0.0990574
239	0xbd3fc6a6	-0.046820305
240	0xbdb4dc22	-0.088310495
241	0x3c0bf054	0.008541185
242	0xbd9f45b2	-0.07776965
243	0xbcf33414	-0.029687919
244	0xbd4d1a91	-0.050074164
245	0x3dd8a8b7	0.10579055
246	0xbdb4221a	-0.08795567
247	0x3d42ec86	0.047588848
248	0x3e0f1029	0.13971008
249	0x3e127607	0.14302836
250	0xbe1cda40	-0.15317631
251	0xbd62ada5	-0.05534138
252	0xbdc36dae	-0.09542404
253	0xbe0e0575	-0.13869269
254	0x3d65bbdc	0.05608736
255	0x3df51c68	0.11968309

col_embedding.3.bias f4 [32]
0	0xbd3bf1f9	-0.04588506
1	0x3e1ae055	0.15124638
2	0xbdc7eed7	-0.09762352
3	0x3df50e1d	0.119655825
4	0xbcc13bdc	-0.023588113
5	0x3e1cba38	0.15305412
6	0x3dd629f1	0.104572184
7	0x3cefe0c1	0.029281976
8	0x3e12440e	0.14283773
9	0x3e116608	0.14199078
10	0x3e07556e	0.13216183
11	0x3e082531	0.13295437
12	0xbda67287	-0.08127313
13	0x3e21badf	0.15793942
14	0x3d8a75b7	0.067607336
15	0xbca92c42	-0.020650987
16	0xbdbedcd2	-0.09319462
17	0xbdab9288	-0.08377558
18	0x3decb58d	0.115580656
19	0x3e133d06	0.14378747
20	0x3dbb8ffc	0.09158322
21	0x3dca093c	0.098650426
22	0xbdfcdec0	-0.12347174
23	0x3e1b1aaf	0.15146898
24	0x3e0e132c	0.13874501
25	0xbd863328	-0.06552726
26	0x3e0b22e6	0.13587531
27	0x3dbc912b	0.09207376
28	0x3dbcd91a	0.09221096
29	0x3cf171b8	0.02947317
30	0xbdb7816c	-0.08960232
31	0x3d9ada11	0.07561124

conv_col_to_row.feature_module_left.0.weight f4 [32, 32]
0	0x3cc987ee	0.02460095
1	0xbe1badbd	-0.15202995
2	0xbb6f0559	-0.0036471693
3	0x3d1f1c45	0.03884532
4	0xbd04a535	-0.032384116
5	0xbdef7908	-0.11693007
6	0x3c696cae	0.014247103
7	0xbd6fb0ec	-0.058518335
8	0x3e1e9056	0.15484747
9	0x3c0a1a1a	0.008429075
10	0xbcb8cddb	-0.022559097
11	0x3e06f87a	0.13180724
12	0x3a9ed114	0.0012116753
13	0xbd56e9ff	-0.05246925
14	0xbc9e3665	-0.019313047
15	0xbc1947dc	-0.0093555115
16	0xbc2ccee7	-0.010547376
17	0xbe0fc216	-0.14038882
18	0x3e067a7b	0.1313266
19	0x3cdf7b15	0.02728037
20	0xbdb873af	-0.0900644
21	0xbddb0119	-0.10693569
22	0x3d9dd601	0.07706834
23	0x3da128b3	0.07869091
24	0x3dc6d8c1	0.09709311
25	0xbdd8169f	-0.1055119
26	0xbe24d0dc	-0.16095299
27	0xbe07fb62	-0.13279489
28	0x3e01f18f	0.12689804
29	0xbd41c5c3	-0.04730774
30	0xbd5ac2eb	-0.053408545
31	0xbdcc32ce	-0.09970628
32	0x3e0629e7	0.13101922
33	0x3d92ffb1	0.071776755
34	0x3dd7a32e	0.10529171
35	0xbdc8542c	-0.097816795
36	0xbcfe0aaf	-0.031010954
37	0x3e23c9d1	0.15994956
38	0xbcabbcd9	-0.020964073
39	0xbe2fa2d7	-0.17151962
40	0xbdb2ba4c	-0.087269396
41	0x3b8dda5b	0.0043290085
42	0x3df31916	0.11870019
43	0x3cfccb92	0.030858789
44	0x3d20b30b	0.03923325
45	0xbdf91159	-0.12161512
46	0x3cf4062b	0.029788097
47	0x3c722dc2	0.014781417
48	0x3e016829	0.1263739
49	0xbe07c462	-0.13258508
50	0x3cf13612	0.029444728
51	0xbdd218fd	-0.102586724
52	0xbd28f2b7	-0.041247096
53	0x3dbb1eca	0.09136732
54	0xbe3239ed	-0.1740491
55	0x3ddd8544	0.10816434
56	0xbe23501d	-0.1594853
57	0x3d14ee31	0.03635997
58	0x3da3e6e6	0.08003025
59	0x3dd2bc4d	0.10289822
60	0xbdc07d4e	-0.093989
61	0xbde36b00	-0.11104393
62	0x3dc34014	0.09533706
63	0xbc7aa270	-0.015297517
64	0x3de9f302	0.11423303
65	0xbddd5498	-0.108071506
66	0x3ce0e1eb	0.027451476
67	0x3d8e564e	0.06950055
68	0x3cc398d5	0.023876587
69	0x3e0310d7	0.12799393
70	0xbe02fe1e	-0.1279225
71	0x3e2d58c2	0.1692839
72	0xbde9690c	-0.11396989
73	0xbddb1958	-0.10698193
74	0x3e051bdf	0.12998913
75	0x3cad78f2	0.021175835
76	0xbe2d1f4c	-0.1690647
77	0xbe28eac9	-0.16495813
78	0xbda3af88	-0.07992464
79	0x3e2a3e65	0.16625364
80	0x3d26de14	0.040739134
81	0xbe06ad3b	-0.1315202
82	0x3e2cd0f1	0.1687658
83	0x3d9205d6	0.07130019
84	0xbd8e66d2	-0.06953205
85	0xbcdc547c	-0.026895754
86	0xbd3f3463	-0.04668082
87	0x3e33ff84	0.1757794
88	0x3bb632dd	0.0055602626
89	0x3d5914f4	0.052998498
90	0xbe0ffabf	-0.14060496
91	0x3cb5cfcc	0.022193812
92	0xbd86a1d0	-0.06573832
93	0x3d8ead95	0.06966702
94	0x3cd20cd6	0.025640886
95	0xbc321595	-0.010869403
96	0xbd4bd8fd	-0.049767483
97	0xbd7a106a	-0.06105081
98	0x3c5c0a61	0.013430209
99	0x3c2b015d	0.010437337
100	0xbc600291	-0.013672487
101	0x3d51a94b	0.05118684
102	0xbc7d01ce	-0.015442325
103	0xbd8a5b83	-0.06755736
104	0x3e1204d1	0.1425965
105	0xbdc394c6	-0.09549861
106	0xbdfb1dc3	-0.12261536
107	0x3e1b5211	0.15168025
108	0x3ce00dfe	0.027350422
109	0xbd001be4	-0.0312766
110	0xbdc23eab	-0.09484609
111	0xbd05f4f4	-0.03270431
112	0xbe07f926	-0.13278636
113	0x3d1ee309	0.038790736
114	0x3c9dceaa	0.019263584
115	0x3d9f22eb	0.07770332
116	0xbce9245a	-0.028459717
117	0xbe2a515f	-0.16632603
118	0x3e0da99b	0.1383423
119	0xbe2532ca	-0.16132656
120	0xbde99020	-0.11404443
121	0xbba88e16	-0.005143891
122	0xbdcf3bc1	-0.10118819
123	0xbdc1481d	-0.09437583
124	0x3dfcdac6	0.12346415
125	0xbe2cce97	-0.16875683
126	0xbcb44e95	-0.022010127
127	0x3db8f40c	0.09030923
128	0xbe19301d	-0.1495976
129	0x3da0339d	0.078223445
130	0x3e25944b	0.1616985
131	0x3b764b67	0.0037581564
132	0x3dc1b29c	0.09457895
133	0xbde537a4	-0.11192253
134	0x3e097d0f	0.13426612
135	0xbe1f1e1f	-0.15538834
136	0x3d858c69	0.06520922
137	0x3dcfae61	0.10140682
138	0xbda956c5	-0.08268503
139	0xbdd16498	-0.10224265
140	0x3d2564ac	0.04037921
141	0x3e28a2ae	0.16468307
142	0xbd9edab2	-0.077565566
143	0x3e0582a6	0.1303812
144	0xbda5c843	-0.080948375
145	0xbbf57104	-0.007490279
146	0x3e05b960	0.13058996
147	0xbe12adfa	-0.1432418
148	0xbe2fcadc	-0.17167228
149	0xbcf67129	-0.030083256
150	0x3d119773	0.035544824
151	0x3cbb8d23	0.022894448
152	0xbe3380e7	-0.17529641
153	0xbda3db5e	-0.08000825
154	0x3d2885d9	0.041143272
155	0xbce55967	-0.027996732
156	0xbe1c52e7	-0.15266
157	0x3d6b8d91	0.057508055
158	0x3d3d30f6	0.04618927
159	0xbdc5ca70	-0.096577525
160	0x3becbd68	0.0072247274
161	0xbe0c7b60	-0.13718939
162	0x3e233b72	0.15940645
163	0x3da8839a	0.08228226
164	0x3c61343d	0.013745365
165	0x3da79877	0.08183377
166	0x3d6382a3	0.055544507
167	0x3df32bde	0.118736014
168	0xbe0fac61	-0.14030601
169	0xbd087a2f	-0.03331965
170	0x3d8cc983	0.06874373
171	0xbe172218	-0.147591
172	0xbd106dae	-0.03526085
173	0xbd7a36f3	-0.06108756
174	0x3cb7f3b6	0.022455078
175	0xbe008c8b	-0.12553613
176	0x3e2b4399	0.16725005
177	0xbe02cfa9	-0.12774529
178	0xbd896683	-0.06709006
179	0xbdcb5728	-0.09928733
180	0x3dfe1834	0.1240696
181	0x3df5f3a3	0.12009361
182	0x3d6a41ee	0.05719178
183	0x3df95bcd	0.12175713
184	0x3e23f3c4	0.16010958
185	0xbbe5921d	-0.0070059435
186	0xbdc9df8e	-0.09857093
187	0x3e112efe	0.14178082
188	0x3d836910	0.064165235
189	0xbe085b20	-0.13316011
190	0x3b75186e	0.0037398594
191	0x3e311cbb	0.17296116
192	0xbd536ce5	-0.05161752
193	0xbe1ed769	-0.1551186
194	0x3e261a10	0.1622088
195	0x3cc97071	0.024589749
196	0x3d8dda31	0.06926382
197	0xbe276c7a	-0.16349974
198	0x3e146c32	0.14494398
199	0xbdee176d	-0.11625562
200	0x3ccaae55	0.024741331
201	0x3dab5069	0.083649464
202	0x3c4900bb	0.012268241
203	0xbe3105e9	-0.17287411
204	0x3ce4ce6b	0.027930459
205	0xbda57799	-0.08079452
206	0x3d2e63f0	0.042575777
207	0x3d9dce6a	0.07705386
208	0x3cbf3db0	0.023344845
209	0xbcd1b1cb	-0.025597474
210	0xbd5eb345	-0.054370183
211	0x3df20866	0.11818008
212	0xbd8cda60	-0.06877589
213	0x3d621bf9	0.055202458
214	0xbdd895ef	-0.105754726
215	0xbd92bb09	-0.071645804
216	0x3ccedcd8	0.02525179
217	0xbe0ee76d	-0.1395547
218	0x3d48e707	0.04904845
219	0xbd4f76e0	-0.050650477
220	0x3e292d31	0.16521145
221	0x3bddf109	0.0067731184
222	0xbe179551	-0.14803053
223	0x3dfd5909	0.12370498
224	0xbe008cd8	-0.12553728
225	0x3c200fa3	0.009769353
226	0xbc04f044	-0.008113924
227	0xbe003b32	-0.12522581
228	0x3e13408b	0.1438009
229	0xbdce5a75	-0.10075847
230	0x3cd4c977	0.025974972
231	0x3e130307	0.14356624
232	0x3e0856c4	0.13314348
233	0xbe1fd90e	-0.15610144
234	0x3e14d42e	0.14534065
235	0xbd9bcd2f	-0.07607495
236	0xbb67bb2f	-0.0035359373
237	0xbdc773ec	-0.09738907
238	0x3c680571	0.014161454
239	0x3dcbfef4	0.09960738
240	0xbe065c50	-0.13121152
241	0xbb2caae1	-0.002634697
242	0x3e32b1ac	0.17450589
243	0x3de3c392	0.111212865
244	0xbd3bbf0a	-0.045836486
245	0xbe15c72f	-0.14626764
246	0x3895d7f3	7.145097e-05
247	0xbd843d4f	-0.06457006
248	0x3dbf2505	0.09333233
249	0x3dedb146	0.11606078
250	0xbded281c	-0.11579916
251	0xbab4cdd0	-0.0013794247
252	0x3dfffea4	0.12499741
253	0x3d9e7f29	0.077390976
254	0xbe1457be	-0.14486596
255	0xbe16e5c4	-0.14736086

conv_col_to_row.feature_module_left.0.bias f4 [32]
0	0x3ddd04ce	0.10791932
1	0x3e044613	0.12917356
2	0xbddef5a6	-0.108866975
3	0x3d88c974	0.06679049
4	0xbca08012	-0.019592319
5	0x3de707c6	0.112807795
6	0xbdb41939	-0.08793873
7	0x3e329b77	0.17442118
8	0xbd7238e5	-0.05913629
9	0xbe156fbb	-0.14593403
10	0xbddd2248	-0.10797554
11	0xbe1b5833	-0.15170364
12	0x3d15adc9	0.036542688
13	0x3d90a682	0.07063009
14	0xbe279c99	-0.16368331
15	0xbe1add3a	-0.15123454
16	0x3db3681a	0.0876009
17	0x3e0574be	0.13032815
18	0x3cd01552	0.025400791
19	0x3d16e4a3	0.03683914
20	0x3d387ba9	0.045039807
21	0x3db10df6	0.08645241
22	0x3e25b7d7	0.1618341
23	0xbdb3d93b	-0.08781668
24	0x3db66ed1	0.08907855
25	0xbd56941e	-0.05238735
26	0x3dfe834f	0.12427389
27	0xbe2e5711	-0.170254
28	0xbdd03464	-0.10166243
29	0xbd8a2936	-0.067461416
30	0xbd684d6c	-0.05671446
31	0xbe2ba2bf	-0.16761301

conv_col_to_row.feature_module_edge.0.weight f4 [32, 1]
0	0x3f0be31f	0.54643434
1	0x3f1c37aa	0.61022437
2	0x3dc1ad2a	0.094568565
3	0x3eabaf12	0.33532006
4	0x3db02944	0.08601621
5	0x3ee90811	0.45513967
6	0xbf3b908f	-0.73267454
7	0xbea8bf3a	-0.32958394
8	0xbf021258	-0.5080924
9	0x3e53f427	0.20698605
10	0xbf695f14	-0.911607
11	0xbf56d213	-0.839143
12	0xbf53def1	-0.82762057
13	0x3e087ff8	0.13330066
14	0xbf081fc9	-0.531735
15	0x3db72599	0.08942718
16	0xbd814261	-0.06311489
17	0xbe148b9a	-0.14506379
18	0x3f3159b4	0.692775
19	0x3f27ac31	0.6549712
20	0xbf3b647a	-0.7320019
21	0x3c1e3553	0.009656268
22	0xbf50ebfe	-0.81610096
23	0xbf300f06	-0.68772924
24	0x3f2e756c	0.6814792
25	0x3ed141bb	0.4087046
26	0xbf29eabb	-0.66373795
27	0x3f272368	0.652884
28	0xbe1d4019	-0.15356483
29	0x3e176d37	0.14787756
30	0xbe8731a3	-0.26405057
31	0x3f6c0139	0.92189366

conv_col_to_row.feature_module_right.0.weight f4 [32, 32]
0	0xbd77c515	-0.060490686
1	0x3da4b46d	0.08042226
2	0xbdcb23d2	-0.099189416
3	0x3df4a305	0.11945156
4	0xbdacc4c1	-0.08435965
5	0xbdedbf00	-0.11608696
6	0xbc64f41a	-0.013974214
7	0x3cf857b5	0.03031526
8	0x3ba334c0	0.0049806535
9	0xbdd8f7e9	-0.1059416
10	0xbdbc0f8b	-0.09182652
11	0x3d7dc740	0.061957598
12	0xbdd33b89	-0.1031409
13	0x3b0e8a02	0.002174974
14	0x3d9b9611	0.07596982
15	0x3c808924	0.015690394
16	0x3e33bf53	0.17553453
17	0x3e285c5b	0.16441481
18	0x3cba99ed	0.022778476
19	0x3e09de11	0.13463618
20	0xbe2a20e2	-0.16614106
21	0x3d1f4564	0.038884535
22	0x3e31979d	0.17342992
23	0xbd6f68d2	-0.058449574
24	0x3d8ed178	0.06973547
25	0x3d21fb0a	0.03954605
26	0x3e0dd2ba	0.13849917
27	0xbdcd8762	-0.10035588
28	0xbdec5819	-0.11540241
29	0x3be1f075	0.00689512
30	0xbde930c6	-0.11386256
31	0x3e19218b	0.14954202
32	0x3e202160	0.15637732
33	0x3dbe3b70	0.092886806
34	0xbc907c0a	-0.017637271
35	0x3e351056	0.17682013
36	0xbe1da357	-0.1539434
37	0x3e33f3d0	0.17573476
38	0xbd9dc2f7	-0.07703202
39	0x3e17cce1	0.14824249
40	0xbddcfb23	-0.10790088
41	0xbdc25d61	-0.09490467
42	0xbdd9aa88	-0.106282294
43	0x3db8440e	0.089973554
44	0x3d0e1589	0.034688506
45	0x3dd1b3a3	0.10239341
46	0x3bb83118	0.005621087
47	0xbd6cf266	-0.057848357
48	0x3e0d624a	0.13807026
49	0xbe0f8dfc	-0.14019006
50	0x3d9b6d4a	0.075892046
51	0xbe1a754f	-0.15083812
52	0x3e297504	0.16548544
53	0x3c49207e	0.012275813
54	0xbd722482	-0.059116848
55	0x3e0cf82e	0.13766548
56	0xbe186130	-0.14880824
57	0xbdc9b2f5	-0.098485865
58	0xbe1116a2	-0.1416879
59	0xbd67c5af	-0.05658501
60	0xbd99c1af	-0.07507645
61	0x3dc6e089	0.097107954
62	0xbe17dffc	-0.14831537
63	0x3b9f5dbf	0.0048634703
64	0x3e0e3166	0.13886032
65	0xbd1c125e	-0.038103454
66	0xbd758221	-0.059938554
67	0xbda1fc20	-0.07909417
68	0x3db770f9	0.08957095
69	0x3de8e415	0.11371628
70	0xbe07c26a	-0.13257757
71	0xbcc6e71a	-0.02428012
72	0xbe19ff19	-0.15038718
73	0xbd58b36e	-0.052905492
74	0x3caa99bf	0.020825265
75	0x3cca8558	0.024721786
76	0x3e028f36	0.12749943
77	0x3df61d16	0.120172665
78	0x3d53bba1	0.05169261
79	0xbe252cac	-0.16130322
80	0xbd3c0663	-0.04590453
81	0x3e34530c	0.17609805
82	0xbd66046f	-0.056156572
83	0x3d343953	0.04399998
84	0x3ce088eb	0.027409038
85	0x3dc8c3bd	0.09802959
86	0xbdb86bc7	-0.09004932
87	0xbdcb89bf	-0.09938382
88	0xbd383b0c	-0.044978186
89	0x3dee2204	0.11627582
90	0xbe2523d7	-0.16126953
91	0xbcd66841	-0.026172759
92	0x3dd4597d	0.10368631
93	0x3e0d9a72	0.13828447
94	0x3d13bdc2	0.03606964
95	0xbdb1ea3e	-0.08687256
96	0x3d26ebf1	0.040752355
97	0xbe07ab63	-0.13248973
98	0xbe2fa41e	-0.1715245
99	0x3e0a3d81	0.13500024
100	0xbe3382cc	-0.17530364
101	0xbe05d3d6	-0.1306909
102	0x3e29061f	0.16506241
103	0x3d82f82c	0.06394991
104	0xbdd9b193	-0.10629573
105	0xbe0185be	-0.12648675
106	0xbe19dca1	-0.1502557
107	0xbd02c31e	-0.03192436
108	0xbdda2993	-0.10652461
109	0x3da9df6a	0.08294566
110	0xbdf8b84b	-0.12144526
111	0xbd8b34b8	-0.06797165
112	0xbd54ffcc	-0.05200176
113	0x3d622dba	0.05521939
114	0xbc949ef2	-0.018142197
115	0xbcfe788a	-0.031063337
116	0xbda18ba4	-0.078879625
117	0xbe2d2072	-0.16906908
118	0x3e2e936d	0.17048426
119	0x3e131f6d	0.14367457
120	0x3d7d8e6b	0.0619034
121	0xbc42b203	-0.011883262
122	0x3e02fc98	0.1279167
123	0xbd3dc0a7	-0.046326306
124	0x3bcc3cda	0.00623284
125	0x3de262cc	0.11054
126	0xbdde0ad6	-0.108419105
127	0x3dea2720	0.11433244
128	0xbdae11f8	-0.08499521
129	0xbe0910b2	-0.13385275
130	0x3e305539	0.1722001
131	0xbd937140	-0.07199335
132	0xbd96180b	-0.073288046
133	0xbd6db079	-0.058029626
134	0x3cfeccec	0.031103574
135	0xbc805f31	-0.01567039
136	0xbe185336	-0.14875492
137	0xbe25bedd	-0.1618609
138	0x3dd7e0bf	0.10540914
139	0x3d986021	0.0744021
140	0x3e0a47a4	0.13503891
141	0xbe26d764	-0.16293103
142	0x3c9a535c	0.018838577
143	0x3e113ddd	0.14183755
144	0xbda32f71	-0.07968033
145	0x3c04f45a	0.008114899
146	0x3b03ab96	0.0020091287
147	0x3e209177	0.1568049
148	0xbe0d174c	-0.13778418
149	0xbd0ae68b	-0.03391127
150	0x3d840029	0.06445343
151	0x3b9ef817	0.004851352
152	0x3d1c504f	0.038162526
153	0xbddf8f55	-0.1091601
154	0xbe1781f5	-0.14795668
155	0x3e20fea1	0.15722133
156	0x3c55fc73	0.013060677
157	0xbd92e33c	-0.07172248
158	0xbb6eda73	-0.0036446124
159	0x3d4ca5ec	0.049962923
160	0x3da41007	0.080108695
161	0x3e1d8341	0.153821
162	0xbe2b062b	-0.16701572
163	0xbe0fbcc2	-0.14036849
164	0x3d7b8160	0.06140268
165	0xbdbda0ee	-0.092592105
166	0x3d5af4fd	0.053456295
167	0x3e300a35	0.17191394
168	0xbd8fe115	-0.07025353
169	0x3e1e5304	0.15461355
170	0x3d893aad	0.06700645
171	0x3dcf6b3c	0.10127875
172	0x3e2924e5	0.1651798
173	0x3e323eb7	0.17406736
174	0x3de2a327	0.11066275
175	0x3dbb8a89	0.09157283
176	0x3d82b3ee	0.06381975
177	0x3e136077	0.14392267
178	0x3e2ce5b3	0.16884498
179	0xbe165b77	-0.14683329
180	0x3e016983	0.12637906
181	0x3de0c0b0	0.10974252
182	0x3dbc8e69	0.0920685
183	0x3daca6b2	0.08430232
184	0xbdb578b6	-0.088609144
185	0x3db9f711	0.09080327
186	0x3de4d641	0.11173678
187	0x3d386f2b	0.045027893
188	0x3d1b535c	0.037921295
189	0xbdfbdc0a	-0.122978285
190	0xbe2107cc	-0.1572563
191	0xbd6fdc3d	-0.058559645
192	0x3e1cc269	0.15308537
193	0x3bdd94b9	0.006762114
194	0x3d67be8f	0.056578215
195	0x3d7bb67a	0.06145332
196	0xbb12aa8d	-0.0022379488
197	0xbb31427b	-0.0027047682
198	0xbc7eb599	-0.015546226
199	0xbde9582b	-0.1139377
200	0x3dab0ed7	0.0835244
201	0xbdc5ba84	-0.09654716
202	0x3d53e008	0.051727325
203	0xbd9e50d9	-0.07730264
204	0xbd5469e7	-0.05185881
205	0x38490cd4	4.793408e-05
206	0xbda383ec	-0.079841465
207	0xbdeb5629	-0.11491043
208	0xbe09d937	-0.13461767
209	0x3d6e7612	0.05821807
210	0xbe00ecb0	-0.12590289
211	0xbe2e2890	-0.17007661
212	0xbdd88d94	-0.10573879
213	0x3be7a263	0.0070689186
214	0x3c08787c	0.008329507
215	0x3bf9567e	0.0076091876
216	0x3d4a5a61	0.0494026
217	0xbdaad55c	-0.08341476
218	0x3dc83537	0.09775775
219	0x3c1895ae	0.00931303
220	0x3e0bc442	0.13649085
221	0x3ce77bb3	0.028257227
222	0x3d7783b6	0.060428344
223	0xbe00962b	-0.12557285
224	0x3e0cbe8b	0.13744561
225	0xbca64edf	-0.02030128
226	0xbd976e2d	-0.07394061
227	0x3e16e618	0.14736211
228	0xbd5acaea	-0.05341617
229	0x3de1d800	0.11027527
230	0x3c17b0fc	0.009258505
231	0x3b5883eb	0.0033037614
232	0x3e18fe13	0.14940672
233	0xbdcb2b3e	-0.09920357
234	0x3cdfecf4	0.027334668
235	0xbda1a808	-0.078933775
236	0x3ddfddd3	0.109309815
237	0x3d084709	0.03327087
238	0x3dc25337	0.09488528
239	0x3ddac0c4	0.106812984
240	0xbd68288e	-0.0566793
241	0xbdd0a923	-0.1018851
242	0xbd3b5dc4	-0.04574372
243	0x3ca972e4	0.020684667
244	0xbdcbce95	-0.09951512
245	0x3dd9cc05	0.10634617
246	0xbdc21915	-0.0947744
247	0x3dae53f1	0.08512104
248	0xbe193af9	-0.14963903
249	0xbdb553bd	-0.088538624
250	0x3cd8c291	0.026459964
251	0xbe332baa	-0.17497125
252	0x3e172f2a	0.14764085
253	0x3e1c1353	0.15241747
254	0x3da1684e	0.07881223
255	0xbcd7c04d	-0.026336813

conv_col_to_row.feature_module_final.0.weight f4 [32]
0	0x3f7fc2f6	0.9990686
1	0x3f7ff991	0.99990183
2	0x3f800000	1.0
3	0x3f800773	1.0002273
4	0x3f800000	1.0
5	0x3f800734	1.0002198
6	0x3f8022f3	1.0010666
7	0x3f7fe4c8	0.9995847
8	0x3f7fe0f7	0.99952644
9	0x3f803001	1.001465
10	0x3f7fedbe	0.9997214
11	0x3f7fe434	0.99957585
12	0x3f800fa4	1.0004773
13	0x3f7fe264	0.9995482
14	0x3f800551	1.0001622
15	0x3f7fd425	0.9993308
16	0x3f800a1c	1.0003085
17	0x3f80027f	1.0000762
18	0x3f7ff7fe	0.9998778
19	0x3f8013e8	1.0006075
20	0x3f80164b	1.0006803
21	0x3f800b4d	1.0003449
22	0x3f800060	1.0000114
23	0x3f7febbe	0.9996909
24	0x3f801d2a	1.00089
25	0x3f801194	1.0005364
26	0x3f8023b3	1.0010895
27	0x3f800000	1.0
28	0x3f800000	1.0
29	0x3f7fbd3d	0.9989813
30	0x3f800000	1.0
31	0x3f800000	1.0

conv_col_to_row.feature_module_final.0.bias f4 [32]
0	0xba0f7086	-0.00054717844
1	0xb840cfd5	-4.5969926e-05
2	0x00000000	0.0
3	0x3978d13a	0.00023729066
4	0x00000000	0.0
5	0x3987c9d4	0.0002589958
6	0x38920c8a	6.964158e-05
7	0xb9adcff1	-0.0003315206
8	0xb9b51a72	-0.00034542714
9	0x3a935340	0.001124002
10	0xb96e2bde	-0.0002271379
11	0xb9d7d429	-0.00041166067
12	0x39669c16	0.00021992656
13	0xba3ae54d	-0.00071295054
14	0x3a42b2d7	0.0007427162
15	0xb7adadab	-2.0704078e-05
16	0xb881b4f8	-6.1849074e-05
17	0x38ecb33f	0.00011286744
18	0xb9069b11	-0.00012837003
19	0x3a7aa0d7	0.000956071
20	0x3a0715f3	0.0005153112
21	0x39a2859a	0.0003099859
22	0x3999c922	0.0002933229
23	0xb9bf8a12	-0.0003653323
24	0x3aa50094	0.0012588673
25	0x39e2969e	0.00043218298
26	0x3a7b7e2a	0.000959369
27	0x00000000	0.0
28	0x00000000	0.0
29	0xba93dd6d	-0.00112812
30	0x00000000	0.0
31	0x00000000	0.0
