GNN/ResultsGCNN/actor_53.pt (torch, 83520 bytes, 43 tensors)

row_embedding.0.weight f4 [7]
00000000: b76e 803f 502b 803f 83d9 7f3f dc21 803f
00000010: 0bc8 7f3f e24c 803f df02 803f
1.0033787 1.0013218 0.9994127 1.0010333 0.99914616 1.0023463 1.0000876

row_embedding.0.bias f4 [7]
00000000: bd84 14bb 80ec 8dba 5755 43ba a765 b1ba
00000010: 31d1 6e3a cc81 0dbb 5fb6 0d3a
-0.0022662126 -0.0010827929 -0.00074513763 -0.0013534323 0.00091101514 -0.0021592258 0.00054058986

row_embedding.1.weight f4 [32, 7]
00000000: 6379 563d 0814 533d 98f6 0c3e 45a9 b6be
00000010: 10f1 3abe d008 773e a79e adbd f957 8abe
00000020: 44c7 82bd 7db8 23bd 3e70 dbbd 24cf 463e
00000030: 5e0c 553a da02 aebd 0acb 00be 58b6 95be
00000040: a1d3 90be 62af 853e 3840 a23e 6779 a23c
00000050: bb9f 4ebe 5d61 56be 753b 073e f89c a23e
00000060: ac7e b6be abea e33c a239 c63b d327 473e
00000070: 948b 0ebe a6f9 06bd 982d 9dbe 10f3 553e
00000080: 7161 4fbe fd5c 4ebe f248 48be b8ae dabd
00000090: c16e 5f3d c1ba 3bbc 90d8 b5be efbc c63d
000000a0: 5288 51be 23bd a03e d3d6 89be ff11 acbe
000000b0: d096 8b3e 596e 66be 7d7d a0be f0b8 6abd
000000c0: d07b 943c 0b0c 79be 9dcf 893e 80c4 693e
000000d0: 03f8 853e a906 5a3e 876a 073d 2f1c 113d
000000e0: 8e9c 0cbe 13dc 98bd ae44 d33c d2d9 443c
000000f0: d384 0ebe 10b6 55be 01c3 8c3e d395 483d
00000100: cc28 afbe 515a 4abe 1637 ba3e 4ee8 41be
00000110: 696c 833e e8f0 b2be 68d8 89be d0c1 ac3e
00000120: 8975 c3bd c596 bebb 8af9 1fbd 8283 80be
00000130: 3777 813e 6541 3abe 81ec 493c 2d91 b6be
00000140: d172 9abd 224c 7fbc 3823 843e a281 0b3e
00000150: 9dd9 933e 638e 93bd 314f 9ebe 0b67 d9bd
00000160: 5a83 8dbd 286a a23e dc96 69be ad4b 803e
00000170: e4a6 5b3e 243a 5fbe 63dc 7cbe f836 1fbe
00000180: aefb 18be 4de6 8abe 2930 babe 5e44 b53d
00000190: a752 cc3d 6437 8fbe 9303 8c3e 6f6d 12be
000001a0: ba27 edbd bf4e 8c3d ae08 943e 0b04 a6be
000001b0: c33d 99bd e47b eb3d 5d05 a0be 8e78 973e
000001c0: c118 163e 9006 a73e 998c ecbc 0f46 333e
000001d0: 563c 81be 9453 b43e c7f6 bf3d 0144 493e
000001e0: 54d1 5dbe 75b8 87be 8fa8 a5be 5fda b0be
000001f0: 0faf 673b fc49 bdbc 50ff b3be 90e8 af3e
00000200: 1716 31be 9b07 9bbe 1234 28be 8c7e a13e
00000210: 85bc af3d 0a23 4abe e498 2cbe e446 78be
00000220: ea61 fd3d 0985 7d3e d582 46be b5ab b83e
00000230: c7d5 a73e d40f 013e 1a37 20bc 470c 8d3e
00000240: 1927 d73d 74ab aabe 8634 83be c41c 4a3e
00000250: d979 fd3c 17a1 b43e 1d81 8abe 9be7 91be
00000260: 6968 d8bd 734e 6abe dec8 913e b036 063d
00000270: d259 07be 1800 50bd b790 033d 0a52 8dbe
00000280: 1836 283d 4dc8 7bbe 555a 723d 3145 0b3e
00000290: bc02 6dbe e453 55be fa74 31bc 54bd 983e
000002a0: 6c10 413e d9fa b5bd 1111 a93e e4fb c73d
000002b0: 9311 bb3e 415f 883e e5e3 85be 3375 ba3c
000002c0: 6a2b 6c3e 4cbe 9c3d c8d0 f43d 19ce 9f3e
000002d0: 865a 8ebe 290b 013e f7c0 f3bd ea42 20be
000002e0: 3996 ad3e a64c 8a3e 392e 7d3e 6855 163d
000002f0: 344c 96be 71bb ae3e a391 d63d add3 1fbd
00000300: bf9c 93be 67a1 dcbd 9b60 a8be cbba 973e
00000310: 76a3 a43e fb8b 953d 3c56 a23e 77d0 75be
00000320: 2a71 5abe b22f 383e a0bf bd3e 7d33 73be
00000330: ce0c 9dbe 4c63 033e 694d ec3d 3241 883e
00000340: f0c2 683d 399e c1be 218d 1a3e 2b72 3bbe
00000350: efcd 473e 2c76 8fbe 66be 95be 5191 0a3d
00000360: 4b45 81bd d470 b3be c3c6 3ebe 33d5 9ebe
00000370: abe9 db3d c762 cd3d 6ba9 f3bd 41d7 a1be
0.052361857 0.051532775 0.13765943 -0.35676017 -0.1825602 0.24124455 -0.08477526 -0.27020243
-0.06385663 -0.039970864 -0.10714768 0.19414955 0.0008127148 -0.08496638 -0.12577453 -0.2924068
-0.2828646 0.2611037 0.3168962 0.01983328 -0.2017812 -0.20935579 0.13206275 0.31760383
-0.35643518 0.02782186 0.006049351 0.19448785 -0.13920432 -0.032952927 -0.30698848 0.20893502
-0.20252015 -0.2015266 -0.19559076 -0.10677856 0.054548983 -0.0114581 -0.35516787 0.09704005
-0.20462158 0.313943 -0.2692171 -0.3360748 0.27263498 -0.22503032 -0.3134574 -0.057305276
0.018125445 -0.24321 0.2691621 0.22828865 0.2616578 0.21291603 0.033060577 0.03542727
-0.13731596 -0.07463851 0.025789585 0.012014823 -0.13917856 -0.20870233 0.27492526 0.04897101
-0.34210813 -0.19761015 0.36370152 -0.18936273 0.25668648 -0.34949422 -0.26922917 0.33741617
-0.095439024 -0.005816313 -0.03905634 -0.25100332 0.25286266 -0.18189009 0.012324453 -0.35657635
-0.07541431 -0.015582116 0.2580812 0.1362367 0.28876963 -0.072048925 -0.30919793 -0.10615357
-0.06909819 0.31721616 -0.22811455 0.25057736 0.21450382 -0.21799523 -0.24693446 -0.15548313
-0.14939758 -0.2712883 -0.36364868 0.08850931 0.09976702 -0.27971947 0.27346477 -0.14299558
-0.11579843 0.06850957 0.28912872 -0.3242496 -0.07482483 0.1149824 -0.31254092 0.29584163
0.1465788 0.32622194 -0.028875636 0.17507194 -0.25241345 0.35220015 0.09373241 0.19654848
-0.21661884 -0.26507917 -0.32355163 -0.34541604 0.0035352146 -0.023106568 -0.35155725 0.3435712
-0.17293583 -0.3027924 -0.16426113 0.3154186 0.08580879 -0.19739929 -0.16855198 -0.24245793
0.12372191 0.2475778 -0.19385846 0.36068502 0.32780287 0.12603694 -0.009778762 0.2754843
0.10505504 -0.33333933 -0.2562601 0.19737536 0.03094189 0.35279152 -0.2705163 -0.28497013
-0.1056679 -0.22881489 0.28473562 0.032766998 -0.13217857 -0.05078134 0.032120433 -0.27601653
0.041067213 -0.24588127 0.05916818 0.13600613 -0.23145574 -0.20832783 -0.010831112 0.29831946
0.1885392 -0.08885736 0.33020833 0.09764841 0.36536846 0.26635173 -0.26150432 0.022760963
0.23063436 0.07653484 0.11953884 0.31211928 -0.2780344 0.12601914 -0.119020395 -0.15650526
0.33903673 0.27011603 0.24724664 0.036702543 -0.29355013 0.3412738 0.10476997 -0.03902023
-0.28830525 -0.107729726 -0.32886204 0.296347 0.3215596 0.0730209 0.31706417 -0.24005304
-0.21332231 0.17986944 0.3706026 -0.2375011 -0.30673832 0.12830848 0.11538202 0.2661224
0.056826532 -0.37816027 0.15092899 -0.1830527 0.19512151 -0.28019845 -0.29246825 0.03382999
-0.06312045 -0.3504702 -0.18630509 -0.31022033 0.10737928 0.10028606 -0.11897548 -0.31609538

row_embedding.1.bias f4 [32]
00000000: 920f 52bd 707a 833e ac65 e13d 31e7 bcbe
00000010: d956 a53d b442 f7bd 4213 9b3c a5c0 dbbd
00000020: 7346 1c3e 0ee6 56be a931 b3be 614e d2bc
00000030: 34b6 a23e 7ebe 1a3e 935e b13e c6e7 d13d
00000040: cf63 23be d4e3 873c d744 f6bd 0c67 9e3e
00000050: 56c3 8f3e 175c ddbc ed8a 593e c512 cdbd
00000060: 2499 a43e af31 543e 1980 17be 3f5a 003e
00000070: 2405 97be 18cb 48be c6a6 b03c e86e 5dbe
-0.05128438 0.2567935 0.110057205 -0.36895135 0.080732055 -0.120732695 0.018930081 -0.107301034
0.15261249 -0.20986196 -0.34998825 -0.02567214 0.31779635 0.1511173 0.34642467 0.102492854
-0.15956043 0.01658813 -0.12024849 0.30937994 0.28078717 -0.02702145 0.21244402 -0.10013346
0.32148087 0.20722078 -0.14794959 0.12534426 -0.2949611 -0.19608724 0.021563899 -0.21624339

row_embedding.3.weight f4 [32, 32]
00000000: 4ba6 fcbd 1742 25bd 841b 923d e2a3 3f3c
00000010: 45c3 ce3d 53b5 663b 273b 273e 9318 153e
00000020: c924 cf3d 6ea1 15be 4dc7 103d c6ee f83c
00000030: 57c2 cd3d 325c 8c39 13d6 0c3e 892d 1f3e
00000040: 3ae8 1d3e e88c 173d 938c f4bd 30b5 d73d
00000050: 4373 203d b224 5d3d 337c 373d cf1e ea3d
00000060: 4914 27be a580 da3d 395a 023e d469 1a3e
00000070: 1efc 903c eeb5 1dbe b39c 163e d0f6 ebbc
00000080: 6c29 0d3d 77ab e53c a568 36be 3103 003c
00000090: 8346 8fbc e2ba 43bd 16f9 9e3d d786 303d
000000a0: 0b8c c0bd 0cbc 21bd a8dd d3bd 964e 24be
000000b0: 701d b13d 5d34 d03d 3fb2 203e d0e3 29be
000000c0: 1829 44bd 62d1 053e c77e 9d3d 8bca 0abe
000000d0: 68bf 023e db5c fa3d 54f7 063e e694 f93d
000000e0: 8408 0f3e de3c 90bd 5d73 0e3e 4365 e43d
000000f0: 9727 09be ad65 6a3d d216 0cbe fc8d bebd
00000100: e18a 703c dfc1 253e 01c2 d8bd a967 17be
00000110: 8b5f 2e3e e516 acbd 5af1 27be b042 92bd
00000120: 991a f33d 74df 033d 31fe 233e e354 d43d
00000130: 8b05 2d3c 8bd4 263e 14d7 a5bd 9470 b03d
00000140: a489 16bd 88d2 97bc 9f29 303d c9f7 003e
00000150: 8419 1c3e ab4c 4e3d 02c3 5cbd 1336 2e3e
00000160: 6b68 053d 8c21 693d b277 623d efc7 27be
00000170: 6d19 2a3e cce1 273e 081a 043e 9910 1e3e
00000180: 3421 a4bd 840e 1bbd f0d0 1dbe 2c61 683d
00000190: e892 423d 4557 743d 13f9 2d3e a548 c0bc
000001a0: 6a7e b53d c928 ee3d e05c ddbd c635 00bd
000001b0: deaf 023e 35f6 d2bd 51e8 7b3d 1f24 b63d
000001c0: 754a 9abc f45c 2d3e 07cd 8cbd 490e 943d
000001d0: a843 22bd 60a3 22be 7f32 963d 72ac 89bd
000001e0: 43eb 36bb 3bf5 1d3e dbff a1bd 05cb 85bd
000001f0: bf23 33be 14ab 01be 93a3 edbd 7a5d 383d
00000200: c166 b93d d7dc e9bc a643 eabd 72ff 1a3c
00000210: b853 ac3d 8f26 84bd ea1c e3bd 676e bf3d
00000220: ec71 2fbe 8af9 943d f77e 0d3e 5960 31be
00000230: 9fbd 49bd 150b 2bbd 4010 363c eabb 38be
00000240: e8f9 e1bd 69cc d2bd 600c 8c3d b55d 7e3d
00000250: 9e4c 0dbe 4352 3a3d e2a0 943b 46de 833d
00000260: ee7e 89bd 8e46 f23d 4eee a6bd ec68 0bbe
00000270: 9ca4 d63d 0d4d 32be 61c0 f33d 544c 4dbd
00000280: 0ab8 b2bd 6740 23be 90c6 07bd 7dda 7a3d
00000290: 1362 66bd 5d18 273e 9bcf bd3d 500f 783d
000002a0: 38bb 28be 71ed 7b3b 7dbe 01be 0925 3d3d
000002b0: ba1f 21bd 121a e03d 47fc 21bb d58a 27be
000002c0: b1bd c6bd 67d4 33be a80f 37bd 9b2a ae3d
000002d0: 15f3 13be 6faa f03d 8b8c 32be 6645 58bc
000002e0: 01ef 1b3a bd4f b5bd 1270 1cbe 493b c6bd
000002f0: ba17 13be f937 a4bc dce4 db3c 85d0 27be
00000300: e1f8 ab3d 9fb6 033e 1a02 f93d 0b0c 29bd
00000310: f89e 0f3e 52a5 6f3d f033 00be ee3f a8bd
00000320: cfe6 1cbe 0afc a53d a609 043e 73f3 893d
00000330: 72b1 fabc a2bc 12be dbf2 2abe 0a72 a93c
00000340: 9876 c8bc e23f 0b3e 65a8 96bd 71f9 0c3e
00000350: 0114 bf3d 2822 e23d 489a 263d c959 0a3e
00000360: 04ea b9bd 6f76 3dbd 0241 b4bd aff4 633c
00000370: c29d 293e ec26 46bd 6e86 15bd 55a3 da3d
00000380: 7ceb 76bd bcfa 2cbd 7bed f1bd a5d6 02be
00000390: ea7e 173d 7f50 0e3e 8560 0f3e 3024 ccbd
000003a0: b25d b63d 6c26 dbbd 0375 31be f8f4 d4ba
000003b0: 51b2 1c3e 8c08 9bbc b0bc 15be 9035 71bd
000003c0: 3bfa 8c3d 36d9 093e 2d81 32be ebaf 393d
000003d0: 4cc2 7c3d eef6 1a3d c470 30be de6a 7abd
000003e0: c0c9 e8bc fcdd c5bd 0b53 03be 952b 063d
000003f0: 9253 80bc eda6 dabb d0db fcbd b9b2 113e
-0.12336405 -0.04034623 0.071341544 0.011696788 0.100958385 0.0035203293 0.16331159 0.14560156
0.10114438 -0.14612362 0.035346318 0.030387294 0.10046833 0.00026771572 0.13753538 0.15544714
0.15420619 0.036999613 -0.11940875 0.10532606 0.039172422 0.053990074 0.04479618 0.114316575
-0.16316332 0.10669068 0.1272973 0.15079433 0.017698344 -0.15401432 0.14708214 -0.028804213
0.03446333 0.028035862 -0.17813356 0.007813261 -0.017489677 -0.047785647 0.07762353 0.043097343
-0.09401711 -0.039485976 -0.10345012 -0.16045603 0.08648193 0.101662375 0.15692995 -0.1659081
-0.047890753 0.13068154 0.076901965 -0.13553827 0.12768328 0.12224742 0.13180286 0.12186603
0.13968092 -0.070428595 0.13911195 0.11152127 -0.13394009 0.05722587 -0.1368058 -0.09304425
0.014681549 0.16187237 -0.10583878 -0.14785637 0.17028634 -0.08402804 -0.16400662 -0.07141626
0.118703075 0.032195523 0.16014935 0.10367753 0.010560404 0.16292016 -0.080976635 0.086152226
-0.036752358 -0.018533006 0.043008443 0.12594523 0.15244108 0.050366085 -0.05389691 0.17012815
0.032570284 0.05691676 0.05528993 -0.16384862 0.16611262 0.16394728 0.12900555 0.15436019
-0.080141455 -0.03785564 -0.15411735 0.056733295 0.047503382 0.05965354 0.16989546 -0.02347214
0.08862002 0.11628873 -0.1080873 -0.031301282 0.127624 -0.103008665 0.06150085 0.08893608
-0.018834332 0.1692999 -0.06875043 0.07229287 -0.039615303 -0.15882635 0.0733385 -0.067223445
-0.0027911223 0.15425579 -0.07910129 -0.065328635 -0.17494105 -0.12662917 -0.11603465 0.04501102
0.09052802 -0.028547687 -0.11438684 0.009460317 0.084144056 -0.06452667 -0.11089499 0.093472295
-0.17133301 0.07274158 0.13817964 -0.1732191 -0.049253102 -0.041758616 0.011112273 -0.18040434
-0.11033994 -0.102928944 0.06838298 0.062101085 -0.13798758 0.045488607 0.0045357803 0.0643888
-0.06713663 0.118298635 -0.08150922 -0.13614243 0.104806155 -0.17412205 0.11901928 -0.05012162
-0.08726509 -0.15942536 -0.03314835 0.061243523 -0.056245875 0.16317888 0.09268113 0.06056148
-0.16477668 0.0038441087 -0.12670322 0.046177898 -0.039336897 0.109424725 -0.002471702 -0.16361554
-0.097041495 -0.17561494 -0.044692665 0.0850422 -0.14448197 0.11751258 -0.17436425 -0.01320014
0.0005948395 -0.088530995 -0.15277126 -0.096792765 -0.1436452 -0.020046221 0.026842527 -0.16388138
0.08397079 0.12862633 0.12158604 -0.04127125 0.14025486 0.05850727 -0.12519813 -0.082153186
-0.15322421 0.08104713 0.12894306 0.067358874 -0.03060219 -0.1432977 -0.16694205 0.02068426
-0.024470612 0.13598588 -0.073563375 0.1376703 0.09329987 0.11041671 0.040674478 0.13510813
-0.09077838 -0.046255525 -0.08801462 0.013913318 0.16564086 -0.048376963 -0.036505155 0.10675684
-0.06028317 -0.042231306 -0.11812874 -0.12777193 0.03698627 0.13897894 0.14001663 -0.0996784
0.0890459 -0.10700688 -0.17329793 -0.0016247323 0.15302397 -0.018924974 -0.1462276 -0.05888897
0.06883665 0.13461766 -0.17432089 0.045333784 0.061708733 0.037833147 -0.17230517 -0.061137073
-0.028416514 -0.09661481 -0.12824647 0.032756407 -0.01566485 -0.006672731 -0.123466134 0.14228334

row_embedding.3.bias f4 [32]
00000000: 7916 de3d b34e 57bd df5b 77bd 7d17 2cbd
00000010: 7755 6f3c 03ea 04be cc93 da3d b519 123e
00000020: 38d6 83bd f647 d23d cd22 083e b326 ca3d
00000030: fb5e 9fbc 8c2d 323d 1e44 d63d af78 d83d
00000040: 9754 c53d c7bb 96bd 362e 493d a993 be3d
00000050: d5a0 14bc 33d1 063d 9328 5f3d 0aa0 853d
00000060: 4280 d53d 7f58 2a3d 2ca1 283e fdb3 62bd
00000070: ef3a ad3b f58f 05bc c977 18be 782d f63d
0.1084413 -0.052565288 -0.06039035 -0.042014588 0.014607779 -0.12979893 0.10672721 0.14267619
-0.06437343 0.10267632 0.13294525 0.098706625 -0.01945447 0.043500468 0.10462211 0.105698936
0.09635275 -0.073600344 0.049116336 0.09305508 -0.0090715485 0.03291435 0.054482054 0.06524666
0.10424854 0.041588303 0.16467732 -0.05534743 0.0052865664 -0.008151998 -0.14889444 0.12020391

col_embedding.0.weight f4 [7]
00000000: 6ba4 7f3f f906 803f 95fc 7f3f 4d09 803f
00000010: 5eae 7f3f 65ce 7f3f d20c 803f
0.99860257 1.0002128 0.99994785 1.0002838 0.9987544 0.9992431 1.0003912

col_embedding.0.bias f4 [7]
00000000: 3b17 9aba 4cc1 33b9 0619 97b8 3920 a4b9
00000010: f5de 523a 2cfa 543a afa3 203a
-0.0011756191 -0.00017142779 -7.204902e-05 -0.00031304525 0.00080440874 0.0008124437 0.00061279064

col_embedding.1.weight f4 [32, 7]
00000000: 52c8 b43e 4743 a43b f343 d7b9 1ce0 32be
00000010: dafc 8c3e 9773 babe 3332 cfbd 360b eebd
00000020: 9e74 84be 4c10 28be ff3a 3e3e 3388 5abe
00000030: 06aa a73b 9ff8 71be 790d 4abe a7dd 533c
00000040: 64b8 8a3e 9c4a 35be c28b ff3c 8c56 b83d
00000050: 2344 573e b499 913e 8d58 903e dada d4bd
00000060: 9e9d 753d 5b3a 9ebe ab40 97bc f9cd 343e
00000070: f20a 173e f96e a43e 2b40 973e 6535 37be
00000080: 60e6 87bd 6ca9 80be fed0 babe 6903 c1be
00000090: 1e70 1a3d 7936 92bd 947c 773e 93d4 69be
000000a0: e4a2 2c3e 7fa5 f7bd 27ba 08bd 0602 ba3e
000000b0: 23ed be3e 0574 513e 4b1d 6c3e d05a 153d
000000c0: 8240 303e 46f2 9e3d 2eb9 fcbd 11a2 3d3e
000000d0: afdd b5be 938b 903d ae41 943d 3794 053e
000000e0: 4ea2 e0bd 4283 38be 8ee6 bebd 7fe4 54bc
000000f0: c8ed 64be 62cc 1dbe d0ef 353e 32b5 9b3d
00000100: 44d3 a6be b0be 5ebd 070d cfbc 48f5 263e
00000110: 15ee 993e cf92 c1be 7e90 ba3e 1b99 953c
00000120: c5a0 b93e a047 03be 4647 92be edd5 73be
00000130: 42da 6fbe 176b b73e 54b3 073e 1d18 89be
00000140: acf3 85bd c4bb 31be 54d4 6cbe c813 623e
00000150: 0f0d 963e 9c15 99be 7d58 c53c 6396 7d3e
00000160: 9b15 263e fb4f 95bd d57e 69be 696f a6be
00000170: 97ef 54be 9bcb 5b3c 14b1 0dbd 77be 4c3e
00000180: e4f4 2a3e 69f1 09bc 87a7 81bc 032a 403e
00000190: a872 3fbe 5193 5c3e f051 a33e 3a69 643e
000001a0: 8f3e b03d 1123 3d3d 0f3d dfbc 41ca 4a3e
000001b0: 5d1e 843e 15f2 dbbc c97b 023e 182f 91be
000001c0: e154 413e 2c24 8c3e 9c21 46ba b761 1dbe
000001d0: 99f1 bebd fa57 fbbd a23c afbe 1e60 a73e
000001e0: ba04 44bc 557c a3be c7fb 833e 8a08 a33e
000001f0: b8fd 9f3e 8658 6bbe 688c 83be a140 9e3d
00000200: d97e 8f3d 8c25 62be 2192 883d 747d 813e
00000210: 90cb 8dbe 2205 be3e 90e5 b2be 47e4 acbd
00000220: f45f 65bd 2a58 b23d 1c1a 42bc b401 813e
00000230: 8b61 8c3d 2c88 24be 1ba1 bebe c2a3 95be
00000240: 07c2 523e a635 213e ffb3 4f3e 6b08 30bd
00000250: 39d0 dd3d 4681 a4be 7205 323c 25cc 1fbe
00000260: 3e81 81be b161 b8bd fff8 663e 1e2c 6c3e
00000270: 572e 6a3d 4ad3 82bd d127 32be 78ad 75bc
00000280: f3de 3bbd 2069 673e 36bb e93d c803 93be
00000290: 7b59 a4be 8712 ff3d 8a52 e23c e903 0c3e
000002a0: 2d62 2cbe 4a02 253e d5e4 9cbe e363 b03d
000002b0: 2359 83be e194 98be a3b9 a1bd d1a4 8b3e
000002c0: daf6 84be f502 89be 5e18 3e3e 49d5 b4be
000002d0: 1660 14bc b3a0 87be f4f2 893e 2817 69bd
000002e0: 856e cbbd 6376 6abe c59c c43c d1f1 123e
000002f0: e5d3 c83d 4132 493e 8b2c be3e c901 3d3e
00000300: 0f45 a03e 5924 9d3d 13ef 6dbe f701 97be
00000310: 9196 b73e 4841 0cbe 444f a73e d039 543d
00000320: c943 06be 814d 64be 1c68 b2be f5fe 8f3c
00000330: 9c84 cd3d 29fc b9bb fcd2 9bbe 1551 903e
00000340: 6e7e 873e 6e04 b73e a2ce b23e cfff d3bd
00000350: 9ec6 44be 53eb 353e b5ea 243c 8581 103e
00000360: 63c8 5ebd a9d0 323e fb4c bbbe a4ad b03e
00000370: 208f 223e 2c99 b93e 4060 ab3b 195a 743e
0.35309082 0.005012903 -0.00041058622 -0.17468303 0.2753666 -0.36416313 -0.101169966 -0.11623232
-0.25870222 -0.16412467 0.18577193 -0.21341018 0.005116704 -0.23629998 -0.19731702 0.012931264
0.27093804 -0.17704242 0.031194571 0.090008825 0.21022086 0.2843758 0.2819256 -0.10393305
0.05996477 -0.30903897 -0.018463453 0.17656697 0.14750269 0.32115915 0.29541144 -0.17891462
-0.066357374 -0.2512926 -0.36487573 -0.37697914 0.03770458 -0.07139296 0.24168617 -0.22834997
0.16859013 -0.12092113 -0.033380654 0.3632967 0.37290296 0.20454414 0.2305805 0.03646356
0.17212108 0.07761054 -0.12340008 0.18518855 -0.35520694 0.07057872 0.0723909 0.1304482
-0.10968457 -0.18018821 -0.093213186 -0.012993931 -0.22356331 -0.15409997 0.17767262 0.0760292
-0.32583058 -0.054381073 -0.025274767 0.16304505 0.30064455 -0.3780732 0.36438364 0.018261483
0.3625547 -0.12820292 -0.28570002 -0.23812075 -0.23423102 0.3582389 0.13252002 -0.2677621
-0.06540617 -0.17356783 -0.23127872 0.22077858 0.29306838 -0.298993 0.024090046 0.24764399
0.1621918 -0.07290646 -0.22802289 -0.32506874 -0.20794521 0.013415243 -0.034592703 0.19994532
0.16694981 -0.008419373 -0.015826954 0.18766026 -0.18696082 0.21540572 0.3189845 0.22305766
0.08605682 0.04617602 -0.027250795 0.19803716 0.25804415 -0.026848832 0.12742533 -0.28356242
0.18880035 0.27371347 -0.0007558109 -0.15369307 -0.09323425 -0.122726396 -0.34225947 0.3269052
-0.0119640175 -0.31930795 0.25778028 0.31842452 0.3124826 -0.22982988 -0.2569306 0.07727171
0.07006616 -0.22084635 0.06668497 0.25291026 -0.27694368 0.3711329 -0.34940767 -0.08441978
-0.05599971 0.08708222 -0.011847045 0.25196612 0.06854542 -0.1606757 -0.3723229 -0.292265
0.20581828 0.15743122 0.20283507 -0.042976778 0.10830731 -0.32129878 0.010865556 -0.15605219
-0.25293916 -0.09003008 0.22555922 0.23063704 0.0571731 -0.063879564 -0.17398001 -0.014994971
-0.045866918 0.22598696 0.11412661 -0.28713822 -0.32099518 0.12454706 0.027627248 0.13673367
-0.16834326 0.16114154 -0.30643335 0.08612802 -0.25653943 -0.29801086 -0.078967355 0.27274182
-0.25969583 -0.2676007 0.18563983 -0.35318974 -0.009056112 -0.2648979 0.2694317 -0.05690685
-0.09933189 -0.22896723 0.024000535 0.14350058 0.09806041 0.19648077 0.3714336 0.18457712
0.31302688 0.076729484 -0.23235731 -0.29493687 0.3585706 -0.13696778 0.32677662 0.051812947
-0.13111795 -0.2229519 -0.34845054 0.017577628 0.10035059 -0.005675812 -0.30434406 0.2818686
0.26463646 0.35745567 0.34923273 -0.10351526 -0.19216391 0.1776555 0.010065724 0.14111908
-0.054390322 0.1746241 -0.3658217 0.34507477 0.1587491 0.36249673 0.0052299798 0.23862495

col_embedding.1.bias f4 [32]
00000000: 06ba 87be 8788 30be 150b 9fbd 8eaf 92be
00000010: 8a06 9abe 8407 8b3e 3be7 48be 8789 24be
00000020: cf6d 24bd 8a48 13bd b83f c63d 3697 8a3e
00000030: 1592 6c3d 5591 2dbe b8b4 003e 04c9 c0be
00000040: 493a b53e a2e9 ac3b 4bbc 53be d642 25bd
00000050: d6cc cebc a734 a9be e778 8e3e 444b 9e3d
00000060: 2507 b5be 9a67 9c3e 3409 8fbe 72d9 a7bd
00000070: 3889 e83d 3673 b53e 78a2 50bd 4bc5 ab3e
-0.26509112 -0.17239581 -0.077657856 -0.28649563 -0.30083114 0.2715417 -0.19619457 -0.16068088
-0.040143784 -0.03595785 0.09680122 0.2706849 0.057756502 -0.16949971 0.12568939 -0.37653363
0.3539603 0.0052768746 -0.20677297 -0.040346943 -0.025244158 -0.33047983 0.27826616 0.077291995
-0.35357013 0.30547792 -0.2793671 -0.08195771 0.113542974 0.3543946 -0.050936192 0.3354896

col_embedding.3.weight f4 [32, 32]
00000000: a138 0c3e cfde 023e f78e e3bb 304a 0fbe
00000010: dd0c 9e3d 944c 02bd 6532 2bbe b8be 0b3e
00000020: bbc4 0c3e 10de 193e e5da c13d 9d8b e23d
00000030: 9895 14be 2cff dcbb b5a2 6d3d 7f7c 943d
00000040: ff20 62bd d755 13bd d86b 06be 0d13 21be
00000050: bd28 043c 8e71 303e f772 f4bd 901f 293e
00000060: db0f 23be 43f0 f4bd 98b2 0ebe 9989 01be
00000070: 7f07 153e 06a8 2d3b 9c07 41bd 3cdd 2e3e
00000080: 1385 b23d 8fed 0cbe dff9 1a3e 966b b5bd
00000090: 391f c23d b62d 4d3d 4aeb 693d 384e 48bd
000000a0: 9792 263e 22c5 8fbb 0646 d83d fafc f53d
000000b0: 7a7b 1dbe 0f48 f8bc 8b9e cfbd c3f5 95bc
000000c0: 12a5 18be e660 91bc 1cbd ebbd 5ff9 8abd
000000d0: 5bb5 c53d 34d7 70bc 2fc4 273e 7831 753d
000000e0: 3ca8 6a3d 63e5 3b3d a296 34be b418 2e3e
000000f0: 2613 e2bb fdb8 2fbe bde6 cbbb 5a3d b5bd
00000100: 06f8 73bd 3add 37bd cf96 bcbc 518b d8bd
00000110: 4cf2 d2bd 64bb 7e3d 2e59 203e 6f91 333e
00000120: 5779 a5bd ef2a 22be 70ac 0fbd 5739 69bc
00000130: 2549 1fbe 39e3 06be ef17 39bc 41f2 8e3d
00000140: 228a 873a 74b2 57bd c34d c7bc 26b2 253e
00000150: a938 993d 8374 cbbd 6ef0 d63d 84cf f43d
00000160: fe4b c6bd f128 0cbd 9289 e03d 0bbc 8d3b
00000170: 2674 e73c e76b 21bd 946b 2bbd 222e ac3d
00000180: 5e41 da3d 5ea2 35bd f918 b1bc 27ae d63c
00000190: ac68 a13d 4083 2fbe 2b78 90bd a849 d73d
000001a0: 922f 1f3e 3581 2dbe 2428 283d 8b2d 40bd
000001b0: 0683 843d 3bd4 1cbc 3643 9bbd 9a28 15be
000001c0: 125b 4fbd 75b0 153d 12fa 4cbd 3c75 fa3b
000001d0: 44b4 7a3d 8ed6 eb3d e68b f63d 2d1d 823d
000001e0: 3e7c e73d 49b0 1bbe 249f f43d 7475 c3bc
000001f0: 288f f63d 2c18 0c3e 871d 103e ebf4 873d
00000200: 0cfb d83d 75bc 763d 76c2 013d d654 b6bd
00000210: c7f8 163c e2e3 103e dcf2 13bd 3e5d eabc
00000220: 0475 093e d4de ca3d 6ed5 a7bd 8b01 24be
00000230: 48f8 943c 1498 09be a186 06be 24af 123e
00000240: 0562 d23d 2f8b 28be b0d6 bbbd 4942 c73d
00000250: 32d7 05be af48 963d 8423 fc3c a963 fabd
00000260: d789 d73b b18b 713d 73e7 2d3e 2695 d73d
00000270: f71c d03c 7567 8dbd 1cda 23be 6410 bc3c
00000280: c91c d83c d332 8d3d 38c5 67bd 61d4 07be
00000290: d977 e53d d532 bc3d 0158 5fbd aea4 073e
000002a0: a55e 1c3e 14ef d53d cc82 babd 4ab3 edbd
000002b0: 7641 cdbd 5d40 133e 5a43 ecbd c212 4e3d
000002c0: c8fc 3dbd ba9c d0bd 9b79 0d3e d05c 353d
000002d0: f284 9abd dfc6 42bd 1e64 003e ae83 97bc
000002e0: 44f7 4a3d cb4a 0dbe e1c6 8abd c5b9 42bd
000002f0: 25e7 153e 2c44 22be 8957 b33d d347 343c
00000300: 86a7 3f3d 0f5d 7bbd 4da8 ef3d 5498 07ba
00000310: 5098 e6bd 3a32 82bc 2d90 a23d 9493 f83d
00000320: c03c 313e ad51 253e 94f4 eabc 81bf c1bd
00000330: 1786 ab3c 2543 23be fb58 013e 2f00 a83b
00000340: 827f 303e eb4a 94bd 55aa cc3d b75b 203e
00000350: ad09 e2bc d69b cf3d d63a ecbd 07a4 223e
00000360: 9256 2e3d 0d33 113e 0b87 b83c 6271 69bc
00000370: 5638 453d 3a83 f83d c0f6 ec3d bdfe f7bd
00000380: 5804 f8bd 9f03 af3d f5bd 2a3e dcf5 153e
00000390: dbbd d1bd c871 c23c 5694 81bc c8fb 1abe
000003a0: a592 103e 420a 273e e60d 3a3d cfec e4bd
000003b0: e821 91bc d3cf fa3d 9bde cabd db77 3ebd
000003c0: 21b7 b1bd 54f0 0b3c d727 9dbd 9b30 f6bc
000003d0: 911a 4dbd b7a8 d83d 5309 b1bd 86ec 423d
000003e0: 2910 0f3e 0776 123e 40da 1cbe 9b1a 5ebd
000003f0: 8227 c0bd ef4d 0dbe dcbb 653d d8dc f73d
0.13693477 0.12780307 -0.006944533 -0.13993144 0.07717297 -0.03181131 -0.16718443 0.13646972
0.13746922 0.15026116 0.09465579 0.11061785 -0.1451019 -0.006744286 0.058016498 0.07250308
-0.05520725 -0.035970535 -0.13127077 -0.15729924 0.008066353 0.17230818 -0.1193599 0.16515946
-0.15924017 -0.11959889 -0.13935316 -0.12650146 0.14553641 0.0026497855 -0.047126397 0.17076582
0.08716788 -0.13762496 0.15134381 -0.08858411 0.094786115 0.05009242 0.057109155 -0.04890272
0.16266857 -0.0043875137 0.10560231 0.12011142 -0.15379134 -0.030307798 -0.101376615 -0.018305665
-0.1490672 -0.0177464 -0.11510679 -0.06785845 0.096537314 -0.014699746 0.16383432 0.05986163
0.057289347 0.045873057 -0.17635587 0.17001611 -0.0068992553 -0.17160411 -0.0062225745 -0.088495925
-0.059562705 -0.044888712 -0.02302113 -0.105734475 -0.10300121 0.06219043 0.1565902 0.17535947
-0.08079784 -0.1583669 -0.03507656 -0.014234862 -0.15555246 -0.13172616 -0.01129721 0.069798
0.0010340849 -0.05266042 -0.024329072 0.1618124 0.0748151 -0.09934332 0.10495077 0.11953643
-0.09682463 -0.034218732 0.109637395 0.004325395 0.028253626 -0.039409544 -0.04185064 0.08407237
0.10656999 -0.0443443 -0.021618353 0.02620609 0.07881293 -0.17139912 -0.0705417 0.10512096
0.1554549 -0.1694382 0.041053906 -0.046918433 0.06470303 -0.009572084 -0.07581179 -0.1456627
-0.05062396 0.036545236 -0.050043173 0.00764337 0.06120707 0.115155324 0.12038402 0.06353221
0.11302994 -0.15203966 0.11944416 -0.023859717 0.12039024 0.13681096 0.14073764 0.06638511
0.105947584 0.06023832 0.031679593 -0.089029 0.009214587 0.1414943 -0.03612028 -0.028608914
0.13423544 0.09905782 -0.08195005 -0.16016214 0.018184796 -0.1343692 -0.13137294 0.14324623
0.10272602 -0.16459344 -0.09171808 0.0972944 -0.13070372 0.07338082 0.030778654 -0.1222604
0.006577711 0.05897111 0.16982822 0.10526495 0.025404437 -0.069044985 -0.16001171 0.022957034
0.026380913 0.068944596 -0.056584567 -0.1326461 0.112045 0.09189383 -0.054527286 0.13246414
0.15270479 0.10445991 -0.09106979 -0.11606462 -0.10022251 0.14380021 -0.11536284 0.050310858
-0.04638365 -0.10186143 0.1381592 0.044277966 -0.075448886 -0.04755294 0.12538192 -0.018495407
0.049552217 -0.13798063 -0.067762144 -0.047540445 0.14638956 -0.15846318 0.087569304 0.011003452
0.046790622 -0.061368044 0.11702023 -0.000517254 -0.1125952 -0.01589309 0.079376556 0.12137523
0.1730833 0.16144438 -0.028681077 -0.094603546 0.020937962 -0.15943582 0.126316 0.005126975
0.1723614 -0.07240852 0.09993426 0.15659986 -0.027592504 0.10137145 -0.115346596 0.15882884
0.04256303 0.1417963 0.022525331 -0.014248224 0.04814943 0.121344045 0.11570501 -0.12109134
-0.121102035 0.085456125 0.16674025 0.14644569 -0.1024129 0.023735896 -0.015817802 -0.1513511
0.1411844 0.16312507 0.04542341 -0.1117798 -0.017716363 0.122466706 -0.0990574 -0.04650102
-0.08677507 0.008541185 -0.076736145 -0.030052474 -0.050074164 0.10579055 -0.086443566 0.047588848
0.13971008 0.14302836 -0.15317631 -0.05422459 -0.093825355 -0.1379926 0.05608736 0.121026695

col_embedding.3.bias f4 [32]
00000000: fb90 3cbd 127b 1a3e 3499 c7bd 18a6 f53d
00000010: f31d c2bc 0ab4 1c3e e8a2 d63d 360e fb3c
00000020: 4763 123e ce82 113e 2f57 073e 42b4 073e
00000030: ca1e a9bd c8cc 213e b775 8a3d 8eec a6bc
00000040: 7456 c0bd 721f acbd cbcf ec3d 63cd 123e
00000050: a5f5 ba3d ef00 ca3d ca9c fcbd f318 1b3e
00000060: c81f 0e3e 2833 86bd c008 0b3e a385 be3d
00000070: 9ab9 bc3d 1ae5 f53c 88e1 b7bd d7df 9a3d
-0.0460367 0.1508601 -0.09746018 0.119945705 -0.023695922 0.15303054 0.10480291 0.030646425
0.14295684 0.14210054 0.13216852 0.13252357 -0.08257826 0.15800774 0.067607336 -0.02037647
-0.093914896 -0.08404435 0.11563071 0.14336161 0.09128884 0.09863459 -0.12334593 0.15146236
0.13879311 -0.06552726 0.13577557 0.09302833 0.09215088 0.03001647 -0.089785635 0.07562225

conv_col_to_row.feature_module_left.0.weight f4 [32, 32]
00000000: e4d6 c73c 0e3d 1dbe 6dda 63bb d773 263d
00000010: 1609 06bd 0879 efbd beb3 7f3c 405b 67bd
00000020: 2277 203e a4f6 143c ceae a9bc d6af 053e
00000030: 64e2 0fb9 f359 53bd 2df4 9abc fcbe 2bbc
00000040: 6ce3 30bc 8e14 0fbe ad44 053e d06d f03c
00000050: 1e8a bbbd 316b dabd 464c a23d 2388 9e3d
00000060: 5af5 c33d 52d6 d8bd f762 25be 3168 07be
00000070: 5ff9 003e bef3 42bd 5977 5fbd 8586 cebd
00000080: 00aa 053e 09d9 923d a70c d53d f685 cbbd
00000090: aef2 01bd d1c9 233e 941f bcbc 3575 31be
000000a0: 1a0c b6bd fc88 9a3b 2f66 f03d c121 fc3c
000000b0: 10a6 1f3d d1e6 fcbd 1c85 f93c 6f2d 743c
000000c0: c76e 013e f338 07be d4e2 e23c 2ccc d5bd
000000d0: 3a5d 22bd 4fca b43d 2f26 34be 502a dd3d
000000e0: 2aef 25be c0de 173d b55c a33d 2cbc d33d
000000f0: 515e c2bd f0c8 e0bd 0243 bd3d 3d30 81bc
00000100: 03f7 e83d ecda ddbd 0515 dd3c 844b 8c3d
00000110: 6e02 bd3c d710 033e 9e08 04be 5318 2c3e
00000120: 9e84 ebbd ca10 dabd 8762 043e cec1 ab3c
00000130: d8f6 2cbe a9f6 29be 12e2 a5bd 26d6 293e
00000140: ba8a 253d 312d 06be 9ec9 2d3e 1386 8f3d
00000150: 9637 97bd 2e99 e2bc 0983 45bd f49a 333e
00000160: 3bdb a53b c4bd 563d aa20 10be 297c b93c
00000170: 196a 8abd a9e8 8d3d fcea cd3c 0b9a 36bc
00000180: 1fbb 4dbd 622e 7bbd 0ef3 513c 6491 183c
00000190: de3e 64bc 4ba9 513d b8f6 87bc be23 8dbd
000001a0: eed3 103e d39e c2bd 96e0 fcbd bf04 1b3e
000001b0: 3f1e df3c eab2 04bd 6d4a c3bd bc6b 07bd
000001c0: da62 08be 480e 213d c2b4 9e3c 4858 9c3d
000001d0: 0a1f 06bd e226 2bbe 40f7 0b3e 5f85 25be
000001e0: 9407 eabd 7aa6 b4bb 2fda cfbd 414b c0bd
000001f0: 07cb fb3d 9a44 2dbe 1dc2 b6bc c061 b83d
00000200: 74bf 19be 02a2 9f3d fafd 243e 5cc5 343b
00000210: ea99 bf3d a437 e5bd f266 083e af5f 20be
00000220: 8d6f 833d 42ae d03d 97e0 aabd 4ad6 d1bd
00000230: 4920 263d 128a 273e 9907 a1bd 4919 053e
00000240: 8e70 a6bd b671 e4bb c87a 063e d0ee 13be
00000250: ad15 34be 3c4d febc e531 0b3d d8ee b73c
00000260: 039c 34be 1df0 a4bd 75d8 273d 7575 e1bc
00000270: 9950 1ebe 8a3d 6a3d 33fe 383d 2389 c6bd
00000280: ea81 e53b 095b 0cbe 3824 233e 798a a53d
00000290: 12f9 683c 7798 a73d 3ca9 5e3d 649d ef3d
000002a0: 6d35 11be 1539 08bd 8c23 8b3d 0b1e 17be
000002b0: c8d8 0ebd 1b6e 7dbd 699e ae3c 01c5 00be
000002c0: 95f3 2a3e 08a6 02be 9bc6 85bd 14e4 cebd
000002d0: 1529 f83d 207c f63d 69a1 613d 206b f93d
000002e0: 0630 263e 365f fcbb c0d7 c9bd 3f52 113e
000002f0: e1b0 843d db1f 0abe 92fe b83b 6c6b 313e
00000300: 68d7 50bd d416 1fbe 3cb8 263e 2834 d53c
00000310: 8983 913d 7a6c 27be 2005 163e e893 eabd
00000320: b1d6 d63c 72f7 aa3d 21d9 573c aeca 31be
00000330: 1b03 d93c c0fc a2bd 0a35 363d a7ad 9d3d
00000340: 3271 bc3c 0d5c cdbc ff1f 5fbd 6992 f53d
00000350: 03af 95bd 214f 683d 685e d4bd fed6 91bd
00000360: de41 da3c a111 0ebe 83b2 463d 969f 4dbd
00000370: 7351 2b3e 6864 cc3b 792f 16be af88 fe3d
00000380: 9cab 00be cd55 1a3c 4dd4 0cbc bf83 febd
00000390: dd05 133e 755a cebd fe40 d63c 8c33 143e
000003a0: 5259 093e ad28 20be 6d51 153e 165c 9cbd
000003b0: ff71 87bb ab43 c7bd 1024 7a3c 7a0b cc3d
000003c0: 763a 06be 3a9d 44bb 65b4 303e 0e29 e63d
000003d0: bf18 2fbd 1bf1 16be 5e60 c63a d0dc 84bd
000003e0: 1d5e ba3d 974a ef3d f8a2 edbd 0bf5 dfba
000003f0: 1841 ff3d cac8 a13d 0199 16be d477 17be
0.02439446 -0.15355322 -0.0034767643 0.040637817 -0.03272351 -0.11693007 0.015606819 -0.056483507
0.15670446 0.009092007 -0.020713236 0.13055357 -0.0001372188 -0.051599454 -0.01891526 -0.010482546
-0.010796409 -0.13972685 0.13014479 0.029349238 -0.09157203 -0.106649764 0.07924704 0.0774081
0.095682815 -0.10587753 -0.16151033 -0.1322334 0.12595128 -0.047595732 -0.05455718 -0.10084251
0.13053131 0.071703024 0.10402804 -0.099376604 -0.031725578 0.15994956 -0.022964276 -0.17329867
-0.08889027 0.004716037 0.1173824 0.030777814 0.03897673 -0.12348712 0.03045898 0.01490341
0.12639914 -0.13205318 0.02769605 -0.10439333 -0.03963969 0.0882765 -0.17592691 0.10799086
-0.16204515 0.037077665 0.07976667 0.10338625 -0.09490646 -0.10975826 0.09241296 -0.015770072
0.11375239 -0.10832772 0.026987562 0.06850341 0.023072448 0.12799393 -0.12893912 0.16806154
-0.11499904 -0.106477335 0.1292821 0.020966437 -0.16891038 -0.16598 -0.0809976 0.16585597
0.040415503 -0.13103177 0.16971442 0.070079945 -0.07383649 -0.027660932 -0.048220668 0.17539579
0.0050615347 0.05242707 -0.1407496 0.022642212 -0.06758518 0.06929142 0.025136463 -0.011145125
-0.05022728 -0.06132353 0.012814296 0.009312008 -0.013931004 0.05118684 -0.016597137 -0.06891583
0.14143345 -0.095029496 -0.12347524 0.15138529 0.027236102 -0.03239719 -0.0953568 -0.033061728
-0.13318959 0.03932026 0.019373301 0.07634026 -0.032744445 -0.16714051 0.13668537 -0.16164158
-0.11427227 -0.0055130096 -0.10149037 -0.093893535 0.12294584 -0.169207 -0.022309357 0.09003019
-0.1501444 0.077945724 0.1611251 0.0027583456 0.09355529 -0.11192253 0.1332052 -0.156615
0.06417761 0.10189487 -0.08343618 -0.102459505 0.040558133 0.16361263 -0.07862777 0.12997927
-0.08126937 -0.006971563 0.13132775 -0.14446568 -0.17586394 -0.031042688 0.03398313 0.022452757
-0.17637639 -0.080536105 0.040977914 -0.027521828 -0.15460433 0.057187594 0.0451643 -0.096941255
0.0070040124 -0.13706602 0.15931785 0.08083052 0.014219539 0.08183377 0.054360613 0.11699942
-0.14180537 -0.033257563 0.067938894 -0.14757554 -0.034874707 -0.061872583 0.02131577 -0.12575151
0.16694482 -0.12758648 -0.065320216 -0.10102096 0.12117211 0.12035394 0.055085573 0.121786356
0.16229257 -0.0077017797 -0.09855604 0.1419153 0.064790495 -0.13488714 0.0056455815 0.17326134
-0.050986677 -0.15536052 0.16281217 0.026025847 0.071051665 -0.16349974 0.14650393 -0.11453992
0.02622542 0.08347978 0.013174326 -0.17362472 0.026490739 -0.079583645 0.044484176 0.07699137
0.023003194 -0.025068307 -0.054473873 0.11990816 -0.073087715 0.05671609 -0.10369569 -0.07121085
0.026642736 -0.13873912 0.048510086 -0.05020102 0.16730289 0.0062375553 -0.14666547 0.12428414
-0.12565464 0.009419871 -0.008595538 -0.12427472 0.14357705 -0.10075847 0.026154038 0.14472789
0.13412979 -0.15640517 0.14581843 -0.076347515 -0.0041334624 -0.097297035 0.015267387 0.099631265
-0.13108239 -0.003000094 0.17256315 0.11238299 -0.04274821 -0.14740412 0.0015134921 -0.06487429
0.09099982 0.11684149 -0.116033494 -0.0017086578 0.124635875 0.078996256 -0.14706804 -0.14791805

conv_col_to_row.feature_module_left.0.bias f4 [32]
00000000: 9abb db3d a0f0 033e 1bbb dfbd c3fe 873d
00000010: fa0b a4bc d9da e63d 5d69 b3bd 3a63 323e
00000020: 8750 73bd 88cd 14be 1057 ddbd 19aa 1bbe
00000030: 338c 173d f1da 8f3d 5614 28be 376f 1bbe
00000040: eb5d b33d c751 053e a57a d13c 590a 193d
00000050: 898b 3a3d d694 b03d 46be 253e 19f3 b3bd
00000060: 6a25 b93d 3528 57bd 6000 003e 63d5 2ebe
00000070: 412e d1bd fbb7 8bbd 6c5b 6abd 9904 2cbe
0.107291415 0.1288476 -0.109243594 0.06640389 -0.020025242 0.11272211 -0.08760331 0.17420664
-0.05940297 -0.14531529 -0.108076215 -0.15201606 0.03699894 0.07024182 -0.16414008 -0.15179144
0.08758148 0.13019477 0.025571177 0.037363384 0.045543227 0.08622138 0.16185865 -0.087866016
0.09040339 -0.05252858 0.12500143 -0.17073588 -0.102139 -0.06822201 -0.057216093 -0.16798629

conv_col_to_row.feature_module_edge.0.weight f4 [32, 1]
00000000: e990 0b3f ef23 1c3f 5954 c03d 2340 ab3e
00000010: 579b ae3d 83dd e83e de4f 3bbf 42d4 a8be
00000020: e43a 02bf 77c8 543e 3f69 69bf f7fb 56bf
00000030: 65bb 53bf 57e7 073e 3e53 08bf f024 b53d
00000040: c9da 80bd dee8 14be cd6f 313f 65e4 273f
00000050: 032b 3bbf a442 193c d4f2 50bf 5309 30bf
00000060: 6ae9 2e3f fc37 d13e 7aaa 29bf 6bed 263f
00000070: ce1a 1ebe 4214 163e 1ba3 87be 5cd5 6b3f
0.5451799 0.6099233 0.09391088 0.3344737 0.085257225 0.454815 -0.7316874 -0.3297444
-0.5087111 0.20779596 -0.9117622 -0.8397822 -0.82707816 0.13271843 -0.5325202 0.08844936
-0.0629173 -0.14541957 0.6931122 0.6558288 -0.73112506 0.009354267 -0.81620526 -0.6876423
0.6832491 0.40863025 -0.6627575 0.6520602 -0.15439913 0.14656165 -0.26491627 0.92122436

conv_col_to_row.feature_module_right.0.weight f4 [32, 32]
00000000: c5b2 7bbd 9c35 a33d aa20 cdbd b19e f33d
00000010: 3ad3 aebd d4db efbd 4fd8 60bc 9592 f73c
00000020: 579e bf3b f59a d6bd e212 bebd 09bd 793d
00000030: 6c59 d1bd e18c 693b 1196 9b3d 2ffc 883c
00000040: 3d21 353e 5973 273e 9d3f b43c a1a5 093e
00000050: 847e 2abe fa48 1b3d 169c 313e 796e 73bd
00000060: 1624 8d3d 0afb 213d 7653 0d3e e4a4 cbbd
00000070: d0a9 edbd 5638 d33b 43f6 e7bd cd4d 183e
00000080: 50df 1f3e 7f82 bd3d b3b8 92bc ebb8 343e
00000090: 3a4b 1ebe f0a9 333e 1ec1 9ebd 3156 173e
000000a0: 9708 debd bc17 c3bd 7d2f dabd a0c5 b73d
000000b0: 6e3b 0d3d 9f8e d03d 1831 b83b f9ae 6ebd
000000c0: 46c9 0c3e d2dd 0fbe 49fd 9a3d c5eb 19be
000000d0: f70f 293e d13e 453c a862 73bd cdb7 0b3e
000000e0: ecb2 18be f5b2 c9bd fe70 11be 5a29 6abd
000000f0: 5b6a 9abd 7eb8 c83d a166 18be 7330 963b
00000100: 41a8 0d3e 64a1 1dbd ae47 77bd e9a9 a2bd
00000110: d56e b63d 54b0 e73d d1bc 07be e2bc c3bc
00000120: a7ba 19be 7bfa 56bd 6c9c a53c 0714 c53c
00000130: 5303 033e 139d f63d a1bb 533d 3da9 24be
00000140: 6d39 3bbd e4b8 333e b3ac 67bd e52d 333d
00000150: 3166 de3c d9a7 c73d e8ce b8bd e05b cbbd
00000160: 283e 3abd 0422 ee3d b17d 25be ea81 d2bc
00000170: 7587 d33d 5704 0f3e 31bf 143d 5dc6 b2bd
00000180: e942 253d 6914 08be 77fe 2fbe 9bda 093e
00000190: 63ff 33be e358 06be 4fb9 283e a9a4 823d
000001a0: a01b dabd b99d 01be 307b 1abe b52b 05bd
000001b0: c01b dabd d04f a93d 4bb8 f8bd 5a2f 8bbd
000001c0: 0450 56bd 98a5 5f3d 6023 97bc c186 fabc
000001d0: b43c a2bd 028d 2dbe 4b2c 2e3e 5f3d 133e
000001e0: a9b6 7b3d 03b2 42bc 148c 023e 2dd1 3dbd
000001f0: 2985 c13b 62ba e43d c44c debd bc66 e93d
00000200: 8a40 afbd df83 09be 6ada 2f3e 403c 94bd
00000210: 0860 97bd 8665 70bd e22e fe3c c07d 79bc
00000220: 0241 18be 5d8e 25be 6978 d63d 09d7 963d
00000230: 7387 0a3e e9d6 26be 5c53 9a3c cb81 113e
00000240: 1c49 a3bd 52ac f33b 81dc cf3a ee30 203e
00000250: 326c 0dbe 2256 0dbd 1e79 833d 92e0 9c3b
00000260: 6704 1a3d 558f dfbd 93ec 17be 6a3b 213e
00000270: fb99 4e3c 7252 90bd d45e 6abb 52bd 4a3d
00000280: 5ef3 a33d e278 1d3e 8303 2bbe 2bd9 0fbe
00000290: ad2b 7c3d 1ac4 bdbd 0656 5a3d f795 303e
000002a0: 3f9a 90bd 0ddc 1d3e 48f6 883d 0a1a cf3d
000002b0: 2bdd 283e 1582 313e 27a3 e23d d204 bb3d
000002c0: 6524 813d dd3d 133e 4fe0 2c3e f85e 16be
000002d0: 7251 013e 3b9b e03d d00c bc3d 451c ae3d
000002e0: 3fa5 b5bd 11f7 b93d 3291 e43d bd9a 373d
000002f0: 4329 1b3d fb57 f9bd 3846 21be 950f 70bd
00000300: d41d 1d3e dd3f e63b 43bd 683d 881a 7d3d
00000310: 6f69 04bb 2898 19bb 60c5 7abc c1fb e9bd
00000320: 2ba6 aa3d b3e5 c6bd da84 553d 265c 9dbd
00000330: c30d 56bd 0690 30ba ec83 a3bd f9fc ecbd
00000340: 2d98 0abe bfd9 6f3d cb78 00be 99a9 2ebe
00000350: e715 d8bd de9c f43b 6971 083c 9e8a f23b
00000360: 50cb 4b3d 5cd5 aabd c9da c83d de5c 0a3c
00000370: 6524 0c3e b28f eb3c f84f 773d 6e3d 00be
00000380: 8485 0c3e 368e a8bc dffd 97bd 1cb4 163e
00000390: 5904 5dbd 8e5b e13d a340 153c 59de 3d3b
000003a0: b2f0 183e 3f07 cbbd aa55 de3c 61f8 a1bd
000003b0: 12d9 df3d a62a 093d 3753 c23d ed79 da3d
000003c0: 8e18 67bd d51a d1bd d10f 3cbd a039 a63c
000003d0: 7038 ccbd fc64 d93d e23a c2bd 2e0f ac3d
000003e0: 3176 19be bd53 b5bd ab20 d73c ae75 33be
000003f0: 5efb 163e c330 1b3e e007 a13d b19a d9bc
-0.061449785 0.079692096 -0.10015996 0.11895502 -0.08536382 -0.11711851 -0.013723447 0.030221263
0.005847733 -0.104787745 -0.09280945 0.060971294 -0.10222134 0.003563695 0.07596982 0.016721813
0.1768846 0.16352595 0.02200299 0.13442089 -0.16649824 0.037911393 0.17344698 -0.059431527
0.068916485 0.03954605 0.13801369 -0.0994356 -0.11604655 0.0064459248 -0.113262676 0.14873429
0.1561253 0.09253406 -0.017910337 0.17648666 -0.15458384 0.17545295 -0.07751678 0.14778973
-0.10841482 -0.09526011 -0.10653589 0.08973241 0.034480505 0.10183453 0.005621087 -0.058272336
0.13748655 -0.14049461 0.075678416 -0.15031345 0.16509996 0.012038902 -0.059420258 0.13644333
-0.14912003 -0.098485865 -0.1420326 -0.057168342 -0.07539817 0.09800814 -0.148829 0.0045834123
0.13833715 -0.038483992 -0.060371093 -0.07942564 0.08907858 0.11312929 -0.13255621 -0.023893777
-0.15012608 -0.05248497 0.02021619 0.024057401 0.12794237 0.12041678 0.05169261 -0.16080184
-0.045709062 0.17550999 -0.056561183 0.04374494 0.027148338 0.09748811 -0.09023839 -0.09929633
-0.045469433 0.11627582 -0.16161229 -0.025696713 0.10328571 0.139665 0.036315147 -0.08729241
0.040347014 -0.13289036 -0.17186914 0.13462298 -0.17577891 -0.13119845 0.1647694 0.06379063
-0.106498 -0.12657823 -0.15086055 -0.032512385 -0.10649824 0.08267176 -0.12144526 -0.06796141
-0.052322403 0.054601282 -0.018449485 -0.030581834 -0.079217345 -0.16948321 0.17009084 0.1437888
0.061453495 -0.011883262 0.12748748 -0.046342064 0.0059057665 0.11168362 -0.10854486 0.11396548
-0.08557232 -0.13429211 0.17173162 -0.07238054 -0.073913634 -0.05869057 0.031028215 -0.015227735
-0.14868549 -0.16167589 0.10472185 0.073652335 0.13528232 -0.16292919 0.018838577 0.14209668
-0.07972929 0.0074363137 0.0015858562 0.15643665 -0.13810804 -0.03450597 0.06419586 0.004787513
0.037601855 -0.1091601 -0.1483634 0.15745321 0.012609954 -0.07046975 -0.0035762088 0.049496956
0.08005403 0.15378144 -0.16700558 -0.14047687 0.06156509 -0.09265919 0.053304695 0.17244707
-0.0706067 0.15415974 0.066875994 0.101123884 0.16490619 0.17334779 0.11066275 0.09131779
0.0630577 0.14379068 0.16882442 -0.14684665 0.12628725 0.10967108 0.09182131 0.08501486
-0.08869409 0.09080327 0.11160506 0.044825304 0.037881147 -0.12174984 -0.15749443 -0.05860861
0.1534341 0.007026656 0.05682112 0.06179288 -0.0020204445 -0.002343664 -0.015305847 -0.11424971
0.08332475 -0.097117804 0.05212865 -0.076835915 -0.052259218 -0.00067353284 -0.079841465 -0.11571688
-0.13534613 0.05855727 -0.12546079 -0.17056884 -0.105510525 0.007464989 0.00832782 0.0074017784
0.04975444 -0.08341476 0.09807355 0.008444993 0.13685758 0.028755043 0.060379 -0.12523434
0.13722807 -0.020575624 -0.07421469 0.14717144 -0.053959224 0.11003791 0.009109649 0.002897164
0.14935568 -0.099134915 0.027140457 -0.07908703 0.10930075 0.03348794 0.09488528 0.10667787
-0.0564199 -0.10210196 -0.04591352 0.02029115 -0.09971702 0.10614964 -0.09483887 0.08401333
-0.14986493 -0.088538624 0.026260694 -0.1752536 0.14744326 0.1515532 0.0786283 -0.02656302

conv_col_to_row.feature_module_final.0.weight f4 [32]
00000000: 60aa 7f3f fdf1 7f3f 0000 803f 8bff 7f3f
00000010: 0000 803f 6303 803f a969 803f eed8 7f3f
00000020: f4cb 7f3f cd47 803f 79e7 7f3f b9e0 7f3f
00000030: c718 803f c4e4 7f3f f0ef 7f3f 669d 7f3f
00000040: 5728 803f a3fc 7f3f 0909 803f a41a 803f
00000050: 5733 803f 570b 803f dbe5 7f3f e2f6 7f3f
00000060: 4752 803f 3e15 803f 034f 803f 0000 803f
00000070: 0000 803f 32aa 7f3f 0000 803f 0000 803f
0.99869347 0.9997862 1.0 0.999993 1.0 1.0001034 1.0032245 0.99940383
0.9992058 1.0021912 0.99962574 0.99952275 1.0007561 0.99958444 0.9997549 0.99849546
1.0012311 0.9999487 1.0002757 1.000813 1.0015668 1.0003461 0.99960107 0.9998609
1.0025109 1.0006483 1.0024112 1.0 1.0 0.9986907 1.0 1.0

conv_col_to_row.feature_module_final.0.bias f4 [32]
00000000: df9e 3cba bdc3 a3b9 0000 0000 7d1e 9737
00000010: 0000 0000 1dd0 ee38 8abb 1b3a 52b4 e2b9
00000020: fef7 e6b9 af31 e93a 5713 edb8 e7b7 f6b9
00000030: 7616 413a c22c 76ba 8a00 493a 53ae 27ba
00000040: b1de d438 a769 5cb8 e02b 0439 9267 c73a
00000050: a186 903a 32a5 5c38 bcb7 5b39 0f4a b5b9
00000060: 6993 263b 2869 e339 2630 e63a 0000 0000
00000070: 0000 0000 cff1 cbba 0000 0000 0000 0000
-0.00071953045 -0.0003123562 0.0 1.80148e-05 0.0 0.000113874885 0.0005940726 -0.00043240428
-0.00044053787 0.0017791296 -0.00011304643 -0.00047057794 0.00073657127 -0.00093908247 0.0007667622 -0.0006396521
0.00010150427 -5.2550484e-05 0.00012604846 0.0015213361 0.0011026451 5.2605938e-05 0.00020953914 -0.00034578188
0.0025417453 0.00043375161 0.0017561957 0.0 0.0 -0.0015559735 0.0 0.0

conv_col_to_row.feature_module_final.2.weight f4 [32, 32]
00000000: ef77 83bc fb14 3e3d 3ae5 e3bd 2fcc 753d
00000010: 5087 82bd bc0e 973d 2f4a b73c 5119 963d
00000020: 5f88 18be 3a36 23be 0da2 95bd 1f9a a3bd
00000030: dad1 023e 06f4 053e e97b 27bd 66c5 7d3d
00000040: 34bc 23be 1a5e 6cbc 05e2 db3d 44ec b8bd
00000050: ea5a 2d3e 3cb3 4bbd 0d06 033e a748 c53d
00000060: 628c 803d d79e cfbd f9a2 cd3d 8c03 d0bd
00000070: 8f0f 133d 7ae7 0abe 3cf2 a3bc d775 363d
00000080: 9c0a 11be 5cb3 2ebe 3563 80bc 1a54 d93c
00000090: aec8 923d 9ab7 043e 139a 56bc d93b b8bd
000000a0: 06fa 7dbd 005e e73d 869a f3bd 3400 d7bc
000000b0: cc44 48bd 7dfd 083d b5d2 c23d e629 2d3e
000000c0: 3d18 53bd 77a0 173e bb50 56bd 365c 2b3e
000000d0: 7fff 26be 48fa 083e a64e f53d 4238 97bd
000000e0: ee75 113e efcf 9fbd daf2 d13d eee7 0f3d
000000f0: 9c51 8abd b996 f1bd f3aa a33c e4cd bb3d
00000100: b4b9 30be 3a50 afbd b7c7 f8bd 890f 853d
00000110: bc24 c0bc 1066 7dbd d69a 0c3e 5449 113d
00000120: a71b fa3d e42d 09be c4bc fe3d 8608 4bbd
00000130: 2d3b 6a3c 8813 57bd a77c 23be dfc7 01be
00000140: 1166 c33d 16f1 e03b c787 31be 277a 76bd
00000150: ab98 d9bd 2cfe 783d 73e2 043e 03da c23d
00000160: 799c 2fbe 30e9 343d 9846 8f3c f5f6 d03d
00000170: 4623 01bd 8c6d 073e 19e4 33bd fe9f 013c
00000180: cab5 ec3d b29b 7c3c 3a11 19be 240c 20bd
00000190: 0755 c8bd 6c15 bbbc 3516 88bd ec21 bb3d
000001a0: 9663 2c3e fa1a df3d 0ede 053e 2d5e 22bd
000001b0: 2138 10be b971 7ebc bb12 cebc 7c04 e13d
000001c0: fcf7 0e3e 55cb 1a3e e4a3 9dbd ed96 85bd
000001d0: 1178 833d 7227 49bc 2633 af3d 0a25 1fbe
000001e0: 36db ee3d 2c04 893d 7555 76bc a022 9c3b
000001f0: a113 a93d af47 24be 3661 163d a1ec d83b
00000200: 7d8f 003d 773d d8bd 9b13 233e cf4a 0b3e
00000210: 3d18 4a3d 4ca8 27be 4afd 89bd 6cc9 25bd
00000220: 440d 93bd 9753 1d3e ea6c 193e 04ec 113e
00000230: e3a8 cf3d 2070 973d 0dce e23d 0cd9 bfbd
00000240: f8cd d0bc 2cdd b63d b859 c33c 45f9 d23d
00000250: 56d7 8d3d 2163 cdbd f2f4 0dbe 816a a7bd
00000260: 0b8b e43d 3a7a babd de24 4cbd 58c3 e4bd
00000270: 0c72 b43c 5074 d23d 2654 1fbd 485d adbd
00000280: b942 ce3d 3c36 60bd a378 593b 8537 d3bd
00000290: a14e 553d 66f1 f4bd a1df 223e 8601 2dbc
000002a0: d81b 243d e1d1 0fbe 5b42 bf3c cc63 223e
000002b0: 5560 17be c949 f93d 3f22 b1bd 6931 b3bd
000002c0: 3575 2a3d 870a 333e e97c 01be 92e5 573d
000002d0: dab4 273e e5a0 4bbc 7ec3 e9bd 912f 99bd
000002e0: 939c 2d3c b29e 7ebd f535 b8bd 88ae 16be
000002f0: 1cb8 253e 8625 24be 6d5c 1a3e 181a 143d
00000300: a0af f2bd 5200 7a3d 588a ae3d b033 0c3e
00000310: 1522 48bd bdf2 a73d 785d b7bd 0e5a f2bc
00000320: 3284 14be 0a81 b73a d402 34be 0259 1abe
00000330: 9a46 09be bf0d 0bbe 0717 f13d 10d0 57bc
00000340: 8276 4cbd 5bd9 28be 1830 313e a944 f6bd
00000350: f026 db3a 852b 883d 5a33 22be 4918 d23b
00000360: 1aeb 953c f669 ba3d c392 8a3d b84d 093e
00000370: ef16 1abe 96c0 50bd 1adf 6a3d 9026 01be
00000380: e9d0 a1bd 585d 183e e612 9f3c 5a0e b73c
00000390: 8311 593d 0630 06be 8d8b 2fbe c6f7 033e
000003a0: 99b7 0a3e 7fdc e43d 7355 243e 19d1 ee3d
000003b0: 2bda 97bd cf73 f7bd df10 123d 7835 043e
000003c0: f260 133e e1a8 b53d 63d0 e03c 3afd cd3d
000003d0: b9ad 4fbd 9ab2 ce3d 818e ec3c 8f43 df3c
000003e0: 28c4 dfbd e9f7 07be 7687 353e fef5 003e
000003f0: 49d4 873d 5878 b3bc a2bd 20be af0c 293e
-0.0160484 0.046406727 -0.11127706 0.060009178 -0.06373465 0.07375857 0.02237424 0.073290475
-0.14895771 -0.15938655 -0.07306299 -0.07988381 0.12775365 0.13081369 -0.040889654 0.061955832
-0.15989763 -0.014426732 0.10736469 -0.09029439 0.16929212 -0.049731478 0.12795277 0.09632998
0.06276776 -0.10137718 0.1004085 -0.101569265 0.03590351 -0.13564864 -0.020012967 0.044545975
-0.14164203 -0.17060608 -0.015672306 0.02652936 0.07167183 0.12960663 -0.013098258 -0.0899579
-0.06200602 0.11297226 -0.118947074 -0.026245214 -0.048893735 0.03344487 0.095128454 0.16910514
-0.051536787 0.14807306 -0.052323084 0.16734394 -0.16308402 0.13376725 0.119778916 -0.07383777
0.14205143 -0.07803332 0.102513984 0.035133295 -0.06753847 -0.11796326 0.019978976 0.0917013
-0.1725834 -0.08560224 -0.121474676 0.06497104 -0.023455016 -0.061864913 0.1373094 0.03547032
0.122123055 -0.13396412 0.12438348 -0.049568675 0.014296335 -0.05250886 -0.1596552 -0.12673901
0.09540952 0.006864677 -0.17336951 -0.060175087 -0.10624822 0.060789272 0.12977009 0.09514239
-0.17149533 0.044167697 0.017489716 0.10203353 -0.03152778 0.13225383 -0.043918703 0.00791168
0.11558111 0.01541798 -0.14947978 -0.03907408 -0.09781843 -0.022837363 -0.06644861 0.091373295
0.16834864 0.10893817 0.13072988 -0.039640594 -0.14083911 -0.015530043 -0.025155416 0.109871835
0.13961786 0.15116628 -0.07697275 -0.065229274 0.06419385 -0.012277471 0.08554678 -0.15541473
0.11662905 0.06690249 -0.015035023 0.00476487 0.08255697 -0.1604297 0.0367138 0.0066200052
0.03138684 -0.105585985 0.15925448 0.13602756 0.04933952 -0.16372794 -0.06737764 -0.040475294
-0.071802646 0.15363918 0.14982954 0.14250189 0.101396345 0.07394433 0.11074457 -0.0936757
-0.025488839 0.08928904 0.023846492 0.10301451 0.06925838 -0.10028673 -0.1386297 -0.08174611
0.11159333 -0.09105344 -0.049839847 -0.11170071 0.022027038 0.10276091 -0.03889861 -0.084650576
0.1007132 -0.054739222 0.0033183477 -0.10313324 0.05207694 -0.119601056 0.1590562 -0.010559445
0.040065616 -0.14044906 0.02334707 0.15858382 -0.14782842 0.121722765 -0.0864911 -0.087496586
0.041615684 0.17484485 -0.12645306 0.05270917 0.16377583 -0.012428497 -0.1141424 -0.07479776
0.010596412 -0.062163062 -0.089946665 -0.14715016 0.16183513 -0.16029939 0.1507432 0.036157697
-0.11849904 0.06103546 0.08522481 0.13691592 -0.04886063 0.082005955 -0.089533746 -0.029583957
-0.14503554 0.0014000249 -0.17579204 -0.15073016 -0.13405839 -0.13579462 0.1177197 -0.013172165
-0.049917705 -0.16489165 0.17303503 -0.12024815 0.0016719978 0.06648926 -0.15839902 0.0064115864
0.018300582 0.09102242 0.06766274 0.13408554 -0.15047811 -0.050964914 0.057341672 -0.12612367
-0.079011746 0.14879358 0.019418191 0.02234571 0.052995216 -0.13104257 -0.17143078 0.12887487
0.135466 0.11174869 0.16048221 0.11660976 -0.07414659 -0.120826356 0.03566062 0.12911022
0.1439245 0.08870102 0.027443117 0.10058065 -0.050702784 0.10092659 0.028876545 0.027253894
-0.10926086 -0.13278164 0.17727455 0.12593839 0.06632287 -0.02190797 -0.15697339 0.16508745

conv_col_to_row.feature_module_final.2.bias f4 [32]
00000000: b9e3 3b3d 9f2d ccbd 3fff f2bc 828a 9bbc
00000010: df22 28be ffa6 1ebe 469c 133e 1a08 3a3d
00000020: 7345 273e 02dd 33bc e32a 86bd 8130 253e
00000030: e21e 113e 8ea0 293e e0d2 2b3e 0ec7 533d
00000040: be8a d8bd 813f 1dbe 59ea 81bd 355b 063d
00000050: fa6b d83d aa8e 1ebd a159 eb3d 4801 693d
00000060: b9de ecbd dd88 813d 070a cab9 b63d 6b3b
00000070: 2822 c33d 285d 7abd 3d06 233e 19d7 b7bd
0.04587147 -0.09969639 -0.029662726 -0.018986944 -0.16419552 -0.15493391 0.14415082 0.045417883
0.16335087 -0.010977985 -0.06551149 0.16131784 0.14171937 0.16565153 0.16779661 0.051703505
-0.10573338 -0.15356256 -0.063435264 0.032801826 0.1056747 -0.038710274 0.11491705 0.056885988
-0.115659185 0.06324933 -0.00038535913 0.0035894937 0.09527999 -0.061123997 0.15920348 -0.089765735
