GNN/ResultsGCNN/actor_82.pt (torch, 83520 bytes, 43 tensors)

row_embedding.0.weight f4 [7]
00000000: 73b0 803f 4851 803f 44df 7f3f 8b2f 803f
00000010: 2881 7f3f d08f 803f 5a0d 803f
1.0053848 1.0024805 0.9995005 1.0014509 0.9980645 1.0043888 1.0004075

row_embedding.0.bias f4 [7]
00000000: d8da 52bb f74e 9aba 8821 68ba 84d5 ffba
00000010: 0f21 063b 8a0c 75bb 5ac5 2e3a
-0.0032173898 -0.0011772801 -0.0008855094 -0.0019518589 0.0020466482 -0.0037391507 0.0006666981

row_embedding.1.weight f4 [32, 7]
00000000: a714 4f3d 17d5 423d cb12 0d3e 3949 b6be
00000010: e530 3abe 0bc9 773e bc1d acbd b7d6 89be
00000020: b3d3 86bd 8e25 27bd 74f6 dabd 6c01 473e
00000030: f283 873a 5fc5 a9bd dddf 00be adb3 95be
00000040: c3c2 90be 23b1 853e 133f a23e 0fcf a13c
00000050: 4db5 4ebe 840a 55be 72de 0a3e 5bb6 a23e
00000060: 8feb b6be d81b dd3c 06fc aa3b ca10 453e
00000070: 0ec6 0ebe 8f10 06bd b84a 9dbe 4f2d 563e
00000080: 719b 4fbe 9397 4ebe 2383 48be 0be6 dbbd
00000090: c270 683d 1a70 1abc 1846 b7be 5dec c03d
000000a0: 1d65 54be 9e3e a03e ef06 8abe 0cca abbe
000000b0: aad7 8b3e a1c7 66be 9f9d a0be 321f 6cbd
000000c0: 4b2f 883c bf9c 78be bcd0 883e 9939 6a3e
000000d0: 55f8 853e b309 5a3e f062 073d 9e15 113d
000000e0: 00a4 0cbe 29fa 94bd da66 e03c eb48 283c
000000f0: 9230 10be 5586 57be 46f9 8a3e ac82 4d3d
00000100: 453b afbe 256d 46be 5b8f b93e 814e 42be
00000110: f0f5 833e 3f63 b2be 99f1 8abe cbeb ac3e
00000120: cee7 c2bd 34a1 c2bb b578 20bd ba93 80be
00000130: 32a9 813e 5ec8 39be 37e2 4a3c 1c8b b6be
00000140: 4a5a 9abd 710a 7ebc 5529 843e 4069 0b3e
00000150: c537 943e d479 91bd 50f2 9dbe 20e0 d9bd
00000160: faa2 8fbd d1c8 a23e d2de 68be 292f 813e
00000170: 14f8 5b3e 5faa 5ebe 508e 7dbe 89e6 1fbe
00000180: c0af 19be f13f 8bbe 1720 bbbe 9335 b23d
00000190: 325f cd3d d716 8fbe 202b 8c3e 7c2c 12be
000001a0: fcbf eebd bf1f 913d 3202 953e 9b02 a5be
000001b0: dcec 9fbd 37d5 e43d 3eb0 a1be d8d1 973e
000001c0: 3087 133e 6f6c a63e 382a f6bc 61a3 343e
000001d0: d698 80be 59f8 b43e 6f86 c23d 89f0 493e
000001e0: a83f 5cbe e6ef 86be 9edf a4be 8e12 b0be
000001f0: 0946 a63b d603 c9bc 286e b3be 3117 b13e
00000200: 12f1 2ebe 65d6 9bbe f6cf 29be 2baf a03e
00000210: 20ee a83d 6d13 4cbe f848 2ebe a620 7bbe
00000220: 2edc f73d a5f8 7c3e 8647 49be 45fc b93e
00000230: 5327 a73e 65f2 ff3d b450 25bc b268 8d3e
00000240: 1be9 d83d 464e aabe a6d7 82be 2d17 483e
00000250: f980 e93c 8664 b43e a0dd 89be 6844 91be
00000260: 40d9 d5bd 8207 69be 318c 933e ced5 073d
00000270: ff7c 05be 119e 57bd 3a8a f73c ee42 8ebe
00000280: c139 243d 0fc2 7cbe a5d4 703d b785 0a3e
00000290: 4eba 6bbe 5c0c 54be a7e1 1cbc a127 993e
000002a0: a167 3f3e f59c b9bd 0e35 a93e 1297 c83d
000002b0: ad2d bb3e fa85 883e eabc 85be fb6f bb3c
000002c0: 4de8 6c3e 0f8e 9d3d 1edf f33d 7fa3 9f3e
000002d0: ae96 8ebe 6fd2 fe3d 1957 f8bd 9188 20be
000002e0: 43db ad3e 9a2f 8a3e a104 7d3e 7268 153d
000002f0: 4c69 96be ed12 ae3e b869 d03d 901b 1fbd
00000300: cb4e 93be d569 dbbd 9012 a8be 320e 983e
00000310: e19e a53e cdc7 933d acd4 a13e 0fb5 75be
00000320: 1b56 5abe 714b 383e 8ab0 be3e e43d 75be
00000330: 5d5a 9dbe 8517 043e 2165 eb3d bf08 883e
00000340: d7ef 663d 06d8 c1be d2af 193e b196 3cbe
00000350: 4117 483e 3d81 8fbe 40c9 95be 0838 0a3d
00000360: ef14 80bd 314c b3be 02ec 3ebe 99af 9ebe
00000370: 8c2b db3d 30a1 cd3d 9316 f3bd 60b0 a1be
0.050556805 0.0475665 0.137767 -0.3560274 -0.18182714 0.24197786 -0.08404109 -0.26921627
-0.06583347 -0.0408073 -0.106915385 0.19434136 0.0010339005 -0.08289599 -0.12585397 -0.29238644
-0.2827359 0.26111707 0.31688747 0.019752054 -0.20186348 -0.20804793 0.13561419 0.3177975
-0.35726592 0.026990816 0.005218032 0.19244686 -0.1394274 -0.032730635 -0.30721068 0.20915721
-0.2027414 -0.20175008 -0.19581275 -0.107372366 0.05674816 -0.009426141 -0.35795665 0.09420083
-0.20741697 0.31297773 -0.26958415 -0.33552587 0.27312976 -0.2253709 -0.31370255 -0.057646938
0.016624114 -0.24278544 0.26721752 0.22873534 0.26166025 0.21292762 0.03305334 0.035421006
-0.13734436 -0.07274277 0.027392793 0.010271291 -0.14081028 -0.21047337 0.27143306 0.050173447
-0.34224907 -0.19377573 0.36242184 -0.1897526 0.25773573 -0.34841344 -0.2713745 0.33773646
-0.095168695 -0.005939627 -0.039177615 -0.25112706 0.25324398 -0.1814284 0.012383035 -0.35653007
-0.075367525 -0.015505419 0.25812784 0.13614368 0.289488 -0.07103315 -0.30848932 -0.106384516
-0.07013507 0.31793836 -0.22741249 0.25231293 0.21481353 -0.21744679 -0.24761319 -0.15615286
-0.1500845 -0.2719722 -0.3654792 0.08701625 0.10027923 -0.27947113 0.27376652 -0.14274782
-0.11657712 0.07086133 0.29103237 -0.3222855 -0.07808849 0.1117348 -0.31579775 0.29652286
0.14407039 0.32504603 -0.030049428 0.17640449 -0.25116605 0.35345724 0.094982974 0.19720663
-0.21508658 -0.26354903 -0.32201856 -0.34389156 0.005074267 -0.024537962 -0.3504498 0.34588006
-0.17084149 -0.30437008 -0.16583237 0.31383643 0.08248544 -0.19929285 -0.17020023 -0.24524173
0.12102543 0.24704225 -0.1965619 0.3632528 0.3264719 0.12497405 -0.010090042 0.2761894
0.10591336 -0.33262843 -0.25555152 0.19540091 0.028503882 0.35232943 -0.269269 -0.28372502
-0.10441828 -0.2275677 0.28817895 0.033162884 -0.13035963 -0.05264098 0.030217279 -0.27785438
0.04009414 -0.24683402 0.058796544 0.1352757 -0.23020288 -0.2070784 -0.009575284 0.29913047
0.18691875 -0.0906314 0.3304829 0.097944394 0.36558285 0.26664716 -0.26120692 0.022880545
0.2313549 0.07693111 0.119077906 0.31179425 -0.27849334 0.12442481 -0.121259876 -0.15677096
0.33956346 0.26989442 0.24708797 0.03647656 -0.2937721 0.33998814 0.10176414 -0.038844645
-0.28771052 -0.10713545 -0.32826662 0.2969833 0.32347777 0.07215843 0.31607568 -0.2399485
-0.21321909 0.17997529 0.37244064 -0.2394939 -0.30733004 0.12899597 0.11493898 0.26569173
0.056381073 -0.37860125 0.15008476 -0.18416859 0.1954012 -0.28028288 -0.29255104 0.03374484
-0.06253993 -0.35019067 -0.18644717 -0.30993345 0.10701665 0.1004051 -0.1186954 -0.31579876

row_embedding.1.bias f4 [32]
00000000: 659c 52bd 5d6e 833e 686a e13d 77c7 bcbe
00000010: 4dcb a53d 8899 f1bd 3e53 9d3c d051 dbbd
00000020: a4a5 1d3e e1df 56be 1ffd b2be 5900 d3bc
00000030: 022d a23e 5749 1b3e 7176 b13e a8cd d83d
00000040: 0c9c 24be 9e3f 783c c5d8 f3bd 09b2 9f3e
00000050: f98e 8f3e 5f2f e3bc cc61 5b3e 61ec cebd
00000060: d1a8 a43e dd74 543e 97f2 16be ba48 003e
00000070: 6a2d 97be 081b 48be 671f b33c 8753 5dbe
-0.05141868 0.25670138 0.110066235 -0.3687093 0.08095417 -0.11796862 0.019204732 -0.10708964
0.15395218 -0.2098384 -0.3495874 -0.025757002 0.31674963 0.15164696 0.34660676 0.10586101
-0.16075152 0.015151886 -0.1190658 0.31190518 0.28038767 -0.02773255 0.21424025 -0.101036794
0.32160047 0.20747705 -0.14740978 0.12527743 -0.29526836 -0.19541562 0.02186556 -0.21613894

row_embedding.3.weight f4 [32, 32]
00000000: 9251 fdbd 5499 21bd 6c19 933d d2d3 413c
00000010: badd cf3d 3497 913b 7ed7 273e 1047 153e
00000020: 3df3 d03d 5425 15be c605 143d 83fb 003d
00000030: 2abc ce3d 22b0 c4ba 29e7 0c3e 773a 203e
00000040: 6b16 1d3e c24d 1c3d 71ee f4bd de43 da3d
00000050: 164e 1c3d c72c 5c3d 2a44 353d ae2a eb3d
00000060: 1990 26be dd0f da3d ce65 033e 331c 1a3e
00000070: 6128 933c 697c 1cbe 3cb3 163e c5ba e7bc
00000080: 70e1 0b3d a8d7 e93c f2da 36be 7144 013c
00000090: 8346 8fbc 1501 52bd 58fa 9f3d b3c2 303d
000000a0: c88c bfbd 82df 22bd a88c d9bd 38eb 24be
000000b0: 7738 b03d 5fe0 ca3d 5aa0 203e 03a3 29be
000000c0: 9ca4 41bd 62d1 053e 1017 973d 563c 0bbe
000000d0: a225 013e 4d02 fa3d 93b0 043e 09d2 f93d
000000e0: c86a 0f3e 677c 92bd fd46 0f3e cee6 de3d
000000f0: 7e31 09be c4a9 6e3d 70ed 0bbe 967d bfbd
00000100: eba1 6d3c 1b6a 263e 69a3 d9bd 0d1e 17be
00000110: e68e 2d3e 8165 adbd a1d8 27be 3532 90bd
00000120: aefe f23d db43 013d 6812 253e 497f d23d
00000130: 3d78 263c c9e7 253e 1c58 a5bd ec4b ae3d
00000140: 7193 18bd 25bb 9fbc bc76 343d 5cf3 ff3d
00000150: 892d 1b3e 607f 4d3d a365 68bd fd6b 2e3e
00000160: 0c4a 053d 5814 693d d272 633d 87cf 29be
00000170: 4030 293e 7740 283e c2d9 033e 7387 1d3e
00000180: 3421 a4bd 5649 1dbd 5487 1ebe bbc7 663d
00000190: 5b63 3f3d c448 713d 7343 2d3e cb39 c6bc
000001a0: 36fe b33d aa94 ec3d 02b0 debd 300f 03bd
000001b0: b809 023e d956 d4bd 7b09 7a3d bf8a b43d
000001c0: 44a4 a0bc 8175 2c3e 0da8 8dbd 0886 923d
000001d0: bd45 25bd 60a3 22be a262 943d cd1f 8bbd
000001e0: a122 5fbb 6830 1d3e 6d77 a3bd fb75 87bd
000001f0: 6200 34be 994c 02be 76cc f0bd 5975 353d
00000200: 7856 b63d 8c8d eebc a643 eabd 4e77 073c
00000210: b853 ac3d add7 86bd 8945 e5bd 22b7 bd3d
00000220: 3689 30be 8af9 943d 7a72 0d3e 5960 31be
00000230: 9fbd 49bd 63c4 32bd 7a6b 213c 3e36 3cbe
00000240: 3761 e2bd 69cc d2bd a238 8a3d b55d 7e3d
00000250: 9d1b 0fbe 4622 343d ecb6 123b 1aa0 813d
00000260: b60d 8cbd bf4b ef3d 3d0d a7bd 7e57 0dbe
00000270: 950b d33d af46 32be bda1 f03d 544c 4dbd
00000280: 0ab8 b2bd 6740 23be 90c6 07bd 7dda 7a3d
00000290: 1362 66bd 5d18 273e 9bcf bd3d 500f 783d
000002a0: 38bb 28be 71ed 7b3b 7dbe 01be 0925 3d3d
000002b0: ba1f 21bd 121a e03d 47fc 21bb d58a 27be
000002c0: b1bd c6bd 67d4 33be a80f 37bd 9b2a ae3d
000002d0: 15f3 13be 6faa f03d 8b8c 32be 6645 58bc
000002e0: 01ef 1b3a bd4f b5bd 1270 1cbe 493b c6bd
000002f0: ba17 13be f937 a4bc dce4 db3c 85d0 27be
00000300: 66b3 a53d 0d63 033e 33f4 f83d e69c 33bd
00000310: 43c2 0f3e 78bf 773d 6aa1 01be c950 adbd
00000320: 3859 1bbe 0d0f a63d f9d0 053e fe5e 8e3d
00000330: 61ed fabc 53e6 15be 2aa6 2dbe 5af9 ba3c
00000340: ab60 d3bc 78be 0d3e cad2 97bd 3f32 0f3e
00000350: c6c1 b83d 6ec3 db3d b120 253d ded2 0a3e
00000360: 02d7 bfbd 20dd 43bd 34c7 b7bd 3ee5 623c
00000370: ef51 293e 9847 46bd 0aaf 21bd 6099 da3d
00000380: 35be 67bd 952a 30bd e3ab eebd 01b8 03be
00000390: 9413 1a3d 0d53 0d3e 0b9d 0e3e 41da cabd
000003a0: 6878 b43d 65c9 d8bd a76e 32be 427c 29bb
000003b0: 504d 1d3e 6fe6 95bc f478 16be 912a 75bd
000003c0: 9044 8e3d 98df 083e b265 33be 7fc4 353d
000003d0: 90f6 7f3d ec62 293d 156c 31be d254 7ebd
000003e0: 2b52 ccbc f1be c7bd 8935 ffbd ce31 023d
000003f0: fd1b 88bc b07c 51bb 4d19 fdbd 2e57 123e
-0.12369074 -0.039452866 0.07182583 0.011830287 0.10149713 0.0044430736 0.16390797 0.1457789
0.10202644 -0.14565021 0.03613832 0.03148986 0.10094483 -0.0015006105 0.13760056 0.15647303
0.15340583 0.038160093 -0.119595416 0.10657476 0.038160406 0.05375364 0.04425446 0.1148275
-0.16265906 0.10647557 0.12831804 0.1504982 0.01796359 -0.15281834 0.1471681 -0.0282873
0.03415054 0.028545216 -0.17856959 0.007889853 -0.017489677 -0.051270563 0.07811421 0.04315443
-0.09353024 -0.039763935 -0.10622531 -0.16105354 0.0860452 0.09906077 0.1568617 -0.1656609
-0.047276124 0.13068154 0.07377446 -0.13597235 0.12612012 0.1220747 0.12957983 0.12198264
0.14005578 -0.07152634 0.13991924 0.10883866 -0.13397786 0.05826737 -0.13664794 -0.093501255
0.014503936 0.16251414 -0.10626871 -0.14757557 0.16949043 -0.08466626 -0.16391231 -0.07040826
0.118649825 0.031558853 0.16120303 0.10278184 0.010160503 0.162017 -0.08073446 0.08510575
-0.037249986 -0.019498417 0.044058546 0.12497589 0.15154089 0.050170302 -0.056737553 0.17033382
0.03254132 0.056904167 0.055529423 -0.16583072 0.16522312 0.16430841 0.12876037 0.15383701
-0.080141455 -0.038400017 -0.15481311 0.05634282 0.046725612 0.058907285 0.16920261 -0.02419748
0.08788721 0.11551793 -0.108734146 -0.031996906 0.1269902 -0.103681274 0.061044198 0.08815526
-0.019609578 0.16841699 -0.06916819 0.07154471 -0.04034971 -0.15882635 0.07245375 -0.06793175
-0.003404774 0.15350497 -0.07981763 -0.066143 -0.17578271 -0.12724532 -0.11757748 0.044301365
0.08903211 -0.02912023 -0.11438684 0.008268191 0.084144056 -0.06584106 -0.111949034 0.092634454
-0.17239842 0.07274158 0.138132 -0.1732191 -0.049253102 -0.04364432 0.009852285 -0.18380067
-0.110536985 -0.102928944 0.06749083 0.062101085 -0.13975377 0.043978 0.0022386862 0.06329365
-0.06838553 0.11684369 -0.08156822 -0.13802907 0.103049435 -0.17409776 0.11749599 -0.05012162
-0.08726509 -0.15942536 -0.03314835 0.061243523 -0.056245875 0.16317888 0.09268113 0.06056148
-0.16477668 0.0038441087 -0.12670322 0.046177898 -0.039336897 0.109424725 -0.002471702 -0.16361554
-0.097041495 -0.17561494 -0.044692665 0.0850422 -0.14448197 0.11751258 -0.17436425 -0.01320014
0.0005948395 -0.088530995 -0.15277126 -0.096792765 -0.1436452 -0.020046221 0.026842527 -0.16388138
0.08090858 0.12830754 0.12155952 -0.043850802 0.14038949 0.060485333 -0.12659231 -0.08462674
-0.15170753 0.081083395 0.13067998 0.06951712 -0.03063077 -0.14638643 -0.16957918 0.022823978
-0.02580293 0.1384219 -0.07413252 0.13984011 0.09021334 0.10730635 0.04031438 0.13557002
-0.09367181 -0.047818303 -0.08973542 0.013848601 0.16535161 -0.04840812 -0.03947357 0.10673785
-0.05657788 -0.04300936 -0.116538785 -0.1286316 0.037616327 0.13801213 0.13927095 -0.0990491
0.08812028 -0.10585288 -0.17425023 -0.0025861417 0.15361524 -0.018298356 -0.14694577 -0.059855048
0.06946671 0.13366544 -0.17519262 0.044376846 0.062491 0.041354105 -0.17326386 -0.06209261
-0.024941524 -0.09753216 -0.12461383 0.03178578 -0.016614908 -0.0031965189 -0.12358341 0.14291069

row_embedding.3.bias f4 [32]
00000000: 8a86 de3d 9295 57bd 54c0 77bd 133b 2fbd
00000010: fc37 583c 03ea 04be 2338 d83d ed36 113e
00000020: 835c 81bd ee00 d23d 2f10 083e be4c ca3d
00000030: 168d 9ebc aba4 323d 1772 d63d 2c79 d83d
00000040: 63b2 c53d e9c8 95bd d8f8 473d b7c3 c23d
00000050: abd1 0abc 112d 063d abb6 5f3d 8787 853d
00000060: 986b d93d 8cbb 2b3d 9dd4 283e 2012 65bd
00000070: 0ded da3b 3f9c 02bc e225 18be 43b8 f53d
0.10865505 -0.052632876 -0.060486153 -0.042780947 0.013196941 -0.12979893 0.10557582 0.14181109
-0.06316473 0.102540836 0.13287424 0.09877919 -0.019354384 0.04361407 0.1047098 0.10569987
0.09653165 -0.07313711 0.0488213 0.09509986 -0.00847284 0.032757822 0.054617565 0.065199904
0.10616225 0.041926906 0.16487356 -0.05592549 0.0066810907 -0.007971822 -0.14858201 0.11998036

col_embedding.0.weight f4 [7]
00000000: 0186 7f3f e002 803f 75e7 7f3f 9d04 803f
00000010: 2796 7f3f 10d0 7f3f e714 803f
0.9981385 1.0000877 0.9996255 1.0001408 0.9983849 0.99926853 1.0006379

col_embedding.0.bias f4 [7]
00000000: 38d0 f3ba 8d30 a6b8 9984 9fb9 a858 68b9
00000010: 7996 653a d1e2 5c3a 647a 263a
-0.0018601483 -7.92454e-05 -0.00030425636 -0.00022158271 0.0008758079 0.0008426132 0.0006350635

col_embedding.1.weight f4 [32, 7]
00000000: fc57 b43e e486 c23b ee96 063a f4ed 31be
00000010: db38 8d3e 9cfa b9be 6440 cdbd 360b eebd
00000020: 9e74 84be 4c10 28be ff3a 3e3e 3388 5abe
00000030: 06aa a73b 9ff8 71be 2bfa 49be 7914 553c
00000040: 9db2 8a3e 5537 35be 2e36 fd3c 1d7d b83d
00000050: d7a1 573e 1054 913e 789c 903e 1ccb d3bd
00000060: efbc 773d 13ec 9dbe 2404 93bc d855 353e
00000070: 3715 173e d2b5 a43e 5a06 973e a5a7 36be
00000080: 4c07 87bd a962 80be f499 babe 060d c1be
00000090: ec24 1a3d 92fb 91bd 7869 773e af4b 6abe
000000a0: f88f 2c3e ab45 f7bd 172d 09bd a8f3 b93e
000000b0: a3ff be3e 4957 513e 1007 6c3e 4fe8 143d
000000c0: 2c15 303e 92eb 9e3d 1792 fcbd d593 3d3e
000000d0: fcd3 b5be 301d 903d 7d68 943d 1e05 063e
000000e0: 2380 e1bd 09f2 38be 576d bebd 11d1 5bbc
000000f0: bb50 65be 323b 1ebe 62ba 363e 2cca 9a3d
00000100: fb92 a6be 89bc 5cbd 0f08 cbbc 2126 273e
00000110: 3b2e 9a3e 834f c1be cd81 ba3e 71f3 953c
00000120: 0a9d b93e 523c 03be 421b 92be 88ca 73be
00000130: 5d2b 70be 9426 b73e 2ca9 073e 92cc 88be
00000140: e306 86bd acdc 31be 8cde 6cbe 2fbb 623e
00000150: f820 963e 9b30 99be 7150 c63c 6360 7d3e
00000160: fd00 263e c1bb 95bd 66ab 69be 25df a5be
00000170: e80f 56be 2bd1 6d3c 902f 09bd 369e 4b3e
00000180: 90d4 293e f5f7 1bbc 5b2e 74bc 2d38 3f3e
00000190: cc80 3ebe 3585 5d3e 06d9 a23e 5e77 633e
000001a0: a35a ae3d 65c8 3d3d 44f3 ddbc ea8c 4a3e
000001b0: ff32 843e 2fa9 d7bc 24a5 023e 0e12 91be
000001c0: 1899 413e 27fd 8b3e 26dd 15ba 44af 1dbe
000001d0: 52e4 bfbd 01f4 fbbd 4449 afbe e6a8 a73e
000001e0: 9997 4dbc 1fc6 a3be 03b2 833e 2ad0 a23e
000001f0: 31b1 9f3e edf5 6bbe 5ba8 83be 34d1 9d3d
00000200: 3eb1 8f3d 715d 62be 2a11 893d ae61 813e
00000210: 32c9 8dbe 6862 be3e 09c8 b2be f3a3 adbd
00000220: 9773 64bd eec9 b23d fb69 3ebc b2d1 803e
00000230: c0e3 8a3d 62bf 23be 1c3a bebe bd3c 95be
00000240: 7a38 533e 10fe 213e 5887 503e 6b08 30bd
00000250: 39d0 dd3d 4681 a4be 7205 323c 25cc 1fbe
00000260: 3e81 81be b161 b8bd 0bdb 663e e36b 6c3e
00000270: cfac 693d 5953 82bd ebb5 31be e5ae 71bc
00000280: 8308 3ebd 10d0 663e a908 eb3d 86b1 92be
00000290: 3307 a4be c0b7 ff3d 5685 e73c ebae 0c3e
000002a0: 2d62 2cbe 4a02 253e d5e4 9cbe e363 b03d
000002b0: 2359 83be e194 98be a3b9 a1bd 7d5a 8b3e
000002c0: 58a7 84be 7eb3 88be 63b7 3e3e 8ca5 b4be
000002d0: 6976 0abc 834f 87be 8d7f 893e 7159 65bd
000002e0: bb8f c9bd ea86 69be 7736 ca3c d4e0 133e
000002f0: 7dbf ca3d a03e 493e cc10 be3e 8718 3d3e
00000300: 5129 a03e 7776 9d3d 6426 6ebe 3b0d 97be
00000310: 9893 b73e 0ff7 0bbe 7231 a73e ca62 553d
00000320: b63b 06be 7403 64be 3e32 b2be ee0b 8f3c
00000330: 96a7 cd3d a421 babb 4dca 9bbe 1e2a 903e
00000340: 1387 873e d42f b73e 779b b23e ba38 d3bd
00000350: fd62 44be e44e 363e 20f8 2b3c f3e4 103e
00000360: a02b 5dbd 443e 333e 414c bbbe 1c9a b03e
00000370: 9590 223e 0e8d b93e 588a ab3b d2fb 743e
0.35223377 0.0059364904 0.00051341846 -0.17375928 0.2758244 -0.36324012 -0.10022047 -0.11623232
-0.25870222 -0.16412467 0.18577193 -0.21341018 0.005116704 -0.23629998 -0.19724338 0.013005369
0.27089396 -0.17696889 0.030909624 0.090082385 0.21057831 0.28384447 0.28244376 -0.103414744
0.060482915 -0.30844173 -0.01794631 0.17708528 0.14754187 0.32169968 0.29497033 -0.17837389
-0.06593189 -0.25075272 -0.36445582 -0.3770525 0.037632868 -0.07128061 0.24161327 -0.22880433
0.16851795 -0.12073835 -0.033490267 0.36318707 0.3730441 0.20443453 0.23049569 0.03635436
0.17195576 0.07759775 -0.12332552 0.18513425 -0.35513294 0.07036817 0.07246492 0.1308789
-0.11010768 -0.18061079 -0.09298199 -0.0134165445 -0.22394077 -0.15452269 0.17844537 0.075580925
-0.32534012 -0.05389074 -0.024784116 0.16323139 0.30113396 -0.37755975 0.36427155 0.018304558
0.36252624 -0.12815979 -0.2853642 -0.23807728 -0.23454042 0.3577162 0.13248128 -0.26718575
-0.06544282 -0.17369336 -0.2313177 0.22141717 0.29322028 -0.29919896 0.02420828 0.247438
0.16211314 -0.07311202 -0.2281929 -0.32396808 -0.20904505 0.014515202 -0.033492625 0.19884571
0.16584992 -0.009519567 -0.01490363 0.18673773 -0.1860382 0.21632846 0.318062 0.22213504
0.08513381 0.04633369 -0.027093537 0.19780317 0.25820157 -0.02632579 0.12758309 -0.28334087
0.18906057 0.27341577 -0.00057168526 -0.1539889 -0.093697205 -0.123023994 -0.34235585 0.32746047
-0.012548351 -0.31987092 0.2572175 0.31799442 0.31189874 -0.23043032 -0.25714383 0.07705918
0.07016228 -0.22105958 0.06692727 0.25269836 -0.27692562 0.37184453 -0.3491824 -0.084785365
-0.055774298 0.08729921 -0.011621947 0.25159985 0.06781721 -0.15990975 -0.3715371 -0.29147902
0.20627013 0.15819573 0.2036413 -0.042976778 0.10830731 -0.32129878 0.010865556 -0.15605219
-0.25293916 -0.09003008 0.22544496 0.2308803 0.05704957 -0.063635536 -0.17354552 -0.014751171
-0.046394836 0.22540307 0.11476261 -0.28651065 -0.32036743 0.124862194 0.028261822 0.13738601
-0.16834326 0.16114154 -0.30643335 0.08612802 -0.25653943 -0.29801086 -0.078967355 0.27217475
-0.25908923 -0.26699442 0.18624644 -0.35282552 -0.008451083 -0.2642785 0.26855126 -0.0559935
-0.098418675 -0.22805372 0.024684174 0.14441234 0.09899805 0.19652796 0.3712219 0.18466388
0.31281522 0.07688611 -0.23256832 -0.29502282 0.35854793 -0.13668464 0.3265491 0.052096166
-0.13108715 -0.22266942 -0.34803957 0.017461743 0.1004173 -0.00568028 -0.3042778 0.28157133
0.2647024 0.35778677 0.34884235 -0.10313554 -0.19178386 0.17803532 0.010496169 0.14149837
-0.053996682 0.17504221 -0.36581615 0.34492576 0.15875466 0.3624043 0.0052349977 0.23924187

col_embedding.1.bias f4 [32]
00000000: f62a 88be 8788 30be fc19 9fbd 03f5 92be
00000010: 9d4a 9abe ca18 8b3e 55c7 48be 3c96 24be
00000020: 0a39 23bd 2521 15bd 9c16 c63d 1e93 8a3e
00000030: 834d 6d3d abb1 2ebe af85 ff3d e4e7 c0be
00000040: 0565 b53e a9ec be3b 31a3 53be 28f8 25bd
00000050: 2cd6 d4bc a734 a9be c15d 8e3e 0219 9d3d
00000060: 2507 b5be 0f1d 9c3e ca7c 8fbe 8996 a7bd
00000070: 7b00 e83d a270 b53e 4c3b 52bd c4c0 ab3e
-0.26595277 -0.17239581 -0.07768628 -0.28702554 -0.3013505 0.2716735 -0.19607289 -0.16072935
-0.03984932 -0.036408562 0.09672281 0.27065367 0.05793525 -0.17059962 0.1247667 -0.37676919
0.35428634 0.005826552 -0.20667721 -0.040519863 -0.025981031 -0.33047983 0.27805904 0.076707855
-0.35357013 0.3049092 -0.28024894 -0.08183009 0.11328217 0.35437495 -0.05132608 0.33545506

col_embedding.3.weight f4 [32, 32]
00000000: 262d 0b3e cfde 023e 56ee e2bb 2239 10be
00000010: df93 9d3d 096e 02bd ae48 2bbe 19c1 0b3e
00000020: 1467 0d3e a2c5 183e b8b1 c13d a694 e13d
00000030: e217 15be 0a52 d4bb 13b9 6e3d 3c06 953d
00000040: 7e19 63bd c696 17bd 97af 06be 064c 21be
00000050: fd5d e83b 8e71 303e 6f8b f4bd 0e19 283e
00000060: db0f 23be 1efd f6bd 8cb9 0fbe 8fa6 01be
00000070: e7e5 143e 91a6 3f3b be20 45bd 04d4 2e3e
00000080: 79f5 b13d 8fed 0cbe 97b1 1a3e 1ff7 b5bd
00000090: ecd6 c13d d2c5 4b3d 4518 693d 2e5a 49bd
000000a0: 68ed 253e 0040 99bb dab2 d73d e872 f53d
000000b0: aac2 1dbe 0f48 f8bc 8b9e cfbd 7eaa 9cbc
000000c0: d7e3 18be bbb0 93bc daf6 ebbd 5780 8bbd
000000d0: 482b c53d 34d7 70bc 8163 273e 5312 743d
000000e0: 3ca8 6a3d 71c4 3a3d d5dd 34be e4b2 2d3e
000000f0: ab32 eabb b40c 30be 5bdf d4bb 9bbe b5bd
00000100: 06f8 73bd 3add 37bd c838 bcbc 518b d8bd
00000110: 3630 d3bd 87ef 7e3d 124e 203e 9a99 333e
00000120: 4d02 a4bd ef2a 22be 41bb 0fbd fbdd 65bc
00000130: 23f0 1ebe 39e3 06be ef17 39bc 0178 903d
00000140: 94f3 783a 74b2 57bd 6e4e c5bc c4f7 253e
00000150: a938 993d 8374 cbbd a000 d73d 84cf f43d
00000160: fe4b c6bd f128 0cbd 9289 e03d 26e7 983b
00000170: 560c e73c fd53 20bd 946b 2bbd 6b34 ac3d
00000180: bcfc d93d 5ea2 35bd 41a8 b2bc 6dfc d53c
00000190: 9132 a13d 0089 2fbe 75d1 90bd 8ed6 d63d
000001a0: 85de 1e3e 65a6 2dbe 729a 273d c3b8 40bd
000001b0: 1404 843d 3fce 13bc d921 9abd 85df 14be
000001c0: e7d6 4fbd db29 153d 3d95 4dbd d554 f53b
000001d0: bc1d 7a3d 8ed6 eb3d 114f f63d d5dc 813d
000001e0: 3e7c e73d 45cd 1bbe b05f f43d e5b7 c3bc
000001f0: be47 f63d 967f 0b3e 56ff 0f3e 1189 873d
00000200: 0cfb d83d 75bc 763d 3160 013d d654 b6bd
00000210: 4f81 163c b9cd 103e 1035 14bd 4b16 ebbc
00000220: 334f 093e d4de ca3d 20fa a7bd 8737 24be
00000230: c2d1 973c 1498 09be a186 06be 04e3 123e
00000240: b555 d23d 2f8b 28be 706f bbbd ea53 c73d
00000250: 32d7 05be af48 963d 656b fb3c a963 fabd
00000260: d789 d73b b18b 713d 73e7 2d3e 6bd2 d73d
00000270: cdaa cf3c d4d0 8dbd 1cda 23be 1e80 bb3c
00000280: c91c d83c d332 8d3d ce80 67bd 61d4 07be
00000290: 8582 e53d 20f3 bb3d fb03 5fbd 08c0 073e
000002a0: c540 1c3e 14ef d53d b47f babd 94f6 edbd
000002b0: c38f ccbd 5d40 133e 5a43 ecbd 4bb9 4c3d
000002c0: d304 3ebd ba9c d0bd 67aa 0d3e 37cf 343d
000002d0: f284 9abd dfc6 42bd 7452 003e ae83 97bc
000002e0: 44f7 4a3d cb4a 0dbe e1c6 8abd 09e3 42bd
000002f0: e8ec 153e 0aa0 21be 8957 b33d afd7 353c
00000300: 8e89 3d3d 0f5d 7bbd 9f8e ef3d 43f8 56ba
00000310: 3ff1 e6bd 2f0c 82bc f953 a23d e969 f83d
00000320: 04c7 313e 83b8 243e b1df ebbc 4da1 c2bd
00000330: 7a03 a73c 5be3 22be 1bb9 013e 7637 b33b
00000340: 8042 303e fe59 95bd 6331 cc3d 80e7 1f3e
00000350: 44cf e6bc d69b cf3d 5674 ecbd eb24 223e
00000360: 9256 2e3d 6ac2 103e 20ba b43c 3f1b 6bbc
00000370: dd9a 443d 7475 f83d c20a ec3d 443c f8bd
00000380: 5804 f8bd 9f03 af3d 9cc9 2b3e dcf5 153e
00000390: c8d4 d0bd 2ed9 c83c 0194 74bc 94ed 19be
000003a0: ceae 113e 420a 273e 7c7e 3d3d 6dbd e4bd
000003b0: cbe3 91bc d3cf fa3d 9bde cabd 51ec 3dbd
000003c0: a2df b0bd 54f0 0b3c 77a6 9cbd 3000 f5bc
000003d0: 911a 4dbd b7a8 d83d 8351 afbd 86ec 423d
000003e0: 2910 0f3e 0776 123e 40da 1cbe 03d3 5cbd
000003f0: 7d9e bebd 7427 0cbe dcbb 653d d5d7 f93d
0.13591442 0.12780307 -0.0069253845 -0.14084294 0.0769422 -0.03184322 -0.16726944 0.1364788
0.13808852 0.14919141 0.09457725 0.110146806 -0.14559892 -0.0064795064 0.05828197 0.0727658
-0.055444233 -0.037009023 -0.1315292 -0.15751657 0.0070912824 0.17230818 -0.11940657 0.16415808
-0.15924017 -0.12059997 -0.14035624 -0.12661193 0.14540826 0.0029243568 -0.04812693 0.17073065
0.08689398 -0.13762496 0.15106808 -0.08885025 0.09464821 0.049749203 0.05690791 -0.049158268
0.16203845 -0.004676819 0.1053216 0.11984807 -0.1540629 -0.030307798 -0.101376615 -0.019124266
-0.14930664 -0.018028608 -0.115216926 -0.06811588 0.09627396 -0.014699746 0.16346551 0.059587788
0.057289347 0.045597497 -0.17662747 0.16962773 -0.0071471534 -0.17192346 -0.0064963526 -0.08874246
-0.059562705 -0.044888712 -0.022976294 -0.105734475 -0.1031193 0.06224015 0.15654781 0.17539063
-0.08008251 -0.1583669 -0.03509069 -0.014029975 -0.15521292 -0.13172616 -0.01129721 0.07054139
0.0009496745 -0.05266042 -0.02408525 0.16207796 0.0748151 -0.09934332 0.10498166 0.11953643
-0.09682463 -0.034218732 0.109637395 0.004666227 0.028204124 -0.039142597 -0.04185064 0.084084354
0.106439084 -0.0443443 -0.021808745 0.026121343 0.07870973 -0.17142105 -0.07071201 0.10490142
0.15514572 -0.16958006 0.040918775 -0.047051203 0.0644609 -0.009021341 -0.07525987 -0.14538391
-0.050742056 0.03641687 -0.050191153 0.0074869194 0.061063513 0.115155324 0.120267995 0.063409485
0.11302994 -0.15215023 0.119323134 -0.023891399 0.120254025 0.13622889 0.14062247 0.0661794
0.105947584 0.06023832 0.031585876 -0.089029 0.009186103 0.14140977 -0.036183417 -0.028697154
0.13409118 0.09905782 -0.082020044 -0.16036807 0.018532638 -0.1343692 -0.13137294 0.14344412
0.102702536 -0.16459344 -0.091521144 0.09732802 -0.13070372 0.07338082 0.030690858 -0.1222604
0.006577711 0.05897111 0.16982822 0.10538181 0.025349999 -0.069245964 -0.16001171 0.02288824
0.026380913 0.068944596 -0.056519322 -0.1326461 0.11206535 0.09177232 -0.054447155 0.13256848
0.15259083 0.10445991 -0.09106389 -0.11619297 -0.09988358 0.14380021 -0.11536284 0.049981397
-0.04639132 -0.10186143 0.13834535 0.044142928 -0.075448886 -0.04755294 0.12531453 -0.018495407
0.049552217 -0.13798063 -0.067762144 -0.0475798 0.14641154 -0.15783706 0.087569304 0.011098786
0.04627376 -0.061368044 0.11697125 -0.0008200446 -0.11276483 -0.01587495 0.07926173 0.12129576
0.17361075 0.1608601 -0.028793188 -0.09503422 0.0203874 -0.15907042 0.12668268 0.005469258
0.17212868 -0.07292555 0.09970357 0.15615654 -0.028175004 0.10137145 -0.11545627 0.15834396
0.04256303 0.14136663 0.022061408 -0.014349758 0.04799925 0.121317774 0.115254894 -0.1212087
-0.121102035 0.085456125 0.16776127 0.14644569 -0.10196835 0.024517622 -0.014927865 -0.15032035
0.14226839 0.16312507 0.046263203 -0.111689426 -0.017808815 0.122466706 -0.0990574 -0.046367947
-0.086364046 0.008541185 -0.07648938 -0.029907316 -0.050074164 0.10579055 -0.08560469 0.047588848
0.13971008 0.14302836 -0.15317631 -0.053912174 -0.09307573 -0.13686925 0.05608736 0.1219937

col_embedding.3.bias f4 [32]
00000000: 5eb1 3cbd 162e 1a3e 8788 c7bd e74a f53d
00000010: c0b6 c2bc 58be 1c3e 4b6b d63d 185e 013d
00000020: a361 123e 5295 113e 9d16 073e 4da0 073e
00000030: 8033 acbd 4c9e 213e b775 8a3d 1429 a6bc
00000040: 8256 c0bd 4418 acbd 1195 ec3d 919f 123e
00000050: a816 bb3d 6fc2 c93d 3fb1 fcbd 0902 1b3e
00000060: 7eff 0d3e 2833 86bd b9e1 0a3e c060 bf3d
00000070: 18c5 bc3d b615 f63c b7f0 b7bd 1794 9a3d
-0.046067588 0.15056643 -0.097428374 0.11977177 -0.023768783 0.15306985 0.10469683 0.031583875
0.14295058 0.14217117 0.1319222 0.13244744 -0.0840826 0.15783042 0.067607336 -0.02028326
-0.093915 -0.08403066 0.1155187 0.14318682 0.09135181 0.098515384 -0.123384945 0.15137495
0.13866994 -0.06552726 0.13562669 0.093446255 0.0921728 0.03003965 -0.089814596 0.07547777

conv_col_to_row.feature_module_left.0.weight f4 [32, 32]
00000000: 693b c53c 2462 1fbe 9b7a 54bb 12b0 2e3d
00000010: bcef 04bd 0879 efbd e655 8e3c e232 5ebd
00000020: a1af 223e 8c24 263c 7579 98bc 7fda 033e
00000030: 9f79 07bb a403 4fbd da07 96bc 3794 46bc
00000040: 7210 3cbc 1c9a 0ebe 32cc 033e 442e 023d
00000050: 57aa bfbd eb9b d9bd 24da a63d 99ff 9a3d
00000060: ef7e c03d 937b dabd 5353 26be 3504 07be
00000070: 1d45 ff3d 3a4f 47bd abae 64bd 80a2 d1bd
00000080: 6df7 043e f586 923d 10db d13d 098b cfbd
00000090: d977 05bd d1c9 233e 96f1 cfbc aab0 33be
000000a0: be6d babd c34e 9b3b d454 ed3d d175 fb3c
000000b0: 5360 1e3d 910e 01be c6bd fe3c 7490 763c
000000c0: e989 013e bbf2 06be 6a7e d13c 07bf dabd
000000d0: a519 1cbd 98c8 ac3d 663e 36be e847 dc3d
000000e0: 1039 29be 8f25 1c3d d5be a23d b343 d43d
000000f0: 3d40 c6bd b8be dcbd 1033 b63d 0b7c 87bc
00000100: 34cd e83d e439 ddbd 5bfd db3c 555e 893d
00000110: 187c b73c d710 033e f28e 05be fa57 2a3e
00000120: 5bb7 eebd 93c0 d9bd 64b5 033e 4a2d ae3c
00000130: 7050 2cbe 80ce 2abe cebc a7bd dbf1 293e
00000140: f7ef 253d 3fbd 05be e967 2f3e 4fb5 8b3d
00000150: 14a4 a0bd 02be e6bc ec20 4dbd a4c2 333e
00000160: 3fb9 c73b 9518 563d 34d8 0fbe 23ed bc3c
00000170: d7c4 8cbd ee46 8a3d abf0 d33c 2d3d 32bc
00000180: 93af 50bd c6e8 7cbd 9e27 473c 5f8c fd3b
00000190: 2714 6ebc 4ba9 513d 3fc0 95bc 86f3 90bd
000001a0: 4410 0f3e 239c c2bd 6024 ffbd 8fa1 1a3e
000001b0: 912a de3c 693b 0abd 2281 c5bd ab96 09bd
000001c0: 58e6 08be 9d22 223d a5bc 9f3c db2b 983d
000001d0: a3f2 18bd 9872 2cbe b6f2 093e e11a 26be
000001e0: 771c ebbd c87c cbbb eca3 d0bd 85b7 bfbd
000001f0: 4a27 f93d 5558 2fbe 2fc9 babc ba45 b73d
00000200: 2fdf 19be 6665 a03d e1bf 243e 5760 b03a
00000210: 1620 be3d a437 e5bd 7cda 063e 7b1c 22be
00000220: b045 803d 15c9 d03d f168 acbd ff21 d1bd
00000230: dd13 293d c89a 263e 48f1 a2bd a13f 053e
00000240: cf37 a6bd 9db7 d9bb a41d 083e bbd2 15be
00000250: caf6 38be e1db 01bd a484 033d 9f64 b93c
00000260: f8c0 33be 2f33 a5bd 4608 293d 7cb8 debc
00000270: 6a87 1fbe ae0a 633d d406 3b3d 7af6 c5bd
00000280: 1862 d93b 373f 0cbe 39c6 223e 0f19 a13d
00000290: 975a 6d3c 7798 a73d def1 553d be89 ea3d
000002a0: 2499 13be 1f36 0abd 0393 883d 2932 17be
000002b0: 026a 0dbd c0ef 80bd e7fc a23c 9f12 01be
000002c0: 407d 2a3e 7500 03be 4d03 82bd 275b d4bd
000002d0: 51a4 ef3d 50ff f63d faa8 563d 4483 f93d
000002e0: c3e7 283e b2a4 0cbc 2e0f cabd 6205 113e
000002f0: e5ec 863d 9d59 0ebe 202b 003c 8bbc 313e
00000300: de7a 4cbd f919 1fbe 4bc3 273e 0d62 e53c
00000310: ce96 943d 7a6c 27be 9445 183e d3ce e5bd
00000320: b726 e83c 6e7e ab3d 4e17 723c 3d16 32be
00000330: e5e3 d03c 6588 9fbd c389 3e3d c748 9e3d
00000340: 57ce be3c 5b5c cbbc b3ba 5fbd 249e fa3d
00000350: eeeb 9ebd 9ad8 6e3d da9b cebd 0179 90bd
00000360: 07c5 e03c 6bc7 0cbe 3b1d 473d 323f 4cbd
00000370: 481b 2d3e 8e03 843b 993d 15be d0fc ff3d
00000380: 0eb8 00be f474 163c 69fe 12bc 2d86 fcbd
00000390: 2944 133e 755a cebd 6379 da3c 676d 153e
000003a0: 0672 0a3e e3dd 1fbe 70ed 153e 609f 9cbd
000003b0: 0f60 96bb 4349 c7bd 2d8d 873c d554 cc3d
000003c0: 33fb 05be e471 36bb 38ee 2e3e 3cdf e83d
000003d0: 6951 20bd 8c42 18be e9bf 3b3b 3a67 85bd
000003e0: 98b3 b53d 0e54 f13d 89e3 edbd 8e78 cbba
000003f0: 5f00 fe3d fab3 a83d 3bc9 18be a8f5 17be
0.02407618 -0.15564781 -0.0032421711 0.042648382 -0.03245519 -0.11693007 0.017374944 -0.054247744
0.1588731 0.010140549 -0.018612603 0.12876318 -0.0020671857 -0.05054058 -0.01831429 -0.012120298
-0.01147853 -0.13925976 0.12870863 0.031782404 -0.093586616 -0.10625442 0.08147076 0.07568283
0.09399211 -0.10668101 -0.16242723 -0.13185199 0.12464354 -0.04865954 -0.05583064 -0.102360725
0.1298501 0.07154647 0.10246861 -0.10133941 -0.032585 0.15994956 -0.025383752 -0.1754786
-0.09102963 0.0047396137 0.11588445 0.030695828 0.03866608 -0.12603213 0.03109635 0.015049089
0.12650265 -0.13178532 0.025572974 -0.10680967 -0.038110394 0.08436698 -0.1779724 0.107559025
-0.16525674 0.038121756 0.079465546 0.10364475 -0.09680221 -0.10778564 0.08896458 -0.01653864
0.113672644 -0.108020574 0.026854208 0.067074455 0.02239804 0.12799393 -0.1304281 0.16635123
-0.11656066 -0.10632434 0.12862164 0.02126183 -0.1682756 -0.16680336 -0.081903085 0.16596167
0.04051205 -0.13060473 0.17129482 0.06821691 -0.078437954 -0.028166775 -0.050080225 0.17554718
0.006095081 0.052269537 -0.14047319 0.023062294 -0.06873482 0.0675181 0.025871595 -0.010878843
-0.05094869 -0.061745428 0.012155442 0.007737681 -0.014531172 0.05118684 -0.018280147 -0.070776984
0.13971049 -0.09502437 -0.1245811 0.15100692 0.027119907 -0.033748064 -0.09643771 -0.033590954
-0.13369119 0.03958379 0.019499132 0.0743024 -0.03734077 -0.16840589 0.13471493 -0.16221191
-0.114800386 -0.0062099434 -0.101875156 -0.093611754 0.12165697 -0.1712354 -0.02280101 0.08948846
-0.15026544 0.0783184 0.16088821 0.0013456446 0.09283464 -0.11192253 0.13169283 -0.15831177
0.06263292 0.10194603 -0.084184535 -0.10211562 0.04127871 0.16269982 -0.07956177 0.13012554
-0.081161134 -0.006644203 0.13292557 -0.14631169 -0.18062893 -0.031703833 0.032108918 0.022630988
-0.1755408 -0.08066403 0.041267656 -0.027187578 -0.15579 0.055430107 0.04566081 -0.09666152
0.006634008 -0.1369599 0.15895928 0.07866108 0.01448693 0.08183377 0.052232616 0.114520535
-0.14413887 -0.03374302 0.06668665 -0.14765228 -0.034524925 -0.06295729 0.019895984 -0.1260476
0.16649342 -0.12793143 -0.06348286 -0.103689484 0.11701263 0.12060416 0.052407242 0.1218324
0.1649466 -0.008584188 -0.098661765 0.1416221 0.06588153 -0.13901372 0.007822782 0.1735708
-0.049921863 -0.15537252 0.16383092 0.028000856 0.07255326 -0.16349974 0.14870292 -0.11221089
0.028338773 0.08373724 0.014776064 -0.17391296 0.025499294 -0.07789687 0.0465181 0.07728725
0.02329175 -0.024824312 -0.05462141 0.12237194 -0.07759844 0.058312036 -0.1008832 -0.0705433
0.0274377 -0.13747947 0.04861186 -0.049864955 0.16904938 0.004028744 -0.14574279 0.12499392
-0.12570211 0.009183157 -0.008971789 -0.123302795 0.1438147 -0.10075847 0.02666921 0.14592515
0.13520059 -0.15611987 0.14641356 -0.07647586 -0.004589088 -0.097307704 0.01654681 0.09977118
-0.13084106 -0.002783888 0.1708306 0.113707036 -0.03914014 -0.14869136 0.0028648323 -0.065138295
0.088721454 0.1178361 -0.116156645 -0.0015523599 0.124024145 0.08237453 -0.14920513 -0.14839804

conv_col_to_row.feature_module_left.0.bias f4 [32]
00000000: a6c7 d93d 9a76 033e 3d8e dfbd d9ca 863d
00000010: 6471 a3bc 4a74 e63d 93e9 b1bd 1b43 323e
00000020: dd85 74bd 72b7 14be fff8 dbbd 8647 1bbe
00000030: 38c1 173d f84e 903d c30e 28be 827e 1bbe
00000040: 9d25 b43d ed39 053e 5867 d13c 4162 1a3d
00000050: fd7d 3f3d b79a b03d d5ca 253e 2108 b4bd
00000060: 2c87 ba3d 5f2f 58bd 3e3c 003e 78cc 2ebe
00000070: 4ee6 d0bd f577 8cbd 87be 69bd 70f2 2bbe
0.10633783 0.12838212 -0.10915802 0.06581659 -0.01995153 0.11252649 -0.08687129 0.17408411
-0.059697974 -0.14523104 -0.107408516 -0.15164003 0.037049502 0.07046312 -0.16411881 -0.15184978
0.08796237 0.13010378 0.025561973 0.03769136 0.04675101 0.086232595 0.16190656 -0.08790613
0.09107813 -0.05277955 0.1252298 -0.17070186 -0.10200177 -0.068588175 -0.057066467 -0.16791701

conv_col_to_row.feature_module_edge.0.weight f4 [32, 1]
00000000: ea1e 0b3f b007 1c3f 8741 c03d 7ac7 aa3e
00000010: f879 ae3d 55a3 e83e 5ffa 3abf 8fd3 a8be
00000020: 935e 02bf 7fe3 543e ebfc 68bf c5c6 56bf
00000030: 50be 53bf c312 083e 165b 08bf ecab b43d
00000040: 8dc2 7ebd 3830 15be 3274 313f 7e0a 283f
00000050: 58a2 3abf a3d9 193c 92f8 50bf 7b02 30bf
00000060: 8125 2f3f 5122 d13e f79d 29bf 06e6 263f
00000070: 101b 1ebe 298e 153e 93a1 87be 35d1 6b3f
0.54344046 0.6094923 0.09387498 0.33355314 0.085193574 0.45437112 -0.73038286 -0.32973906
-0.5092556 0.20789908 -0.9101092 -0.8389705 -0.8271227 0.13288407 -0.53263986 0.08821854
-0.062197257 -0.14569175 0.69317925 0.6564101 -0.72903967 0.009390268 -0.8162929 -0.68753785
0.684166 0.40846494 -0.6625666 0.6519474 -0.15440011 0.14605011 -0.2649046 0.921161

conv_col_to_row.feature_module_right.0.weight f4 [32, 32]
00000000: c4bf 80bd befd a03d a115 d0bd b209 f23d
00000010: dd70 b1bd 36e3 f2bd aa1e 5dbc 75a4 f43c
00000020: 2d58 df3b 5200 d4bd 56f0 c0bd 0802 743d
00000030: b152 cfbd eb34 a53b 1196 9b3d d149 923c
00000040: e1a2 363e 9027 263e 005a aa3c c746 0a3e
00000050: a71c 2bbe e771 153d 2971 313e 4925 78bd
00000060: 1bb0 8a3d 0afb 213d 9a91 0c3e 07cb c9bd
00000070: 0bc4 efbd 0f53 c33b 2694 e6bd 2d10 173e
00000080: 9574 1f3e f87d bc3d d732 96bc 8c40 343e
00000090: c533 1fbe 0c39 333e 0bf3 9fbd 0e62 163e
000000a0: 36d3 debd 3050 c3bd abef dabd 9604 b73d
000000b0: 1d18 0d3d 2e13 d03d 1831 b83b 83db 6fbd
000000c0: 098c 0c3e df48 10be 7f24 9a3d 21d1 19be
000000d0: 6788 283e 4cd2 3e3c 8879 74bd d314 0a3e
000000e0: 5c2a 19be f5b2 c9bd cae6 11be e326 6cbd
000000f0: ca73 9bbd 88a8 c93d 00de 18be 32c3 873b
00000100: 50bf 0d3e c91b 1dbd 1aa8 76bd da83 a2bd
00000110: 8c16 b73d 2cdb e73d 6dab 07be 940e bfbc
00000120: 2bbc 19be 4e41 57bd 4bfb a53c 4215 c53c
00000130: 230d 033e 2e05 f63d a1bb 533d cb94 24be
00000140: cb84 3cbd d7c3 333e 3a46 67bd 0bce 323d
00000150: 330d df3c 0ccf c73d fbe3 b8bd 5188 c9bd
00000160: d7ea 39bd 0422 ee3d ca6d 25be 388c d1bc
00000170: 53b7 d33d be03 103e 1808 153d 138f b2bd
00000180: 9e31 233d c08c 08be 9b84 30be 8735 093e
00000190: 6ea3 33be 4eb4 06be 3ee5 273e bc47 813d
000001a0: 9ba3 dbbd 4762 02be d97c 1abe 0bcf 06bd
000001b0: e610 dbbd fb77 a73d 4bb8 f8bd 964f 8cbd
000001c0: 1220 5abd 4c5d 5f3d 7178 9cbc 312b f8bc
000001d0: 29a9 a3bd ba11 2ebe f95c 2d3e 232e 143e
000001e0: 9bae 793d 03b2 42bc d5fb 013e 37e5 3fbd
000001f0: bdf1 ab3b 54fa e53d 2f38 dfbd 123d e83d
00000200: a7f4 aebd 5f62 09be bd13 303e 1d26 94bd
00000210: f7a8 96bd 6cdd 6fbd af83 fd3c 9a5a 6ebc
00000220: 3b8a 18be 4ff2 25be 579e d63d cee6 963d
00000230: b94e 0a3e c172 27be 5c53 9a3c 3a42 113e
00000240: 6790 a4bd c034 f53b 4fd4 e53a 500d 203e
00000250: 2d62 0dbe 17cd 0cbd e634 833d 0890 bb3b
00000260: 9063 1a3d 558f dfbd ece8 17be 4408 213e
00000270: ad9b 503c 37be 8ebd 8b99 76bb d448 4b3d
00000280: 86c1 a33d 4355 1d3e ba0b 2bbe 6b17 10be
00000290: 4ce4 7c3d 2d00 bebd 0e9c 583d c260 313e
000002a0: ae76 92bd 889a 1c3e 498a 883d 6ea6 ce3d
000002b0: 14ee 273e f4fb 2f3e 27a3 e23d 8e0e b93d
000002c0: 4a00 7c3d c802 133e 5ad4 2c3e 52ac 16be
000002d0: 2a18 013e d05e e03d da10 bb3d 6bce af3d
000002e0: 11fd b5bd 11f7 b93d f8fc e33d 1b02 343d
000002f0: 9bd0 1a3d a024 f8bd b106 22be 2a8e 70bd
00000300: 2d04 1e3e 477d fb3b 480b 6c3d db02 803d
00000310: 7467 c2ba 719a c4ba e41e 77bc b904 eabd
00000320: 9bf7 a73d c0ec cbbd 31eb 583d ae72 9bbd
00000330: c927 5ebd 42dd 48bb ec83 a3bd 3e43 f2bd
00000340: 3d0f 0dbe 9fd5 723d fbbc febd 5acc 2ebe
00000350: 32d0 d6bd 9c8b 093c 272b 0e3c 7477 f13b
00000360: 30fd 4e3d 5cd5 aabd 7e21 ca3d 0c83 d53b
00000370: 4a18 0d3e 33b9 dd3c 3a0d 743d 76d2 febd
00000380: 9a5c 0c3e 7f16 aabc 7a63 98bd a29c 163e
00000390: 742d 5fbd 6afc e03d 8ba2 153c f581 1f3b
000003a0: 4f2f 193e c810 cabd ab3a dd3c 6f2c a2bd
000003b0: 6184 e03d 768f 0b3d 3753 c23d 78e9 da3d
000003c0: d297 64bd 8a68 d1bd d27c 3cbd 1674 a73c
000003d0: b16a ccbd 8e1d d93d fdff c1bd 48c5 a93d
000003e0: 189e 19be bd53 b5bd 3d62 d63c 865d 33be
000003f0: 56d8 163e caf1 1a3e 4639 a13d 61d0 dabc
-0.062865764 0.078608975 -0.101603754 0.118182555 -0.08664105 -0.11859743 -0.01349608 0.029863575
0.0068159313 -0.103516236 -0.094208404 0.05957225 -0.10123194 0.0050417087 0.07596982 0.017857464
0.17835571 0.1622603 0.020794868 0.13503562 -0.16710149 0.03648558 0.17328323 -0.060582433
0.06771871 0.03954605 0.13727418 -0.098531775 -0.11707314 0.005960829 -0.11258726 0.14752264
0.15571816 0.09203714 -0.01833479 0.17602748 -0.15547092 0.1750223 -0.07810029 0.14685842
-0.10880129 -0.09536779 -0.10690244 0.089364216 0.034446824 0.10159908 0.005621087 -0.058558952
0.13725294 -0.14090298 0.07526492 -0.15021183 0.16458283 0.011646818 -0.059686214 0.13484506
-0.14957565 -0.098485865 -0.14248195 -0.057654273 -0.075904444 0.09846598 -0.14928436 0.004143142
0.13842511 -0.038356576 -0.060218908 -0.07935305 0.08939847 0.113211006 -0.13248987 -0.023322381
-0.15013187 -0.052552514 0.020261427 0.024057988 0.1279798 0.12012707 0.05169261 -0.16072385
-0.04602508 0.17555176 -0.056463458 0.04365353 0.027227974 0.09756288 -0.09027859 -0.098404534
-0.045389976 0.11627582 -0.16155162 -0.025579557 0.10337701 0.14063928 0.036384672 -0.087186955
0.03984224 -0.13334942 -0.17238085 0.13399325 -0.17542812 -0.13154718 0.16396043 0.0631251
-0.10724565 -0.12732802 -0.15086688 -0.032912295 -0.106965825 0.08177181 -0.12144526 -0.06851117
-0.05325324 0.054532334 -0.0191004 -0.030294033 -0.07991249 -0.1699895 0.16929998 0.14470725
0.060957532 -0.011883262 0.12693723 -0.046849456 0.0052473233 0.11229387 -0.10899388 0.11339773
-0.085427575 -0.13416432 0.1719503 -0.07233832 -0.07356446 -0.058560774 0.03094658 -0.014547968
-0.1489648 -0.16205715 0.1047942 0.07368241 0.13506593 -0.16352369 0.018838577 0.1418542
-0.08035355 0.007483095 0.0017534586 0.15630078 -0.13806982 -0.034375276 0.06406574 0.005723957
0.037692606 -0.1091601 -0.14834946 0.1572581 0.0127324285 -0.06969874 -0.003762814 0.04963
0.07995896 0.15364556 -0.16703692 -0.14071433 0.06174116 -0.09277377 0.0528832 0.17322066
-0.071515426 0.15293324 0.06667001 0.10090338 0.16399413 0.17185956 0.11066275 0.09035979
0.061523713 0.1435653 0.1687788 -0.14714172 0.12606874 0.10955584 0.091340736 0.08584293
-0.08886159 0.09080327 0.11132234 0.04394732 0.037796598 -0.12116361 -0.15822865 -0.05872933
0.1543128 0.0076748463 0.057627946 0.06250545 -0.0014831857 -0.001499964 -0.0150830485 -0.11426682
0.08201524 -0.09957266 0.05295867 -0.07590233 -0.05423716 -0.0030649458 -0.079841465 -0.11829232
-0.13775344 0.059285756 -0.12438389 -0.17070141 -0.10488929 0.008395102 0.0086772805 0.0073689763
0.050534427 -0.08341476 0.098696694 0.006515866 0.13778797 0.027065849 0.059582926 -0.12442486
0.137072 -0.02076268 -0.07440849 0.14708188 -0.054486707 0.10985644 0.009132992 0.0024338935
0.14959453 -0.09866482 0.027005514 -0.07918631 0.10962749 0.034072362 0.09488528 0.10689062
-0.05580885 -0.10225017 -0.046017475 0.020441096 -0.09981287 0.1060134 -0.09472654 0.082895815
-0.15001714 -0.088538624 0.02616989 -0.17516145 0.14730963 0.15131298 0.07872252 -0.02671069

conv_col_to_row.feature_module_final.0.weight f4 [32]
00000000: 8189 7f3f 07e2 7f3f 0000 803f c1d8 7f3f
00000010: 0000 803f 5ef4 7f3f d0c7 803f 84d7 7f3f
00000020: a0bf 7f3f fd4f 803f 190a 803f 3701 803f
00000030: a418 803f b012 803f 93f3 7f3f ec83 7f3f
00000040: f25f 803f a8f9 7f3f b213 803f 9814 803f
00000050: c364 803f 2d19 803f d9d1 7f3f f703 803f
00000060: a97d 803f 0815 803f cc65 803f 0000 803f
00000070: 0000 803f 2d98 7f3f 0000 803f 0000 803f
0.9981919 0.99954265 1.0 0.99940115 1.0 0.9998225 1.0060978 0.99938226
0.9990177 1.002441 1.0003082 1.0000371 1.000752 1.0005703 0.9998104 0.9981067
1.002928 0.9999032 1.000601 1.0006285 1.003075 1.0007683 0.9992958 1.000121
1.0038348 1.0006418 1.0031066 1.0 1.0 0.99841577 1.0 1.0

conv_col_to_row.feature_module_final.0.bias f4 [32]
00000000: ecd6 8eba 6643 3aba 0000 0000 d74f 37ba
00000010: 0000 0000 9a3b 51b9 167c ac3a 8178 ebb9
00000020: 9408 13ba 3b85 f83a a4aa 2e3a 5513 5eb7
00000030: 6f88 553a 30c2 0fba 4540 823a 3d7d 8aba
00000040: 329c 2b3a 4269 3db9 65a0 fb38 3ac9 eb3a
00000050: 576c 0d3b 6aef a738 9458 0b39 b3d9 b5b9
00000060: 9f8c 513b 4e4e 8439 50f4 f63a 0000 0000
00000070: 0000 0000 ac0e 0dbb 0000 0000 0000 0000
-0.0010897792 -0.000710538 0.0 -0.0006992793 0.0 -0.00019953997 0.0013159539 -0.00044912475
-0.0005608883 0.0018960604 0.00066630007 -1.3236732e-05 0.00081456354 -0.0005483953 0.0009937367 -0.0010565888
0.0006546407 -0.00018063656 0.000119984885 0.0017989047 0.0021579468 8.007775e-05 0.00013289071 -0.0003468521
0.0031974686 0.00025235343 0.0018841121 0.0 0.0 -0.0021523638 0.0 0.0

conv_col_to_row.feature_module_final.2.weight f4 [32, 32]
00000000: d0b5 84bc 4184 3e3d 3ae5 e3bd a40b 753d
00000010: 5087 82bd 288c 963d 8abc a43c 2793 953d
00000020: f5b2 18be 541d 24be 899c 97bd 1c63 a5bd
00000030: 4b70 023e bf49 053e 9ea6 23bd 95ad 7c3d
00000040: b3c8 24be 3b44 6ebc 0f07 dc3d 804c b8bd
00000050: 9cba 2b3e faf9 4ebd 4cc9 023e c6b8 c53d
00000060: bc10 7c3d a6ef cfbd d4e5 cc3d 8c03 d0bd
00000070: 8f0f 133d 4f72 0abe 3cf2 a3bc d775 363d
00000080: 870f 11be cbbe 2ebe 3563 80bc e79e dd3c
00000090: aec8 923d 7d8e 043e a830 80bc 33b1 b8bd
000000a0: 3bcd 7cbd 3a40 e43d c312 f7bd 0466 e5bc
000000b0: 15c8 4abd b4ae 063d ed0d c23d 41fc 2b3e
000000c0: dca2 59bd 7592 173e 17f8 56bd 3b3f 2b3e
000000d0: b167 29be ce97 083e b34a f43d 4a9f 97bd
000000e0: 7ce3 0e3e a17e a0bd eabf d63d eee7 0f3d
000000f0: 9c51 8abd 2d3c f2bd f3aa a33c e4cd bb3d
00000100: 9f2c 30be 1e90 aebd b7c7 f8bd 08ee 833d
00000110: bc24 c0bc 7b11 7abd f1be 0e3e 7a46 143d
00000120: 8cfe fa3d d1cd 07be 8f5a 003e 0743 47bd
00000130: f607 7c3c 2181 52bd 36bf 23be 9a20 01be
00000140: 3688 c63d 051b f43b 9f1d 31be 4abd 74bd
00000150: 3185 d6bd 1aa3 7d3d f287 053e 79a3 c33d
00000160: 75f2 2dbe 7254 383d c5dd 8b3c f5f6 d03d
00000170: 4623 01bd b2dd 073e 19e4 33bd fe9f 013c
00000180: 2fec ed3d 68cc 7d3c 3a11 19be 2a97 1fbd
00000190: 0755 c8bd d750 b5bc 0817 83bd ff5d bc3d
000001a0: 45c2 2c3e 68d2 e13d 197f 063e a833 1ebd
000001b0: b197 0fbe e9e1 67bc 0fa0 cbbc bb5e e23d
000001c0: 49bd 103e b933 1b3e c5c2 9dbd 1fd7 85bd
000001d0: 5832 873d 43a7 36bc 4286 b03d 554b 1fbe
000001e0: 1f43 f13d b718 8a3d a340 84bc a022 9c3b
000001f0: a113 a93d 41ff 23be 3661 163d a1ec d83b
00000200: 9d4d 023d a7f8 d7bd 9b13 233e 1ed9 0a3e
00000210: 3d18 4a3d 6c3a 27be d35f 85bd 2695 24bd
00000220: 7ddc 92bd af53 1e3e 30b5 193e b1ec 123e
00000230: 403e d03d 8f74 993d 653d e33d a8b3 bfbd
00000240: 3dd1 c5bc 9668 b73d 47a5 c43c a61e d33d
00000250: 0598 913d 3c40 cbbd ca8b 0dbe 17f1 a6bd
00000260: 214e e73d 1bab b9bd 6157 50bd 58c3 e4bd
00000270: 0c72 b43c 1ef2 d23d 2654 1fbd 485d adbd
00000280: d7a2 cf3d 3cc7 5fbd a378 593b bed5 d1bd
00000290: a14e 553d e159 f3bd 1687 253e 0a18 23bc
000002a0: 7732 273d eb3c 0ebe 60db c53c 6091 233e
000002b0: 5578 16be 4513 fc3d f322 b1bd a7a9 b3bd
000002c0: b29c 313d c37e 333e 1a9b 01be 7b4a 573d
000002d0: 6be4 293e f10a 37bc dfc7 e8bd 6cae 99bd
000002e0: 87a6 423c e7a7 7cbd 8ca7 b9bd 88ae 16be
000002f0: 1cb8 253e 3428 24be 6d5c 1a3e 181a 143d
00000300: 95c8 f2bd d245 7a3d 588a ae3d 7215 0c3e
00000310: 1522 48bd 43a6 a73d a417 bcbd 989d f3bc
00000320: 016e 14be 6a95 033a 0855 34be a9e5 1abe
00000330: 037e 09be 6caa 0bbe a777 f13d b675 60bc
00000340: f62b 51bd dbe1 28be 7b32 313e 4df8 f5bd
00000350: c674 9539 913e 873d 7092 22be 27b8 d43b
00000360: 8e4b 8d3c 0216 ba3d cf64 8e3d b84d 093e
00000370: ef16 1abe 3f80 50bd 1adf 6a3d 9026 01be
00000380: 63d3 a1bd e542 183e e612 9f3c 3925 ba3c
00000390: 8311 593d 375b 06be 39c5 31be d4c3 033e
000003a0: e7f3 0a3e 467e e23d a188 233e c73c ed3d
000003b0: 5aeb 98bd 7a7e f8bd 8ba9 0f3d 2725 033e
000003c0: bde4 113e 707a b53d f552 df3c 557b cd3d
000003d0: 9983 55bd 4657 ce3d ecf7 e83c db85 dd3c
000003e0: 196b e3bd b751 08be e075 373e fef5 003e
000003f0: 49d4 873d f1be b5bc a2bd 20be af0c 293e
-0.016199976 0.046512846 -0.11127706 0.059825554 -0.06373465 0.073509514 0.020109434 0.07303458
-0.14912017 -0.16026813 -0.074029036 -0.08075544 0.12738149 0.13016413 -0.03995382 0.06168898
-0.16092186 -0.014542635 0.10743534 -0.08998966 0.16770405 -0.050531365 0.12772101 0.09654383
0.061539397 -0.10153131 0.10004774 -0.101569265 0.03590351 -0.13520168 -0.020012967 0.044545975
-0.1416608 -0.17064969 -0.015672306 0.02705331 0.07167183 0.1294498 -0.015648201 -0.09018173
-0.06171916 0.11145063 -0.120641254 -0.028002746 -0.04950722 0.032881454 0.094753124 0.16795446
-0.05313383 0.14801963 -0.05248269 0.1672334 -0.16543461 0.13339159 0.1192831 -0.07403429
0.13953966 -0.078366525 0.104858235 0.035133295 -0.06753847 -0.11827884 0.019978976 0.0917013
-0.17204522 -0.08523582 -0.121474676 0.06441885 -0.023455016 -0.061051827 0.13940026 0.036200024
0.12255582 -0.13262106 0.12534545 -0.048647907 0.015382757 -0.05139268 -0.1599091 -0.12610093
0.09693949 0.00744951 -0.17296456 -0.059750833 -0.10474623 0.061923124 0.1304014 0.09552664
-0.16987021 0.04500241 0.017073521 0.10203353 -0.03152778 0.13268164 -0.043918703 0.00791168
0.11617314 0.015490629 -0.14947978 -0.03896252 -0.09781843 -0.022133274 -0.06400877 0.09197616
0.16870983 0.1102646 0.13134421 -0.038623482 -0.1402271 -0.014152982 -0.024856595 0.11053225
0.14134707 0.1515645 -0.07703165 -0.06535172 0.06601399 -0.011148277 0.08619358 -0.1555608
0.117803805 0.06742995 -0.016144102 0.00476487 0.08255697 -0.1601534 0.0367138 0.0066200052
0.0318123 -0.105454735 0.15925448 0.13559386 0.04933952 -0.1633088 -0.06512418 -0.0401813
-0.07170961 0.1546161 0.15010524 0.14348103 0.10168123 0.07492935 0.110956945 -0.093604386
-0.024147624 0.08955495 0.024004592 0.1030858 0.071090735 -0.09924361 -0.13822857 -0.08151453
0.11294199 -0.09065839 -0.05086458 -0.11170071 0.022027038 0.103000864 -0.03889861 -0.084650576
0.10138481 -0.054633364 0.0033183477 -0.10245846 0.05207694 -0.118823774 0.16164812 -0.009954462
0.04081961 -0.13890426 0.024152458 0.15973425 -0.1469434 0.12308363 -0.08649244 -0.08772593
0.043362327 0.17528825 -0.12656823 0.052561264 0.16591041 -0.011172042 -0.113662474 -0.075039715
0.0118805235 -0.06168356 -0.0906516 -0.14715016 0.16183513 -0.16030961 0.1507432 0.036157697
-0.11854664 0.061101742 0.08522481 0.13680056 -0.04886063 0.08186009 -0.091841966 -0.029738232
-0.14495088 0.0005019518 -0.17610562 -0.15126671 -0.13426976 -0.1363923 0.117904 -0.0136999395
-0.051067315 -0.16492407 0.17304413 -0.1201025 0.00028506498 0.066037305 -0.15876174 0.006491679
0.017247941 0.09086229 0.069528215 0.13408554 -0.15047811 -0.050903555 0.057341672 -0.12612367
-0.07901647 0.14869268 0.019418191 0.022722827 0.052995216 -0.13120733 -0.1736039 0.12867671
0.13569604 0.11059241 0.15970089 0.11583858 -0.07466765 -0.121334985 0.0350738 0.12807141
0.14247413 0.08861244 0.027261237 0.10033289 -0.052127454 0.1007524 0.02843853 0.027041366
-0.11104412 -0.13312422 0.1791606 0.12593839 0.06632287 -0.022185775 -0.15697339 0.16508745

conv_col_to_row.feature_module_final.2.bias f4 [32]
00000000: 2d37 3b3d d1ac ccbd d4fd ecbc 9bce 96bc
00000010: 58c3 27be 270a 1ebe 4776 133e 3a01 393d
00000020: a457 273e c460 36bc 3fac 86bd 8d0b 253e
00000030: 9429 113e ce8e 293e f0a1 2b3e 7753 513d
00000040: 25a9 d8bd 70bc 1cbe 8584 81bd f2bf 063d
00000050: 6f1e d83d 7270 1dbd 1704 eb3d b2a1 693d
00000060: 9ab6 ecbd f822 823d d2f7 27ba 13b3 623b
00000070: 9fec c23d 3ac2 7bbd b00b 233e f6ad b7bd
0.045706917 -0.099938996 -0.028929628 -0.018409064 -0.16383111 -0.1543356 0.14400588 0.045167185
0.16342026 -0.011131469 -0.06575822 0.16117688 0.14176017 0.16558382 0.16760993 0.05110499
-0.10579137 -0.15306258 -0.06324104 0.032897897 0.1055268 -0.038437314 0.114753895 0.05703897
-0.11558266 0.06354326 -0.00064074725 0.00345916 0.09517788 -0.061464526 0.15922427 -0.08968727
