GNN/ResultsGCNN/actor_77.pt (torch, 83520 bytes, 43 tensors)

row_embedding.0.weight f4 [7]
0	0x3f80a032	1.0048888
1	0x3f804539	1.0021125
2	0x3f7fd4c9	0.9993406
3	0x3f802b89	1.0013286
4	0x3f7f965b	0.998388
5	0x3f808982	1.0041964
6	0x3f800658	1.0001936

row_embedding.0.bias f4 [7]
0	0xbb3ef78b	-0.0029139246
1	0xba84817c	-0.001010939
2	0xba827d93	-0.0009955637
3	0xbae8e249	-0.0017767634
4	0x3adeb27f	0.0016990452
5	0xbb6b7057	-0.0035925114
6	0x3a56484e	0.00081742264

row_embedding.1.weight f4 [32, 7]
0	0x3d50c6a2	0.05097068
1	0x3d455e69	0.04818574
2	0x3e0ce7cf	0.13760303
3	0xbeb645c8	-0.35600114
4	0xbe3a2a32	-0.18180159
5	0x3e77d012	0.24200466
6	0xbdac1042	-0.084015384
7	0xbe89f00e	-0.2694096
8	0xbd86001b	-0.06542989
9	0xbd2661aa	-0.040620483
10	0xbddb161d	-0.10697577
11	0x3e46f7d6	0.1943048
12	0x3a805229	0.0009790111
13	0xbdaaab25	-0.083334245
14	0xbe00bde1	-0.12572433
15	0xbe95a6d5	-0.29228845
16	0xbe90aaf0	-0.28255415
17	0x3e85a456	0.2610194
18	0x3ea23071	0.31677583
19	0x3ca2df78	0.019881949
20	0xbe4e93aa	-0.20173517
21	0xbe555e2a	-0.20836702
22	0x3e0a4af5	0.13505156
23	0x3ea2c69b	0.3179215
24	0xbeb6ed53	-0.3572794
25	0x3cdd00f6	0.026977997
26	0x3baa8790	0.0052041486
27	0x3e452fa7	0.19256459
28	0xbe0ead5b	-0.13933317
29	0xbd067306	-0.03282454
30	0xbe9d3e6a	-0.3071168
31	0x3e5614b8	0.20906341
32	0xbe4f82eb	-0.20264785
33	0xbe4e7ed3	-0.20165567
34	0xbe486a91	-0.19571902
35	0xbddba40d	-0.107246496
36	0x3d6769a6	0.05649724
37	0xbc1e9f28	-0.0096815005
38	0xbeb717b1	-0.35760263
39	0x3dc1b05f	0.09457468
40	0xbe5407fb	-0.2070617
41	0x3ea04453	0.31302127
42	0xbe89fbee	-0.2695002
43	0xbeabc14b	-0.33545908
44	0x3e8bc866	0.2730133
45	0xbe66bdb9	-0.22533311
46	0xbea09cf2	-0.3136974
47	0xbd6bf752	-0.05760891
48	0x3c8a9eef	0.016921489
49	0xbe78f675	-0.24312766
50	0x3e88ea9f	0.26741502
51	0x3e6a38b8	0.22873199
52	0x3e85f98b	0.2616695
53	0x3e5a0ac5	0.21293171
54	0x3d076b81	0.033061508
55	0x3d111e80	0.035429478
56	0xbe0c884a	-0.13723865
57	0xbd9569a5	-0.07295541
58	0x3cdd73eb	0.027032813
59	0x3c2ce96b	0.010553698
60	0xbe0feaee	-0.14054462
61	0xbe5739e9	-0.21018185
62	0x3e8b5999	0.27216795
63	0x3d4c43d0	0.04986936
64	0xbeaf2b0e	-0.34212536
65	0xbe473e58	-0.19457376
66	0x3eb9ca3a	0.362871
67	0xbe4252b9	-0.18976869
68	0x3e83d2a6	0.2574665
69	0xbeb2891c	-0.3487023
70	0xbe8aaf29	-0.27086762
71	0x3eacd017	0.3375251
72	0xbdc3516d	-0.09537015
73	0xbbbca382	-0.0057567963
74	0xbd1fb6dc	-0.038992748
75	0xbe807b4a	-0.25094062
76	0x3e81acf1	0.25327256
77	0xbe39c8ce	-0.18143007
78	0x3c4bc73b	0.012437637
79	0xbeb6835d	-0.35647097
80	0xbd9a3b58	-0.0753085
81	0xbc7d4398	-0.01545801
82	0x3e843117	0.25818703
83	0x3e0b5bf9	0.13609304
84	0x3e940e8e	0.28917354
85	0xbd923b34	-0.07140198
86	0xbe9e1b03	-0.30879983
87	0xbdd98927	-0.10621863
88	0xbd8edb11	-0.06975377
89	0x3ea29f60	0.31762218
90	0xbe692f95	-0.22772057
91	0x3e80fc36	0.25192422
92	0x3e5bf110	0.21478677
93	0xbe5ec631	-0.21755292
94	0xbe7d6b8a	-0.24748054
95	0xbe1fc7e1	-0.15603592
96	0xbe19903e	-0.1499643
97	0xbe8b3046	-0.27185267
98	0xbebae863	-0.36505422
99	0x3db2fcaa	0.08739598
100	0x3dccdf1e	0.10003494
101	0xbe8f06a5	-0.27934757
102	0x3e8c38c9	0.27387074
103	0xbe120be0	-0.14262342
104	0xbdee2fb1	-0.1163019
105	0x3d8fce70	0.07021797
106	0x3e94fdc1	0.2909985
107	0xbea50889	-0.32233074
108	0xbd9f26d9	-0.077710815
109	0x3de59991	0.11210931
110	0xbea17f0f	-0.3154225
111	0x3e97a184	0.29615414
112	0x3e13a65b	0.14418928
113	0x3ea67365	0.32509914
114	0xbcf5ae87	-0.029990448
115	0x3e348e39	0.17632379
116	0xbe809fed	-0.25122014
117	0x3eb4f132	0.35340267
118	0x3dc269fd	0.09492872
119	0x3e49cb41	0.19706441
120	0xbe5c7cae	-0.21531937
121	0xbe870e5b	-0.2637814
122	0xbea4fe23	-0.3222514
123	0xbeb030de	-0.34412283
124	0x3b9e99ee	0.004840127
125	0xbcc7313d	-0.02431547
126	0xbeb37725	-0.35051838
127	0x3eb0e7d0	0.3455186
128	0xbe2f4833	-0.17117386
129	0xbe9bbc39	-0.3041704
130	0xbe299be0	-0.16563368
131	0x3ea0c971	0.31403688
132	0x3daa1f7e	0.08306788
133	0xbe4ba0f9	-0.19885625
134	0xbe2debfa	-0.16984549
135	0xbe7a9073	-0.24469166
136	0x3df8eec6	0.121549174
137	0x3e7d0c89	0.24711813
138	0xbe48bbf3	-0.19602947
139	0x3eb9ba50	0.36274958
140	0x3ea74f68	0.3267777
141	0x3e0039fd	0.12522121
142	0xbc24fe45	-0.010070388
143	0x3e8d5983	0.27607355
144	0x3dd88fb7	0.105742864
145	0xbeaa5d80	-0.3327446
146	0xbe82e6d4	-0.25566733
147	0x3e488ffd	0.19586177
148	0x3cebae7c	0.028769724
149	0x3eb45d62	0.35227495
150	0xbe89e6bd	-0.26933852
151	0xbe914d8f	-0.28379485
152	0xbdd5fdb1	-0.104487784
153	0xbe6919ce	-0.2276375
154	0x3e933757	0.28753158
155	0x3d0839b0	0.03325814
156	0xbe05a682	-0.13051799
157	0xbd56e707	-0.05246642
158	0x3cf94afa	0.03043126
159	0xbe8e2d57	-0.27768967
160	0x3d240ba7	0.040050175
161	0xbe7c7a15	-0.24655946
162	0x3d70c218	0.058778852
163	0x3e0ac004	0.1354981
164	0xbe6c055e	-0.23048922
165	0xbe545722	-0.20736364
166	0xbc2196c3	-0.009862605
167	0x3e9907e7	0.29888842
168	0x3e3fcb17	0.18729816
169	0xbdb92718	-0.0904066
170	0x3ea91e96	0.33031148
171	0x3dc8c6d0	0.098035455
172	0x3ebb3a42	0.36567885
173	0x3e889202	0.26673895
174	0xbe85b10e	-0.26111645
175	0x3cbafaf9	0.022824751
176	0x3e6cf5ed	0.23140688
177	0x3d9d7a57	0.0768935
178	0x3df3cb12	0.11903967
179	0x3e9f9fb6	0.31176537
180	0xbe8e9bd4	-0.27853262
181	0x3dff5f9e	0.124694094
182	0xbdf75cde	-0.1207826
183	0xbe205cae	-0.15660354
184	0x3eadbef5	0.3393475
185	0x3e8a44d8	0.2700565
186	0x3e7d2c44	0.24723917
187	0x3d161479	0.036640618
188	0xbe965400	-0.29360962
189	0x3eae2942	0.34015852
190	0x3dd14ec5	0.10220102
191	0xbd1f8c02	-0.03895188
192	0xbe93503e	-0.28772157
193	0xbddb6fd2	-0.107146874
194	0xbea813fd	-0.3282775
195	0x3e9815c1	0.29704097
196	0x3ea56498	0.3230331
197	0x3d93e41a	0.07221241
198	0x3ea1fc18	0.31637645
199	0xbe75de94	-0.24010688
200	0xbe5a7f58	-0.2133764
201	0x3e3821ab	0.17981593
202	0x3ebe7b33	0.3720337
203	0xbe74c008	-0.23901379
204	0xbe9d3412	-0.3070379
205	0x3e03cc22	0.12870839
206	0x3debe6c0	0.115186214
207	0x3e882732	0.26592404
208	0x3d67f477	0.056629624
209	0xbec1b7b5	-0.3783547
210	0x3e19e4ee	0.15028736
211	0xbe3c4664	-0.18386227
212	0x3e47f3c8	0.19526589
213	0xbe8f78df	-0.28021905
214	0xbe95c0f9	-0.2924879
215	0x3d0a7b63	0.033809077
216	0xbd800859	-0.06251592
217	0xbeb35745	-0.3502752
218	0xbe3eccbb	-0.18632786
219	0xbe9ebb70	-0.31002378
220	0x3ddb8c4d	0.107201196
221	0x3dcd660e	0.10029231
222	0xbdf3423d	-0.11877868
223	0xbea1bd08	-0.31589532

row_embedding.1.bias f4 [32]
0	0xbd531f28	-0.051543385
1	0x3e837206	0.2567293
2	0x3de13234	0.109959036
3	0xbebcb9a7	-0.36860391
4	0x3da59a1d	0.080860354
5	0xbdf25b11	-0.11833776
6	0x3c9cdb8b	0.019147655
7	0xbddb4718	-0.107069194
8	0x3e1d6414	0.15370208
9	0xbe56f6a9	-0.20992531
10	0xbeb31bbe	-0.34982103
11	0xbcd36ffb	-0.025810232
12	0x3ea26138	0.31714797
13	0x3e1b32b5	0.15156062
14	0x3eb15ce5	0.34641185
15	0x3dd7eea9	0.10543568
16	0xbe248ed3	-0.16070108
17	0x3c7be6ee	0.015374882
18	0xbdf41f83	-0.11920073
19	0x3e9f6e43	0.3113881
20	0x3e8f93e2	0.28042513
21	0xbce354d7	-0.027750416
22	0x3e5b3892	0.21408299
23	0xbdce73b6	-0.10080664
24	0x3ea494e9	0.3214486
25	0x3e547d7c	0.20750993
26	0xbe172b9b	-0.14762728
27	0x3e003a14	0.12522155
28	0xbe9713a4	-0.29507172
29	0xbe48666b	-0.1957032
30	0x3cb22f4b	0.021751067
31	0xbe5d6eaa	-0.21624246

row_embedding.3.weight f4 [32, 32]
0	0xbdfd4193	-0.12366023
1	0xbd22387e	-0.039604656
2	0x3d92d70f	0.071699254
3	0x3c41632c	0.01180343
4	0x3dcf9f18	0.101377666
5	0x3b8d013a	0.0043031247
6	0x3e27bf0a	0.1638147
7	0x3e154074	0.14575368
8	0x3dd0ad12	0.101892605
9	0xbe154016	-0.14575228
10	0x3d1397f5	0.03603359
11	0x3d004d21	0.031323556
12	0x3dce7b4f	0.10082113
13	0xbaa70311	-0.0012742003
14	0x3e0ce005	0.13757332
15	0x3e200fdc	0.1563105
16	0x3e1d1f37	0.15343939
17	0x3d1b96e5	0.0379857
18	0xbdf4d41c	-0.11954519
19	0x3dd9d683	0.10636618
20	0x3d1cc3bf	0.038272616
21	0x3d5c3fbc	0.05377172
22	0x3d35631a	0.044283964
23	0x3deaff89	0.11474521
24	0xbe26a941	-0.16275503
25	0x3dda12f7	0.106481485
26	0x3e033b56	0.12815604
27	0x3e1a205a	0.15051404
28	0x3c92ad88	0.017905012
29	0xbe1cafcf	-0.1530144
30	0x3e16abfb	0.14714043
31	0xbce8d941	-0.028423907
32	0x3d0b6d78	0.034039944
33	0x3ce8148c	0.02833011
34	0xbe36c593	-0.17848806
35	0x3bfd3c25	0.007728117
36	0xbc8f4683	-0.017489677
37	0xbd4f5aea	-0.05062381
38	0x3d9f7c3d	0.077873684
39	0x3d304b14	0.04304035
40	0xbdc00969	-0.09376795
41	0xbd22b3ae	-0.039722137
42	0xbdd85dfc	-0.10564801
43	0xbe24a3d9	-0.16078128
44	0x3db062e0	0.08612609
45	0x3dcbabfb	0.09944912
46	0x3e207ca8	0.15672553
47	0xbe296663	-0.16542964
48	0xbd41c37d	-0.047305573
49	0x3e05d162	0.13068154
50	0x3d984b5b	0.07436248
51	0xbe0b26fa	-0.13589087
52	0x3e0140c9	0.1262237
53	0x3df9bb80	0.12193966
54	0x3e04f534	0.12984163
55	0x3df97d10	0.12182057
56	0x3e0f3079	0.13983335
57	0xbd925e80	-0.07146931
58	0x3e0efbc2	0.13963225
59	0x3ddf8825	0.109146394
60	0xbe095e03	-0.13414769
61	0x3d6d62b4	0.05795546
62	0xbe0c206e	-0.13684246
63	0xbdbf4fcd	-0.09341393
64	0x3c6c8329	0.014435568
65	0x3e262b4f	0.16227458
66	0xbdd94f8f	-0.10610878
67	0xbe1749e8	-0.14774287
68	0x3e2deb2b	0.1698424
69	0xbdad788b	-0.08470257
70	0xbe27fa89	-0.16404165
71	0xbd90d64d	-0.07072125
72	0x3df2ab39	0.118490644
73	0x3d025fd0	0.031829655
74	0x3e24aead	0.16082259
75	0x3dd2a1da	0.10284777
76	0x3c28d99d	0.010305789
77	0x3e25ff6e	0.1621072
78	0xbda5aa8e	-0.08089171
79	0x3dae81d9	0.0852086
80	0xbd17a54a	-0.037022866
81	0xbc9f304d	-0.019432211
82	0x3d331efd	0.043730725
83	0x3e00110a	0.125065
84	0x3e1b4458	0.1516279
85	0x3d4d3c43	0.0501063
86	0xbd669365	-0.05629291
87	0x3e2e3b38	0.17014778
88	0x3d04e7e7	0.03244772
89	0x3d6897f0	0.056785524
90	0x3d62db88	0.055385143
91	0xbe298e1f	-0.16558121
92	0x3e293e40	0.16527653
93	0x3e281362	0.16413644
94	0x3e03cba5	0.12870653
95	0x3e1dbc02	0.1540375
96	0xbda42134	-0.080141455
97	0xbd1d130f	-0.038348254
98	0xbe1e38ec	-0.15451401
99	0x3d66d88c	0.05635886
100	0x3d40a8e8	0.04703608
101	0x3d717af2	0.05895514
102	0x3e2d4e84	0.16924483
103	0xbcc3bdf6	-0.023894291
104	0x3db416a8	0.08793384
105	0x3ded355d	0.11582444
106	0xbdde9b46	-0.1086946
107	0xbd02e261	-0.031954173
108	0x3e025310	0.12726998
109	0xbdd3bbfd	-0.1033859
110	0x3d7a3bdd	0.061092246
111	0x3db4a67d	0.088208176
112	0xbc9e1c45	-0.01930059
113	0x3e2c84e3	0.16847567
114	0xbd8d9e25	-0.06914929
115	0x3d92a03d	0.07159469
116	0xbd2405e0	-0.040044665
117	0xbe22a360	-0.15882635
118	0x3d9483af	0.07251679
119	0xbd8b08fb	-0.06788822
120	0xbb4c6cd8	-0.0031192806
121	0x3e1d40b6	0.15356717
122	0xbda2d7cc	-0.07951316
123	0xbd875a52	-0.06609024
124	0xbe33f1f1	-0.17572762
125	0xbe02016a	-0.12695852
126	0xbdf090b0	-0.11746347
127	0x3d36b1a5	0.04460301
128	0x3db6a1a9	0.08917553
129	0xbcee5c84	-0.02909685
130	0xbdea43a6	-0.11438684
131	0x3c092b82	0.0083721895
132	0x3dac53b8	0.084144056
133	0xbd86a2a0	-0.06573987
134	0xbde511d6	-0.111850426
135	0x3dbdd2df	0.09268736
136	0xbe3070f6	-0.17230591
137	0x3d94f98a	0.07274158
138	0x3e0d5f50	0.1380589
139	0xbe316059	-0.1732191
140	0xbd49bd9f	-0.049253102
141	0xbd3201e9	-0.043458853
142	0x3c233794	0.009961981
143	0xbe3bd444	-0.18342692
144	0xbde26137	-0.110536985
145	0xbdd2cc69	-0.102928944
146	0x3d8a4c61	0.06752849
147	0x3d7e5db5	0.062101085
148	0xbe0eed48	-0.13957703
149	0x3d34bc9b	0.04412518
150	0x3b237282	0.0024940078
151	0x3d81cee0	0.063382864
152	0xbd8bcc29	-0.0682605
153	0x3def903d	0.11697433
154	0xbda70f02	-0.081571594
155	0xbe0d24e6	-0.13783607
156	0x3dd37123	0.103243135
157	0xbe324731	-0.1740997
158	0x3df0f3de	0.11765264
159	0xbd4d4c54	-0.05012162
160	0xbdb2b80a	-0.08726509
161	0xbe234067	-0.15942536
162	0xbd07c690	-0.03314835
163	0x3d7ada7d	0.061243523
164	0xbd666213	-0.056245875
165	0x3e27185d	0.16317888
166	0x3dbdcf9b	0.09268113
167	0x3d780f50	0.06056148
168	0xbe28bb38	-0.16477668
169	0x3b7bed71	0.0038441087
170	0xbe01be7d	-0.12670322
171	0x3d3d2509	0.046177898
172	0xbd211fba	-0.039336897
173	0x3de01a12	0.109424725
174	0xbb21fc47	-0.002471702
175	0xbe278ad5	-0.16361554
176	0xbdc6bdb1	-0.097041495
177	0xbe33d467	-0.17561494
178	0xbd370fa8	-0.044692665
179	0x3dae2a9b	0.0850422
180	0xbe13f315	-0.14448197
181	0x3df0aa6f	0.11751258
182	0xbe328c8b	-0.17436425
183	0xbc584566	-0.01320014
184	0x3a1bef01	0.0005948395
185	0xbdb54fbd	-0.088530995
186	0xbe1c7012	-0.15277126
187	0xbdc63b49	-0.096792765
188	0xbe1317ba	-0.1436452
189	0xbca437f9	-0.020046221
190	0x3cdbe4dc	0.026842527
191	0xbe27d085	-0.16388138
192	0x3da6a73b	0.081373654
193	0x3e034d24	0.12822396
194	0x3df8db3d	0.121511914
195	0xbd321b59	-0.043483112
196	0x3e0f9ae3	0.14023928
197	0x3d75e7ea	0.060035624
198	0xbe01798a	-0.1264402
199	0xbdac9f46	-0.084288165
200	0xbe1bb9bb	-0.1520757
201	0x3da5df10	0.080991864
202	0x3e05604b	0.13025014
203	0x3d8d643e	0.06903885
204	0xbcfb4a7a	-0.030675162
205	0xbe156d94	-0.14592582
206	0xbe2d46b7	-0.16921507
207	0x3cb717e3	0.022350257
208	0xbcd28171	-0.025696488
209	0x3e0d3908	0.13791287
210	0xbd97e7f9	-0.07417292
211	0x3e0eb22d	0.13935156
212	0x3db9b2cb	0.09067305
213	0x3ddcbcf3	0.10778227
214	0x3d24ec8f	0.040264662
215	0x3e0a9e03	0.13536839
216	0xbdbefb18	-0.09325236
217	0xbd433a2a	-0.04766289
218	0xbdb7438c	-0.089484304
219	0x3c61373a	0.013746077
220	0x3e294474	0.16530019
221	0xbd467637	-0.048452582
222	0xbd1fd320	-0.039019704
223	0x3dda7d81	0.10668469
224	0xbd6acbb4	-0.057323173
225	0xbd2f0af3	-0.04273505
226	0xbdef41f7	-0.11682504
227	0xbe037045	-0.12835796
228	0x3d1963c5	0.037448663
229	0x3e0da680	0.13833046
230	0x3e0ee26b	0.13953559
231	0xbdcb31fd	-0.09921644
232	0x3db5197f	0.088427536
233	0xbdd9445b	-0.10608741
234	0xbe321caa	-0.17393747
235	0xbb14d8d9	-0.002271226
236	0x3e1d2385	0.15345581
237	0xbc974492	-0.018465314
238	0xbe1637a6	-0.14669666
239	0xbd73db64	-0.0595354
240	0x3d8dece1	0.06929947
241	0x3e093210	0.13398004
242	0xbe331cb5	-0.1749142
243	0x3d37112e	0.04469412
244	0x3d7f3323	0.062304627
245	0x3d267eac	0.040648147
246	0xbe31185d	-0.1729445
247	0xbd7d0b49	-0.06177834
248	0xbcd208c3	-0.025638944
249	0xbdc71eea	-0.09722693
250	0xbe00571c	-0.1253323
251	0x3d038231	0.032106582
252	0xbc85824c	-0.016297482
253	0xbb7f3d8e	-0.0038946602
254	0xbdfcd019	-0.12344379
255	0x3e122b3d	0.14274307

row_embedding.3.bias f4 [32]
0	0x3dde6bde	0.10860418
1	0xbd582d4a	-0.052777566
2	0xbd782ad7	-0.06058773
3	0xbd2f0141	-0.042725805
4	0x3c5a5e58	0.013328157
5	0xbe04ea03	-0.12979893
6	0x3dd864ae	0.10566078
7	0x3e11844d	0.14210625
8	0xbd81c546	-0.06336455
9	0x3dd23e1b	0.10265752
10	0x3e07efd4	0.13275081
11	0x3dca06b8	0.09864563
12	0xbc9fb160	-0.019493759
13	0x3d330e55	0.04371484
14	0x3dd6a4a5	0.10480622
15	0x3dd831b6	0.105563566
16	0x3dc59bd2	0.09648861
17	0xbd95e2cf	-0.07318651
18	0x3d479dca	0.048734464
19	0x3dc1ccde	0.094629034
20	0xbc0e002f	-0.008667036
21	0x3d0693f2	0.032855935
22	0x3d5f537c	0.054522976
23	0x3d85c070	0.06530845
24	0x3dd903dd	0.1059644
25	0x3d2abb3b	0.041682463
26	0x3e28a708	0.16469967
27	0xbd64a102	-0.05581761
28	0x3bd21ec4	0.006412359
29	0xbc04a7f1	-0.008096681
30	0xbe183b97	-0.14866482
31	0x3df62510	0.12018788

col_embedding.0.weight f4 [7]
0	0x3f7f9685	0.9983905
1	0x3f8007f6	1.000243
2	0x3f7ff526	0.9998344
3	0x3f800a52	1.000315
4	0x3f7f921e	0.9983233
5	0x3f7fc669	0.99912125
6	0x3f800ee8	1.0004549

col_embedding.0.bias f4 [7]
0	0xbaf6f8a8	-0.0018842416
1	0xb971f14c	-0.00023073441
2	0xb900d29f	-0.00012285494
3	0xb9cca21d	-0.00039030696
4	0x3a80e7d6	0.0009834717
5	0x3a80d6be	0.0009829623
6	0x3a4b38e9	0.0007752316

col_embedding.1.weight f4 [32, 7]
0	0x3eb46aa7	0.3523762
1	0x3bbda7ac	0.0057878103
2	0x39bf32b0	0.00036468124
3	0xbe3214f2	-0.17390803
4	0x3e8d2b97	0.2757232
5	0xbeba0e15	-0.3633887
6	0xbdcd9128	-0.10037452
7	0xbdee0b36	-0.11623232
8	0xbe84749e	-0.25870222
9	0xbe28104c	-0.16412467
10	0x3e3e3aff	0.18577193
11	0xbe5a8833	-0.21341018
12	0x3ba7aa06	0.005116704
13	0xbe71f89f	-0.23629998
14	0xbe4a1f7a	-0.1973857
15	0x3c52c152	0.012863474
16	0x3e8ac4d0	0.2710328
17	0xbe355c96	-0.177111
18	0x3cfc804e	0.0308229
19	0x3db832cf	0.08994066
20	0x3e577164	0.21039349
21	0x3e9169de	0.28401083
22	0x3e908643	0.28227434
23	0xbdd423f7	-0.10358422
24	0x3d770b46	0.060313486
25	0xbe9dff6b	-0.3085893
26	0xbc9466e7	-0.018115474
27	0x3e3529b9	0.17691697
28	0x3e170a2a	0.14749971
29	0x3ea49b7b	0.32149872
30	0x3e971d02	0.2951432
31	0xbe36dc54	-0.17857486
32	0xbd8768d5	-0.06611792
33	0xbe807cf9	-0.25095347
34	0xbebaade8	-0.36460805
35	0xbec11a5f	-0.37715432
36	0x3d19ba38	0.037531108
37	0xbd91c722	-0.0711806
38	0x3e774ed1	0.2415116
39	0xbe6a5817	-0.22885166
40	0x3e2c755a	0.16841641
41	0xbdf78e62	-0.12087704
42	0xbd094fdf	-0.033523437
43	0x3eb9ef53	0.36315402
44	0x3ebf04d9	0.37308386
45	0x3e514e9f	0.20440148
46	0x3e6bff35	0.23046573
47	0x3d14c5a0	0.036321282
48	0x3e300bc3	0.17191987
49	0x3d9eb82b	0.07749971
50	0xbdfce642	-0.12348606
51	0x3e3dbdba	0.18529406
52	0xbeb5e909	-0.35529354
53	0x3d8fdf05	0.070249595
54	0x3d941473	0.07230463
55	0x3e05cbd2	0.13066033
56	0xbde17d07	-0.11010175
57	0xbe38f079	-0.18060483
58	0xbdbe5e5f	-0.092953436
59	0xbc5bb81e	-0.013410596
60	0xbe6550f6	-0.22394165
61	0xbe1e399b	-0.15451662
62	0x3e36a3c7	0.17835914
63	0x3d9b2fa4	0.07577446
64	0xbea6ad4b	-0.32554087
65	0xbd5d8f01	-0.054091457
66	0xbcccad33	-0.024984932
67	0x3e26ffd2	0.16308525
68	0x3e9a13fb	0.3009337
69	0xbec16aad	-0.377767
70	0x3eba8cb1	0.36435464
71	0x3c96d9bf	0.018414376
72	0x3eb98e79	0.3624151
73	0xbe031f86	-0.12804994
74	0xbe9212e0	-0.28530025
75	0xbe73adcb	-0.23796766
76	0xbe7002d3	-0.23438577
77	0x3eb74c0c	0.35800207
78	0x3e079807	0.13241588
79	0xbe88e31f	-0.2673578
80	0xbd8629e2	-0.06550957
81	0xbe31e867	-0.1737381
82	0xbe6cef9e	-0.23138282
83	0x3e628776	0.22121987
84	0x3e96157f	0.29313275
85	0xbe991f30	-0.29906607
86	0x3cc58c7e	0.024114843
87	0x3e7d833a	0.2475709
88	0x3e26205e	0.16223285
89	0xbd957632	-0.072979346
90	0xbe698643	-0.22805123
91	0xbea5e92a	-0.32404453
92	0xbe55fbe2	-0.20896867
93	0x3c6c90b3	0.014438796
94	0xbd097fb3	-0.03356905
95	0x3e4bb23c	0.1989221
96	0x3e29e896	0.1659263
97	0xbc1ab763	-0.009443137
98	0xbc72ee6b	-0.014827351
99	0x3e3f2433	0.18666153
100	0xbe3e6cd1	-0.18596198
101	0x3e5d9933	0.21640472
102	0x3ea2cf0a	0.31798583
103	0x3e636361	0.22205879
104	0x3dae32a8	0.08505756
105	0x3d3e3d51	0.046445195
106	0xbcdd09bf	-0.026982186
107	0x3e4a7357	0.19770561
108	0x3e844197	0.2583129
109	0xbcd743ce	-0.026277449
110	0x3e02c24d	0.12769432
111	0xbe91057a	-0.2832449
112	0x3e419b2c	0.1890685
113	0x3e8c028f	0.27345702
114	0xba2062fa	-0.0006118264
115	0xbe1da463	-0.1539474
116	0xbdbfc69d	-0.09364054
117	0xbdfbde48	-0.12298256
118	0xbeaf481b	-0.342347
119	0x3ea78ddf	0.32725427
120	0xbc4a2edd	-0.012340275
121	0xbea3aa88	-0.31966043
122	0x3e83cd97	0.2574279
123	0x3ea2e878	0.31817985
124	0x3e9fcc6e	0.31210655
125	0xbe6bbe48	-0.23021805
126	0xbe8398fd	-0.25702658
127	0x3d9e0e92	0.07717623
128	0x3d8f7bf8	0.07006067
129	0xbe623eb8	-0.22094238
130	0x3d892df1	0.06698216
131	0x3e8170fe	0.2528152
132	0xbe8dbd99	-0.27683714
133	0x3ebe4a0b	0.37165865
134	0xbeb2cbfe	-0.3492126
135	0xbdad7f94	-0.08471599
136	0xbd649351	-0.055804554
137	0x3db2bd51	0.087275155
138	0xbc3ee8e0	-0.011652201
139	0x3e80db76	0.25167435
140	0x3d8b1c99	0.06792564
141	0xbe23dd97	-0.16002499
142	0xbebe4868	-0.37164617
143	0xbe954b08	-0.29158807
144	0x3e5323bc	0.206191
145	0x3e21dfe9	0.15808071
146	0x3e50673f	0.20351885
147	0xbd30086b	-0.042976778
148	0x3dddd039	0.10830731
149	0xbea48146	-0.32129878
150	0x3c320572	0.010865556
151	0xbe1fcc25	-0.15605219
152	0xbe81813e	-0.25293916
153	0xbdb861b1	-0.09003008
154	0x3e66f1da	0.22553197
155	0x3e6c785c	0.23092788
156	0x3d696490	0.05698067
157	0xbd823a89	-0.06358821
158	0xbe31b046	-0.17352399
159	0xbc70e82a	-0.01470379
160	0xbd3d721a	-0.046251394
161	0x3e671055	0.22564824
162	0x3dea837f	0.11450862
163	0xbe92d2e6	-0.28676528
164	0xbea42895	-0.32062212
165	0x3dff521e	0.124668345
166	0x3ce571f9	0.028008448
167	0x3e0c6b25	0.13712747
168	0xbe2c622d	-0.16834326
169	0x3e25024a	0.16114154
170	0xbe9ce4d5	-0.30643335
171	0x3db063e3	0.08612802
172	0xbe835923	-0.25653943
173	0xbe9894e1	-0.29801086
174	0xbda1b9a3	-0.078967355
175	0x3e8b7ebe	0.27245134
176	0xbe84cd3e	-0.25937837
177	0xbe88d961	-0.26728347
178	0x3e3e6b92	0.18595722
179	0xbeb4c121	-0.35303596
180	0xbc0f3065	-0.0087395655
181	0xbe877621	-0.26457313
182	0x3e89a95b	0.2688702
183	0xbd66aed5	-0.056319077
184	0xbdca3a6a	-0.09874423
185	0xbe69dc45	-0.22837932
186	0x3cc7f265	0.024407575
187	0x3e138ba4	0.14408737
188	0x3dca112e	0.09866558
189	0x3e495222	0.19660237
190	0x3ebe2a73	0.3714176
191	0x3e3cecc6	0.18449697
192	0x3ea042fa	0.313011
193	0x3d9dbff4	0.07702628
194	0xbe6df321	-0.23237278
195	0xbe96f710	-0.2948537
196	0x3eb78778	0.35845542
197	0xbe0c2d81	-0.13689233
198	0x3ea74bb4	0.32674944
199	0x3d5488f8	0.051888436
200	0xbe0667eb	-0.13125579
201	0xbe6439d6	-0.22287688
202	0xbeb24cef	-0.3482432
203	0x3c8e8e2d	0.01740178
204	0x3dcd5d17	0.10027521
205	0xbbb5ef4c	-0.005552208
206	0xbe9bdcf0	-0.30442
207	0x3e901ef7	0.28148624
208	0x3e87747c	0.26456058
209	0x3eb717c4	0.3576032
210	0x3eb29fb0	0.34887457
211	0xbdd347f8	-0.10316461
212	0xbe446aa5	-0.19181307
213	0x3e364744	0.17800623
214	0x3c2b3dd1	0.01045175
215	0x3e10dd53	0.14146928
216	0xbd5d4e18	-0.054029554
217	0x3e330a6d	0.17484446
218	0xbebb54f5	-0.36588255
219	0x3eb0a868	0.34503484
220	0x3e227f2a	0.15868822
221	0x3eb984a8	0.3623402
222	0x3ba95edb	0.0051687784
223	0x3e74d4e2	0.23909333

col_embedding.1.bias f4 [32]
0	0xbe881835	-0.26580968
1	0xbe308887	-0.17239581
2	0xbd9ed2a7	-0.077550225
3	0xbe92df30	-0.28685904
4	0xbe9a30e6	-0.30115432
5	0x3e8b2587	0.2717707
6	0xbe48bc7e	-0.19603154
7	0xbe246b7a	-0.16056624
8	0xbd23291c	-0.039834127
9	0xbd14558b	-0.036214393
10	0x3dc5de4e	0.09661542
11	0x3e8a9fef	0.27075145
12	0x3d6cc33d	0.05780338
13	0xbe2e9da5	-0.17052324
14	0x3dff5db8	0.12469047
15	0xbec0f4a7	-0.37686655
16	0x3eb55f51	0.35424283
17	0x3bb822ca	0.0056193816
18	0xbe53bdd0	-0.20677876
19	0xbd25e970	-0.040505826
20	0xbcd3f5f9	-0.025874125
21	0xbea934a7	-0.33047983
22	0x3e8e5699	0.27800444
23	0x3d9d9a06	0.07695393
24	0xbeb50725	-0.35357013
25	0x3e9c4169	0.30518654
26	0xbe8f52ec	-0.27992952
27	0xbda7f621	-0.08201242
28	0x3de86f4f	0.113493554
29	0x3eb58294	0.35451186
30	0xbd5219b1	-0.051294032
31	0x3eabcaa2	0.33553034

col_embedding.3.weight f4 [32, 32]
0	0x3e0b30aa	0.13592783
1	0x3e02decf	0.12780307
2	0xbbdf446f	-0.006813578
3	0xbe10360d	-0.14083119
4	0x3d9dea74	0.07710734
5	0xbd01e077	-0.031708207
6	0xbe2b24f9	-0.16713323
7	0x3e0bde6d	0.13659067
8	0x3e0d5154	0.13800555
9	0x3e18c943	0.14920525
10	0x3dc1f8d3	0.094712876
11	0x3de1906a	0.11013873
12	0xbe14ecf7	-0.1454352
13	0xbbd07b7a	-0.006362376
14	0x3d6f3554	0.058400467
15	0x3d953119	0.07284755
16	0xbd626d01	-0.055279735
17	0xbd17882a	-0.03699509
18	0xbe06837c	-0.13136095
19	0xbe21510e	-0.15753576
20	0x3be96162	0.0071222046
21	0x3e30718e	0.17230818
22	0xbdf44774	-0.11927691
23	0x3e281e4d	0.16417809
24	0xbe230fdb	-0.15924017
25	0xbdf6f641	-0.12058688
26	0xbe0fb616	-0.14034304
27	0xbe01805b	-0.1264662
28	0x3e150c0d	0.14555378
29	0x3b40b0aa	0.0029402175
30	0xbd451300	-0.048113823
31	0x3e2ef3fb	0.17085259
32	0x3db1ef91	0.08688272
33	0xbe0ced8f	-0.13762496
34	0x3e1aa4d7	0.15101944
35	0xbdb5fb8c	-0.088858694
36	0x3dc1ae81	0.09457112
37	0x3d4b95a3	0.04970325
38	0x3d68d47d	0.05684327
39	0xbd49907b	-0.049210053
40	0x3e26049e	0.16212699
41	0xbb999fc7	-0.0046882364
42	0x3dd79481	0.10526372
43	0x3df56dcd	0.119838335
44	0xbe1dca0a	-0.15409103
45	0xbcf8480f	-0.030307798
46	0xbdcf9e8b	-0.101376615
47	0xbc9c3ec9	-0.019072907
48	0xbe18f630	-0.14937663
49	0xbc93c7d4	-0.018039621
50	0xbdec175f	-0.11527895
51	0xbd8b84a9	-0.06812412
52	0x3dc52459	0.096260734
53	0xbc70d734	-0.014699746
54	0x3e275734	0.16341859
55	0x3d74069a	0.05957661
56	0x3d6aa83c	0.057289347
57	0x3d3ab9f7	0.045587506
58	0xbe34e0ab	-0.17663829
59	0x3e2daa31	0.16959454
60	0xbbec50df	-0.007211789
61	0xbe300da3	-0.17192702
62	0xbbd53506	-0.006506565
63	0xbdb5dc3a	-0.088798955
64	0xbd73f806	-0.059562705
65	0xbd37dd3a	-0.044888712
66	0xbcbc275d	-0.022967989
67	0xbdd88b51	-0.105734475
68	0xbdd31a52	-0.103077546
69	0x3d7f00ad	0.062256504
70	0x3e2054d2	0.15657356
71	0x3e339c24	0.17540032
72	0xbda4432d	-0.08020625
73	0xbe222aef	-0.1583669
74	0xbd0fa31c	-0.035067663
75	0xbc670a40	-0.014101565
76	0xbe1ef8c0	-0.15524578
77	0xbe06e339	-0.13172616
78	0xbc3917ef	-0.01129721
79	0x3d904ccd	0.070458986
80	0x3a815983	0.0009868596
81	0xbd57b274	-0.05266042
82	0xbcc572ea	-0.024102647
83	0x3e25e343	0.16199975
84	0x3d9938a9	0.0748151
85	0xbdcb7483	-0.09934332
86	0x3dd70952	0.104998246
87	0x3df4cf84	0.11953643
88	0xbdc64bfe	-0.09682463
89	0xbd0c28f1	-0.034218732
90	0x3de08992	0.109637395
91	0x3b97f4bc	0.004637329
92	0x3ce74ac2	0.02823389
93	0xbd2087a8	-0.039191872
94	0xbd2b6b94	-0.04185064
95	0x3dac3bea	0.08409865
96	0x3dda454a	0.10657747
97	0xbd35a25e	-0.0443443
98	0xbcb216a3	-0.02173931
99	0x3cd715ff	0.026255606
100	0x3da154e4	0.0787752
101	0xbe2f7c7c	-0.17137331
102	0xbd90acda	-0.07064219
103	0x3dd6fdef	0.10497653
104	0x3e1ee265	0.1551605
105	0xbe2d81bf	-0.16944025
106	0x3d27e9c7	0.04099443
107	0xbd4025a8	-0.04691091
108	0x3d84571c	0.06461927
109	0xbc11b93f	-0.008894264
110	0xbd99de7b	-0.07513138
111	0xbe14e1c1	-0.14539243
112	0xbd4f78df	-0.05065238
113	0x3d15bc76	0.036556683
114	0xbd4d4d40	-0.0501225
115	0x3bf9fadc	0.0076287817
116	0x3d7ab21b	0.06120501
117	0x3debd68e	0.115155324
118	0x3df67be2	0.120353475
119	0x3d822619	0.06354923
120	0x3de77c3e	0.11302994
121	0xbe1ba93a	-0.15201274
122	0x3df4a805	0.1194611
123	0xbcc3316a	-0.023827273
124	0x3df6708e	0.12033187
125	0x3e0b9f17	0.13634907
126	0x3e10234e	0.14075968
127	0x3d87b23f	0.066257946
128	0x3dd8fb0c	0.105947584
129	0x3d76bc75	0.06023832
130	0x3d00a5dd	0.03140818
131	0xbdb654d6	-0.089029
132	0x3c137f64	0.00900254
133	0x3e109fd3	0.14123468
134	0xbd14f3c1	-0.036365274
135	0xbcec8dd8	-0.02887623
136	0x3e0948c2	0.13406661
137	0x3dcaded4	0.09905782
138	0xbda857bd	-0.0821986
139	0xbe243cdb	-0.1603884
140	0x3c95bd56	0.018278759
141	0xbe099814	-0.1343692
142	0xbe0686a1	-0.13137294
143	0x3e12ac89	0.1432363
144	0x3dd1f499	0.102517314
145	0xbe288b2f	-0.16459344
146	0xbdbbe5a4	-0.0917466
147	0x3dc73d62	0.09728505
148	0xbe05d732	-0.13070372
149	0x3d9648af	0.07338082
150	0x3cf9fd1e	0.030516203
151	0xbdfa63a9	-0.1222604
152	0x3bd789d7	0.006577711
153	0x3d718bb1	0.05897111
154	0x3e2de773	0.16982822
155	0x3dd765d5	0.1051747
156	0x3cce2fa3	0.0251692
157	0xbd8e2406	-0.06940465
158	0xbe23da1c	-0.16001171
159	0x3cba0332	0.022706602
160	0x3cd81cc9	0.026380913
161	0x3d8d32d3	0.068944596
162	0xbd67f216	-0.056627356
163	0xbe07d461	-0.1326461
164	0x3de5485c	0.11195442
165	0x3dbbc56e	0.09168516
166	0xbd5f7c71	-0.054562036
167	0x3e07a24c	0.13245505
168	0x3e1c69ad	0.15274687
169	0x3dd5ef14	0.10445991
170	0xbdbab664	-0.091168195
171	0xbdeddc73	-0.11614313
172	0xbdcce297	-0.10004156
173	0x3e13405d	0.14380021
174	0xbdec435a	-0.11536284
175	0x3d4c8207	0.04992869
176	0xbd3e75c9	-0.046499047
177	0xbdd09cba	-0.10186143
178	0x3e0d85f1	0.13820626
179	0x3d350926	0.044198178
180	0xbd9a84f2	-0.075448886
181	0xbd42c6df	-0.04755294
182	0x3e003a0c	0.12522143
183	0xbc9783ae	-0.018495407
184	0x3d4af744	0.049552217
185	0xbe0d4acb	-0.13798063
186	0xbd8ac6e1	-0.067762144
187	0xbd434fdf	-0.047683593
188	0x3e15d088	0.1463033
189	0xbe21c490	-0.15797639
190	0x3db35789	0.087569304
191	0x3c33f827	0.010984457
192	0x3d3e826d	0.046511102
193	0xbd7b5d0f	-0.061368044
194	0x3defd927	0.117113404
195	0xba22ee86	-0.00062153523
196	0xbde69bcb	-0.11260184
197	0xbc80f750	-0.015742928
198	0x3da2a531	0.07941664
199	0x3df8b7c7	0.12144428
200	0x3e31b860	0.1735549
201	0x3e24fa4c	0.16111106
202	0xbcea8890	-0.028629571
203	0xbdc22e74	-0.094815165
204	0x3ca92eac	0.020652138
205	0xbe22c546	-0.15895566
206	0x3e01d784	0.12679869
207	0x3bb52316	0.005527864
208	0x3e307559	0.17232265
209	0xbd94dc21	-0.07268549
210	0x3dcc8592	0.09986414
211	0x3e20201b	0.15637247
212	0xbce4c680	-0.027926683
213	0x3dcf9bd6	0.10137145
214	0xbdec1994	-0.11528316
215	0x3e226213	0.15857725
216	0x3d2e5692	0.04256303
217	0x3e10fce8	0.14158976
218	0x3cb69826	0.022289347
219	0xbc688f30	-0.014194295
220	0x3d454e4d	0.048170377
221	0x3df8b00e	0.12142955
222	0x3dec8126	0.115480706
223	0xbdf7e918	-0.12105006
224	0xbdf80458	-0.121102035
225	0x3daf039f	0.085456125
226	0x3e2bc606	0.16774759
227	0x3e15f5dc	0.14644569
228	0xbdd0a863	-0.10188367
229	0x3cc9221a	0.024552394
230	0xbc7446c2	-0.014909448
231	0xbe19f1ac	-0.15033597
232	0x3e11923a	0.14215937
233	0x3e270a42	0.16312507
234	0x3d3d996b	0.04628889
235	0xbde4b4a1	-0.11167265
236	0xbc8f9113	-0.017525231
237	0x3dfacfd3	0.122466706
238	0xbdcade9b	-0.0990574
239	0xbd3c9b67	-0.04604664
240	0xbdb0affb	-0.086273156
241	0x3c0bf054	0.008541185
242	0xbd9c5881	-0.07634068
243	0xbcf4e3c9	-0.029893773
244	0xbd4d1a91	-0.050074164
245	0x3dd8a8b7	0.10579055
246	0xbdaf44ed	-0.085580684
247	0x3d42ec86	0.047588848
248	0x3e0f1029	0.13971008
249	0x3e127607	0.14302836
250	0xbe1cda40	-0.15317631
251	0xbd5c510d	-0.053788234
252	0xbdbe8889	-0.09303386
253	0xbe0c3d34	-0.13695222
254	0x3d65bbdc	0.05608736
255	0x3df9d819	0.121994205

col_embedding.3.bias f4 [32]
0	0xbd3c304e	-0.045944504
1	0x3e1a2066	0.15051422
2	0xbdc781ec	-0.097415775
3	0x3df574a6	0.119851395
4	0xbcc430b8	-0.023949012
5	0x3e1ca24d	0.15296288
6	0x3dd6bff6	0.104858324
7	0x3d01651a	0.03159056
8	0x3e123fdc	0.14282173
9	0x3e118efd	0.14214702
10	0x3e0714dd	0.13191552
11	0x3e079e90	0.1324408
12	0xbdab7f8d	-0.08373938
13	0x3e21915e	0.1577811
14	0x3d8a75b7	0.067607336
15	0xbca5af59	-0.020225214
16	0xbdc06637	-0.09394496
17	0xbdac5733	-0.084150694
18	0x3decf226	0.11569624
19	0x3e1279fd	0.14304347
20	0x3dbaf97a	0.09129615
21	0x3dca20ee	0.09869562
22	0xbdfc5a34	-0.123218924
23	0x3e1ae903	0.1512795
24	0x3e0e20d1	0.13879706
25	0xbd863328	-0.06552726
26	0x3e0b088f	0.13577484
27	0x3dbf849f	0.09351467
28	0x3dbc6ecd	0.09200821
29	0x3cf70e51	0.030158194
30	0xbdb7ed26	-0.08980779
31	0x3d9aeee8	0.07565099

conv_col_to_row.feature_module_left.0.weight f4 [32, 32]
0	0x3cc62c66	0.024191093
1	0xbe1eec4d	-0.15519829
2	0xbb58730e	-0.0033027562
3	0x3d2d2c68	0.042278677
4	0xbd05256a	-0.032506384
5	0xbdef7908	-0.11693007
6	0x3c8b5747	0.01700939
7	0xbd5fd4a6	-0.054646157
8	0x3e224497	0.15846477
9	0x3c21e472	0.009881126
10	0xbc9b03e6	-0.018922757
11	0x3e044b95	0.12919457
12	0xbad4de81	-0.0016240628
13	0xbd4fdb23	-0.050746094
14	0xbc964b46	-0.01834644
15	0xbc3f869c	-0.011689808
16	0xbc36d9f1	-0.01116036
17	0xbe0eb176	-0.13934883
18	0x3e03f85a	0.12887707
19	0x3d00494c	0.0313199
20	0xbdbdd235	-0.092686094
21	0xbdd9e38f	-0.106391065
22	0x3da611c3	0.081088565
23	0x3d9bb3e3	0.0760267
24	0x3dc0dc90	0.09417069
25	0xbdd9c36a	-0.106329754
26	0xbe260475	-0.16212638
27	0xbe071390	-0.13191056
28	0x3dff72f3	0.12473097
29	0xbd44d717	-0.04805669
30	0xbd6442ac	-0.055727646
31	0xbdd10e9d	-0.102078654
32	0x3e05026b	0.12989204
33	0x3d926b7c	0.07149407
34	0x3dd234e4	0.10263994
35	0xbdcebfed	-0.10095201
36	0xbd052a6a	-0.032511152
37	0x3e23c9d1	0.15994956
38	0xbccc49d4	-0.024937548
39	0xbe334295	-0.17505868
40	0xbdb98a10	-0.090595365
41	0x3b98fb4c	0.004668629
42	0x3dedc64b	0.11610087
43	0x3cfaeac1	0.030629518
44	0x3d1e3ee0	0.03863418
45	0xbe00a976	-0.12564644
46	0x3cfdbc3d	0.030973548
47	0x3c74f311	0.01495053
48	0x3e01719b	0.12640993
49	0xbe073cd1	-0.13206793
50	0x3cd37334	0.025811769
51	0xbdd9b99a	-0.10631104
52	0xbd1cd1f0	-0.03828615
53	0x3dadf20a	0.08493431
54	0xbe35dc26	-0.17759761
55	0x3ddc4a20	0.10756326
56	0xbe28cc79	-0.1648425
57	0x3d1b2c7b	0.037884217
58	0x3da2b1ab	0.07944044
59	0x3dd3bf7a	0.10339256
60	0xbdc5c031	-0.09655798
61	0xbddd5628	-0.108074486
62	0x3db71e13	0.08941283
63	0xbc8714ac	-0.01648935
64	0x3de92e5a	0.11385794
65	0xbddcf0f7	-0.10788148
66	0x3cdd7055	0.027031103
67	0x3d89ee24	0.06734875
68	0x3cb98007	0.022644056
69	0x3e0310d7	0.12799393
70	0xbe0541bf	-0.13013361
71	0x3e2aaaa9	0.16666664
72	0xbdee14e2	-0.11625077
73	0xbdd9b69a	-0.106305316
74	0x3e03f421	0.12886097
75	0x3caf4ce1	0.021398963
76	0xbe2c3b03	-0.16819386
77	0xbe2a8562	-0.16652444
78	0xbda7180c	-0.081588835
79	0x3e2a1d32	0.166127
80	0x3d2696e2	0.040671237
81	0xbe05d65b	-0.13070051
82	0x3e2f535d	0.17121644
83	0x3d8c7744	0.068586856
84	0xbd9ef1dd	-0.077609755
85	0xbce54016	-0.02798466
86	0xbd4bd986	-0.049767993
87	0x3e33ec1a	0.17570534
88	0x3bc9e965	0.006161856
89	0x3d56f2fe	0.05247783
90	0xbe0fb55d	-0.14034028
91	0x3cbc3375	0.022973755
92	0xbd8bf017	-0.06832903
93	0x3d8b3403	0.0679703
94	0x3cd47fe7	0.025939895
95	0xbc2fe073	-0.010734665
96	0xbd4fc4fd	-0.050724972
97	0xbd7c3166	-0.061570548
98	0x3c4afd4f	0.012389495
99	0x3c03a8b6	0.008035829
100	0xbc6c4aa3	-0.014422092
101	0x3d51a94b	0.05118684
102	0xbc930aaa	-0.017949421
103	0xbd90415e	-0.07043718
104	0x3e0f688d	0.14004727
105	0xbdc27680	-0.09495258
106	0xbdfe8c8c	-0.12429151
107	0x3e1ad222	0.15119222
108	0x3cdf5258	0.027260944
109	0xbd08d65d	-0.033407558
110	0xbdc4fd2b	-0.096186005
111	0xbd08c4fa	-0.033390976
112	0xbe08af0d	-0.13348027
113	0x3d21ff3a	0.039550044
114	0x3ca0156a	0.019541461
115	0x3d98fd3f	0.07470178
116	0xbd159173	-0.036515664
117	0xbe2c2e4b	-0.16814534
118	0x3e0a495c	0.13504547
119	0xbe25ebfb	-0.162033
120	0xbdead181	-0.11465741
121	0xbbc42a20	-0.005986467
122	0xbdd04212	-0.10168852
123	0xbdbfcaab	-0.09364828
124	0x3df9b70b	0.12193116
125	0xbe2ed4b5	-0.17073329
126	0xbcb9a8a9	-0.022663431
127	0x3db7a1b0	0.08966386
128	0xbe19ae68	-0.15007937
129	0x3da0aa28	0.07844955
130	0x3e24f0e8	0.16107523
131	0x3ad34bab	0.0016120573
132	0x3dbeab31	0.09309996
133	0xbde537a4	-0.11192253
134	0x3e0727ea	0.1319882
135	0xbe21cbf3	-0.15800457
136	0x3d80e3a5	0.0629342
137	0x3dd0e608	0.10200125
138	0xbdabed16	-0.0839483
139	0xbdd0de29	-0.10198624
140	0x3d295d97	0.04134902
141	0x3e26e39d	0.16297765
142	0xbda24dd7	-0.07925003
143	0x3e056911	0.13028361
144	0xbda5e7af	-0.08100831
145	0xbbdb9ff8	-0.0067024194
146	0x3e080e50	0.1328671
147	0xbe157475	-0.14595206
148	0xbe381a05	-0.17978676
149	0xbd010188	-0.0314956
150	0x3d04c6f1	0.032416288
151	0x3cbaaccb	0.022787472
152	0xbe33a03a	-0.1754159
153	0xbda4ca29	-0.080463715
154	0x3d298dfa	0.041395165
155	0xbcdf2e73	-0.027243828
156	0xbe1f19c0	-0.15537167
157	0x3d64df10	0.05587679
158	0x3d3b89b6	0.04578563
159	0xbdc5aa72	-0.096516505
160	0x3be03b38	0.006842997
161	0xbe0c1914	-0.13681442
162	0x3e22fd3e	0.15916917
163	0x3da1eb49	0.07906205
164	0x3c6e5865	0.014547442
165	0x3da79877	0.08183377
166	0x3d57ba34	0.05266781
167	0x3deb7141	0.11496211
168	0xbe13253b	-0.14369671
169	0xbd094139	-0.033509467
170	0x3d893a27	0.06700545
171	0xbe17040c	-0.14747638
172	0xbd0cfc31	-0.034420196
173	0xbd805011	-0.062652715
174	0x3ca5f6bb	0.020259252
175	0xbe00dc7c	-0.12584108
176	0x3e2ab8c9	0.16672052
177	0xbe02d336	-0.12775883
178	0xbd824b47	-0.06362014
179	0xbdd35166	-0.1031826
180	0x3df12c33	0.117760085
181	0x3df72546	0.12067656
182	0x3d587a21	0.052850846
183	0x3df9cfbd	0.12197826
184	0x3e28a5fa	0.16469565
185	0xbc07a250	-0.008278444
186	0xbdc9b60f	-0.09849178
187	0x3e112c7a	0.14177123
188	0x3d86fd3c	0.065912694
189	0xbe0d86ca	-0.13820949
190	0x3bfa7541	0.0076433723
191	0x3e31d8d8	0.17367876
192	0xbd4d54cd	-0.0501297
193	0xbe1f10e5	-0.15533789
194	0x3e27892b	0.16360919
195	0x3ce1df5b	0.027572324
196	0x3d93d6dd	0.07218716
197	0xbe276c7a	-0.16349974
198	0x3e17c7e0	0.1482234
199	0xbde6cb3d	-0.112692334
200	0x3ce44f72	0.027869914
201	0x3dab13ac	0.083533615
202	0x3c6cec7b	0.014460678
203	0xbe31f236	-0.17377552
204	0x3cd35398	0.025796697
205	0xbda0483e	-0.07826279
206	0x3d3ca2c0	0.046053648
207	0x3d9e427c	0.07727525
208	0x3cbef6b9	0.023311006
209	0xbccb9520	-0.024851382
210	0xbd5fb695	-0.054617483
211	0x3df982c4	0.12183145
212	0xbd9d3e54	-0.07677904
213	0x3d6d54db	0.057942253
214	0xbdcfb24d	-0.1014143
215	0xbd90c042	-0.0706792
216	0x3cde5487	0.027139915
217	0xbe0cffd8	-0.13769472
218	0x3d474921	0.048653726
219	0xbd4c8528	-0.049931675
220	0x3e2ca4cc	0.1685974
221	0x3b95da1e	0.0045731207
222	0xbe15876c	-0.1460244
223	0x3dffa4ec	0.12482628
224	0xbe00dc41	-0.1258402
225	0x3c1486dc	0.009065356
226	0xbc145c15	-0.009055157
227	0xbdfce0ec	-0.12347588
228	0x3e1320e3	0.14368014
229	0xbdce5a75	-0.10075847
230	0x3cd92800	0.026508331
231	0x3e153724	0.14571816
232	0x3e0a3e70	0.1350038
233	0xbe200995	-0.15628655
234	0x3e15b54c	0.1461994
235	0xbd9ce943	-0.07661679
236	0xbb990c47	-0.004670653
237	0xbdc78a0f	-0.097431295
238	0x3c84b0af	0.01619753
239	0x3dcbf50c	0.09958848
240	0xbe062f63	-0.13104014
241	0xbb41520e	-0.0029498371
242	0x3e2f1693	0.17098455
243	0x3de85cb2	0.11345805
244	0xbd233b90	-0.039851725
245	0xbe182611	-0.14858271
246	0x3b2dbda0	0.002651073
247	0xbd859c73	-0.06523981
248	0x3db63464	0.088967115
249	0x3df0a3d0	0.11749995
250	0xbdee27df	-0.116286986
251	0xbadd6e45	-0.0016893825
252	0x3dfde391	0.123969205
253	0x3da72ef4	0.081632525
254	0xbe188db3	-0.14897804
255	0xbe18073a	-0.14846507

conv_col_to_row.feature_module_left.0.bias f4 [32]
0	0x3dda48cd	0.10658417
1	0x3e03769c	0.12838215
2	0xbddf388b	-0.108994566
3	0x3d87366e	0.066021785
4	0xbca21b7b	-0.019788494
5	0x3de6d692	0.11271395
6	0xbdb22f73	-0.087004565
7	0x3e322073	0.17395191
8	0xbd749d7d	-0.059720505
9	0xbe14d007	-0.14532481
10	0xbddc4ac7	-0.1075645
11	0xbe1b6609	-0.15175642
12	0x3d17b2c2	0.03703571
13	0x3d90003d	0.070312954
14	0xbe27e09f	-0.1639428
15	0xbe1b50a9	-0.15167488
16	0x3db3c764	0.08778265
17	0x3e056667	0.13027345
18	0x3cd1234e	0.02552953
19	0x3d19a50c	0.037510917
20	0x3d3ea91d	0.046547998
21	0x3db0d059	0.08633489
22	0x3e25ee43	0.16204171
23	0xbdb45bbe	-0.08806561
24	0x3dba1c37	0.09087413
25	0xbd5880a1	-0.052857045
26	0x3e003011	0.12518336
27	0xbe2e9fac	-0.17053097
28	0xbdd098ab	-0.10185369
29	0xbd8c03c5	-0.068366565
30	0xbd6922f8	-0.056918114
31	0xbe2bc806	-0.16775522

conv_col_to_row.feature_module_edge.0.weight f4 [32, 1]
0	0x3f0b3e4a	0.5439192
1	0x3f1c0566	0.6094574
2	0x3dc0c238	0.09412044
3	0x3eaaf411	0.33389333
4	0x3daefaa0	0.08543897
5	0x3ee8c9df	0.45466515
6	0xbf3b09a1	-0.7306157
7	0xbea8f0f2	-0.32996327
8	0xbf026244	-0.5093119
9	0x3e54bef3	0.20775966
10	0xbf6911de	-0.9104289
11	0xbf56d4ec	-0.83918643
12	0xbf53c0a5	-0.8271583
13	0x3e07e66f	0.13271497
14	0xbf0849e9	-0.5323778
15	0x3db5386b	0.088486515
16	0xbd7fca19	-0.062448595
17	0xbe14e8cd	-0.14541931
18	0x3f316e83	0.6930925
19	0x3f27f7ce	0.65612495
20	0xbf3ab730	-0.7293577
21	0x3c1cf61a	0.00958016
22	0xbf50e940	-0.8160591
23	0xbf301564	-0.6878264
24	0x3f2f1202	0.6838685
25	0x3ed10e84	0.40831387
26	0xbf29a063	-0.66260356
27	0x3f26f6c7	0.652203
28	0xbe1ddfb9	-0.15417375
29	0x3e15eb52	0.14640549
30	0xbe878422	-0.26467997
31	0x3f6be13e	0.9214057

conv_col_to_row.feature_module_right.0.weight f4 [32, 32]
0	0xbd7ffa61	-0.06249464
1	0x3da18c9c	0.07888147
2	0xbdcf507e	-0.101227745
3	0x3df2741b	0.118385516
4	0xbdb0d844	-0.086349994
5	0xbdf219a1	-0.118212946
6	0xbc5e16ee	-0.013555272
7	0x3cf541d2	0.029938612
8	0x3bd79cf0	0.0065799877
9	0xbdd4a1a9	-0.10382397
10	0xbdc02f0c	-0.093839735
11	0x3d75879d	0.059943784
12	0xbdcfd4b3	-0.10147991
13	0x3b9a50f8	0.0047093593
14	0x3d9b9611	0.07596982
15	0x3c8fee9f	0.017569838
16	0x3e364e4b	0.17803304
17	0x3e267ecb	0.16259305
18	0x3cacfb47	0.021115912
19	0x3e0a1a9c	0.13486713
20	0xbe2af1e0	-0.1669383
21	0x3d16fbce	0.036861233
22	0x3e318690	0.17336488
23	0xbd773fc0	-0.06036353
24	0x3d8b5306	0.06802945
25	0x3d21fb0a	0.03954605
26	0x3e0cc374	0.13746434
27	0xbdca4398	-0.09876174
28	0xbdef30e8	-0.1167925
29	0x3bbfdc63	0.0058551296
30	0xbde6f57e	-0.11277293
31	0x3e17620b	0.14783494
32	0x3e1f707c	0.15570253
33	0x3dbc7e98	0.09203833
34	0xbc964a9a	-0.01834612
35	0x3e34415e	0.1760306
36	0xbe1f2727	-0.15542279
37	0x3e33349a	0.17500535
38	0xbd9fd2a8	-0.07803851
39	0x3e168902	0.14700702
40	0xbdde9c3e	-0.108696446
41	0xbdc31a5f	-0.09526514
42	0xbddafe72	-0.10693063
43	0x3db6f6cd	0.08933792
44	0x3d0d6acb	0.034525674
45	0x3dd04bc3	0.101707004
46	0x3bb83118	0.005621087
47	0xbd6f59ac	-0.058435127
48	0x3e0ca7e3	0.13735919
49	0xbe104ea9	-0.14092506
50	0x3d9a231e	0.07526229
51	0xbe19d180	-0.15021324
52	0x3e288cba	0.16459933
53	0x3c3e8761	0.0116289565
54	0xbd748ad8	-0.059702724
55	0x3e0a3d53	0.13499956
56	0xbe192c79	-0.14958371
57	0xbdc9b2f5	-0.098485865
58	0xbe11e720	-0.14248323
59	0xbd6bb0c7	-0.057541635
60	0xbd9b6eab	-0.075894676
61	0x3dc9c858	0.09852666
62	0xbe18c82f	-0.14920114
63	0x3b878e7d	0.004136859
64	0x3e0de853	0.13858156
65	0xbd1c79f3	-0.038202237
66	0xbd760bf5	-0.060069997
67	0xbda22cd3	-0.07918706
68	0x3db75115	0.08951012
69	0x3de82de6	0.113368794
70	0xbe078140	-0.13232899
71	0xbcbf1825	-0.023326943
72	0xbe1996a3	-0.1499887
73	0xbd56ca32	-0.052438922
74	0x3ca752db	0.02042525
75	0x3cc67cb5	0.024229387
76	0x3e032167	0.1280571
77	0x3df6501a	0.12026997
78	0x3d53bba1	0.05169261
79	0xbe247c35	-0.16063006
80	0xbd3beafb	-0.04587839
81	0x3e33ef55	0.17571767
82	0xbd66a4ac	-0.056309387
83	0x3d334312	0.043765135
84	0x3ce06341	0.027391078
85	0x3dc822b5	0.09772245
86	0xbdb88208	-0.090091765
87	0xbdc9897b	-0.098406754
88	0xbd394047	-0.045227315
89	0x3dee2204	0.11627582
90	0xbe254159	-0.1613821
91	0xbcd05d64	-0.025435157
92	0x3dd40946	0.10353331
93	0x3e0ff877	0.14059626
94	0x3d15a5ad	0.036534954
95	0xbdb23ca0	-0.087029696
96	0x3d23f066	0.040024184
97	0xbe0858a6	-0.13315067
98	0xbe305784	-0.17220885
99	0x3e096c61	0.1342025
100	0xbe3387ce	-0.17532274
101	0xbe068381	-0.13136102
102	0x3e281f62	0.16418222
103	0x3d81828b	0.06323727
104	0xbddb167f	-0.1069765
105	0xbe02207c	-0.12707704
106	0xbe1a51ca	-0.15070263
107	0xbd05fb52	-0.03271038
108	0xbddab2dd	-0.10678647
109	0x3da80442	0.08203937
110	0xbdf8b84b	-0.12144526
111	0xbd8bdc4f	-0.0682913
112	0xbd5907cd	-0.052985955
113	0x3d60177a	0.05470989
114	0xbc9b2692	-0.01893929
115	0xbcf85d34	-0.03031788
116	0xbda341d8	-0.07971543
117	0xbe2de1ad	-0.1698062
118	0x3e2d9dea	0.1695477
119	0x3e142bd2	0.14469841
120	0x3d7a8420	0.06116116
121	0xbc42b203	-0.011883262
122	0x3e02372c	0.12716359
123	0xbd3edad4	-0.04659541
124	0x3bb17a64	0.0054162014
125	0x3de61905	0.11235241
126	0xbddebaa1	-0.108754404
127	0x3de89fc6	0.11358599
128	0xbdaea9bd	-0.08528469
129	0xbe093a85	-0.1340123
130	0x3e3036f0	0.17208457
131	0xbd93cdb0	-0.07216966
132	0xbd967356	-0.07346217
133	0xbd6f4521	-0.058415536
134	0x3cff0429	0.031129913
135	0xbc6ebb0a	-0.014570961
136	0xbe18583c	-0.14877409
137	0xbe25c2ba	-0.16187564
138	0x3dd6ef95	0.104949154
139	0x3d973bb8	0.07384437
140	0x3e0a7148	0.13519776
141	0xbe273c04	-0.16331488
142	0x3c9a535c	0.018838577
143	0x3e116c91	0.14201571
144	0xbda42200	-0.080142975
145	0x3bfa7fe3	0.00764464
146	0x3af7f141	0.0018916504
147	0x3e202cb1	0.15642048
148	0xbe0d3627	-0.13790189
149	0xbd0c340b	-0.03422932
150	0x3d839d3d	0.06426475
151	0x3bbb34c2	0.0057130763
152	0x3d1b08e8	0.03785029
153	0xbddf8f55	-0.1091601
154	0xbe17bb01	-0.1481743
155	0x3e213c18	0.1574558
156	0x3c5303a9	0.012879291
157	0xbd8eb581	-0.06968213
158	0xbb69fb66	-0.0035702824
159	0x3d4be5d1	0.049779717
160	0x3da418c0	0.08012533
161	0x3e1d8395	0.15382226
162	0xbe2ae263	-0.16687922
163	0xbe0fe4a6	-0.14052066
164	0x3d7d602c	0.061859295
165	0xbdbda63c	-0.09260222
166	0x3d59868b	0.053106826
167	0x3e31525e	0.17316577
168	0xbd91d9f5	-0.0712165
169	0x3e1cf142	0.15326408
170	0x3d88ec1a	0.06685658
171	0x3dcf099e	0.10109256
172	0x3e28320d	0.16425343
173	0x3e305b0b	0.1722223
174	0x3de2a327	0.11066275
175	0x3db9a9ed	0.09065614
176	0x3d7d797b	0.06188343
177	0x3e1334ec	0.14375657
178	0x3e2cfca8	0.16893256
179	0xbe168488	-0.14698994
180	0x3e014974	0.12625676
181	0x3de0b826	0.109726235
182	0x3dbb8a76	0.09157269
183	0x3dafd06a	0.08584674
184	0xbdb59d8d	-0.08867941
185	0x3db9f711	0.09080327
186	0x3de467c1	0.11152602
187	0x3d355a04	0.0442753
188	0x3d1b78f3	0.037957143
189	0xbdf7eec0	-0.12106085
190	0xbe21bbbb	-0.1579427
191	0xbd6fd8f4	-0.058556512
192	0x3e1ddadc	0.1541552
193	0x3bf7bd50	0.0075604096
194	0x3d6b6f7c	0.057479367
195	0x3d7f7b96	0.06237372
196	0xbaccdc23	-0.0015629571
197	0xbad798c6	-0.0016448728
198	0xbc78464e	-0.015153481
199	0xbdea2fa7	-0.1143487
200	0x3da8580d	0.08219919
201	0xbdcb1e34	-0.0991787
202	0x3d585b45	0.052821416
203	0xbd9bc6b7	-0.07606261
204	0xbd5ce834	-0.053932384
205	0xbb2e830c	-0.0026628403
206	0xbda383ec	-0.079841465
207	0xbdf169fc	-0.11787793
208	0xbe0ca77e	-0.13735768
209	0x3d7257a5	0.059165616
210	0xbdff2a2e	-0.12459217
211	0xbe2eb3da	-0.17060795
212	0xbdd71141	-0.10501338
213	0x3c06d390	0.008229151
214	0x3c0cb5fc	0.00858831
215	0x3bf25ba3	0.007396178
216	0x3d4e6d95	0.050397474
217	0xbdaad55c	-0.08341476
218	0x3dc9e6be	0.09858464
219	0x3bdea90a	0.0067950534
220	0x3e0ce96d	0.1376092
221	0x3cdfc811	0.027317079
222	0x3d748436	0.0596964
223	0xbdff1fef	-0.12457263
224	0x3e0c3c93	0.13694982
225	0xbcab12f2	-0.020883057
226	0xbd98a0f3	-0.074525736
227	0x3e1678af	0.14694475
228	0xbd5f674b	-0.054541867
229	0x3de0bd4c	0.109736055
230	0x3c131e79	0.008979433
231	0x3b212d3e	0.0024593617
232	0x3e18fec9	0.14940943
233	0xbdca745d	-0.09885476
234	0x3cdc2ad9	0.0268759
235	0xbda27327	-0.0793212
236	0x3de037e1	0.10948158
237	0x3d0abfc9	0.033874307
238	0x3dc25337	0.09488528
239	0x3dda9728	0.10673362
240	0xbd656614	-0.056005552
241	0xbdd1ac1a	-0.10237904
242	0xbd3cffdc	-0.046142444
243	0x3ca669b1	0.02031407
244	0xbdccb04a	-0.09994562
245	0x3dd8db5a	0.10588713
246	0xbdc25aad	-0.09489951
247	0x3da9e0d1	0.082948335
248	0xbe19bf66	-0.15014419
249	0xbdb553bd	-0.088538624
250	0x3cd53b7f	0.026029347
251	0xbe3391de	-0.17536113
252	0x3e16b8c2	0.14718917
253	0x3e1ad2d9	0.15119494
254	0x3da0dab9	0.07854218
255	0xbcdbd77c	-0.02683615

conv_col_to_row.feature_module_final.0.weight f4 [32]
0	0x3f7f8d56	0.99825037
1	0x3f7fddaa	0.9994761
2	0x3f800000	1.0
3	0x3f7fdd65	0.99947196
4	0x3f800000	1.0
5	0x3f800075	1.000014
6	0x3f80b466	1.0055053
7	0x3f7fce4f	0.99924177
8	0x3f7fbd10	0.9989786
9	0x3f804b73	1.0023025
10	0x3f800040	1.0000076
11	0x3f7ff5f8	0.99984694
12	0x3f801621	1.0006753
13	0x3f80035e	1.0001028
14	0x3f7fee90	0.9997339
15	0x3f7f879b	0.9981629
16	0x3f805288	1.0025187
17	0x3f8001dd	1.0000569
18	0x3f800f79	1.0004722
19	0x3f800ea1	1.0004464
20	0x3f805957	1.0027264
21	0x3f801a01	1.0007936
22	0x3f7fddb2	0.99947655
23	0x3f7ff981	0.9999009
24	0x3f80735e	1.0035207
25	0x3f801084	1.000504
26	0x3f8060d0	1.0029545
27	0x3f800000	1.0
28	0x3f800000	1.0
29	0x3f7f9ad9	0.99845654
30	0x3f800000	1.0
31	0x3f800000	1.0

conv_col_to_row.feature_module_final.0.bias f4 [32]
0	0xba87d087	-0.0010361829
1	0xba44f336	-0.0007513048
2	0x00000000	0.0
3	0xba1b9a7b	-0.00059358
4	0x00000000	0.0
5	0xb544e130	-7.334338e-07
6	0x3a939390	0.0011259187
7	0xba1d7e2a	-0.00060078746
8	0xba24fda5	-0.00062938995
9	0x3aea5a7d	0.0017879751
10	0x39da73fa	0.0004166661
11	0xb953be0b	-0.00020193325
12	0x3a48e1bc	0.00076630316
13	0xba5fd871	-0.0008539027
14	0x3a6252e6	0.00086335687
15	0xba7b139e	-0.00095778133
16	0x39ddf1ad	0.00042332467
17	0xb7384240	-1.098268e-05
18	0x388ca534	6.706492e-05
19	0x3acfa2ef	0.0015841405
20	0x3af7de14	0.0018910789
21	0x392680ef	0.00015879025
22	0x399360ea	0.00028110232
23	0xba08b10b	-0.000521437
24	0x3b43e0fc	0.002988874
25	0x3919251f	0.00014605046
26	0x3aed6dbe	0.0018114371
27	0x00000000	0.0
28	0x00000000	0.0
29	0xbb033671	-0.0020021463
30	0x00000000	0.0
31	0x00000000	0.0
