GNN/ResultsGCNN/actor_0.pt (torch, 83151 bytes, 43 tensors)

row_embedding.0.weight f4 [7]
1.0001788 1.0000838 0.9997918 0.9998311 0.9999889 0.99989885 0.9998068
00000000: dc05 803f bf02 803f 5bf2 7f3f eef4 7f3f
00000010: 46ff 7f3f 5ff9 7f3f 57f3 7f3f

row_embedding.0.bias f4 [7]
-0.00018292517 0.00016206231 -0.00019831223 0.00018662811 2.283026e-05 8.388691e-05 0.00020638552
00000000: 9acf 3fb9 45ef 2939 09f2 4fb9 9ab1 4339
00000010: 9c83 bf37 71ec af38 3169 5839

row_embedding.1.weight f4 [32, 7]
0.054839984 0.056254506 0.137743 -0.3579241 -0.18372256 0.24008079 -0.08593964 -0.27260745
-0.063343875 -0.039016012 -0.10673087 0.1945058 0.0012196874 -0.087215096 -0.12670057 -0.2934203
-0.28468177 0.26219267 0.31795812 0.018915053 -0.20269589 -0.21166709 0.12786831 0.31770876
-0.35574868 0.028507907 0.0067357062 0.19698265 -0.1399261 -0.03223203 -0.30770928 0.20965616
-0.2032407 -0.20224836 -0.19631158 -0.10706581 0.053062256 -0.012633569 -0.35308617 0.099159054
-0.20253916 0.31425074 -0.26750833 -0.335619 0.27071887 -0.22352542 -0.3122692 -0.055800196
0.020498548 -0.24355525 0.27292544 0.22938322 0.25942823 0.21072063 0.030896684 0.033263884
-0.13716014 -0.07781404 0.022667233 0.015213106 -0.1363432 -0.2054876 0.2801611 0.047887072
-0.34240186 -0.2025877 0.3643944 -0.18838672 0.25577173 -0.35041183 -0.26596883 0.33712965
-0.09566199 -0.0061226343 -0.03937956 -0.25132683 0.25271836 -0.18160646 0.012702075 -0.35617074
-0.07500838 -0.01525137 0.25848788 0.13585153 0.28853235 -0.07373755 -0.30942875 -0.1070158
-0.06737566 0.31698313 -0.22833966 0.24911578 0.21232034 -0.21993908 -0.24456625 -0.15305713
-0.14694956 -0.2688438 -0.36042693 0.089879625 0.09893043 -0.27995735 0.2731984 -0.14323287
-0.11481824 0.0657685 0.28316325 -0.330334 -0.068184994 0.12146774 -0.30597478 0.2963492
0.1492981 0.3291546 -0.02594491 0.17212363 -0.25538638 0.34922236 0.09075732 0.19653583
-0.21793687 -0.26639616 -0.32487035 -0.34673175 0.0022160963 -0.021942237 -0.3529288 0.34000129
-0.17623691 -0.30013177 -0.16160546 0.318079 0.0915182 -0.19518793 -0.16586871 -0.23828535
0.1276316 0.2477077 -0.18989322 0.35704723 0.32954055 0.12923907 -0.008791967 0.27363285
0.10294674 -0.33519626 -0.25811583 0.19979851 0.03511166 0.35432598 -0.27312168 -0.28757203
-0.108273484 -0.2314185 0.2788785 0.03171747 -0.13630894 -0.046881136 0.03580393 -0.27210775
0.044211857 -0.24459577 0.058071032 0.13702558 -0.23258622 -0.20945655 -0.011963021 0.2976604
0.19031546 -0.08885229 0.33036622 0.097076684 0.36515114 0.2657806 -0.26207614 0.023315068
0.2319028 0.07540167 0.12035809 0.31217095 -0.27720386 0.12743692 -0.11474081 -0.15720432
0.33805194 0.27079913 0.2474969 0.037410054 -0.29284513 0.34317735 0.10896153 -0.038841292
-0.28948277 -0.10890534 -0.33003893 0.29457602 0.3187717 0.07482593 0.31812623 -0.24016798
-0.21343803 0.17975377 0.3683769 -0.23441839 -0.30634072 0.1274617 0.11583595 0.26671192
0.057281345 -0.3777081 0.1532172 -0.18011142 0.1942562 -0.28013113 -0.29240122 0.033897474
-0.06506453 -0.35136822 -0.18724398 -0.31110883 0.106485665 0.10123789 -0.119872406 -0.31697798
00000000: e49f 603d 206b 663d 800c 0d3e d441 b7be
00000010: c421 3cbe bdd7 753e 1f01 b0bd 3493 8bbe
00000020: 6fba 81bd 41cf 1fbd b795 dabd 872c 473e
00000030: ebdd 9f3a d49d b2bd cbbd 01be 303b 96be
00000040: cfc1 91be 1e3e 863e 68cb a23e bef3 9a3c
00000050: 838f 4fbe 42bf 58be e9ef 023e b9aa a23e
00000060: b124 b6be 6a89 e93c 33b7 dc3b d2b5 493e
00000070: ca48 0fbe bc05 04bd 128c 9dbe 1bb0 563e
00000080: 541e 50be 321a 4fbe e705 49be 5245 dbbd
00000090: cf57 593d 07fd 4ebc b6c7 b4be e713 cb3d
000000a0: 6d66 4fbe 79e5 a03e daf6 88be 41d6 abbe
000000b0: aa9b 8a3e d9e3 64be c0e1 9fbe bf8e 64bd
000000c0: 92ec a73c 8c66 79be e2bc 8b3e 6fe3 6a3e
000000d0: c7d3 843e 26c7 573e 0b1b fd3c b63f 083d
000000e0: b573 0cbe f85c 9fbd a2b0 b93c 6440 793c
000000f0: 8d9d 0bbe 576b 52be 4771 8f3e 3c25 443d
00000100: 4c4f afbe 2673 4fbe e791 ba3e 73e8 40be
00000110: 83f4 823e 2e69 b3be 112d 88be 429c ac3e
00000120: 6fea c3bd 61a0 c8bb 764c 21bd e9ad 80be
00000130: 4d64 813e 0bf7 39be 5d1c 503c 035c b6be
00000140: fe9d 99bd e2e0 79bc 8658 843e aa1c 0b3e
00000150: 83ba 933e b603 97bd 726d 9ebe 1a2b dbbd
00000160: 40fc 89bd 9d4b a23e dfd1 69be 3518 7f3e
00000170: 816a 593e b637 61be 936f 7abe 02bb 1cbe
00000180: f279 16be e5a5 89be e189 b8be cf12 b83d
00000190: 0a9c ca3d 9256 8fbe a9e0 8b3e a3ab 12be
000001a0: d325 ebbd a3b1 863d c6fa 903e 8a21 a9be
000001b0: 93a4 8bbd 14c4 f83d baa8 9cbe 15bb 973e
000001c0: 9ae1 183e f486 a83e 6b8a d4bc 2d41 303e
000001d0: 01c2 82be 46cd b23e f9de b93d b040 493e
000001e0: d82a 5fbe 1465 88be 6855 a6be d386 b1be
000001f0: ed3b 113b 35c0 b3bc 15b3 b4be a614 ae3e
00000200: 7377 34be dfaa 99be e77b 25be 40db a23e
00000210: e56d bb3d 58df 47be 7dd9 29be 1301 74be
00000220: dcb1 023e 16a7 7d3e 5e73 42be e5ce b63e
00000230: 8ab9 a83e 3f57 043e 2f0c 10bc 9b19 8c3e
00000240: bed5 d23d d89e abbe c227 84be fb97 4c3e
00000250: 3ed1 0f3d 376a b53e 9bd6 8bbe a43c 93be
00000260: 7dbe ddbd f9f8 6cbe 2ac9 8e3e 2eea 013d
00000270: 9294 0bbe 6f06 40bd 24a7 123d b551 8bbe
00000280: 7e17 353d 5077 7abe e4db 6d3d 6f50 0c3e
00000290: 152b 6ebe c77b 56be 8c00 44bc f266 983e
000002a0: 0ee2 423e 30f8 b5bd c325 a93e 24d0 c63d
000002b0: 17f5 ba3e 6514 883e d82e 86be 3eff be3c
000002c0: ed77 6d3e 316c 9a3d 4d7e f63d dfd4 9f3e
000002d0: aaed 8dbe d37e 023e 3bfd eabd 2bfa 20be
000002e0: 2515 ad3e 2fa6 8a3e d46f 7d3e 493b 193d
000002f0: ccef 95be f1b4 af3e 3927 df3d 0c18 1fbd
00000300: 1637 94be c309 dfbd ddfa a8be abd2 963e
00000310: 0b36 a33e 563e 993d 71e1 a23e 98ee 75be
00000320: 808f 5abe 5f11 383e e69b bc3e 600b 70be
00000330: b1d8 9cbe 5285 023e 663b ed3d 778e 883e
00000340: d89f 6a3d f562 c1be f8e4 1c3e 216f 38be
00000350: 19eb 463e 596d 8fbe 9db5 95be 14d8 0a3d
00000360: 8d40 85bd 89e6 b3be e3bc 3fbe a849 9fbe
00000370: 2815 da3d d055 cf3d aa7f f5bd f04a a2be

row_embedding.1.bias f4 [32]
-0.050922815 0.25672963 0.111061215 -0.3688686 0.081452996 -0.122623846 0.017229825 -0.10576299
0.14980829 -0.20947346 -0.35012943 -0.026072238 0.31935218 0.14897513 0.34600917 0.09721653
-0.15660653 0.017760662 -0.122299306 0.30555516 0.28197727 -0.025169706 0.20855238 -0.09889386
0.32175454 0.2061894 -0.14910448 0.1257277 -0.29466608 -0.19687687 0.020757984 -0.2153022
00000000: 7194 50bd 1172 833e 1074 e33d 58dc bcbe
00000010: d4d0 a63d 3622 fbbd 9025 8d3c 449a d8bd
00000020: 5867 193e 3680 56be 2a44 b3be 7295 d5bc
00000030: 2182 a33e f08c 183e 1d28 b13e 7619 c73d
00000040: 765d 20be cf7e 913c 0f78 fabd ba71 9c3e
00000050: 535f 903e b330 cebc c18e 553e dd88 cabd
00000060: 03bd a43e 5023 533e d8ae 18be c3be 003e
00000070: 79de 96be 179a 49be a60c aa3c 2e78 5cbe

row_embedding.3.weight f4 [32, 32]
-0.12222615 -0.04160468 0.06971212 0.01187626 0.10006532 0.0019406097 0.16271548 0.14558321
0.099775776 -0.14749932 0.034064326 0.028446471 0.09883809 0.003578452 0.13788272 0.15348546
0.1568931 0.034798935 -0.119135745 0.10299675 0.041520976 0.054988496 0.045968667 0.113778144
-0.16351156 0.107417665 0.12569492 0.15175578 0.017797245 -0.15667042 0.1475809 -0.030426035
0.034757003 0.028051218 -0.17667876 0.0077978307 -0.017489677 -0.04513427 0.07756189 0.042748325
-0.094139725 -0.0382127 -0.09992643 -0.16065228 0.08793994 0.10249648 0.15707119 -0.17013149
-0.049703486 0.13068154 0.07980254 -0.13408604 0.12892286 0.12249264 0.13228647 0.121799044
0.13984069 -0.06977743 0.13896644 0.11361962 -0.13360158 0.056935273 -0.1366547 -0.09157132
0.014921957 0.16158208 -0.10690751 -0.1480232 0.17047076 -0.082592174 -0.16323704 -0.07314143
0.119905286 0.03202324 0.15942201 0.10556092 0.009553229 0.16180861 -0.081247374 0.08817579
-0.037382163 -0.016246554 0.040885594 0.12784259 0.15286127 0.050816394 -0.051573582 0.17034249
0.033421442 0.056349 0.05610334 -0.16170365 0.16810685 0.16462465 0.1299855 0.1534474
-0.080141455 -0.037089422 -0.15397789 0.05744101 0.047532126 0.0609223 0.17108734 -0.023371281
0.08987601 0.116319455 -0.107004374 -0.03011732 0.12783673 -0.102839515 0.062155634 0.09025213
-0.018804852 0.17084432 -0.068001844 0.073547676 -0.039523493 -0.15882635 0.07484973 -0.06601301
-0.002547133 0.1554776 -0.0789746 -0.06393026 -0.17349826 -0.12638517 -0.11324273 0.045133803
0.093249306 -0.027959133 -0.11438684 0.0112256305 0.084144056 -0.06349381 -0.10914675 0.09438862
-0.16990817 0.07274158 0.13754332 -0.1732191 -0.049253102 -0.03780608 0.01308004 -0.17259336
-0.105910674 -0.102928944 0.069033206 0.062101085 -0.13436468 0.04825828 0.01059922 0.06600331
-0.06484469 0.1206852 -0.08089182 -0.13199817 0.10861412 -0.1738235 0.121947505 -0.05012162
-0.08726509 -0.15942536 -0.03314835 0.061243523 -0.056245875 0.16317888 0.09268113 0.06056148
-0.16477668 0.0038441087 -0.12670322 0.046177898 -0.039336897 0.109424725 -0.002471702 -0.16361554
-0.097041495 -0.17561494 -0.044692665 0.0850422 -0.14448197 0.11751258 -0.17436425 -0.01320014
0.0005948395 -0.088530995 -0.15277126 -0.096792765 -0.1436452 -0.020046221 0.026842527 -0.16388138
0.08862713 0.13018197 0.12253376 -0.037483677 0.14092931 0.056206997 -0.1231306 -0.07848934
-0.15499894 0.08187596 0.12712619 0.06491419 -0.029655939 -0.13851687 -0.16279094 0.018110042
-0.020813277 0.13297811 -0.072617486 0.13533345 0.09814446 0.11511593 0.0414333 0.13490021
-0.085971296 -0.043602854 -0.084837526 0.01438013 0.16634111 -0.047425542 -0.032009788 0.107693456
-0.065336086 -0.04316843 -0.121978566 -0.12850161 0.03517741 0.13801569 0.13889349 -0.1014867
0.08806225 -0.10995328 -0.17419331 -0.0025531582 0.15122655 -0.020730568 -0.1471109 -0.05987392
0.06703097 0.13355651 -0.17506571 0.04436256 0.05954818 0.032946613 -0.17336082 -0.06208219
-0.03325486 -0.09758031 -0.13326718 0.031745307 -0.016716765 -0.011516187 -0.12561955 0.14047186
00000000: b451 fabd ab69 2abd 3ac5 8e3d a594 423c
00000010: 0cef cc3d 0e5c fe3a e39e 263e c413 153e
00000020: 3e57 cc3d 100a 17be 0987 0b3d 9308 e93c
00000030: a06b ca3d 7684 6a3b 2131 0d3e 4b2b 1d3e
00000040: 96a8 203e 5489 0e3d 71fd f3bd f6ef d23d
00000050: e611 2a3d 9e3b 613d a449 3c3d 8404 e93d
00000060: 936f 27be cbfd db3d 2bb6 003e de65 1b3e
00000070: 87cb 913c 366e 20be 731f 173e 0540 f9bc
00000080: 5c5d 0e3d abcb e53c 47eb 34be f284 ff3b
00000090: 8346 8fbc b6de 38bd c5d8 9e3d de18 2f3d
000000a0: 54cc c0bd ec84 1cbd 3aa6 ccbd 0882 24be
000000b0: db19 b43d ade9 d13d 45d7 203e f336 2ebe
000000c0: e295 4bbd 62d1 053e 846f a33d da4d 09be
000000d0: 5b04 043e 6cdd fa3d 1b76 073e c771 f93d
000000e0: 6632 0f3e 78e7 8ebd 384d 0e3e 67b1 e83d
000000f0: dace 08be f634 693d 36ef 0bbe bf89 bbbd
00000100: 397b 743c c675 253e 53f2 dabd 6593 17be
00000110: e38f 2e3e 1626 a9bd 9c27 27be 2dcb 95bd
00000120: e790 f53d cd2a 033d 863f 233e 5330 d83d
00000130: 2685 1c3c 28b1 253e 0665 a6bd 8295 b43d
00000140: 0a1e 19bd 7e17 85bc a777 273d 2be9 023e
00000150: aa87 1c3e da24 503d d23e 53bd 436e 2e3e
00000160: ece4 083d 36ce 663d 9ecc 653d a495 25be
00000170: 3424 2c3e 5d93 283e eb1a 053e 5121 1d3e
00000180: 3421 a4bd 14eb 17bd 61ac 1dbe 4447 6b3d
00000190: 0cb1 423d a989 793d 8531 2f3e 2175 bfbc
000001a0: ea10 b83d e538 ee3d 1c25 dbbd 99b8 f6bc
000001b0: a2e7 023e 869d d2bd e896 7e3d 1cd6 b83d
000001c0: a20c 9abc d0f1 2e3e 8d44 8bbd 2aa0 963d
000001d0: 63e3 21bd 60a3 22be d14a 993d d431 87bd
000001e0: cded 26bb 8535 1f3e 6fbd a1bd deed 82bd
000001f0: 87a9 31be 1d6b 01be ceeb e7bd 39de 383d
00000200: 7ef9 be3d 8d0a e5bc a643 eabd b5eb 373c
00000210: b853 ac3d 0b09 82bd 5588 dfbd d24e c13d
00000220: 68fc 2dbe 8af9 943d 28d8 0c3e 5960 31be
00000230: 9fbd 49bd 8cda 1abd aa4d 563c 50bc 30be
00000240: b2e7 d8bd 69cc d2bd 4861 8d3d b55d 7e3d
00000250: e596 09be 79aa 453d 5aa8 2d3c be2c 873d
00000260: 4bcd 84bd cd29 f73d 9caa a5bd 872a 07be
00000270: 1471 de3d cafe 31be 9dbf f93d 544c 4dbd
00000280: 0ab8 b2bd 6740 23be 90c6 07bd 7dda 7a3d
00000290: 1362 66bd 5d18 273e 9bcf bd3d 500f 783d
000002a0: 38bb 28be 71ed 7b3b 7dbe 01be 0925 3d3d
000002b0: ba1f 21bd 121a e03d 47fc 21bb d58a 27be
000002c0: b1bd c6bd 67d4 33be a80f 37bd 9b2a ae3d
000002d0: 15f3 13be 6faa f03d 8b8c 32be 6645 58bc
000002e0: 01ef 1b3a bd4f b5bd 1270 1cbe 493b c6bd
000002f0: ba17 13be f937 a4bc dce4 db3c 85d0 27be
00000300: 2482 b53d 6c4e 053e fbf2 fa3d 7c88 19bd
00000310: c64f 103e 4f39 663d e52b fcbd 05bf a0bd
00000320: 0bb8 1ebe 95ae a73d 5e2d 023e bbf1 843d
00000330: 03f1 f2bc 5ed7 0dbe abb2 26be 835b 943c
00000340: 9b80 aabc 6a2b 083e 7ab8 94bd da94 0a3e
00000350: f6ff c83d e7c1 eb3d f7b5 293d 4823 0a3e
00000360: b811 b0bd e898 32bd 4cbf adbd a39a 6b3c
00000370: 5355 2a3e 4941 42bd b21c 03bd 638e dc3d
00000380: edce 85bd 61d1 30bd e6cf f9bd ed95 03be
00000390: 3016 103d fc53 0d3e 183a 0e3e 42d8 cfbd
000003a0: fb59 b43d 2f2f e1bd bb5f 32be e352 27bb
000003b0: 22db 1a3e 27d3 a9bc 3da4 16be 5b3e 75bd
000003c0: 8847 893d 0ac3 083e 6d44 33be 84b5 353d
000003d0: cbe8 733d 07f3 063d 8085 31be e549 7ebd
000003e0: 4036 08bd 30d8 c7bd 3177 08be 5e07 023d
000003f0: 99f1 88bc 64ae 3cbc 69a2 00be dbd7 0f3e

row_embedding.3.bias f4 [32]
0.1085323 -0.052330136 -0.05987888 -0.040734358 0.017043415 -0.12979893 0.10876766 0.14162625
-0.06601819 0.10161384 0.13373022 0.098300144 -0.019424377 0.042770382 0.10472617 0.105684854
0.094973534 -0.074852526 0.04995389 0.090925254 -0.013481405 0.03233916 0.055541284 0.065387286
0.104143985 0.04127306 0.16461 -0.053500187 0.0025319157 -0.009379978 -0.1491641 0.12057066
00000000: 2f46 de3d 2058 56bd 8e43 75bd 12d9 26bd
00000010: a29e 8b3c 03ea 04be 94c1 de3d 7906 113e
00000020: 8b34 87bd eb1a d03d 93f0 083e 9651 c93d
00000030: df1f 9fbc ff2f 2f3d ad7a d63d 4d71 d83d
00000040: 7c81 c23d 484c 99bd 739c 4c3d 0537 ba3d
00000050: 1ce1 5cbc 1176 043d 427f 633d c5e9 853d
00000060: 7149 d53d f10d 293d 868f 283e 0323 5bbd
00000070: 7fee 253b 7bae 19bc 79be 18be c0ed f63d

col_embedding.0.weight f4 [7]
0.9998358 1.0002166 1.0002084 1.0002029 0.9997949 0.9997857 1.0000242
00000000: 3df5 7f3f 1907 803f d406 803f a606 803f
00000010: 8ff2 7f3f f5f1 7f3f cb00 803f

col_embedding.0.bias f4 [7]
0.00016471921 -0.00021961432 0.00021741685 -0.00020659248 0.00020905158 0.0002162505 0.00022315676
00000000: 7ab8 2c39 4548 66b9 64fa 6339 bfa0 58b9
00000010: db34 5b39 4dc1 6239 30ff 6939

col_embedding.1.weight f4 [32, 7]
0.35488504 0.0030914731 -0.002332481 -0.17660476 0.27434003 -0.3660846 -0.10314037 -0.11623232
-0.25870222 -0.16412467 0.18577193 -0.21341018 0.005116704 -0.23629998 -0.19712928 0.013117423
0.270751 -0.17685498 0.031899888 0.09019578 0.20934111 0.28469 0.28173086 -0.10412799
0.059769955 -0.31004202 -0.018658297 0.17636554 0.14750995 0.3200635 0.29650667 -0.18001047
-0.06715032 -0.25238708 -0.3667484 -0.37705266 0.037630554 -0.07163864 0.24161269 -0.22786893
0.16851676 -0.120157674 -0.033039596 0.36363876 0.37206167 0.20488599 0.23090348 0.036803924
0.17371692 0.077618696 -0.1230945 0.18495719 -0.35490024 0.071245976 0.072697334 0.1293031
-0.10882839 -0.17933203 -0.09347304 -0.012137741 -0.22278622 -0.15324332 0.17577796 0.07541169
-0.32527378 -0.053824563 -0.024717866 0.1639928 0.3012003 -0.37750205 0.36502948 0.017319059
0.3632964 -0.12914535 -0.28693113 -0.23906347 -0.23373991 0.35752362 0.1330397 -0.26811877
-0.06488379 -0.17294839 -0.23075993 0.220435 0.29394844 -0.29823834 0.023086106 0.24839883
0.16262236 -0.072152436 -0.22749032 -0.32598415 -0.20702995 0.01249959 -0.035508286 0.20086053
0.16786505 -0.0075040455 -0.017449295 0.18928236 -0.18858305 0.21378346 0.3206067 0.22467977
0.08767912 0.045556583 -0.027869636 0.19879796 0.25742522 -0.028229062 0.126806 -0.28420126
0.18742675 0.27423504 -0.00038694058 -0.1531731 -0.09261087 -0.12220398 -0.3416923 0.3262096
-0.0112166805 -0.3185822 0.258506 0.31889865 0.31323043 -0.22907293 -0.25615153 0.078049995
0.069413535 -0.22006688 0.06687758 0.25368798 -0.27631664 0.3693098 -0.3501934 -0.08337643
-0.056785773 0.086250365 -0.012632384 0.25306055 0.06995702 -0.16210037 -0.3737763 -0.29371914
0.2045775 0.15600891 0.2013607 -0.042976778 0.10830731 -0.32129878 0.010865556 -0.15605219
-0.25293916 -0.09003008 0.22737543 0.230432 0.056837447 -0.064085044 -0.1745659 -0.01520088
-0.044948902 0.22609542 0.11394583 -0.2872983 -0.3211553 0.12478088 0.027446859 0.13653803
-0.16834326 0.16114154 -0.30643335 0.08612802 -0.25653943 -0.29801086 -0.078967355 0.27248847
-0.25946954 -0.26737455 0.18586628 -0.35281 -0.008830119 -0.26466778 0.26972055 -0.057245437
-0.09967041 -0.22930603 0.02397883 0.14316237 0.09770448 0.1969863 0.3715368 0.18449679
0.3131301 0.076269284 -0.23225482 -0.2948986 0.35900778 -0.13688326 0.32673192 0.051897388
-0.13072173 -0.2228664 -0.34958062 0.017587816 0.100667275 -0.0059848516 -0.3040268 0.28270543
0.26495373 0.35645512 0.3507178 -0.104975834 -0.19362435 0.17619474 0.008482159 0.13965943
-0.05587972 0.17391022 -0.36594653 0.34557554 0.15862402 0.3624988 0.0051062414 0.23670183
00000000: 7eb3 b53e 509a 4a3b 8adc 18bb e1d7 34be
00000010: 4c76 8c3e 716f bbbe 423b d3bd 360b eebd
00000020: 9e74 84be 4c10 28be ff3a 3e3e 3388 5abe
00000030: 06aa a73b 9ff8 71be 42dc 49be 76ea 563c
00000040: e09f 8a3e 7919 35be 75a9 023d 91b8 b83d
00000050: 845d 563e e3c2 913e 073f 903e 0e41 d5bd
00000060: 57d1 743d d4bd 9ebe 49d9 98bc 2b99 343e
00000070: d90c 173e 5ddf a33e b9cf 973e aa54 38be
00000080: 1b86 89bd e138 81be 72c6 bbbe 0c0d c1be
00000090: 7f22 1a3d 47b7 92bd 5169 773e 7956 69be
000000a0: a88f 2c3e 3a15 f6bd 8754 07bd dc2e ba3e
000000b0: de7e be3e a2cd 513e f671 6c3e b6bf 163d
000000c0: d9e2 313e 8df6 9e3d f818 fcbd 6b65 3d3e
000000d0: 7cb5 b5be 69e9 913d 57e2 943d 0868 043e
000000e0: 6be1 debd d1a2 37be cb6e bfbd 60dd 46bc
000000f0: 1222 64be d1eb 1cbe 23ff 333e 7271 9a3d
00000100: 498a a6be 2577 5cbd 1f7d cabc bbed 273e
00000110: ed36 9a3e f347 c1be 25e5 ba3e b3e0 8d3c
00000120: fc01 ba3e ae3e 04be a3e8 92be 0ecd 74be
00000130: 8459 6fbe 560d b73e 8f3b 083e dd46 89be
00000140: cbe1 84bd 6219 31be 554c 6cbe b6b9 613e
00000150: 6980 963e b2b2 98be 131f bd3c 435c 7e3e
00000160: 7a86 263e a8c4 93bd 39f3 68be 65e7 a6be
00000170: a9ff 53be 15cb 4c3c 2371 11bd 62ae 4d3e
00000180: d1e4 2b3e 7fe4 f5bb d3f1 8ebc 3cd3 413e
00000190: ea1b 41be 0dea 5a3e 9026 a43e 7412 663e
000001a0: 1c91 b33d 8a99 3a3d dd4e e4bc b191 4b3e
000001b0: 3dcd 833e a240 e7bc 6fd9 013e d482 91be
000001c0: ccec 3f3e 8968 8c3e 49de cab9 69d9 1cbe
000001d0: c5aa bdbd 1546 fabd 4bf2 aebe f204 a73e
000001e0: 2bc6 37bc 351d a3be e65a 843e af46 a33e
000001f0: bd5f a03e 1892 6abe 4b26 83be add8 9f3d
00000200: af28 8e3d 3659 61be 1df7 883d 64e3 813e
00000210: 6079 8dbe 2d16 bd3e 8d4c b3be 43c1 aabd
00000220: 3398 68bd 08a4 b03d 0ff8 4ebc 2791 813e
00000230: a045 8f3d a4fd 25be 9b5f bfbe 5b62 96be
00000240: c47c 513e cdc0 1f3e 8031 4e3e 6b08 30bd
00000250: 39d0 dd3d 4681 a4be 7205 323c 25cc 1fbe
00000260: 3e81 81be b161 b8bd 1bd5 683e 5ef6 6b3e
00000270: 62ce 683d 053f 83bd 67c1 32be 1d0d 79bc
00000280: 571c 38bd 8f85 673e 6e5c e93d c318 93be
00000290: 786e a4be 1e8d ff3d 3cd8 e03c a0d0 0b3e
000002a0: 2d62 2cbe 4a02 253e d5e4 9cbe e363 b03d
000002b0: 2359 83be e194 98be a3b9 a1bd 9c83 8b3e
000002c0: 31d9 84be 51e5 88be bb53 3e3e 83a3 b4be
000002d0: 34ac 10bc 8982 87be d018 8a3e 317a 6abd
000002e0: 0020 ccbd 33cf 6abe 406f c43c 2899 123e
000002f0: 4919 c83d c7b6 493e 123a be3e baec 3c3e
00000300: 9752 a03e 1233 9c3d 35d4 6dbe f3fc 96be
00000310: decf b73e 202b 0cbe 6849 a73e 5b92 543d
00000320: ebdb 05be 1737 64be 3bfc b2be 5314 903c
00000330: a52a ce3d 931c c4bb 67a9 9bbe c4be 903e
00000340: 04a8 873e 4981 b63e 4991 b33e 92fd d6bd
00000350: 7645 46be 656c 343e c1f8 0a3c e202 0f3e
00000360: 22e2 64bd 8515 323e 585d bbbe 47ef b03e
00000370: 566e 223e 7199 b93e 4252 a73b f761 723e

col_embedding.1.bias f4 [32]
-0.2632901 -0.17239581 -0.07787726 -0.28618732 -0.29964387 0.27137682 -0.19683865 -0.16097677
-0.040664505 -0.036573168 0.097764656 0.270122 0.057088897 -0.16858418 0.1273116 -0.37576964
0.3533934 0.0045871134 -0.20742455 -0.039653923 -0.023821766 -0.33047983 0.27841997 0.07739686
-0.35357013 0.3052247 -0.27907717 -0.08194999 0.1135125 0.35405552 -0.04945178 0.33576414
00000000: f6cd 86be 8788 30be 1d7e 9fbd 2587 92be
00000010: ec6a 99be e7f1 8a3e 1290 49be 18d7 24be
00000020: d38f 26bd bfcd 15bd d638 c83d 6e4d 8a3e
00000030: 0cd6 693d 55a1 2cbe f95d 023e e164 c0be
00000040: fbef b43e 7f4f 963b 1a67 54be 276c 22bd
00000050: dd25 c3bc a734 a9be 108d 8e3e 3f82 9e3d
00000060: 2507 b5be 6946 9c3e 34e3 8ebe 65d5 a7bd
00000070: 3e79 e83d c446 b53e f38d 4abd 47e9 ab3e

col_embedding.3.weight f4 [32, 32]
0.13910313 0.12780307 -0.0070284056 -0.1379651 0.07787519 -0.031571724 -0.16695346 0.1363914
0.13624342 0.15253402 0.094924934 0.11100684 -0.14354673 -0.007956282 0.05680164 0.072895736
-0.05447328 -0.03376348 -0.13041922 -0.15750952 0.010109563 0.17230818 -0.11913237 0.16727433
-0.15924017 -0.117464714 -0.13721788 -0.12587377 0.14596601 0.0018709473 -0.044997312 0.1708144
0.088319324 -0.13762496 0.15198588 -0.08743401 0.094958 0.050572213 0.05749337 -0.04825109
0.16409764 -0.0032089157 0.106287695 0.121284746 -0.15275195 -0.030307798 -0.101376615 -0.017861895
-0.14833994 -0.016579894 -0.11530751 -0.066666104 0.097666085 -0.014699746 0.16480654 0.06101601
0.057289347 0.047033276 -0.1752022 0.1707355 -0.0062879566 -0.17045279 -0.0050698803 -0.087841935
-0.059562705 -0.044888712 -0.023700945 -0.105734475 -0.10336225 0.061721925 0.15605761 0.1746708
-0.0821485 -0.1583669 -0.03558234 -0.015244463 -0.15635188 -0.13172616 -0.01129721 0.06909599
0.00066562346 -0.05266042 -0.025041647 0.16073912 0.0748151 -0.09934332 0.10443843 0.11953643
-0.09682463 -0.034218732 0.109637395 0.003672499 0.027806493 -0.040556293 -0.04185064 0.08343031
0.10759101 -0.0443443 -0.02187204 0.027096936 0.07857776 -0.17178951 -0.070792176 0.10492031
0.15517603 -0.1683679 0.041060824 -0.045988657 0.06576461 -0.009957564 -0.076201566 -0.1460619
-0.050274376 0.037566382 -0.050223902 0.008531503 0.06225224 0.115155324 0.12063733 0.0645283
0.11302994 -0.15107168 0.12043287 -0.023679795 0.12044859 0.13675956 0.141718 0.06628339
0.105947584 0.06023832 0.031239048 -0.089029 0.008951716 0.14135516 -0.036488105 -0.029095408
0.13258031 0.09905782 -0.08223295 -0.16237867 0.017119491 -0.1343692 -0.13137294 0.14291047
0.10247414 -0.16459344 -0.09247021 0.09564254 -0.13070372 0.07338082 0.030565124 -0.1222604
0.006577711 0.05897111 0.16982822 0.10480275 0.025129545 -0.07049476 -0.16001171 0.022500316
0.026380913 0.068944596 -0.05660293 -0.1326461 0.11227649 0.09230737 -0.05446152 0.1323751
0.15122269 0.10445991 -0.09087212 -0.1173836 -0.100840166 0.14380021 -0.11536284 0.050729867
-0.046118207 -0.10186143 0.13794318 0.042866345 -0.075448886 -0.04755294 0.12568668 -0.018495407
0.049552217 -0.13798063 -0.067762144 -0.047372196 0.14659452 -0.16020566 0.087569304 0.010966952
0.0467383 -0.061368044 0.116265774 -0.00085652905 -0.112946205 -0.016568389 0.07880183 0.120651625
0.17163025 0.16147043 -0.029235765 -0.094825625 0.020953905 -0.16020474 0.12554301 0.0044334135
0.1720555 -0.07247081 0.09978443 0.1563464 -0.027546624 0.10137145 -0.11590482 0.15872805
0.04256303 0.1416198 0.022399308 -0.014671474 0.047683123 0.1203539 0.115561254 -0.121724196
-0.121102035 0.085456125 0.16576552 0.14644569 -0.10434322 0.022160083 -0.017203903 -0.1523094
0.14150925 0.16312507 0.043959904 -0.11076959 -0.018130917 0.122466706 -0.0990574 -0.047713447
-0.08871998 0.008541185 -0.078182265 -0.028945731 -0.050074164 0.10579055 -0.08787903 0.047588848
0.13971008 0.14302836 -0.15317631 -0.055795405 -0.09549833 -0.13806866 0.05608736 0.11995034
00000000: 0d71 0e3e cfde 023e 8a4e e6bb b946 0dbe
00000010: 077d 9f3d 5a51 01bd d9f5 2abe 30aa 0b3e
00000020: 6583 0b3e e131 1c3e 0168 c23d 8e57 e33d
00000030: eafd 12be 115b 02bc d6a8 683d 5c4a 953d
00000040: 601f 5fbd 934b 0abd 9e8c 05be 2d4a 21be
00000050: 95a2 253c 8e71 303e acfb f3bd f649 2b3e
00000060: db0f 23be 5791 f0bd d882 0cbe 0ee5 00be
00000070: 1d78 153e 933a f53a 1a4f 38bd f8e9 2e3e
00000080: c3e0 b43d 8fed 0cbe 30a2 1b3e 9a10 b3bd
00000090: 5779 c23d cf24 4f3d 2b7e 6b3d efa2 45bd
000000a0: 3609 283e ac4c 52bb 5dad d93d 2364 f83d
000000b0: 026b 1cbe 0f48 f8bc 8b9e cfbd 1c53 92bc
000000c0: 6de6 17be 8fd2 87bc 5826 ecbd 3d88 88bd
000000d0: 2805 c83d 34d7 70bc 0cc3 283e eceb 793d
000000e0: 3ca8 6a3d f7a5 403d 3568 33be 49d5 2e3e
000000f0: 340b cebb 2d8b 2ebe 3d21 a6bb 79e6 b3bd
00000100: 06f8 73bd 3add 37bd 7c28 c2bc 518b d8bd
00000110: 96af d3bd 21d0 7c3d 91cd 1f3e e7dc 323e
00000120: 793d a8bd ef2a 22be cabe 11bd eac3 79bc
00000130: b51a 20be 39e3 06be ef17 39bc 3382 8d3d
00000140: 3c7d 2e3a 74b2 57bd 2424 cdbc cc98 243e
00000150: a938 993d 8374 cbbd d1e3 d53d 84cf f43d
00000160: fe4b c6bd f128 0cbd 9289 e03d 4fae 703b
00000170: 71ca e33c 5b1e 26bd 946b 2bbd 83dd aa3d
00000180: ad58 dc3d 5ea2 35bd fe2c b3bc 65fa dd3c
00000190: 60ed a03d 97e9 2fbe 7dfb 90bd 76e0 d63d
000001a0: 77e6 1e3e a368 2cbe 652f 283d 9a5e 3cbd
000001b0: 99af 863d 0d25 23bc 910f 9cbd 4091 15be
000001c0: 81ec 4dbd 35df 193d 94b7 4dbd b8c7 0b3c
000001d0: 34fc 7e3d 8ed6 eb3d b410 f73d 6a27 843d
000001e0: 3e7c e73d 89b2 1abe 82a5 f63d 21fc c1bc
000001f0: c0ad f63d b30a 0c3e 861e 113e 96bf 873d
00000200: 0cfb d83d 75bc 763d 08e9 ff3c d654 b6bd
00000210: 38aa 123c 68bf 103e 8d74 15bd 7e59 eebc
00000220: 22c3 073e d4de ca3d c069 a8bd 9846 26be
00000230: 2d3e 8c3c 1498 09be a186 06be 1f57 123e
00000240: f6dd d13d 2f8b 28be 0561 bdbd 3ce0 c33d
00000250: 32d7 05be af48 963d b663 fa3c a963 fabd
00000260: d789 d73b b18b 713d 73e7 2d3e d3a2 d63d
00000270: 7adc cd3c 8f5f 90bd 1cda 23be 9552 b83c
00000280: c91c d83c d332 8d3d 79d8 67bd 61d4 07be
00000290: 37f1 e53d a50b bd3d 0b13 5fbd 578d 073e
000002a0: 1fda 1a3e 14ef d53d 291b babd d066 f0bd
000002b0: 4a85 cebd 5d40 133e 5a43 ecbd 1fca 4f3d
000002c0: 72e6 3cbd ba9c d0bd fa40 0d3e 9f94 2f3d
000002d0: f284 9abd dfc6 42bd 02b4 003e ae83 97bc
000002e0: 44f7 4a3d cb4a 0dbe e1c6 8abd 5909 42bd
000002f0: e01c 163e f40c 24be 8957 b33d bbae 333c
00000300: a970 3f3d 0f5d 7bbd c01c ee3d b188 60ba
00000310: 5750 e7bd 6eba 87bc db62 a13d 3318 f73d
00000320: d7bf 2f3e 8158 253e d87f efbc f033 c2bd
00000330: 86a7 ab3c b60c 24be 598e 003e 2b46 913b
00000340: 512f 303e 936b 94bd c75b cc3d 4519 203e
00000350: 75a9 e1bc d69b cf3d 825f edbd 9b89 223e
00000360: 9256 2e3d c804 113e c17e b73c 9f60 70bc
00000370: 614f 433d 1b7c f63d 61ab ec3d 894a f9bd
00000380: 5804 f8bd 9f03 af3d 70be 293e dcf5 153e
00000390: e6b1 d5bd 1089 b53c 33ef 8cbc fff6 1bbe
000003a0: cde7 103e 420a 273e 4d0f 343d 2bdb e2bd
000003b0: 4a87 94bc d3cf fa3d 9bde cabd 2d6f 43bd
000003c0: d2b2 b5bd 54f0 0b3c 061e a0bd 991f edbc
000003d0: 911a 4dbd b7a8 d83d ecf9 b3bd 86ec 423d
000003e0: 2910 0f3e 0776 123e 40da 1cbe b989 64bd
000003f0: a194 c3bd df61 0dbe dcbb 653d 86a8 f53d

col_embedding.3.bias f4 [32]
-0.045964345 0.15163755 -0.09808278 0.119943336 -0.024086587 0.15309659 0.10417686 0.029521944
0.14308678 0.14124548 0.13273449 0.13267419 -0.07975228 0.15845072 0.06774357 -0.02092226
-0.092790976 -0.08346819 0.11526768 0.1442244 0.09148989 0.09839641 -0.12360727 0.15121576
0.13856435 -0.06552726 0.13583522 0.091170244 0.09240395 0.02884893 -0.08969731 0.07546747
00000000: 1c45 3cbd e046 1b3e a0df c8bd daa4 f53d
00000010: 3c51 c5bc 5ac5 1c3e ad5a d53d 01d8 f13c
00000020: 5785 123e a8a2 103e 8deb 073e bedb 073e
00000030: 2a55 a3bd e840 223e 24bd 8a3d 2965 abbc
00000040: 3209 bebd 5ff1 aabd 7611 ec3d 90af 133e
00000050: 0d5f bb3d 0f84 c93d cf25 fdbd 4ed8 1a3e
00000060: d0e3 0d3e 2833 86bd 6318 0b3e 77b7 ba3d
00000070: 483e bd3d 9754 ec3c 39b3 b7bd b08e 9a3d

conv_col_to_row.feature_module_left.0.weight f4 [32, 32]
0.025095468 -0.15049094 -0.0034236247 0.037020113 -0.031450123 -0.11693007 0.013378717 -0.06051191
0.1530269 0.0075359107 -0.024076749 0.13316244 0.0027014175 -0.0529296 -0.019706022 -0.008215619
-0.010270141 -0.14121687 0.13276596 0.025321798 -0.088738605 -0.106738925 0.07465827 0.08000841
0.09865654 -0.105372146 -0.16016473 -0.13356066 0.12768474 -0.04759526 -0.05202571 -0.09846909
0.1311655 0.071517296 0.106001325 -0.096226245 -0.03142475 0.15994956 -0.019304328 -0.16976418
-0.08568685 0.0043824213 0.11989391 0.030700043 0.03916052 -0.12036682 0.029373625 0.014533107
0.12633215 -0.13208061 0.029854054 -0.100877374 -0.04250397 0.093173005 -0.17184068 0.10792803
-0.15928292 0.0359264 0.08007011 0.10360736 -0.0945382 -0.111904025 0.096054815 -0.015410515
0.11452712 -0.10802873 0.027779993 0.07021589 0.024287805 0.12799393 -0.127291 0.17012319
-0.1132732 -0.10800285 0.13054582 0.0211841 -0.16920818 -0.16424358 -0.07954958 0.16634259
0.04084617 -0.13261707 0.16841799 0.072091535 -0.06669129 -0.026211366 -0.045412757 0.17591558
0.005843253 0.053021964 -0.14050668 0.021156384 -0.064648256 0.07024112 0.026151314 -0.010712571
-0.04947101 -0.060943093 0.013934903 0.011279209 -0.013610652 0.05118684 -0.014659223 -0.06658592
0.14342077 -0.09619084 -0.12193103 0.15182364 0.02744326 -0.030461172 -0.0946562 -0.03255592
-0.13254753 0.037759632 0.019275025 0.078626305 -0.025632467 -0.16558862 0.13975683 -0.16120012
-0.1139995 -0.0050747446 -0.10095145 -0.09536541 0.12370707 -0.16842395 -0.021793745 0.090453245
-0.14915109 0.07842996 0.16219503 0.004504885 0.095362544 -0.11192253 0.13498059 -0.1545175
0.06593813 0.10060055 -0.082050085 -0.10209462 0.040360227 0.16548283 -0.07709604 0.13059458
-0.080737844 -0.008569193 0.13065207 -0.14241913 -0.1690723 -0.029222865 0.036849305 0.023208853
-0.17431936 -0.079931036 0.041376624 -0.029023958 -0.15133409 0.05774682 0.047267333 -0.09620785
0.0072423182 -0.13754271 0.1593609 0.08332749 0.013264173 0.08183377 0.056281388 0.119930774
-0.13927656 -0.033090685 0.069263205 -0.14787452 -0.03579383 -0.060556788 0.023102442 -0.12562265
0.16728365 -0.12775552 -0.068548925 -0.0981424 0.12594007 0.12005752 0.058867153 0.12153327
0.15848964 -0.0067707854 -0.09877439 0.14181525 0.06402962 -0.13132344 0.002361406 0.1725766
-0.051917408 -0.15480044 0.16190076 0.023748975 0.06783834 -0.16349974 0.14403804 -0.117226444
0.023914432 0.083304994 0.011812353 -0.17209467 0.029286578 -0.081524365 0.04122955 0.07728689
0.023813965 -0.0266083 -0.05408358 0.117248654 -0.06586303 0.054228634 -0.107158735 -0.07181664
0.024009138 -0.14003764 0.049768355 -0.051798105 0.16372259 0.0071655996 -0.14911383 0.12348387
-0.12539054 0.010104493 -0.007708739 -0.12564577 0.14413549 -0.10075847 0.026105758 0.14306317
0.13273545 -0.15544373 0.14513004 -0.07576431 -0.0030215103 -0.09744603 0.013652009 0.099698484
-0.1312121 -0.0019356429 0.1759602 0.1107453 -0.04781261 -0.14561957 -0.00072775694 -0.06429573
0.09493627 0.11570602 -0.115568824 -0.00070171454 0.124914445 0.07637564 -0.14334914 -0.14693424
00000000: 0395 cd3c 4c1a 1abe e45e 60bb 67a2 173d
00000010: d8d1 00bd 0879 efbd 6832 5b3c 56db 77bd
00000020: 15b3 1c3e cdef f63b 9a3c c5bc bc5b 083e
00000030: 440a 313b b5cc 58bd 866e a1bc ce9a 06bc
00000040: 1844 28bc 289b 10be cdf3 073e a96f cf3c
00000050: 96bc b5bd f099 dabd 6fe6 983d 73db a33d
00000060: 710c ca3d 5acd d7bd 3902 24be 20c4 08be
00000070: cabf 023e 3ff3 42bd e918 55bd 2aaa c9bd
00000080: 4050 063e a977 923d 3917 d93d 4412 c5bd
00000090: 3db7 00bd d1c9 233e 1c24 9ebc a9d6 2dbe
000000a0: 967c afbd 6a9a 8f3b f08a f53d a87e fb3c
000000b0: c866 203d e182 f6bd f5a0 f03c 451c 6e3c
000000c0: 375d 013e 2440 07be 7d90 f43c cc98 cebd
000000d0: a518 2ebd 7dd1 be3d 01f7 2fbe 5f09 dd3d
000000e0: 101b 23be 9027 133d ccfb a33d 1830 d43d
000000f0: 3e9d c1bd f02d e5bd 63b8 c43d 627c 7cbc
00000100: 328d ea3d 2b3e ddbd de92 e33c 59cd 8f3d
00000110: 38f7 c63c d710 033e 9258 02be c634 2e3e
00000120: c8fb e7bd 9930 ddbd cead 053e 478a ad3c
00000130: e944 2dbe 782f 28be e4ea a2bd b655 2a3e
00000140: 504e 273d c5cc 07be c475 2c3e baa4 933d
00000150: 7195 88bd 38b9 d6bc ba02 3abd 3723 343e
00000160: c278 bf3b 8f2d 593d fce0 0fbe 2750 ad3c
00000170: 4e66 84bd 94da 8f3d 483b d63c c883 2fbc
00000180: 1da2 4abd 779f 79bd 384f 643c 6ecc 383c
00000190: 36ff 5ebc 4ba9 513d 3d2d 70bc 335e 88bd
000001a0: e5dc 123e b4ff c4bd fab6 f9bd a877 1b3e
000001b0: b0d0 e03c b589 f9bc 1cdb c1bd 5b59 05bd
000001c0: 8aba 07be d8a9 1a3d a8e6 9d3c d406 a13d
000001d0: 2efb d1bc 1090 29be 6a1c 0f3e a511 25be
000001e0: 9278 e9bd 0b4a a6bb a2bf cebd f14e c3bd
000001f0: 225a fd3d 5477 2cbe cc88 b2bc 8d3f b93d
00000200: 10bb 18be e39f a03d 7416 263e b79d 933b
00000210: 704d c33d a437 e5bd 5a38 0a3e d639 1ebe
00000220: 920a 873d a907 ce3d e009 a8bd fc16 d1bd
00000230: c450 253d 5574 293e 87e4 9dbd 96ba 053e
00000240: e259 a5bd cd65 0cbc a8c9 053e 52d6 11be
00000250: 4a21 2dbe ca64 efbc 4cef 163d 7e20 be3c
00000260: c680 32be e2b2 a3bd 897a 293d a7c3 edbc
00000270: 53f7 1abe ee87 6c3d 649b 413d 9f08 c5bd
00000280: f850 ed3b ffd7 0cbe 812f 233e 9aa7 aa3d
00000290: f951 593c 7798 a73d 5087 663d 449e f53d
000002a0: 849e 0ebe 198a 07bd ded9 8d3d 6b6c 17be
000002b0: 8d9c 12bd 650a 78bd 5541 bd3c 39a3 00be
000002c0: 684c 2b3e 58d2 02be 6163 8cbd e2fe c8bd
000002d0: 6ff6 003e b8e0 f53d af1e 713d 6fe6 f83d
000002e0: 1c4b 223e 77dd ddbb 3a4a cabd 0438 113e
000002f0: f621 833d a779 06be d2c1 1a3b ecb7 303e
00000300: 59a7 54bd 0284 1ebe 50c9 253e 368d c23c
00000310: d4ee 8a3d 7a6c 27be b57e 133e 6b14 f0bd
00000320: 33e8 c33c cf9b aa3d 9988 413c 9639 30be
00000330: 68ea ef3c 3ff6 a6bd 51e0 283d 9748 9e3d
00000340: 8115 c33c a6f9 d9bc be86 5dbd 1020 f03d
00000350: 32e3 86bd d81e 5e3d 0a76 dbbd 9a14 93bd
00000360: d0ae c43c 0766 0fbe e7d9 4b3d 402a 54bd
00000370: e5a6 273e 68cd ea3b 4cb1 18be 1ce5 fc3d
00000380: 6166 00be 518d 253c 9799 fcbb 49a9 00be
00000390: 4198 133e 755a cebd bedb d53c 277f 123e
000003a0: cdeb 073e a42c 1fbe f89c 143e 522a 9bbd
000003b0: 8804 46bb c991 c7bd adac 5f3c b82e cc3d
000003c0: 775c 06be 66b5 fdba e92e 343e 6fce e23d
000003d0: 28d7 43bd 4c1d 15be f1c6 3eba 7bad 83bd
000003e0: f26d c23d 47f7 ec3d 59af ecbd 44f3 37ba
000003f0: 25d3 ff3d d56a 9c3d 1eca 12be ee75 16be

conv_col_to_row.feature_module_left.0.bias f4 [32]
0.108720414 0.12917809 -0.108682826 0.06702142 -0.019245176 0.11269251 -0.08798782 0.17464629
-0.0588493 -0.14681675 -0.10778759 -0.15128435 0.03622755 0.07145866 -0.16332069 -0.15089527
0.08765803 0.13041592 0.025367074 0.03615285 0.044331588 0.08632127 0.16165094 -0.087621875
0.087365754 -0.052589722 0.123471834 -0.1698459 -0.10119964 -0.06608109 -0.056251384 -0.16736548
00000000: cfa8 de3d 4347 043e 1a95 debd 8742 893d
00000010: 0fa8 9dbc 55cb e63d f532 b4bd 7ad6 323e
00000020: f70b 71bd 2157 16be bdbf dcbd 49ea 1abe
00000030: 5763 143d eb58 923d 8a3d 27be 4a84 1abe
00000040: 0e86 b33d c08b 053e 9cce cf3c 0315 143d
00000050: 0a95 353d 35c9 b03d d387 253e 1973 b3bd
00000060: d1ec b23d 5268 57bd cdde fc3d 15ec 2dbe
00000070: c241 cfbd 8655 87bd da67 66bd db61 2bbe

conv_col_to_row.feature_module_edge.0.weight f4 [32, 1]
0.5470533 0.6100855 0.095069945 0.33565995 0.08699129 0.45525157 -0.73289907 -0.3295242
-0.5077659 0.20610893 -0.9113421 -0.8385651 -0.8282585 0.13389143 -0.53078276 0.09040238
-0.06282428 -0.14467679 0.69246733 0.65463006 -0.73321426 0.010015613 -0.81605357 -0.68781376
0.6796907 0.40863073 -0.6644058 0.6539211 -0.15214267 0.14967772 -0.26274255 0.92262
00000000: af0b 0c3f 902e 1c3f 08b4 c23d 9fdb ab3e
00000010: 7d28 b23d bc16 e93e 469f 3bbf 65b7 a8be
00000020: f2fc 01bf 380e 533e b74d 69bf 34ac 56bf
00000030: c008 54bf d61a 093e 61e1 07bf e224 b93d
00000040: 04aa 80bd 2726 14be 8a45 313f d695 273f
00000050: eeb3 3bbf 8718 243c e3e8 50bf 9014 30bf
00000060: 3600 2e3f 0c38 d13e 8016 2abf 6067 273f
00000070: 4acb 1bbe 1e45 193e 3186 86be d330 6c3f

conv_col_to_row.feature_module_right.0.weight f4 [32, 32]
-0.05925388 0.0813384 -0.09796874 0.12008932 -0.08303518 -0.11477623 -0.014281117 0.030512685
0.0037132595 -0.107689716 -0.09062578 0.06323726 -0.10476473 0.000296237 0.0760867 0.014077996
0.17360422 0.16553389 0.023801489 0.13379021 -0.16561963 0.040130246 0.17338705 -0.05709226
0.070786625 0.03954605 0.13910858 -0.10188801 -0.11449387 0.0062961886 -0.114780694 0.15055832
0.15629391 0.092887565 -0.017728936 0.17685226 -0.15387966 0.17565861 -0.076729394 0.14835142
-0.10736274 -0.09435519 -0.10635958 0.08988871 0.035144653 0.10305557 0.005560104 -0.057301387
0.13879049 -0.14023171 0.075794674 -0.15094508 0.165564 0.01218285 -0.058985982 0.13808191
-0.14884248 -0.098485865 -0.14164272 -0.05600174 -0.07509408 0.096881576 -0.14786714 0.004812881
0.13918804 -0.037904993 -0.059684765 -0.07894601 0.08995302 0.11410369 -0.13263409 -0.02441813
-0.150588 -0.053184345 0.021208983 0.025160758 0.12718397 0.11999274 0.05160991 -0.16161725
-0.046068907 0.17646603 -0.05594816 0.044903927 0.02752836 0.09835923 -0.089984305 -0.09932461
-0.044696957 0.11627582 -0.16111606 -0.026485765 0.10389766 0.13751644 0.03586514 -0.0866503
0.040974896 -0.13223054 -0.17135222 0.13522744 -0.17492099 -0.13037962 0.16524854 0.063973114
-0.10612079 -0.12636842 -0.14982098 -0.03156401 -0.10647829 0.08316002 -0.121529706 -0.06790389
-0.05174624 0.055669893 -0.018019758 -0.031337168 -0.078688845 -0.16884577 0.17075522 0.1437341
0.06217631 -0.011883262 0.12820266 -0.04625386 0.00638273 0.11000888 -0.10828988 0.11453207
-0.08445627 -0.13347454 0.17262895 -0.07169359 -0.07250553 -0.057374712 0.03118494 -0.015809244
-0.1487711 -0.16193993 0.10606859 0.07512732 0.13491149 -0.16291201 0.018762168 0.14172521
-0.07963208 0.008763592 0.0023401727 0.15779166 -0.13752162 -0.033374593 0.064662784 0.005328667
0.038652238 -0.1091601 -0.14763413 0.15711483 0.013414849 -0.07234482 -0.0036551433 0.050352912
0.07988525 0.15365039 -0.1672481 -0.14043686 0.06097799 -0.09284326 0.05357371 0.17160657
-0.069875635 0.15512471 0.06680467 0.10108153 0.16560045 0.17470045 0.11053587 0.09197413
0.06451576 0.14373243 0.16867155 -0.1462605 0.12632506 0.109527655 0.09219394 0.08344202
-0.08878653 0.09080327 0.11167873 0.045387957 0.03777107 -0.123315185 -0.15697281 -0.05873376
0.15301758 0.00676979 0.056565028 0.06140244 -0.002267121 -0.0027658746 -0.015522005 -0.113788985
0.08354829 -0.096393704 0.051649988 -0.07743566 -0.051775064 0.00030538076 -0.0797427 -0.114630654
-0.13431695 0.058182098 -0.12606569 -0.16901024 -0.105733246 0.00696735 0.008541331 0.0079184305
0.049345385 -0.08341476 0.097739905 0.009711111 0.13638581 0.027737455 0.06038466 -0.12563692
0.13767222 -0.020026429 -0.073710285 0.1475672 -0.052890114 0.11054704 0.009443107 0.0035574387
0.14958651 -0.09905688 0.02760107 -0.07870896 0.10949274 0.033334583 0.095018044 0.10705227
-0.056637265 -0.10159876 -0.045580238 0.021263639 -0.0993163 0.10655913 -0.0946678 0.08612011
-0.14938962 -0.088538624 0.026684789 -0.174681 0.14782864 0.15302657 0.079059616 -0.026107939
00000000: 32b4 72bd bf94 a63d d6a3 c8bd 64f1 f53d
00000010: 590e aabd cd0f ebbd 59fb 69bc bdf5 f93c
00000020: 285a 733b 6d8c dcbd 029a b9bd 8982 813d
00000030: e48e d6bd 4250 9b39 58d3 9b3d 65a7 663c
00000040: 4ec5 313e b781 293e 57fb c23c 4d00 093e
00000050: 3198 29be 9d5f 243d 608c 313e 93d9 69bd
00000060: 94f8 903d 0afb 213d 7b72 0e3e a9aa d0bd
00000070: c37b eabd 4250 ce3b 2412 ebbd f62b 1a3e
00000080: 830b 203e d63b be3d 463c 91bc c218 353e
00000090: a192 1dbe dadf 333e 4d24 9dbd 6fe9 173e
000000a0: ffe0 dbbd 4b3d c1bd 0dd3 d9bd 9217 b83d
000000b0: d7f3 0f3d cc0e d33d 8831 b63b dcb4 6abd
000000c0: 181f 0e3e e798 0fbe 3d3a 9b3d 5991 1abe
000000d0: 9c89 293e 949a 473c 499b 71bd 5865 0d3e
000000e0: 2a6a 18be f5b2 c9bd ca0a 11be 1562 65bd
000000f0: edca 99bd d969 c63d 7c6a 17be 5fb5 9d3b
00000100: 4f87 0e3e 4442 1bbd 0378 74bd 72ae a1bd
00000110: 4a39 b83d 32af e93d 3bd1 07be 8808 c8bc
00000120: be33 1abe d4d7 59bd 76be ad3c ef1d ce3c
00000130: 843c 023e c1be f53d ea64 533d fe7e 25be
00000140: c0b2 3cbd 83b3 343e e629 65bd 2eed 373d
00000150: 2883 e13c 9070 c93d b149 b8bd b36a cbbd
00000160: 2814 37bd 0422 ee3d 9cfb 24be adf8 d8bc
00000170: 4cc8 d43d 1cd1 0c3e 53e7 123d b675 b1bd
00000180: 4bd5 273d 7167 07be f576 2fbe 1079 0a3e
00000190: 7d1e 33be 3c82 05be ea36 293e 5604 833d
000001a0: db55 d9bd b966 01be ac6a 19be 4349 01bd
000001b0: 4a11 dabd cd4f aa3d 91e4 f8bd 3211 8bbd
000001c0: def3 53bd 1d06 643d 2c9e 93bc 675b 00bd
000001d0: 9e27 a1bd e8e5 2cbe 75da 2e3e 082f 133e
000001e0: 96ac 7e3d 03b2 42bc 8f47 033e b074 3dbd
000001f0: 3826 d13b 564c e13d 16c7 ddbd ca8f ea3d
00000200: 69f7 acbd 8dad 08be a5c5 303e 17d4 92bd
00000210: c87d 94bd bf01 6bbd 8f77 ff3c 6382 81bc
00000220: 7457 18be 95d3 25be 7d3a d93d 5adc 993d
00000230: 3d26 0a3e 68d2 26be 1eb3 993c 6a20 113e
00000240: 2516 a3bd 2b95 0f3c 955d 193b 2394 213e
00000250: 78d2 0cbe ccb3 08bd ec6d 843d 199c ae3b
00000260: cf51 1e3d 558f dfbd 672d 17be b6e2 203e
00000270: f4c9 5b3c 8529 94bd 218b 6fbb db3e 4e3d
00000280: e19a a33d 8756 1d3e 1643 2bbe aece 0fbe
00000290: 0fc4 793d 9b24 bebd 1b70 5b3d a2b9 2f3e
000002a0: f51a 8fbd 03d9 1e3e e3d0 883d d503 cf3d
000002b0: 2a93 293e ade4 323e a160 e23d ef5c bc3d
000002c0: d720 843d 982e 133e 3cb8 2c3e 50c5 15be
000002d0: 5b5b 013e 0950 e03d 2dd0 bc3d a6e3 aa3d
000002e0: b6d5 b5bd 11f7 b93d d1b7 e43d b9e8 393d
000002f0: d6b5 1a3d ac8c fcbd 7bbd 20be d092 70bd
00000300: a4b0 1c3e 1dd5 dd3b bbb0 673d 2081 7b3d
00000310: fb93 14bb ad43 35bb 0250 7ebc 330a e9bd
00000320: 5e1b ab3d 106a c5bd f08e 533d 9696 9ebd
00000330: 1712 54bd 831b a039 2450 a3bd 7ac3 eabd
00000340: 628a 09be 5a50 6e3d 5d17 01be 0511 2dbe
00000350: ac8a d8bd 5e4e e43b f0f0 0b3c 4ebc 013c
00000360: 631e 4a3d 5cd5 aabd dc2b c83d 5a1b 1f3c
00000370: b9a8 0b3e a939 e33c e855 773d f7a6 00be
00000380: f2f9 0c3e 770e a4bc 6bf5 96bd db1b 173e
00000390: 4ea3 58bd 7d66 e23d 43b7 1a3c eb23 693b
000003a0: 352d 193e 55de cabd a41b e23c 2a32 a1bd
000003b0: bb3d e03d d889 083d d298 c23d 383e db3d
000003c0: 7afc 67bd 0313 d0bd 58b2 3abd 1531 ae3c
000003d0: 5866 cbbd ac3b da3d 31e1 c1bd bd5f b03d
000003e0: 98f9 18be bd53 b5bd 0f9a da3c 93df 32be
000003f0: 6460 173e ffb2 1c3e 02ea a13d 51e0 d5bc

conv_col_to_row.feature_module_final.0.weight f4 [32]
0.99983346 0.99984586 1.0 1.0002018 1.0 1.0001982 0.99981207 0.9998156
0.99982363 1.0001976 0.9998213 0.99982184 0.9998143 0.9998155 0.99997634 1.0001154
0.9998241 1.0002042 0.99978435 1.00022 0.99982554 1.0001857 1.0001963 0.99978614
0.9998217 1.0001915 1.0000293 1.0 1.0 0.9999812 1.0 1.0
00000000: 16f5 7f3f e6f5 7f3f 0000 803f 9d06 803f
00000010: 0000 803f 7f06 803f aff3 7f3f eaf3 7f3f
00000020: 71f4 7f3f 7a06 803f 4af4 7f3f 53f4 7f3f
00000030: d4f3 7f3f e9f3 7f3f 73fe 7f3f c803 803f
00000040: 79f4 7f3f b106 803f def1 7f3f 3507 803f
00000050: 91f4 7f3f 1606 803f 6f06 803f fcf1 7f3f
00000060: 51f4 7f3f 4606 803f f600 803f 0000 803f
00000070: 0000 803f c5fe 7f3f 0000 803f 0000 803f

conv_col_to_row.feature_module_final.0.bias f4 [32]
-0.00016947606 4.278403e-05 0.0 0.00019862459 0.0 0.00020209928 -0.00019733 -0.00018845209
-0.00017450207 0.00014722272 -0.00017983865 -0.00017742852 -0.00018706048 -0.00018997656 -4.927134e-05 0.00012075557
-0.00011877996 0.00020299957 -0.00019299044 0.00021490201 -0.00017523409 0.00019166668 0.0002009509 -0.0002096495
-0.00017515579 0.00018623241 0.00010145744 0.0 0.0 -2.0652224e-05 0.0 0.0
00000000: 62b5 31b9 0173 3338 0000 0000 e245 5039
00000010: 0000 0000 9dea 5339 5eea 4eb9 399b 45b9
00000020: 8bfa 36b9 cc5f 1a39 1293 3cb9 1b0c 3ab9
00000030: aa25 44b9 7234 47b9 b3a8 4eb8 273e fd38
00000040: 8119 f9b8 48dc 5439 7a5d 4ab9 5257 6139
00000050: 0bbf 37b9 22fa 4839 59b6 5239 5cd5 5bb9
00000060: 06aa 37b9 6247 4339 8cc5 d438 0000 0000
00000070: 0000 0000 503e adb7 0000 0000 0000 0000

conv_col_to_row.feature_module_final.2.weight f4 [32, 32]
-0.016645437 0.045620956 -0.11127706 0.05973877 -0.06373465 0.073150024 0.023510503 0.07272185
-0.14960854 -0.1597296 -0.07337874 -0.08036558 0.12702408 0.13052076 -0.04234393 0.0611526
-0.16013032 -0.01505585 0.106753394 -0.091251746 0.16955747 -0.049819946 0.12746345 0.095589474
0.0628783 -0.10202831 0.100796714 -0.101569265 0.03590351 -0.13676837 -0.020012967 0.044545975
-0.14192954 -0.17088978 -0.015672306 0.025812164 0.07167183 0.12963574 -0.009443601 -0.09002537
-0.062698014 0.11480116 -0.117426366 -0.024414632 -0.048331507 0.034017034 0.095754705 0.17323783
-0.04949237 0.1479276 -0.05232877 0.16711777 -0.16024543 0.13435277 0.12043984 -0.07389275
0.14551894 -0.07785326 0.09834201 0.035133295 -0.06753847 -0.11730228 0.019978976 0.0917013
-0.17162697 -0.08483376 -0.121474676 0.065806344 -0.023455016 -0.06108729 0.13761242 0.036122404
0.123161934 -0.1335873 0.12479134 -0.049397547 0.014845412 -0.05189404 -0.15859397 -0.126643
0.095810734 0.007652691 -0.17282404 -0.059529748 -0.10580887 0.061563794 0.13010223 0.095705464
-0.17130525 0.044816904 0.019717043 0.10203353 -0.03152778 0.1320144 -0.043918703 0.00791168
0.11517539 0.015503125 -0.14947978 -0.038979266 -0.09781843 -0.02360599 -0.0698644 0.09101608
0.16821055 0.107058086 0.13006327 -0.040702906 -0.14177942 -0.017018117 -0.025419515 0.10710421
0.13721412 0.1509022 -0.07665992 -0.06507636 0.06195435 -0.013447254 0.08471554 -0.15512466
0.115023024 0.066366784 -0.012515243 0.00476487 0.08255697 -0.1612166 0.0367138 0.0066200052
0.030994482 -0.10577688 0.15925448 0.13660385 0.04933952 -0.16417725 -0.070234746 -0.04063772
-0.07172413 0.15235712 0.14985368 0.14198665 0.101145126 0.07290476 0.1114819 -0.09635441
-0.027288577 0.088964954 0.023509527 0.1027524 0.06746385 -0.10136964 -0.13937669 -0.082187876
0.10994373 -0.09157481 -0.046127196 -0.11170071 0.022027038 0.103395075 -0.03889861 -0.084650576
0.10119258 -0.053677786 0.0033183477 -0.10336536 0.05207694 -0.11943629 0.15623951 -0.0100233015
0.040420264 -0.14137575 0.02342306 0.15817684 -0.14796726 0.12127577 -0.08578464 -0.08784169
0.04023938 0.1755123 -0.124960445 0.054202147 0.16194804 -0.012661607 -0.11369951 -0.07310105
0.010095712 -0.061595272 -0.087922014 -0.14715016 0.16183513 -0.15985318 0.1507432 0.036157697
-0.119085565 0.060508773 0.08522481 0.13671105 -0.04886063 0.081543885 -0.08737858 -0.030147702
-0.1457729 0.001716318 -0.17629413 -0.15109041 -0.13453585 -0.13582483 0.11649675 -0.011393239
-0.049148437 -0.1653791 0.17265207 -0.120713875 0.002287252 0.06617386 -0.1582648 0.0059547485
0.018521477 0.09061778 0.06404461 0.13408554 -0.15047811 -0.051887248 0.057341672 -0.12612367
-0.079412326 0.1485486 0.019418191 0.021780737 0.052995216 -0.13115805 -0.16841859 0.12870245
0.13469623 0.112953894 0.16059034 0.117261186 -0.07399101 -0.12040133 0.03499173 0.13193205
0.14555176 0.08846807 0.027426109 0.10058154 -0.04923401 0.10097582 0.02946863 0.027285775
-0.10768234 -0.13271284 0.17343026 0.12593839 0.06632287 -0.019835835 -0.15697339 0.16508745
00000000: 035c 88bc 0add 3a3d 3ae5 e3bd a4b0 743d
00000010: 5087 82bd aecf 953d 1999 c03c 31ef 943d
00000020: fb32 19be 2890 23be 9847 96bd b696 a4bd
00000030: 9a12 023e 3ca7 053e d470 2dbd 267b 7a3d
00000040: 34f9 23be d0ac 76bc 86a1 da3d 32e2 babd
00000050: 79a0 2d3e 0010 4cbd c785 023e 6ac4 c33d
00000060: 57c6 803d 38f4 d0bd 826e ce3d 8c03 d0bd
00000070: 8f0f 133d 020d 0cbe 3cf2 a3bc d775 363d
00000080: fa55 11be bbfd 2ebe 3563 80bc 0874 d33c
00000090: aec8 923d 3bbf 043e 55b9 1abc 395f b8bd
000000a0: d167 80bd df1c eb3d 3c7d f0bd 3201 c8bc
000000b0: 42f7 45bd 7255 0b3d 0b1b c43d 4265 313e
000000c0: 83b8 4abd 557a 173e b156 56bd ec20 2b3e
000000d0: 6117 24be c693 093e 2aa9 f63d 1555 97bd
000000e0: eb02 153e 8871 9fbd 8967 c93d eee7 0f3d
000000f0: 9c51 8abd 2e3c f0bd f3aa a33c e4cd bb3d
00000100: fbbe 2fbe 53bd adbd b7c7 f8bd 7ac5 863d
00000110: bc24 c0bc ab36 7abd 45ea 0c3e 16f5 133d
00000120: 533c fc3d 1ccb 08be 9a92 ff3d 1555 4abd
00000130: 2c3a 733c d88e 54bd 7566 22be b4ae 01be
00000140: 6b38 c43d 6dc3 fa3b c9f8 30be 77d5 73bd
00000150: 52b2 d8bd 512a 7c3d 8539 053e 3a01 c43d
00000160: a56a 2fbe ee91 373d a385 a13c f5f6 d03d
00000170: 4623 01bd c82e 073e 19e4 33bd fe9f 013c
00000180: 13e1 eb3d d200 7e3c 3a11 19be b9a8 1fbd
00000190: 0755 c8bd 5961 c1bc 1115 8fbd a366 ba3d
000001a0: 633f 2c3e 4541 db3d 4e2f 053e 17b8 26bd
000001b0: a02e 11be 9469 8bbc 963c d0bc 7459 db3d
000001c0: dc81 0c3e 1b86 1a3e e0ff 9cbd c146 85bd
000001d0: d8c3 7d3d df51 5cbc 577f ad3d 00d9 1ebe
000001e0: 3191 eb3d 4feb 873d bc0c 4dbc a022 9c3b
000001f0: a113 a93d f715 25be 3661 163d a1ec d83b
00000200: 24e8 fd3c 8da1 d8bd 9b13 233e e1e1 0b3e
00000210: 3d18 4a3d 151e 28be 3cd7 8fbd bd73 26bd
00000220: 1ae4 92bd 8103 1c3e 3e73 193e f364 113e
00000230: 2d25 cf3d 174f 953d 9f50 e43d 7655 c5bd
00000240: 4b8c dfbc 4233 b63d 0d97 c03c da6f d23d
00000250: 7d2a 8a3d e39a cfbd c3b8 0ebe 1e52 a8bd
00000260: 2e2a e13d 938b bbbd dfef 3cbd 58c3 e4bd
00000270: 0c72 b43c ccc0 d33d 2654 1fbd 485d adbd
00000280: 0e3e cf3d 3ddd 5bbd a378 593b 38b1 d3bd
00000290: a14e 553d 039b f4bd 40fd 1f3e c638 24bc
000002a0: b88f 253d cec4 10be b8e1 bf3c 1cf9 213e
000002b0: bb84 17be 6e5f f83d dbaf afbd 58e6 b3bd
000002c0: 0cd2 243d 7fb9 333e 43eb ffbd 1203 5e3d
000002d0: b5d5 253e a172 4fbc 4adb e8bd 01b6 95bd
000002e0: 7c68 253c 534b 7cbd 7510 b4bd 88ae 16be
000002f0: 1cb8 253e 8db0 23be 6d5c 1a3e 181a 143d
00000300: 22e3 f3bd 0cd8 773d 588a ae3d fbfd 0b3e
00000310: 1522 48bd 7b00 a73d 8af3 b2bd 50f8 f6bc
00000320: 7e45 15be 13f6 e03a 7386 34be 72b7 1abe
00000330: c4c3 09be aa15 0bbe d995 ee3d b5aa 3abc
00000340: df4f 49bd 2459 29be b4cb 303e d638 f7bd
00000350: b9e5 153b 2986 873d 2b10 22be 0d20 c33b
00000360: 5aba 973c d195 b93d d229 833d b84d 093e
00000370: ef16 1abe b987 54bd 1adf 6a3d 9026 01be
00000380: eea2 a2bd 201d 183e e612 9f3c 846d b23c
00000390: 8311 593d 4c4e 06be ec75 2cbe 93ca 033e
000003a0: cfed 093e 5f54 e73d cb71 243e a226 f03d
000003b0: 9988 97bd f994 f6bd 7d53 0f3d 3219 073e
000003c0: 850b 153e bf2e b53d b8ac e03c b2fd cd3d
000003d0: 9aa9 49bd 69cc ce3d 3268 f13c 6b86 df3c
000003e0: 8f88 dcbd e0e5 07be b497 313e fef5 003e
000003f0: 49d4 873d c37e a2bc a2bd 20be af0c 293e

conv_col_to_row.feature_module_final.2.bias f4 [32]
0.045217264 -0.09962483 -0.02894381 -0.019571854 -0.16464445 -0.15449397 0.14374875 0.045396253
0.16303782 -0.011021694 -0.06533066 0.16162269 0.14137134 0.16582568 0.16840169 0.052721746
-0.105036594 -0.15473686 -0.06292951 0.03288241 0.1055367 -0.039333303 0.11564193 0.057019386
-0.11586981 0.062538005 7.109382e-06 0.0049159527 0.09531758 -0.061335154 0.15935856 -0.08955088
00000000: bd35 393d 1a08 ccbd 921b edbc 2755 a0bc
00000010: 8e98 28be ab33 1ebe df32 133e 6cf1 393d
00000020: 63f3 263e 5694 34bc 15cc 85bd 6b80 253e
00000030: a6c3 103e 35ce 293e 7e71 2c3e c2f2 573d
00000040: 6d1d d7bd 5773 1ebe 30e1 80bd b5af 063d
00000050: a023 d83d f51b 21bd add5 ec3d 298d 693d
00000060: 274d edbd ed13 803d 208d ee36 0016 a13b
00000070: dd35 c33d 923a 7bbd e42e 233e 7466 b7bd
