GNN/ResultsGCNN/actor_32.pt (torch, 83520 bytes, 43 tensors)

row_embedding.0.weight f4 [7]
1.0018727 1.0006857 0.999593 1.0012708 0.99975467 1.0010477 0.9999952
00000000: 5d3d 803f 7816 803f 54e5 7f3f a429 803f
00000010: ecef 7f3f 5522 803f afff 7f3f

row_embedding.0.bias f4 [7]
-0.0015705082 -0.0009454558 -0.00040986127 -0.0012776208 0.00038696174 -0.00110597 0.0003658893
00000000: 83d9 cdba 77d8 77ba a6e2 d6b9 d775 a7ba
00000010: 20e1 ca39 32f6 90ba d5d4 bf39

row_embedding.1.weight f4 [32, 7]
0.053463403 0.054160263 0.13775454 -0.35740954 -0.18320909 0.24059464 -0.08542492 -0.27132264
-0.06348828 -0.039661586 -0.10687801 0.19444181 0.0010823352 -0.08586239 -0.12597434 -0.29255626
-0.28344613 0.26138204 0.31708056 0.019636245 -0.20197695 -0.21034716 0.12976027 0.3175217
-0.35591513 0.028341958 0.0065697557 0.19587824 -0.1394077 -0.03274983 -0.3071915 0.20913804
-0.20272295 -0.2017301 -0.1957936 -0.106655784 0.053397022 -0.012368121 -0.35366955 0.09854395
-0.20312178 0.31427762 -0.2685673 -0.33622497 0.2721006 -0.22466782 -0.3131508 -0.056942396
0.019174242 -0.24360031 0.27047253 0.22833896 0.26126978 0.212528 0.03268428 0.03505146
-0.13722749 -0.07618573 0.024394058 0.013461133 -0.13783857 -0.20725119 0.27746928 0.048840646
-0.34199616 -0.19975682 0.3636879 -0.189181 0.2566338 -0.3495517 -0.267696 0.33761233
-0.09521573 -0.0061658374 -0.03941072 -0.25135815 0.25214326 -0.18181378 0.012640269 -0.35626316
-0.07510079 -0.015263012 0.25839508 0.13594171 0.28870532 -0.07251495 -0.3092585 -0.10636855
-0.06867446 0.31715313 -0.22817357 0.24964629 0.21358164 -0.21894993 -0.24581484 -0.15435708
-0.14826304 -0.27015665 -0.3623027 0.089171425 0.099503376 -0.2799757 0.27319986 -0.1432517
-0.11539069 0.06748759 0.28538793 -0.32801768 -0.07075946 0.11902458 -0.30848703 0.29628703
0.14767186 0.32687622 -0.028227149 0.17439595 -0.25309727 0.3515136 0.09304768 0.1966586
-0.21710874 -0.2655683 -0.32404202 -0.34590432 0.0030442793 -0.022687405 -0.3522196 0.3420272
-0.17435238 -0.3017058 -0.16317758 0.31650576 0.08822539 -0.19660018 -0.16782922 -0.24081749
0.12530223 0.2479965 -0.19228494 0.35919443 0.3287334 0.12753335 -0.009485778 0.2747261
0.104270294 -0.3341004 -0.25702 0.19854341 0.03316362 0.35335034 -0.2716471 -0.2860989
-0.10679952 -0.22994478 0.28207257 0.03211231 -0.13392645 -0.049097944 0.033746038 -0.27432975
0.04256573 -0.24500592 0.059618805 0.13653395 -0.23238951 -0.2092599 -0.01176587 0.29764414
0.18938458 -0.08821655 0.33021176 0.09736886 0.3651403 0.26607215 -0.26178396 0.02295843
0.2308574 0.07626204 0.11964454 0.31208473 -0.27792636 0.12686023 -0.11731661 -0.15695904
0.33873072 0.27025744 0.2473285 0.03684657 -0.2934074 0.34213343 0.10664305 -0.0389486
-0.28885555 -0.1082792 -0.32941252 0.29564318 0.3202893 0.073790334 0.31750154 -0.2399857
-0.21325508 0.17993657 0.36964116 -0.23613495 -0.30655167 0.12796104 0.11555264 0.2663223
0.056997694 -0.37799063 0.15188742 -0.18154688 0.19508368 -0.28052217 -0.29279196 0.033506177
-0.06411899 -0.35090905 -0.18661648 -0.31065646 0.10714743 0.10060929 -0.11941652 -0.3165297
00000000: 71fc 5a3d 27d7 5d3d 870f 0d3e 62fe b6be
00000010: 2a9b 3bbe 715e 763e 43f3 aebd cdea 8abe
00000020: 2506 82bd 3074 22bd dce2 dabd c11b 473e
00000030: 25dd 8d3a 9fd8 afbd 6bff 00be efc9 95be
00000040: da1f 91be ded3 853e 6258 a23e 31dc a03c
00000050: 0cd3 4ebe 3f65 57be e0df 043e 3492 a23e
00000060: 823a b6be 652d e83c 1b47 d73b 4e94 483e
00000070: e4c0 0ebe b024 06bd 3448 9dbe 4828 563e
00000080: 9b96 4fbe 5692 4ebe 1e7e 48be 596e dabd
00000090: d6b6 5a3d a9a3 4abc 2d14 b5be 69d1 c93d
000000a0: 28ff 4fbe ffe8 a03e a781 89be ae25 acbe
000000b0: c550 8b3e 520f 66be 4d55 a0be 6e3c 69bd
000000c0: 4d13 9d3c 5c72 79be 607b 8a3e b0d1 693e
000000d0: 27c5 853e f1a0 593e f4df 053d 1f92 0f3d
000000e0: 5d85 0cbe 4407 9cbd 0cd6 c73c 168c 5c3c
000000f0: 8e25 0dbe a839 54be 7410 8e3e 210d 483d
00000100: 1f1a afbe 0d8d 4cbe 4d35 ba3e aab8 41be
00000110: 8165 833e 71f8 b2be 730f 89be 86db ac3e
00000120: 7700 c3bd cb0a cabb 236d 21bd 04b2 80be
00000130: ec18 813e 642d 3abe 2119 4f3c 2068 b6be
00000140: 71ce 99bd b611 7abc 5c4c 843e 4e34 0b3e
00000150: 2fd1 933e b882 94bd 2157 9ebe c1d7 d9bd
00000160: 32a5 8cbd e561 a23e 55a6 69be 47a3 7f3e
00000170: 25b5 5a3e 6934 60be e3b6 7bbe c80f 1ebe
00000180: 44d2 17be f951 8abe bd7f b9be 829f b63d
00000190: 6dc8 cb3d fa58 8fbe dae0 8b3e 93b0 12be
000001a0: f451 ecbd ef36 8a3d 5e1e 923e eff1 a7be
000001b0: 56ea 90bd 29c3 f33d 03f2 9dbe efb2 973e
000001c0: 4b37 173e 525c a73e 9f3c e7bc da94 323e
000001d0: f795 81be 97f9 b33e c88f be3d df60 493e
000001e0: c151 5ebe 91f8 87be d6e8 a5be 5f1a b1be
000001f0: 8882 473b f0da b9bc 2156 b4be 301e af3e
00000200: 6e89 32be 2f79 9abe 0618 27be 0b0d a23e
00000210: 83af b43d 8f51 49be 6cdb 2bbe dc98 76be
00000220: 3a4f 003e cbf2 7d3e 58e6 44be 55e8 b73e
00000230: bf4f a83e 1a98 023e 3d6a 1bbc e6a8 8c3e
00000240: aa8b d53d 350f abbe 2098 83be f74e 4b3e
00000250: 93d6 073d 56ea b43e 5415 8bbe 8e7b 92be
00000260: b5b9 dabd a576 6bbe d16b 903e 3388 033d
00000270: 0424 09be ed1a 49bd 4939 0a3d f374 8cbe
00000280: 6759 2e3d d5e2 7abe d932 743d 8ecf 0b3e
00000290: 84f7 6dbe 3a48 56be a3c5 40bc d064 983e
000002a0: 08ee 413e e1aa b4bd 8411 a93e 5369 c73d
000002b0: abf3 ba3e 9c3a 883e 8c08 86be 5113 bc3c
000002c0: e265 6c3e 462f 9c3d 3208 f53d 92c9 9f3e
000002d0: 5d4c 8ebe a6e7 013e b143 f0bd dfb9 20be
000002e0: 1d6e ad3e 2f5f 8a3e af43 7d3e 6eec 163d
000002f0: 7f39 96be 1d2c af3e ac67 da3d 9188 1fbd
00000300: e0e4 93be 7cc1 ddbd c2a8 a8be 8b5e 973e
00000310: f6fc a33e 631f 973d 908f a23e d0be 75be
00000320: 8a5f 5abe 4b41 383e 9b41 bd3e 5ccd 71be
00000330: 57f4 9cbe 3808 033e dda6 ec3d 665b 883e
00000340: 6a76 693d fd87 c1be 6088 1b3e 6de7 39be
00000350: 04c4 473e 9aa0 8fbe d4e8 95be c63d 093d
00000360: d150 83bd 5aaa b3be 6418 3fbe 5d0e 9fbe
00000370: 1d70 db3d 3e0c ce3d a690 f4bd 2e10 a2be

row_embedding.1.bias f4 [32]
-0.0510355 0.25666845 0.11022156 -0.36906987 0.08093506 -0.1221702 0.018551957 -0.10708964
0.15142794 -0.2099581 -0.3499111 -0.025966693 0.31817752 0.15011744 0.34637985 0.09899532
-0.15889393 0.017010985 -0.12106641 0.30804217 0.28122613 -0.026281133 0.21080855 -0.09952318
0.32154864 0.20707478 -0.14828594 0.12554178 -0.29489693 -0.19641542 0.0215603 -0.21591736
00000000: 9a0a 51bd 0c6a 833e d7bb e13d baf6 bcbe
00000010: 48c1 a53d 5f34 fabd 46fa 973c d051 dbbd
00000020: ed0f 1b3e 42ff 56be 8c27 b3be 1ab8 d4bc
00000030: 2ae8 a23e 63b8 193e b358 b13e 0fbe ca3d
00000040: 17b5 22be 9f5a 8b3c aaf1 f7bd b4b7 9d3e
00000050: dffc 8f3e 884b d7bc 32de 573e cfd2 cbbd
00000060: 06a2 a43e 690b 543e 45d8 17be 068e 003e
00000070: bbfc 96be 2021 49be 3a9f b03c 7119 5dbe

row_embedding.3.weight f4 [32, 32]
-0.12289388 -0.040772878 0.071032904 0.011781068 0.10099614 0.0029223613 0.16309988 0.14558616
0.10065105 -0.14630298 0.03482953 0.029659994 0.10015549 0.0017143966 0.13770707 0.1547502
0.155215 0.036218423 -0.11928966 0.10454288 0.040173773 0.05439993 0.045424804 0.11411505
-0.16324404 0.10704587 0.12677927 0.15122992 0.017766844 -0.15469399 0.14728463 -0.029101646
0.03467055 0.027882557 -0.17784446 0.007823763 -0.017489677 -0.046115212 0.0774828 0.043068103
-0.09417025 -0.039259106 -0.10171608 -0.16051279 0.086771496 0.10264682 0.1570133 -0.16796148
-0.04851342 0.13068154 0.07860952 -0.13525093 0.12847562 0.12239375 0.1324959 0.1218608
0.13960476 -0.06991881 0.13883615 0.11286561 -0.13382998 0.05682944 -0.13679366 -0.09274885
0.014915446 0.16161211 -0.10566967 -0.14791676 0.17025973 -0.08369707 -0.16388176 -0.07201107
0.11890571 0.032198973 0.15955481 0.10412495 0.0107390145 0.1634064 -0.08101909 0.086651936
-0.03646184 -0.017971905 0.042275254 0.12641865 0.15310813 0.0506252 -0.05230984 0.17012234
0.03276912 0.056953475 0.05534912 -0.16261196 0.16682203 0.16393238 0.12933207 0.15454365
-0.080141455 -0.037520092 -0.1540839 0.057031624 0.04752439 0.06023056 0.17043442 -0.023442445
0.089189835 0.116310865 -0.10759875 -0.030764373 0.12767121 -0.10297165 0.06177606 0.08953546
-0.018812979 0.17000571 -0.06843103 0.07286396 -0.039586484 -0.15882635 0.074029624 -0.06667473
-0.0027461145 0.1548077 -0.07906803 -0.06468955 -0.17428032 -0.12658402 -0.114742495 0.045042865
0.09209722 -0.028130174 -0.11438684 0.010546508 0.084144056 -0.06365765 -0.10987474 0.094104625
-0.17043364 0.07274158 0.1381619 -0.1732191 -0.049253102 -0.03961842 0.012315605 -0.17620355
-0.1086137 -0.102928944 0.06905607 0.062101085 -0.13600153 0.047077037 0.0073650954 0.06539351
-0.06583305 0.11974128 -0.08124837 -0.13395332 0.10682873 -0.17408727 0.12065924 -0.05012162
-0.08726509 -0.15942536 -0.03314835 0.061243523 -0.056245875 0.16317888 0.09268113 0.06056148
-0.16477668 0.0038441087 -0.12670322 0.046177898 -0.039336897 0.109424725 -0.002471702 -0.16361554
-0.097041495 -0.17561494 -0.044692665 0.0850422 -0.14448197 0.11751258 -0.17436425 -0.01320014
0.0005948395 -0.088530995 -0.15277126 -0.096792765 -0.1436452 -0.020046221 0.026842527 -0.16388138
0.086335965 0.1293169 0.12188222 -0.03929153 0.1404718 0.057399478 -0.12406634 -0.080213584
-0.15404205 0.08131031 0.12808764 0.06614816 -0.03030982 -0.14087111 -0.16483371 0.019429158
-0.023055246 0.13451709 -0.07290873 0.1364925 0.0957247 0.11280248 0.041155197 0.13509049
-0.08847721 -0.04487775 -0.086701356 0.014227546 0.16606869 -0.048078585 -0.034238286 0.107051514
-0.06277887 -0.042506505 -0.119410366 -0.12794298 0.03645436 0.13870195 0.13965811 -0.10020965
0.08875935 -0.10793188 -0.1735448 -0.0018864897 0.15250708 -0.019453954 -0.14648037 -0.059175085
0.068307035 0.13429816 -0.17449836 0.045053147 0.061051752 0.03547068 -0.172622 -0.06140609
-0.030735508 -0.096889436 -0.13062042 0.032458108 -0.01598298 -0.008993777 -0.12432493 0.14175019
00000000: c9af fbbd 7601 27bd b379 913d 6105 413c
00000010: 10d7 ce3d 1685 3f3b a803 273e 8a14 153e
00000020: 2322 ce3d 73d0 15be 69a9 0e3d 84f9 f23c
00000030: 521e cd3d 9bb5 e03a 1503 0d3e d676 1e3e
00000040: aef0 1e3e c559 143d 234e f4bd 941a d63d
00000050: 418d 243d 76d2 5e3d 5c0f 3a3d 27b5 e93d
00000060: 7229 27be dd3a db3d 6dd2 013e 04dc 1a3e
00000070: c68b 913c 1a68 1ebe c8d1 163e 9366 eebc
00000080: b502 0e3d f669 e43c dc1c 36be 3e2f 003c
00000090: 8346 8fbc 4ee3 3cbd 4daf 9e3d 2e68 303d
000000a0: 55dc c0bd 28ce 20bd 8550 d0bd 775d 24be
000000b0: 41b5 b13d 7f38 d23d 18c8 203e 18fe 2bbe
000000c0: 02b6 46bd 62d1 053e 07fe a03d 387f 0abe
000000d0: 1d8f 033e 93a9 fa3d 01ad 073e 2892 f93d
000000e0: 8df4 0e3e 9831 8fbd 102b 0e3e 1626 e73d
000000f0: ba0a 09be fdc5 683d a313 0cbe 1cf3 bdbd
00000100: ea5f 743c a57d 253e 5769 d8bd 7e77 17be
00000110: 9158 2e3e 5f69 abbd 9fd0 27be 8a7a 93bd
00000120: d684 f33d 12e3 033d 5662 233e 763f d53d
00000130: b1f2 2f3c 0254 273e 56ed a5bd 9276 b13d
00000140: 0359 15bd d139 93bc d128 2d3d e473 013e
00000150: 61c8 1c3e 5f5c 4f3d d842 56bd 8d34 2e3e
00000160: ea38 063d 0c48 693d c2b5 623d c083 26be
00000170: 65d3 2a3e e4dd 273e a06f 043e b140 1e3e
00000180: 3421 a4bd abae 19bd 2bc8 1dbe fe99 693d
00000190: efa8 423d 52b4 763d 5c86 2e3e 5f0a c0bc
000001a0: 29a9 b63d 6434 ee3d bc5c dcbd 9105 fcbc
000001b0: 3ebc 023e cde2 d2bd e508 7d3d 5e5e b73d
000001c0: ad1d 9abc fa15 2e3e 9125 8cbd b339 953d
000001d0: 7025 22bd 60a3 22be d89c 973d c38c 88bd
000001e0: 28f8 33bb e985 1e3e 6bee a1bd f47b 84bd
000001f0: 8a76 32be 3e9f 01be 1dfe eabd de7e 383d
00000200: 789d bc3d 4071 e6bc a643 eabd 43cb 2c3c
00000210: b853 ac3d f15e 82bd 0206 e1bd edb9 c03d
00000220: 2886 2ebe 8af9 943d 507a 0d3e 5960 31be
00000230: 9fbd 49bd ed46 22bd 64c7 493c b46e 34be
00000240: dc70 debd 69cc d2bd 456d 8d3d b55d 7e3d
00000250: fc43 0bbe dad3 403d e656 f13b 08ed 853d
00000260: 7ad3 86bd eb3a f53d 8c65 a6bd 0f2b 09be
00000270: 05c9 da3d ef43 32be 311c f73d 544c 4dbd
00000280: 0ab8 b2bd 6740 23be 90c6 07bd 7dda 7a3d
00000290: 1362 66bd 5d18 273e 9bcf bd3d 500f 783d
000002a0: 38bb 28be 71ed 7b3b 7dbe 01be 0925 3d3d
000002b0: ba1f 21bd 121a e03d 47fc 21bb d58a 27be
000002c0: b1bd c6bd 67d4 33be a80f 37bd 9b2a ae3d
000002d0: 15f3 13be 6faa f03d 8b8c 32be 6645 58bc
000002e0: 01ef 1b3a bd4f b5bd 1270 1cbe 493b c6bd
000002f0: ba17 13be f937 a4bc dce4 db3c 85d0 27be
00000300: e9d0 b03d a66b 043e 639d f93d 28f0 20bd
00000310: d7d7 0f3e b71b 6b3d 7e16 febd 0547 a4bd
00000320: 33bd 1dbe 0586 a63d 6829 033e b078 873d
00000330: 4d4c f8bc 8440 10be 2bca 28be e629 9f3c
00000340: 5bde bcbc d9be 093e 2c51 95bd b1c4 0b3e
00000350: 500b c43d fd04 e73d 5a92 283d 2955 0a3e
00000360: 8a33 b5bd bbd1 37bd 7b90 b1bd a71a 693c
00000370: e90d 2a3e 0dee 44bd 723d 0cbd d33d db3d
00000380: 3592 80bd 4d1b 2ebd 6c8d f4bd 7c03 03be
00000390: 2b51 153d e207 0e3e 8902 0f3e b83a cdbd
000003a0: 76c7 b53d 640b ddbd bab5 31be 1744 f7ba
000003b0: d12a 1c3e e65d 9fbc f3fe 15be 9361 72bd
000003c0: 8fe4 8b3d 7585 093e b3af 32be a689 383d
000003d0: 6711 7a3d b449 113d d2c3 30be f484 7bbd
000003e0: 08c9 fbbc f86d c6bd 5cc1 05be cbf2 043d
000003f0: bdee 82bc a35a 13bc 129e febd f626 113e

row_embedding.3.bias f4 [32]
0.10851985 -0.052467674 -0.060192898 -0.041432988 0.01604456 -0.12979893 0.107806146 0.14235848
-0.06514273 0.10244362 0.13328342 0.09878437 -0.019315261 0.043215748 0.104579926 0.10582145
0.09607889 -0.07381218 0.049478665 0.092122726 -0.010842751 0.033256516 0.054860078 0.065131165
0.10384514 0.041573063 0.16468118 -0.05504051 0.0039642444 -0.008401135 -0.14932582 0.120235056
00000000: a83f de3d 58e8 56bd d48c 76bd a3b5 29bd
00000010: e26f 833c 03ea 04be 78c9 dc3d 6cc6 113e
00000020: 8d69 85bd f6cd d13d 737b 083e 764f ca3d
00000030: 0a3b 9ebc ff02 313d 002e d63d ebb8 d83d
00000040: 02c5 c43d d72a 97bd 24aa 4a3d d7aa bc3d
00000050: cba5 31bc fc37 083d f6b4 603d 7d63 853d
00000060: c3ac d43d 8448 2a3d 2fa2 283e 2872 61bd
00000070: 7ee6 813b eaa4 09bc dee8 18be cc3d f63d

col_embedding.0.weight f4 [7]
0.99859875 1.0001488 1.0001348 1.0002315 0.99912906 0.9994076 1.0003262
00000000: 2ba4 7f3f e004 803f 6b04 803f 9607 803f
00000010: ecc6 7f3f 2dd9 7f3f b00a 803f

col_embedding.0.bias f4 [7]
-0.0004988908 -9.452097e-05 8.716002e-05 -0.00022978068 0.0006209696 0.00062251074 0.0004350667
00000000: ffc7 02ba 8f39 c6b8 aec9 b638 48f1 70b9
00000010: 90c8 223a fd2f 233a aa19 e439

col_embedding.1.weight f4 [32, 7]
0.35351387 0.0045371414 -0.00088674104 -0.17515895 0.27524203 -0.364639 -0.10165273 -0.11623232
-0.25870222 -0.16412467 0.18577193 -0.21341018 0.005116704 -0.23629998 -0.1971877 0.013059985
0.27079335 -0.17691334 0.031568117 0.09013785 0.21008644 0.2844468 0.28190336 -0.10395542
0.059942417 -0.30938742 -0.018485693 0.17654128 0.14726213 0.32086843 0.29567 -0.17920524
-0.06649592 -0.2515832 -0.36505276 -0.37688884 0.037794784 -0.07152869 0.24177639 -0.22800857
0.16868052 -0.12087249 -0.033398118 0.36327946 0.37290686 0.20452674 0.23049016 0.036446046
0.172241 0.077545606 -0.123362355 0.1851686 -0.35516885 0.07079004 0.07242882 0.13019931
-0.10966322 -0.18016674 -0.092952445 -0.0129725 -0.223585 -0.15407832 0.17710768 0.07583488
-0.3256588 -0.05420925 -0.025102785 0.16336435 0.3008158 -0.37789854 0.36448625 0.018068554
0.36269778 -0.12839587 -0.2860386 -0.23831376 -0.23410597 0.35803962 0.13267227 -0.26786095
-0.06525265 -0.173367 -0.23112696 0.22067769 0.29333296 -0.29884905 0.023920562 0.24778816
0.16217221 -0.072762385 -0.22793591 -0.3251871 -0.2078268 0.013296811 -0.034711067 0.20006374
0.1670682 -0.00830096 -0.016038066 0.18787128 -0.18717185 0.21519466 0.31919572 0.22326869
0.08626798 0.04581237 -0.027614001 0.19846778 0.25768098 -0.027548494 0.12706195 -0.28396302
0.18850902 0.27381396 -0.00069801504 -0.15359266 -0.09306194 -0.12262558 -0.34237882 0.32702497
-0.01207371 -0.31942335 0.25766465 0.31826898 0.3123732 -0.22994125 -0.2569101 0.077292696
0.07011971 -0.22082551 0.06637524 0.25293097 -0.277025 0.3708034 -0.3494981 -0.08426395
-0.056090232 0.08697557 -0.011937431 0.25212526 0.06904566 -0.16119479 -0.37284496 -0.29278722
0.2054342 0.15691312 0.20229912 -0.042976778 0.10830731 -0.32129878 0.010865556 -0.15605219
-0.25293916 -0.09003008 0.2257579 0.23039795 0.057308145 -0.06411833 -0.1743907 -0.015234265
-0.045626394 0.22604702 0.114034645 -0.2872236 -0.32108054 0.124642804 0.027535243 0.13663614
-0.16834326 0.16114154 -0.30643335 0.08612802 -0.25653943 -0.29801086 -0.078967355 0.27274942
-0.25972292 -0.2676278 0.18561272 -0.35309842 -0.00908332 -0.2649304 0.26951617 -0.057010844
-0.099436045 -0.22907132 0.024022691 0.1433964 0.09794954 0.19650728 0.3714119 0.1846411
0.31300518 0.076450765 -0.23237936 -0.29496878 0.35846183 -0.13701251 0.32683533 0.05176815
-0.13100739 -0.2229964 -0.34864715 0.01764914 0.10047727 -0.005816395 -0.3042173 0.28223756
0.2647634 0.35733476 0.34947336 -0.103743434 -0.19239227 0.17742725 0.0097551895 0.14089088
-0.054612335 0.1745479 -0.36583102 0.3451339 0.15873975 0.36257246 0.0052208393 0.23823823
00000000: c5ff b43e 4dac 943b 2f74 68ba de5c 33be
00000010: 86ec 8c3e f7b1 babe 4e2f d0bd 360b eebd
00000020: 9e74 84be 4c10 28be ff3a 3e3e 3388 5abe
00000030: 06aa a73b 9ff8 71be 93eb 49be 8cf9 553c
00000040: 6da5 8a3e c528 35be 924d 013d 319a b83d
00000050: e620 573e 03a3 913e a355 903e 94e6 d4bd
00000060: 2e86 753d 0768 9ebe 4f6f 97bc 3dc7 343e
00000070: e2cb 163e de48 a43e 0f62 973e 9481 37be
00000080: 032f 88bd 83cf 80be 32e8 babe 93f7 c0be
00000090: b4ce 1a3d a27d 92bd 3b94 773e 147b 69be
000000a0: 96ba 2c3e ff8b f7bd 77cc 08bd c4ff b93e
000000b0: a6ed be3e 756f 513e 9d05 6c3e 7348 153d
000000c0: f25f 303e 3bd0 9e3d 67a5 fcbd d69c 3d3e
000000d0: b1d8 b5be 5efa 903d 9055 943d f852 053e
000000e0: 1c97 e0bd a17d 38be da5d bebd 9c8a 54bc
000000f0: 77f3 64be b5c6 1dbe b75b 353e 514f 9b3d
00000100: c0bc a6be 850a 5ebd 5ba4 cdbc fc48 273e
00000110: 8704 9a3e eb7b c1be f19d ba3e 8104 943c
00000120: 86b3 b93e 357a 03be a773 92be 8608 74be
00000130: 7ab9 6fbe f850 b73e 3ddb 073e 1225 89be
00000140: 2ea3 85bd 1e87 31be 8cac 6cbe 55f9 613e
00000150: bd2f 963e be02 99be 0ef5 c33c 2ebc 7d3e
00000160: 7910 263e 7204 95bd 0868 69be ec7e a6be
00000170: 8cd0 54be deda 593c 312d 0ebd 82dd 4c3e
00000180: ed13 2b3e c000 08bc 4362 83bc 5461 403e
00000190: faa9 3fbe fd5b 5c3e 9f6d a33e 8ca0 643e
000001a0: 44ad b03d c0a5 3b3d c236 e2bc 233b 4b3e
000001b0: c3ee 833e 61ad e1bc 871c 023e 9a63 91be
000001c0: 8208 413e 5831 8c3e fffa 36ba 6547 1dbe
000001d0: 4297 bebd 1f23 fbbd 474c afbe d16f a73e
000001e0: cfd0 45bc 758b a3be 9fec 833e 27f4 a23e
000001f0: 61ef 9f3e b875 6bbe b889 83be a24b 9e3d
00000200: ec9a 8f3d 1520 62be beef 873d 2b80 813e
00000210: 39d6 8dbe f1d9 bd3e 6af1 b2be 9492 acbd
00000220: dfbe 65bd 3f20 b23d 3795 43bc 9016 813e
00000230: d067 8d3d 3f10 25be 89e5 bebe 35e8 95be
00000240: 585d 523e d5ad 203e 8027 4f3e 6b08 30bd
00000250: 39d0 dd3d 4681 a4be 7205 323c 25cc 1fbe
00000260: 3e81 81be b161 b8bd 142d 673e 71ed 6b3e
00000270: f2bb 6a3d 7950 83bd 7a93 32be 2399 79bc
00000280: bee2 3abd df78 673e ff8a e93d f90e 93be
00000290: ab64 a4be ba44 ff3d 9791 e13c 58ea 0b3e
000002a0: 2d62 2cbe 4a02 253e d5e4 9cbe e363 b03d
000002b0: 2359 83be e194 98be a3b9 a1bd d0a5 8b3e
000002c0: 67fa 84be 8306 89be 4311 3e3e 51c9 b4be
000002d0: 35d2 14bc f5a4 87be 06fe 893e 3484 69bd
000002e0: 20a5 cbbd ac91 6abe 3ccb c43c 82d6 123e
000002f0: c599 c83d 3439 493e b329 be3e 8e12 3d3e
00000300: 3742 a03e 3892 9c3d dbf4 6dbe 2606 97be
00000310: 4f88 b73e 024d 0cbe f656 a73e d70a 543d
00000320: cd26 06be 2b59 64be e181 b2be ee94 903c
00000330: 07c7 cd3d 7597 bebb 5fc2 9bbe 7181 903e
00000340: 128f 873e 95f4 b63e 2cee b23e 7077 d4bd
00000350: 7b02 45be 7daf 353e 3bd4 1f3c b345 103e
00000360: 2fb1 5fbd afbc 323e 344e bbbe 64b5 b03e
00000370: ac8c 223e 19a3 b93e 9313 ab3b b9f4 733e

col_embedding.1.bias f4 [32]
-0.26466507 -0.17239581 -0.07781181 -0.2864271 -0.3005728 0.27140036 -0.1961778 -0.16072947
-0.039987832 -0.036151562 0.09700615 0.27051654 0.05764925 -0.1693813 0.12590043 -0.37610164
0.3538579 0.0053986837 -0.2067187 -0.04027656 -0.02474151 -0.33047983 0.2784941 0.07735127
-0.35357013 0.3054857 -0.27928233 -0.081887364 0.11357717 0.35423988 -0.050695896 0.33551827
00000000: 2e82 87be 8788 30be cc5b 9fbd 93a6 92be
00000010: aee4 99be fdf4 8a3e d5e2 48be 4496 24be
00000020: 48ca 23bd a913 14bd 29ab c63d 2581 8a3e
00000030: 9f21 6c3d 4b72 2dbe 0bec 003e 6590 c0be
00000040: dd2c b53e 71e7 b03b 11ae 53be 09f9 24bd
00000050: b5ae cabc a734 a9be c796 8e3e 586a 9e3d
00000060: 2507 b5be 9f68 9c3e 18fe 8ebe 90b4 a7bd
00000070: 269b e83d ee5e b53e 80a6 4fbd 0dc9 ab3e

col_embedding.3.weight f4 [32, 32]
0.13791883 0.12780307 -0.0070125125 -0.13905932 0.07726708 -0.031856924 -0.16718854 0.13640977
0.13715144 0.15129577 0.09464951 0.11106263 -0.14457583 -0.00697344 0.057784487 0.072379954
-0.055096712 -0.034967713 -0.1311161 -0.15706164 0.009017045 0.17230818 -0.11938293 0.16612549
-0.15924017 -0.118636325 -0.13838866 -0.12645938 0.14556415 0.0024797579 -0.046165172 0.17073528
0.08747674 -0.13762496 0.15166618 -0.08827192 0.095030256 0.05046546 0.057392396 -0.048590053
0.1630301 -0.004070765 0.10596373 0.12041543 -0.1535001 -0.030307798 -0.101376615 -0.017791625
-0.14871013 -0.01743099 -0.114960775 -0.06756629 0.096839495 -0.014699746 0.1642678 0.060173403
0.057289347 0.046186898 -0.17604522 0.17042261 -0.0065540164 -0.17131224 -0.005912252 -0.08817865
-0.059562705 -0.044888712 -0.023004057 -0.105734475 -0.10289004 0.062259275 0.15664622 0.17537425
-0.08106631 -0.1583669 -0.035014965 -0.014270343 -0.15557764 -0.13172616 -0.01129721 0.069771715
0.0011433522 -0.05266042 -0.024344431 0.16176327 0.0748151 -0.09934332 0.10501041 0.11953643
-0.09682463 -0.034218732 0.109637395 0.0043170047 0.028329507 -0.03955283 -0.04185064 0.08410194
0.10649531 -0.0443443 -0.021723678 0.026106553 0.07867739 -0.17157455 -0.07065493 0.10502646
0.15554465 -0.16950719 0.040913314 -0.046996552 0.064660005 -0.009871684 -0.07611413 -0.14582215
-0.050775338 0.03646708 -0.050094977 0.007576843 0.061137278 0.115155324 0.12022335 0.06345111
0.11302994 -0.15212621 0.11936352 -0.023994029 0.12025071 0.13686638 0.1406549 0.06628206
0.105947584 0.06023832 0.031943824 -0.089029 0.009466683 0.14184213 -0.03587334 -0.028364386
0.1342291 0.09905782 -0.081668176 -0.16040795 0.018041404 -0.1343692 -0.13137294 0.14351113
0.10298761 -0.16459344 -0.09168502 0.09709616 -0.13070372 0.07338082 0.031100059 -0.1222604
0.006577711 0.05897111 0.16982822 0.10544345 0.025672179 -0.06904535 -0.16001171 0.023195306
0.026380913 0.068944596 -0.056477573 -0.1326461 0.11218857 0.092138074 -0.054425776 0.13254349
0.15248562 0.10445991 -0.09091688 -0.11609512 -0.10046406 0.14380021 -0.11536284 0.05056416
-0.04622252 -0.10186143 0.13811581 0.044218685 -0.075448886 -0.04755294 0.12558599 -0.018495407
0.049552217 -0.13798063 -0.067762144 -0.04741285 0.14653164 -0.15880917 0.087569304 0.01108827
0.04676259 -0.061368044 0.11685554 -0.0006750884 -0.11266664 -0.016079731 0.079257384 0.121223785
0.17273635 0.16145235 -0.02882502 -0.09468133 0.020955306 -0.15972042 0.12602855 0.0048865736
0.1722716 -0.07244179 0.09994575 0.15654153 -0.027577562 0.10137145 -0.115522034 0.15877803
0.04256303 0.14171202 0.022463491 -0.014369794 0.04802914 0.12116039 0.115635954 -0.12122491
-0.121102035 0.085456125 0.16566755 0.14644569 -0.10339078 0.022614267 -0.016954709 -0.15242267
0.14057377 0.16312507 0.044294614 -0.111741744 -0.017312616 0.122466706 -0.0990574 -0.046581056
-0.08772749 0.008541185 -0.077339076 -0.030021554 -0.050074164 0.10579055 -0.08756725 0.047588848
0.13971008 0.14302836 -0.15317631 -0.054896835 -0.09495225 -0.13877192 0.05608736 0.11994362
00000000: 983a 0d3e cfde 023e 38c9 e5bb 9165 0ebe
00000010: 343e 9e3d 687c 02bd 7933 2bbe 01af 0b3e
00000020: 6d71 0c3e 47ed 1a3e 9ad7 c13d ce74 e33d
00000030: b00b 14be 7481 e4bb 6daf 6c3d f13b 943d
00000040: 17ad 61bd 4e3a 0fbd 4d43 06be c4d4 20be
00000050: 3abc 133c 8e71 303e 0a7f f4bd cd1c 2a3e
00000060: db0f 23be 9af7 f2bd c2b5 0dbe 917e 01be
00000070: c50e 153e 6f83 223b b117 3dbd 3bd5 2e3e
00000080: 0127 b33d 8fed 0cbe 614e 1b3e e9c7 b4bd
00000090: 399f c23d dfb4 4e3d 4a14 6b3d 5d06 47bd
000000a0: 5df1 263e 0d64 85bb 8303 d93d 5d9c f63d
000000b0: 212f 1dbe 0f48 f8bc 8b9e cfbd bebf 91bc
000000c0: 7847 18be 6fcb 8ebc 8e70 ebbd 3260 8abd
000000d0: c953 c63d 34d7 70bc d135 283e 6378 763d
000000e0: 3ca8 6a3d 792e 3d3d 3345 34be 4483 2e3e
000000f0: 13c3 d6bb 7a6c 2fbe 90bb c1bb 0297 b4bd
00000100: 06f8 73bd 3add 37bd 0173 bcbc 518b d8bd
00000110: 03b8 d2bd 9503 7f3d de67 203e 4f95 333e
00000120: 1806 a6bd ef2a 22be da6b 0fbd 28ce 69bc
00000130: bf4f 1fbe 39e3 06be ef17 39bc 79e4 8e3d
00000140: 89dc 953a 74b2 57bd f96d c7bc 45a5 253e
00000150: a938 993d 8374 cbbd b30f d73d 84cf f43d
00000160: fe4b c6bd f128 0cbd 9289 e03d a975 8d3b
00000170: 4813 e83c 2602 22bd 946b 2bbd a33d ac3d
00000180: 371a da3d 5ea2 35bd dbf5 b1bc 69dd d53c
00000190: 9d21 a13d 3db1 2fbe 88b3 90bd 1d18 d73d
000001a0: 1947 1f3e 4b93 2dbe b894 273d 757f 40bd
000001b0: 776c 843d d8bc 21bc bae1 9bbd 6752 15be
000001c0: cdf9 4fbd 815e 153d 6430 4dbd 2a47 f83b
000001d0: 156b 7a3d 8ed6 eb3d a937 f63d a8f2 813d
000001e0: 3e7c e73d f9c6 1bbe dc74 f43d 208f c4bc
000001f0: 0146 f63d b326 0c3e d707 103e e4be 873d
00000200: 0cfb d83d 75bc 763d 87d7 023d d654 b6bd
00000210: 251a 1b3c 103f 113e ecef 12bd 6e5c e8bc
00000220: 5a73 093e d4de ca3d a541 a7bd fb41 24be
00000230: 91cb 933c 1498 09be a186 06be 95f4 123e
00000240: 2beb d23d 2f8b 28be 5bc5 bbbd 5ada c63d
00000250: 32d7 05be af48 963d 8dc5 fe3c a963 fabd
00000260: d789 d73b b18b 713d 73e7 2d3e bcf2 d73d
00000270: 764e d23c a667 8dbd 1cda 23be 1504 be3c
00000280: c91c d83c d332 8d3d 0755 67bd 61d4 07be
00000290: 1fc3 e53d e3b2 bc3d 90ed 5ebd 7bb9 073e
000002a0: 3125 1c3e 14ef d53d a132 babd 47c3 edbd
000002b0: 1ac0 cdbd 5d40 133e 5a43 ecbd 5d1c 4f3d
000002c0: d353 3dbd ba9c d0bd 3b6e 0d3e a71e 353d
000002d0: f284 9abd dfc6 42bd 9d99 003e ae83 97bc
000002e0: 44f7 4a3d cb4a 0dbe e1c6 8abd fa33 42bd
000002f0: 640c 163e df9e 22be 8957 b33d 93ab 353c
00000300: 218a 3f3d 0f5d 7bbd f551 ef3d 6af8 30ba
00000310: c4bd e6bd a4b9 83bc b251 a23d 2d44 f83d
00000320: cce1 303e c453 253e 7322 ecbc 49e8 c1bd
00000330: 76aa ab3c c08d 23be a10d 013e 8d1f a03b
00000340: f767 303e 5c5c 94bd 5bb0 cc3d 6c4c 203e
00000350: 57ea e1bc d69b cf3d d196 ecbd b596 223e
00000360: 9256 2e3d f51c 113e 5b05 b83c 496f 6bbc
00000370: 34ba 443d f022 f83d 8bd2 ec3d c444 f8bd
00000380: 5804 f8bd 9f03 af3d c1a4 293e dcf5 153e
00000390: 8cbe d3bd 8e41 b93c 9ae4 8abc b014 1cbe
000003a0: 92f2 0f3e 420a 273e 456e 353d dbd8 e4bd
000003b0: 30d3 8dbc d3cf fa3d 9bde cabd c7cb 3ebd
000003c0: 78aa b3bd 54f0 0b3c f363 9ebd c3ef f5bc
000003d0: 911a 4dbd b7a8 d83d 7556 b3bd 86ec 423d
000003e0: 2910 0f3e 0776 123e 40da 1cbe 81db 60bd
000003f0: 5376 c2bd 3a1a 0ebe dcbb 653d 00a5 f53d

col_embedding.3.bias f4 [32]
-0.046069577 0.1512185 -0.09742521 0.11982314 -0.023431066 0.15315485 0.104652695 0.029561212
0.14297111 0.14208505 0.13212626 0.132793 -0.081788816 0.15815593 0.067607336 -0.020670358
-0.093494475 -0.08383633 0.11559385 0.14359301 0.091518715 0.09859203 -0.12353338 0.15163136
0.13871886 -0.06552726 0.13573731 0.0923695 0.09223225 0.029682377 -0.08952822 0.0755568
00000000: 74b3 3cbd 06d9 1a3e de86 c7bd d665 f53d
00000010: 82f2 bfbc a0d4 1c3e 2754 d63d 5b2a f23c
00000020: 0567 123e be7e 113e 1b4c 073e e3fa 073e
00000030: e580 a7bd a1f3 213e b775 8a3d e254 a9bc
00000040: 087a bfbd 62b2 abbd 78bc ec3d 0c0a 133e
00000050: 2a6e bb3d 9eea c93d 12ff fcbd 4045 1b3e
00000060: 510c 0e3e 2833 86bd b9fe 0a3e 382c bd3d
00000070: 43e4 bc3d 7528 f33c 925a b7bd 86bd 9a3d

conv_col_to_row.feature_module_left.0.weight f4 [32, 32]
0.024607457 -0.1523136 -0.0035695918 0.03928863 -0.032485783 -0.11693007 0.014563197 -0.058022257
0.15530027 0.008649411 -0.022082763 0.1315977 0.0009807339 -0.052250188 -0.019143425 -0.009526817
-0.01048459 -0.14015615 0.13107015 0.02778432 -0.090107225 -0.10686949 0.077651314 0.07844977
0.096758276 -0.10545472 -0.16099028 -0.13259858 0.12679496 -0.04729114 -0.053682584 -0.0999194
0.13101539 0.071831554 0.10514336 -0.098064505 -0.03107598 0.15994956 -0.021297531 -0.17180872
-0.08752023 0.0043635755 0.11854219 0.030906003 0.03923085 -0.121826395 0.030049687 0.01487865
0.1264484 -0.13256553 0.029119393 -0.10287313 -0.04083477 0.09082709 -0.17442738 0.10821697
-0.15991208 0.036563475 0.080040276 0.10294149 -0.0939603 -0.11081171 0.09482761 -0.015307353
0.11388517 -0.10842938 0.027139163 0.06925828 0.023638407 0.12799393 -0.12815116 0.16899419
-0.11421375 -0.10672647 0.12965651 0.020831317 -0.16934447 -0.16534029 -0.08030024 0.16588356
0.04039088 -0.13125564 0.16869535 0.071014225 -0.07045654 -0.027141357 -0.04709028 0.17542808
0.0053573376 0.052604657 -0.14093025 0.022421971 -0.06623453 0.06963116 0.025401669 -0.011198624
-0.04997185 -0.06121749 0.013127476 0.0101492815 -0.013706011 0.05118684 -0.015725607 -0.06789583
0.14230524 -0.09527758 -0.12295476 0.15147482 0.027155865 -0.031652503 -0.09496887 -0.032893457
-0.13303258 0.039060242 0.019192789 0.07736664 -0.029373625 -0.16654594 0.13788636 -0.16147047
-0.11408638 -0.0052962024 -0.101420395 -0.09414288 0.12341181 -0.16879943 -0.022084164 0.09017257
-0.14996766 0.077829845 0.16136329 0.003497365 0.094262354 -0.11192253 0.13400568 -0.15569834
0.06494618 0.10164313 -0.083021685 -0.10261372 0.04007509 0.16429625 -0.07794509 0.12998883
-0.081308536 -0.007218987 0.13041914 -0.14354858 -0.1724776 -0.030385599 0.035111878 0.022504898
-0.17565002 -0.08041333 0.040795412 -0.027762255 -0.15318364 0.057485167 0.045814157 -0.09695154
0.0070722015 -0.13727935 0.15930319 0.08194272 0.013830685 0.08183377 0.055284403 0.11833825
-0.1406498 -0.033244025 0.06848826 -0.14770249 -0.035282638 -0.061345994 0.022098633 -0.12570715
0.16706266 -0.12762794 -0.06673186 -0.099682145 0.12343903 0.12012159 0.05666078 0.12164566
0.16056323 -0.0072924644 -0.09867747 0.1418803 0.06416403 -0.13341169 0.0041295523 0.17292464
-0.051511783 -0.15520662 0.16231783 0.024884855 0.06981752 -0.16349974 0.14526969 -0.11590822
0.025039412 0.083710626 0.012407189 -0.17313467 0.02748941 -0.080545805 0.04306342 0.07698787
0.023162203 -0.025329662 -0.054362874 0.11852554 -0.0697333 0.055584185 -0.10527909 -0.07155239
0.025775645 -0.13938703 0.048819773 -0.050415546 0.1658282 0.0067173094 -0.14756192 0.12385345
-0.12545551 0.009807527 -0.008124953 -0.12499363 0.14379926 -0.10075847 0.026028495 0.14384124
0.1333782 -0.1562622 0.14552934 -0.07602328 -0.0035654623 -0.09725744 0.014504227 0.09973286
-0.1310649 -0.0028192026 0.17412664 0.111486435 -0.04512549 -0.14644161 0.0004548022 -0.064520985
0.092887454 0.116356455 -0.11574148 -0.0015419732 0.12511967 0.077636845 -0.1452797 -0.14737728
00000000: 9495 c93c 19f8 1bbe d0ef 69bb 1ded 203d
00000010: d00f 05bd 0879 efbd 7a9a 6e3c bfa8 6dbd
00000020: 0907 1f3e 42b6 0d3c e9e6 b4bc 8cc1 063e
00000030: f88b 803a 4b04 56bd acd2 9cbc 5e16 1cbc
00000040: 8fc7 2bbc 1885 0fbe 4137 063e f19b e33c
00000050: 238a b8bd 64de dabd a707 9f3d 46aa a03d
00000060: 3429 c63d a5f8 d7bd a3da 24be ecc7 07be
00000070: 8ad6 013e 5bb4 41bd 45e2 5bbd 8ba2 ccbd
00000080: e628 063e 6c1c 933d 6755 d73d 0bd6 c8bd
00000090: 0e93 febc d1c9 233e 2978 aebc a0ee 2fbe
000000a0: ce3d b3bd 53fc 8e3b 3fc6 f23d 962e fd3c
000000b0: 87b0 203d 1e80 f9bd c32a f63c 95c5 733c
000000c0: b07b 013e 42bf 07be cb8b ee3c 26af d2bd
000000d0: 5c42 27bd 8e03 ba3d 179d 32be dca0 dd3d
000000e0: febf 23be 95c3 153d 28ec a33d fdd2 d23d
000000f0: 426e c0bd 40f1 e2bd fa34 c23d b1cb 7abc
00000100: a13c e93d 3910 debd f352 de3c 49d7 8d3d
00000110: 55a5 c13c d710 033e 0f3a 03be d00c 2d3e
00000120: e6e8 e9bd 6893 dabd adc4 043e 70a6 aa3c
00000130: a368 2dbe f74e 29be 7474 a4bd 61dd 293e
00000140: e870 253d e167 06be 79be 2c3e e86f 913d
00000150: 854b 90bd 8d57 debc bde1 40bd 6ba3 333e
00000160: 9b8c af3b fb77 573d 0550 10be 48ae b73c
00000170: f8a5 87bd c89a 8e3d 2917 d03c 6f7a 37bc
00000180: 48af 4cbd 31bf 7abd a014 573c 2c49 263c
00000190: 2d8f 60bc 4ba9 513d fdd2 80bc f80c 8bbd
000001a0: 77b8 113e e420 c3bd b5cf fbbd 371c 1b3e
000001b0: fa75 de3c 0ea6 01bd 0a7f c2bd 4abb 06bd
000001c0: b139 08be a2fd 1f3d 323a 9d3c 6772 9e3d
000001d0: f5a0 f0bc 058b 2abe 1532 0d3e 8458 25be
000001e0: 1fa6 e9bd c48b adbb 7fb5 cfbd fbcd c0bd
000001f0: 55bf fc3d c2d9 2cbe d9e9 b4bc 65ac b83d
00000200: 1f91 19be 4165 9f3d 6b3c 253e 0c34 653b
00000210: 9f0c c13d a437 e5bd c938 093e 636f 1fbe
00000220: 8102 853d 462a d03d 4607 aabd 2427 d2bd
00000230: c725 243d 473d 283e ada1 9fbd cb1b 053e
00000240: 1785 a6bd 418d ecbb 988c 053e 66fe 12be
00000250: f89d 30be 38eb f8bc 79d1 0f3d 315c b83c
00000260: 99dd 33be beaf a4bd 1719 273d ab6d e3bc
00000270: 2cdc 1cbe 9175 6b3d a0a7 3b3d 878e c6bd
00000280: edbd e73b f592 0cbe 6020 233e 96d1 a73d
00000290: 199a 623c 7798 a73d e671 623d 535b f23d
000002a0: 8006 10be e32a 08bd 9343 8c3d 523f 17be
000002b0: 8784 10bd f045 7bbd 3108 b53c 60b9 00be
000002c0: 7912 2b3e e6b0 02be b7aa 88bd 2726 ccbd
000002d0: 9acd fc3d 4f02 f63d 2215 683d 5c21 f93d
000002e0: b06a 243e a0f5 eebb 6a17 cabd 1249 113e
000002f0: 6e68 833d 139d 08be 3251 873b 2813 313e
00000300: 05fe 52bd 7cee 1ebe a536 263e 53db cb3c
00000310: 7dfc 8e3d 7a6c 27be 94c1 143e 4a61 edbd
00000320: 741f cd3c 7a70 ab3d 8647 4b3c 374a 31be
00000330: 7931 e13c 33f5 a4bd 4563 303d d1ab 9d3d
00000340: a9be bd3c 2780 cfbc 9bab 5ebd 85bd f23d
00000350: 55d0 8ebd 3eac 633d 909c d7bd 0f8a 92bd
00000360: 7227 d33c 79bb 0ebe 3ef7 473d 8880 4ebd
00000370: dece 293e e01c dc3b 791a 17be e1a6 fd3d
00000380: 6977 00be c0af 203c 861e 05bc a9fc ffbd
00000390: 1d40 133e 755a cebd b639 d53c 1e4b 133e
000003a0: 4b94 083e 3303 20be a505 153e 18b2 9bbd
000003b0: 88aa 69bb e92e c7bd 23a3 6d3c be40 cc3d
000003c0: e135 06be 5fc2 38bb 414e 323e 0053 e43d
000003d0: 81d5 38bd caf4 15be 8572 ee39 9423 84bd
000003e0: c73b be3d 4b4c ee3d de09 edbd 091c caba
000003f0: 5f1f 003e 1100 9f3d 34c4 14be 12ea 16be

conv_col_to_row.feature_module_left.0.bias f4 [32]
0.10784552 0.12919085 -0.1092141 0.06659426 -0.019966777 0.112680726 -0.08790104 0.17448369
-0.059096098 -0.14548622 -0.10812232 -0.15191148 0.036916737 0.07037532 -0.16405761 -0.15160745
0.087415315 0.1301423 0.02556326 0.036977906 0.04520127 0.086161025 0.16170794 -0.08775194
0.08986092 -0.052305847 0.12433143 -0.17064066 -0.1020626 -0.06787288 -0.05712616 -0.16795947
00000000: 1dde dc3d 9b4a 043e a4ab dfbd 9262 883d
00000010: 5e91 a3bc 27c5 e63d 7605 b4bd daab 323e
00000020: c00e 72bd 57fa 14be 3c6f ddbd af8e 1bbe
00000030: 0136 173d f020 903d b8fe 27be fc3e 1bbe
00000040: cd06 b33d 0644 053e 0b6a d13c 2576 173d
00000050: f824 393d 3175 b03d c496 253e 4ab7 b3bd
00000060: 0109 b83d a83e 56bd 7aa1 fe3d 6dbc 2ebe
00000070: 3206 d1bd f000 8bbd 1ffd 69bd 91fd 2bbe

conv_col_to_row.feature_module_edge.0.weight f4 [32, 1]
0.54630387 0.61037725 0.09409525 0.33503774 0.08548604 0.45488656 -0.73251295 -0.32941955
-0.508118 0.20750123 -0.9119552 -0.83951235 -0.82716537 0.1331459 -0.5322518 0.088910215
-0.0633612 -0.1453767 0.69307303 0.65501803 -0.73176277 0.009235282 -0.81633055 -0.68752635
0.68232083 0.40886164 -0.6636191 0.65235054 -0.15414348 0.14726298 -0.26463264 0.9214008
00000000: 92da 0b3f af41 1c3f 03b5 c03d 118a ab3e
00000010: 4e13 af3d e4e6 e83e f885 3bbf aea9 a8be
00000020: 0514 02bf 347b 543e e575 69bf 48ea 56bf
00000030: 1cc1 53bf 6657 083e a741 08bf 8f16 b63d
00000040: 84c3 81bd a1dd 14be 3c6d 313f 43af 273f
00000050: ce54 3bbf 954f 173c 0afb 50bf ba01 30bf
00000060: 94ac 2e3f 5056 d13e f1e2 29bf 7200 273f
00000070: cad7 1dbe 1bcc 163e ee7d 87be ece0 6b3f

conv_col_to_row.feature_module_right.0.weight f4 [32, 32]
-0.06065403 0.080320954 -0.09935524 0.1194101 -0.08454417 -0.1162676 -0.013836047 0.030330095
0.0052670413 -0.10559271 -0.09199397 0.06178951 -0.10284604 0.0025706831 0.07596982 0.016008941
0.1759291 0.16426758 0.022664525 0.13466103 -0.1661542 0.038720362 0.17350116 -0.058651388
0.06961162 0.03954605 0.13845977 -0.10005016 -0.11548285 0.0068712626 -0.11363787 0.1494218
0.1564039 0.09289635 -0.017613377 0.17683788 -0.15400974 0.17575356 -0.0770361 0.14818256
-0.10793403 -0.09492868 -0.106255904 0.09000222 0.034686405 0.102327436 0.005621087 -0.057883766
0.13799512 -0.14017151 0.075923294 -0.15065734 0.16549547 0.012304968 -0.059073605 0.13746332
-0.14879046 -0.098485865 -0.14166917 -0.056638896 -0.07506704 0.097339764 -0.14833148 0.004887201
0.1384277 -0.038469277 -0.060340084 -0.07940667 0.08908591 0.11324585 -0.13267331 -0.024255011
-0.15031153 -0.052722163 0.020358773 0.024232194 0.12767993 0.1203099 0.05169261 -0.16110893
-0.045774896 0.17563841 -0.056513153 0.043874267 0.02713514 0.097592264 -0.09024032 -0.09972584
-0.04539261 0.11627582 -0.16159084 -0.026009437 0.10333186 0.1387048 0.036098067 -0.08725008
0.04053599 -0.13272345 -0.17170568 0.13481832 -0.17579141 -0.13100299 0.16495429 0.063911006
-0.10636022 -0.1264795 -0.15071477 -0.032268252 -0.106494814 0.08290788 -0.12144526 -0.067946665
-0.05205085 0.054762 -0.018269772 -0.030852303 -0.079024754 -0.16928819 0.17031915 0.14333397
0.061653506 -0.011883262 0.12768246 -0.046327483 0.006095369 0.1108438 -0.108502634 0.114146784
-0.0854724 -0.13424961 0.17176038 -0.072328195 -0.07384469 -0.058552165 0.030982781 -0.015639985
-0.14874199 -0.16176572 0.10489386 0.073858745 0.13514219 -0.16288161 0.018838577 0.14194384
-0.07964052 0.0076056705 0.0016236161 0.1566428 -0.13808222 -0.034392636 0.06424337 0.0044257697
0.03770753 -0.1091601 -0.14830032 0.15730047 0.012672456 -0.071369685 -0.0036682494 0.049552683
0.07998012 0.15370445 -0.16713111 -0.14049815 0.06134075 -0.09272209 0.053339798 0.17197503
-0.07037526 0.15449978 0.06686524 0.10112789 0.16510579 0.1738949 0.11066275 0.091502674
0.06363442 0.14378183 0.16872834 -0.14682354 0.12625328 0.109610476 0.09190934 0.08438539
-0.08873977 0.09080327 0.11160178 0.044956908 0.037802882 -0.12269732 -0.15736966 -0.058682013
0.1531177 0.006785022 0.056579813 0.061491713 -0.0022018664 -0.002665491 -0.015503867 -0.11402354
0.0835584 -0.09655616 0.051777266 -0.077237785 -0.051844683 -8.590833e-06 -0.079841465 -0.11497129
-0.13468587 0.058257714 -0.1258551 -0.17027937 -0.105726644 0.007110832 0.008265141 0.0075555984
0.04944409 -0.08341476 0.09779598 0.00920763 0.13652714 0.02855513 0.060472365 -0.12553811
0.13751754 -0.020250006 -0.07388373 0.14742528 -0.053416725 0.11034719 0.009296398 0.0032373164
0.1494269 -0.099200375 0.027416198 -0.07884013 0.10929574 0.033311766 0.09488528 0.10677656
-0.056628995 -0.10180902 -0.045674767 0.020534469 -0.09945968 0.106423214 -0.09469818 0.0849805
-0.14957069 -0.088538624 0.02652463 -0.17501883 0.14770326 0.1521826 0.078826934 -0.026273608
00000000: 5c70 78bd 507f a43d c37a cbbd 488d f43d
00000010: 7e25 adbd b51d eebd 96b0 62bc d276 f83c
00000020: 2597 ac3b fe40 d8bd 5667 bcbd ff16 7d3d
00000030: f2a0 d2bd e878 283b 1196 9b3d 2f25 833c
00000040: c226 343e c335 283e f4aa b93c 95e4 093e
00000050: 5424 2abe 3e99 1e3d 4aaa 313e 703c 70bd
00000060: 8990 8e3d 0afb 213d 66c8 0d3e 19e7 ccbd
00000070: 4682 ecbd 5428 e13b f9ba e8bd 0702 193e
00000080: 5828 203e 7140 be3d ee49 90bc fd14 353e
00000090: bbb4 1dbe bef8 333e 1ac5 9dbd 2bbd 173e
000000a0: 840c ddbd f869 c2bd b29c d9bd 1553 b83d
000000b0: 5513 0e3d 0c91 d13d 1831 b83b 8717 6dbd
000000c0: 984e 0d3e 1f89 0fbe ac7d 9b3d eb45 1abe
000000d0: a577 293e c79a 493c 2af7 71bd 2fc3 0c3e
000000e0: 875c 18be f5b2 c9bd b911 11be 30fe 67bd
000000f0: c0bc 99bd 125a c73d 35e4 17be d024 a03b
00000100: febf 0d3e f691 1dbd 2a27 77bd f79f a2bd
00000110: ac72 b63d 71ed e73d 83db 07be 72b2 c6bc
00000120: 44eb 19be 32f3 57bd 71c7 a63c 9882 c63c
00000130: 87be 023e 0965 f63d a1bb 533d bdf9 24be
00000140: 757e 3bbd 8eda 333e 567a 67bd 81b5 333d
00000150: 834a de3c 74de c73d ebcf b8bd 103d ccbd
00000160: 9aed 39bd 0422 ee3d 1278 25be be11 d5bc
00000170: a79f d33d a208 0e3e 91db 133d 2cb0 b2bd
00000180: 1109 263d a8e8 07be 9dd3 2fbe d00d 0a3e
00000190: aa02 34be a625 06be c7e9 283e c6e3 823d
000001a0: 63d3 d9bd d883 01be f954 1abe b72b 04bd
000001b0: f419 dabd 9bcb a93d 4bb8 f8bd 9f27 8bbd
000001c0: 4633 55bd 1e4e 603d 7daa 95bc f8bd fcbc
000001d0: bbd7 a1bd e259 2dbe 2568 2e3e 24c6 123e
000001e0: 6388 7c3d 03b2 42bc 31bf 023e e3c1 3dbd
000001f0: a9bb c73b 1302 e33d a136 debd cac5 e93d
00000200: 270c afbd bb78 09be f4e1 2f3e ce20 94bd
00000210: e33b 97bd 65d4 6fbd 9acf fd3c 6d1f 80bc
00000220: d24f 18be eaa5 25be 98d2 d63d 4143 973d
00000230: b762 0a3e 70ca 26be 5c53 9a3c ba59 113e
00000240: 921a a3bd fd38 f93b 84cf d43a f866 203e
00000250: 6d65 0dbe 4bdf 0cbd 0792 833d 0c06 913b
00000260: 3673 1a3d 558f dfbd 0adc 17be 6013 213e
00000270: 22a0 4f3c 452a 92bd 0367 70bb c1f7 4a3d
00000280: 9ecc a33d b364 1d3e 6b24 2bbe bfde 0fbe
00000290: 7040 7b3d 14e5 bdbd d57a 5a3d 391a 303e
000002a0: e820 90bd 3135 1e3e a5f0 883d 241c cf3d
000002b0: 7e11 293e 8111 323e 27a3 e23d c165 bb3d
000002c0: c352 823d 8b3b 133e 1fc7 2c3e e958 16be
000002d0: 8a48 013e 757b e03d f73a bc3d 3fd2 ac3d
000002e0: 32bd b5bd 11f7 b93d 798f e43d bc24 383d
000002f0: 32d7 1a3d bc48 fbbd 8325 21be 8d5c 70bd
00000300: e3ca 1c3e e454 de3b 3cc0 673d bcde 7b3d
00000310: 304d 10bb 85af 2ebb ee03 7ebc 2c85 e9bd
00000320: ab20 ab3d 3cbf c5bd 6614 543d d82e 9ebd
00000330: 175b 54bd 5921 10b7 ec83 a3bd 1176 ebbd
00000340: 18eb 09be a49f 6e3d 29e0 00be b75d 2ebe
00000350: 3687 d8bd fb01 e93b 846a 073c f494 f73b
00000360: e385 4a3d 5cd5 aabd 4249 c83d 99db 163c
00000370: c5cd 0b3e 73ec e93c dfb1 773d 108d 00be
00000380: 66d1 0c3e 57e3 a5bc 5a50 97bd a7f6 163e
00000390: 7fcb 5abd b5fd e13d eb4f 183c 2829 543b
000003a0: 5e03 193e 9129 cbbd ef97 e03c ef76 a1bd
000003b0: 72d6 df3d eb71 083d 3753 c23d abad da3d
000003c0: cef3 67bd 3f81 d0bd 7715 3bbd e737 a83c
000003d0: 84b1 cbbd 6af4 d93d 1ff1 c1bd 420a ae3d
000003e0: 0f29 19be bd53 b5bd 2e4a d93c 2338 33be
000003f0: 863f 173e c1d5 1b3e 0470 a13d c03b d7bc

conv_col_to_row.feature_module_final.0.weight f4 [32]
0.99905753 0.99998546 1.0 1.0001814 1.0 1.0001055 1.0015228 0.9996356
0.9995299 1.0019429 0.99964577 0.9995081 1.0008365 0.99949723 1.0000566 0.99908215
1.0002846 0.9998939 1.0000976 1.000758 1.0010003 1.0000486 0.99977934 0.9998256
1.0015507 1.0007161 1.0012902 1.0 1.0 0.99884886 1.0 1.0
00000000: 3cc2 7f3f 0cff 7f3f 0000 803f f205 803f
00000010: 0000 803f 7503 803f e631 803f 1ee8 7f3f
00000020: 31e1 7f3f aa3f 803f c9e8 7f3f c3df 7f3f
00000030: 691b 803f 0ddf 7f3f db01 803f d9c3 7f3f
00000040: 5309 803f 0cf9 7f3f 3303 803f d718 803f
00000050: c720 803f 9801 803f 8af1 7f3f 92f4 7f3f
00000060: d032 803f 7717 803f 472a 803f 0000 803f
00000070: 0000 803f 8fb4 7f3f 0000 803f 0000 803f

conv_col_to_row.feature_module_final.0.bias f4 [32]
-0.00047789258 2.968244e-05 0.0 0.00019405488 0.0 0.0001330559 0.00022542781 -0.00024012743
-0.00026072207 0.0015880715 -0.00026157557 -0.00048872916 0.0006320183 -0.00083738996 0.00081550854 -0.00018359417
-0.00017542926 -7.557236e-05 8.9748064e-05 0.0011618471 0.00075926655 1.0935522e-05 0.00014913757 -0.00026423435
0.0020072456 0.00058218004 0.0010701331 0.0 0.0 -0.0013107711 0.0 0.0
00000000: a88d fab9 8efe f837 0000 0000 367b 4b39
00000010: 0000 0000 ec84 0b39 d160 6c39 b7ca 7bb9
00000020: 86b1 88b9 d626 d03a 1424 89b9 0f1e 00ba
00000030: 08ae 253a 4a84 5bba dac7 553a 2f83 40b9
00000040: 6ff3 37b9 9a7c 9eb8 2037 bc38 1f49 983a
00000050: 8409 473a b677 3737 d061 1c39 ef88 8ab9
00000060: fe8b 033b 719d 183a b543 8c3a 0000 0000
00000070: 0000 0000 2ece abba 0000 0000 0000 0000

conv_col_to_row.feature_module_final.2.weight f4 [32, 32]
-0.016051423 0.04625279 -0.11127706 0.059968483 -0.06373465 0.0737987 0.02362755 0.07331164
-0.14905058 -0.15903766 -0.0728239 -0.07969295 0.12780817 0.131093 -0.041025005 0.062050354
-0.15943693 -0.014466732 0.10727586 -0.090537645 0.1700627 -0.04931629 0.12800954 0.09618721
0.06343641 -0.101367064 0.100428246 -0.101569265 0.03590351 -0.1357837 -0.020012967 0.044545975
-0.14181486 -0.17075212 -0.015672306 0.02630345 0.07167183 0.1295444 -0.011402277 -0.09003309
-0.06235758 0.11374776 -0.11826917 -0.025494393 -0.0487107 0.03363466 0.094925486 0.17007877
-0.050679013 0.14794974 -0.052374292 0.16722092 -0.16179505 0.13385074 0.12000175 -0.07390016
0.14357768 -0.07801468 0.100455776 0.035133295 -0.06753847 -0.117962226 0.019978976 0.0917013
-0.17260033 -0.08563789 -0.121474676 0.06522167 -0.023455016 -0.06196987 0.13681765 0.03535133
0.12214702 -0.13426498 0.12423451 -0.0497384 0.014107929 -0.052703753 -0.15972126 -0.1269822
0.09510248 0.006800576 -0.17344214 -0.060226012 -0.10649444 0.06066819 0.12960644 0.09508412
-0.17183346 0.04402759 0.017922606 0.10203353 -0.03152778 0.13215047 -0.043918703 0.00791168
0.11544232 0.0155285215 -0.14947978 -0.03909 -0.09781843 -0.023043822 -0.067907885 0.091300815
0.1683811 0.10827563 0.13073954 -0.039942514 -0.14098617 -0.016137028 -0.024867052 0.10946946
0.13869523 0.15113726 -0.07679839 -0.06505392 0.06327759 -0.012693501 0.08528097 -0.1552199
0.116128154 0.06679825 -0.014010404 0.00476487 0.08255697 -0.16049081 0.0367138 0.0066200052
0.03127359 -0.10558811 0.15925448 0.13627449 0.04933952 -0.16383646 -0.068620384 -0.04049205
-0.07170359 0.15315841 0.15001042 0.14231312 0.10140909 0.07353468 0.111070395 -0.09401885
-0.02619203 0.089235954 0.02378083 0.1030086 0.0684656 -0.10068036 -0.13886358 -0.081851825
0.110881366 -0.09118593 -0.048384223 -0.11170071 0.022027038 0.10282781 -0.03889861 -0.084650576
0.10065266 -0.05449531 0.0033183477 -0.103382915 0.05207694 -0.119698435 0.15767339 -0.010509225
0.04004651 -0.14093639 0.023376647 0.15834601 -0.14791864 0.12126359 -0.08614443 -0.08734395
0.04090498 0.1749333 -0.12607338 0.05309592 0.16285053 -0.012769761 -0.114112705 -0.074375026
0.010311984 -0.06208934 -0.08935868 -0.14715016 0.16183513 -0.16020727 0.1507432 0.036157697
-0.11872687 0.06078482 0.08522481 0.1368721 -0.04886063 0.081830084 -0.08837366 -0.029774029
-0.14538004 0.0016420966 -0.1759706 -0.1507552 -0.1342325 -0.13570131 0.11746544 -0.012720327
-0.049473215 -0.16510712 0.17286736 -0.120505504 0.0021253298 0.06644823 -0.15832089 0.0062175104
0.018619083 0.090878606 0.06600897 0.13408554 -0.15047811 -0.05106295 0.057341672 -0.12612367
-0.079242446 0.1486616 0.019418191 0.0222187 0.052995216 -0.13115458 -0.17005125 0.12877513
0.13510163 0.112290055 0.16058254 0.116879314 -0.074077904 -0.12072829 0.03543093 0.12998177
0.14461601 0.08854709 0.02738077 0.100529745 -0.050021064 0.10078285 0.029068679 0.027184045
-0.10847062 -0.13280806 0.17548293 0.12593839 0.06632287 -0.021599544 -0.15697339 0.16508745
00000000: 467e 83bc 9173 3d3d 3ae5 e3bd 83a1 753d
00000010: 5087 82bd c623 973d 908e c13c 6a24 963d
00000020: b7a0 18be c5da 22be b224 95bd 0f36 a3bd
00000030: 25e0 023e 3e3d 063e d609 28bd 8328 7e3d
00000040: 6f43 23be df05 6dbc 72b3 db3d cd6b b9bd
00000050: eb24 2e3e e1ff 49bd ef14 033e cdfd c43d
00000060: f3ea 813d 8999 cfbd 53ad cd3d 8c03 d0bd
00000070: 8f0f 133d e20a 0bbe 3cf2 a3bc d775 363d
00000080: ea37 11be a5d9 2ebe 3563 80bc 557a d73c
00000090: aec8 923d 4aa7 043e 9ed0 3abc 4563 b8bd
000000a0: a96a 7fbd 96f4 e83d 1b37 f2bd 9ed9 d0bc
000000b0: df84 47bd 7fc4 093d 4b68 c23d 2129 2e3e
000000c0: cc94 4fbd 2380 173e 6d86 56bd f63b 2b3e
000000d0: 9aad 25be 2b10 093e 7ac3 f53d f858 97bd
000000e0: 0706 133e 29c6 9fbd c2bb cd3d eee7 0f3d
000000f0: 9c51 8abd 2e96 f1bd f3aa a33c e4cd bb3d
00000100: 24be 30be eb62 afbd b7c7 f8bd f092 853d
00000110: bc24 c0bc 1ed4 7dbd ed19 0c3e 8ecc 103d
00000120: 3828 fa3d c27c 09be aa6e fe3d 7eba 4bbd
00000130: f124 673c e4df 57bd f88d 23be 9f07 02be
00000140: 17c5 c23d 5ed7 de3b d19a 31be 8daf 76bd
00000150: c219 dabd 357f 783d 8db7 043e 77bb c23d
00000160: 1cf5 2fbe 4656 343d 6ed2 923c f5f6 d03d
00000170: 4623 01bd 7452 073e 19e4 33bd fe9f 013c
00000180: 066d ec3d 576b 7e3c 3a11 19be d61c 20bd
00000190: 0755 c8bd 66c6 bcbc 4a13 8bbd ecfb ba3d
000001a0: 186c 2c3e 9dbf dd3d 96e0 053e c39a 23bd
000001b0: ae5e 10be cd31 84bc fdb5 cbbc 8631 e03d
000001c0: 1f06 0e3e bac3 1a3e 7948 9dbd fd3a 85bd
000001d0: ae97 813d 67f8 4fbc caa7 ae3d f7f1 1ebe
000001e0: 99d4 ed3d 85cd 883d e58b 65bc a022 9c3b
000001f0: a113 a93d b457 24be 3661 163d a1ec d83b
00000200: bc18 003d 943e d8bd 9b13 233e 8a8b 0b3e
00000210: 3d18 4a3d bfc4 27be d888 8cbd feda 25bd
00000220: 55d9 92bd 8fd5 1c3e 559c 193e 88ba 113e
00000230: 92af cf3d 5a99 963d e078 e33d f48c c0bd
00000240: ab90 d6bc 57c1 b63d 04d0 c23c 2cf6 d23d
00000250: b137 8c3d 8131 cebd 4132 0ebe eea1 a7bd
00000260: c515 e33d b0bf babd 892e 46bd 58c3 e4bd
00000270: 0c72 b43c 6397 d23d 2654 1fbd 485d adbd
00000280: fb22 ce3d 7936 5fbd a378 593b 6cba d3bd
00000290: a14e 553d 7424 f5bd 2275 213e e22e 2cbc
000002a0: cf07 243d a151 10be 6280 bf3c 7525 223e
000002b0: fc77 17be 0c59 f83d 7e6c b0bd 63e1 b2bd
000002c0: fb8b 273d b721 333e 6119 01be 1b7b 593d
000002d0: 4ac2 263e 4238 51bc ecb3 e9bd ef51 98bd
000002e0: 99f3 283c 6451 7ebd af01 b7bd 88ae 16be
000002f0: 1cb8 253e 600d 24be 6d5c 1a3e 181a 143d
00000300: 1327 f3bd 81f9 783d 588a ae3d 3328 0c3e
00000310: 1522 48bd 8896 a73d 40fd b4bd aae8 f3bc
00000320: 81de 14be 9e3b d73a a331 34be 925f 1abe
00000330: 3f74 09be 49f5 0abe b891 f03d eb68 50bc
00000340: 6da4 4abd d711 29be 2404 313e 97cb f6bd
00000350: 1e49 0b3b 0216 883d df1e 22be 42bc cb3b
00000360: 0c87 983c 901e ba3d b62f 873d b84d 093e
00000370: ef16 1abe 6227 51bd 1adf 6a3d 9026 01be
00000380: dd49 a2bd bf3a 183e e612 9f3c fe03 b63c
00000390: 8311 593d 634d 06be ea21 2ebe a1dd 033e
000003a0: 1558 0a3e 54f8 e53d c06f 243e 6c5e ef3d
000003b0: 28b6 97bd 6540 f7bd 0620 113d f119 053e
000003c0: 3816 143e 2d58 b53d a34d e03c 8ae2 cd3d
000003d0: e3e2 4cbd 3d67 ce3d 7021 ee3c 13b1 de3c
000003e0: d825 debd d6fe 07be ccb1 333e fef5 003e
000003f0: 49d4 873d 87f1 b0bc a2bd 20be af0c 293e

conv_col_to_row.feature_module_final.2.bias f4 [32]
0.045863844 -0.09971832 -0.029768381 -0.01912215 -0.16430347 -0.15491779 0.14399287 0.045360155
0.16328026 -0.011140812 -0.06551662 0.16151153 0.14158534 0.16550952 0.16812526 0.051943477
-0.1057378 -0.15375906 -0.063313186 0.032917116 0.10553905 -0.03905887 0.11493209 0.05696968
-0.11563014 0.06315719 -0.00022521957 0.0036917794 0.09541281 -0.061132193 0.1593213 -0.08963671
00000000: badb 3b3d 1e39 ccbd d2dc f3bc 0ea6 9cbc
00000010: 2b3f 28be c5a2 1ebe de72 133e 92cb 393d
00000020: f132 273e f487 36bc 942d 86bd 4763 253e
00000030: bffb 103e 547b 293e 0729 2c3e afc2 543d
00000040: 0f8d d8bd 0473 1dbe 58aa 81bd 19d4 063d
00000050: dc24 d83d 32fc 1fbd 8461 eb3d 0a59 693d
00000060: 7fcf ecbd 8f58 813d eb28 6cb9 c8f1 713b
00000070: cb67 c33d c065 7abd 1f25 233e 7493 b7bd
