GNN/ResultsGCNN/actor_96.pt (torch, 83520 bytes, 43 tensors)

row_embedding.0.weight f4 [7]
000000 8c dd 80 3f 0f 6d 80 3f ad d7 7f 3f a7 1f 80 3f
       1.0067611 1.0033282 0.9993847 1.000966
000010 53 68 7f 3f 83 b5 80 3f 09 09 80 3f
       0.9976856 1.0055393 1.0002757

row_embedding.0.bias f4 [7]
000000 c0 c7 5a bb 9b 62 a1 ba b4 b9 92 ba 33 60 e3 ba
       -0.003338322 -0.0012312712 -0.001119426 -0.0017347395
000010 09 c7 1d 3b 25 9d 99 bb 05 13 56 3a
       0.0024074933 -0.0046879225 0.0008166286

row_embedding.1.weight f4 [32, 7]
000000 89 d0 4a 3d bb 33 3c 3d 88 01 0d 3e 1e 0c b6 be
       0.04951528 0.04594777 0.13770115 -0.3555612
000010 d1 b6 39 be 5d 43 78 3e 07 29 ab bd 21 7e 89 be
       -0.18136145 0.24244447 -0.08357435 -0.2685404
000020 8f 4e 87 bd dd b8 27 bd 02 56 db bd 9e d6 46 3e
       -0.06606781 -0.040947784 -0.10709764 0.19417807
000030 78 ad 5d 3a f2 f2 a8 bd 55 05 01 be 23 ca 95 be
       0.000845633 -0.08249463 -0.1259969 -0.2925578
000040 4f de 90 be 25 ad 85 3e 49 57 a2 3e e3 a2 a0 3c
       -0.28294608 0.2610866 0.31707218 0.01960892
000050 ea d9 4e be 85 25 54 be 0b 77 0c 3e f1 b8 a2 3e
       -0.20200315 -0.20717438 0.13717286 0.31781724
000060 ff 1d b7 be da f4 d9 3c 18 62 9e 3b 45 6b 44 3e
       -0.35765073 0.026606012 0.004833471 0.19181545
000070 a6 d4 0e be a2 d6 05 bd f2 51 9d be c6 3b 56 3e
       -0.13948306 -0.032675393 -0.30726582 0.2092124
000080 da a9 4f be 2c a6 4e be 99 91 48 be f0 8d db bd
       -0.20279637 -0.20180577 -0.19586791 -0.10720432
000090 24 31 6d 3d ff 17 0b bc 4b f4 b7 be 9f 31 be 3d
       0.057908192 -0.008489608 -0.35928568 0.09286808
0000a0 9e c2 55 be a5 e5 9f 3e 1f 60 8a be 2a e2 ab be
       -0.20875022 0.31229892 -0.2702646 -0.33570987
0000b0 46 f7 8b 3e 21 d2 66 be 15 a0 a0 be d9 4a 6c bd
       0.27337092 -0.22541095 -0.31372133 -0.057688568
0000c0 cd 72 85 3c 93 27 78 be 38 a7 88 3e bd 03 6a 3e
       0.016290093 -0.24233846 0.26690078 0.22852989
0000d0 99 17 86 3e e0 4b 5a 3e c3 63 08 3d 55 14 12 3d
       0.2618988 0.21318007 0.033298265 0.03566392
0000e0 6e 5c 0d be 95 a3 93 bd 42 d3 e5 3c b9 f1 1b 3c
       -0.1380479 -0.07208935 0.028054837 0.00951808
0000f0 be f4 10 be 48 4e 58 be a5 79 8a 3e 4a 6c 4d 3d
       -0.14155862 -0.21123612 0.27045932 0.0501521
000100 ee 7a af be 86 ab 44 be ac 7d b9 3e 08 0f 42 be
       -0.34273475 -0.19206056 0.36228693 -0.18951046
000110 f2 e8 83 3e 4d 6b b2 be 4f 6a 8b be 65 f2 ac 3e
       0.2576366 -0.3484749 -0.27229545 0.33778682
000120 c0 c8 c2 bd 10 08 c0 bb c4 27 20 bd bf 89 80 be
       -0.09510946 -0.005860336 -0.039100423 -0.25105092
000130 d8 b5 81 3e 3f ca 39 be 34 84 44 3c 7a bd b6 be
       0.25334048 -0.18143557 0.01199441 -0.35691434
000140 9f 23 9b bd 30 3e 82 bc a0 f6 83 3e c5 c5 0b 3e
       -0.075751536 -0.015898794 0.25774097 0.13649662
000150 1b 64 94 3e c4 93 90 bd 7a c6 9d be c8 29 da bd
       0.28982624 -0.07059434 -0.30815488 -0.106525004
000160 33 8d 90 bd 9b f5 a2 3e 15 88 68 be 2e b5 81 3e
       -0.070581816 0.31828007 -0.22708161 0.25333542
000170 ac d6 5b 3e 17 a6 5e be 5d a5 7d be 1a f8 1f be
       0.2146861 -0.21743046 -0.24770112 -0.15621987
000180 c8 c0 19 be 7c 48 8b be f4 bc bb be 9d 65 b0 3d
       -0.15014946 -0.2720374 -0.36667597 0.08613131
000190 7c 95 cd 3d 16 ee 8e be 5c 53 8c 3e 1f db 11 be
       0.100382775 -0.2791602 0.27407348 -0.14243744
0001a0 d1 e1 ee bd 76 77 95 3d 9d 8e 95 3e 38 73 a4 be
       -0.11664165 0.07298176 0.29210368 -0.32119155
0001b0 c2 0b a3 bd c0 ba e1 3d 07 78 a2 be c4 a6 97 3e
       -0.07961227 0.11021948 -0.317322 0.2961942
0001c0 86 37 13 3e 8d 55 a6 3e e9 96 f7 bc 0b d6 34 3e
       0.1437665 0.32487145 -0.030223327 0.17659776
0001d0 0f 81 80 be 74 10 b5 3e ef e5 c2 3d 4a 01 4a 3e
       -0.25098464 0.35364115 0.095165126 0.19727054
0001e0 33 3b 5c be ae ed 86 be 60 dd a4 be 5d 10 b0 be
       -0.21506958 -0.2635321 -0.32200146 -0.34387484
0001f0 9b d4 a6 3b b9 32 c9 bc 30 30 b3 be 05 84 b1 3e
       0.0050912625 -0.02456032 -0.34997702 0.34671035
000200 ce 27 2e be 32 10 9c be 0c 43 2a be 1b 75 a0 3e
       -0.17007372 -0.30481106 -0.16627139 0.31339344
000210 dc 08 a6 3d 59 77 4c be 96 88 2e be 3b e0 7b be
       0.081071585 -0.19967403 -0.17044291 -0.24597256
000220 f2 87 f6 3d 1f a7 7c 3e c8 f6 49 be f2 4f ba 3e
       0.12037648 0.24673127 -0.19723046 0.36389118
000230 8e 44 a7 3e 15 f7 fe 3d 26 37 26 bc 53 7b 8d 3e
       0.3266949 0.12449471 -0.010144984 0.2763315
000240 7f 60 d9 3d 46 3c aa be d2 c5 82 be 84 37 47 3e
       0.10614108 -0.3324911 -0.2554155 0.19454771
000250 25 15 e2 3c 8f 2d b4 3e 38 80 89 be 55 e7 90 be
       0.027597973 0.35191008 -0.26855636 -0.28301492
000260 71 62 d4 bd d5 4c 68 be fc 71 94 3e b5 31 09 3d
       -0.10370339 -0.22685559 0.28993213 0.03349467
000270 08 66 04 be b2 c4 5b bd 78 18 ef 3c 3e c7 8e be
       -0.12929547 -0.05365438 0.029186472 -0.27886385
000280 f0 f3 20 3d 28 ef 7c be b3 85 6e 3d 49 d1 09 3e
       0.039295137 -0.24700606 0.058232974 0.13458742
000290 f8 7c 6a be 20 d0 52 be 19 f8 08 bc 11 88 99 3e
       -0.22899234 -0.20587206 -0.008359932 0.29986623
0002a0 8c 9c 3e 3e 68 a1 bb bd 31 25 a9 3e f3 7d c9 3d
       0.18614405 -0.09161645 0.33036187 0.09838476
0002b0 77 68 bb 3e d4 bf 88 3e 24 83 85 be 15 ef b8 3c
       0.36603138 0.26708853 -0.26076615 0.02257494
0002c0 2e 2b 6d 3e f8 4c 9e 3d cc 11 f3 3d 64 70 9f 3e
       0.23161003 0.077295244 0.11868629 0.31140435
0002d0 65 ca 8e be 5c 6e fd 3d a0 e1 fa bd ac 59 20 be
       -0.2788879 0.12374565 -0.12250066 -0.15659207
0002e0 71 f0 ad 3e ca 30 8a 3e 68 07 7d 3e e7 70 15 3d
       0.33972505 0.26990348 0.24709857 0.036484625
0002f0 f2 67 96 be 80 bf ad 3e 5e 3a ce 3d 9e 3f 1f bd
       -0.2937618 0.33935165 0.100697264 -0.03887903
000300 02 22 93 be 3a b7 da bd a9 e5 a7 be f9 43 98 3e
       -0.28736883 -0.10679479 -0.32792404 0.2973936
000310 4c 2f a6 3e 0e 5c 94 3d de c3 a1 3e db 0c 76 be
       0.3245796 0.072441205 0.31594747 -0.24028341
000320 e5 ad 5a be a3 f3 37 3e 81 d5 be 3e c8 64 76 be
       -0.21355398 0.17964034 0.37272266 -0.24061882
000330 26 6d 9d be 49 5c 04 3e f0 27 eb 3d 40 f9 87 3e
       -0.30747336 0.12925829 0.11482227 0.2655735
000340 7a 73 66 3d 34 e7 c1 be 2e e2 18 3e 45 a1 3d be
       0.05626247 -0.37871706 0.1493003 -0.1851855
000350 ec 44 48 3e 22 74 8f be 07 bc 95 be e4 9f 0a 3d
       0.19557542 -0.2801829 -0.29245016 0.03384389
000360 4a 14 7f bd 74 12 b3 be ce e3 3e be 62 75 9e be
       -0.06227521 -0.34975016 -0.18641588 -0.3094893
000370 e0 f7 da 3d cc 80 cd 3d a8 2c f2 bd 1f 76 a1 be
       0.1069181 0.10034332 -0.11824924 -0.31535432

row_embedding.1.bias f4 [32]
000000 fc 59 53 bd c1 7b 83 3e 17 bf e1 3d 80 ba bc be
       -0.051599488 0.25680354 0.110227756 -0.36861038
000010 3a e8 a5 3d 4c 05 ef bd ee b2 9e 3c 92 d2 db bd
       0.08100934 -0.11670932 0.01937243 -0.107335225
000020 0a 55 1e 3e 8c 68 56 be c3 f7 b2 be ea 1c d0 bc
       0.15462127 -0.20938319 -0.34954652 -0.025404412
000030 57 f1 a1 3e ca 44 1b 3e 35 71 b1 3e 34 ce db 3d
       0.3162944 0.1516296 0.34656683 0.107326895
000040 0d ca 24 be 23 e3 77 3c ea 53 f3 bd 96 f9 9f 3e
       -0.16092701 0.015129837 -0.1188124 0.31245106
000050 ac 83 8f 3e cb 5f e7 bc 82 63 5c 3e ac f0 d0 bd
       0.28030145 -0.02824392 0.21522334 -0.102021545
000060 66 8e a4 3e 6e c7 54 3e 73 c8 16 be 1c 2a 00 3e
       0.3213989 0.20779201 -0.14724903 0.12516063
000070 f8 1f 97 be 1b d9 47 be f3 18 b4 3c 6d 67 5d be
       -0.29516578 -0.19516413 0.021984553 -0.21621485

row_embedding.3.weight f4 [32, 32]
000000 29 4b fe bd 44 4d 21 bd 21 e2 92 3d b6 32 3e 3c
       -0.124166794 -0.039380327 0.07172037 0.01160877
000010 4c 3f cf 3d 38 62 9e 3b 5d cb 27 3e 92 37 15 3e
       0.10119495 0.004833486 0.1638617 0.1457198
000020 29 69 d1 3d 68 64 15 be 82 be 15 3d c5 fc 02 3d
       0.10225136 -0.14589083 0.036558636 0.03197934
000030 95 89 ce 3d 6e c3 26 bb ca 9a 0c 3e 6e af 20 3e
       0.100848354 -0.0025446075 0.13730922 0.15691921
000040 8d c2 1c 3e ba 8d 1e 3d 43 2e f5 bd 5a 17 db 3d
       0.1530859 0.03870938 -0.11971714 0.10697813
000050 e3 e1 18 3d 8c 50 5a 3d 3f f3 32 3d 89 4c eb 3d
       0.037324797 0.05329947 0.04368901 0.11489207
000060 ce c6 26 be 08 4a d9 3d 22 79 03 3e eb c6 19 3e
       -0.16286775 0.106098235 0.12839177 0.15017287
000070 f0 a4 91 3c 5d 6a 1c be 2e 5b 16 3e 51 8c e8 bc
       0.017778844 -0.1527495 0.1468322 -0.02838722
000080 77 b1 0a 3d ee 13 ec 3c 36 d9 36 be f8 c3 00 3c
       0.03386065 0.028818097 -0.17856297 0.007859223
000090 83 46 8f bc ab e4 58 bd ee 35 a0 3d 3d 72 31 3d
       -0.017489677 -0.05295245 0.07822786 0.043321837
0000a0 02 4b bf bd 7b 7f 22 bd 14 27 dc bd 57 e2 24 be
       -0.093404785 -0.039672356 -0.10749641 -0.16101967
0000b0 1b 39 b0 3d b6 03 c8 3d 3f 87 20 3e 34 3f 2b be
       0.08604642 0.09766333 0.15676592 -0.16723329
0000c0 47 b3 41 bd 62 d1 05 3e 38 12 94 3d c6 39 0b be
       -0.047290113 0.13068154 0.072300375 -0.13596258
0000d0 5d 29 00 3e 22 87 f9 3d e3 40 03 3e 2e da f9 3d
       0.12515779 0.12183978 0.12817721 0.121998176
0000e0 bd 79 0f 3e 79 a8 93 bd 04 92 0f 3e 05 bc db 3d
       0.14011283 -0.07209868 0.14020544 0.10729221
0000f0 2c 6c 09 be 2e 68 70 3d ac 05 0c be f1 7d bf bd
       -0.1342017 0.058693103 -0.13674039 -0.09350193
000100 96 82 67 3c 37 81 26 3e 2d ed d9 bd 62 42 17 be
       0.014130255 0.16260229 -0.10640941 -0.14771417
000110 ea 73 2d 3e 45 dd ad bd 69 03 28 be 33 ce 8f bd
       0.16938749 -0.084894694 -0.16407551 -0.07021751
000120 b3 a2 f2 3d 86 f3 00 3d 9b 62 25 3e cb 0e d2 3d
       0.11847439 0.031482242 0.16150896 0.10256728
000130 bd 08 24 3c 95 14 25 3e 4c b1 a5 bd db 94 ad 3d
       0.010011849 0.16121133 -0.08090457 0.084756576
000140 1c 3c 1a bd 84 09 a1 bc ea e5 34 3d 47 82 ff 3d
       -0.03765498 -0.019657858 0.044164576 0.1247602
000150 0b 68 1a 3e 6c f8 4b 3d ce 60 6e bd c0 4c 2e 3e
       0.15078752 0.04979746 -0.05819779 0.17021465
000160 15 57 04 3d d8 be 67 3d 80 34 63 3d 30 ec 2a be
       0.03230961 0.056578487 0.05546999 -0.16691661
000170 f8 8f 28 3e a6 40 28 3e d6 7b 03 3e 2c 5f 1d 3e
       0.1646117 0.16430911 0.12840208 0.15368336
000180 34 21 a4 bd 41 39 1e bd 83 d1 1e be 2b 2e 66 3d
       -0.080141455 -0.03862882 -0.1550961 0.056196373
000190 0b 9a 3e 3d 10 49 70 3d ad 07 2d 3e c0 46 c8 bc
       0.046533626 0.058663428 0.1689746 -0.024447799
0001a0 cb 81 b3 3d 93 31 ec 3d d9 23 df bd fd 00 04 bd
       0.087649904 0.11532893 -0.10895509 -0.032227505
0001b0 df b7 01 3e f5 f6 d4 bd af 35 79 3d 85 05 b4 3d
       0.12667798 -0.10398666 0.060842212 0.08790115
0001c0 44 34 a2 bc 5e 2f 2c 3e 4a f8 8d bd 5f 04 92 3d
       -0.019800313 0.16814944 -0.06932123 0.0712974
0001d0 8a 45 26 bd 60 a3 22 be 06 d2 93 3d 03 9a 8b bd
       -0.04059366 -0.15882635 0.07217793 -0.06816485
0001e0 56 e0 76 bb c1 ee 1c 3e 20 07 a4 bd 2f fd 87 bd
       -0.0037670336 0.15325452 -0.080091715 -0.06640088
0001f0 d3 45 34 be 14 ac 02 be ed ab f1 bd 96 5a 34 3d
       -0.17604761 -0.12760955 -0.1180037 0.044031702
000200 37 c1 b4 3d 44 93 f0 bc a6 43 ea bd a4 d3 fa 3b
       0.08825915 -0.029367097 -0.11438684 0.007654624
000210 b8 53 ac 3d dd 59 88 bd fd 61 e6 bd b0 e2 bc 3d
       0.084144056 -0.06657765 -0.112491585 0.09222925
000220 7f 1c 31 be 8a f9 94 3d 2b 68 0d 3e 59 60 31 be
       -0.17296027 0.07274158 0.13809268 -0.1732191
000230 9f bd 49 bd 2b c5 36 bd a0 df 16 3c 2a 25 3e be
       -0.049253102 -0.044621628 0.00920859 -0.18568864
000240 37 61 e2 bd 69 cc d2 bd 75 45 89 3d b5 5d 7e 3d
       -0.110536985 -0.102928944 0.06702701 0.062101085
000250 d4 0d 10 be 25 e9 30 3d 96 f7 81 3a e4 81 80 3d
       -0.14067775 0.043191094 0.0009915705 0.06274775
000260 73 65 8d bd 09 c3 ed 3d d0 ea a6 bd 30 5a 0e be
       -0.069041155 0.11609466 -0.08150256 -0.13901591
000270 01 1f d1 3d a2 46 32 be 3f fc ee 3d 54 4c 4d bd
       0.10210992 -0.17409757 0.11669206 -0.05012162
000280 0a b8 b2 bd 67 40 23 be 90 c6 07 bd 7d da 7a 3d
       -0.08726509 -0.15942536 -0.03314835 0.061243523
000290 13 62 66 bd 5d 18 27 3e 9b cf bd 3d 50 0f 78 3d
       -0.056245875 0.16317888 0.09268113 0.06056148
0002a0 38 bb 28 be 71 ed 7b 3b 7d be 01 be 09 25 3d 3d
       -0.16477668 0.0038441087 -0.12670322 0.046177898
0002b0 ba 1f 21 bd 12 1a e0 3d 47 fc 21 bb d5 8a 27 be
       -0.039336897 0.109424725 -0.002471702 -0.16361554
0002c0 b1 bd c6 bd 67 d4 33 be a8 0f 37 bd 9b 2a ae 3d
       -0.097041495 -0.17561494 -0.044692665 0.0850422
0002d0 15 f3 13 be 6f aa f0 3d 8b 8c 32 be 66 45 58 bc
       -0.14448197 0.11751258 -0.17436425 -0.01320014
0002e0 01 ef 1b 3a bd 4f b5 bd 12 70 1c be 49 3b c6 bd
       0.0005948395 -0.088530995 -0.15277126 -0.096792765
0002f0 ba 17 13 be f9 37 a4 bc dc e4 db 3c 85 d0 27 be
       -0.1436452 -0.020046221 0.026842527 -0.16388138
000300 72 b0 a3 3d d9 63 03 3e 5f 27 f9 3d c2 0d 37 bd
       0.07992639 0.12831058 0.121657126 -0.044690855
000310 42 db 0f 3e 81 db 79 3d 23 08 02 be 43 fd ae bd
       0.14048484 0.06100035 -0.12698416 -0.085443996
000320 c4 ef 1a be d4 41 a6 3d d4 4f 06 3e c5 94 8f 3d
       -0.15130526 0.081180245 0.1311639 0.070107974
000330 88 21 fa bc d4 02 17 be 9c 83 2e be a7 a2 bf 3c
       -0.030533567 -0.14747173 -0.17042392 0.023392988
000340 93 97 d6 bc 75 78 0e 3e 06 87 98 bd c3 d6 0f 3e
       -0.026195323 0.13913138 -0.07447629 0.14046769
000350 14 a9 b6 3d ab bb d9 3d 85 22 24 3d df e9 0a 3e
       0.08918968 0.10631498 0.040071983 0.13565777
000360 70 61 c1 bd 01 32 46 bd 8d 00 b8 bd b0 03 61 3c
       -0.09442413 -0.04838753 -0.0898448 0.013733789
000370 89 32 29 3e ca df 45 bd 42 5e 25 bd 6d ca da 3d
       0.16523184 -0.048309125 -0.040373094 0.10683141
000380 d4 d9 5e bd 7f fd 2d bd 7c 9b ed bd 1e 59 03 be
       -0.054406956 -0.04247808 -0.11601922 -0.12826964
000390 ad f8 1a 3d f4 be 0d 3e 8b 26 0f 3e ef 67 ca bd
       0.037834812 0.13842374 0.13979547 -0.09883105
0003a0 73 55 b5 3d 9e fa d7 bd fa 02 32 be 70 db 0e bb
       0.08854189 -0.10545848 -0.17383948 -0.0021798275
0003b0 08 7e 1d 3e 74 1f 94 bc 74 f3 15 be 24 75 73 bd
       0.15380108 -0.018081404 -0.14643651 -0.059437886
0003c0 ab b6 8e 3d bf 49 09 3e 40 08 33 be d6 7f 37 3d
       0.06968435 0.13407038 -0.17483616 0.04479965
0003d0 b2 8b 80 3d 5a 76 31 3d 0a ff 30 be e6 a5 7c bd
       0.06276645 0.04332576 -0.1728479 -0.06168165
0003e0 eb d5 bc bc 5b e6 c6 bd 8c 55 fb bd 0b e4 03 3d
       -0.023051223 -0.097119056 -0.12272176 0.0321999
0003f0 34 91 84 bc ce 55 ac ba 24 46 fb bd 27 90 12 3e
       -0.01618252 -0.001314813 -0.12269238 0.14312802

row_embedding.3.bias f4 [32]
000000 60 13 de 3d be 33 58 bd 98 fd 78 bd 9d 40 30 bd
       0.10843539 -0.05278372 -0.06078872 -0.04303037
000010 d6 3b 4c 3c 03 ea 04 be a8 64 d7 3d 5d af 11 3e
       0.012465438 -0.12979893 0.105172455 0.14227052
000020 3c 72 80 bd cd de d1 3d c1 c7 07 3e fc 5c ca 3d
       -0.062717885 0.10247574 0.13259794 0.098810166
000030 1e aa 9e bc c4 af 33 3d 35 82 d6 3d 2a 32 d8 3d
       -0.019368228 0.043868795 0.10474054 0.10556443
000040 47 9b c5 3d 7f 09 96 bd c2 d3 46 3d a4 d3 c3 3d
       0.096487574 -0.0732603 0.04854179 0.095618516
000050 8f 76 03 bc 98 01 06 3d ac 0f 5f 3d 2e 72 85 3d
       -0.008023872 0.032716364 0.054458305 0.06515919
000060 9c 46 db 3d c3 67 2c 3d 90 ec 28 3e 02 05 66 bd
       0.10706827 0.042091142 0.16496491 -0.05615712
000070 88 b3 e9 3b 79 b3 0d bc fd ee 17 be da 7d f5 3d
       0.0071319975 -0.008648747 -0.1483726 0.11986895

col_embedding.0.weight f4 [7]
000000 36 82 7f 3f 93 03 80 3f 2b e3 7f 3f d6 05 80 3f
       0.9980806 1.0001091 0.99956006 1.0001781
000010 e5 89 7f 3f 2c ca 7f 3f a0 12 80 3f
       0.99819785 0.99917865 1.0005684

col_embedding.0.bias f4 [7]
000000 c5 41 14 bb 8b d7 06 b9 d2 0f aa b9 7a cd 97 b9
       -0.002262221 -0.00012859532 -0.00032436714 -0.00028954056
000010 29 71 7b 3a ba 12 7d 3a 29 b4 44 3a
       0.00095917523 0.00096539746 0.00075036526

col_embedding.1.weight f4 [32, 7]
000000 03 5d b4 3e a2 f8 c1 3b 9f 20 02 3a 6a f2 31 be
       0.35227212 0.005919532 0.00049639674 -0.1737763
000010 11 25 8d 3e d6 fc b9 be af 4a cd bd 36 0b ee bd
       0.27567342 -0.3632571 -0.100240104 -0.11623232
000020 9e 74 84 be 4c 10 28 be ff 3a 3e 3e 33 88 5a be
       -0.25870222 -0.16412467 0.18577193 -0.21341018
000030 06 aa a7 3b 9f f8 71 be d5 10 4a be a8 aa 53 3c
       0.005116704 -0.23629998 -0.19732983 0.012919106
000040 c9 c1 8a 3e e8 4d 35 be 42 39 fb 3c bc 4f b8 3d
       0.2710097 -0.177055 0.030666951 0.08999583
000050 55 8c 57 3e 67 16 91 3e 45 d8 90 3e dc db d2 bd
       0.21049626 0.28337404 0.2829 -0.10295841
000060 76 9b 79 3d a1 a6 9d be fa 48 8f bc b3 d0 35 3e
       0.060939275 -0.3079119 -0.017490853 0.17755394
000070 36 29 17 3e 66 cd a4 3e ef f0 96 3e 89 78 36 be
       0.14761814 0.32187957 0.29480693 -0.17819418
000080 2e c5 86 bd 24 4b 80 be ba 7f ba be d5 35 c1 be
       -0.06580578 -0.25057328 -0.36425573 -0.37736383
000090 62 df 18 3d aa 35 91 bd 18 18 77 3e 86 d9 6a be
       0.03732241 -0.07090314 0.24130285 -0.22934541
0000a0 84 3e 2c 3e ac 18 f8 bd dd a6 08 bd 62 04 ba 3e
       0.16820723 -0.12114081 -0.03336226 0.3633147
0000b0 3b ee be 3e be 78 51 3e e1 1f 6c 3e 1d 6e 15 3d
       0.3729113 0.20456216 0.23059036 0.036481965
0000c0 f7 27 30 3e 98 b9 9e 3d d0 b0 fc bd 82 ab 3d 3e
       0.17202745 0.07750243 -0.12338412 0.18522456
0000d0 a7 db b5 be 9c b4 8f 3d 9e 49 94 3d 3f 01 06 3e
       -0.35519144 0.070168704 0.07240604 0.13086413
0000e0 0d 76 e1 bd 14 ed 38 be 67 c0 be bd a4 81 5b bc
       -0.110088445 -0.18059188 -0.093140416 -0.013397608
0000f0 24 43 65 be 58 36 1e be 4c 0c 37 3e 8b 92 9a 3d
       -0.22388893 -0.15450418 0.17875785 0.07547482
000100 1a 80 a6 be b4 25 5c bd 2c da c9 bc 77 0a 27 3e
       -0.3251961 -0.053746894 -0.024640165 0.16312586
000110 0c 41 9a 3e c1 3c c1 be 72 89 ba 3e 8b 3d 97 3c
       0.30127752 -0.37741664 0.36432987 0.018461963
000120 62 85 b9 3e 0d 13 03 be 30 f5 91 be 44 a1 73 be
       0.36234576 -0.12800236 -0.28507376 -0.23791987
000130 87 f9 6f be 7c 0b b7 3e 8f c5 07 3e 65 c6 88 be
       -0.23435031 0.3575095 0.13258956 -0.26713863
000140 aa cd 85 bd a1 cf 31 be 3b c2 6c be 6d cc 62 3e
       -0.06533368 -0.1736436 -0.23120968 0.22148295
000150 f9 36 96 3e 86 24 99 be ca 22 c5 3c 8a 78 7d 3e
       0.29338816 -0.29910678 0.02406444 0.24753013
000160 17 37 26 3e 52 8b 95 bd 12 8f 69 be 4d dd a5 be
       0.16231953 -0.07301964 -0.22808483 -0.32395402
000170 90 13 56 be d6 0b 6e 3c e3 20 09 bd 8e 9a 4b 3e
       -0.209059 0.014529189 -0.03347863 0.19883177
000180 e9 d0 29 3e a5 32 1c bc de 4d 75 bc 25 4a 3f 3e
       0.16583599 -0.009533559 -0.014972178 0.18680628
000190 c4 92 3e be 3d 73 5d 3e fd e1 a2 3e 56 89 63 3e
       -0.18610674 0.21625991 0.3181304 0.22220358
0001a0 97 7e ae 3d 48 63 3e 3d 79 be dc bc 8b 5d 4a 3e
       0.08520239 0.0464814 -0.026946293 0.19762246
0001b0 4e 46 84 3e d7 4e d5 bc bc cb 02 3e 12 f8 90 be
       0.25834888 -0.02603857 0.12773031 -0.28314263
0001c0 fc 9e 41 3e 39 dc 8b 3e 51 5b 9e b9 21 f1 1d be
       0.18908304 0.27316454 -0.00030204144 -0.15424015
0001d0 5b 95 c0 bd ba 77 fc bd 04 87 af be d8 c4 a7 3e
       -0.09403487 -0.123275235 -0.34282696 0.32767367
0001e0 33 7d 51 bc 6b e5 a3 be b8 92 83 3e 60 c5 a2 3e
       -0.0127861975 -0.3201097 0.25697875 0.3179121
0001f0 0b 92 9f 3e 6e 34 6c be 25 92 83 be fa 29 9e 3d
       0.3116611 -0.23066875 -0.25697437 0.0772285
000200 86 3f 8f 3d 22 31 62 be 8d d1 89 3d e8 77 81 3e
       0.06994538 -0.22089055 0.06729422 0.25286794
000210 d3 a8 8d be 41 ab be 3e 7f cc b2 be d1 e1 ad bd
       -0.27667865 0.3724003 -0.34921643 -0.08490337
000220 40 97 64 bd 7a b9 b2 3d 92 f7 3e bc aa c2 80 3e
       -0.055808306 0.08726783 -0.011655705 0.25148517
000230 3b 55 8a 3d 17 73 23 be fb 14 be be 97 17 95 be
       0.06754538 -0.15961872 -0.37125382 -0.2911956
000240 4b 67 53 3e 30 4a 22 3e 4d d6 50 3e 6b 08 30 bd
       0.20644872 0.15848613 0.2039425 -0.042976778
000250 39 d0 dd 3d 46 81 a4 be 72 05 32 3c 25 cc 1f be
       0.10830731 -0.32129878 0.010865556 -0.15605219
000260 3e 81 81 be b1 61 b8 bd 1f 9f 66 3e d0 64 6c 3e
       -0.25293916 -0.09003008 0.22521637 0.23085332
000270 53 fd 69 3d 6c 61 82 bd ae ab 31 be 0f 1e 72 bc
       0.057126354 -0.06366238 -0.17350647 -0.014777674
000280 de bf 3e bd 35 94 66 3e e3 89 eb 3d 49 91 92 be
       -0.046569698 0.22517474 0.11500909 -0.2862647
000290 f4 e6 a3 be eb fa ff 3d 32 89 e9 3c 64 f1 0c 3e
       -0.3201214 0.12499031 0.028507803 0.13763958
0002a0 2d 62 2c be 4a 02 25 3e d5 e4 9c be e3 63 b0 3d
       -0.16834326 0.16114154 -0.30643335 0.08612802
0002b0 23 59 83 be e1 94 98 be a3 b9 a1 bd d5 27 8b 3e
       -0.25653943 -0.29801086 -0.078967355 0.27178827
0002c0 48 71 84 be 6d 7d 88 be 8f 23 3f 3e 39 85 b4 be
       -0.25867677 -0.26658192 0.18665908 -0.3525789
0002d0 30 b7 03 bc be 17 87 be cf 4a 89 3e cb 96 63 bd
       -0.008039281 -0.263853 0.26814887 -0.05556373
0002e0 66 ae c8 bd 3e 16 69 be 3a 40 cc 3c 51 51 14 3e
       -0.09798889 -0.22762391 0.02493297 0.14484145
0002f0 16 a6 cb 3d 45 62 49 3e 05 13 be 3e 2a 04 3d 3e
       0.09943788 0.19666393 0.37123886 0.1845862
000300 88 2b a0 3e 50 d4 9d 3d da 21 6e be 5e 01 97 be
       0.31283212 0.07706511 -0.23255101 -0.2949323
000310 e8 82 b7 3e 4e f3 0b be 71 36 a7 3e d0 71 55 3d
       0.3584206 -0.13667032 0.32658723 0.052110493
000320 dc 59 06 be c1 ff 63 be 53 33 b2 be 47 f7 8d 3c
       -0.13120216 -0.22265531 -0.34804782 0.017329825
000330 86 88 cd 3d a3 f6 b6 bb 0e d2 9b be ed 0e 90 3e
       0.100358054 -0.0055836006 -0.30433697 0.28136387
000340 4a 7f 87 3e 48 2c b7 3e 73 7b b2 3e 75 b5 d2 bd
       0.264643 0.3577597 0.3485981 -0.102885164
000350 57 21 44 be 86 90 36 3e e2 63 2f 3c 7a 26 11 3e
       -0.19153343 0.17828569 0.010704966 0.14174834
000360 1e 20 5c bd ac 65 33 3e 2a 56 bb be 31 9f b0 3e
       -0.053741567 0.17519253 -0.36589175 0.34496453
000370 c3 7c 22 3e 62 79 b9 3e dc 0c a9 3b bd fd 74 3e
       0.15867905 0.3622542 0.0051590037 0.23924918

col_embedding.1.bias f4 [32]
000000 0f 26 88 be 87 88 30 be 0d dc 9e bd 9f 32 93 be
       -0.26591536 -0.17239581 -0.07756815 -0.28749558
000010 85 61 9a be 04 4a 8b 3e d6 ea 48 be 4c 7f 24 be
       -0.30152526 0.27204907 -0.19620833 -0.16064185
000020 42 ab 23 bd 29 92 15 bd 75 b0 c5 3d 8f 83 8a 3e
       -0.039958246 -0.036516342 0.09652797 0.27053496
000030 25 d5 6c 3d 52 b5 2e be 9c a9 ff 3d a1 ff c0 be
       0.057820458 -0.17061356 0.12483522 -0.3769503
000040 ce 8b b5 3e 14 f4 c5 3b 2c dc 53 be a1 9f 25 bd
       0.35458225 0.0060410593 -0.20689458 -0.040435437
000050 cf 0d d7 bc a7 34 a9 be a9 61 8e 3e ce a0 9c 3d
       -0.026251702 -0.33047983 0.27808884 0.076478586
000060 25 07 b5 be 33 ea 9b 3e bc b1 8f be 10 b4 a7 bd
       -0.35357013 0.30452117 -0.28065288 -0.08188641
000070 05 09 e8 3d 0f 7c b5 3e e7 3b 53 bd d2 cc ab 3e
       0.11329845 0.35446212 -0.0515708 0.33554703

col_embedding.3.weight f4 [32, 32]
000000 f6 27 0b 3e cf de 02 3e 0b a9 e1 bb a2 3d 10 be
       0.13589463 0.12780307 -0.0068866066 -0.14086011
000010 14 9c 9d 3d 7e 1a 02 bd 06 43 2b be b0 c8 0b 3e
       0.07695785 -0.031763546 -0.16724786 0.13650775
000020 62 8d 0d 3e 50 c0 18 3e a3 c7 c1 3d c8 8c e1 3d
       0.13823465 0.14917111 0.09461906 0.1101318
000030 d0 12 15 be f9 0b d7 bb 9f 60 6e 3d 3d aa 95 3d
       -0.14557958 -0.0065627065 0.058197614 0.07307861
000040 66 fb 62 bd 1e ac 17 bd b0 98 06 be b8 4a 21 be
       -0.055415533 -0.037029378 -0.13144183 -0.15751159
000050 75 4b e7 3b 8e 71 30 3e 0d 69 f4 bd 9b 12 28 3e
       0.0070585557 0.17230818 -0.11934099 0.16413347
000060 db 0f 23 be 33 07 f7 bd 9c be 0f be ee 7a 01 be
       -0.15924017 -0.1206192 -0.14037555 -0.1264455
000070 3c ee 14 3e 8e 41 41 3b f1 34 45 bd 37 db 2e 3e
       0.14544004 0.0029488537 -0.048146192 0.17075811
000080 03 b1 b1 3d 8f ed 0c be 0f 7d 1a 3e 54 3b b6 bd
       0.086763404 -0.13762496 0.15086769 -0.08898035
000090 8f 67 c1 3d 86 af 4a 3d 1e 4a 68 3d ed 20 4a bd
       0.0944358 0.0494838 0.05671131 -0.049347807
0000a0 a3 c4 25 3e 91 b0 9d bb 0a 39 d7 3d e7 2f f5 3d
       0.16188292 -0.004812308 0.10508926 0.11972027
0000b0 a3 f7 1d be 0f 48 f8 bc 8b 9e cf bd e1 a1 a0 bc
       -0.15426497 -0.030307798 -0.101376615 -0.01960844
0000c0 a2 25 19 be 9e cc 94 bc 47 93 ec bd 01 c2 8b bd
       -0.14955762 -0.018163975 -0.115515284 -0.06824113
0000d0 34 ea c4 3d 34 d7 70 bc cc 1e 27 3e 6d 88 73 3d
       0.09614983 -0.014699746 0.16320342 0.059456278
0000e0 3c a8 6a 3d c4 38 3a 3d df ff 34 be 89 4e 2d 3e
       0.057289347 0.045464292 -0.17675732 0.1692449
0000f0 68 b7 f1 bb 5c 27 30 be a5 2f d9 bb c5 27 b6 bd
       -0.0073766 -0.17202514 -0.006627994 -0.08894304
000100 06 f8 73 bd 3a dd 37 bd 99 66 ba bc 51 8b d8 bd
       -0.059562705 -0.044888712 -0.022754 -0.105734475
000110 88 b2 d2 bd cc 15 80 3d c3 87 20 3e 47 d0 33 3e
       -0.102879584 0.062541574 0.15676789 0.1755992
000120 a3 aa a3 bd ef 2a 22 be 91 b8 0e bd 67 f8 64 bc
       -0.07991531 -0.1583669 -0.034843985 -0.013975239
000130 6c 83 1e be 39 e3 06 be ef 17 39 bc 1d 9c 91 3d
       -0.15479821 -0.13172616 -0.01129721 0.07109854
000140 85 3c 9f 3a 74 b2 57 bd 6c ae c1 bc 3c 10 26 3e
       0.0012148774 -0.05266042 -0.023642741 0.1621713
000150 a9 38 99 3d 83 74 cb bd 66 90 d7 3d 84 cf f4 3d
       0.0748151 -0.09934332 0.10525589 0.11953643
000160 fe 4b c6 bd f1 28 0c bd 92 89 e0 3d e0 46 a9 3b
       -0.09682463 -0.034218732 0.109637395 0.0051659197
000170 b2 09 e9 3c 04 e5 1f bd 94 6b 2b bd e2 a7 ac 3d
       0.028447006 -0.039036766 -0.04185064 0.084304586
000180 c9 68 d9 3d 5e a2 35 bd 7f 2c b2 bc bd 20 d4 3c
       0.10615689 -0.0443443 -0.021749733 0.025894517
000190 d6 42 a1 3d 6c 76 2f be 8c b9 90 bd 83 f1 d6 3d
       0.07874076 -0.17135018 -0.0706664 0.104952835
0001a0 56 10 1f 3e 1b f5 2d be bf b5 27 3d f0 cb 41 bd
       0.15533575 -0.16988032 0.04094481 -0.04731363
0001b0 10 87 83 3d 99 73 15 bc 38 57 9a bd e3 bb 14 be
       0.064222455 -0.009121799 -0.07536167 -0.14524798
0001c0 ea eb 4f bd 4d fe 13 3d 0f 84 4d bd c7 9e ec 3b
       -0.050762095 0.036131192 -0.05017477 0.007221076
0001d0 f5 e6 78 3d 8e d6 eb 3d 20 4e f6 3d 92 4c 81 3d
       0.060767133 0.115155324 0.1202662 0.06313433
0001e0 3e 7c e7 3d da 11 1c be 91 d3 f3 3d 9e 9f c3 bc
       0.11302994 -0.15241185 0.119055875 -0.023879822
0001f0 ae 50 f6 3d 61 88 0b 3e 9c b9 0f 3e 58 9c 87 3d
       0.12027107 0.13626243 0.14035648 0.06621617
000200 0c fb d8 3d 75 bc 76 3d e7 13 02 3d d6 54 b6 bd
       0.105947584 0.06023832 0.03175726 -0.089029
000210 40 db 19 3c 03 fd 10 3e a1 6c 13 bd da aa e9 bc
       0.009390652 0.14159016 -0.03599227 -0.028523851
000220 7d ea 08 3e d4 de ca 3d 6f 98 a7 bd b5 86 24 be
       0.133707 0.09905782 -0.08183371 -0.16067012
000230 1b 2e 9a 3c 14 98 09 be a1 86 06 be 7f 10 13 3e
       0.018820813 -0.1343692 -0.13137294 0.14361762
000240 42 c1 d2 3d 2f 8b 28 be c7 e2 ba bd 82 d2 c6 3d
       0.10290767 -0.16459344 -0.091252856 0.0970812
000250 32 d7 05 be af 48 96 3d 13 e2 fc 3c a9 63 fa bd
       -0.13070372 0.07338082 0.03086952 -0.1222604
000260 d7 89 d7 3b b1 8b 71 3d 73 e7 2d 3e 57 4e d8 3d
       0.006577711 0.05897111 0.16982822 0.10561817
000270 11 43 d1 3c 95 bd 8d bd 1c da 23 be 10 fe bc 3c
       0.025544675 -0.069209255 -0.16001171 0.023070365
000280 c9 1c d8 3c d3 32 8d 3d fa b5 67 bd 61 d4 07 be
       0.026380913 0.068944596 -0.05657003 -0.1326461
000290 04 61 e5 3d 19 b4 bb 3d 54 32 5f bd b2 b6 07 3e
       0.11200145 0.0916521 -0.054491356 0.13253286
0002a0 f1 2b 1c 3e 14 ef d5 3d d1 a5 ba bd 36 da ed bd
       0.15251137 0.10445991 -0.09113658 -0.11613886
0002b0 d7 71 cc bd 5d 40 13 3e 5a 43 ec bd 67 de 4b 3d
       -0.09982651 0.14380021 -0.11536284 0.049772646
0002c0 a4 53 3e bd ba 9c d0 bd e8 aa 0d 3e e9 19 35 3d
       -0.046466485 -0.10186143 0.13834727 0.044214163
0002d0 f2 84 9a bd df c6 42 bd 36 38 00 3e ae 83 97 bc
       -0.075448886 -0.04755294 0.12521443 -0.018495407
0002e0 44 f7 4a 3d cb 4a 0d be e1 c6 8a bd 90 3c 43 bd
       0.049552217 -0.13798063 -0.067762144 -0.04766518
0002f0 9c db 15 3e 0e 73 21 be 89 57 b3 3d 4d 35 35 3c
       0.14634556 -0.15766546 0.087569304 0.011060071
000300 59 5b 3c 3d 0f 5d 7b bd 28 a3 ef 3d 35 47 84 ba
       0.045985553 -0.061368044 0.117010415 -0.0010092022
000310 a7 d5 e6 bd da 1a 81 bc 88 67 a2 3d eb 74 f8 3d
       -0.1127122 -0.015759874 0.07929903 0.12131675
000320 02 cd 31 3e 3f 65 24 3e 7a 91 eb bc 32 26 c3 bd
       0.1736336 0.16054247 -0.028755892 -0.095287696
000330 18 33 a5 3c 0d 01 23 be 0a 9b 01 3e d5 62 bc 3b
       0.020165965 -0.1591837 0.12656799 0.0057490864
000340 e2 44 30 3e 1e f2 95 bd f1 61 cc 3d 9a a2 1f 3e
       0.17213777 -0.07321571 0.09979618 0.15589371
000350 5b 6a e9 bc d6 9b cf 3d 40 66 ec bd 08 dd 21 3e
       -0.028493097 0.10137145 -0.1154294 0.15806973
000360 92 56 2e 3d 21 81 10 3e d9 93 b2 3c 07 07 69 bc
       0.04256303 0.14111759 0.021799015 -0.014222867
000370 14 ba 44 3d c4 37 f8 3d 69 83 eb 3d 7b 33 f8 bd
       0.04802902 0.121200114 0.11499674 -0.12119194
000380 58 04 f8 bd 9f 03 af 3d fe 1a 2c 3e dc f5 15 3e
       -0.121102035 0.085456125 0.16807172 0.14644569
000390 f1 9f d0 bd 1e ba ca 3c d5 5a 70 bc 88 9b 19 be
       -0.101867564 0.02474695 -0.014670094 -0.15000737
0003a0 68 0b 12 3e 42 0a 27 3e a7 7d 3e 3d 03 dc e4 bd
       0.14262164 0.16312507 0.04650655 -0.111747764
0003b0 4f 62 94 bc d3 cf fa 3d 9b de ca bd fd 55 3e bd
       -0.018113283 0.122466706 -0.0990574 -0.046468724
0003c0 85 b1 b0 bd 54 f0 0b 3c 19 e8 9c bd 88 26 f5 bc
       -0.08627609 0.008541185 -0.076614566 -0.0299256
0003d0 91 1a 4d bd b7 a8 d8 3d 49 d1 ae bd 86 ec 42 3d
       -0.050074164 0.10579055 -0.08536012 0.047588848
0003e0 29 10 0f 3e 07 76 12 3e 40 da 1c be 6b 15 5d bd
       0.13971008 0.14302836 -0.15317631 -0.053975504
0003f0 5a 31 be bd e8 cc 0b be dc bb 65 3d 5a 6d fa 3d
       -0.09286757 -0.13652384 0.05608736 0.122278884

col_embedding.3.bias f4 [32]
000000 62 85 3c bd 51 f3 19 3e 37 09 c7 bd a0 59 f5 3d
       -0.04602564 0.15034224 -0.097185545 0.11979985
000010 c8 3b c1 bc a0 ae 1c 3e 26 78 d6 3d ac 7d 02 3d
       -0.023588076 0.15300989 0.10472135 0.03185813
000020 70 52 12 3e e4 9c 11 3e c9 0f 07 3e 72 7c 07 3e
       0.1428926 0.14220005 0.13189615 0.13231066
000030 a0 85 ad bd 2d b2 21 3e b7 75 8a 3d 11 47 a3 bc
       -0.084727526 0.15790625 0.067607336 -0.019931348
000040 03 8c bf bd 43 44 ac bd eb c3 ec 3d 59 be 12 3e
       -0.09352877 -0.084114574 0.11560806 0.14330424
000050 ca 00 bb 3d fd c2 c9 3d 97 7a fc bd 95 c4 1a 3e
       0.0913101 0.09851644 -0.1232807 0.15114053
000060 66 20 0e 3e 28 33 86 bd 23 ed 0a 3e c6 28 c0 3d
       0.13879547 -0.06552726 0.13567023 0.09382777
000070 05 8f bc 3d a9 7e f5 3c c8 04 b8 bd bf b4 9a 3d
       0.09206966 0.029967623 -0.08985287 0.07554006

conv_col_to_row.feature_module_left.0.weight f4 [32, 32]
000000 83 02 c5 3c 5a ed 1f be 4f 2e 49 bb 7b f5 30 3d
       0.02404905 -0.15617886 -0.0030697768 0.04320286
000010 bc 2d 04 bd 08 79 ef bd a6 c3 92 3c 4d ab 5b bd
       -0.03227018 -0.11693007 0.017915558 -0.053630162
000020 63 4f 23 3e bd c9 29 3c e6 f3 92 bc 29 6e 03 3e
       0.15948252 0.01036304 -0.017938565 0.12834992
000030 7b 77 1e bb d3 c2 4d bd b6 31 95 bc 05 c7 4d bc
       -0.0024180103 -0.050234627 -0.01821218 -0.012559657
000040 10 15 3e bc 18 6e 0e be 88 90 03 3e 27 1e 05 3d
       -0.011601701 -0.13909185 0.12848103 0.03249946
000050 39 5e c2 bd 09 57 d9 bd 87 53 a8 3d ed 04 9a 3d
       -0.09490628 -0.10612304 0.082190566 0.07520471
000060 07 6c bf 3d 95 f1 da bd 5b 69 26 be 07 df 06 be
       0.093467765 -0.10690609 -0.16251127 -0.13171016
000070 ed d4 fe 3d 32 fc 4a bd 02 07 66 bd 59 63 d2 bd
       0.12442956 -0.04955692 -0.056159027 -0.10272855
000080 55 8f 04 3e fe f3 91 3d 82 45 d0 3d e9 55 d0 bd
       0.12945302 0.07126616 0.101695076 -0.10172636
000090 6b 8b 06 bd d1 c9 23 3e 9a 3c d4 bc 20 26 34 be
       -0.032847803 0.15994956 -0.025907803 -0.17592669
0000a0 48 50 bb bd d1 86 98 3b 11 97 ec 3d 32 a4 f9 3c
       -0.09146172 0.0046547432 0.11552251 0.030473802
0000b0 5b ec 1c 3d c3 1a 02 be fc 01 01 3d 14 d9 74 3c
       0.038311344 -0.12705521 0.031496033 0.014944334
0000c0 84 72 01 3e e0 03 07 be 39 06 c8 3c 5e d0 db bd
       0.1264134 -0.13185072 0.02441703 -0.10733102
0000d0 91 52 1b bd 0e 82 a9 3d 53 c9 36 be b8 7f db 3d
       -0.03792054 0.08276759 -0.17850237 0.1071772
0000e0 39 e8 2a be 07 b1 1d 3d ec 27 a2 3d ef 2c d4 3d
       -0.16690148 0.038498905 0.07917771 0.10360133
0000f0 d0 b5 c8 bd b7 4d dc bd 1d c2 b2 3d 45 e0 8b bc
       -0.09800303 -0.107570104 0.087284304 -0.017074713
000100 6a ad e8 3d c0 38 dd bd 27 66 dc 3c cd c6 88 3d
       0.11361201 -0.1080184 0.026904179 0.06678543
000110 35 e7 b3 3c d7 10 03 3e bd e3 05 be 67 f6 29 3e
       0.021960834 0.12799393 -0.13075157 0.16597901
000120 21 61 ef bd 4a db d9 bd 0a 85 03 3e 21 1e ae 3c
       -0.11688448 -0.10637529 0.12843719 0.021254601
000130 b4 22 2c be 3f f5 2a be 8c fe a8 bd 65 d3 29 3e
       -0.16810113 -0.16695116 -0.08251676 0.16584547
000140 91 93 25 3d f4 bf 05 be ce 48 30 3e be d7 8a 3d
       0.040423933 -0.13061506 0.17215273 0.06779431
000150 ef 12 a5 bd 8a b7 e4 bc 50 52 4f bd 6b be 33 3e
       -0.08060252 -0.02791955 -0.05061561 0.17553107
000160 4e 57 e6 3b 81 88 54 3d af cc 0f be b4 f7 bc 3c
       0.0070294505 0.051887993 -0.14042924 0.023067333
000170 96 4b 8d bd d1 e7 87 3d 8c 5a db 3c 17 06 31 bc
       -0.068991825 0.06636012 0.026776575 -0.010804675
000180 bf 05 51 bd ee fc 7c bd 63 94 46 3c a9 58 f2 3b
       -0.05103087 -0.06176465 0.012120339 0.007395823
000190 a0 fc 6f bc 4b a9 51 3d 36 f2 98 bc 8c d2 91 bd
       -0.014647633 0.05118684 -0.018670183 -0.07120237
0001a0 bf ab 0e 3e ea c3 c2 bd c5 a0 ff bd ce 99 1a 3e
       0.13932703 -0.09510024 -0.12481836 0.15097734
0001b0 ee 14 df 3c af 1f 0b bd 52 25 c6 bd d6 02 0a bd
       0.02723166 -0.033965763 -0.09675087 -0.03369411
0001c0 53 01 09 be c6 e9 21 3d 98 55 a3 3c 41 2b 97 3d
       -0.13379411 0.039529584 0.019938275 0.07381297
0001d0 d4 c4 21 bd 7e 63 2c be 74 5c 09 3e e1 22 26 be
       -0.03949435 -0.16834828 0.13414174 -0.16224243
0001e0 38 8b ea bd ff 2d d4 bb bc a3 d0 bd 27 c8 bf bd
       -0.11452335 -0.0064752097 -0.1018748 -0.09364348
0001f0 51 bd f8 3d 86 a2 30 be 37 e1 b7 bc 56 4c b7 3d
       0.12145484 -0.17249498 -0.022446258 0.08950107
000200 fa ef 19 be 4b 71 a0 3d 88 c5 24 3e bb aa 88 3a
       -0.1503295 0.07834109 0.16090977 0.0010426858
000210 7b 20 bd 3d a4 37 e5 bd 22 7f 06 3e 82 81 22 be
       0.09234711 -0.11192253 0.13134435 -0.15869716
000220 08 27 7f 3d e2 a5 d0 3d 87 d1 ac bd 3a 1b d1 bd
       0.062293082 0.1018789 -0.08438402 -0.10210271
000230 c0 e4 29 3d 24 6d 26 3e 68 2d a4 bd f8 25 05 3e
       0.04147792 0.16252571 -0.08016473 0.13002765
000240 f0 5e a6 bd b6 f0 da bb 0b f3 08 3e 34 46 16 be
       -0.08123577 -0.006681527 0.13373964 -0.14675218
000250 fe 32 3b be 68 59 01 bd cc 46 01 3d cc 54 b9 3c
       -0.1828117 -0.031579405 0.031561658 0.022623442
000260 83 f7 32 be 45 f6 a5 bd 33 40 29 3d 1c de de bc
       -0.1747723 -0.08103613 0.04132099 -0.02720552
000270 0b e0 1f be a8 61 5e 3d 0f 04 3e 3d 40 d0 c5 bd
       -0.1561281 0.05429235 0.04639059 -0.09658861
000280 6c df d6 3b e4 39 0c be e6 d0 22 3e d7 21 a0 3d
       0.0065573957 -0.13693959 0.15900001 0.078189544
000290 1c 65 6b 3c 77 98 a7 3d af e1 53 3d 2e 69 e9 3d
       0.014367368 0.08183377 0.0517289 0.113970146
0002a0 59 21 14 be 77 fa 0a bd 4c fc 87 3d 2d 3a 17 be
       -0.14465846 -0.03393027 0.06639919 -0.14768286
0002b0 a7 aa 0c bd 0f 49 81 bd ff 1b 9d 3c 39 3a 01 be
       -0.034342434 -0.06312763 0.019178389 -0.12619866
0002c0 3e 55 2a 3e 9b 38 03 be 3a 2a 80 bd 55 a5 d5 bd
       0.1663408 -0.12814562 -0.06258054 -0.10431925
0002d0 1e 95 eb 3d bf 06 f8 3d 81 cd 53 3d b4 89 f9 3d
       0.11503051 0.12110662 0.051709656 0.12184468
0002e0 54 1f 2a 3e b8 0a 15 bc 3f 03 ca bd 50 d2 10 3e
       0.16613513 -0.009096794 -0.098639004 0.14142728
0002f0 44 e0 87 3d 9e 47 10 be 16 91 12 3c 13 e4 31 3e
       0.06634572 -0.1408982 0.008945724 0.1737216
000300 79 3e 4b bd 02 08 1f be 3b fc 27 3e 7d ff e8 3c
       -0.049620125 -0.15530398 0.16404812 0.028442139
000310 dc ad 95 3d 7a 6c 27 be e9 ce 18 3e c0 9c e4 bd
       0.07308552 -0.16349974 0.1492268 -0.1116271
000320 e8 05 ec 3c c9 ff aa 3d a5 fa 78 3c 40 1a 32 be
       0.02881141 0.083495684 0.015196477 -0.17392826
000330 cd c3 cf 3c 0a c3 9e bd 5f e8 40 3d 5e 89 9e 3d
       0.02536192 -0.077520445 0.047096606 0.077410445
000340 23 d5 bf 3c a7 d6 cb bc 81 8f 5f bd ad db fb 3d
       0.023417061 -0.024882628 -0.054580215 0.12297759
000350 0a 52 a3 bd 05 9c 70 3d cf 6c cc bd b0 fc 8f bd
       -0.07974632 0.05874254 -0.09981691 -0.07030618
000360 8a 2c e2 3c 92 35 0c be 92 a1 47 3d 06 7d 4c bd
       0.027609129 -0.1369231 0.04873807 -0.04992392
000370 4a b4 2d 3e b0 9f 2e 3b 88 00 15 be 82 3f 00 3e
       0.16963306 0.0026645474 -0.14550984 0.12524226
000380 13 d5 00 be 33 64 13 3c 2f 92 17 bc 62 af fb bd
       -0.12581281 0.008996057 -0.0092511615 -0.12289311
000390 37 72 13 3e 75 5a ce bd aa 4d dd 3c c0 f1 15 3e
       0.14399038 -0.10075847 0.027014572 0.14643002
0003a0 09 ed 0a 3e 71 98 1f be 4f 19 16 3e 30 e7 9c bd
       0.13566984 -0.15585496 0.14658092 -0.07661283
0003b0 c5 ec a0 bb fb 97 c7 bd e5 c1 8c 3c d9 52 cc 3d
       -0.0049110376 -0.09745785 0.0171823 0.099767394
0003c0 0f f6 05 be 32 f8 23 bb bb 01 2e 3e b2 23 ea 3d
       -0.13082145 -0.0025019762 0.16992848 0.114325896
0003d0 bc 26 19 bd 2c 04 19 be 61 67 64 3b 5c d0 85 bd
       -0.037390456 -0.14942998 0.0034851658 -0.06533882
0003e0 32 67 b3 3d 98 3d f2 3d 9f 3b ee bd fd 70 ad ba
       0.08759917 0.11828154 -0.116324656 -0.0013232526
0003f0 25 1d fd 3d 21 f2 ab 3d 7e e6 19 be c0 46 18 be
       0.123590745 0.08395792 -0.15029332 -0.14870739

conv_col_to_row.feature_module_left.0.bias f4 [32]
000000 3b 63 d9 3d f1 17 03 3e c7 9c df bd bd ad 86 3d
       0.1061463 0.12802102 -0.10918575 0.06576107
000010 e6 a6 a3 bc 1f 64 e6 3d a0 6c b1 bd f5 1c 32 3e
       -0.019977044 0.11249565 -0.08663297 0.17393859
000020 69 2f 75 bd 70 6b 14 be dc cf db bd 5f 37 1b be
       -0.059859667 -0.14494109 -0.107330054 -0.15157841
000030 f6 ef 17 3d d0 75 90 3d 76 19 28 be 96 8f 1b be
       0.03709408 0.07053721 -0.16415963 -0.15191492
000040 d8 26 b4 3d 69 4a 05 3e b4 93 d0 3c 5f 5e 1b 3d
       0.08796471 0.13016666 0.025461055 0.037931796
000050 0e 16 41 3d b0 ae b0 3d a6 de 25 3e b9 5e b4 bd
       0.047140174 0.08627069 0.16198215 -0.088071294
000060 04 4b bb 3d 2f 0d 5a bd b5 9b 00 3e 76 d5 2e be
       0.091451675 -0.05323523 0.12559398 -0.17073616
000070 63 f1 d0 bd 58 ea 8c bd 50 c1 69 bd be f6 2b be
       -0.10202291 -0.06880635 -0.057069123 -0.16793343

conv_col_to_row.feature_module_edge.0.weight f4 [32, 1]
000000 8e 09 0b 3f 2f ed 1b 3f e5 f8 bf 3d 7f b3 aa 3e
       0.54311454 0.6090879 0.09373645 0.3334007
000010 da 2e ae 3d d6 8f e8 3e 72 dd 3a bf c4 e2 a8 be
       0.0850503 0.45422238 -0.7299415 -0.32985508
000020 c7 74 02 bf 6b 62 55 3e fb f7 68 bf 62 c3 56 bf
       -0.5095944 0.20838325 -0.9100339 -0.8389188
000030 3d b2 53 bf fb 13 08 3e 7c 65 08 bf 6c 45 b4 3d
       -0.82693845 0.13288872 -0.5327985 0.08802304
000040 4f d2 7e bd d1 35 15 be 36 71 31 3f cd 24 28 3f
       -0.062212285 -0.1457131 0.6931337 0.65681154
000050 62 7a 3a bf c8 15 19 3c 60 f8 50 bf 83 0a 30 bf
       -0.7284299 0.009343572 -0.8162899 -0.6876604
000060 0f 4d 2f 3f 63 dc d0 3e 01 81 29 bf f1 db 26 3f
       0.6847696 0.40793142 -0.6621247 0.65179354
000070 71 41 1e be 25 1a 15 3e 78 b1 87 be e4 c8 6b 3f
       -0.15454651 0.14560755 -0.26502585 0.9210341

conv_col_to_row.feature_module_right.0.weight f4 [32, 32]
000000 9f 76 81 bd f8 84 a0 3d 78 c9 d0 bd 8e c1 f1 3d
       -0.06321453 0.07837862 -0.10194677 0.11804496
000010 af f9 b1 bd 35 a3 f3 bd 1e 4e 5a bc 79 af f4 3c
       -0.086902015 -0.11896364 -0.013324289 0.029868828
000020 c4 5c ea 3b ec 2c d3 bd dc ae c1 bd f7 96 72 3d
       0.007152172 -0.103113025 -0.0945718 0.059226003
000030 db b2 ce bd 2e c5 b4 3b 11 96 9b 3d 70 56 95 3c
       -0.10092708 0.0055166697 0.07596982 0.018229693
000040 48 22 37 3e ae d6 25 3e e5 13 a8 3c 0f 79 0a 3e
       0.17884171 0.16195175 0.020517299 0.13522743
000050 f0 2f 2b be af fe 13 3d 90 75 31 3e 62 f6 78 bd
       -0.16717505 0.036131557 0.17330003 -0.060781844
000060 e9 21 8a 3d 0a fb 21 3d d4 6f 0c 3e 57 1d c9 bd
       0.06744749 0.03954605 0.13714534 -0.09820049
000070 d1 2f f0 bd 73 a6 c0 3b 80 04 e6 bd ed c6 16 3e
       -0.1172787 0.0058792173 -0.11231327 0.14724322
000080 3a 1d 1f 3e de b1 bb 3d 43 e8 98 bc b0 e5 33 3e
       0.15538493 0.09164785 -0.018665439 0.17568088
000090 7f dd 1f be 89 d7 32 3e 31 a2 a0 bd 58 33 16 3e
       -0.15611838 0.17465033 -0.078434356 0.14668024
0000a0 4e 45 df bd c5 44 c3 bd a8 ac db bd 3e 4e b6 3d
       -0.10901891 -0.09534601 -0.10726291 0.08901642
0000b0 ae 38 0d 3d 2d 0d d0 3d 18 31 b8 3b d2 49 70 bd
       0.034477882 0.10158763 0.005621087 -0.05866415
0000c0 4f 87 0c 3e 17 ae 10 be 6f 94 99 3d fa ec 19 be
       0.13723491 -0.1412891 0.074990146 -0.15031806
0000d0 99 2d 28 3e a4 80 39 3c 9a 3d 75 bd b3 2c 09 3e
       0.16423644 0.011322174 -0.0598732 0.13395958
0000e0 6b 8c 19 be f5 b2 c9 bd ba 46 12 be ed 77 6d bd
       -0.14994971 -0.098485865 -0.14284793 -0.0579757
0000f0 c7 23 9c bd 28 ff c9 3d 61 38 19 be 04 fb 78 3b
       -0.076240115 0.0986312 -0.14962913 0.0037991414
000100 e6 b0 0d 3e e6 1c 1d bd 64 d4 76 bd e9 93 a2 bd
       0.13837013 -0.038357638 -0.060261145 -0.07938368
000110 e6 52 b7 3d 5e c4 e7 3d e7 a4 07 be 50 25 be bc
       0.089513585 0.11316751 -0.13246499 -0.023211151
000120 96 9c 19 be 6e 97 56 bd 28 95 a5 3c f4 74 c4 3c
       -0.15001139 -0.05239051 0.020212725 0.023981549
000130 b9 35 03 3e 3e 36 f6 3d a1 bb 53 3d bd 57 24 be
       0.12813462 0.120220646 0.05169261 -0.16049094
000140 a9 2e 3c bd 02 bc 33 3e a2 a7 67 bd 32 64 31 3d
       -0.045942936 0.17552188 -0.05655635 0.043308444
000150 a7 df de 3c ee ab c7 3d 59 06 b9 bd 7d 8d c8 bd
       0.027206255 0.0974959 -0.09034414 -0.09792612
000160 4f 0f 3a bd 04 22 ee 3d fb 71 25 be 39 01 d0 bc
       -0.045424756 0.11627582 -0.16156761 -0.025391208
000170 4b 95 d3 3d 5a 7b 10 3e ee 9f 15 3d 5d a4 b2 bd
       0.1033121 0.14109555 0.036529474 -0.08722756
000180 f5 03 23 3d 81 94 08 be 0f 8d 30 be 6a 24 09 3e
       0.039798696 -0.133379 -0.1724131 0.13392797
000190 df 7f 33 be 84 bd 06 be bd d0 27 3e 62 47 81 3d
       -0.17529248 -0.13158232 0.16388221 0.06312443
0001a0 1f e2 db bd c2 84 02 be f3 86 1a be 33 1a 07 bd
       -0.107364886 -0.12745956 -0.15090542 -0.03298397
0001b0 99 32 db bd 6d 0d a7 3d 4b b8 f8 bd 05 70 8c bd
       -0.1070301 0.08156858 -0.12144526 -0.068573035
0001c0 92 04 5b bd 17 38 5f 3d 8e e6 9c bc d1 45 f9 bc
       -0.053471155 0.05449685 -0.019152906 -0.030428799
0001d0 9d c8 a3 bd 6c 1f 2e be ea 3b 2d 3e f4 af 14 3e
       -0.07997248 -0.17004174 0.16917387 0.14520246
0001e0 2d 7b 79 3d 03 b2 42 bc 9c ea 01 3e 54 36 40 bd
       0.060908485 -0.011883262 0.12687153 -0.04692681
0001f0 33 40 aa 3b 93 8f e6 3d 78 5c df bd 32 25 e8 3d
       0.0051956414 0.11257853 -0.10906309 0.113352194
000200 5d 06 af bd 18 61 09 be 6d 0e 30 3e e2 37 94 bd
       -0.085461356 -0.13415945 0.17193003 -0.07237221
000210 09 65 96 bd d7 f5 6f bd dd 57 fd 3c b3 33 6c bc
       -0.0734349 -0.05858406 0.030925686 -0.014416623
000220 e8 87 18 be 28 ee 25 be 4b 8d d6 3d c3 c6 96 3d
       -0.14895594 -0.1620413 0.10476168 0.073621295
000230 51 5a 0a 3e 5d 81 27 be 5c 53 9a 3c ff 56 11 3e
       0.13511015 -0.16357942 0.018838577 0.14193343
000240 9b b4 a4 bd bb 87 f4 3b 1b 9c dc 3a 4d a3 1f 3e
       -0.0804226 0.0074624694 0.0016831191 0.15589638
000250 3d 6a 0d be 31 fd 0c bd fc 06 83 3d 13 af cb 3b
       -0.13810058 -0.03442115 0.063978165 0.006215939
000260 f3 48 1a 3d 55 8f df bd 0b ef 17 be 6a 17 21 3e
       0.037667226 -0.1091601 -0.14837281 0.15731588
000270 ac be 4f 3c 11 01 8e bd fc ac 73 bb 52 2c 4b 3d
       0.012679737 -0.06933797 -0.0037181964 0.049602814
000280 df ba a3 3d a3 56 1d 3e 93 0c 2b be 72 24 10 be
       0.07994627 0.1536508 -0.16704015 -0.14076403
000290 7d bb 7d 3d 7b fd bd bd 37 29 58 3d 7b 7f 31 3e
       0.06194638 -0.09276863 0.05277368 0.17333786
0002a0 d6 de 92 bd 25 4b 1c 3e 66 82 88 3d 5b 94 ce 3d
       -0.07171409 0.1526304 0.066654965 0.1008689
0002b0 42 b8 27 3e 4a 96 2f 3e 27 a3 e2 3d 5c b2 b8 3d
       0.16378883 0.17147174 0.11066275 0.09018394
0002c0 33 59 7a 3d 89 00 13 3e ee c7 2c 3e f2 ff 16 be
       0.061120223 0.14355673 0.16873142 -0.14746073
0002d0 27 0a 01 3e 31 52 e0 3d c7 b8 ba 3d 70 e0 b0 3d
       0.12601529 0.10953177 0.09117275 0.08636558
0002e0 2b 04 b6 bd 11 f7 b9 3d 1a e5 e3 3d ea 65 33 3d
       -0.08887514 0.09080327 0.11127682 0.043798365
0002f0 97 b1 1a 3d 80 bf f7 bd 98 25 22 be 3d a1 70 bd
       0.03776702 -0.120970726 -0.15834653 -0.05874752
000300 cc 5a 1e 3e 2b 4e 01 3c 47 3e 6d 3d 26 72 80 3d
       0.15464324 0.007892172 0.05792072 0.06271772
000310 12 6e 98 ba 31 0f 99 ba 84 c8 78 bc 0b 33 ea bd
       -0.0011629483 -0.0011677501 -0.015184525 -0.11435517
000320 02 4d a6 3d 85 fd ce bd 94 34 5a 3d fe b3 9a bd
       0.08120157 -0.10106949 0.0532728 -0.07553862
000330 57 15 63 bd ee a4 93 bb ec 83 a3 bd 0d 27 f5 bd
       -0.055440273 -0.004505745 -0.079841465 -0.11970339
000340 b5 86 0e be 05 ef 73 3d 02 ea fd bd ec 48 2f be
       -0.13918574 0.05955412 -0.12398149 -0.17117661
000350 bb 79 d6 bd 21 4c 0f 3c 3e 35 0c 3c 33 61 f5 3b
       -0.10472437 0.008746178 0.008557616 0.0074883937
000360 50 29 50 3d 5c d5 aa bd d2 7c ca 3d 0f 1f b5 3b
       0.05082065 -0.08341476 0.09887089 0.005527384
000370 0b 75 0d 3e bb 0b d2 3c b7 bb 71 3d 6c 3b fe bd
       0.1381418 0.02564036 0.05901691 -0.124136776
000380 ea 30 0c 3e 83 92 ab bc 41 c2 98 bd 11 7c 16 3e
       0.13690534 -0.020943886 -0.07458926 0.14695765
000390 58 b9 60 bd 77 9a e0 3d 48 ff 14 3c 86 40 13 3b
       -0.054864258 0.10966962 0.009094067 0.002246888
0003a0 25 49 19 3e ee 7d c9 bd 2c db db 3c d9 7a a2 bd
       0.14969309 -0.09838472 0.026837908 -0.079335876
0003b0 52 e8 e0 3d 80 e4 0c 3d 37 53 c2 3d 73 2c db 3d
       0.109818116 0.034397602 0.09488528 0.107018374
0003c0 60 35 63 bd dc c5 d1 bd c8 f7 3c bd 63 c3 a8 3c
       -0.055470824 -0.10242817 -0.04613474 0.02060098
0003d0 77 ab cc bd a7 cc d8 3d d6 04 c2 bd ec 80 a8 3d
       -0.09993642 0.10585909 -0.09473579 0.08227715
0003e0 f9 c9 19 be bd 53 b5 bd 1d 4c d5 3c bf 5a 33 be
       -0.15018453 -0.088538624 0.02603727 -0.17515086
0003f0 d9 b2 16 3e 2f f7 1a 3e 1c 36 a1 3d 3f 1a dc bc
       0.14716662 0.15133356 0.07871649 -0.026867984

conv_col_to_row.feature_module_final.0.weight f4 [32]
000000 04 84 7f 3f f4 d3 7f 3f 00 00 80 3f 35 d8 7f 3f
       0.99810815 0.9993279 1.0 0.9993928
000010 00 00 80 3f 24 f3 7f 3f 3e e5 80 3f c2 d4 7f 3f
       1.0 0.9998038 1.0069959 0.9993402
000020 bf b4 7f 3f 76 59 80 3f f1 0e 80 3f 48 06 80 3f
       0.9988517 1.0027301 1.000456 1.0001917
000030 e3 19 80 3f bb 23 80 3f 6b 08 80 3f b3 7e 7f 3f
       1.00079 1.0010904 1.0002569 0.998027
000040 09 6a 80 3f 02 00 80 3f eb 15 80 3f 57 18 80 3f
       1.0032359 1.0000002 1.0006689 1.0007428
000050 98 76 80 3f f1 21 80 3f ed ca 7f 3f da 03 80 3f
       1.0036192 1.0010358 0.99919015 1.0001175
000060 3b 97 80 3f 5f 0c 80 3f b1 79 80 3f 00 00 80 3f
       1.0046152 1.0003775 1.0037137 1.0
000070 00 00 80 3f 1a 94 7f 3f 00 00 80 3f 00 00 80 3f
       1.0 0.9983536 1.0 1.0

conv_col_to_row.feature_module_final.0.bias f4 [32]
000000 cf 91 90 ba 5e ca 81 ba 00 00 00 00 b9 68 3c ba
       -0.0011029782 -0.0009902229 0.0 -0.0007187236
000010 00 00 00 00 5e 68 8c b9 63 fb c8 3a 02 64 0c ba
       0.0 -0.0002678064 0.0015333708 -0.00053554785
000020 83 c5 2d ba 5f 98 0e 3b 3d 91 53 3a 89 1a ce 38
       -0.0006628858 0.00217583 0.00080706534 9.827788e-05
000030 90 39 68 3a ec c0 b7 b9 56 ed ca 3a 9f a7 a0 ba
       0.0008858675 -0.00035048218 0.0015482109 -0.0012256986
000040 48 7f 3c 3a f3 0b 19 b9 f9 7e 8f 38 c4 b8 04 3b
       0.0007190597 -0.00014595668 6.842422e-05 0.002025173
000050 7d 78 25 3b bf ab d7 38 59 bc 24 39 8a 18 f0 b9
       0.0025248819 0.00010283989 0.00015710424 -0.0004579465
000060 c7 3a 6a 3b db 72 d2 b8 e1 22 14 3b 00 00 00 00
       0.00357406 -0.00010034974 0.0022603797 0.0
000070 00 00 00 00 24 8d 1e bb 00 00 00 00 00 00 00 00
       0.0 -0.0024193013 0.0 0.0
