GNN/ResultsGCNN/actor_74.pt (torch, 83520 bytes, 43 tensors)

row_embedding.0.weight f4 [7]
000000 52 9b 80 3f 15 44 80 3f 31 d8 7f 3f 3b 2e 80 3f
       1.00474 1.0020777 0.99939257 1.0014108
000010 de 97 7f 3f 06 85 80 3f c1 07 80 3f
       0.99841106 1.0040596 1.0002366

row_embedding.0.bias f4 [7]
000000 1d 8e 3c bb 10 4f 8d ba cd 7c 72 ba b9 99 ee ba
       -0.002877123 -0.0010781009 -0.0009250164 -0.0018203772
000010 95 09 dc 3a 8c 48 64 bb 68 21 49 3a
       0.0016787524 -0.003483328 0.00076725194

row_embedding.1.weight f4 [32, 7]
000000 0a 42 51 3d 59 23 46 3d 7f f2 0c 3e ad 51 b6 be
       0.05108837 0.048373554 0.1376438 -0.3560919
000010 ef 41 3a be 36 b8 77 3e d4 3f ac bd 98 fa 89 be
       -0.18189214 0.24191365 -0.08410612 -0.26949
000020 1f 0c 86 bd 32 64 26 bd 29 ff da bd b2 06 47 3e
       -0.06545281 -0.040622897 -0.10693199 0.19436148
000030 fd 7a 86 3a 5a b6 aa bd 80 b9 00 be 44 a6 95 be
       0.0010260042 -0.08335562 -0.12570763 -0.29228413
000040 71 ab 90 be ad a3 85 3e 99 2f a2 3e 4b 03 a3 3c
       -0.282558 0.26101437 0.3167694 0.019899031
000050 38 8f 4e be 50 75 55 be b4 2d 0a 3e 33 bf a2 3e
       -0.20171821 -0.20845532 0.13493997 0.31786498
000060 c4 e1 b6 be 7d b9 dd 3c a7 6c ad 3b f9 56 45 3e
       -0.3571912 0.027065987 0.0052924934 0.19271459
000070 96 ac 0e be 1d 76 06 bd 06 3e 9d be f2 13 56 3e
       -0.13933024 -0.032827485 -0.30711383 0.20906046
000080 28 82 4f be 0d 7e 4e be ca 69 48 be f9 cb db bd
       -0.20264494 -0.20165272 -0.19571605 -0.10732264
000090 39 f6 66 3d 6a c7 1f bc 3f 07 b7 be e8 f7 c1 3d
       0.05638716 -0.009752134 -0.35747716 0.094711125
0000a0 07 e7 53 be c9 4b a0 3e 37 f4 89 be 0c c2 ab be
       -0.20693599 0.3130782 -0.26944134 -0.33546484
0000b0 41 c9 8b 3e ee c5 66 be 5f a3 a0 be 21 18 6c bd
       0.27301982 -0.22536442 -0.31374642 -0.0576402
0000c0 23 c8 8a 3c aa f0 78 be 12 fc 88 3e 57 1f 6a 3e
       0.016941136 -0.24310556 0.26754814 0.22863518
0000d0 fe 01 86 3e 47 1b 5a 3e a3 b1 07 3d 22 64 11 3d
       0.26173395 0.21299468 0.033128392 0.035495885
0000e0 e3 7e 0c be 10 bc 95 bd 81 e7 dc 3c e4 f6 2e 3c
       -0.13720278 -0.07311261 0.026965858 0.0106789805
0000f0 c2 ce 0f be de 17 57 be 64 6c 8b 3e e7 34 4b 3d
       -0.14043716 -0.21005198 0.27231133 0.049611
000100 6b 2e af be e4 7e 47 be ee f4 b9 3e 4b 44 42 be
       -0.34215102 -0.19481999 0.3631968 -0.18971364
000110 d1 b1 83 3e 9d aa b2 be 5f a1 8a be 35 d5 ac 3e
       0.257216 -0.34895793 -0.2707624 0.33756414
000120 3c 39 c3 bd 5c 9f bd bb 77 d6 1f bd 3c 7f 80 be
       -0.09532401 -0.0057868194 -0.03902289 -0.25097072
000130 4a 98 81 3e db c1 39 be e3 e3 4c 3c 23 7a b6 be
       0.253115 -0.18140356 0.012505504 -0.35640058
000140 76 16 9a bd b7 38 7c bc 5c 3a 84 3e f6 4a 0b 3e
       -0.07523815 -0.015394381 0.25825775 0.13602814
000150 7e fc 93 3e 58 9f 92 bd d6 2c 9e be 3d 6b d9 bd
       0.28903574 -0.07159299 -0.30893582 -0.10616157
000160 d3 75 8e bd 30 8d a2 3e e4 52 69 be 41 f1 80 3e
       -0.06956067 0.31748343 -0.22785527 0.25184062
000170 a6 d8 5b 3e 6a ec 5e be f7 45 7d be 63 a3 1f be
       0.21469364 -0.21769872 -0.2473372 -0.15589671
000180 ca 6a 19 be ad 1d 8b be 9d d8 ba be 7b 0e b3 3d
       -0.14982143 -0.27171078 -0.36493388 0.08742996
000190 42 eb cc 3d ee 0e 8f be 3b 2f 8c 3e 7d 1c 12 be
       0.10005809 -0.27941078 0.27379784 -0.1426868
0001a0 99 3e ee bd f2 00 8f 3d 5b df 94 3e 8c 27 a5 be
       -0.11633033 0.06982602 0.29076657 -0.32256734
0001b0 59 9b 9e bd 4d 25 e6 3d 23 5c a1 be e3 b2 97 3e
       -0.07744474 0.11237583 -0.31515607 0.29628667
0001c0 96 cf 13 3e 34 7e a6 3e c9 fb f4 bc 68 73 34 3e
       0.14434657 0.3251816 -0.029905217 0.17622149
0001d0 1b ab 80 be e8 e5 b4 3e 22 3d c2 3d 4e cd 49 3e
       -0.25130543 0.35331655 0.094843164 0.19707224
0001e0 34 83 5c be 9d 11 87 be 67 01 a5 be 1e 34 b0 be
       -0.21534425 -0.26380625 -0.32227632 -0.34414762
0001f0 52 c8 9d 3b f4 04 c7 bc 48 81 b3 be e8 d1 b0 3e
       0.00481514 -0.024294354 -0.3505957 0.34535146
000200 ff 6e 2f be c5 a5 9b be 3e 6f 29 be fa df a0 3e
       -0.17132185 -0.3039991 -0.16546342 0.3142088
000210 f3 50 aa 3d e0 ae 4b be 70 d2 2d be d2 86 7a be
       0.08316221 -0.19890928 -0.16974807 -0.24465492
000220 30 fc f8 3d fe f3 7c 3e 90 b4 48 be 5e b9 b9 3e
       0.12157476 0.2470245 -0.19600129 0.36274236
000230 8b 4f a7 3e f0 61 00 3e 28 39 24 bc 78 4f 8d 3e
       0.32677874 0.1253736 -0.010023393 0.27599692
000240 fb 56 d8 3d b8 67 aa be fe f0 82 be 37 aa 48 3e
       0.10563465 -0.33282256 -0.25574487 0.19596182
000250 fd 4f ed 3c d6 64 b4 3e a5 f5 89 be 6b 5c 91 be
       0.028968805 0.35233182 -0.26945224 -0.28390822
000260 7b 39 d6 bd 96 37 69 be f8 17 93 3e aa d7 07 3d
       -0.10460182 -0.2277511 0.28729224 0.033164658
000270 71 da 05 be b7 27 56 bd 15 dd fa 3c fc 15 8e be
       -0.1307161 -0.05228397 0.030622998 -0.27751148
000280 1f cf 24 3d cc 59 7c be ce 46 71 3d 5f b7 0a 3e
       0.04023659 -0.2464363 0.058905415 0.13546513
000290 e0 0c 6c be b8 5e 54 be 82 0e 22 bc dc fe 98 3e
       -0.23051786 -0.20739257 -0.009891154 0.29881942
0002a0 b4 e1 3f 3e 95 0c b9 bd 6e 20 a9 3e ba af c8 3d
       0.18738443 -0.09035603 0.33032554 0.09799142
0002b0 3e 36 bb 3e 37 8c 88 3e d2 b6 85 be 0e 21 bb 3c
       0.3656482 0.26669475 -0.26116043 0.02284291
0002c0 9a ef 6c 3e 3e 77 9d 3d 1a ca f3 3d 07 9d 9f 3e
       0.23138276 0.07688759 0.11903782 0.3117449
0002d0 0d 9c 8e be 4c 86 ff 3d c8 12 f7 bd 87 69 20 be
       -0.27853432 0.12476787 -0.12064129 -0.15665255
0002e0 53 c1 ad 3e 64 3f 8a 3e e5 1e 7d 3e 8b e9 15 3d
       0.33936557 0.27001488 0.24718817 0.036599677
0002f0 61 59 96 be de 34 ae 3e 09 a7 d1 3d f0 62 1f bd
       -0.29365066 0.3402471 0.102369376 -0.038912714
000300 eb 5c 93 be 54 a2 db bd b3 20 a8 be 47 0b 98 3e
       -0.28781828 -0.10724321 -0.32837448 0.29696104
000310 3c 52 a5 3e a5 11 94 3d a4 fe a1 3e e3 dd 75 be
       0.32289302 0.07229928 0.31639588 -0.24010424
000320 a6 7e 5a be 55 22 38 3e 7b 77 be 3e a4 a5 74 be
       -0.21337375 0.17981847 0.3720053 -0.23891312
000330 af 39 9d be a3 d1 03 3e 22 d2 eb 3d a8 21 88 3e
       -0.30708072 0.12872939 0.11514689 0.26588178
000340 35 cb 67 3d dc bc c1 be 2b f4 19 3e b3 18 3c be
       0.056590278 -0.378394 0.15034549 -0.18368797
000350 ed fe 47 3e b9 84 8f be cd cc 95 be 4f 1c 0a 3d
       0.1953084 -0.28030947 -0.29257813 0.033718403
000360 28 38 80 bd f8 64 b3 be 2f c4 3e be 61 c9 9e be
       -0.06260711 -0.3503797 -0.18629526 -0.31013015
000370 5f be db 3d 44 57 cd 3d 1d 79 f3 bd 5f cb a1 be
       0.1072967 0.1002641 -0.11888335 -0.31600472

row_embedding.1.bias f4 [32]
000000 62 e6 52 bd 69 6e 83 3e ef 2d e1 3d f2 c0 bc be
       -0.05148924 0.25670174 0.10995089 -0.36865956
000010 91 98 a5 3d b4 92 f2 bd 85 f8 9c 3c 6c 72 db bd
       0.0808574 -0.11844388 0.019161472 -0.107151836
000020 4d 4b 1d 3e da e9 56 be 5b 1b b3 be 0a fb d3 bc
       0.15360756 -0.20987645 -0.34981808 -0.02587654
000030 22 7b a2 3e 64 0f 1b 3e 19 61 b1 3e 2f 75 d7 3d
       0.31734568 0.1514259 0.34644392 0.10520398
000040 76 79 24 be 5d 40 7c 3c 81 73 f4 bd fd 66 9f 3e
       -0.16061959 0.015396205 -0.11936093 0.3113326
000050 7a 9a 8f 3e 8f b5 e2 bc 02 0d 5b 3e f9 86 ce bd
       0.28047544 -0.027674465 0.21391681 -0.10084338
000060 12 98 a4 3e f6 7d 54 3e a5 27 17 be 39 49 00 3e
       0.3214727 0.20751175 -0.14761217 0.12527932
000070 65 12 97 be c6 60 48 be de a3 b2 3c 33 74 5d be
       -0.2950622 -0.19568166 0.021806654 -0.21626358

row_embedding.3.weight f4 [32, 32]
000000 cb 2b fd bd b0 97 22 bd 8e 9f 92 3d de 76 41 3c
       -0.123618685 -0.03969544 0.07159339 0.011808125
000010 0d 61 cf 3d 5e bc 8f 3b d0 b3 27 3e 9f 3e 15 3e
       0.10125933 0.004386469 0.16377187 0.1457467
000020 31 b4 d0 3d 8e 5d 15 be 95 dd 13 3d 3c 9c 00 3d
       0.10190619 -0.1458647 0.03609999 0.031398997
000030 42 45 ce 3d a1 f6 8b ba 61 e0 0c 3e f4 25 20 3e
       0.10071804 -0.001067836 0.13757469 0.15639478
000040 c6 2a 1d 3e 42 d8 1b 3d d6 a4 f4 bd 1b e3 d9 3d
       0.15348348 0.038048036 -0.119455025 0.1063902
000050 4c 38 1d 3d a5 5f 5c 3d 0d 26 36 3d fa 0c eb 3d
       0.038383767 0.05380215 0.04446988 0.114770845
000060 4c bb 26 be 24 36 da 3d da 1a 03 3e db 48 1a 3e
       -0.16282386 0.10654858 0.12803212 0.15066855
000070 08 ff 92 3c cb da 1c be b7 aa 16 3e d4 c1 e9 bc
       0.017943874 -0.15317838 0.1471356 -0.028534807
000080 42 94 0b 3d 8d 28 e8 3c 05 af 36 be 01 9c fd 3b
       0.034076937 0.028339649 -0.17840202 0.0077395444
000090 83 46 8f bc ce e7 4e bd 6a 82 9f 3d 93 2f 30 3d
       -0.017489677 -0.050514035 0.077885464 0.04301412
0000a0 8d 05 c0 bd eb 63 22 bd 21 22 d8 bd 77 83 24 be
       -0.09376059 -0.03964607 -0.105533846 -0.16065775
0000b0 52 8f b0 3d 32 cf cb 3d be 82 20 3e 7c 89 29 be
       0.08621086 0.09951629 0.15674874 -0.16556352
0000c0 54 02 42 bd 62 d1 05 3e 8d 85 98 3d 4c 10 0b be
       -0.0473655 0.13068154 0.07447348 -0.13580436
0000d0 87 59 01 3e e1 cd f9 3d 97 10 05 3e 2e 80 f9 3d
       0.12631808 0.121974714 0.1299461 0.121826515
0000e0 a1 37 0f 3e 0a 43 92 bd e5 fc 0e 3e e4 cb df 3d
       0.13986064 -0.07141693 0.13963659 0.10927561
0000f0 66 52 09 be 36 69 6d 3d 99 18 0c be 72 21 bf bd
       -0.13410339 0.057961665 -0.13681258 -0.09332551
000100 32 c0 6c 3c e0 22 26 3e e8 32 d9 bd a2 4c 17 be
       0.01445012 0.16224241 -0.10605413 -0.14775327
000110 c2 1e 2e 3e a3 ab ad bd 7e fd 27 be 68 e8 90 bd
       0.1700392 -0.08480003 -0.16405293 -0.07075578
000120 58 8f f2 3d 4d 06 03 3d 2b 8b 24 3e 8c 70 d2 3d
       0.11843747 0.03198843 0.16068713 0.10275373
000130 50 88 29 3c 7b 14 26 3e b6 ad a5 bd f3 55 ae 3d
       0.010347441 0.1621875 -0.08089773 0.08512487
000140 d7 5f 17 bd 35 e5 9f bc c8 e6 32 3d d7 f4 ff 3d
       -0.036956634 -0.019518474 0.04367712 0.12497871
000150 4d 53 1b 3e 09 4b 4d 3d 2e 38 66 bd 91 31 2e 3e
       0.15168495 0.050120387 -0.05620592 0.17011096
000160 47 e9 04 3d 4c 98 68 3d d3 cb 62 3d a0 85 29 be
       0.032449033 0.056785867 0.055370163 -0.1655488
000170 bb 41 29 3e c9 0f 28 3e 86 ce 03 3e 99 d0 1d 3e
       0.1652898 0.16412272 0.12871751 0.15411605
000180 34 21 a4 bd 39 06 1d bd 73 18 1e be 16 d7 66 3d
       -0.080141455 -0.038336013 -0.15439014 0.056357466
000190 ea 36 41 3d 98 89 71 3d 7c 51 2d 3e 59 b1 c2 bc
       0.04717151 0.05896911 0.16925615 -0.023766207
0001a0 c1 1d b4 3d 95 7b ed 3d 3b 96 de bd 5d d6 02 bd
       0.087947376 0.11595837 -0.10868498 -0.031942714
0001b0 e4 70 02 3e aa 7c d3 bd 98 46 7a 3d 05 af b4 3d
       0.12738377 -0.10326512 0.06110248 0.08822445
0001c0 82 01 9d bc 25 8a 2c 3e 29 9e 8d bd f4 a7 92 3d
       -0.019165758 0.16849573 -0.06914932 0.07160941
0001d0 2b 7e 23 bd 60 a3 22 be fe 8e 94 3d b7 02 8b bd
       -0.039915245 -0.15882635 0.07253836 -0.06787627
0001e0 58 10 45 bb db 45 1d 3e 2c 95 a2 bd 96 51 87 bd
       -0.0030069556 0.15358679 -0.079386085 -0.06607358
0001f0 42 ed 33 be d7 e3 01 be 9a 77 f0 bd da 35 37 3d
       -0.17570975 -0.1268457 -0.11741562 0.04472909
000200 40 e0 b6 3d aa 03 ee bc a6 43 ea bd a7 bb 0a 3c
       0.08929491 -0.029054482 -0.11438684 0.008467591
000210 b8 53 ac 3d 07 67 86 bd 25 e6 e4 bd 4f f5 bd 3d
       0.084144056 -0.0656262 -0.11176709 0.092753045
000220 63 5a 30 be 8a f9 94 3d 31 62 0d 3e 59 60 31 be
       -0.1722198 0.07274158 0.13806988 -0.1732191
000230 9f bd 49 bd 7e 62 31 bd 4f dc 24 3c a2 8b 3b be
       -0.049253102 -0.04330682 0.010062291 -0.18314984
000240 37 61 e2 bd 69 cc d2 bd 58 73 8a 3d b5 5d 7e 3d
       -0.110536985 -0.102928944 0.06760281 0.062101085
000250 fc c7 0e be 65 3b 35 3d c2 cf 2f 3b 23 fc 81 3d
       -0.13943475 0.044246096 0.0026826714 0.063469194
000260 43 98 8b bd 83 cd ef 3d 67 12 a7 bd 04 fd 0c be
       -0.06816151 0.1170912 -0.08157807 -0.13768393
000270 39 bb d3 3d e0 48 32 be fd 33 f1 3d 54 4c 4d bd
       0.10338444 -0.17410612 0.11777494 -0.05012162
000280 0a b8 b2 bd 67 40 23 be 90 c6 07 bd 7d da 7a 3d
       -0.08726509 -0.15942536 -0.03314835 0.061243523
000290 13 62 66 bd 5d 18 27 3e 9b cf bd 3d 50 0f 78 3d
       -0.056245875 0.16317888 0.09268113 0.06056148
0002a0 38 bb 28 be 71 ed 7b 3b 7d be 01 be 09 25 3d 3d
       -0.16477668 0.0038441087 -0.12670322 0.046177898
0002b0 ba 1f 21 bd 12 1a e0 3d 47 fc 21 bb d5 8a 27 be
       -0.039336897 0.109424725 -0.002471702 -0.16361554
0002c0 b1 bd c6 bd 67 d4 33 be a8 0f 37 bd 9b 2a ae 3d
       -0.097041495 -0.17561494 -0.044692665 0.0850422
0002d0 15 f3 13 be 6f aa f0 3d 8b 8c 32 be 66 45 58 bc
       -0.14448197 0.11751258 -0.17436425 -0.01320014
0002e0 01 ef 1b 3a bd 4f b5 bd 12 70 1c be 49 3b c6 bd
       0.0005948395 -0.088530995 -0.15277126 -0.096792765
0002f0 ba 17 13 be f9 37 a4 bc dc e4 db 3c 85 d0 27 be
       -0.1436452 -0.020046221 0.026842527 -0.16388138
000300 91 2a a7 3d 6b 63 03 3e 5c e2 f8 3d 01 25 31 bd
       0.08162416 0.12830894 0.121525496 -0.04324818
000310 23 91 0f 3e 0e d8 75 3d 8f 46 01 be 78 3f ac bd
       0.14020209 0.0600205 -0.12624572 -0.08410543
000320 27 b5 1b be 37 db a5 3d 5e 5e 05 3e c6 56 8d 3d
       -0.15205823 0.080984525 0.1302428 0.06901316
000330 3c 2b fb bc 40 2c 15 be 58 0a 2d be 1d e4 b6 3c
       -0.030660264 -0.14567661 -0.16898477 0.02232557
000340 77 e2 d1 bc ba 2a 0d 3e a7 aa 97 bd 04 ab 0e 3e
       -0.025620682 0.1378583 -0.07405596 0.13932425
000350 5a 37 ba 3d 54 43 dd 3d 1e 78 25 3d 21 b2 0a 3e
       0.09092589 0.108038574 0.040397756 0.13544513
000360 0f 7b be bd d2 79 42 bd 25 ec b6 bd 7c 08 63 3c
       -0.09300815 -0.04747946 -0.0893176 0.013857003
000370 10 67 29 3e 41 66 46 bd 53 c2 1e bd 2a 83 da 3d
       0.16543221 -0.04843736 -0.03875954 0.10669549
000380 79 b2 6b bd 38 e7 2e bd 01 91 ef bd b9 65 03 be
       -0.05754325 -0.042700976 -0.11697579 -0.12831773
000390 3b e6 18 3d b9 b3 0d 3e f4 eb 0e 3e a9 70 cb bd
       0.03732894 0.1383809 0.13957196 -0.099335976
0003a0 70 32 b5 3d 56 8c d9 bd 23 10 32 be 35 98 11 bb
       0.08847511 -0.1062247 -0.17388968 -0.0022215967
0003b0 48 05 1d 3e 5b 3e 98 bc 91 2f 16 be b6 a6 73 bd
       0.15334046 -0.01858442 -0.14666583 -0.05948516
0003c0 45 ae 8d 3d 8f 3f 09 3e ce 11 33 be b7 44 37 3d
       0.06918005 0.13403152 -0.1748726 0.044743266
0003d0 dc af 7e 3d e7 a8 25 3d fe 0a 31 be 80 d7 7c bd
       0.06217943 0.04044428 -0.1728935 -0.061728954
0003e0 47 a8 d3 bc 89 07 c7 bd 6a 91 00 be 39 b8 03 3d
       -0.025837077 -0.09718234 -0.12555471 0.03215811
0003f0 62 18 85 bc eb 18 86 bb dc cc fc bd d7 0b 12 3e
       -0.016246978 -0.004092326 -0.12343761 0.14262329

row_embedding.3.bias f4 [32]
000000 19 74 de 3d 32 0a 58 bd d7 2e 78 bd 52 ef 2e bd
       0.108619876 -0.052744098 -0.060591545 -0.042708702
000010 87 37 5c 3c 03 ea 04 be 40 bd d8 3d 7f 8f 11 3e
       0.013440973 -0.12979893 0.105829716 0.14214896
000020 05 c3 81 bd 7b 4a d2 3d 44 f6 07 3e 9f 2a ca 3d
       -0.06336025 0.10268112 0.13277537 0.098714106
000030 83 02 9f bc dc da 32 3d 71 9a d6 3d e3 4a d8 3d
       -0.019410377 0.04366575 0.10478676 0.105611585
000040 94 90 c5 3d ed 0f 96 bd 75 d6 47 3d 60 cb c1 3d
       0.09646717 -0.07327256 0.048788507 0.09462619
000050 af 6b 0e bc 08 e6 06 3d aa 97 5f 3d 50 a2 85 3d
       -0.008692666 0.03293422 0.054587997 0.06525099
000060 30 e7 d8 3d c7 f3 2a 3d 25 bd 28 3e c2 46 64 bd
       0.105909705 0.04173639 0.16478403 -0.055731542
000070 3f 2c cd 3b 13 fa 04 bc 87 60 18 be 58 06 f6 3d
       0.006261378 -0.008116263 -0.14880572 0.12012929

col_embedding.0.weight f4 [7]
000000 39 96 7f 3f 9d 06 80 3f 1c f3 7f 3f 75 08 80 3f
       0.99838597 1.0002018 0.9998033 1.0002581
000010 ab 95 7f 3f d2 c9 7f 3f 12 11 80 3f
       0.9983775 0.9991733 1.000521

col_embedding.0.bias f4 [7]
000000 00 56 e5 ba 13 a8 3f b9 9a 0c 1d b9 68 ff aa b9
       -0.0017496943 -0.00018277792 -0.00014977381 -0.0003261522
000010 79 a8 77 3a 69 13 72 3a 52 ec 3a 3a
       0.00094474066 0.000923446 0.00071305514

col_embedding.1.weight f4 [32, 7]
000000 f6 77 b4 3e 42 4c ba 3b b7 75 89 39 cf 2f 32 be
       0.35247773 0.00568536 0.0002621838 -0.1740105
000010 7a 1f 8d 3e 80 1b ba be 4e c8 cd bd 36 0b ee bd
       0.27563077 -0.36349106 -0.10047971 -0.11623232
000020 9e 74 84 be 4c 10 28 be ff 3a 3e 3e 33 88 5a be
       -0.25870222 -0.16412467 0.18577193 -0.21341018
000030 06 aa a7 3b 9f f8 71 be 35 14 4a be 78 75 53 3c
       0.005116704 -0.23629998 -0.19734271 0.012906425
000040 75 be 8a 3e 55 51 35 be e4 0c fd 3c 50 49 b8 3d
       0.27098432 -0.17706807 0.030889936 0.08998358
000050 c9 7d 57 3e 5d 57 91 3e 92 98 90 3e c3 da d3 bd
       0.21044077 0.28386965 0.28241402 -0.1034446
000060 c9 9d 77 3d 49 ec 9d be aa 42 93 bc a7 4e 35 3e
       0.06045321 -0.30844334 -0.017976124 0.17705785
000070 63 15 17 3e a5 a0 a4 3e 0c 17 97 3e 00 d2 36 be
       0.14754252 0.32153812 0.2950977 -0.17853546
000080 12 4f 87 bd cf 77 80 be 40 a7 ba be c4 14 c1 be
       -0.06606878 -0.25091407 -0.36455727 -0.37711155
000090 f1 e6 19 3d b8 e5 91 bd fd 59 77 3e 51 44 6a be
       0.03757376 -0.071238935 0.24155422 -0.22877623
0000a0 86 80 2c 3e 73 5a f7 bd 77 52 09 bd 02 ef b9 3e
       0.16845903 -0.12077799 -0.03352591 0.3631516
0000b0 bd 05 bf 3e fb 4d 51 3e 13 fd 6b 3e 0e c3 14 3d
       0.37309065 0.20439903 0.23045759 0.03631883
0000c0 f4 07 30 3e a5 bb 9e 3d 79 d0 fc bd 2c b2 3d 3e
       0.17190534 0.07750634 -0.123444505 0.18524998
0000d0 98 e3 b5 be 3d 00 90 3d 39 2a 94 3d 30 d9 05 3e
       -0.35525203 0.070312954 0.07234616 0.13071132
0000e0 53 73 e1 bd a1 eb 38 be 35 5f be bd 8c 6a 5b bc
       -0.110083245 -0.18058635 -0.09295503 -0.013392102
0000f0 17 4d 65 be be 34 1e be 82 95 36 3e 8e 0f 9b 3d
       -0.22392689 -0.15449807 0.1783047 0.07571326
000100 b7 a5 a6 be 74 52 5d bd 04 34 cc bc a3 15 27 3e
       -0.32548305 -0.05403371 -0.024927147 0.16316848
000110 88 1b 9a 3e 6c 63 c1 be b5 8d ba 3e 35 c6 96 3c
       0.3009913 -0.37771165 0.3643624 0.01840506
000120 55 90 b9 3e f7 21 03 be bc 16 92 be 3c b0 73 be
       0.3624293 -0.12805925 -0.2853297 -0.23797697
000130 80 0c 70 be 2b 4a b7 3e 62 97 07 3e 3c e1 88 be
       -0.23442268 0.35798773 0.13241342 -0.2673434
000140 56 2b 86 bd 07 e7 31 be 3f f0 6c be 87 8b 62 3e
       -0.065512344 -0.17373286 -0.23138522 0.22123538
000150 62 16 96 3e b3 29 99 be e2 25 c6 3c 35 6e 7d 3e
       0.29313952 -0.29914626 0.024187986 0.24749072
000160 f3 05 26 3e 3b a0 95 bd a7 9d 69 be b6 ed a5 be
       0.16213207 -0.07305952 -0.22814046 -0.32407922
000170 cb f2 55 be 41 ff 6b 3c 11 a4 09 bd 53 bb 4b 3e
       -0.208934 0.014404119 -0.03360373 0.19895677
000180 ad f1 29 3e e4 25 1a bc cd 6e 72 bc 39 1c 3f 3e
       0.16596098 -0.009408448 -0.014796925 0.1866311
000190 d7 64 3e be 2d a1 5d 3e 0e cb a2 3e 67 5b 63 3e
       -0.18593155 0.21643515 0.31795543 0.22202836
0001a0 b4 22 ae 3d b5 e6 3d 3d aa b6 dd bc 07 8a 4a 3e
       0.08502713 0.046362597 -0.02706464 0.19779216
0001b0 c8 36 84 3e 4f 16 d8 bc b4 ac 02 3e f8 10 91 be
       0.25823045 -0.026377825 0.12761194 -0.2833326
0001c0 d7 97 41 3e 4c 07 8c 3e fc 0d 2a ba e8 9a 1d be
       0.18905579 0.27349317 -0.0006487069 -0.15391123
0001d0 e7 a7 bf bd 5f cb fb bd 6b 3f af be 8d 95 a7 3e
       -0.09358197 -0.12294649 -0.34228072 0.32731286
0001e0 a1 26 4b bc 16 b2 a3 be 09 c6 83 3e 42 e0 a2 3e
       -0.012399347 -0.31971806 0.25737026 0.3181172
0001f0 b4 c4 9f 3e a8 cc 6b be 3b 9e 83 be a1 f9 9d 3d
       0.3120476 -0.23027289 -0.25706658 0.077136286
000200 f1 95 8f 3d 31 49 62 be b8 08 89 3d c3 6b 81 3e
       0.07011021 -0.22098233 0.06691116 0.25277528
000210 52 c6 8d be 6f 3f be 3e 68 cb b2 be cf 76 ad bd
       -0.2769037 0.3715777 -0.34920812 -0.084699266
000220 93 8e 64 bd c0 bf b2 3d 19 d6 3e bc b2 dd 80 3e
       -0.055800032 0.0872798 -0.011647725 0.2516914
000230 b3 2b 8b 3d 1b e5 23 be f6 4b be be 97 4e 95 be
       0.06795444 -0.16005366 -0.3716733 -0.29161522
000240 ad 1b 53 3e 62 d8 21 3e 33 5f 50 3e 6b 08 30 bd
       0.20616026 0.158052 0.20348816 -0.042976778
000250 39 d0 dd 3d 46 81 a4 be 72 05 32 3c 25 cc 1f be
       0.10830731 -0.32129878 0.010865556 -0.15605219
000260 3e 81 81 be b1 61 b8 bd fe fd 66 3e 4b 5e 6c 3e
       -0.25293916 -0.09003008 0.22557828 0.23082845
000270 a1 b3 69 3d b3 6e 82 bd 16 ce 31 be 1d 89 72 bc
       0.057056073 -0.063687705 -0.17363772 -0.014803198
000280 11 a4 3d bd 4e 08 67 3e 6d 92 ea 3d 51 cf 92 be
       -0.046299044 0.22561762 0.1145371 -0.28673795
000290 ff 24 a4 be 40 6a ff 3d 8f ad e5 3c 29 72 0c 3e
       -0.32059476 0.124714375 0.02803686 0.13715424
0002a0 2d 62 2c be 4a 02 25 3e d5 e4 9c be e3 63 b0 3d
       -0.16834326 0.16114154 -0.30643335 0.08612802
0002b0 23 59 83 be e1 94 98 be a3 b9 a1 bd 4c 7a 8b 3e
       -0.25653943 -0.29801086 -0.078967355 0.27241743
0002c0 3a c9 84 be 5d d5 88 be 99 73 3e 3e 6f ba b4 be
       -0.25934774 -0.26725283 0.18598785 -0.35298488
0002d0 24 b0 0e bc 41 72 87 be b2 aa 89 3e 7b bb 66 bd
       -0.008708987 -0.26454356 0.26888043 -0.05633114
0002e0 bc 40 ca bd 6f df 69 be 05 fa c7 3c 7e 88 13 3e
       -0.09875628 -0.2283914 0.02441121 0.14407536
0002f0 9a 08 ca 3d ea 54 49 3e 47 22 be 3e 6f fc 3c 3e
       0.09864922 0.19661298 0.37135527 0.18455671
000300 cd 3a a0 3e 4c 92 9d 3d 7c 03 6e be 1f 02 97 be
       0.3129486 0.076939195 -0.23243517 -0.29493806
000310 3b 83 b7 3e e5 24 0c be d5 47 a7 3e 65 ab 54 3d
       0.35842308 -0.13685949 0.3267199 0.051921267
000320 bf 5a 06 be 3e 31 64 be a0 47 b2 be 36 9b 8e 3c
       -0.13120554 -0.2228441 -0.3482027 0.017407995
000330 e1 76 cd 3d 23 8e b7 bb 7d d6 9b be 6c 28 90 3e
       0.1003244 -0.005601661 -0.3043708 0.2815584
000340 ed 7a 87 3e 57 1f b7 3e 0f a3 b2 3e be 53 d3 bd
       0.26460972 0.35766098 0.3489003 -0.10318707
000350 89 70 44 be 65 41 36 3e 11 96 2a 3c 72 d7 10 3e
       -0.19183554 0.17798384 0.010411755 0.14144686
000360 00 68 5d bd 82 1f 33 3e 11 53 bb be 10 a4 b0 3e
       -0.05405426 0.17492488 -0.36586812 0.3450017
000370 f2 82 22 3e c9 88 b9 3e 29 d8 a9 3b a4 d9 74 3e
       0.15870264 0.3623717 0.005183239 0.23911148

col_embedding.1.bias f4 [32]
000000 de 0a 88 be 87 88 30 be 6f ec 9e bd b5 f1 92 be
       -0.2657079 -0.17239581 -0.0775994 -0.28700033
000010 85 36 9a be 16 1e 8b 3e 7a ba 48 be 6c 78 24 be
       -0.3011972 0.2717139 -0.19602385 -0.16061562
000020 92 33 23 bd ae 95 14 bd 53 e7 c5 3d da 9f 8a 3e
       -0.039844103 -0.03627556 0.09663262 0.27075082
000030 84 1c 6d 3d 8e 94 2e be c7 4d ff 3d 4c e9 c0 be
       0.057888523 -0.17048857 0.12466007 -0.3767799
000040 71 59 b5 3e 4a 0b ba 3b d4 b0 53 be eb f5 25 bd
       0.354198 0.0056776153 -0.20672923 -0.04051773
000050 95 ba d3 bc a7 34 a9 be eb 63 8e 3e 2b 8a 9d 3d
       -0.025845805 -0.33047983 0.27810606 0.07692369
000060 25 07 b5 be f9 3c 9c 3e 92 51 8f be 83 d1 a7 bd
       -0.35357013 0.30515268 -0.2799192 -0.08194258
000070 44 5a e8 3d 3b 7b b5 3e e4 fe 51 bd fa c7 ab 3e
       0.11345342 0.3544558 -0.051268473 0.33551008

col_embedding.3.weight f4 [32, 32]
000000 cb 31 0b 3e cf de 02 3e 2c 87 e0 bb 10 35 10 be
       0.13593213 0.12780307 -0.0068520512 -0.14082742
000010 5f d4 9d 3d a9 16 02 bd 1b 2f 2b be ed d4 0b 3e
       0.07706522 -0.03175989 -0.16717188 0.13655443
000020 85 49 0d 3e 6d ca 18 3e 62 e2 c1 3d 5c 91 e1 3d
       0.13797577 0.1492097 0.09467007 0.11014053
000030 f1 fd 14 be 4a d0 cf bb f5 4a 6f 3d ff f4 94 3d
       -0.14549996 -0.0063419687 0.058421094 0.07273292
000040 bf 9c 62 bd 8c 83 17 bd 3c 94 06 be f0 52 21 be
       -0.055325266 -0.036990687 -0.13142484 -0.15754294
000050 c9 9e e9 3b 8e 71 30 3e 54 60 f4 bd b8 1f 28 3e
       0.0071295244 0.17230818 -0.11932436 0.1641835
000060 db 0f 23 be 0f f4 f6 bd fe b4 0f be 3a 94 01 be
       -0.15924017 -0.12058269 -0.14033887 -0.126542
000070 f0 00 15 3e ed 68 3f 3b 9a 0e 45 bd 0b ea 2e 3e
       0.14551139 0.0029206828 -0.04810963 0.17081468
000080 51 0e b2 3d 8f ed 0c be 00 b2 1a 3e af da b5 bd
       0.08694137 -0.13762496 0.15106964 -0.08879601
000090 2c cd c1 3d e2 da 4b 3d d9 09 69 3d e3 5d 49 bd
       0.094629616 0.04976929 0.056894157 -0.049161803
0000a0 da 0c 26 3e 8f aa 97 bb d6 b5 d7 3d 24 8d f5 3d
       0.1621584 -0.0046284865 0.10532729 0.11989811
0000b0 71 b4 1d be 0f 48 f8 bc 8b 9e cf bd 32 33 9b bc
       -0.15400864 -0.030307798 -0.101376615 -0.01894531
0000c0 11 e2 18 be fe 48 93 bc a9 ee eb bd f4 65 8b bd
       -0.14929987 -0.017979141 -0.1152013 -0.068065554
0000d0 20 41 c5 3d 34 d7 70 bc ff 6a 27 3e 58 45 74 3d
       0.09631562 -0.014699746 0.1634941 0.059636444
0000e0 3c a8 6a 3d 67 fa 3a 3d ff d0 34 be 92 c4 2d 3e
       0.057289347 0.04564896 -0.1765785 0.16969517
0000f0 90 35 ea bb a2 06 30 be df 3a d3 bb 39 c0 b5 bd
       -0.0071474984 -0.1719003 -0.006446227 -0.08874554
000100 06 f8 73 bd 3a dd 37 bd f6 ca bb bc 51 8b d8 bd
       -0.059562705 -0.044888712 -0.022923928 -0.105734475
000110 f2 06 d3 bd 03 21 7f 3d 9c 60 20 3e 40 a8 33 3e
       -0.10304059 0.06228734 0.15661854 0.17544651
000120 68 41 a4 bd ef 2a 22 be 92 79 0f bd 2c d5 66 bc
       -0.08020288 -0.1583669 -0.035028048 -0.01408891
000130 2f fe 1e be 39 e3 06 be ef 17 39 bc 42 31 90 3d
       -0.15526651 -0.13172616 -0.01129721 0.07040645
000140 85 9d 85 3a 74 b2 57 bd 0d 83 c5 bc 8a e1 25 3e
       0.0010194039 -0.05266042 -0.024110341 0.16199318
000150 a9 38 99 3d 83 74 cb bd 9d 1b d7 3d 84 cf f4 3d
       0.0748151 -0.09934332 0.10503314 0.11953643
000160 fe 4b c6 bd f1 28 0c bd 92 89 e0 3d 45 6b 97 3b
       -0.09682463 -0.034218732 0.109637395 0.004620942
000170 99 9d e7 3c d7 5b 20 bd 94 6b 2b bd fd 52 ac 3d
       0.02827339 -0.039150085 -0.04185064 0.08414266
000180 be ed d9 3d 5e a2 35 bd 10 ff b1 bc 43 b1 d5 3c
       0.10641049 -0.0443443 -0.021728069 0.026085502
000190 9a 53 a1 3d fc 7b 2f be 1c a8 90 bd 68 03 d7 3d
       0.07877274 -0.1713714 -0.07063314 0.104986966
0001a0 0d e9 1e 3e 17 ae 2d be e1 dd 27 3d bc d7 40 bd
       0.1551859 -0.16960941 0.040983085 -0.04708074
0001b0 5f 08 84 3d 6b 40 11 bc 37 cf 99 bd 47 e8 14 be
       0.06446909 -0.008865456 -0.07510226 -0.14541732
0001c0 4b a2 4f bd d8 09 15 3d 38 52 4d bd e8 73 f4 3b
       -0.050691884 0.03638634 -0.050127238 0.007460106
0001d0 a4 09 7a 3d 8e d6 eb 3d 23 69 f6 3d cf cd 81 3d
       0.06104435 0.115155324 0.12031772 0.06338083
0001e0 3e 7c e7 3d eb d5 1b be f8 4f f4 3d 68 76 c3 bc
       0.11302994 -0.15218322 0.11929315 -0.023860171
0001f0 47 69 f6 3d 29 a2 0b 3e 0f f7 0f 3e 23 b3 87 3d
       0.12031799 0.13636078 0.14059089 0.066259645
000200 0c fb d8 3d 75 bc 76 3d 2c 08 01 3d d6 54 b6 bd
       0.105947584 0.06023832 0.031501934 -0.089029
000210 ff 01 15 3c 0b b9 10 3e aa 91 14 bd 86 ca eb bc
       0.009094714 0.14133088 -0.03627173 -0.028783094
000220 2f 44 09 3e d4 de ca 3d 75 26 a8 bd 4e 40 24 be
       0.13404916 0.09905782 -0.0821046 -0.16040155
000230 1c 4f 96 3c 14 98 09 be a1 86 06 be 11 c0 12 3e
       0.01834827 -0.1343692 -0.13137294 0.1433108
000240 24 25 d2 3d 2f 8b 28 be a8 bb bb bd 6f 2d c7 3d
       0.1026099 -0.16459344 -0.09166652 0.09725463
000250 32 d7 05 be af 48 96 3d a5 c4 fa 3c a9 63 fa bd
       -0.13070372 0.07338082 0.030611346 -0.1222604
000260 d7 89 d7 3b b1 8b 71 3d 73 e7 2d 3e 2c 92 d7 3d
       0.006577711 0.05897111 0.16982822 0.10525927
000270 b1 f3 ce 3c 16 fd 8d bd 1c da 23 be 80 c5 ba 3c
       0.025262685 -0.06933038 -0.16001171 0.022799253
000280 c9 1c d8 3c d3 32 8d 3d d1 b7 67 bd 61 d4 07 be
       0.026380913 0.068944596 -0.056571785 -0.1326461
000290 36 66 e5 3d 29 e8 bb 3d 44 43 5f bd 44 b0 07 3e
       0.11201136 0.091751404 -0.05450751 0.13250834
0002a0 bb 73 1c 3e 14 ef d5 3d b8 97 ba bd 76 db ed bd
       0.15278523 0.10445991 -0.09110969 -0.116141245
0002b0 0d c9 cc bd 5d 40 13 3e 5a 43 ec bd d3 d9 4c 3d
       -0.09999285 0.14380021 -0.11536284 0.05001242
0002c0 de 37 3e bd ba 9c d0 bd c3 93 0d 3e e1 0a 35 3d
       -0.046439998 -0.10186143 0.13825898 0.044199828
0002d0 f2 84 9a bd df c6 42 bd 7c 4a 00 3e ae 83 97 bc
       -0.075448886 -0.04755294 0.12528414 -0.018495407
0002e0 44 f7 4a 3d cb 4a 0d be e1 c6 8a bd 23 0c 43 bd
       0.049552217 -0.13798063 -0.067762144 -0.047618996
0002f0 9b df 15 3e 88 be 21 be 89 57 b3 3d 75 d9 34 3c
       0.1463608 -0.15795338 0.087569304 0.011038174
000300 92 07 3e 3d 0f 5d 7b bd 51 d3 ef 3d b4 e4 45 ba
       0.04639394 -0.061368044 0.11710227 -0.0007549033
000310 73 a1 e6 bd 65 1b 81 bc 43 a1 a2 3d 2c b2 f8 3d
       -0.11261263 -0.015760133 0.079409145 0.121433586
000320 44 ad 31 3e 3c dc 24 3e e1 b9 ea bc ab 6e c2 bd
       0.17351252 0.16099638 -0.028653087 -0.094937645
000330 5d 51 a8 3c ca c1 22 be 09 db 01 3e 1c 66 b3 3b
       0.02054661 -0.15894237 0.12681212 0.005474819
000340 64 6b 30 3e fe 1a 95 bd 3d 7e cc 3d 3a 01 20 3e
       0.17228466 -0.07280539 0.099850155 0.15625468
000350 82 a9 e5 bc d6 9b cf 3d bd 2f ec bd 68 42 22 3e
       -0.02803493 0.10137145 -0.11532543 0.15845644
000360 92 56 2e 3d f7 db 10 3e c0 98 b5 3c 3d 40 69 bc
       0.04256303 0.1414641 0.022167563 -0.014236507
000370 10 36 45 3d 7b a4 f8 3d c5 40 ec 3d ed f0 f7 bd
       0.04814726 0.12140747 0.11535791 -0.121065
000380 58 04 f8 bd 9f 03 af 3d b9 ad 2b 3e dc f5 15 3e
       -0.121102035 0.085456125 0.16765489 0.14644569
000390 e2 b9 d0 bd 84 98 c8 3c 0e 89 75 bc 41 0a 1a be
       -0.10191704 0.024486788 -0.01498629 -0.15042974
0003a0 c3 75 11 3e 42 0a 27 3e 73 4e 3d 3d 01 c6 e4 bd
       0.14205079 0.16312507 0.046217393 -0.11170579
0003b0 89 5c 8f bc d3 cf fa 3d 9b de ca bd 9f 82 3c bd
       -0.017500179 0.122466706 -0.0990574 -0.046023007
0003c0 fe bf b0 bd 54 f0 0b 3c ac 61 9c bd 44 37 f5 bc
       -0.086303696 0.008541185 -0.07635817 -0.02993358
0003d0 91 1a 4d bd b7 a8 d8 3d 82 6a af bd 86 ec 42 3d
       -0.050074164 0.10579055 -0.08565237 0.047588848
0003e0 29 10 0f 3e 07 76 12 3e 40 da 1c be 9c 68 5c bd
       0.13971008 0.14302836 -0.15317631 -0.0538107
0003f0 f0 a8 be bd 49 5a 0c be dc bb 65 3d 8a aa f9 3d
       -0.09309566 -0.13706316 0.05608736 0.12190731

col_embedding.3.bias f4 [32]
000000 d5 5b 3c bd 78 30 1a 3e ce 6c c7 bd c9 6f f5 3d
       -0.045986015 0.15057552 -0.0973755 0.11984212
000010 c2 6c c3 bc 3b b1 1c 3e 8a b3 d6 3d 42 0d 01 3d
       -0.02385557 0.15301983 0.10483463 0.031506784
000020 73 52 12 3e 1a a0 11 3e 67 1d 07 3e 42 95 07 3e
       0.14289264 0.1422123 0.1319481 0.13240531
000030 0a b2 ab bd 16 68 21 3e b7 75 8a 3d 63 20 a6 bc
       -0.08383568 0.15762362 0.067607336 -0.020279115
000040 f3 cd bf bd 0e 46 ac bd 5c dd ec 3d 95 72 12 3e
       -0.093654536 -0.08411799 0.115656585 0.14301522
000050 3b fb ba 3d 62 06 ca 3d 59 7c fc bd db fe 1a 3e
       0.0912995 0.09864499 -0.12328405 0.15136282
000060 64 1d 0e 3e 28 33 86 bd 24 fb 0a 3e 55 64 bf 3d
       0.13878399 -0.06552726 0.13572365 0.09345309
000070 99 95 bc 3d 4c dd f5 3c 7e ce b7 bd 19 db 9a 3d
       0.09208221 0.03001275 -0.08974932 0.07561321

conv_col_to_row.feature_module_left.0.weight f4 [32, 32]
000000 ef 51 c7 3c 1a c7 1e be a5 27 51 bb 23 4a 2d 3d
       0.024331061 -0.15505639 -0.00319145 0.04230703
000010 86 3b 05 bd 08 79 ef bd cf a1 8b 3c ed c5 5f bd
       -0.03252747 -0.11693007 0.01704493 -0.054632116
000020 0d 4d 22 3e ec 60 1e 3c a6 c7 9a bc d1 6c 04 3e
       0.15849705 0.009666663 -0.018894028 0.12932135
000030 96 6b c5 ba 78 6a 4f bd 53 d7 95 bc 0c 9f 3d bc
       -0.001506197 -0.050638646 -0.018291151 -0.011573564
000040 b4 69 35 bc 69 c7 0e be 77 18 04 3e 11 66 00 3d
       -0.011072565 -0.13943256 0.12899958 0.031347338
000050 15 be bd bd ce b1 d9 bd 25 f9 a5 3d b1 08 9c 3d
       -0.09264771 -0.10629617 0.08104161 0.07618845
000060 a2 32 c1 3d 7a c4 d9 bd 79 e5 25 be 82 24 07 be
       0.094334856 -0.10633178 -0.16200818 -0.1319752
000070 d5 bd ff 3d f0 a3 44 bd 7a a6 63 bd a5 bd d0 bd
       0.124873795 -0.048007905 -0.055578686 -0.10192422
000080 ed 0f 05 3e 5d 83 92 3d 4e 6b d2 3d 5d b8 ce bd
       0.12994356 0.07153962 0.10274373 -0.10093758
000090 cd 1c 05 bd d1 c9 23 3e e9 07 cc bc 78 3b 33 be
       -0.03249817 0.15994956 -0.024906116 -0.17503154
0000a0 1e 82 b9 bd 14 e4 97 3b 6f dd ed 3d d5 44 fb 3c
       -0.09058021 0.0046353433 0.11614501 0.03067247
0000b0 1e 83 1e 3d 06 8b 00 be 7e ed fc 3c 5b 4e 75 3c
       0.03869926 -0.12553033 0.030874964 0.014972295
0000c0 00 78 01 3e 7a 5c 07 be be cf d4 3c 4c ad d9 bd
       0.12643433 -0.13218871 0.025977965 -0.10628757
0000d0 5c 13 1d bd c9 5b ae 3d c9 cb 35 be 3c 63 dc 3d
       -0.03834854 0.085136004 -0.17753519 0.10761115
0000e0 40 94 28 be 01 fd 1a 3d 4d cd a2 3d 19 86 d3 3d
       -0.16462803 0.03783894 0.07949314 0.103283115
0000f0 2d 87 c5 bd 33 b1 dd bd 8b 93 b7 3d bc 83 86 bc
       -0.09644923 -0.10824814 0.089636885 -0.016420238
000100 c5 fa e8 3d a0 25 dd bd 6e 7f dc 3c a0 e1 89 3d
       0.113759555 -0.10798192 0.026916232 0.06732488
000110 7a b3 b9 3c d7 10 03 3e c1 4b 05 be 8b a7 2a 3e
       0.022668589 0.12799393 -0.13017179 0.16665475
000120 b3 23 ee bd 1e c6 d9 bd f5 df 03 3e c6 6c ae 3c
       -0.11627903 -0.10633491 0.12878402 0.021292102
000130 b7 5d 2c be a0 99 2a be e3 22 a7 bd 03 06 2a 3e
       -0.16832624 -0.16660166 -0.08160951 0.16603856
000140 b6 2e 26 3d 75 ef 05 be 86 16 2f 3e 6a 69 8c 3d
       0.04057189 -0.13079627 0.17098436 0.06856044
000150 6d 6e 9e bd 10 14 e6 bc 8a aa 4b bd e5 d2 33 3e
       -0.07735906 -0.028085738 -0.049723186 0.17560919
000160 49 df c3 3b aa b2 56 3d 32 d3 0f be 25 77 bb 3c
       0.0059775454 0.05241648 -0.14045408 0.022883961
000170 2c e4 8b bd ad 6c 8b 3d fb f8 d2 3c 3c ae 31 bc
       -0.0683063 0.06807838 0.025753489 -0.010844763
000180 b0 2e 50 bd 87 9a 7c bd 9a 1b 49 3c f2 53 03 3c
       -0.050825775 -0.061670806 0.012274647 0.00801562
000190 23 c1 6c bc 4b a9 51 3d 77 45 93 bc 74 45 90 bd
       -0.014450344 0.05118684 -0.01797746 -0.07044497
0001a0 4d 62 0f 3e 2f 76 c2 bd a9 b6 fe bd 79 b5 1a 3e
       0.14002343 -0.09495198 -0.124371834 0.15108289
0001b0 7a 44 de 3c 26 33 09 bd 34 1c c5 bd fb 28 09 bd
       0.027132262 -0.033496045 -0.0962452 -0.033486348
0001c0 5c cb 08 be 16 bc 21 3d ab e4 9e 3c 1a f2 98 3d
       -0.13358825 0.039486013 0.019396147 0.07468052
0001d0 c7 8b 14 bd 88 4b 2c be fe 55 0a 3e a8 03 26 be
       -0.036266115 -0.16825688 0.13509366 -0.16212332
0001e0 a6 07 eb bd 49 bd c6 bb 85 7f d0 bd 96 ec bf bd
       -0.11476068 -0.006065045 -0.101805724 -0.09371297
0001f0 c7 93 f9 3d 26 b7 2e be 9e a3 ba bc 04 6d b7 3d
       0.121863894 -0.17062053 -0.022783097 0.0895634
000200 5c c9 19 be 77 71 a0 3d 08 d3 24 3e 8e b1 cf 3a
       -0.15018219 0.07834142 0.16096127 0.0015845762
000210 cf c0 be 3d a4 37 e5 bd 3e 1e 07 3e 1e d0 21 be
       0.09314119 -0.11192253 0.1319513 -0.15802047
000220 d2 d2 80 3d 40 e1 d0 3d 69 16 ac bd 23 1b d1 bd
       0.06290211 0.10199213 -0.08402712 -0.10210254
000230 bd c6 28 3d a2 cf 26 3e f7 58 a2 bd d5 4f 05 3e
       0.041205157 0.16290143 -0.07927125 0.13018735
000240 92 20 a6 bd 2d 26 de bb 7d d2 07 3e 99 7c 15 be
       -0.08111681 -0.0067794533 0.13263889 -0.14598311
000250 c8 d7 37 be 4a 57 01 bd d4 f3 04 3d d5 d7 b9 3c
       -0.17953408 -0.031577386 0.032459095 0.022685925
000260 b4 c3 33 be c7 ec a4 bd f8 0c 29 3d 29 cb df bc
       -0.17555124 -0.08052974 0.041272134 -0.027318554
000270 77 0c 1f be d2 46 65 3d b9 ec 3a 3d a6 e5 c5 bd
       -0.15532099 0.055975743 0.045635913 -0.096629426
000280 b1 94 de 3b 95 29 0c be d3 ec 22 3e 88 f4 a1 3d
       0.0067926277 -0.13687737 0.15910654 0.07907969
000290 78 a7 6e 3c 77 98 a7 3d 25 cd 57 3d c2 82 eb 3d
       0.014566295 0.08183377 0.052685875 0.114995494
0002a0 62 20 13 be 6d e0 08 bd e1 2e 89 3d e0 13 17 be
       -0.14367822 -0.033417154 0.066983946 -0.14753675
0002b0 a6 5b 0d bd 80 62 80 bd f2 5e a6 3c 28 e7 00 be
       -0.03451123 -0.062687874 0.020308945 -0.12588179
0002c0 1e ad 2a 3e 93 c6 02 be 99 a4 82 bd 70 42 d3 bd
       0.16667601 -0.12771063 -0.06379051 -0.10315406
0002d0 5e aa f1 3d de ed f6 3d b7 d3 58 3d bf b1 f9 3d
       0.11800073 0.12057088 0.052936282 0.121921055
0002e0 64 77 28 3e 9f 7d 07 bc 07 da c9 bd d1 35 11 3e
       0.16451794 -0.0082696965 -0.098560385 0.14180686
0002f0 af e6 86 3d 16 4b 0d be 2b 91 f4 3b f8 c4 31 3e
       0.06586968 -0.13798174 0.0074635944 0.17360294
000300 26 74 4d bd 3d 21 1f be 02 89 27 3e f2 16 e2 3c
       -0.050159596 -0.15540023 0.16360858 0.027598832
000310 e2 b2 93 3d 7a 6c 27 be 52 cc 17 3e 19 c9 e6 bd
       0.072118536 -0.16349974 0.14824036 -0.11268825
000320 fb 8f e4 3c 19 e7 aa 3d fe f9 6c 3c a5 ff 31 be
       0.027900686 0.0834486 0.0144639 -0.17382677
000330 d3 ef d2 3c 77 43 a0 bd 6c 6b 3c 3d 39 23 9e 3d
       0.025749123 -0.07825368 0.046000883 0.07721562
000340 c7 a5 be 3c 5f 14 cc bc b1 de 5f bd 3b 8d f9 3d
       0.023272408 -0.024912057 -0.054655734 0.12185141
000350 bb bb 9c bd 48 39 6d 3d 83 e6 cf bd 08 e1 90 bd
       -0.07652994 0.057915956 -0.101513885 -0.07074171
000360 28 09 de 3c 7c 1e 0d be f7 22 47 3d d0 d9 4c bd
       0.027103975 -0.1378116 0.04861733 -0.05001241
000370 3c 8f 2c 3e e0 0a 9a 3b f1 8e 15 be 68 8a ff 3d
       0.16851515 0.0047010034 -0.14605309 0.12477571
000380 be c6 00 be 7c 02 16 3c 90 a9 12 bc d7 e1 fc bd
       -0.12575814 0.009155866 -0.00895156 -0.12347763
000390 5b 20 13 3e 75 5a ce bd 17 5e d9 3c 02 34 15 3e
       0.14367811 -0.10075847 0.026534123 0.1457062
0003a0 3a 3e 0a 3e be 14 20 be 1a c0 15 3e 8e bb 9c bd
       0.135003 -0.15632913 0.14624062 -0.07652961
0003b0 ae 5b 95 bb 74 59 c7 bd 36 6a 84 3c 53 17 cc 3d
       -0.004558048 -0.09733859 0.016163927 0.09965386
0003c0 73 1e 06 be 1b be 43 bb 4c 46 2f 3e 96 58 e8 3d
       -0.13097553 -0.002986795 0.1711666 0.113450214
0003d0 d7 04 24 bd f4 f9 17 be 7d 4d 2a 3b e0 6c 85 bd
       -0.040043678 -0.14841443 0.0025986128 -0.06514907
0003e0 d3 a5 b6 3d 65 a3 f0 3d 6e f8 ed bd 23 9a e0 ba
       0.08918347 0.11749915 -0.1161965 -0.001713578
0003f0 39 17 fe 3d 53 d7 a6 3d 23 57 18 be 8d eb 17 be
       0.12406773 0.081465386 -0.1487699 -0.14835949

conv_col_to_row.feature_module_left.0.bias f4 [32]
000000 5f 91 da 3d 1a 84 03 3e b8 6e df bd c1 ff 86 3d
       0.106722586 0.12843361 -0.1090979 0.0659175
000010 aa ff a2 bc 4d b9 e6 3d f7 44 b2 bd e4 36 32 3e
       -0.0198973 0.11265812 -0.0870456 0.17403752
000020 aa 3a 74 bd 3a c8 14 be bc 30 dc bd 73 5a 1b be
       -0.05962626 -0.14529505 -0.10751483 -0.15171222
000030 4c d4 17 3d 3e ec 8f 3d a4 fb 27 be 04 6c 1b be
       0.037067696 0.070274815 -0.16404587 -0.15177923
000040 8a d4 b3 3d 25 5a 05 3e 1a 11 d1 3c df be 19 3d
       0.08780773 0.13022669 0.02552085 0.037535544
000050 96 dd 3e 3d 89 c1 b0 3d f1 dd 25 3e 29 47 b4 bd
       0.04659804 0.08630664 0.16197945 -0.08802635
000060 02 2f ba 3d 12 82 58 bd 37 0e 00 3e 69 bb 2e be
       0.09090997 -0.05285842 0.12505423 -0.17063679
000070 d5 d4 d0 bd 55 15 8c bd bf 99 69 bd 9d e4 2b be
       -0.101968445 -0.06840006 -0.05703139 -0.16786428

conv_col_to_row.feature_module_edge.0.weight f4 [32, 1]
000000 93 51 0b 3f 93 09 1c 3f 4d 84 c0 3d 02 df aa 3e
       0.5442135 0.6095211 0.09400234 0.33373266
000010 99 b9 ae 3d 60 c1 e8 3e dc 0d 3b bf 57 e2 a8 be
       0.08531494 0.45460033 -0.7306802 -0.32985184
000020 33 57 02 bf c1 c5 54 3e 30 0b 69 bf 7d d0 56 bf
       -0.50914305 0.20778562 -0.91032696 -0.8391188
000030 1c be 53 bf 53 dd 07 3e a2 51 08 bf d0 f7 b4 3d
       -0.8271196 0.13268022 -0.5324956 0.08836329
000040 51 ae 7f bd 5a f6 14 be fd 6c 31 3f ca f9 27 3f
       -0.0624221 -0.145471 0.6930693 0.6561552
000050 65 b0 3a bf cc 69 1c 3c 71 ee 50 bf 2d 12 30 bf
       -0.72925407 0.009546708 -0.8161383 -0.68777734
000060 4b 14 2f 3f f2 0c d1 3e 72 ac 29 bf e5 ee 26 3f
       0.6839034 0.4083019 -0.66278756 0.65208274
000070 ca 01 1e be c3 e1 15 3e c4 94 87 be fb d8 6b 3f
       -0.1543037 0.14636903 -0.26480687 0.9212796

conv_col_to_row.feature_module_right.0.weight f4 [32, 32]
000000 c7 91 7f bd 1a d3 a1 3d d9 19 cf bd 10 bf f2 3d
       -0.062394883 0.079015926 -0.10112352 0.118528485
000010 5f ac b0 bd 32 e4 f1 bd ed 70 5b bc 49 91 f5 3c
       -0.08626627 -0.11811103 -0.013393623 0.029976504
000020 38 bb dc 3b 72 53 d4 bd 7d f4 bf bd 4e f6 75 3d
       0.0067361854 -0.103674784 -0.09372804 0.060049348
000030 dd 8c cf bd 09 33 9e 3b 11 96 9b 3d 86 38 91 3c
       -0.101342894 0.004827861 0.07596982 0.017727148
000040 fc 6c 36 3e b5 9e 26 3e d6 b2 ad 3c 3f 02 0a 3e
       0.17815012 0.1627148 0.02120344 0.1347742
000050 be cd 2a be 58 64 17 3d 48 b0 31 3e ba eb 76 bd
       -0.16680047 0.03696093 0.17352402 -0.0602834
000060 8e 94 8b 3d 0a fb 21 3d 14 ec 0c 3e f4 e1 c9 bd
       0.06815444 0.03954605 0.13761932 -0.0985755
000070 9c ff ee bd f5 df c9 3b 7e 97 e6 bd f8 81 17 3e
       -0.11669847 0.006160731 -0.112593636 0.14795673
000080 25 81 1f 3e ea 9e bc 3d 68 d1 95 bc 80 4c 34 3e
       0.15576608 0.09209998 -0.01828833 0.17607307
000090 11 04 1f be bc 48 33 3e bc e0 9f bd d9 7b 16 3e
       -0.15528895 0.17508215 -0.078065366 0.14695682
0000a0 bf d7 de bd 7c 6f c3 bd 45 d6 da bd 4d 1d b7 3d
       -0.10880994 -0.09542748 -0.106854 0.089411356
0000b0 60 da 0c 3d e5 04 d0 3d 18 31 b8 3b b6 ef 6f bd
       0.034387946 0.101571836 0.005621087 -0.058578216
0000c0 91 84 0c 3e 80 3a 10 be 73 39 9a 3d 38 da 19 be
       0.13722445 -0.14084816 0.07530489 -0.1502465
0000d0 3d 95 28 3e 75 91 3f 3c e9 9a 74 bd b9 6b 0a 3e
       0.1646318 0.0116923945 -0.059718046 0.13517655
0000e0 24 1b 19 be f5 b2 c9 bd 04 db 11 be c0 22 6c bd
       -0.1495176 -0.098485865 -0.14243704 -0.057650328
0000f0 63 54 9b bd 8e 46 c9 3d 1f dc 18 be 33 66 89 3b
       -0.07584455 0.0982791 -0.1492772 0.0041930913
000100 94 d2 0d 3e 98 e6 1c bd 0f 68 76 bd ad 64 a2 bd
       0.1384986 -0.03830585 -0.06015783 -0.07929359
000110 fe 1a b7 3d 0f 02 e8 3d ac a5 07 be cd cd bf bc
       0.08940695 0.11328518 -0.13246793 -0.023413563
000120 16 c2 19 be e2 74 57 bd 5a a0 a6 3c c2 d5 c5 3c
       -0.15015444 -0.052601703 0.020340133 0.02414978
000130 58 fc 02 3e d9 0b f6 3d a1 bb 53 3d 44 aa 24 be
       0.12791574 0.120139785 0.05169261 -0.16080576
000140 79 74 3c bd 9e d7 33 3e 12 fa 66 bd 73 4c 33 3d
       -0.046009514 0.1756272 -0.05639083 0.04377408
000150 59 81 df 3c b0 f7 c7 3d e4 bc b8 bd 09 d9 c9 bd
       0.027283357 0.097640395 -0.09020403 -0.09855849
000160 e0 a3 39 bd 04 22 ee 3d 83 5e 25 be 00 01 d2 bc
       -0.0453223 0.11627582 -0.16149335 -0.025635242
000170 8f db d3 3d 6e b0 0f 3e 41 ea 14 3d 1a 6e b2 bd
       0.10344612 0.14032146 0.036356214 -0.087124065
000180 21 8f 23 3d 70 75 08 be bd 6f 30 be 27 51 09 3e
       0.03993142 -0.13326049 -0.17230125 0.13409863
000190 b2 a3 33 be 60 9d 06 be 0a 03 28 3e 04 62 81 3d
       -0.17542914 -0.13145971 0.1640741 0.06317523
0001a0 b7 5c db bd 96 40 02 be 36 69 1a be e5 5e 06 bd
       -0.10711043 -0.1271995 -0.15079197 -0.032805342
0001b0 b1 ea da bd 63 d6 a7 3d 4b b8 f8 bd 63 20 8c bd
       -0.10689295 0.08195188 -0.12144526 -0.06842115
0001c0 70 63 59 bd 12 b4 5f 3d be c7 9b bc 80 e0 f8 bc
       -0.053073347 0.054615088 -0.019016143 -0.030380487
0001d0 79 73 a3 bd cb f9 2d be 26 81 2d 3e 30 03 14 3e
       -0.07981009 -0.1698982 0.16943797 0.14454341
0001e0 33 16 7a 3d 03 b2 42 bc be 18 02 3e e0 78 3f bd
       0.061056327 -0.011883262 0.12704751 -0.046746135
0001f0 8b de ae 3b ca 97 e5 3d be 03 df bd fd 6c e8 3d
       0.005336588 0.11210592 -0.10889386 0.11348913
000200 1b d8 ae bd 48 57 09 be 86 1e 30 3e fa 07 94 bd
       -0.085373126 -0.13412201 0.17199144 -0.07228084
000210 19 ad 96 bd 20 a3 6f bd a0 e9 fd 3c da 18 70 bc
       -0.073572345 -0.058505177 0.03099519 -0.014654363
000220 d0 7e 18 be 08 e8 25 be 7d bf d6 3d dd 0e 97 3d
       -0.14892125 -0.16201794 0.10485742 0.07375882
000230 82 50 0a 3e f7 58 27 be 5c 53 9a 3c 51 44 11 3e
       0.13507274 -0.16342531 0.018838577 0.14186217
000240 2b 5c a4 bd c1 52 f7 3b a9 b0 ec 3a 69 30 20 3e
       -0.08025392 0.007547707 0.001805802 0.15643467
000250 31 53 0d be d8 8f 0c bd 75 62 83 3d 16 05 b6 3b
       -0.13801266 -0.034316868 0.064152636 0.0055548055
000260 e3 9e 1a 3d 55 8f df bd 78 d9 17 be b8 0d 21 3e
       0.037749182 -0.1091601 -0.14829051 0.1572789
000270 59 86 51 3c 39 3e 8f bd f4 a8 74 bb 93 7c 4b 3d
       0.012788379 -0.0699429 -0.003733215 0.04967935
000280 58 ff a3 3d ee 73 1d 3e 63 ef 2a be 08 f3 0f be
       0.08007687 0.15376255 -0.16692881 -0.14057553
000290 9f 06 7d 3d 1d c2 bd bd 8f 44 59 3d df 4a 31 3e
       0.061773892 -0.0926554 0.0530439 0.17313717
0002a0 02 05 92 bd f2 db 1c 3e f4 cf 88 3d f0 ef ce 3d
       -0.071298614 0.15318277 0.06680289 0.10104358
0002b0 07 1d 28 3e 69 4d 30 3e 27 a3 e2 3d eb 74 b9 3d
       0.16417323 0.1721703 0.11066275 0.090555035
0002c0 92 43 7d 3d 32 26 13 3e f9 f1 2c 3e 5c 7d 16 be
       0.06183202 0.14370039 0.1688918 -0.14696258
0002d0 cf 3b 01 3e 28 9f e0 3d 0c 75 bb 3d 9f 8c af 3d
       0.12620471 0.10967857 0.09153184 0.08571743
0002e0 a9 ba b5 bd 11 f7 b9 3d f1 48 e4 3d bb e5 34 3d
       -0.08873493 0.09080327 0.11146725 0.0441644
0002f0 9e 49 1b 3d 80 5e f8 bd 02 d4 21 be 53 10 70 bd
       0.037912004 -0.121273994 -0.15803531 -0.058609318
000300 1c ce 1d 3e 36 5e f6 3b 0c 48 6b 3d 27 55 7f 3d
       0.15410656 0.007518555 0.057441756 0.062337067
000310 79 d5 d4 ba 79 02 df ba 0d 1e 78 bc 3d ea e9 bd
       -0.0016237936 -0.0017014287 -0.015143883 -0.114216305
000320 24 7c a8 3d bd cd ca bd f7 1a 58 3d 94 e7 9b bd
       0.08226803 -0.09902523 0.05276009 -0.076125294
000330 6f 6a 5c bd 6f 0d 25 bb ec 83 a3 bd 4f 1d f1 bd
       -0.05381244 -0.002518501 -0.079841465 -0.11773168
000340 73 81 0c be a5 1b 72 3d 7b 3e ff bd 43 b1 2e be
       -0.13721256 0.059108395 -0.12463089 -0.17059807
000350 dc 1c d7 bd 28 fb 05 3c b6 f9 0c 3c ce 37 f1 3b
       -0.10503551 0.008177556 0.008604458 0.0073613888
000360 60 39 4e 3d 5c d5 aa bd 2c d2 c9 3d 6e 9b e1 3b
       0.050347686 -0.08341476 0.0985454 0.0068849837
000370 81 df 0c 3e cd c9 e0 3c 81 a1 74 3d 96 36 ff bd
       0.13757135 0.027439976 0.059724335 -0.12461583
000380 43 52 0c 3e d8 56 aa bc c2 74 98 bd 82 8e 16 3e
       0.13703255 -0.020793363 -0.07444145 0.147028
000390 41 ec 5e bd 3c eb e0 3d 45 69 14 3c 24 38 24 3b
       -0.054424528 0.109823674 0.009058301 0.0025057876
0003a0 4b 12 19 3e 1f 5d ca bd c9 df dc 3c a1 47 a2 bd
       0.14948384 -0.09881043 0.026962178 -0.079238184
0003b0 69 4d e0 3d df de 0a 3d 37 53 c2 3d 2d bb da 3d
       0.10952265 0.033903953 0.09488528 0.10680232
0003c0 bc 46 65 bd a9 7d d1 bd cf b1 3c bd f9 2f a6 3c
       -0.05597566 -0.10229046 -0.04606801 0.020286547
0003d0 de 85 cc bd 51 06 d9 3d 58 38 c2 bd a1 32 aa 3d
       -0.09986471 0.10596908 -0.09483403 0.08310438
0003e0 6d a8 19 be bd 53 b5 bd 80 f0 d5 3c 0c 76 33 be
       -0.15005656 -0.088538624 0.026115656 -0.175255
0003f0 80 cd 16 3e 7b ec 1a 3e f5 0a a1 3d 70 26 db bc
       0.1472683 0.15129273 0.07863418 -0.026751727

conv_col_to_row.feature_module_final.0.weight f4 [32]
000000 f1 95 7f 3f 8e e1 7f 3f 00 00 80 3f 53 db 7f 3f
       0.9983817 0.99953544 1.0 0.9994404
000010 00 00 80 3f 7e fd 7f 3f 2c b2 80 3f b0 d2 7f 3f
       1.0 0.99996173 1.0054374 0.9993086
000020 35 c3 7f 3f 78 4c 80 3f ea 03 80 3f fa f8 7f 3f
       0.9990724 1.0023336 1.0001194 0.99989283
000030 f3 18 80 3f 08 06 80 3f 9f f0 7f 3f 86 88 7f 3f
       1.0007614 1.000184 0.99976534 0.99817693
000040 21 51 80 3f 5e 00 80 3f 42 0f 80 3f 85 11 80 3f
       1.0024759 1.0000112 1.0004656 1.0005347
000050 1a 5b 80 3f fc 17 80 3f 18 dc 7f 3f fe fb 7f 3f
       1.0027802 1.000732 0.9994521 0.99993885
000060 70 74 80 3f 1b 10 80 3f f2 5b 80 3f 00 00 80 3f
       1.0035534 1.0004915 1.002806 1.0
000070 00 00 80 3f 09 9d 7f 3f 00 00 80 3f 00 00 80 3f
       1.0 0.9984899 1.0 1.0

conv_col_to_row.feature_module_final.0.bias f4 [32]
000000 44 74 68 ba d5 58 36 ba 00 00 00 00 a7 37 27 ba
       -0.00088674226 -0.0006955986 0.0 -0.0006378837
000010 00 00 00 00 d3 89 48 b8 cc 91 93 3a a8 5a 08 ba
       0.0 -4.7812075e-05 0.0011258661 -0.0005201497
000020 b9 23 0e ba 76 b6 ee 3a 55 5b 01 3a 89 62 0e b9
       -0.0005422193 0.0018212337 0.0004934569 -0.00013578882
000030 d5 30 55 3a c1 12 5b ba 38 55 63 3a d3 70 76 ba
       0.0008132582 -0.00083569816 0.00086720614 -0.00094009674
000040 00 9e ed 39 6d 39 46 b8 65 e5 8c 38 fe c9 d6 3a
       0.00045321882 -4.726036e-05 6.718448e-05 0.0016387103
000050 44 6c 01 3b a0 5f 18 39 52 f0 71 39 3b 98 fb b9
       0.001974837 0.00014531473 0.00023073077 -0.0004798787
000060 7c 8c 46 3b 15 8b 17 39 f0 92 de 3a 00 00 00 00
       0.0030296138 0.00014452294 0.0016981047 0.0
000070 00 00 00 00 14 74 fa ba 00 00 00 00 00 00 00 00
       0.0 -0.001910808 0.0 0.0
