GNN/ResultsGCNN/actor_37.pt (torch, 83520 bytes, 43 tensors)

row_embedding.0.weight f4 [7]
1.0022243 1.0008249 0.99963194 1.0013479 0.99961126 1.0011946 1.0000767
00000000: e348 803f 081b 803f e1e7 7f3f 2b2c 803f
00000010: 86e6 7f3f 2527 803f 8302 803f

row_embedding.0.bias f4 [7]
-0.0018238187 -0.0010562525 -0.0003976018 -0.0014209949 0.00054073543 -0.0012425677 0.0003248585
00000000: 330d efba f471 8aba 3675 d0b9 ad40 baba
00000010: 24c0 0d3a a7dd a2ba c551 aa39

row_embedding.1.weight f4 [32, 7]
0.05319586 0.05360292 0.13780434 -0.3573467 -0.18314609 0.24065763 -0.08536185 -0.27104193
-0.063480966 -0.039776225 -0.10690536 0.19441503 0.0010556177 -0.08566489 -0.12605341 -0.29258117
-0.2834812 0.26145813 0.3171138 0.019556645 -0.20205632 -0.21014254 0.13017112 0.3174863
-0.35595372 0.02830332 0.0065312246 0.19567125 -0.13953252 -0.03262538 -0.307316 0.2092626
-0.20284742 -0.20185494 -0.1959181 -0.10675831 0.05356863 -0.012223205 -0.35388777 0.09831004
-0.20334001 0.31424242 -0.26869085 -0.3362569 0.2722108 -0.22475453 -0.313191 -0.05702905
0.01900717 -0.24352176 0.27012637 0.22837535 0.26131544 0.21257359 0.0327264 0.03509365
-0.1372119 -0.07583439 0.024689995 0.013148964 -0.13812423 -0.2075679 0.27691934 0.048980054
-0.34201208 -0.19929779 0.3635436 -0.18923007 0.25675836 -0.34942633 -0.26804507 0.3375906
-0.09524438 -0.006094547 -0.03934249 -0.2512898 0.25225562 -0.18180355 0.0127059715 -0.35619473
-0.075032264 -0.015202133 0.2584637 0.1358802 0.2889145 -0.07232005 -0.3090507 -0.10645384
-0.068886735 0.31736207 -0.22796628 0.2499572 0.21380354 -0.2187449 -0.24608526 -0.15462284
-0.14853394 -0.27042705 -0.36264178 0.0889885 0.09962065 -0.27999952 0.27319482 -0.14327554
-0.115502514 0.0678668 0.2858842 -0.32751742 -0.07140656 0.11837085 -0.30910778 0.2963218
0.14745712 0.32671446 -0.028390741 0.17456932 -0.2529319 0.35167938 0.09321318 0.19666813
-0.21697392 -0.26543364 -0.32390693 -0.3457699 0.0031792903 -0.0228075 -0.35204592 0.3424058
-0.17399743 -0.30199984 -0.1634708 0.31621176 0.087663166 -0.19681737 -0.16815022 -0.2412511
0.12489017 0.24803445 -0.19270754 0.3595744 0.3283935 0.12709391 -0.0095325 0.27491444
0.10448874 -0.3339122 -0.25683197 0.19816902 0.03263792 0.353315 -0.2714669 -0.28591895
-0.10661933 -0.22976466 0.28260997 0.032230556 -0.13352811 -0.049485043 0.03335445 -0.27470994
0.042289406 -0.24533956 0.059551112 0.13655865 -0.23234601 -0.2092163 -0.011722351 0.29770178
0.1891662 -0.08835833 0.33029428 0.0973389 0.36508054 0.26604217 -0.2618137 0.02294336
0.23076645 0.07624324 0.1196859 0.3121601 -0.277885 0.12687233 -0.117742345 -0.15696238
0.3388635 0.2701611 0.24726896 0.036748264 -0.29350534 0.3419283 0.10619164 -0.03892364
-0.28877416 -0.10819783 -0.32933113 0.29578573 0.32062465 0.073703095 0.31732646 -0.23989658
-0.21316622 0.18002573 0.36988854 -0.23647647 -0.30665207 0.12808986 0.11546163 0.26623264
0.05690668 -0.3780813 0.1516154 -0.18192557 0.19510707 -0.28045842 -0.2927282 0.033569925
-0.06380819 -0.3510148 -0.18664713 -0.31076193 0.10715141 0.10064496 -0.11952315 -0.31663606
00000000: e7e3 593d bc8e 5b3d 951c 0d3e 26f6 b6be
00000010: a68a 3bbe f46e 763e 32d2 aebd 02c6 8abe
00000020: 4f02 82bd 65ec 22bd 33f1 dabd bc14 473e
00000030: a75c 8a3a 1371 afbd 2514 01be 33cd 95be
00000040: 7324 91be d7dd 853e bd5c a23e 4235 a03c
00000050: dae7 4ebe 9b2f 57be 944b 053e 908d a23e
00000060: 913f b6be 5ddc e73c e203 d63b 0b5e 483e
00000070: 9de1 0ebe 31a2 05bd 8658 9dbe ef48 563e
00000080: 3cb7 4fbe 10b3 4ebe c19e 48be 1aa4 dabd
00000090: c86a 5b3d d643 48bc c730 b5be c656 c93d
000000a0: 5d38 50be 62e4 a03e d991 89be dd29 acbe
000000b0: 375f 8b3e 0d26 66be 925a a0be 4b97 69bd
000000c0: edb4 9b3c c55d 79be 014e 8a3e 3adb 693e
000000d0: 23cb 853e e4ac 593e 1e0c 063d 5cbe 0f3d
000000e0: 4781 0cbe 104f 9bbd ac42 ca3c c16e 573c
000000f0: 7070 0dbe ae8c 54be 5fc8 8d3e 4f9f 483d
00000100: 351c afbe b814 4cbe 6322 ba3e 87c5 41be
00000110: d575 833e 02e8 b2be 343d 89be add8 ac3e
00000120: 7c0f c3bd c4b4 c7bb 9725 21bd 0fa9 80be
00000130: a627 813e b62a 3abe b52c 503c 285f b6be
00000140: 84aa 99bd 5e12 79bc 5b55 843e 2e24 0b3e
00000150: 9aec 933e 891c 94bd e53b 9ebe 7904 dabd
00000160: 7d14 8dbd 487d a23e fe6f 69be c8f4 7f3e
00000170: 51ef 5a3e aafe 5fbe c6fd 7bbe 7355 1ebe
00000180: 4819 18be 6a75 8abe 2fac b9be 9a3f b63d
00000190: e905 cc3d 195c 8fbe 31e0 8b3e d3b6 12be
000001a0: 958c ecbd c0fd 8a3d 6a5f 923e 5db0 a7be
000001b0: 9a3d 92bd 6b6c f23d 6043 9ebe 7eb7 973e
000001c0: 00ff 163e 1e47 a73e b393 e8bc 4dc2 323e
000001d0: 4a80 81be 520f b43e 8de6 be3d 5f63 493e
000001e0: 692e 5ebe ebe6 87be 21d7 a5be c108 b1be
000001f0: a45b 503b cbd6 babc 5d3f b4be d04f af3e
00000200: 622c 32be b99f 9abe e464 27be 82e6 a13e
00000210: bf88 b33d 7e8a 49be 922f 2cbe 870a 77be
00000220: 6bc6 ff3d befc 7d3e 2055 45be 231a b83e
00000230: 3123 a83e e824 023e 342e 1cbc 96c1 8c3e
00000240: 31fe d53d 8af6 aabe 7b7f 83be d2ec 4a3e
00000250: 57af 053d b4e5 b43e b6fd 8abe f863 92be
00000260: 3c5b dabd 6d47 6bbe 41b2 903e 3004 043d
00000270: 98bb 08be d4b0 4abd ad9e 083d c8a6 8cbe
00000280: a837 2d3d 4b3a 7bbe deeb 733d 08d6 0b3e
00000290: 1dec 6dbe cc3c 56be 1b0f 40bc 5e6c 983e
000002a0: c9b4 413e 36f5 b4bd 551c a93e 9e59 c73d
000002b0: d6eb ba3e ae36 883e 720c 86be b7f3 bb3c
000002c0: 0a4e 6c3e 6a25 9c3d e21d f53d 73d3 9f3e
000002d0: f146 8ebe d2ea 013e e622 f1bd bfba 20be
000002e0: 847f ad3e 8e52 8a3e 1334 7d3e 5985 163d
000002f0: 5546 96be 3a11 af3e 017b d93d 656e 1fbd
00000300: 35da 93be d396 ddbd 179e a8be 3a71 973e
00000310: ea28 a43e a6f1 963d 9d78 a23e 73a7 75be
00000320: 3f48 5abe aa58 383e 0862 bd3e e326 72be
00000330: 8001 9dbe fd29 033e 2677 ec3d a54f 883e
00000340: fb16 693d df93 c1be 1141 1b3e b24a 3abe
00000350: 26ca 473e 3f98 8fbe 78e0 95be 9e80 093d
00000360: dead 82bd 36b8 b3be 6d20 3fbe 301c 9fbe
00000370: 3372 db3d f21e ce3d 8ec8 f4bd 1f1e a2be

row_embedding.1.bias f4 [32]
-0.05101642 0.25664687 0.11026237 -0.36910087 0.081059575 -0.12195129 0.018649673 -0.10709161
0.15168604 -0.20995903 -0.34991992 -0.026029864 0.31795332 0.15034316 0.34646863 0.099466905
-0.15905635 0.016890137 -0.1208347 0.30846402 0.28114307 -0.026361525 0.21118419 -0.09948726
0.3216135 0.20705391 -0.14814147 0.12554064 -0.29501233 -0.19628924 0.021585695 -0.21587922
00000000: 98f6 50bd 3867 833e 3dd1 e13d cafa bcbe
00000010: 9002 a63d 99c1 f9bd 33c7 983c d952 dbbd
00000020: 9653 1b3e 80ff 56be b428 b3be 953c d5bc
00000030: c7ca a23e 8ff3 193e 5664 b13e 4eb5 cb3d
00000040: abdf 22be 2f5d 8a3c 2f78 f7bd ffee 9d3e
00000050: fcf1 8f3e 20f4 d7bc ab40 583e fabf cbbd
00000060: 86aa a43e f105 543e 66b2 17be ba8d 003e
00000070: db0b 97be 0c00 49be 7cd4 b03c 710f 5dbe

row_embedding.3.weight f4 [32, 32]
-0.12295656 -0.04052624 0.07125609 0.01183672 0.10120937 0.0031337512 0.16324916 0.145669
0.10086316 -0.14607696 0.035013527 0.029901799 0.10037543 0.0013544954 0.13774845 0.15499754
0.15500024 0.03648973 -0.119285606 0.10484682 0.039951816 0.054357313 0.045330983 0.114241086
-0.16310957 0.10702511 0.1270511 0.15114838 0.017815173 -0.15432566 0.14730828 -0.028872142
0.03471356 0.027938444 -0.1779524 0.007882377 -0.017489677 -0.046450827 0.0775616 0.043114003
-0.09409127 -0.039346922 -0.10215551 -0.16066922 0.08666395 0.10262149 0.1570594 -0.16738553
-0.048281875 0.13068154 0.07824657 -0.1353591 0.12844807 0.1224442 0.13259356 0.12191947
0.13967064 -0.06993119 0.13892701 0.11276547 -0.13377167 0.056936312 -0.13672729 -0.09285989
0.014972945 0.16177057 -0.10590539 -0.14779213 0.17002974 -0.08385809 -0.16380809 -0.07176427
0.118918546 0.031957384 0.15958388 0.10393814 0.010510829 0.16342531 -0.08089943 0.08645149
-0.036505762 -0.018197155 0.042428985 0.12620632 0.15305153 0.050675903 -0.05262883 0.17020692
0.032825183 0.057034794 0.055438455 -0.16289744 0.16673918 0.16405424 0.12936257 0.15428655
-0.080141455 -0.03760586 -0.15431061 0.056965876 0.047303926 0.060119085 0.17032982 -0.023667457
0.08907967 0.116091035 -0.10769569 -0.030868748 0.12744336 -0.10320024 0.061697632 0.08941901
-0.019032847 0.16987358 -0.06849986 0.072752215 -0.039811213 -0.15882635 0.07389733 -0.066780835
-0.0029773393 0.15469152 -0.07929615 -0.06481057 -0.17440495 -0.12681575 -0.11497261 0.04481617
0.09182201 -0.028199445 -0.11438684 0.010363466 0.084144056 -0.06378921 -0.110048145 0.094000176
-0.17058061 0.07274158 0.13817163 -0.1732191 -0.049253102 -0.04001275 0.012110584 -0.17687714
-0.10894285 -0.102928944 0.068949774 0.062101085 -0.13636172 0.046798766 0.0068225847 0.06522328
-0.066057496 0.11949161 -0.081300266 -0.13435802 0.10646463 -0.17409807 0.12037106 -0.05012162
-0.08726509 -0.15942536 -0.03314835 0.061243523 -0.056245875 0.16317888 0.09268113 0.06056148
-0.16477668 0.0038441087 -0.12670322 0.046177898 -0.039336897 0.109424725 -0.002471702 -0.16361554
-0.097041495 -0.17561494 -0.044692665 0.0850422 -0.14448197 0.11751258 -0.17436425 -0.01320014
0.0005948395 -0.088530995 -0.15277126 -0.096792765 -0.1436452 -0.020046221 0.026842527 -0.16388138
0.08584424 0.12925938 0.121894315 -0.039675765 0.14055306 0.057637364 -0.12428793 -0.08054248
-0.15386184 0.0813532 0.12829517 0.066397816 -0.030299572 -0.14137831 -0.16524015 0.019693343
-0.023371404 0.13482292 -0.072966956 0.13675171 0.09521907 0.1123044 0.041061655 0.13511132
-0.08893904 -0.045134123 -0.08693688 0.014163879 0.16597347 -0.048068732 -0.034722723 0.10706667
-0.062362872 -0.042517245 -0.11906727 -0.1279686 0.036666445 0.13866809 0.13964245 -0.099997655
0.08872813 -0.10765036 -0.1735755 -0.0019193117 0.15271781 -0.019242503 -0.14648993 -0.05920902
0.06851853 0.1342612 -0.17452472 0.045020767 0.0612846 0.035875615 -0.17265803 -0.06143883
-0.030331787 -0.096919976 -0.13019243 0.032422636 -0.016016731 -0.008588691 -0.124295264 0.1419628
00000000: a6d0 fbbd d8fe 25bd b7ee 913d cdee 413c
00000010: dc46 cf3d 9f5f 4d3b ca2a 273e 412a 153e
00000020: 5891 ce3d 3395 15be 586a 0f3d 9ef4 f43c
00000030: a291 cd3d 5389 b13a ee0d 0d3e adb7 1e3e
00000040: 62b8 1e3e 4176 153d 034c f4bd eeb9 d63d
00000050: 84a4 233d c6a5 5e3d fbac 393d 3bf7 e93d
00000060: 3206 27be fb2f db3d af19 023e a4c6 1a3e
00000070: 20f1 913c 8c07 1ebe fbd7 163e 4585 ecbc
00000080: ce2f 0e3d 2adf e43c 2739 36be 1625 013c
00000090: 8346 8fbc 3943 3ebd 9ed8 9e3d 4f98 303d
000000a0: ecb2 c0bd 3d2a 21bd e836 d1bd 7986 24be
000000b0: de7c b13d 372b d23d 2ed4 203e 1d67 2bbe
000000c0: 37c3 45bd 62d1 053e bd3f a03d 939b 0abe
000000d0: e487 033e 06c4 fa3d 9bc6 073e eab0 f93d
000000e0: d205 0f3e 1538 8fbd e242 0e3e 95f1 e63d
000000f0: 71fb 08be 0d36 693d 3d02 0cbe 532d bebd
00000100: 1551 753c 2fa7 253e ede4 d8bd d256 17be
00000110: 471c 2e3e cabd abbd 4fbd 27be 25f9 92bd
00000120: 918b f33d bfe5 023d f569 233e 85dd d43d
00000130: 9d35 2c3c f758 273e 9aae a5bd 7b0d b13d
00000140: 1187 15bd 3312 95bc 04ca 2d3d 3b3c 013e
00000150: 8ab9 1c3e 8991 4f3d 5491 57bd b94a 2e3e
00000160: b373 063d 519d 693d 6f13 633d 96ce 26be
00000170: adbd 2a3e d6fd 273e 9f77 043e 4bfd 1d3e
00000180: 3421 a4bd 9a08 1abd 9a03 1ebe 0d55 693d
00000190: c3c1 413d 6e3f 763d f16a 2e3e 41e2 c1bc
000001a0: 676f b63d 23c1 ed3d 8f8f dcbd 75e0 fcbc
000001b0: 8380 023e a65a d3bd a8b6 7c3d 5021 b73d
000001c0: c6ea 9bbc 57f3 2d3e a849 8cbd 1dff 943d
000001d0: 1511 23bd 60a3 22be 7c57 973d 64c4 88bd
000001e0: 771f 43bb 7467 1e3e 0566 a2bd 67bb 84bd
000001f0: 3697 32be fddb 01be c276 ebbd 2991 373d
00000200: 2e0d bc3d 8602 e7bc a643 eabd 87cb 293c
00000210: b853 ac3d eba3 82bd ec60 e1bd 2a83 c03d
00000220: afac 2ebe 8af9 943d dd7c 0d3e 5960 31be
00000230: 9fbd 49bd 69e4 23bd 796b 463c 481f 35be
00000240: 6e1d dfbd 69cc d2bd 8a35 8d3d b55d 7e3d
00000250: 68a2 0bbe 10b0 3f3d fd8f df3b c893 853d
00000260: 2749 87bd 04b8 f43d c180 a6bd 2695 09be
00000270: 210a da3d c446 32be 1a85 f63d 544c 4dbd
00000280: 0ab8 b2bd 6740 23be 90c6 07bd 7dda 7a3d
00000290: 1362 66bd 5d18 273e 9bcf bd3d 500f 783d
000002a0: 38bb 28be 71ed 7b3b 7dbe 01be 0925 3d3d
000002b0: ba1f 21bd 121a e03d 47fc 21bb d58a 27be
000002c0: b1bd c6bd 67d4 33be a80f 37bd 9b2a ae3d
000002d0: 15f3 13be 6faa f03d 8b8c 32be 6645 58bc
000002e0: 01ef 1b3a bd4f b5bd 1270 1cbe 493b c6bd
000002f0: ba17 13be f937 a4bc dce4 db3c 85d0 27be
00000300: 1bcf af3d 925c 043e baa3 f93d 0e83 22bd
00000310: 24ed 0f3e 2815 6c3d ac8a febd 75f3 a4bd
00000320: f58d 1dbe 829c a63d cf5f 033e 94fb 873d
00000330: cf36 f8bc 7ac5 10be b734 29be ef53 a13c
00000340: 6375 bfbc 050f 0a3e b36f 95bd a408 0c3e
00000350: 3702 c33d d9ff e53d 4430 283d 9f5a 0a3e
00000360: ac25 b6bd 8fde 38bd f70b b2bd 9d0f 683c
00000370: f3f4 293e b8e3 44bd 6a39 0ebd c545 db3d
00000380: 3670 7fbd 9026 2ebd 8ad9 f3bd 330a 03be
00000390: 8e2f 163d 02ff 0d3e 6efe 0e3e 92cb ccbd
000003a0: 18b7 b53d cb77 dcbd c7bd 31be 6a91 fbba
000003b0: 0f62 1c3e 74a2 9dbc 7501 16be 2885 72bd
000003c0: 7153 8c3d c57b 093e 9cb6 32be b267 383d
000003d0: 9005 7b3d 4ff2 123d 44cd 30be 48a7 7bbd
000003e0: 5e7a f8bc fb7d c6bd 2a51 05be 99cd 043d
000003f0: 8535 83bc 95b7 0cbc 848e febd b25e 113e

row_embedding.3.bias f4 [32]
0.108584255 -0.052419122 -0.060142104 -0.04154867 0.015795993 -0.12979893 0.10760432 0.14233245
-0.06500195 0.10244403 0.13329014 0.09879168 -0.01931294 0.043215763 0.1045256 0.10587502
0.09616857 -0.073690094 0.04946942 0.09237032 -0.010167909 0.033225775 0.054838654 0.06511842
0.10378884 0.04162055 0.1646903 -0.05514209 0.0043043136 -0.00836635 -0.1492834 0.12018135
00000000: 6c61 de3d 6fb5 56bd 9157 76bd f02e 2abd
00000010: 9966 813c 03ea 04be a75f dc3d 99bf 113e
00000020: be1f 85bd 2dce d13d 367d 083e 4b53 ca3d
00000030: 2c36 9ebc 0303 313d 8511 d63d 01d5 d83d
00000040: 07f4 c43d d5ea 96bd 72a0 4a3d a62c bd3d
00000050: 4d97 26bc c017 083d 7f9e 603d ce5c 853d
00000060: 3e8f d43d 4f7a 2a3d 93a4 283e acdc 61bd
00000070: 330b 8d3b 0413 09bc bfdd 18be a421 f63d

col_embedding.0.weight f4 [7]
0.9984832 1.0001127 1.0000147 1.0001867 0.999091 0.99942183 1.0003607
00000000: 989c 7f3f b103 803f 7b00 803f 1e06 803f
00000010: 6ec4 7f3f 1cda 7f3f d20b 803f

col_embedding.0.bias f4 [7]
-0.0007101953 -6.507064e-05 -2.4996261e-05 -0.00019226747 0.0006256012 0.000614726 0.00042635895
00000000: 662c 3aba 8976 88b8 10af d1b7 689b 49b9
00000010: 63ff 233a 9025 213a ee88 df39

col_embedding.1.weight f4 [32, 7]
0.3533277 0.004731643 -0.00069211697 -0.17496441 0.27537543 -0.3644445 -0.10145351 -0.11623232
-0.25870222 -0.16412467 0.18577193 -0.21341018 0.005116704 -0.23629998 -0.19717143 0.013076154
0.2707832 -0.17689706 0.031535584 0.09015401 0.2101253 0.2844083 0.28193423 -0.103924476
0.05997336 -0.30930632 -0.018454801 0.1765731 0.14718911 0.32092565 0.2956391 -0.17914799
-0.066476636 -0.25152594 -0.3649983 -0.37686026 0.037823588 -0.07155187 0.241805 -0.22801809
0.16870934 -0.12084263 -0.033386644 0.3632909 0.37288868 0.20453821 0.23051012 0.036457498
0.17226037 0.07761437 -0.12329556 0.18509766 -0.35510212 0.070829906 0.072495595 0.13027821
-0.10960278 -0.18010633 -0.09309238 -0.012912098 -0.22351044 -0.154018 0.17720127 0.07583073
-0.32564908 -0.054199602 -0.02509313 0.16333503 0.30082542 -0.3778867 0.36436346 0.01802889
0.3627586 -0.12843552 -0.2860545 -0.23835339 -0.23415269 0.35800853 0.13265939 -0.26781312
-0.06526461 -0.17339002 -0.23113984 0.22073072 0.29330638 -0.29895213 0.024017941 0.247685
0.162083 -0.07286555 -0.22802702 -0.32503656 -0.20797731 0.013447369 -0.034560516 0.19991322
0.16691768 -0.008451515 -0.01597849 0.18781167 -0.18711224 0.21525426 0.31913617 0.22320908
0.086208396 0.045859378 -0.02756702 0.19840272 0.257728 -0.027415952 0.12710893 -0.2839002
0.18862355 0.27377802 -0.0007172478 -0.15362859 -0.09308439 -0.122661576 -0.34246722 0.3271242
-0.0121758785 -0.31952572 0.25756234 0.3181889 0.31227106 -0.23004764 -0.25691175 0.077291235
0.07010689 -0.22082724 0.06642994 0.2529295 -0.2769966 0.3709492 -0.34947613 -0.084315404
-0.056068186 0.08699915 -0.011915393 0.25206962 0.068916194 -0.16106299 -0.37271395 -0.29265618
0.20554912 0.15704471 0.20243587 -0.042976778 0.10830731 -0.32129878 0.010865556 -0.15605219
-0.25293916 -0.09003008 0.22571556 0.23052795 0.057198144 -0.06398803 -0.17421743 -0.015104287
-0.045570612 0.22594565 0.11414194 -0.2871142 -0.32097104 0.12470417 0.027642349 0.13674907
-0.16834326 0.16114154 -0.30643335 0.08612802 -0.25653943 -0.29801086 -0.078967355 0.27266204
-0.25963035 -0.26753527 0.18570535 -0.35304052 -0.008990914 -0.26483226 0.26937 -0.056860555
-0.09928575 -0.22892097 0.024141572 0.14354652 0.098106764 0.19651166 0.37138 0.18465742
0.31297332 0.07646852 -0.23241122 -0.29499322 0.35851893 -0.1369034 0.3267258 0.0518773
-0.13092744 -0.22288734 -0.34857175 0.017637111 0.10049286 -0.0058209794 -0.30420163 0.28220245
0.26477903 0.35737047 0.349351 -0.103623815 -0.1922726 0.1775469 0.009889482 0.14101043
-0.05449099 0.17466559 -0.3657915 0.34507132 0.15877935 0.36261228 0.005260428 0.23828937
00000000: 5ee7 b43e e60b 9b3b 2f6f 35ba df29 33be
00000010: 02fe 8c3e 7898 babe dcc6 cfbd 360b eebd
00000020: 9e74 84be 4c10 28be ff3a 3e3e 3388 5abe
00000030: 06aa a73b 9ff8 71be 4fe7 49be 5d3d 563c
00000040: 18a4 8a3e 8124 35be 752b 013d aaa2 b83d
00000050: 162b 573e f79d 913e af59 903e 5bd6 d4bd
00000060: a0a6 753d 665d 9ebe 862e 97bc 94cf 343e
00000070: beb8 163e 5e50 a43e 025e 973e 9272 37be
00000080: e724 88bd 02c8 80be 0fe1 babe d4f3 c0be
00000090: e8ec 1a3d c989 92bd bb9b 773e 937d 69be
000000a0: 24c2 2c3e 577c f7bd 6fc0 08bd 4401 ba3e
000000b0: 44eb be3e 7772 513e d80a 6c3e 7554 153d
000000c0: 0665 303e 48f4 9e3d 6282 fcbd 3e8a 3d3e
000000d0: f2cf b5be 450f 913d 9278 943d a767 053e
000000e0: 6c77 e0bd cb6d 38be 38a7 bebd 448d 53bc
000000f0: ecdf 64be e5b6 1dbe 4074 353e 244d 9b3d
00000100: 7abb a6be 6700 5ebd 1c90 cdbc 4c41 273e
00000110: ca05 9a3e 5e7a c1be d98d ba3e 53b1 933c
00000120: 7fbb b93e 9a84 03be bc75 92be e912 74be
00000130: b9c5 6fbe e54c b73e ddd7 073e cd1e 89be
00000140: 74a9 85bd 278d 31be ecaf 6cbe 3c07 623e
00000150: 412c 963e 4110 99be 46c1 c43c 23a1 7d3e
00000160: 16f9 253e 893a 95bd ea7f 69be 316b a6be
00000170: 01f8 54be 5b52 5c3c 548f 0dbd 0db6 4c3e
00000180: 78ec 2a3e 3978 0abc 52e5 82bc b451 403e
00000190: 5a9a 3fbe 9d6b 5c3e d165 a33e ec90 643e
000001a0: 078e b03d 0bd7 3b3d 3bd4 e1bc 152a 4b3e
000001b0: edf4 833e 6b97 e0bc d828 023e 5e5b 91be
000001c0: 8826 413e a22c 8c3e af05 3cba d050 1dbe
000001d0: 07a3 bebd fe35 fbbd dd57 afbe d37c a73e
000001e0: 567d 47bc e098 a3be 36df 833e a8e9 a23e
000001f0: fee1 9f3e 9c91 6bbe f089 83be de4a 9e3d
00000200: 3394 8f3d 8920 62be 6c0c 883d fa7f 813e
00000210: 80d2 8dbe 0eed bd3e 89ee b2be 8ead acbd
00000220: c1a7 65bd 9c2c b23d c838 43bc 450f 813e
00000230: ef23 8d3d b2ed 24be 5dd4 bebe 08d7 95be
00000240: 787b 523e 54d0 203e 594b 4f3e 6b08 30bd
00000250: 39d0 dd3d 4681 a4be 7205 323c 25cc 1fbe
00000260: 3e81 81be b161 b8bd fb21 673e 850f 6c3e
00000270: 9a48 6a3d 280c 83bd 0e66 32be f977 77bc
00000280: 40a8 3abd 4c5e 673e 40c3 e93d a200 93be
00000290: 5156 a4be e664 ff3d 3572 e23c f307 0c3e
000002a0: 2d62 2cbe 4a02 253e d5e4 9cbe e363 b03d
000002b0: 2359 83be e194 98be a3b9 a1bd 5c9a 8b3e
000002c0: 45ee 84be 62fa 88be 8b29 3e3e bac1 b4be
000002d0: a04e 13bc 1898 87be ddea 893e 9de6 68bd
000002e0: 5456 cbbd 426a 6abe 8cc4 c53c dcfd 123e
000002f0: 33ec c83d 5a3a 493e 8525 be3e d616 3d3e
00000300: 0a3e a03e 879b 9c3d 35fd 6dbe 5a09 97be
00000310: cb8f b73e 6830 0cbe 9b48 a73e 4b7d 543d
00000320: d811 06be 943c 64be ff77 b2be b47b 903c
00000330: 33cf cd3d eabd bebb 51c0 9bbe d77c 903e
00000340: 1e91 873e 43f9 b63e 22de b23e b938 d4bd
00000350: 1ce3 44be dbce 353e 7e07 223c 0a65 103e
00000360: f231 5fbd 89db 323e 0649 bbbe 30ad b03e
00000370: 0e97 223e 51a8 b93e ab5f ac3b 2102 743e

col_embedding.1.bias f4 [32]
-0.26485184 -0.17239581 -0.07782045 -0.2864652 -0.30062386 0.2713784 -0.19619837 -0.1607956
-0.040095404 -0.036155943 0.09704206 0.27052486 0.05774845 -0.16953184 0.12584083 -0.37616706
0.35389808 0.0054981164 -0.20673136 -0.040287778 -0.024870932 -0.33047983 0.2783558 0.0772489
-0.35357013 0.30539814 -0.27942866 -0.081865385 0.11346606 0.35423237 -0.05081815 0.33547592
00000000: a99a 87be 8788 30be 5460 9fbd 91ab 92be
00000010: 5feb 99be 1cf2 8a3e 3ae8 48be 9aa7 24be
00000020: 143b 24bd 4118 14bd fdbd c63d 3c82 8a3e
00000030: a489 6c3d c199 2dbe 6bdc 003e f898 c0be
00000040: 2132 b53e 8b29 b43b 63b1 53be cc04 25bd
00000050: 20be cbbc a734 a9be a784 8e3e ac34 9e3d
00000060: 2507 b5be 255d 9c3e 4611 8fbe 0aa9 a7bd
00000070: e560 e83d f25d b53e b126 50bd 80c3 ab3e

col_embedding.3.weight f4 [32, 32]
0.13769457 0.12780307 -0.007056256 -0.13925783 0.07720185 -0.031902127 -0.16724432 0.13636439
0.13717571 0.15106057 0.09459514 0.110971324 -0.14468163 -0.007046261 0.057711147 0.07239367
-0.055163655 -0.035196085 -0.13114902 -0.15710424 0.008786865 0.17230818 -0.1194343 0.1659008
-0.15924017 -0.11885529 -0.13860834 -0.12647767 0.14550458 0.0024655617 -0.046384096 0.17068572
0.08739574 -0.13762496 0.15164883 -0.08835618 0.09500151 0.050424796 0.057376646 -0.048605323
0.16300675 -0.004153403 0.10592254 0.12033418 -0.15358837 -0.030307798 -0.101376615 -0.017930267
-0.14877705 -0.017513743 -0.115031116 -0.06764476 0.09676153 -0.014699746 0.16420278 0.060091365
0.057289347 0.046103515 -0.1761273 0.17030296 -0.0065964526 -0.17132126 -0.005994432 -0.088202074
-0.059562705 -0.044888712 -0.023114702 -0.105734475 -0.103015244 0.062128946 0.15652727 0.17526579
-0.08104854 -0.1583669 -0.035137407 -0.014243865 -0.15560405 -0.13172616 -0.01129721 0.06968386
0.0010181799 -0.05266042 -0.024391688 0.16179258 0.0748151 -0.09934332 0.10488424 0.11953643
-0.09682463 -0.034218732 0.109637395 0.0042497115 0.028205993 -0.039587084 -0.04185064 0.08399096
0.106422566 -0.0443443 -0.021690946 0.026043208 0.07871408 -0.17152156 -0.07062087 0.10505417
0.15553857 -0.169585 0.040939726 -0.047065575 0.0645911 -0.009895115 -0.076137945 -0.14576238
-0.050764028 0.036393203 -0.05006706 0.0075080423 0.06106298 0.115155324 0.120237894 0.06337973
0.11302994 -0.15219565 0.11929323 -0.023965256 0.12027499 0.1368479 0.140585 0.066306464
0.105947584 0.06023832 0.03186836 -0.089029 0.009393331 0.14173682 -0.035944745 -0.028433396
0.13425785 0.09905782 -0.081751354 -0.1601966 0.01811339 -0.1343692 -0.13137294 0.14343837
0.10291147 -0.16459344 -0.09167535 0.097232245 -0.13070372 0.07338082 0.031004002 -0.1222604
0.006577711 0.05897111 0.16982822 0.105402395 0.025593188 -0.069017 -0.16001171 0.023128225
0.026380913 0.068944596 -0.05651881 -0.1326461 0.11214518 0.09206964 -0.054463595 0.13250804
0.15249677 0.10445991 -0.090965495 -0.11607362 -0.10040699 0.14380021 -0.11536284 0.05050565
-0.046269353 -0.10186143 0.13812415 0.044244457 -0.075448886 -0.04755294 0.1255259 -0.018495407
0.049552217 -0.13798063 -0.067762144 -0.047444455 0.14648628 -0.1587673 0.087569304 0.011053268
0.046703693 -0.061368044 0.11678918 -0.0006996362 -0.11273906 -0.01613041 0.079183124 0.12115313
0.17274623 0.16138174 -0.028893324 -0.09472408 0.02087957 -0.15977386 0.12597467 0.0048923697
0.17219818 -0.07250097 0.099893995 0.15649794 -0.027646957 0.10137145 -0.11558381 0.15872458
0.04256303 0.14166719 0.022413518 -0.014401129 0.047956787 0.12110647 0.11558776 -0.12129759
-0.121102035 0.085456125 0.16590512 0.14644569 -0.10307163 0.022921642 -0.016668238 -0.15218772
0.14062217 0.16312507 0.04458905 -0.11178742 -0.017762806 0.122466706 -0.0990574 -0.046793014
-0.08740844 0.008541185 -0.077161714 -0.030069904 -0.050074164 0.10579055 -0.087273516 0.047588848
0.13971008 0.14302836 -0.15317631 -0.054684825 -0.094640054 -0.13866247 0.05608736 0.12019363
00000000: ceff 0c3e cfde 023e 2a38 e7bb 9b99 0ebe
00000010: 011c 9e3d ceab 02bd 1842 2bbe 1ba3 0b3e
00000020: ca77 0c3e 9faf 1a3e 19bb c13d ef44 e33d
00000030: 6c27 14be 52e4 e6bb 8662 6c3d 2243 943d
00000040: 49f3 61bd c529 10bd ee4b 06be efdf 20be
00000050: c8f6 0f3c 8e71 303e f899 f4bd e6e1 293e
00000060: db0f 23be 676a f3bd 58ef 0dbe 5d83 01be
00000070: 27ff 143e 4395 213b 40fd 3dbd 3dc8 2e3e
00000080: 8afc b23d 8fed 0cbe d549 1b3e 16f4 b4bd
00000090: 2790 c23d 3b8a 4e3d c603 6b3d 6016 47bd
000000a0: 3eeb 263e 4519 88bb ebed d83d c471 f63d
000000b0: 4546 1dbe 0f48 f8bc 8b9e cfbd 7fe2 92bc
000000c0: 0359 18be fb78 8fbc 6f95 ebbd 5689 8abd
000000d0: e92a c63d 34d7 70bc c624 283e 5d22 763d
000000e0: 3ca8 6a3d 0ad7 3c3d b75a 34be e663 2e3e
000000f0: 0e27 d8bb d76e 2fbe f16c c4bb 4aa3 b4bd
00000100: 06f8 73bd 3add 37bd 0b5b bdbc 518b d8bd
00000110: a8f9 d2bd ec7a 7e3d af48 203e e078 333e
00000120: c7fc a5bd ef2a 22be 3eec 0fbd 1a5f 69bc
00000130: ab56 1fbe 39e3 06be ef17 39bc 69b6 8e3d
00000140: 7374 853a 74b2 57bd 14d1 c7bc f4ac 253e
00000150: a938 993d 8374 cbbd 8ccd d63d 84cf f43d
00000160: fe4b c6bd f128 0cbd 9289 e03d 2a41 8b3b
00000170: 4110 e73c 1126 22bd 946b 2bbd 7403 ac3d
00000180: 13f4 d93d 5ea2 35bd 36b1 b1bc 9158 d53c
00000190: d934 a13d 59a3 2fbe ada1 90bd a426 d73d
000001a0: 8145 1f3e b1a7 2dbe 6ab0 273d d5c7 40bd
000001b0: 5748 843d 1f1f 22bc 36ee 9bbd bc42 15be
000001c0: f1ed 4fbd 0a11 153d 1e13 4dbd 0606 f63b
000001d0: 2d1d 7a3d 8ed6 eb3d 493f f63d 3bcd 813d
000001e0: 3e7c e73d 2dd9 1bbe 0250 f43d c952 c4bc
000001f0: bc52 f63d db21 0c3e 84f5 0f3e afcb 873d
00000200: 0cfb d83d 75bc 763d 6688 023d d654 b6bd
00000210: 7ce6 193c 7523 113e cc3a 13bd 27ed e8bc
00000220: e47a 093e d4de ca3d 416d a7bd 940a 24be
00000230: 8862 943c 1498 09be a186 06be 82e1 123e
00000240: 40c3 d23d 2f8b 28be 49c0 bbbd b321 c73d
00000250: 32d7 05be af48 963d 1bfc fd3c a963 fabd
00000260: d789 d73b b18b 713d 73e7 2d3e 36dd d73d
00000270: cea8 d13c c958 8dbd 1cda 23be 6777 bd3c
00000280: c91c d83c d332 8d3d 4580 67bd 61d4 07be
00000290: 5fac e53d 028f bc3d 3815 5fbd 30b0 073e
000002a0: 1d28 1c3e 14ef d53d 1e4c babd 02b8 edbd
000002b0: 2ea2 cdbd 5d40 133e 5a43 ecbd 03df 4e3d
000002c0: ef84 3dbd ba9c d0bd 6b70 0d3e ad39 353d
000002d0: f284 9abd dfc6 42bd dd89 003e ae83 97bc
000002e0: 44f7 4a3d cb4a 0dbe e1c6 8abd 1e55 42bd
000002f0: 8000 163e e593 22be 8957 b33d c418 353c
00000300: 5f4c 3f3d 0f5d 7bbd 2a2f ef3d ca67 37ba
00000310: bce3 e6bd ec23 84bc c32a a23d 221f f83d
00000320: 63e4 303e 4141 253e b1b1 ecbc b3fe c1bd
00000330: a20b ab3c c29b 23be 81ff 003e 2c50 a03b
00000340: b854 303e 637b 94bd 3995 cc3d ff40 203e
00000350: df7b e2bc d69b cf3d 34b7 ecbd b288 223e
00000360: 9256 2e3d 3411 113e 8e9c b73c b7f2 6bbc
00000370: 566e 443d ab06 f83d 47b9 ec3d df6a f8bd
00000380: 5804 f8bd 9f03 af3d 08e3 293e dcf5 153e
00000390: 3817 d3bd 2bc6 bb3c d48b 88bc 19d7 1bbe
000003a0: 42ff 0f3e 420a 273e 02a3 363d cef0 e4bd
000003b0: 4e83 91bc d3cf fa3d 9bde cabd 08aa 3fbd
000003c0: 3203 b3bd 54f0 0b3c f606 9ebd 2955 f6bc
000003d0: 911a 4dbd b7a8 d83d 75bc b2bd 86ec 423d
000003e0: 2910 0f3e 0776 123e 40da 1cbe 32fd 5fbd
000003f0: a5d2 c1bd 89fd 0dbe dcbb 653d 1428 f63d

col_embedding.3.bias f4 [32]
-0.046118215 0.15118116 -0.09753971 0.11984575 -0.023506928 0.15311165 0.10458472 0.029818181
0.14302003 0.1421203 0.13215154 0.13286723 -0.08213085 0.15826362 0.067607336 -0.020550363
-0.093663335 -0.08380259 0.115519576 0.14371994 0.09154001 0.098552525 -0.1235532 0.1515831
0.13868265 -0.06552726 0.13567427 0.09241064 0.09226638 0.029756347 -0.08969939 0.07548657
00000000: 74e6 3cbd 3ccf 1a3e e6c2 c7bd b071 f53d
00000010: 9a91 c0bc 4dc9 1c3e 8430 d63d 4245 f43c
00000020: d873 123e fc87 113e bc52 073e 590e 083e
00000030: 3834 a8bd dc0f 223e b775 8a3d 3c59 a8bc
00000040: 90d2 bfbd b1a0 abbd 8795 ec3d 522b 133e
00000050: 5479 bb3d e8d5 c93d 7609 fdbd 9a38 1b3e
00000060: d302 0e3e 2833 86bd 32ee 0a3e ca41 bd3d
00000070: 28f6 bc3d 95c3 f33c 50b4 b7bd b498 9a3d

conv_col_to_row.feature_module_left.0.weight f4 [32, 32]
0.024456097 -0.1527231 -0.003631498 0.03962874 -0.03261821 -0.11693007 0.014801102 -0.057636566
0.15565082 0.008822039 -0.021798952 0.13121846 0.0005778063 -0.05214516 -0.019130444 -0.009876708
-0.010691145 -0.14003511 0.13077283 0.028173631 -0.09059229 -0.10686006 0.07807245 0.078104526
0.09644943 -0.10564507 -0.16125195 -0.13250324 0.12657845 -0.04736113 -0.05394481 -0.10023104
0.13094415 0.07184313 0.10495213 -0.098377876 -0.031241275 0.15994956 -0.021678016 -0.17216718
-0.087843806 0.0042616082 0.11829547 0.030915184 0.03922278 -0.122151196 0.030095076 0.014909745
0.12646122 -0.132672 0.028897546 -0.10323525 -0.040694334 0.09030412 -0.17482357 0.10820643
-0.16026449 0.03666156 0.08001854 0.10285568 -0.09414166 -0.11069394 0.0944089 -0.015361228
0.11382224 -0.10844255 0.027079683 0.06908005 0.023471622 0.12799393 -0.12833339 0.16877908
-0.114396915 -0.10665182 0.12955339 0.020834066 -0.16927533 -0.16551645 -0.080463015 0.16585183
0.04037897 -0.13111252 0.16885866 0.07080088 -0.07125833 -0.027310057 -0.0473592 0.17538133
0.005117549 0.052563496 -0.14091682 0.022551036 -0.06659818 0.06958297 0.025190419 -0.011232113
-0.05005735 -0.06126855 0.013032575 0.009950544 -0.013774577 0.05118684 -0.01593642 -0.068133004
0.14210033 -0.09529675 -0.1230884 0.15142784 0.02714556 -0.03184582 -0.09507655 -0.03295617
-0.13309015 0.039134085 0.019196464 0.07713038 -0.030173052 -0.16671617 0.13759717 -0.16153798
-0.11417186 -0.0053621107 -0.101461194 -0.0940737 0.123295374 -0.16886003 -0.02217975 0.09011141
-0.15003449 0.077824526 0.16128166 0.003328091 0.09405447 -0.11192253 0.13381776 -0.15590341
0.06477185 0.101654306 -0.08312441 -0.1026019 0.04015858 0.16412078 -0.078094594 0.12996857
-0.08130937 -0.007116006 0.13051501 -0.14375146 -0.17326371 -0.030584987 0.034852337 0.022457762
-0.17603067 -0.080429405 0.040815875 -0.02766894 -0.15355465 0.057443965 0.04549178 -0.096994914
0.007014134 -0.13727956 0.15925233 0.081689805 0.013926752 0.08183377 0.055059496 0.11803936
-0.14091036 -0.033434015 0.06833797 -0.14772393 -0.03524526 -0.06150032 0.02190834 -0.12576231
0.1669894 -0.12779295 -0.06648706 -0.099980496 0.12302349 0.120125696 0.056303807 0.12163291
0.1608735 -0.007421381 -0.09869713 0.14173351 0.06424092 -0.1336353 0.004388969 0.17295216
-0.051348653 -0.15516259 0.16247429 0.0251228 0.07011518 -0.16349974 0.14553009 -0.11562893
0.025285494 0.083903395 0.012589923 -0.17315516 0.027367426 -0.08031977 0.043378465 0.07705904
0.023194369 -0.025265506 -0.054299798 0.118806295 -0.070534855 0.055854224 -0.10495134 -0.07141646
0.026043028 -0.13921116 0.048824664 -0.050319478 0.16617571 0.006644288 -0.14730257 0.12400807
-0.12545846 0.009770912 -0.008192279 -0.12486375 0.14372894 -0.10075847 0.02603088 0.14399834
0.1335115 -0.15621698 0.1456118 -0.07604404 -0.003642942 -0.09723573 0.014702514 0.09976265
-0.1310161 -0.0027945589 0.17380074 0.11164378 -0.044687722 -0.14665325 0.0006535479 -0.064552374
0.09248624 0.116517276 -0.11576025 -0.0015300558 0.12505919 0.077836215 -0.1456588 -0.14745694
00000000: 2758 c83c 7263 1cbe 6dfe 6dbb bf51 223d
00000010: ac9a 05bd 0879 efbd 5280 723c 5214 6cbd
00000020: ee62 1f3e 508a 103c b793 b2bc 225e 063e
00000030: ed77 173a 2a96 55bd 73b7 9cbc ead1 21bc
00000040: ea29 2fbc 5d65 0fbe 50e9 053e 63cc e63c
00000050: 7388 b9bd 72d9 dabd 73e4 9f3d 44f5 9f3d
00000060: 4787 c53d 715c d8bd 3b1f 25be eeae 07be
00000070: c89d 013e bffd 41bd 3cf5 5cbd ee45 cdbd
00000080: 3916 063e 7e22 933d 24f1 d63d 577a c9bd
00000090: b4ed ffbc d1c9 233e 1896 b1bc 984c 30be
000000a0: 74e7 b3bd f6a4 8b3b e544 f23d d741 fd3c
000000b0: 11a8 203d 682a fabd f389 f63c 0148 743c
000000c0: 0d7f 013e 2bdb 07be 8cba ec3c 016d d3bd
000000d0: 1aaf 26bd 5ef1 b83d f304 33be 559b dd3d
000000e0: 601c 24be 6f2a 163d c3e0 a33d 00a6 d23d
000000f0: 58cd c0bd 81b3 e2bd 7459 c13d a9ad 7bbc
00000100: a21b e93d 2117 debd 36d6 dd3c d779 8d3d
00000110: 8f47 c03c d710 033e d469 03be 6cd4 2c3e
00000120: ee48 eabd 456c dabd a5a9 043e 34ac aa3c
00000130: 8356 2dbe 257d 29be cbc9 a4bd 10d5 293e
00000140: 6b64 253d 5c42 06be 49e9 2c3e 0d00 913d
00000150: e3ef 91bd 57b9 dfbc b8fb 41bd 2a97 333e
00000160: 1db1 a73b d24c 573d 804c 10be f3bc b83c
00000170: a064 88bd 8481 8e3d 235c ce3c e506 38bc
00000180: f008 4dbd bbf4 7abd 9586 553c 9b07 233c
00000190: c3ae 61bc 4ba9 513d 188d 82bc 5189 8bbd
000001a0: c082 113e f12a c3bd c515 fcbd e60f 1b3e
000001b0: 5e60 de3c c370 02bd 7fb7 c2bd 0dfd 06bd
000001c0: c948 08be 104b 203d e741 9d3c 88f6 9d3d
000001d0: 7a2d f7bc a5b7 2abe 46e6 0c3e 366a 25be
000001e0: f0d2 e9bd a5b4 afbb e3ca cfbd b6a9 c0bd
000001f0: 4982 fc3d a5e9 2cbe 4fb2 b5bc 558c b83d
00000200: a4a2 19be 7762 9f3d 0527 253e 1a1c 5a3b
00000210: a19f c03d a437 e5bd 8607 093e 25a5 1fbe
00000220: 1ba7 843d 2230 d03d 213d aabd f220 d2bd
00000230: 537d 243d 470f 283e 0ff0 9fbd 7b16 053e
00000240: 8785 a6bd 632d e9bb baa5 053e 9533 13be
00000250: 0b6c 31be 5e8d fabc 53c1 0e3d 57f9 b73c
00000260: 6241 34be 2cb8 a4bd 8c2e 273d f9a9 e2bc
00000270: 6e3d 1dbe 5d4a 6b3d 9755 3a3d 45a5 c6bd
00000280: d2d6 e53b 0393 0cbe 0b13 233e fc4c a73d
00000290: 082d 643c 7798 a73d 1186 613d 9fbe f13d
000002a0: ce4a 10be 1bf2 08bd c7f4 8b3d f144 17be
000002b0: 555d 10bd c2e7 7bbd 1e79 b33c d6c7 00be
000002c0: 45ff 2a3e 28dc 02be 5e2a 88bd 93c2 ccbd
000002d0: bdf3 fb3d 7604 f63d d29e 663d ad1a f93d
000002e0: 06bc 243e 0e2f f3bb b921 cabd 9722 113e
000002f0: be90 833d b1d7 08be 57d1 8f3b 5f1a 313e
00000300: f752 52bd f1e2 1ebe a95f 263e 55ce cd3c
00000310: 8c98 8f3d 7a6c 27be d705 153e dcce ecbd
00000320: 8623 cf3c 8bd5 ab3d f745 4e3c 964f 31be
00000330: a731 e03c b17e a4bd 9ead 313d 21d1 9d3d
00000340: 1e02 be3c 9bf9 cebc 7769 5ebd b750 f33d
00000350: 9474 90bd 66c7 643d baf0 d6bd cb42 92bd
00000360: 3058 d53c 5f8d 0ebe 5ffc 473d cc1b 4ebd
00000370: f729 2a3e 54b8 d93b 7cd6 16be f1f7 fd3d
00000380: 2f78 00be 2d16 203c e938 06bc 91b8 ffbd
00000390: ae2d 133e 755a cebd b63e d53c 4d74 133e
000003a0: 3db7 083e 58f7 1fbe 421b 153e fabc 9bbd
000003b0: 6dbe 6ebb 8723 c7bd d0e2 703c 5c50 cc3d
000003c0: 1629 06be eb24 37bb d2f8 313e 7ea5 e43d
000003d0: 790a 37bd 452c 16be db52 2b3a 0934 84bd
000003e0: 6d69 bd3d 9ca0 ee3d b613 edbd 278c c8ba
000003f0: 840f 003e 9868 9f3d 9527 15be f4fe 16be

conv_col_to_row.feature_module_left.0.bias f4 [32]
0.10760417 0.12915196 -0.109251134 0.0665246 -0.020006906 0.11264231 -0.08777634 0.17446761
-0.05916981 -0.14547975 -0.10808879 -0.15192345 0.0369108 0.07053364 -0.16411117 -0.15168685
0.08744592 0.13008325 0.02562444 0.037067916 0.04533476 0.08609655 0.16168311 -0.08769871
0.09001695 -0.052198738 0.124553174 -0.17069465 -0.102100536 -0.06807414 -0.057165246 -0.1679878
00000000: 935f dc3d 6940 043e 0fbf dfbd 0d3e 883d
00000010: 86e5 a3bc 03b1 e63d 15c4 b3bd a3a7 323e
00000020: 0b5c 72bd a5f8 14be a85d ddbd d291 1bbe
00000030: c72f 173d f173 903d c20c 28be cc53 1bbe
00000040: d916 b33d 8b34 053e 58ea d13c 87d4 173d
00000050: f1b0 393d 6353 b03d 4290 253e 629b b3bd
00000060: cf5a b83d 58ce 55bd bc15 ff3d 94ca 2ebe
00000070: 161a d1bd 746a 8bbd 1b26 6abd fe04 2cbe

conv_col_to_row.feature_module_edge.0.weight f4 [32, 1]
0.5459494 0.61034954 0.094012044 0.334878 0.08539586 0.4547974 -0.7322927 -0.32940564
-0.5082405 0.20751274 -0.91181195 -0.8395252 -0.8271765 0.13339604 -0.5323644 0.08874957
-0.0633043 -0.14549714 0.6931777 0.65513414 -0.7314914 0.009107592 -0.8164045 -0.6874285
0.68255734 0.40905884 -0.6633473 0.6522376 -0.15422887 0.14690757 -0.26471877 0.9213306
00000000: 57c3 0b3f de3f 1c3f 6389 c03d 2175 ab3e
00000010: 06e4 ae3d 34db e83e 8977 3bbf dba7 a8be
00000020: 0d1c 02bf 387e 543e 826c 69bf 20eb 56bf
00000030: d7c1 53bf f998 083e 0949 08bf 56c2 b53d
00000040: afa5 81bd 34fd 14be 1874 313f dfb6 273f
00000050: 0543 3bbf 0238 153c e3ff 50bf 50fb 2fbf
00000060: 14bc 2e3f 2970 d13e 21d1 29bf 0bf9 263f
00000070: 2cee 1dbe f06e 163e 3889 87be 52dc 6b3f

conv_col_to_row.feature_module_right.0.weight f4 [32, 32]
-0.060980324 0.080056384 -0.09969178 0.11920035 -0.084855795 -0.1166085 -0.01384422 0.030260807
0.0054416195 -0.105330646 -0.09231956 0.061458696 -0.10263181 0.0028763611 0.07596982 0.016242651
0.17622396 0.1639639 0.022388408 0.13481608 -0.16633442 0.03839024 0.17340271 -0.05896639
0.06932383 0.03954605 0.13825448 -0.09984762 -0.115730576 0.0068364157 -0.11353069 0.14913704
0.15638721 0.09285711 -0.01763069 0.17679429 -0.1540875 0.17573307 -0.077137895 0.1481236
-0.10808242 -0.09506312 -0.106273755 0.0899844 0.034588236 0.102154605 0.005621087 -0.058020722
0.137824 -0.14019956 0.07590805 -0.15067014 0.16544144 0.012290411 -0.059120566 0.13731495
-0.1488221 -0.098485865 -0.14171588 -0.056797277 -0.07510252 0.09743886 -0.14846982 0.004861077
0.13837937 -0.0385056 -0.060368158 -0.07943807 0.08900919 0.113182284 -0.13266446 -0.024166713
-0.15028438 -0.052670848 0.020288792 0.024152922 0.12773761 0.12033078 0.05169261 -0.16104376
-0.045758884 0.17557032 -0.05654552 0.043686025 0.027117193 0.09753956 -0.090232626 -0.09969883
-0.045445506 0.11627582 -0.16162537 -0.02595206 0.10329313 0.13892141 0.036122732 -0.08728818
0.040473364 -0.13279076 -0.17175902 0.13474835 -0.17586008 -0.13107498 0.1648844 0.06387246
-0.106438056 -0.12654395 -0.15077901 -0.032354295 -0.10653182 0.082813926 -0.12144526 -0.06799185
-0.0521472 0.05468915 -0.018326668 -0.030821033 -0.079090245 -0.16935228 0.17025454 0.14337227
0.061579175 -0.011883262 0.127606 -0.046380814 0.006033279 0.11098457 -0.108565375 0.11408317
-0.08551234 -0.13428861 0.17174323 -0.072365075 -0.073931806 -0.05861086 0.030967249 -0.015537973
-0.14876108 -0.16177188 0.10482537 0.07378198 0.1351509 -0.1629188 0.018838577 0.14195037
-0.079681404 0.0075343745 0.0016045406 0.15645796 -0.1381083 -0.034436576 0.06423442 0.004436336
0.03765413 -0.1091601 -0.14834371 0.1572991 0.012637961 -0.07119805 -0.0036872632 0.04951821
0.079955965 0.15367314 -0.16714416 -0.14054166 0.061339214 -0.09275105 0.05327552 0.17206155
-0.070502244 0.15434708 0.06682269 0.101084486 0.16499017 0.17370246 0.11066275 0.09138086
0.06344362 0.14373721 0.1687133 -0.1469841 0.12621345 0.1095832 0.09184351 0.084460564
-0.08877539 0.09080327 0.111551486 0.044836693 0.03778007 -0.12259465 -0.1574765 -0.058709573
0.15323803 0.006900189 0.05668539 0.061617207 -0.002084929 -0.0025394482 -0.015378496 -0.11405719
0.0836072 -0.0966143 0.05190963 -0.07709669 -0.05187744 -0.0001010491 -0.079841465 -0.11505132
-0.13478126 0.05838246 -0.1257278 -0.17044476 -0.10561852 0.0072384835 0.008330376 0.0076277647
0.049569998 -0.08341476 0.09792023 0.0091336295 0.13664836 0.028715884 0.060552925 -0.12541631
0.13749798 -0.020276837 -0.07391258 0.14741415 -0.053498916 0.11032378 0.009296054 0.0031811148
0.1494503 -0.09915884 0.027401643 -0.07884943 0.10932294 0.033372898 0.09488528 0.10678558
-0.056566402 -0.10182794 -0.045685757 0.020574147 -0.09947312 0.1064077 -0.09468508 0.08480622
-0.14959061 -0.088538624 0.026512383 -0.17502728 0.14768757 0.15210253 0.078828506 -0.026293078
00000000: 81c6 79bd 9af4 a33d 342b ccbd 501f f43d
00000010: e0c8 adbd 70d0 eebd ded2 62bc 83e5 f73c
00000020: 9d4f b23b 98b7 d7bd 0a12 bdbd 1dbc 7b3d
00000030: a030 d2bd 5581 3c3b 1196 9b3d 4f0f 853c
00000040: 0e74 343e 27e6 273e e567 b73c 3a0d 0a3e
00000050: 9253 2abe 163f 1d3d 7b90 313e be86 71bd
00000060: a7f9 8d3d 0afb 213d 9592 0d3e e97c ccbd
00000070: 2704 edbd 0304 e03b c782 e8bd 61b7 183e
00000080: f823 203e de2b be3d 3d6e 90bc 9009 353e
00000090: 1dc9 1dbe 5ff3 333e 79fa 9dbd b7ad 173e
000000a0: 515a ddbd 74b0 c2bd 0ea6 d9bd be49 b83d
000000b0: 65ac 0d3d 6f36 d13d 1831 b83b 23a7 6dbd
000000c0: bc21 0d3e 7990 0fbe ae75 9b3d 4649 1abe
000000d0: 7b69 293e b85d 493c 6828 72bd 4a9c 0c3e
000000e0: d264 18be f5b2 c9bd f81d 11be 43a4 68bd
000000f0: 5acf 99bd 068e c73d 7908 18be ab49 9f3b
00000100: 52b3 0d3e 0cb8 1dbd 9a44 77bd 6db0 a2bd
00000110: 734a b63d 1dcc e73d 31d9 07be 45f9 c5bc
00000120: 26e4 19be 63bd 57bd ae34 a63c 59dc c53c
00000130: a6cd 023e fc6f f63d a1bb 533d a8e8 24be
00000140: ab6d 3bbd b5c8 333e 469c 67bd 1ef0 323d
00000150: e024 de3c d2c2 c73d e2cb b8bd e62e ccbd
00000160: 1125 3abd 0422 ee3d 1f81 25be 6a99 d4bc
00000170: 598b d33d 6a41 0e3e 6ef5 133d 25c4 b2bd
00000180: 66c7 253d 4dfa 07be 99e1 2fbe 79fb 093e
00000190: aa14 34be 8538 06be 75d7 283e 90cf 823d
000001a0: 32fc d9bd bd94 01be d065 1abe f085 04bd
000001b0: 5b2d dabd 599a a93d 4bb8 f8bd 503f 8bbd
000001c0: 4d98 55bd bb01 603d cf21 96bc 647c fcbc
000001d0: 11fa a1bd af6a 2dbe 3557 2e3e 2ed0 123e
000001e0: 723a 7c3d 03b2 42bc 26ab 023e cff9 3dbd
000001f0: d0b2 c53b e14b e33d 8657 debd 70a4 e93d
00000200: 1821 afbd f482 09be 75dd 2f3e 2434 94bd
00000210: 8f69 97bd f111 70bd 07af fd3c fb92 7ebc
00000220: d354 18be 87a7 25be afae d63d 021b 973d
00000230: ff64 0a3e 30d4 26be 5c53 9a3c 705b 113e
00000240: 0130 a3bd eae2 f63b 734f d23a 8436 203e
00000250: 436c 0dbe 5e0d 0dbd 568d 833d af5e 913b
00000260: 383b 1a3d 558f dfbd 6ae7 17be 0413 213e
00000270: 730f 4f3c 49d0 91bd 03a6 71bb 9bd3 4a3d
00000280: f4bf a33d 7e5c 1d3e d727 2bbe 27ea 0fbe
00000290: d43e 7b3d 43f4 bdbd 6f37 5a3d e730 303e
000002a0: 7b63 90bd 290d 1e3e 56da 883d 6205 cf3d
000002b0: 2ff3 283e 0fdf 313e 27a3 e23d e325 bb3d
000002c0: bbee 813d d92f 133e 2ec3 2c3e 0083 16be
000002d0: 193e 013e 286d e03d 7318 bc3d a9f9 ac3d
000002e0: dfcf b5bd 11f7 b93d 1b75 e43d aea6 373d
000002f0: 46bf 1a3d e712 fbbd 8541 21be 7379 70bd
00000300: 6eea 1c3e fb1a e23b f12e 683d 5362 7c3d
00000310: 4ea3 08bb df6c 26bb 16f6 7bbc d196 e9bd
00000320: 403a ab3d b8dd c5bd 319f 543d dfe4 9dbd
00000330: 707d 54bd 53ea d3b8 ec83 a3bd 07a0 ebbd
00000340: 1904 0abe 7222 6f3d cabe 00be 1289 2ebe
00000350: 864e d8bd cd30 ed3b 217c 083c 54f2 f93b
00000360: e909 4b3d 5cd5 aabd 678a c83d 38a5 153c
00000370: 8ced 0b3e 933d eb3c 5806 783d 226d 00be
00000380: 45cc 0c3e 9c1b a6bc 7b5f 97bd bcf3 163e
00000390: ae21 5bbd 6ff1 e13d 7a4e 183c 407a 503b
000003a0: 8009 193e ca13 cbbd 6979 e03c cf7b a1bd
000003b0: b5e4 df3d 05b2 083d 3753 c23d 66b2 da3d
000003c0: 2cb2 67bd 2b8b d0bd fd20 3bbd 1d8b a83c
000003d0: 90b8 cbbd 48ec d93d 40ea c1bd e2ae ad3d
000003e0: 482e 19be bd53 b5bd 7f30 d93c 5a3a 33be
000003f0: 693b 173e c4c0 1b3e d770 a13d 9564 d7bc

conv_col_to_row.feature_module_final.0.weight f4 [32]
0.9988829 0.99998605 1.0 1.0001284 1.0 1.0000577 1.0018666 0.99962234
0.9994494 1.0020486 0.99967873 0.99952203 1.0008868 0.99969876 1.0000092 0.9989198
1.0004702 0.99983776 1.0001847 1.000782 1.0011846 0.9999998 0.9996787 0.99991494
1.001827 1.0008519 1.0016398 1.0 1.0 0.99873894 1.0 1.0
00000000: cab6 7f3f 16ff 7f3f 0000 803f 3504 803f
00000010: 0000 803f e401 803f 2a3d 803f 40e7 7f3f
00000020: eadb 7f3f 2143 803f f2ea 7f3f ade0 7f3f
00000030: 0f1d 803f 42ec 7f3f 4d00 803f 35b9 7f3f
00000040: 680f 803f 5ef5 7f3f 0d06 803f a019 803f
00000050: d126 803f fdff 7f3f f1ea 7f3f 6dfa 7f3f
00000060: de3b 803f ea1b 803f bc35 803f 0000 803f
00000070: 0000 803f 5bad 7f3f 0000 803f 0000 803f

conv_col_to_row.feature_module_final.0.bias f4 [32]
-0.0006097811 -5.332299e-06 0.0 0.00014271864 0.0 8.370638e-05 0.00036722314 -0.00023724738
-0.0002979736 0.0016142676 -0.00019663024 -0.00046746532 0.00064508425 -0.00063815573 0.0008524059 -0.00033318813
-0.000114143055 -0.00013884965 0.00016162812 0.0012571207 0.0008938675 -6.3749016e-05 0.000103709994 -0.00020312767
0.0021646984 0.0007026176 0.0013064389 0.0 0.0 -0.0014957711 0.0 0.0
00000000: b8d9 1fba 1aec b2b6 0000 0000 bea6 1539
00000010: 0000 0000 858b af38 db87 c039 9cc5 78b9
00000020: 5739 9cb9 d595 d33a 872e 4eb9 2216 f5b9
00000030: df1a 293a e849 27ba fe73 5f3a c1af aeb9
00000040: 1660 efb8 2b98 11b9 b87a 2939 f9c5 a43a
00000050: 6f52 6a3a feb0 85b8 e17e d938 abfe 54b9
00000060: 9ddd 0d3b de2f 383a d13c ab3a 0000 0000
00000070: 0000 0000 c00d c4ba 0000 0000 0000 0000

conv_col_to_row.feature_module_final.2.weight f4 [32, 32]
-0.016133996 0.04618393 -0.11127706 0.059960674 -0.06373465 0.073719 0.023267243 0.07324352
-0.14910416 -0.1591786 -0.07285329 -0.079700805 0.1277722 0.13097009 -0.040791407 0.06200728
-0.15960997 -0.014549318 0.107179925 -0.09059912 0.1699125 -0.04945866 0.12788965 0.09610111
0.06324918 -0.10145501 0.10045911 -0.101569265 0.03590351 -0.13565144 -0.020012967 0.044545975
-0.14184412 -0.17078915 -0.015672306 0.026365295 0.07167183 0.1294804 -0.011814662 -0.09009027
-0.062341303 0.11345738 -0.11848001 -0.025763325 -0.0488599 0.033524122 0.09468022 0.1698009
-0.05095681 0.1479098 -0.05243396 0.16717245 -0.16219468 0.13374439 0.11986824 -0.073963255
0.14307833 -0.078094944 0.100904375 0.035133295 -0.06753847 -0.11815666 0.019978976 0.0917013
-0.17252098 -0.08552011 -0.121474676 0.06515543 -0.023455016 -0.0619029 0.13671361 0.035416577
0.12219118 -0.13419078 0.124213055 -0.049751766 0.014140639 -0.05266935 -0.15985842 -0.12694374
0.09514097 0.00688704 -0.17331061 -0.060076002 -0.1065905 0.060673527 0.12973925 0.09524707
-0.1718245 0.04412629 0.017830648 0.10203353 -0.03152778 0.13216208 -0.043918703 0.00791168
0.11544148 0.015465636 -0.14947978 -0.03907376 -0.09781843 -0.022995604 -0.06758456 0.09132515
0.16834524 0.10847184 0.1308278 -0.03981895 -0.14088885 -0.0160026 -0.024718415 0.10961051
0.13892852 0.15111996 -0.07686956 -0.065132916 0.06354064 -0.012579314 0.08533111 -0.15530348
0.1163364 0.06682091 -0.014317394 0.00476487 0.08255697 -0.16033746 0.0367138 0.0066200052
0.0313275 -0.10556304 0.15925448 0.13623165 0.04933952 -0.16376786 -0.068292744 -0.04044743
-0.07169454 0.15334322 0.15006538 0.1424283 0.10149018 0.07366776 0.11120612 -0.09389544
-0.025972586 0.08927795 0.023815677 0.1030358 0.068732046 -0.100540064 -0.13877802 -0.081808984
0.11115455 -0.09111551 -0.04874798 -0.11170071 0.022027038 0.102912694 -0.03889861 -0.084650576
0.1006808 -0.054522764 0.0033183477 -0.10333867 0.05207694 -0.11965065 0.15796997 -0.010488976
0.040051553 -0.14079292 0.02339887 0.15841392 -0.14786884 0.121385306 -0.08611007 -0.087351315
0.041091364 0.17494023 -0.12611224 0.05304645 0.16307288 -0.012663712 -0.11406823 -0.074428305
0.010437818 -0.06206491 -0.08955257 -0.14715016 0.16183513 -0.16018659 0.1507432 0.036157697
-0.11870836 0.060804967 0.08522481 0.13687617 -0.04886063 0.08183106 -0.088693544 -0.029762775
-0.14532922 0.0015335405 -0.17596519 -0.1507751 -0.13423415 -0.13576254 0.11750733 -0.012856347
-0.04963104 -0.16509664 0.17286247 -0.12049236 0.0019770185 0.0664128 -0.1583869 0.006218052
0.018478323 0.09086748 0.0664064 0.13408554 -0.15047811 -0.051032968 0.057341672 -0.12612367
-0.07924352 0.14863282 0.019418191 0.022262046 0.052995216 -0.13118504 -0.17036676 0.12875073
0.13513845 0.11208839 0.16053282 0.11678916 -0.074160635 -0.12079432 0.035298128 0.12976974
0.1444044 0.08852907 0.027335627 0.10047383 -0.050215714 0.100759946 0.028959893 0.027129441
-0.10872674 -0.13286021 0.17588481 0.12593839 0.06632287 -0.021769203 -0.15697339 0.16508745
00000000: 712b 84bc 5c2b 3d3d 3ae5 e3bd 5399 753d
00000010: 5087 82bd fdf9 963d f29a be3c b300 963d
00000020: c3ae 18be b7ff 22be 1b34 95bd 2d3a a3bd
00000030: b7d6 023e 061d 063e e414 27bd 58fb 7d3d
00000040: cc70 23be 4360 6ebc 2681 db3d 088c b9bd
00000050: 8bfd 2d3e 2a95 4abd 81f5 023e a9d0 c43d
00000060: c988 813d a5c7 cfbd 82bd cd3d 8c03 d0bd
00000070: 8f0f 133d 36e8 0abe 3cf2 a3bc d775 363d
00000080: 963f 11be 5ae3 2ebe 3563 80bc 08fc d73c
00000090: aec8 923d 8396 043e 4992 41bc 3f81 b8bd
000000a0: 9859 7fbd 585c e83d a6a5 f2bd 9c0d d3bc
000000b0: 5221 48bd 9750 093d b4e7 c13d 4ae0 2d3e
000000c0: 17b8 50bd ab75 173e fec4 56bd 412f 2b3e
000000d0: 5d16 26be 4af4 083e 7b7d f53d 0c7a 97bd
000000e0: 2083 123e 3ef0 9fbd f4a6 ce3d eee7 0f3d
000000f0: 9c51 8abd 1efc f1bd f3aa a33c e4cd bb3d
00000100: 57a9 30be 2b25 afbd b7c7 f8bd 3670 853d
00000110: bc24 c0bc e58d 7dbd a7fe 0b3e f910 113d
00000120: 5f3f fa3d 4f69 09be 6a63 fe3d 82c8 4bbd
00000130: 24ae 673c d1bb 57bd edb1 23be 8afd 01be
00000140: 45d9 c23d aeac e13b 5678 31be 4112 76bd
00000150: 1f4c dabd ce84 783d 5eda 043e e510 c33d
00000160: c3f2 2fbe c5bd 343d 9411 923c f5f6 d03d
00000170: 4623 01bd 7f55 073e 19e4 33bd fe9f 013c
00000180: 956c ec3d 9463 7d3c 3a11 19be cf0b 20bd
00000190: 0755 c8bd 4761 bcbc c669 8abd ae08 bb3d
000001a0: b262 2c3e 7c26 de3d b9f7 053e 3219 23bd
000001b0: 2b45 10be e217 83bc 467e cabc 7a7b e03d
000001c0: 4743 0e3e 31bf 1a3e ca6d 9dbd 6864 85bd
000001d0: 9821 823d 7819 4ebc 14c2 ae3d e007 1fbe
000001e0: c741 ee3d 67d9 883d 8193 6abc a022 9c3b
000001f0: a113 a93d 812f 24be 3661 163d a1ec d83b
00000200: 4451 003d 6f31 d8bd 9b13 233e 4f80 0b3e
00000210: 3d18 4a3d c3b2 27be 11dd 8bbd 34ac 25bd
00000220: 96d4 92bd 0106 1d3e bdaa 193e b9d8 113e
00000230: 15da cf3d 1fdf 963d 09c0 e33d 414c c0bd
00000240: 76c4 d4bc 5cd7 b63d 1819 c33c 6f04 d33d
00000250: 63c3 8c3d f3e7 cdbd d31b 0ebe 788b a7bd
00000260: ffa4 e33d c59a babd f6ab 47bd 58c3 e4bd
00000270: 0c72 b43c e4c3 d23d 2654 1fbd 485d adbd
00000280: bc31 ce3d 4353 5fbd a378 593b 3aa3 d3bd
00000290: a14e 553d 660b f5bd e1c2 213e f4d9 2bbc
000002a0: 190d 243d 052c 10be fdae bf3c 4237 223e
000002b0: ee6a 17be dc98 f83d 7a5a b0bd 3fe5 b2bd
000002c0: 6b4f 283d 8823 333e 9123 01be 3c47 593d
000002d0: 94fc 263e 757b 4fbc 9b9c e9bd de6d 98bd
000002e0: 6203 2b3c c637 7ebd 5667 b7bd 88ae 16be
000002f0: 1cb8 253e f407 24be 6d5c 1a3e 181a 143d
00000300: 5e1d f3bd a10e 793d 588a ae3d 4429 0c3e
00000310: 1522 48bd 0b97 a73d f6a4 b5bd 10d1 f3bc
00000320: 2fd1 14be 1501 c93a 3830 34be ca64 1abe
00000330: ad74 09be 5605 0bbe afa7 f03d 6da3 52bc
00000340: eb49 4bbd 180f 29be dc02 313e b3c4 f6bd
00000350: de90 013b 6f03 883d 2d30 22be cdc0 cb3b
00000360: da5f 973c bb18 ba3d 1400 883d b84d 093e
00000370: ef16 1abe f207 51bd 1adf 6a3d 9026 01be
00000380: 6d4a a2bd 3433 183e e612 9f3c e55e b63c
00000390: 8311 593d 5f55 06be a074 2ebe 3bd7 033e
000003a0: bc61 0a3e 998e e53d b762 243e 282f ef3d
000003b0: 88e1 97bd 0363 f7bd c594 103d 5ce2 043e
000003c0: bfde 133e bb4e b53d f7ee df3c 39c5 cd3d
000003d0: feae 4dbd 3b5b ce3d 4c3d ed3c 903e de3c
000003e0: 20ac debd 820c 08be 261b 343e fef5 003e
000003f0: 49d4 873d 5455 b2bc a2bd 20be af0c 293e

conv_col_to_row.feature_module_final.2.bias f4 [32]
0.04577961 -0.0997902 -0.029675007 -0.019098602 -0.16423985 -0.15488842 0.14398691 0.04531429
0.16325518 -0.011100705 -0.065542534 0.16149083 0.14155105 0.16551885 0.16809271 0.05182487
-0.10560022 -0.15370493 -0.06321653 0.032951813 0.10549415 -0.038964786 0.11486259 0.057010863
-0.11564255 0.06323241 -0.0002816829 0.0036811053 0.09545848 -0.06117424 0.1593471 -0.089661434
00000000: 6683 3b3d ce5e ccbd 0019 f3bc ac74 9cbc
00000010: 7e2e 28be 129b 1ebe 4e71 133e 7a9b 393d
00000020: 5e2c 273e bbdf 35bc 2a3b 86bd da5d 253e
00000030: c2f2 103e c67d 293e 7f20 2c3e 5146 543d
00000040: ee44 d8bd d364 1dbe ab77 81bd 7bf8 063d
00000050: 510d d83d 8a99 1fbd 143d eb3d 3984 693d
00000060: 00d6 ecbd fe7f 813d d7ae 93b9 b33e 713b
00000070: bc7f c33d d791 7abd e32b 233e 6aa0 b7bd
