GNN/ResultsGCNN/actor_65.pt (torch, 83520 bytes, 43 tensors)

row_embedding.0.weight f4 [7]
000000 fa 89 80 3f d9 38 80 3f 24 db 7f 3f 72 31 80 3f
       1.0042107 1.0017349 0.9994376 1.001509
000010 85 a2 7f 3f b2 6f 80 3f 0f 08 80 3f
       0.9985736 1.0034087 1.0002459

row_embedding.0.bias f4 [7]
000000 ec f7 2e bb df 19 8c ba 1c 5d 5e ba e6 9b ed ba
       -0.0026698066 -0.0010688863 -0.00084825023 -0.0018128126
000010 fd 64 c4 3a 68 fd 3b bb 10 80 27 3a
       0.001498371 -0.0028684977 0.0006389627

row_embedding.1.weight f4 [32, 7]
000000 ab 82 52 3d cf 2b 4a 3d b0 07 0d 3e 44 76 b6 be
       0.051394146 0.049358185 0.13772464 -0.35637105
000010 fc 8a 3a be e7 6e 77 3e 39 d2 ac bd b3 21 8a be
       -0.18217081 0.241634 -0.08438534 -0.26978835
000020 e9 5e 85 bd 14 c9 25 bd 00 e2 da bd 9c 1f 47 3e
       -0.06512243 -0.040474966 -0.10687637 0.19445652
000030 e5 c0 8d 3a ef a0 ab bd 1a ee 00 be 93 c2 95 be
       0.0010814933 -0.08380305 -0.12590829 -0.2925001
000040 ce d0 90 be c6 c7 85 3e a1 4b a2 3e bd 5d a1 3c
       -0.28284305 0.26128978 0.31698325 0.019698018
000050 e7 c2 4e be 52 b5 55 be 0f 2e 09 3e 11 b4 a2 3e
       -0.20191537 -0.2086995 0.13396476 0.31778005
000060 13 c2 b6 be 67 b4 df 3c 1a 5b b5 3b 5b f4 45 3e
       -0.35694942 0.027307702 0.005534542 0.19331495
000070 d1 73 0e be 67 58 07 bd be 21 9d be 62 db 55 3e
       -0.13911368 -0.03304329 -0.30689806 0.20884469
000080 c6 49 4f be 38 45 4e be 47 31 48 be 53 1c db bd
       -0.20242986 -0.20143592 -0.19550048 -0.10698762
000090 a3 2c 64 3d ce 15 2b bc 83 9c b6 be 1e b4 c3 3d
       0.05570663 -0.01044221 -0.35666284 0.09555839
0000a0 11 11 53 be b6 83 a0 3e 45 d5 89 be f9 b3 ab be
       -0.20611979 0.31350487 -0.26920524 -0.33535746
0000b0 33 b3 8b 3e 9b a8 66 be 44 9f a0 be 82 a2 6b bd
       0.27285156 -0.22525255 -0.3137151 -0.057528026
0000c0 68 d9 8c 3c ec 24 79 be 32 34 89 3e 95 25 6a 3e
       0.017193511 -0.24330491 0.26797634 0.22865899
0000d0 c0 f0 85 3e 5d f8 59 3e a0 35 07 3d 70 e8 10 3d
       0.2616024 0.2128615 0.033010125 0.03537792
0000e0 dc 4c 0c be d9 63 96 bd c6 88 d9 3c 1e be 35 3c
       -0.13701195 -0.07343263 0.026554476 0.011092691
0000f0 b6 7d 0f be 6b a6 56 be ca c9 8b 3e 96 03 49 3d
       -0.14012799 -0.20961921 0.2730239 0.049075685
000100 cb 5c af be 31 44 48 be 9a 1d ba 3e 05 cd 41 be
       -0.34250483 -0.19557263 0.3635071 -0.18925865
000110 f5 6e 83 3e 21 eb b2 be 42 63 8a be 44 c7 ac 3e
       0.2567059 -0.34945014 -0.27028853 0.33745778
000120 6c 6a c3 bd 62 ce bc bb de c2 1f bd bb 7c 80 be
       -0.09541783 -0.0057619074 -0.0390042 -0.25095162
000130 6d a2 81 3e 82 0f 3a be ea 9c 4b 3c c2 83 b6 be
       0.25319234 -0.18169978 0.012427548 -0.35647398
000140 10 3d 9a bd 42 9b 7d bc ab 30 84 3e 82 64 0b 3e
       -0.07531178 -0.015478911 0.2581838 0.1361256
000150 ad e1 93 3e 8f e5 93 bd ee 46 9e be 92 c7 d9 bd
       0.28883114 -0.07221519 -0.3091349 -0.10633768
000160 ad 3d 8d bd 3c 72 a2 3e 18 86 69 be a5 b4 80 3e
       -0.06896529 0.3172778 -0.22805059 0.2513782
000170 f5 d2 5b 3e 51 fe 5e be e3 31 7d be 8a 87 1f be
       0.21467192 -0.21776702 -0.24726062 -0.15579048
000180 2a 4b 19 be ee 0d 8b be 2d a5 ba be 45 2a b4 3d
       -0.14970079 -0.27159065 -0.36454144 0.08797125
000190 a3 c7 cc 3d a3 21 8f be c7 17 8c 3e eb 41 12 be
       0.09999015 -0.2795535 0.2736189 -0.14282958
0001a0 0a 04 ee bd 58 0f 8c 3d 4e af 94 3e ef 5a a5 be
       -0.11621864 0.06838864 0.29039997 -0.3229594
0001b0 64 23 9d bd b7 9b e7 3d 82 00 a1 be cb a4 97 3e
       -0.07672766 0.11308997 -0.314457 0.29617915
0001c0 93 59 14 3e 45 a3 a6 3e 4d a6 f2 bc 22 1e 34 3e
       0.14487295 0.3254644 -0.029620314 0.1758962
0001d0 d1 d1 80 be e0 be b4 3e e2 a1 c1 3d d6 96 49 3e
       -0.25160077 0.35301876 0.09454705 0.19686446
0001e0 6d f6 5c be 29 4b 87 be 18 3b a5 be 6d 6d b0 be
       -0.21578379 -0.2642453 -0.32271647 -0.34458485
0001f0 47 4e 8f 3b 7d a2 c3 bc f2 ac b3 be 00 8b b0 3e
       0.004373345 -0.023881191 -0.35092884 0.3448105
000200 6b f1 2f be 4d 78 9b be b6 14 29 be 92 0d a1 3e
       -0.17181937 -0.3036522 -0.16511807 0.31455666
000210 98 0f ac 3d 00 0d 4b be ce 0f 2d be 8d bf 79 be
       0.08401412 -0.19829178 -0.1690056 -0.24389477
000220 3a 90 fa 3d 2b d6 7c 3e 8d eb 47 be 46 5c b9 3e
       0.1223454 0.24691074 -0.19523449 0.36203212
000230 6d 86 a7 3e 3e 7d 00 3e da 53 25 bc f6 4f 8d 3e
       0.32719746 0.12547776 -0.010090793 0.27600068
000240 cf 26 d8 3d 78 68 aa be d0 f1 82 be 61 fb 48 3e
       0.10554277 -0.33282828 -0.25575113 0.19627143
000250 af 0c f2 3c c0 7f b4 3e e4 25 8a be 84 8c 91 be
       0.029547064 0.35253716 -0.26982033 -0.28427517
000260 d1 fa d6 bd f9 97 69 be 50 b4 92 3e 48 63 07 3d
       -0.10497058 -0.22811879 0.28653193 0.033053666
000270 1f 57 06 be 8e 0e 54 bd 98 e7 fe 3c 26 d4 8d be
       -0.13119172 -0.051771693 0.031116292 -0.2770092
000280 0a 98 25 3d 53 30 7c be 6d 83 71 3d f2 f9 0a 3e
       0.0404282 -0.24627809 0.058963228 0.13571909
000290 86 7d 6c be f2 ce 54 be 23 1d 29 bc 06 e8 98 3e
       -0.23094758 -0.20782068 -0.010321888 0.2986452
0002a0 23 10 40 3e 3c 52 b8 bd de 2e a9 3e e0 2e c8 3d
       0.18756156 -0.0900006 0.3304357 0.09774566
0002b0 f0 21 bb 3e f1 6b 88 3e 03 d7 85 be 32 59 bd 3c
       0.3654933 0.26644853 -0.26140603 0.02311382
0002c0 32 e3 6c 3e 39 e8 9c 3d eb 72 f4 3d 86 ab 9f 3e
       0.23133543 0.076614805 0.11935981 0.3118555
0002d0 f8 71 8e be 78 2e 00 3e 7f 10 f6 bd 3f 31 20 be
       -0.27821326 0.12517726 -0.12014865 -0.15643786
0002e0 3e b8 ad 3e 71 3d 8a 3e ae 07 7d 3e 36 dc 15 3d
       0.33929628 0.27 0.24709961 0.036586963
0002f0 26 5b 96 be 87 4d ae 3e 5c 42 d3 3d a2 ef 1e bd
       -0.29366416 0.34043524 0.103153914 -0.03880275
000300 31 84 93 be da 3e dc bd 0f 48 a8 be 36 dd 97 3e
       -0.28811792 -0.107541755 -0.32867476 0.29660958
000310 f2 25 a5 3e 80 6f 94 3d ad 0c a2 3e c5 b0 75 be
       0.32255512 0.072478294 0.31650296 -0.23993213
000320 b0 51 5a be 8f 4f 38 3e 82 46 be 3e e8 2e 74 be
       -0.21320224 0.17999099 0.37163168 -0.23846018
000330 b3 2c 9d be 62 b1 03 3e 78 ef eb 3d 43 2b 88 3e
       -0.30698165 0.12860635 0.115202844 0.26595506
000340 3b 06 68 3d 9a b5 c1 be f0 55 1a 3e a0 a6 3b be
       0.056646567 -0.37833863 0.15071845 -0.18325281
000350 9e df 47 3e 97 7c 8f be c7 c4 95 be bf 5d 0a 3d
       0.19518897 -0.28024742 -0.29251692 0.03378081
000360 8d d5 80 bd 23 55 b3 be a3 f5 3e be 3d b8 9e be
       -0.062907316 -0.35025892 -0.1864839 -0.30999938
000370 d7 bc da 3d 0d bb cd 3d 27 3a f3 bd 08 b9 a1 be
       0.106805496 0.10045443 -0.11876326 -0.3158648

row_embedding.1.bias f4 [32]
000000 7d 56 52 bd 63 68 83 3e f1 9c e1 3d 9b cc bc be
       -0.051352013 0.25665578 0.11016262 -0.36874852
000010 7c 27 a5 3d c4 3d f4 bd 8f bb 9b 3c ff 4a db bd
       0.08064172 -0.11925843 0.019010333 -0.10707664
000020 aa e2 1c 3e 49 87 56 be 1f 24 b3 be 12 36 d3 bc
       0.1532084 -0.20950045 -0.34988496 -0.025782619
000030 04 c3 a2 3e e6 f9 1a 3e aa 62 b1 3e 3f 10 d6 3d
       0.3178941 0.15134391 0.34645587 0.104523174
000040 1a 2f 24 be 17 85 81 3c 0e f1 f4 bd 43 f8 9e 3e
       -0.16033593 0.015810532 -0.1196004 0.31048784
000050 b9 91 8f 3e 2f 9b e0 bc 36 88 5a 3e 4f cc cd bd
       0.28040865 -0.027417747 0.21341023 -0.100487344
000060 8e ad a4 3e eb 2c 54 3e 0d 3e 17 be 5d 73 00 3e
       0.32163662 0.2072026 -0.14769764 0.12544008
000070 f8 1f 97 be 9a 7e 48 be cc 66 b1 3c 6f 49 5d be
       -0.29516578 -0.19579545 0.021655463 -0.21610044

row_embedding.3.weight f4 [32, 32]
000000 91 df fc bd 13 17 24 bd 82 83 91 3d 89 9d 41 3c
       -0.123473294 -0.040061068 0.07105161 0.011817344
000010 39 ac ce 3d 9e 63 85 3b a1 97 27 3e 61 37 15 3e
       0.100914426 0.004070713 0.16366436 0.14571907
000020 35 33 d0 3d d4 df 15 be a8 a4 12 3d 68 30 fe 3c
       0.10166017 -0.14636165 0.03580156 0.031028941
000030 1c 2b cd 3d 40 b0 11 ba 07 db 0c 3e 45 cc 1f 3e
       0.10017988 -0.00055575743 0.13755427 0.15605266
000040 6b 4e 1d 3e a0 56 1a 3d 3d 9f f4 bd d5 bc d8 3d
       0.15361945 0.03768027 -0.11944435 0.10582892
000050 91 61 1e 3d ed e2 5c 3d ad 6b 36 3d 0f c6 ea 3d
       0.038667265 0.05392735 0.04453628 0.11463558
000060 55 e4 26 be 1e 3d da 3d 88 d2 02 3e 86 5a 1a 3e
       -0.1629804 0.106561884 0.12775624 0.15073594
000070 65 b2 92 3c 97 56 1d be 13 b7 16 3e c2 37 ee bc
       0.01790733 -0.15365063 0.14718275 -0.029079322
000080 be 8f 0c 3d 57 34 e9 3c 96 32 36 be bd 85 01 3c
       0.03431677 0.02846734 -0.17792735 0.007905421
000090 83 46 8f bc b9 65 4a bd 67 92 9f 3d fd 1b 31 3d
       -0.017489677 -0.049413417 0.07791596 0.043239582
0000a0 6a eb bf bd dc 88 20 bd 10 6b d6 bd 1c 74 24 be
       -0.093710735 -0.03919302 -0.10469639 -0.16059917
0000b0 ca 85 b1 3d ac 41 cd 3d 35 be 20 3e be 9f 29 be
       0.08668096 0.100222915 0.15697558 -0.16564843
0000c0 44 9a 42 bd 62 d1 05 3e 1a 71 9a 3d 5b 93 0a be
       -0.0475104 0.13068154 0.07541104 -0.13532774
0000d0 74 e8 01 3e 72 36 fa 3d 9a b6 05 3e db d2 f9 3d
       0.1268633 0.12217416 0.13057938 0.121984206
0000e0 5a 4e 0f 3e 09 2f 91 bd 51 f4 0e 3e 5a 4b e1 3d
       0.13994732 -0.07089049 0.13960387 0.110007
0000f0 ed 2e 09 be 21 31 6d 3d 50 fd 0b be c2 25 be bd
       -0.13396807 0.05790818 -0.1367085 -0.092845455
000100 c4 30 6e 3c ea 13 26 3e da b0 d8 bd 9a 4d 17 be
       0.014537994 0.16218534 -0.10580607 -0.14775696
000110 ba 2f 2e 3e 8c 11 ad bd 01 ee 27 be 20 48 91 bd
       0.17010394 -0.084506124 -0.16399385 -0.07093835
000120 98 de f2 3d d1 86 03 3d 94 63 24 3e 4f 2e d3 3d
       0.11858863 0.032110993 0.16053611 0.10311567
000130 32 99 2d 3c 03 43 26 3e 1d ab a5 bd fe 24 af 3d
       0.010595607 0.162365 -0.08089278 0.085519776
000140 ec 35 17 bd fd f1 9c bc 5d fd 31 3d 1d 63 00 3e
       -0.03691666 -0.019158358 0.043454517 0.12537809
000150 a3 8c 1b 3e 38 b0 4d 3d ff 46 63 bd 12 3e 2e 3e
       0.15190367 0.050216883 -0.05548763 0.17015865
000160 38 40 05 3d 11 d1 68 3d 45 ed 62 3d bb 00 29 be
       0.032531947 0.056840006 0.05540206 -0.16504185
000170 a1 8e 29 3e 81 15 28 3e 38 ee 03 3e 2f 12 1e 3e
       0.16558315 0.16414453 0.12883842 0.15436624
000180 34 21 a4 bd 95 7a 1c bd d7 c4 1d be b5 2c 67 3d
       -0.080141455 -0.03820284 -0.1540712 0.05643912
000190 69 d1 42 3d a2 48 72 3d 26 7d 2d 3e ec dd bf bc
       0.04756299 0.0591513 0.16942272 -0.02342125
0001a0 65 7b b4 3d c0 47 ee 3d 09 45 de bd 74 26 02 bd
       0.08812598 0.11634779 -0.10853011 -0.031774953
0001b0 6c b9 02 3e 98 df d2 bd a7 b7 7a 3d 28 14 b5 3d
       0.12766045 -0.102965534 0.0612103 0.08841735
0001c0 a7 ce 99 bc c9 c3 2c 3e 14 6f 8d bd 40 08 93 3d
       -0.018775297 0.16871561 -0.06905952 0.07179308
0001d0 3e 0d 22 bd 60 a3 22 be c2 03 95 3d f7 a8 8a bd
       -0.03956341 -0.15882635 0.07276107 -0.06770509
0001e0 26 ae 34 bb 7d 77 1d 3e b8 e6 a1 bd 35 e8 86 bd
       -0.002756962 0.15377612 -0.07905334 -0.06587259
0001f0 86 b6 33 be 19 a2 01 be 87 a5 ef bd 65 90 38 3d
       -0.17550096 -0.12659492 -0.11701494 0.04505958
000200 fe b6 b7 3d 93 68 ec bc a6 43 ea bd 96 71 10 3c
       0.0897045 -0.028858459 -0.11438684 0.0088161435
000210 b8 53 ac 3d a3 95 85 bd 55 40 e4 bd 99 7e be 3d
       0.084144056 -0.065226816 -0.11145083 0.0930149
000220 72 04 30 be 8a f9 94 3d fc 6c 0d 3e 59 60 31 be
       -0.17189196 0.07274158 0.13811105 -0.1732191
000230 9f bd 49 bd 97 60 2f bd ad be 2a 3c b2 a2 3a be
       -0.049253102 -0.042816725 0.010421437 -0.18226126
000240 59 60 e2 bd 69 cc d2 bd 52 fd 8a 3d b5 5d 7e 3d
       -0.11053533 -0.102928944 0.06786598 0.062101085
000250 f7 4d 0e be ac ed 36 3d 98 75 55 3b b7 a4 82 3d
       -0.13896929 0.044660255 0.0032571312 0.06379073
000260 41 dd 8a bd 6e a0 f0 3d 5f ee a6 bd 8e 7c 0c be
       -0.06780482 0.117493495 -0.081509344 -0.13719389
000270 f2 af d4 3d b9 46 32 be c2 0f f2 3d 54 4c 4d bd
       0.103851214 -0.17409791 0.11819412 -0.05012162
000280 0a b8 b2 bd 67 40 23 be 90 c6 07 bd 7d da 7a 3d
       -0.08726509 -0.15942536 -0.03314835 0.061243523
000290 13 62 66 bd 5d 18 27 3e 9b cf bd 3d 50 0f 78 3d
       -0.056245875 0.16317888 0.09268113 0.06056148
0002a0 38 bb 28 be 71 ed 7b 3b 7d be 01 be 09 25 3d 3d
       -0.16477668 0.0038441087 -0.12670322 0.046177898
0002b0 ba 1f 21 bd 12 1a e0 3d 47 fc 21 bb d5 8a 27 be
       -0.039336897 0.109424725 -0.002471702 -0.16361554
0002c0 b1 bd c6 bd 67 d4 33 be a8 0f 37 bd 9b 2a ae 3d
       -0.097041495 -0.17561494 -0.044692665 0.0850422
0002d0 15 f3 13 be 6f aa f0 3d 8b 8c 32 be 66 45 58 bc
       -0.14448197 0.11751258 -0.17436425 -0.01320014
0002e0 01 ef 1b 3a bd 4f b5 bd 12 70 1c be 49 3b c6 bd
       0.0005948395 -0.088530995 -0.15277126 -0.096792765
0002f0 ba 17 13 be f9 37 a4 bc dc e4 db 3c 85 d0 27 be
       -0.1436452 -0.020046221 0.026842527 -0.16388138
000300 f9 82 a8 3d 9e a4 03 3e 6d 78 f9 3d f3 e5 2e bd
       0.08228106 0.12855765 0.121811725 -0.042699765
000310 9a d2 0f 3e a1 04 74 3d 9d f7 00 be 7a 37 ab bd
       0.14045182 0.059574727 -0.12594457 -0.08360191
000320 0c 0f 1c be ee 6a a6 3d e1 f3 04 3e 07 5b 8c 3d
       -0.15240115 0.08125864 0.12983657 0.068532996
000330 70 d8 f8 bc a1 7f 14 be 16 6b 2c be 33 fb b2 3c
       -0.030376643 -0.14501812 -0.16837725 0.021848297
000340 b8 33 cf bc da 99 0c 3e a5 81 97 bd d8 3c 0e 3e
       -0.025293216 0.13730565 -0.073977746 0.13890398
000350 68 a2 bb 3d 91 a2 de 3d ef d7 25 3d 68 91 0a 3e
       0.09161836 0.10870851 0.040489133 0.1353203
000360 bf e9 bc bd cb fb 40 bd 83 91 b5 bd df ea 62 3c
       -0.09224271 -0.04711513 -0.08865645 0.013849943
000370 6a 74 29 3e 28 39 45 bd 50 1e 1c bd f9 18 db 3d
       0.16548315 -0.04815021 -0.038114846 0.106981225
000380 8f b5 6e bd d9 1f 2e bd fc cc f1 bd 91 2c 03 be
       -0.058278617 -0.04251084 -0.11806676 -0.1280997
000390 79 ef 14 3d 97 ef 0d 3e dd 1b 0f 3e 9d 6b cd bd
       0.03636119 0.13860928 0.13975473 -0.10030291
0003a0 79 a3 b5 3d b3 ac db bd 86 d5 31 be 86 98 02 bb
       0.088690706 -0.10726299 -0.17366609 -0.0019927337
0003b0 49 12 1c 3e c5 24 a0 bc 5b fd 15 be 5b bd 72 bd
       0.1524135 -0.019548783 -0.14647429 -0.059262615
0003c0 8f b3 8b 3d 9f 78 09 3e 57 d8 32 be a7 2c 38 3d
       0.068213575 0.1342492 -0.1746534 0.04496446
0003d0 27 a3 7a 3d f9 ca 22 3d f3 d2 30 be 2c e9 7b bd
       0.06119075 0.03974435 -0.1726797 -0.061501667
0003e0 93 55 d9 bc 30 a3 c6 bd e7 7e 01 be 2e a5 04 3d
       -0.026530063 -0.09699094 -0.12646066 0.03238409
0003f0 ab 49 83 bc 66 d1 9c bb 7d c0 fc bd 82 0e 11 3e
       -0.016026339 -0.0047857044 -0.12341402 0.1416569

row_embedding.3.bias f4 [32]
000000 ec 4e de 3d 0c 30 57 bd 53 c8 77 bd 53 27 2e bd
       0.10854897 -0.052536055 -0.06049378 -0.04251797
000010 e3 a2 62 3c 03 ea 04 be 8a 4c d9 3d 25 c1 11 3e
       0.0138327805 -0.12979893 0.10610302 0.14233835
000020 55 41 82 bd 43 f2 d1 3d 19 1b 08 3e ac 11 ca 3d
       -0.06360117 0.10251286 0.13291587 0.09866652
000030 73 70 9f bc 91 3e 32 3d 1e 44 d6 3d 5b 76 d8 3d
       -0.0194628 0.0435167 0.10462211 0.105694495
000040 b9 58 c5 3d 73 22 97 bd dc bc 48 3d 41 fc c0 3d
       0.09636063 -0.073796175 0.049008235 0.094231136
000050 1e f7 04 bc d8 cd 07 3d d1 56 5f 3d 4c 9d 85 3d
       -0.008115558 0.033155292 0.054526154 0.065241426
000060 b2 59 d7 3d 9c a5 2a 3d c0 aa 28 3e e4 70 62 bd
       0.10515155 0.041661844 0.16471386 -0.055283442
000070 3e b8 c0 3b 51 7d 05 bc b7 73 18 be 78 fe f5 3d
       0.0058813384 -0.008147554 -0.14887892 0.12011427

col_embedding.0.weight f4 [7]
000000 2f ad 7f 3f 64 03 80 3f f5 f3 7f 3f c3 06 80 3f
       0.9987363 1.0001035 0.99981624 1.0002064
000010 c8 a2 7f 3f a8 d0 7f 3f d3 0f 80 3f
       0.9985776 0.9992776 1.0004829

col_embedding.0.bias f4 [7]
000000 21 32 c0 ba 78 55 b3 b8 09 64 24 b9 8d 27 8d b9
       -0.0014663377 -8.551305e-05 -0.00015677525 -0.00026923083
000010 15 ec 55 3a 93 05 56 3a b6 b1 20 3a
       0.0008160484 0.0008164283 0.00061299966

col_embedding.1.weight f4 [32, 7]
000000 d4 a4 b4 3e cf 98 ae 3b 39 7b c7 b8 6e 8d 32 be
       0.35282004 0.005328275 -9.5120115e-05 -0.17436764
000010 1a ff 8c 3e 48 4a ba be d5 88 ce bd 36 0b ee bd
       0.27538377 -0.36384797 -0.100846924 -0.11623232
000020 9e 74 84 be 4c 10 28 be ff 3a 3e 3e 33 88 5a be
       -0.25870222 -0.16412467 0.18577193 -0.21341018
000030 06 aa a7 3b 9f f8 71 be 9c fd 49 be 0b dc 54 3c
       0.005116704 -0.23629998 -0.1972565 0.012991915
000040 12 b4 8a 3e c0 3a 35 be 05 5f fe 3c 33 76 b8 3d
       0.27090508 -0.17698193 0.031051168 0.0900692
000050 c6 68 57 3e d9 8c 91 3e 07 64 90 3e fc ac d4 bd
       0.21036062 0.2842777 0.28201315 -0.10384557
000060 4a f9 75 3d c2 25 9e be cd 89 96 bc f2 e4 34 3e
       0.060052194 -0.30888182 -0.018376255 0.1766546
000070 69 45 17 3e 31 85 a4 3e 59 28 97 3e ef 08 37 be
       0.14772572 0.32132867 0.2952297 -0.17874502
000080 0c a7 87 bd 3f 93 80 be 70 ba ba be c9 00 c1 be
       -0.066236585 -0.2511234 -0.36470366 -0.37695912
000090 a7 85 1a 3d 1f 30 92 bd dc 81 77 3e f3 03 6a be
       0.037725117 -0.071380846 0.24170631 -0.22853069
0000a0 3b a8 2c 3e 74 85 f7 bd 6a e4 09 bd cc dc b9 3e
       0.1686105 -0.12086001 -0.0336651 0.36301267
0000b0 b5 16 bf 3e 94 29 51 3e 0f d5 6b 3e 7f 31 14 3d
       0.37322012 0.20426017 0.23030494 0.036180016
0000c0 d0 13 30 3e 8d d7 9e 3d 32 9c fc bd b5 9c 3d 3e
       0.17195058 0.07755957 -0.123344794 0.1851681
0000d0 75 d6 b5 be 28 57 90 3d 8d 5e 94 3d f5 b7 05 3e
       -0.3551518 0.07047874 0.07244597 0.13058455
0000e0 d0 c0 e0 bd 7f 92 38 be ca 10 bf bd 82 d8 55 bc
       -0.10974276 -0.18024634 -0.09329374 -0.013052108
0000f0 04 f7 64 be aa db 1d be 9b 4d 36 3e e3 58 9b 3d
       -0.22359854 -0.15415826 0.17803042 0.07585313
000100 6e ba a6 be 0b f8 5d bd 66 7f cd bc 3b 0d 27 3e
       -0.3256411 -0.05419163 -0.025085162 0.16313641
000110 e0 06 9a 3e d9 78 c1 be 1d 8e ba 3e 83 32 95 3c
       0.3008337 -0.37787512 0.3643655 0.018212562
000120 b9 a3 b9 3e 6f 54 03 be 3f 37 92 be b9 e2 73 be
       0.36257723 -0.12825178 -0.28557774 -0.23816957
000130 99 fb 6f be 32 4f b7 3e d1 b2 07 3e 63 fd 88 be
       -0.2343582 0.3580261 0.13251807 -0.2675582
000140 94 f4 85 bd 51 c5 31 be da d4 6c be 6f 50 62 3e
       -0.0654079 -0.17360426 -0.23128071 0.22100995
000150 e6 23 96 3e 2c 26 99 be be d5 c5 3c 3e 75 7d 3e
       0.29324263 -0.29911935 0.024149772 0.24751756
000160 6e 00 26 3e 24 92 95 bd 9b 99 69 be 50 50 a6 be
       0.16211101 -0.07303265 -0.22812502 -0.3248315
000170 bd 2d 55 be 0d ae 5f 3c 69 b8 0c bd 53 80 4c 3e
       -0.20818229 0.013652337 -0.034355555 0.19970827
000180 be b6 2a 3e 11 d4 0d bc 46 2a 7e bc ce d7 3f 3e
       0.16671273 -0.008656518 -0.015513008 0.18734667
000190 70 20 3f be 92 e5 5c 3e d3 28 a3 3e 02 17 64 3e
       -0.18664718 0.21571949 0.31867084 0.22274402
0001a0 05 9a af 3d 75 90 3d 3d bc 62 de bc ad a3 4a 3e
       0.08574299 0.046280343 -0.02714669 0.19789
0001b0 03 2c 84 3e e0 60 d9 bc 29 97 02 3e 64 1d 91 be
       0.25814828 -0.026535451 0.12752976 -0.28342736
0001c0 08 54 41 3e 0b 28 8c 3e 9e 6b 49 ba c8 59 1d be
       0.18879712 0.273743 -0.0007683578 -0.1536628
0001d0 8a 12 bf bd 7e 48 fb bd f3 30 af be 8a 6b a7 3e
       -0.09329708 -0.12269686 -0.34217033 0.32699233
0001e0 66 86 45 bc 9c 87 a3 be 7c f0 83 3e d7 fe a2 3e
       -0.012055969 -0.319394 0.25769413 0.31835052
0001f0 ac f1 9f 3e 9a 70 6b be 07 a1 83 be 4e ee 9d 3d
       0.31239069 -0.22992173 -0.25708792 0.07711469
000200 71 af 8f 3d c7 4e 62 be 42 c6 88 3d e9 68 81 3e
       0.07015885 -0.22100364 0.0667844 0.25275353
000210 43 d0 8d be b5 15 be 3e c0 db b2 be c0 15 ad bd
       -0.27697954 0.37125936 -0.3493328 -0.08451414
000220 77 11 65 bd 4f 7e b2 3d c2 e0 40 bc 9f f5 80 3e
       -0.05592486 0.08715498 -0.011772336 0.25187394
000230 d0 03 8c 3d 34 52 24 be 45 85 be be e8 87 95 be
       0.06836665 -0.16046983 -0.37211052 -0.2920525
000240 73 c5 52 3e 81 6b 21 3e 5d ed 4f 3e 6b 08 30 bd
       0.20583133 0.15763666 0.2030539 -0.042976778
000250 39 d0 dd 3d 46 81 a4 be 72 05 32 3c 25 cc 1f be
       0.10830731 -0.32129878 0.010865556 -0.15605219
000260 3e 81 81 be b1 61 b8 bd 23 30 67 3e a2 48 6c 3e
       -0.25293916 -0.09003008 0.22576956 0.23074582
000270 99 be 69 3d 2d 9a 82 bd c7 ef 31 be 18 e4 73 bc
       0.057066534 -0.06377063 -0.17376624 -0.014885925
000280 c8 08 3d bd 44 23 67 3e 71 54 ea 3d f6 dd 92 be
       -0.046150953 0.22572047 0.11441887 -0.28684968
000290 a3 33 a4 be 32 58 ff 3d 2a b6 e4 3c 9c 52 0c 3e
       -0.32070646 0.12467994 0.027918894 0.13703388
0002a0 2d 62 2c be 4a 02 25 3e d5 e4 9c be e3 63 b0 3d
       -0.16834326 0.16114154 -0.30643335 0.08612802
0002b0 23 59 83 be e1 94 98 be a3 b9 a1 bd 70 7f 8b 3e
       -0.25653943 -0.29801086 -0.078967355 0.27245665
0002c0 1f d0 84 be 3e dc 88 be d7 65 3e 3e 09 b7 b4 be
       -0.25940034 -0.2673053 0.18593536 -0.35295895
0002d0 b7 8b 0f bc 3f 79 87 be 67 d6 89 3e 2a 28 68 bd
       -0.008761338 -0.2645969 0.26921389 -0.05667893
0002e0 15 f7 ca bd a2 3a 6a be 89 f2 c5 3c 78 2d 13 3e
       -0.099104084 -0.22873929 0.024163501 0.14372814
0002f0 9a 4c c9 3d 84 4e 49 3e d7 20 be 3e 06 05 3d 3e
       0.09829064 0.19658858 0.3713443 0.18458948
000300 5c 39 a0 3e d7 5e 9d 3d 67 06 6e be 29 06 97 be
       0.31293762 0.07684105 -0.2324463 -0.29496887
000310 9d 97 b7 3e 53 1f 0c be aa 42 a7 3e a3 c1 54 3d
       0.3585786 -0.13683824 0.32668048 0.05194248
000320 8b 44 06 be a4 2b 64 be f7 56 b2 be 3f 72 8f 3c
       -0.13112085 -0.22282273 -0.34831974 0.017510531
000330 f7 a2 cd 3d 72 46 ba bb 69 cb 9b be a9 3d 90 3e
       0.10040849 -0.0056846673 -0.30428627 0.28172043
000340 f7 85 87 3e 60 15 b7 3e a0 e6 b2 3e da 62 d4 bd
       0.26469395 0.35758495 0.34941578 -0.10370417
000350 28 f8 44 be ce b9 35 3e 2c 80 22 3c 0e 50 10 3e
       -0.19235289 0.1774666 0.009918254 0.14093038
000360 21 94 5f bd d8 13 33 3e e2 3d bb be 31 98 b0 3e
       -0.054584626 0.17488039 -0.3657065 0.34491113
000370 51 ad 22 3e 89 a1 b9 3e 59 24 af 3b e0 a1 74 3e
       0.15886427 0.36256054 0.005344909 0.23889875

col_embedding.1.bias f4 [32]
000000 d7 dd 87 be 87 88 30 be 51 19 9f bd 3e bc 92 be
       -0.26536438 -0.17239581 -0.077685006 -0.28659242
000010 64 1c 9a be 17 0a 8b 3e a3 97 48 be ad 91 24 be
       -0.30099785 0.27156135 -0.19589095 -0.16071196
000020 b1 90 24 bd 0a 02 14 bd f2 49 c6 3d 22 94 8a 3e
       -0.04017705 -0.036134757 0.09682073 0.2706614
000030 e5 0a 6d 3d 7b cf 2d be 80 62 00 3e 6e dc c0 be
       0.057871718 -0.16973679 0.12537575 -0.37668175
000040 83 38 b5 3e f5 b4 af 3b 0b a4 53 be a6 89 25 bd
       0.35394678 0.005362148 -0.20668046 -0.040414475
000050 01 4b d0 bc a7 34 a9 be 37 6d 8e 3e 68 bf 9d 3d
       -0.02542639 -0.33047983 0.278177 0.077025235
000060 25 07 b5 be 2d 42 9c 3e c3 25 8f be ef c1 a7 bd
       -0.35357013 0.30519238 -0.27958497 -0.08191287
000070 54 4f e8 3d 12 70 b5 3e f6 e1 4f bd 4d b5 ab 3e
       0.11343256 0.35437065 -0.050752603 0.3353676

col_embedding.3.weight f4 [32, 32]
000000 77 71 0b 3e cf de 02 3e 45 b2 e4 bb 1a fc 0f be
       0.13617502 0.12780307 -0.006979259 -0.14061013
000010 f2 c9 9d 3d 6a 75 02 bd 1d 46 2b be d1 b3 0b 3e
       0.07704534 -0.031850256 -0.16725965 0.13642813
000020 87 f9 0c 3e 21 0d 19 3e 5f b6 c1 3d 43 c9 e1 3d
       0.13767062 0.14946415 0.09458613 0.11024716
000030 de e5 14 be 3d dc d9 bb fc 06 6e 3d e9 be 94 3d
       -0.14540812 -0.006648569 0.05811213 0.07262976
000040 3b ad 62 bd 78 80 16 bd 6a 8e 06 be 51 4a 21 be
       -0.055340987 -0.03674361 -0.13140264 -0.15751006
000050 82 12 f0 3b 8e 71 30 3e d3 8f f4 bd c2 5a 28 3e
       0.007326425 0.17230818 -0.11941495 0.16440871
000060 db 0f 23 be fb 76 f6 bd 73 76 0f be d1 98 01 be
       -0.15924017 -0.120344125 -0.14010029 -0.12655951
000070 f1 ef 14 3e ff ed 30 3b 65 14 44 bd ea cd 2e 3e
       0.14544655 0.0026997325 -0.047871012 0.17070737
000080 28 7f b2 3d 8f ed 0c be fc ed 1a 3e a1 6b b5 bd
       0.087156594 -0.13762496 0.15129846 -0.08858419
000090 e4 1e c2 3d 4b bb 4c 3d cf da 69 3d 38 6e 48 bd
       0.09478548 0.049983304 0.057093438 -0.048933238
0000a0 a8 5e 26 3e 52 46 90 bb bc 2d d8 3d d6 fa f5 3d
       0.16247046 -0.004402914 0.10555598 0.12010734
0000b0 6b 77 1d be 0f 48 f8 bc 8b 9e cf bd 83 17 99 bc
       -0.15377586 -0.030307798 -0.101376615 -0.01868797
0000c0 c0 a9 18 be c8 78 91 bc 65 b2 eb bd 04 fb 8a bd
       -0.14908504 -0.017757788 -0.115086354 -0.06786159
0000d0 e8 ad c5 3d 34 d7 70 bc 48 b0 27 3e e1 27 75 3d
       0.096523106 -0.014699746 0.1637584 0.059852485
0000e0 3c a8 6a 3d 6f de 3b 3d c4 98 34 be 5e fb 2d 3e
       0.057289347 0.045866426 -0.176364 0.1699042
0000f0 63 14 e3 bb f8 bf 2f be 37 29 cc bb 44 4a b5 bd
       -0.0069299205 -0.17163074 -0.006230499 -0.08852056
000100 06 f8 73 bd 3a dd 37 bd 28 a3 bd bc 51 8b d8 bd
       -0.059562705 -0.044888712 -0.023149088 -0.105734475
000110 89 3a d3 bd 3b 6c 7e 3d 35 32 20 3e 19 6d 33 3e
       -0.10313899 0.062114935 0.15644152 0.17522086
000120 e0 2a a5 bd ef 2a 22 be f6 2c 10 bd 3f 87 68 bc
       -0.080648184 -0.1583669 -0.035199128 -0.014192401
000130 58 24 1f be 39 e3 06 be ef 17 39 bc 3b b6 8f 3d
       -0.15541208 -0.13172616 -0.01129721 0.070171796
000140 44 a7 70 3a 74 b2 57 bd 06 93 c6 bc 5e bd 25 3e
       0.0009180198 -0.05266042 -0.024240028 0.16185519
000150 a9 38 99 3d 83 74 cb bd c9 bd d6 3d 84 cf f4 3d
       0.0748151 -0.09934332 0.104854174 0.11953643
000160 fe 4b c6 bd f1 28 0c bd 92 89 e0 3d f8 7a 92 3b
       -0.09682463 -0.034218732 0.109637395 0.0044702254
000170 e3 63 e6 3c 19 ca 21 bd 94 6b 2b bd 34 e7 ab 3d
       0.028123802 -0.039499376 -0.04185064 0.08393708
000180 ed 05 da 3d 5e a2 35 bd 34 31 b2 bc 38 cd d5 3c
       0.106456615 -0.0443443 -0.021751978 0.026098832
000190 92 3b a1 3d 68 8a 2f be 9b b9 90 bd 98 f9 d6 3d
       0.0787269 -0.17142642 -0.070666514 0.10496825
0001a0 2d 07 1f 3e 0e a0 2d be 9b b6 27 3d 27 aa 40 bd
       0.15530081 -0.16955587 0.04094563 -0.04703727
0001b0 98 15 84 3d af 28 1a bc de ed 9a bd 19 01 15 be
       0.06449431 -0.009409114 -0.07564901 -0.145512
0001c0 28 cc 4f bd 79 38 15 3d 45 78 4d bd f0 4e f6 3b
       -0.050731808 0.03643081 -0.050163526 0.0075167343
0001d0 7b 3f 7a 3d 8e d6 eb 3d a4 55 f6 3d 32 e2 81 3d
       0.061095696 0.115155324 0.120280534 0.063419715
0001e0 3e 7c e7 3d 90 cd 1b be 10 64 f4 3d ec dd c3 bc
       0.11302994 -0.15215135 0.11933148 -0.023909532
0001f0 f5 54 f6 3d 7c b9 0b 3e 5b 00 10 3e 52 a7 87 3d
       0.12027923 0.13644975 0.14062636 0.06623711
000200 0c fb d8 3d 75 bc 76 3d a4 d2 00 3d d6 54 b6 bd
       0.105947584 0.06023832 0.031450883 -0.089029
000210 29 48 14 3c 62 b0 10 3e 76 c6 14 bd d3 3c ec bc
       0.009050407 0.14129785 -0.03632208 -0.028837597
000220 a2 2a 09 3e d4 de ca 3d 4e 3d a8 bd 12 51 24 be
       0.1339517 0.09905782 -0.08214818 -0.16046551
000230 2a 98 95 3c 14 98 09 be a1 86 06 be 39 b6 12 3e
       0.018261034 -0.1343692 -0.13137294 0.14327325
000240 bc 0e d2 3d 2f 8b 28 be fa e0 bb bd a1 fe c6 3d
       0.102567166 -0.16459344 -0.0917377 0.09716535
000250 32 d7 05 be af 48 96 3d 02 77 fa 3c a9 63 fa bd
       -0.13070372 0.07338082 0.030574325 -0.1222604
000260 d7 89 d7 3b b1 8b 71 3d 73 e7 2d 3e 4e 78 d7 3d
       0.006577711 0.05897111 0.16982822 0.10520993
000270 9a 96 ce 3c 03 36 8e bd 1c da 23 be 8e 55 ba 3c
       0.025218297 -0.06943896 -0.16001171 0.022745874
000280 c9 1c d8 3c d3 32 8d 3d d0 9c 67 bd 61 d4 07 be
       0.026380913 0.068944596 -0.056546032 -0.1326461
000290 a5 78 e5 3d 19 0a bc 3d 3e 2b 5f bd e1 b4 07 3e
       0.11204652 0.091816135 -0.0544846 0.13252594
0002a0 0b 7d 1c 3e 14 ef d5 3d be 83 ba bd 44 c2 ed bd
       0.15282075 0.10445991 -0.09107159 -0.11609319
0002b0 ff d3 cc bd 5d 40 13 3e 5a 43 ec bd 3e 4f 4d 3d
       -0.100013725 0.14380021 -0.11536284 0.0501244
0002c0 79 0c 3e bd ba 9c d0 bd 9f 95 0d 3e 28 3e 35 3d
       -0.046398614 -0.10186143 0.13826607 0.04424873
0002d0 f2 84 9a bd df c6 42 bd 78 58 00 3e ae 83 97 bc
       -0.075448886 -0.04755294 0.12533748 -0.018495407
0002e0 44 f7 4a 3d cb 4a 0d be e1 c6 8a bd 19 d5 42 bd
       0.049552217 -0.13798063 -0.067762144 -0.047566507
0002f0 b9 e8 15 3e 56 d7 21 be 89 57 b3 3d df 2b 35 3c
       0.14639558 -0.158048 0.087569304 0.011057823
000300 a0 27 3e 3d 0f 5d 7b bd fc a2 ef 3d 95 44 50 ba
       0.046424508 -0.061368044 0.11701009 -0.000794479
000310 ed b1 e6 bd 7d c6 81 bc 21 7e a2 3d 00 84 f8 3d
       -0.112644054 -0.015841717 0.079342134 0.12134552
000320 16 6a 31 3e 9e e8 24 3e 41 48 eb bc e7 6a c2 bd
       0.17325625 0.16104361 -0.028720977 -0.09493046
000330 1d 8e a8 3c e2 30 23 be 33 6b 01 3e 36 ea af 3b
       0.020575577 -0.15936616 0.1263855 0.0053684963
000340 b2 63 30 3e 9c 0c 95 bd 85 7d cc 3d d0 05 20 3e
       0.1722553 -0.07277796 0.099848785 0.15627217
000350 46 36 e5 bc d6 9b cf 3d 13 56 ec bd 5b 47 22 3e
       -0.027979981 0.10137145 -0.11539855 0.15847532
000360 92 56 2e 3d 01 dc 10 3e 22 b4 b5 3c 95 de 69 bc
       0.04256303 0.14146425 0.02218062 -0.014274259
000370 b3 fb 44 3d b9 5a f8 3d ef 44 ec 3d ea 17 f8 bd
       0.0480916 0.12126679 0.115365855 -0.12113936
000380 58 04 f8 bd 9f 03 af 3d 45 4c 2b 3e dc f5 15 3e
       -0.121102035 0.085456125 0.16728313 0.14644569
000390 a3 13 d1 bd 12 48 c6 3c 13 dc 7a bc a9 6c 1a be
       -0.102088235 0.024204288 -0.015311259 -0.15080513
0003a0 6f 0f 11 3e 42 0a 27 3e 44 0e 3c 3d 5c e3 e4 bd
       0.14166044 0.16312507 0.045912042 -0.11176178
0003b0 35 b7 90 bc d3 cf fa 3d 9b de ca bd 9b 22 3d bd
       -0.017665485 0.122466706 -0.0990574 -0.04617558
0003c0 6d 14 b1 bd 54 f0 0b 3c 0a b8 9c bd e9 ec f5 bc
       -0.08646474 0.008541185 -0.0765229 -0.030020194
0003d0 91 1a 4d bd b7 a8 d8 3d fc 09 b0 bd 86 ec 42 3d
       -0.050074164 0.10579055 -0.08595654 0.047588848
0003e0 29 10 0f 3e 07 76 12 3e 40 da 1c be ec 18 5d bd
       0.13971008 0.14302836 -0.15317631 -0.053978845
0003f0 76 38 bf bd 24 c5 0c be dc bb 65 3d d9 f0 f8 3d
       -0.09336941 -0.13747078 0.05608736 0.12155313

col_embedding.3.bias f4 [32]
000000 8e c9 3c bd 2a 6f 1a 3e c3 d6 c7 bd 48 61 f5 3d
       -0.046090655 0.15081468 -0.097577594 0.119814456
000010 86 d2 c3 bc 7e b9 1c 3e de 8b d6 3d df 49 ff 3c
       -0.023904096 0.15305135 0.10475896 0.031163154
000020 f2 64 12 3e 28 a8 11 3e dd 46 07 3e 63 b6 07 3e
       0.1429632 0.14224303 0.13210626 0.13253169
000030 59 ce a9 bd 0d 2a 21 3e b7 75 8a 3d 31 b9 a6 bc
       -0.08291311 0.15738697 0.067607336 -0.020351978
000040 2d 34 c0 bd d1 fc ab bd 08 b8 ec 3d bd b8 12 3e
       -0.09384952 -0.0839783 0.11558539 0.14328285
000050 fa e6 ba 3d 6f 00 ca 3d e3 9f fc bd 64 11 1b 3e
       0.091260865 0.09863364 -0.123351835 0.15143353
000060 02 f0 0d 3e 28 33 86 bd 6e f4 0a 3e de 19 bf 3d
       0.13861087 -0.06552726 0.13569805 0.09331106
000070 50 9b bc 3d c2 1d f3 3c 41 e3 b7 bd bf be 9a 3d
       0.09209311 0.029677276 -0.08978892 0.07555913

conv_col_to_row.feature_module_left.0.weight f4 [32, 32]
000000 95 f0 c6 3c 9a 5e 1e be d6 8b 60 bb ba 4f 2b 3d
       0.02428464 -0.15465775 -0.0034263036 0.04182408
000010 83 83 05 bd 08 79 ef bd a1 9e 87 3c 9e f7 61 bd
       -0.032596122 -0.11693007 0.016555132 -0.055167787
000020 db c2 21 3e 76 09 13 3c 9a 5f 9f bc 08 b2 04 3e
       0.15796988 0.008974424 -0.019454766 0.12958539
000030 e5 5d 9c ba bb a7 50 bd 6f ff 97 bc ce 9f 39 bc
       -0.0011929838 -0.05094121 -0.018554417 -0.011329604
000040 7c 48 36 bc 9d 54 0f be 2f 53 04 3e a4 e0 fb 3c
       -0.01112568 -0.13997121 0.12922357 0.030746765
000050 cf 6f bd bd cb f4 d9 bd a7 dd a4 3d 26 b3 9c 3d
       -0.092498414 -0.10642394 0.08050089 0.07651357
000060 88 f5 c1 3d 9b c7 d9 bd fc d3 25 be 77 9e 07 be
       0.094706595 -0.10633775 -0.16194147 -0.13244043
000070 67 27 00 3e 0c 4e 44 bd e7 91 62 bd 89 2a d0 bd
       0.12515031 -0.047925994 -0.055314925 -0.10164363
000080 25 66 05 3e 83 e4 92 3d cd 6c d3 3d 0a c6 cd bd
       0.13027246 0.071724914 0.103234865 -0.100475386
000090 b5 e0 03 bd d1 c9 23 3e 8c 72 c7 bc fa b5 32 be
       -0.03219672 0.15994956 -0.024346612 -0.17452231
0000a0 01 77 b8 bd 69 f1 8e 3b b4 eb ee 3d 75 a2 fc 3c
       -0.09007073 0.0043622744 0.116660506 0.030839184
0000b0 91 60 1f 3d ac 80 ff bd 26 6d fd 3c 9a 46 77 3c
       0.038910452 -0.12475714 0.030935835 0.015092516
0000c0 0d 9a 01 3e 74 ad 07 be 80 95 d9 3c ec 7d d8 bd
       0.12656422 -0.13249761 0.026560545 -0.10570893
0000d0 a0 b4 1d bd 1b 79 b0 3d 4a 51 35 be 48 ec dc 3d
       -0.038502336 0.08616849 -0.1770679 0.107872546
0000e0 91 b3 27 be 40 a5 1a 3d 41 40 a3 3d 9a f1 d2 3d
       -0.16377093 0.03775525 0.0797124 0.10299988
0000f0 8f 5c c4 bd a6 33 de bd 9f 5e b9 3d 95 c3 83 bc
       -0.09587967 -0.10849695 0.09051251 -0.016084472
000100 92 17 e9 3d c8 2a dd bd c4 88 dc 3c 9b 81 8a 3d
       0.11381449 -0.107991755 0.026920684 0.067630015
000110 4d 67 ba 3c d7 10 03 3e 0e 09 05 be ec 08 2b 3e
       0.022754336 0.12799393 -0.12991735 0.16702622
000120 81 75 ed bd 3c b8 da bd 76 12 04 3e 2a 58 ae 3c
       -0.11594678 -0.10679671 0.12897667 0.021282274
000130 05 74 2c be 54 63 2a be e0 b9 a6 bd 83 0e 2a 3e
       -0.16841133 -0.16639453 -0.081409216 0.16607098
000140 91 50 26 3d 8b 6a 06 be 7c 9a 2e 3e d7 3e 8d 3d
       0.040604178 -0.1312658 0.17051119 0.068967514
000150 2d b2 9c bd ef 34 e6 bc b7 e7 49 bd 87 d4 33 3e
       -0.07651172 -0.028101413 -0.049293246 0.17561541
000160 c6 26 b2 3b b0 07 57 3d e2 d2 0f be 9c c2 b7 3c
       0.005436751 0.052497566 -0.14045289 0.022431664
000170 71 b1 8b bd b3 3a 8c 3d f9 da cf 3c 83 44 32 bc
       -0.06820954 0.068471335 0.025372969 -0.010880592
000180 dc c9 4e bd a7 76 7b bd 71 ca 4c 3c 48 80 09 3c
       -0.050485477 -0.061392453 0.012499438 0.008392401
000190 2a b2 68 bc 4b a9 51 3d cb 5f 90 bc 02 5b 8f bd
       -0.014202634 0.05118684 -0.017623803 -0.0699978
0001a0 b6 ce 0f 3e d6 2b c3 bd 6f ef fd bd d2 f9 1a 3e
       0.14043698 -0.095298454 -0.12399184 0.15134361
0001b0 d1 e3 df 3c 0e 67 07 bd ab 3a c4 bd b0 ec 07 bd
       0.027330311 -0.033057265 -0.095815025 -0.033184707
0001c0 84 80 08 be 44 22 20 3d 7d 49 9f 3c 44 f6 99 3d
       -0.13330275 0.03909518 0.019444222 0.075176746
0001d0 8b 18 11 bd 5d df 2b be 3d d5 0a 3e 8f b3 25 be
       -0.035423797 -0.16784425 0.13557906 -0.16181777
0001e0 9f 84 ea bd 57 55 bb bb f6 f3 cf bd 22 b8 c0 bd
       -0.11451077 -0.0057169604 -0.10153954 -0.094101205
0001f0 50 9d fa 3d f8 41 2e be 97 e5 b8 bc 7a 0a b8 3d
       0.12237036 -0.17017353 -0.022570414 0.08986373
000200 d4 bb 19 be a5 5b a0 3d 27 d9 24 3e 9d 19 fa 3a
       -0.15013057 0.0782998 0.16098462 0.001908112
000210 5e ed be 3d a4 37 e5 bd 31 6b 07 3e 11 69 21 be
       0.09322618 -0.11192253 0.13224484 -0.15762736
000220 65 8c 81 3d bc 16 d0 3d 94 a7 ab bd 71 2e d1 bd
       0.06325606 0.10160586 -0.08381572 -0.10213936
000230 07 4a 28 3d bc 0b 27 3e 8f f6 a1 bd 44 51 05 3e
       0.041086223 0.1631307 -0.079083554 0.13019282
000240 0a 19 a6 bd 2f 11 ec bb cc 52 07 3e 60 0b 15 be
       -0.081102446 -0.007204197 0.13215178 -0.1455512
000250 5f fb 36 be 32 25 01 bd 8d d0 06 3d c2 b3 b9 3c
       -0.17869328 -0.031529613 0.032913733 0.022668723
000260 3f 40 34 be 2d d2 a4 bd 3e fe 28 3d 82 33 e3 bc
       -0.17602633 -0.080479 0.04125809 -0.027734522
000270 41 ef 1e be ec d4 66 3d 19 ae 39 3d df 02 c6 bd
       -0.15520956 0.056355402 0.045332048 -0.09668516
000280 be 27 df 3b 66 43 0c be 69 f6 22 3e 80 f9 a2 3d
       0.0068101576 -0.13697585 0.1591431 0.079577446
000290 4d c2 6b 3c 77 98 a7 3d c6 d0 59 3d 09 ae ec 3d
       0.014389587 0.08183377 0.053177617 0.11556632
0002a0 42 93 12 be 0b f3 08 bd 3d b4 89 3d af 20 17 be
       -0.14313987 -0.03343491 0.06723831 -0.14758562
0002b0 d4 f4 0d bd ad e9 7f bd d3 2a a8 3c 91 e8 00 be
       -0.034657314 -0.06247871 0.020528233 -0.12588717
0002c0 7d b7 2a 3e 9b cb 02 be 42 a5 83 bd 59 fd d1 bd
       0.16671558 -0.12772982 -0.06428005 -0.102534
0002d0 62 1c f3 3d d1 a0 f6 3d f7 75 5b 3d 7a 81 f9 3d
       0.11870648 0.12042392 0.053579297 0.12182899
0002e0 6d ba 27 3e 43 a7 05 bc bd ec c9 bd f9 2e 11 3e
       0.1637971 -0.008157554 -0.09859607 0.14178075
0002f0 d0 07 86 3d a2 84 0c be ac 10 e2 3b 58 9c 31 3e
       0.06544459 -0.1372247 0.00689896 0.17344797
000300 88 37 4e bd f4 19 1f be c4 5a 27 3e 90 fe de 3c
       -0.050345927 -0.15537244 0.16343218 0.027220994
000310 72 fa 92 3d 7a 6c 27 be 2e 5a 17 3e 8b ba e7 bd
       0.07176675 -0.16349974 0.14780495 -0.11314877
000320 6b 43 e1 3c 91 46 ab 3d 81 42 68 3c 38 e4 31 be
       0.027497968 0.08363069 0.014176012 -0.17372215
000330 c3 00 d5 3c c2 e7 a0 bd 5c a8 3a 3d 98 15 9e 3d
       0.02600134 -0.07856704 0.045570716 0.077189624
000340 d3 97 be 3c 02 30 cf bc 53 c7 5f bd 48 8f f8 3d
       0.023265755 -0.025291447 -0.05463345 0.12136704
000350 19 00 9b bd 5e da 6b 3d db 32 d1 bd 7e 22 91 bd
       -0.07568378 0.057581298 -0.10214778 -0.07086657
000360 28 66 dc 3c 53 66 0d be 84 43 47 3d cf 5e 4e bd
       0.02690418 -0.13808565 0.048648372 -0.050383385
000370 9c 25 2c 3e e0 2c aa 3b 76 c6 15 be ed 41 ff 3d
       0.16811222 0.005193338 -0.14626488 0.12463746
000380 01 b4 00 be 30 c9 17 3c b2 1f 10 bc 85 41 fd bd
       -0.12568666 0.009264275 -0.008796619 -0.123660125
000390 c7 13 13 3e 75 5a ce bd 76 f1 d8 3c 76 f6 14 3e
       0.14363013 -0.10075847 0.026482325 0.14547142
0003a0 c3 08 0a 3e f8 fc 1f be c0 a9 15 3e 04 8d 9c bd
       0.13479905 -0.15623844 0.14615536 -0.07644084
0003b0 d0 0b 90 bb 79 36 c7 bd 65 8a 82 3c 67 25 cc 3d
       -0.0043959394 -0.09727187 0.015935132 0.099680714
0003c0 2e 1c 06 be a3 77 39 bb e1 bd 2f 3e cb d2 e7 3d
       -0.13096687 -0.0028300069 0.17162277 0.113195024
0003d0 63 9e 26 bd 83 96 17 be df ee 16 3b b0 2e 85 bd
       -0.040678393 -0.1480351 0.0023030562 -0.065030456
0003e0 03 da b7 3d 34 4e f0 3d ad cc ed bd 68 c6 cb ba
       0.08977129 0.11733666 -0.116113044 -0.00155468
0003f0 86 72 fe 3d 3a 85 a5 3d ab c9 17 be e4 bf 17 be
       0.12424187 0.080820516 -0.14823024 -0.14819294

conv_col_to_row.feature_module_left.0.bias f4 [32]
000000 d4 b3 da 3d 9b c9 03 3e a8 67 df bd ae 9e 87 3d
       0.10678831 0.12869875 -0.10908443 0.066220626
000010 88 fd a2 bc 42 ac e6 3d 41 85 b2 bd 81 4e 32 3e
       -0.019896284 0.11263324 -0.087168224 0.1741276
000020 05 67 74 bd 8a f1 14 be f7 2f dc bd 50 2b 1b be
       -0.05966856 -0.14545265 -0.10751336 -0.15153241
000030 cd b1 17 3d 79 da 8f 3d 75 f4 27 be 67 64 1b be
       0.0370348 0.07024092 -0.16401847 -0.15175019
000040 fd bc b3 3d 93 4a 05 3e a9 6a d2 3c cc 69 18 3d
       0.08776281 0.13016729 0.025685625 0.03721027
000050 57 fb 3c 3d a8 aa b0 3d 68 d1 25 3e b7 ed b3 bd
       0.046138134 0.086263 0.16193163 -0.08785575
000060 d5 d8 b9 3d da e6 57 bd ab 16 00 3e 48 b8 2e be
       0.090745606 -0.05271039 0.12508647 -0.17062485
000070 84 e6 d0 bd 64 96 8b bd 7a bd 69 bd 68 e1 2b be
       -0.10200217 -0.06815794 -0.057065465 -0.16785204

conv_col_to_row.feature_module_edge.0.weight f4 [32, 1]
000000 ce 55 0b 3f 63 1c 1c 3f 59 93 c0 3d 8e 16 ab 3e
       0.544278 0.60980815 0.09403104 0.33415645
000010 d6 c2 ae 3d 5b c2 e8 3e 4d 1d 3b bf ac d8 a8 be
       0.08533256 0.4546078 -0.73091584 -0.32977808
000020 65 5b 02 bf 13 a4 54 3e 0a 0e 69 bf 7c bf 56 bf
       -0.50920707 0.20765714 -0.91037047 -0.8388593
000030 69 bc 53 bf 1c d9 07 3e a5 4e 08 bf 1b 12 b5 3d
       -0.82709366 0.13266414 -0.53245 0.08841344
000040 63 19 80 bd 90 01 15 be 99 7c 31 3f 16 e0 27 3f
       -0.06254842 -0.14551377 0.69330746 0.65576303
000050 3d de 3a bf 38 eb 1a 3c 48 f0 50 bf 3f 04 30 bf
       -0.7299536 0.009455495 -0.8161664 -0.6875648
000060 df 07 2f 3f bb 1d d1 3e 99 a6 29 bf dc f0 26 3f
       0.68371385 0.40842995 -0.6626983 0.6521127
000070 8b 06 1e be 95 2a 16 3e 2b 97 87 be eb da 6b 3f
       -0.15432183 0.14664681 -0.2648252 0.9213092

conv_col_to_row.feature_module_right.0.weight f4 [32, 32]
000000 34 97 7e bd 45 08 a2 3d 02 95 ce bd df c6 f2 3d
       -0.062155917 0.079117335 -0.10087015 0.11854338
000010 bb 54 b0 bd f4 66 f1 bd 47 bd 5f bc 99 69 f6 3c
       -0.08609911 -0.11787215 -0.013655967 0.03007965
000020 ba cc cd 3b c3 61 d5 bd 41 8c bf bd 4b d0 76 3d
       0.006280509 -0.10419037 -0.09352923 0.060257237
000030 a7 6d d0 bd 81 d2 8c 3b 11 96 9b 3d d1 33 8d 3c
       -0.101771645 0.004297555 0.07596982 0.017236622
000040 09 e2 35 3e c3 c5 26 3e ba 77 af 3c cc ca 09 3e
       0.17762007 0.16286378 0.021419395 0.13456267
000050 ab d1 2a be 3f 60 18 3d a6 8d 31 3e e1 62 76 bd
       -0.16681544 0.037201162 0.17339191 -0.060152892
000060 8c dd 8b 3d 0a fb 21 3d 5c e8 0c 3e 7f d5 ca bd
       0.06829366 0.03954605 0.13760513 -0.099040024
000070 2d b2 ee bd a3 db c4 3b 96 6e e7 bd bf ab 17 3e
       -0.11655078 0.006007628 -0.113003895 0.1481161
000080 c7 c6 1f 3e eb 29 bd 3d a1 83 93 bc 83 91 34 3e
       0.15603171 0.09236511 -0.018007101 0.17633633
000090 01 b1 1e be f7 8b 33 3e 3c 58 9f bd 1b 08 17 3e
       -0.15497209 0.17533861 -0.07780501 0.14749186
0000a0 6d d2 de bd 5a b6 c3 bd 32 60 da bd 0d 99 b7 3d
       -0.10879979 -0.09556265 -0.10662879 0.08964739
0000b0 5a 51 0c 3d 0e d3 cf 3d 18 31 b8 3b ba 48 70 bd
       0.03425727 0.10147677 0.005621087 -0.058663107
0000c0 19 6d 0c 3e da fe 0f be 2b d7 9a 3d df 36 1a be
       0.13713492 -0.14062062 0.07560571 -0.15059994
0000d0 0c e1 28 3e e1 e3 43 3c 56 ae 73 bd 12 e8 0a 3e
       0.16492099 0.011956186 -0.05949243 0.1356509
0000e0 31 d7 18 be f5 b2 c9 bd 5f 9b 11 be 15 0e 6c bd
       -0.14925839 -0.098485865 -0.14219426 -0.057630617
0000f0 63 b1 9a bd ee be c8 3d b1 cf 18 be 3e 3e 92 3b
       -0.07553365 0.09802042 -0.14922978 0.0044629863
000100 3f e1 0d 3e b0 db 1c bd 3c 3b 76 bd a5 61 a2 bd
       0.13855456 -0.038295448 -0.060115084 -0.079287805
000110 42 10 b7 3d 83 20 e8 3d c8 bd 07 be 10 f1 c0 bc
       0.08938648 0.11334326 -0.1325599 -0.023552448
000120 04 f4 19 be 5b 6d 58 bd 76 21 a7 3c f3 6e c6 3c
       -0.15034491 -0.052838665 0.020401698 0.024222827
000130 2f c1 02 3e e4 ba f5 3d a1 bb 53 3d 39 f0 24 be
       0.12769006 0.11998537 0.05169261 -0.16107263
000140 05 0f 3d bd d7 e4 33 3e 98 ca 66 bd 45 4d 32 3d
       -0.046156902 0.17567764 -0.056345552 0.04353072
000150 62 7a df 3c 44 17 c8 3d 81 b8 b8 bd 4b 30 ca bd
       0.027280036 0.097700626 -0.09019566 -0.098724924
000160 63 80 39 bd 04 22 ee 3d 25 5e 25 be 89 07 d4 bc
       -0.045288455 0.11627582 -0.16149195 -0.0258825
000170 4d ed d3 3d 3f 2e 0f 3e 9d 1e 14 3d e1 5e b2 bd
       0.10347996 0.13982485 0.036162008 -0.08709503
000180 33 d0 24 3d d9 31 08 be 99 1d 30 be 8a a2 09 3e
       0.040237617 -0.13300265 -0.1719879 0.1344091
000190 d0 aa 33 be fc 5c 06 be c7 59 28 3e fe 17 82 3d
       -0.17545629 -0.13121408 0.16440497 0.063522324
0001a0 7e 1a db bd cc 32 02 be 16 55 1a be dc 58 05 bd
       -0.10698412 -0.1271469 -0.1507152 -0.032555446
0001b0 6b f1 da bd 2b 08 a8 3d 4b b8 f8 bd eb 24 8c bd
       -0.10690578 0.08204683 -0.12144526 -0.06842979
0001c0 1b f3 58 bd bc 10 60 3d f6 e5 98 bc c0 39 fc bc
       -0.05296622 0.05470346 -0.018664341 -0.030789256
0001d0 cb c2 a2 bd c6 a9 2d be db d8 2d 3e 73 d5 13 3e
       -0.0794731 -0.16959295 0.16977255 0.14436893
0001e0 8e 3d 7b 3d 03 b2 42 bc 19 5d 02 3e f4 7a 3f bd
       0.061338 -0.011883262 0.12730826 -0.046748117
0001f0 c7 39 ba 3b db e9 e4 3d d6 00 df bd 4e 12 e9 3d
       0.005683157 0.11177417 -0.10888831 0.113804445
000200 27 ca ae bd 6c 58 09 be f1 20 30 3e 26 09 94 bd
       -0.08534651 -0.13412637 0.17200066 -0.072283074
000210 44 be 96 bd 1b 80 6f bd 45 6e fd 3c 86 4c 73 bc
       -0.07360509 -0.05847178 0.03093637 -0.014849788
000220 43 95 18 be a1 02 26 be fa d5 d6 3d eb 2a 97 3d
       -0.14900689 -0.1621194 0.104900315 0.07381233
000230 6a 32 0a 3e b6 5f 27 be 5c 53 9a 3c cf 21 11 3e
       0.13495794 -0.16345105 0.018838577 0.14173053
000240 6a 64 a4 bd a0 8d f8 3b a5 da ed 3a 92 06 20 3e
       -0.08026965 0.0075852424 0.0018146826 0.15627506
000250 b8 55 0d be 13 6f 0c bd 3e 69 83 3d a5 2d b0 3b
       -0.1380223 -0.034285616 0.06416558 0.005376535
000260 a8 b0 1a 3d 55 8f df bd b8 d9 17 be aa ec 20 3e
       0.03776613 -0.1091601 -0.14829147 0.1571528
000270 06 aa 51 3c b6 11 90 bd ae 41 7b bb 13 83 4b 3d
       0.012796884 -0.07034628 -0.0038338709 0.04968555
000280 75 e6 a3 3d 74 6b 1d 3e 0e 02 2b be c1 f7 0f be
       0.080029406 0.15373021 -0.16700003 -0.14059354
000290 f4 c0 7c 3d e3 d1 bd bd 27 4d 59 3d 47 e9 30 3e
       0.061707452 -0.09268548 0.053052094 0.17276488
0002a0 1b b7 91 bd 56 17 1d 3e d9 d0 88 3d 0a ef ce 3d
       -0.07115003 0.15340933 0.066804595 0.10104187
0002b0 11 46 28 3e 45 9c 30 3e 27 a3 e2 3d 32 ca b9 3d
       0.16432978 0.17247112 0.11066275 0.09071769
0002c0 87 90 7e 3d 23 28 13 3e af db 2c 3e b9 81 16 be
       0.06214955 0.1437078 0.16880678 -0.14697923
0002d0 47 33 01 3e e9 88 e0 3d 1f 81 bb 3d 7b 1d af 3d
       0.12617217 0.109636135 0.09155487 0.08550545
0002e0 c6 c6 b5 bd 11 f7 b9 3d b5 49 e4 3d c5 70 35 3d
       -0.08875804 0.09080327 0.11146871 0.044297
0002f0 86 01 1b 3d b8 e1 f8 bd 4f b6 21 be 36 3f 70 bd
       0.03784325 -0.121524274 -0.15792201 -0.058654033
000300 33 a4 1d 3e 8b db f2 3b e7 b9 6a 3d 7d dd 7e 3d
       0.15394668 0.0074114255 0.057306197 0.062222946
000310 a9 2a e4 ba 3a b4 f3 ba 0d c8 77 bc 8d cc e9 bd
       -0.0017407733 -0.001859314 -0.015123379 -0.11415968
000320 65 3e a9 3d 8a 6e c9 bd a8 79 57 3d 68 45 9c bd
       0.08263854 -0.09835537 0.052606255 -0.07630426
000330 98 2f 5a bd 7a 11 f7 ba ec 83 a3 bd 80 b9 ef bd
       -0.053268045 -0.0018849813 -0.079841465 -0.11705303
000340 b7 d7 0b be d2 92 71 3d 7c a8 ff bd 48 b4 2e be
       -0.13656507 0.05897791 -0.12483308 -0.1706096
000350 b9 4a d7 bd a2 28 03 3c d4 76 0d 3c df 49 f1 3b
       -0.10512299 0.008005293 0.008634288 0.0073635424
000360 61 a6 4d 3d 5c d5 aa bd 8e a0 c9 3d 1c 0d f2 3b
       0.0502075 -0.08341476 0.098450765 0.0073868167
000370 af b2 0c 3e e2 ce e4 3c bb 9f 75 3d 41 81 ff bd
       0.13740037 0.02793068 0.059966784 -0.12475825
000380 da 68 0c 3e ae 82 a9 bc 7f 41 98 bd 14 a5 16 3e
       0.13711873 -0.020692196 -0.074343674 0.1471141
000390 c5 47 5e bd 78 19 e1 3d 14 e4 15 3c d6 c0 30 3b
       -0.054267664 0.10991186 0.009148616 0.0026970408
0003a0 5d 25 19 3e 6a 48 ca bd 58 80 dd 3c 7d 23 a2 bd
       0.14955659 -0.09877093 0.027038738 -0.07916925
0003b0 5c 68 e0 3d 27 d7 0a 3d 37 53 c2 3d f0 ef da 3d
       0.10957405 0.03389659 0.09488528 0.10690296
0003c0 b9 58 65 bd bd 52 d1 bd 41 5b 3c bd f9 56 a7 3c
       -0.055992816 -0.10220859 -0.045985464 0.020427214
0003d0 d6 55 cc bd 27 31 d9 3d 71 1b c2 bd fb cc aa 3d
       -0.099773094 0.10605078 -0.0947789 0.08339878
0003e0 09 91 19 be bd 53 b5 bd 22 a5 d6 3c 81 52 33 be
       -0.14996733 -0.088538624 0.026201788 -0.17511941
0003f0 12 e5 16 3e a4 2d 1b 3e 5a 3f a1 3d 9f 67 da bc
       0.14735821 0.1515413 0.078734115 -0.026660739

conv_col_to_row.feature_module_final.0.weight f4 [32]
000000 49 95 7f 3f 42 ee 7f 3f 00 00 80 3f fa ec 7f 3f
       0.99837166 0.9997293 1.0 0.9997097
000010 00 00 80 3f 4e fc 7f 3f c7 9d 80 3f 1a d7 7f 3f
       1.0 0.9999436 1.004815 0.99937594
000020 75 c0 7f 3f cf 42 80 3f 63 03 80 3f 47 fc 7f 3f
       0.9990304 1.0020388 1.0001034 0.9999432
000030 8e 11 80 3f b6 f3 7f 3f b2 00 80 3f 43 8e 7f 3f
       1.0005357 0.9998125 1.0000212 0.9982645
000040 ff 49 80 3f 81 fb 7f 3f be 11 80 3f 16 0b 80 3f
       1.0022582 0.9999314 1.0005414 1.0003383
000050 70 49 80 3f 9e 16 80 3f 2e dd 7f 3f d1 ff 7f 3f
       1.0022411 1.0006902 0.9994687 0.9999972
000060 e0 66 80 3f b0 11 80 3f 0c 58 80 3f 00 00 80 3f
       1.0031395 1.0005398 1.002687 1.0
000070 00 00 80 3f a5 aa 7f 3f 00 00 80 3f 00 00 80 3f
       1.0 0.9986976 1.0 1.0

conv_col_to_row.feature_module_final.0.bias f4 [32]
000000 2e f1 7c ba 7f 64 f9 b9 00 00 00 00 97 3f 98 b9
       -0.00096489757 -0.00047567856 0.0 -0.00029039077
000010 00 00 00 00 06 a1 6f b8 9a e6 81 3a e4 3b ef b9
       0.0 -5.7132005e-05 0.0009910644 -0.00045630254
000020 0d 26 22 ba 33 3b d8 3a c7 20 e6 39 a2 7f ba b7
       -0.00061854796 0.0016497135 0.0004389344 -2.2232362e-05
000030 66 9e 43 3a f1 9f 7a ba 05 ac 82 3a 4c c0 5b ba
       0.0007462263 -0.0009560576 0.0009969479 -0.00083828415
000040 1b 78 c6 39 8d 57 de b8 4d 56 50 39 53 63 af 3a
       0.00037854988 -0.000106020925 0.00019868575 0.0013381041
000050 5d 76 cd 3a b5 6a d9 38 04 7a 5d 39 e6 5d af b9
       0.0015675534 0.00010367242 0.00021121657 -0.0003344856
000060 d4 68 3b 3b 4e 60 83 39 04 02 e7 3a 00 00 00 00
       0.0028596418 0.0002505802 0.0017624502 0.0
000070 00 00 00 00 c0 32 c6 ba 00 00 00 00 00 00 00 00
       0.0 -0.0015121326 0.0 0.0
